results/MSE_LSTM_enc_dec_2_layer_output/215_model.pt (torch, 930089 bytes, 18 tensors)

output_zeros f4 [399, 512, 1]
0	0x00000000	0.0
1	0x00000000	0.0
2	0x00000000	0.0
3	0x00000000	0.0
4	0x00000000	0.0
5	0x00000000	0.0
6	0x00000000	0.0
7	0x00000000	0.0
8	0x00000000	0.0
9	0x00000000	0.0
10	0x00000000	0.0
11	0x00000000	0.0
12	0x00000000	0.0
13	0x00000000	0.0
14	0x00000000	0.0
15	0x00000000	0.0
16	0x00000000	0.0
17	0x00000000	0.0
18	0x00000000	0.0
19	0x00000000	0.0
20	0x00000000	0.0
21	0x00000000	0.0
22	0x00000000	0.0
23	0x00000000	0.0
24	0x00000000	0.0
25	0x00000000	0.0
26	0x00000000	0.0
27	0x00000000	0.0
28	0x00000000	0.0
29	0x00000000	0.0
30	0x00000000	0.0
31	0x00000000	0.0
32	0x00000000	0.0
33	0x00000000	0.0
34	0x00000000	0.0
35	0x00000000	0.0
36	0x00000000	0.0
37	0x00000000	0.0
38	0x00000000	0.0
39	0x00000000	0.0
40	0x00000000	0.0
41	0x00000000	0.0
42	0x00000000	0.0
43	0x00000000	0.0
44	0x00000000	0.0
45	0x00000000	0.0
46	0x00000000	0.0
47	0x00000000	0.0
48	0x00000000	0.0
49	0x00000000	0.0
50	0x00000000	0.0
51	0x00000000	0.0
52	0x00000000	0.0
53	0x00000000	0.0
54	0x00000000	0.0
55	0x00000000	0.0
56	0x00000000	0.0
57	0x00000000	0.0
58	0x00000000	0.0
59	0x00000000	0.0
60	0x00000000	0.0
61	0x00000000	0.0
62	0x00000000	0.0
63	0x00000000	0.0
64	0x00000000	0.0
65	0x00000000	0.0
66	0x00000000	0.0
67	0x00000000	0.0
68	0x00000000	0.0
69	0x00000000	0.0
70	0x00000000	0.0
71	0x00000000	0.0
72	0x00000000	0.0
73	0x00000000	0.0
74	0x00000000	0.0
75	0x00000000	0.0
76	0x00000000	0.0
77	0x00000000	0.0
78	0x00000000	0.0
79	0x00000000	0.0
80	0x00000000	0.0
81	0x00000000	0.0
82	0x00000000	0.0
83	0x00000000	0.0
84	0x00000000	0.0
85	0x00000000	0.0
86	0x00000000	0.0
87	0x00000000	0.0
88	0x00000000	0.0
89	0x00000000	0.0
90	0x00000000	0.0
91	0x00000000	0.0
92	0x00000000	0.0
93	0x00000000	0.0
94	0x00000000	0.0
95	0x00000000	0.0
96	0x00000000	0.0
97	0x00000000	0.0
98	0x00000000	0.0
99	0x00000000	0.0
100	0x00000000	0.0
101	0x00000000	0.0
102	0x00000000	0.0
103	0x00000000	0.0
104	0x00000000	0.0
105	0x00000000	0.0
106	0x00000000	0.0
107	0x00000000	0.0
108	0x00000000	0.0
109	0x00000000	0.0
110	0x00000000	0.0
111	0x00000000	0.0
112	0x00000000	0.0
113	0x00000000	0.0
114	0x00000000	0.0
115	0x00000000	0.0
116	0x00000000	0.0
117	0x00000000	0.0
118	0x00000000	0.0
119	0x00000000	0.0
120	0x00000000	0.0
121	0x00000000	0.0
122	0x00000000	0.0
123	0x00000000	0.0
124	0x00000000	0.0
125	0x00000000	0.0
126	0x00000000	0.0
127	0x00000000	0.0
128	0x00000000	0.0
129	0x00000000	0.0
130	0x00000000	0.0
131	0x00000000	0.0
132	0x00000000	0.0
133	0x00000000	0.0
134	0x00000000	0.0
135	0x00000000	0.0
136	0x00000000	0.0
137	0x00000000	0.0
138	0x00000000	0.0
139	0x00000000	0.0
140	0x00000000	0.0
141	0x00000000	0.0
142	0x00000000	0.0
143	0x00000000	0.0
144	0x00000000	0.0
145	0x00000000	0.0
146	0x00000000	0.0
147	0x00000000	0.0
148	0x00000000	0.0
149	0x00000000	0.0
150	0x00000000	0.0
151	0x00000000	0.0
152	0x00000000	0.0
153	0x00000000	0.0
154	0x00000000	0.0
155	0x00000000	0.0
156	0x00000000	0.0
157	0x00000000	0.0
158	0x00000000	0.0
159	0x00000000	0.0
160	0x00000000	0.0
161	0x00000000	0.0
162	0x00000000	0.0
163	0x00000000	0.0
164	0x00000000	0.0
165	0x00000000	0.0
166	0x00000000	0.0
167	0x00000000	0.0
168	0x00000000	0.0
169	0x00000000	0.0
170	0x00000000	0.0
171	0x00000000	0.0
172	0x00000000	0.0
173	0x00000000	0.0
174	0x00000000	0.0
175	0x00000000	0.0
176	0x00000000	0.0
177	0x00000000	0.0
178	0x00000000	0.0
179	0x00000000	0.0
180	0x00000000	0.0
181	0x00000000	0.0
182	0x00000000	0.0
183	0x00000000	0.0
184	0x00000000	0.0
185	0x00000000	0.0
186	0x00000000	0.0
187	0x00000000	0.0
188	0x00000000	0.0
189	0x00000000	0.0
190	0x00000000	0.0
191	0x00000000	0.0
192	0x00000000	0.0
193	0x00000000	0.0
194	0x00000000	0.0
195	0x00000000	0.0
196	0x00000000	0.0
197	0x00000000	0.0
198	0x00000000	0.0
199	0x00000000	0.0
200	0x00000000	0.0
201	0x00000000	0.0
202	0x00000000	0.0
203	0x00000000	0.0
204	0x00000000	0.0
205	0x00000000	0.0
206	0x00000000	0.0
207	0x00000000	0.0
208	0x00000000	0.0
209	0x00000000	0.0
210	0x00000000	0.0
211	0x00000000	0.0
212	0x00000000	0.0
213	0x00000000	0.0
214	0x00000000	0.0
215	0x00000000	0.0
216	0x00000000	0.0
217	0x00000000	0.0
218	0x00000000	0.0
219	0x00000000	0.0
220	0x00000000	0.0
221	0x00000000	0.0
222	0x00000000	0.0
223	0x00000000	0.0
224	0x00000000	0.0
225	0x00000000	0.0
226	0x00000000	0.0
227	0x00000000	0.0
228	0x00000000	0.0
229	0x00000000	0.0
230	0x00000000	0.0
231	0x00000000	0.0
232	0x00000000	0.0
233	0x00000000	0.0
234	0x00000000	0.0
235	0x00000000	0.0
236	0x00000000	0.0
237	0x00000000	0.0
238	0x00000000	0.0
239	0x00000000	0.0
240	0x00000000	0.0
241	0x00000000	0.0
242	0x00000000	0.0
243	0x00000000	0.0
244	0x00000000	0.0
245	0x00000000	0.0
246	0x00000000	0.0
247	0x00000000	0.0
248	0x00000000	0.0
249	0x00000000	0.0
250	0x00000000	0.0
251	0x00000000	0.0
252	0x00000000	0.0
253	0x00000000	0.0
254	0x00000000	0.0
255	0x00000000	0.0

encoder.lstm.weight_ih_l0 f4 [128, 4]
0	0xbf0cccd3	-0.55000037
1	0x3e81cf24	0.25353348
2	0x3ef2f40d	0.4745182
3	0xbe9cf4ac	-0.3065542
4	0x3f408d8d	0.7521599
5	0x3f00c139	0.50294834
6	0x3ee3fcb7	0.44528744
7	0x3e291085	0.16510208
8	0x3ecfa944	0.40558827
9	0x3f816d9d	1.0111576
10	0xbf0ed0f2	-0.55787575
11	0x3d7f80d1	0.06237871
12	0x3e2bab51	0.16764571
13	0x3f356f60	0.7087307
14	0xbe5ac4bd	-0.21364112
15	0x3f3fdcc9	0.74946266
16	0x3f03fc32	0.51556695
17	0xbd2e807d	-0.042603005
18	0x3f243fad	0.6415966
19	0x3cd6cd77	0.02622102
20	0xbebd0924	-0.36921036
21	0x3f84d81d	1.0378453
22	0x3e92b4b8	0.28653502
23	0xbd428218	-0.04748735
24	0xbef2f680	-0.4745369
25	0x3e9e34c1	0.30899623
26	0x3dfecb76	0.12441151
27	0x3eb3e42d	0.35135022
28	0x3f0908dc	0.53529143
29	0x3f1d7cf3	0.6151878
30	0x3e3bf53b	0.18355267
31	0xbc7ce58b	-0.015435587
32	0x3e9a61fa	0.30152875
33	0xbf0719d8	-0.5277381
34	0x3d70db2f	0.05880278
35	0x3e8d6b8a	0.27621108
36	0x3f23eabe	0.64030063
37	0x3f5d3193	0.8640377
38	0x3ee78998	0.45222163
39	0xbf227669	-0.6346193
40	0x3f34ddd4	0.7065098
41	0x3f1f248b	0.62165135
42	0x3f247751	0.6424456
43	0x3e78523e	0.24250123
44	0xbe204c8a	-0.15654197
45	0x3eccaed2	0.39977127
46	0x3eac86ce	0.33696598
47	0x3ec9a793	0.3938566
48	0x400e7aa1	2.2262347
49	0x3fa34ac9	1.2757198
50	0xbe6bc18c	-0.23023051
51	0xbd0e5f13	-0.03475864
52	0x3f987134	1.1909547
53	0x3e405a2a	0.18784395
54	0x3f01b121	0.506609
55	0x3f6596c2	0.89683163
56	0x3f73626e	0.95072067
57	0x3f76d6bc	0.9642141
58	0xbf195a70	-0.5990362
59	0x3ece0da2	0.40244776
60	0x3f062679	0.52402455
61	0x3ef2e67e	0.47441477
62	0x3f90bbfa	1.1307366
63	0x3c71d2de	0.014759747
64	0xbd53bbd4	-0.0516928
65	0x3f253e33	0.64548033
66	0x3f325e8c	0.6967552
67	0x3f0d4e34	0.55197453
68	0xbf1f50f9	-0.6223293
69	0x3ec15a5d	0.37764254
70	0xbdcf0b71	-0.10109604
71	0x3d4c1cda	0.049832202
72	0x3e651fa1	0.22375347
73	0x3dd271b9	0.10275597
74	0x3e906671	0.28203157
75	0x3e52b68b	0.20577447
76	0x3dca2428	0.098701775
77	0x3f55c3ee	0.8350209
78	0x3ebdcefb	0.37071976
79	0x3e8f13ab	0.27944693
80	0x40245c17	2.5681207
81	0x3f8e1e2a	1.1102955
82	0x3f2f26ac	0.68418384
83	0x3f3f820f	0.7480783
84	0x3f2b8ee6	0.6701492
85	0x3ebfded7	0.374747
86	0x3f2767f8	0.6539302
87	0x3f8ddb82	1.1082613
88	0x3f2b3998	0.66884756
89	0x3ea07492	0.31338936
90	0xbdeb31cc	-0.114841074
91	0xbe8d0c35	-0.27548376
92	0x3ef29614	0.47380126
93	0x3f02efa1	0.51146895
94	0x3eeaecbb	0.45883736
95	0x3f07bff8	0.53027296
96	0x3dfd2e25	0.12362317
97	0x3e2d6aa6	0.16935214
98	0xbe3edac8	-0.18638146
99	0x3de2a0fc	0.110658616
100	0x3e0dfb52	0.13865402
101	0x3f76ee46	0.96457326
102	0xbddcc8e8	-0.10780507
103	0x3e08170f	0.13290046
104	0xbf1cf282	-0.6130754
105	0x3f569201	0.83816534
106	0x3f01142d	0.5042141
107	0x3ec0a6af	0.3762717
108	0xbe1a7020	-0.15081835
109	0xbd8d3872	-0.06895532
110	0xbe3ced55	-0.1844991
111	0x3e94555b	0.2897137
112	0x3f390d21	0.7228566
113	0x3f074466	0.5283874
114	0x3f670fe0	0.902586
115	0x3f1eeb69	0.6207796
116	0x3e122a84	0.14274031
117	0x3f716f02	0.9431001
118	0x3fa6772e	1.3005121
119	0x3f8c570e	1.0964067
120	0x3da2c3e9	0.07947523
121	0xbc0d9d70	-0.008643493
122	0xbe6dcedb	-0.2322344
123	0x3ee094aa	0.43863422
124	0x3f6a6cd1	0.9157229
125	0x3f8c3a9e	1.0955389
126	0x3f3f38bc	0.74695945
127	0x3f8db0ea	1.1069615
128	0xbd9c6aca	-0.07637556
129	0xbf0ce781	-0.55040747
130	0x3f623883	0.8836748
131	0xbd94e1d0	-0.07269633
132	0x3e19eba4	0.15031296
133	0xbe80ca5e	-0.25154394
134	0x3edd1eaf	0.43187472
135	0xbd2e2e21	-0.04252446
136	0x3dba9e88	0.09112269
137	0x3ec63e1a	0.38719255
138	0xbf5cd498	-0.8626189
139	0x3f2f76e5	0.68540794
140	0x3ebc7d4f	0.36814353
141	0x3f501e0f	0.81295866
142	0xbe846c70	-0.2586398
143	0x3f0d7f02	0.55271924
144	0x3f894b53	1.0726112
145	0xbe799766	-0.2437416
146	0xbec83a98	-0.39107203
147	0xbed0d4f6	-0.40787476
148	0x3edea443	0.43484697
149	0x3e655087	0.22394
150	0x3e7f87df	0.24954174
151	0xbdd05221	-0.10171915
152	0xbec99fe1	-0.3937979
153	0x3f0ad7ab	0.54235333
154	0xbe0e87f2	-0.13919047
155	0x3f4b7bff	0.7948608
156	0x3f4e6b23	0.8063223
157	0xbec1555b	-0.37760434
158	0xbf59eb54	-0.8512471
159	0xbdcc725e	-0.09982751
160	0x3f682b5f	0.9069118
161	0x3e19334a	0.14960971
162	0x3ea36950	0.31916285
163	0x3efa555d	0.48893252
164	0xbfa25395	-1.2681757
165	0x3cdcf9ae	0.026974525
166	0x3f02e0ed	0.5112446
167	0xbfde4502	-1.736481
168	0x3ee2d31c	0.4430169
169	0xbeaddd0a	-0.33957702
170	0x3f3d271b	0.73887795
171	0xbd446f69	-0.04795781
172	0x3f2f20ce	0.6840943
173	0xbe21c8cf	-0.15799259
174	0xbb2adfba	-0.0026073293
175	0xbd53a841	-0.05167413
176	0x3f415095	0.75513583
177	0x3dceb4dd	0.10093091
178	0xbf2e8e5e	-0.68185985
179	0x3f1c374c	0.61021876
180	0x3f6d84c6	0.9278072
181	0x3d58bd58	0.052914947
182	0xbd42bcc3	-0.0475433
183	0x3ecad2cc	0.3961395
184	0x3d97caf8	0.0741176
185	0x3f298492	0.6621791
186	0xbf5d785a	-0.86511767
187	0x3fa033d8	1.2515821
188	0x3e8d57a9	0.27605942
189	0x3f924d0e	1.1429765
190	0x3f6284f8	0.88484144
191	0x3ed53dcc	0.4164871
192	0x3c10584a	0.008810112
193	0x3f67537a	0.9036175
194	0x3cf4796d	0.029843057
195	0xbe1a3b11	-0.15061595
196	0xbf171d8f	-0.5902948
197	0x3ea37f1a	0.31932908
198	0xbf1fd878	-0.6243968
199	0x3e882508	0.26590753
200	0xbe00cc51	-0.1257794
201	0x3e4eec65	0.20207365
202	0x3b65b7ee	0.0035052258
203	0xbe8c4c57	-0.27401993
204	0xbf844078	-1.0332174
205	0x3e959959	0.29218557
206	0x3ea344f0	0.31888533
207	0xbe962c50	-0.29330683
208	0x401d25e3	2.4554374
209	0xbde38cde	-0.11110853
210	0xbfd58d0e	-1.6683671
211	0x3e04ab0a	0.12955871
212	0x3f6c06d3	0.9219791
213	0x3d57c4b3	0.05267782
214	0x3f37253f	0.7154121
215	0x3f8c9485	1.0982825
216	0xbf785bfa	-0.97015345
217	0x3f4e4375	0.8057168
218	0xbf46c052	-0.7763721
219	0xbf5db547	-0.8660473
220	0x3ddf9b2e	0.1091827
221	0xbb12b401	-0.0022385123
222	0x3eed20f8	0.46314216
223	0x3f51321e	0.817171
224	0xbe2fb268	-0.171579
225	0x3dd09f4e	0.10186635
226	0x3e23d554	0.15999347
227	0xbeb52c5c	-0.35385406
228	0x3ee0b7cf	0.43890235
229	0x3f3eeda5	0.74581367
230	0xbd90ed0a	-0.070764616
231	0xbe67ca46	-0.22635755
232	0xbc88ee62	-0.016715232
233	0x3ee6f2d3	0.45107135
234	0xbf29b478	-0.66291
235	0xbed7c497	-0.42142174
236	0x3e8d6486	0.27615756
237	0xbd37e707	-0.04489806
238	0xbe81b195	-0.25330797
239	0x3eba5908	0.3639605
240	0x3f99962a	1.1998951
241	0x4007a867	2.1196535
242	0x3f801f83	1.0009617
243	0x3ed88bc6	0.4229414
244	0x3f877c3a	1.0584786
245	0x3fa5af8f	1.2944201
246	0xbee68e03	-0.4503022
247	0x3f50a58b	0.815026
248	0xbf164356	-0.58696496
249	0x3f4ce2fd	0.80033857
250	0xbedd6611	-0.43241933
251	0x3e730279	0.23731412
252	0x400ce548	2.2014942
253	0x4019265f	2.392967
254	0x3faf1586	1.3678443
255	0x3fcc6cdf	1.5970725

encoder.lstm.weight_hh_l0 f4 [128, 32]
0	0xbe4cbe74	-0.19994527
1	0x3bb6bcc5	0.0055767023
2	0x3e1c05e6	0.15236625
3	0x3db7b106	0.089693114
4	0xbd1a6296	-0.037691675
5	0x3e772382	0.24134639
6	0xbc64c446	-0.013962811
7	0x3e85f511	0.26163533
8	0x3de59d34	0.11211625
9	0xbd4ebf8c	-0.050475642
10	0xbd5f79b7	-0.054559436
11	0xbbda42ef	-0.006660811
12	0x3dd1edd6	0.10250442
13	0xbd15b3d6	-0.036548458
14	0x3d964a2d	0.07338367
15	0xbe1c2142	-0.15247062
16	0x3f0dc0e3	0.55372447
17	0xbd36cb72	-0.044627614
18	0x3e470b61	0.19437934
19	0x3c924466	0.01785488
20	0xbf0513cb	-0.51983327
21	0x3e3c1fd3	0.18371515
22	0x3e44b554	0.19209796
23	0xbe87a935	-0.26496282
24	0x3e2e8bf0	0.1704557
25	0x3db8ad6f	0.09017455
26	0xbdcbc3f0	-0.099494815
27	0xbcfcb612	-0.030848537
28	0x3e21fd9d	0.15819402
29	0x3e5983af	0.2124164
30	0xbeb5dd13	-0.3552023
31	0xbd805f04	-0.06268123
32	0x3e55da4a	0.20884052
33	0x3eb25c5d	0.34836093
34	0xbe1df752	-0.15426376
35	0xbea87142	-0.3289891
36	0xbf27929b	-0.6545808
37	0x3ea97ea8	0.33104444
38	0x3e288a54	0.16459018
39	0x3d863f77	0.06555074
40	0xbd94c93e	-0.072649464
41	0x3cb4c22e	0.022065248
42	0xbe2115b6	-0.15730938
43	0x3db40127	0.08789282
44	0xbe5ca1c2	-0.2154608
45	0x3dbc4a7a	0.09193893
46	0xbe2f7944	-0.17136103
47	0x3e043b56	0.1291326
48	0x3db5bcef	0.08873927
49	0xbe91d240	-0.2848072
50	0xbcd967ec	-0.026538812
51	0xbcc0ef6e	-0.023551669
52	0x3eb70e83	0.3575326
53	0xbdfd627d	-0.12372301
54	0xbe2354bd	-0.15950294
55	0xbe320fb9	-0.1738881
56	0xbceac08e	-0.02865627
57	0xbc68bb76	-0.01420485
58	0xbe1f811f	-0.155766
59	0x3e310fa6	0.17291126
60	0x3dda01b6	0.106448576
61	0x3e683b29	0.22678818
62	0xbce342cf	-0.027741818
63	0xbd9e4a65	-0.077290334
64	0xbeb4a438	-0.3528154
65	0x3e53df17	0.20690571
66	0xbd478238	-0.04870817
67	0x3e3a3459	0.18184032
68	0x3d6638d4	0.05620654
69	0xbdb9526f	-0.09048926
70	0xbc6050a6	-0.013691103
71	0x3e8baa18	0.2727821
72	0x3e8f2371	0.27956727
73	0xbcecc837	-0.028904064
74	0x3df2e21d	0.11859534
75	0xbdc7cb62	-0.09755589
76	0xbc905ac1	-0.0176214
77	0xbe3d26a4	-0.18471771
78	0x3e062876	0.13101372
79	0xbdcf51aa	-0.10122998
80	0x3e9615e4	0.29313576
81	0x3cc7a580	0.024370909
82	0xbd5a8d44	-0.053357378
83	0x3dd85aec	0.10564217
84	0xbdff9a99	-0.12480659
85	0x3d845015	0.06460587
86	0x3e308184	0.17236906
87	0x3d4d091c	0.050057516
88	0x3c48ef01	0.012264014
89	0xbd6636ac	-0.056204483
90	0x3e4513b5	0.19245799
91	0xbace71e9	-0.0015750501
92	0x3dd6585b	0.10466071
93	0x3e678323	0.22608618
94	0xbe38b1bc	-0.1803655
95	0x3d93cef5	0.07217208
96	0xbf3aea04	-0.7301333
97	0x3e5ee99e	0.21768805
98	0x3e76133d	0.24030776
99	0x3e677e13	0.22606687
100	0xbd888d08	-0.066675246
101	0x3c302e75	0.010753264
102	0xbbf392eb	-0.0074332855
103	0xbd9388b4	-0.072038084
104	0x3e0438c2	0.12912276
105	0xbdecdbd4	-0.115653664
106	0xbd11b9d7	-0.03557762
107	0x3dd74bdb	0.10512515
108	0x3b6d20a7	0.0036182792
109	0xbd315685	-0.043295402
110	0x3e94fa8d	0.29097405
111	0x3ecf7430	0.40518332
112	0x3ca11672	0.019664023
113	0x3db8c3c9	0.09021718
114	0x3de7c177	0.11316197
115	0x3e116c07	0.14201365
116	0xbdf6fe30	-0.12060201
117	0x3d434ab5	0.047678668
118	0x3ce86694	0.028369226
119	0x3be210a1	0.006898955
120	0xbe36ba34	-0.17844468
121	0xbe8edbc2	-0.27902037
122	0xbe264951	-0.16238905
123	0xbccfb938	-0.025356874
124	0xbe07a535	-0.13246615
125	0x3e047062	0.12933496
126	0xbe5b2c9b	-0.21403734
127	0xbe05b7b2	-0.13058355
128	0xbedca3c3	-0.4309369
129	0xbb19a9d6	-0.0023447177
130	0x3eb56bef	0.3543391
131	0xbca3985b	-0.01997011
132	0xbe82decb	-0.25560603
133	0x3f227c9c	0.6347139
134	0x3dfb2c29	0.12264282
135	0xbef7f0df	-0.48425958
136	0x3f07d297	0.5305571
137	0x3c60fd7e	0.013732312
138	0xbe9a0b29	-0.3008664
139	0xbe6198e4	-0.2203098
140	0x3e82d277	0.25551197
141	0x3dc15a28	0.09441024
142	0x3e3648c4	0.17801195
143	0x3edc64a8	0.43045545
144	0xbe1f321e	-0.15546462
145	0xbee935d8	-0.45548892
146	0x3e58f8e0	0.21188688
147	0xbe5d0dd3	-0.21587305
148	0xbda47f62	-0.08032109
149	0xbe121c39	-0.14268579
150	0xbdcbc758	-0.09950131
151	0x3ca8d243	0.020608073
152	0x3e9f7c9b	0.31149754
153	0xbe9abdfc	-0.30223072
154	0xbdf7e73f	-0.121046536
155	0x3ebb3623	0.3656474
156	0x3d0e11b7	0.034684863
157	0x3ba13fae	0.0049209213
158	0xbe4e1c5d	-0.20128007
159	0xbd294858	-0.041328758
160	0xbed03bea	-0.4067071
161	0xbe34a26c	-0.17640084
162	0x3d29120e	0.041276984
163	0x3e29f364	0.16596752
164	0x3e714742	0.23562339
165	0x3d9f09dd	0.07765553
166	0xbd0ec065	-0.03485145
167	0xbe676eae	-0.22600815
168	0xbd3c7687	-0.046011474
169	0xbe21bfb9	-0.15795793
170	0x3ddeb40f	0.10874187
171	0x3e1b1da9	0.15148033
172	0xbe25c16b	-0.16187064
173	0x3ebd2370	0.369411
174	0x3ccc6b29	0.024953442
175	0xbd620210	-0.05517775
176	0x3f1770a0	0.5915623
177	0xbe27e986	-0.16397676
178	0x3dd954d9	0.106118865
179	0x3da69fce	0.08135949
180	0xbe4ca836	-0.19986042
181	0x3e98f9b7	0.29878017
182	0x3e3a0007	0.18164073
183	0x3e2bf1c3	0.16791444
184	0x3cd29799	0.025707053
185	0x3e2aa93f	0.16666125
186	0xbedf8418	-0.43655467
187	0x3dc54d31	0.09633864
188	0x3e1c596a	0.15268484
189	0x3ec583e3	0.38577184
190	0x3df0851e	0.1174414
191	0xbaf693e5	-0.0018812387
192	0xbee7407c	-0.45166385
193	0xbdf6ec2d	-0.12056766
194	0xbcb7cc93	-0.022436416
195	0x3e1daf57	0.15398918
196	0xbd8ab6c9	-0.06773145
197	0xbe041c52	-0.12901428
198	0xbe30b711	-0.17257334
199	0xbe631183	-0.22174649
200	0x3e6b2e1d	0.2296681
201	0xbd9f8539	-0.07789082
202	0x3e00abe7	0.12565576
203	0xbd5901ab	-0.052980106
204	0x3d0a1d03	0.033719074
205	0xbeecc11f	-0.4624109
206	0x3d0e1882	0.03469134
207	0xbda7f947	-0.08201843
208	0x3e8083b1	0.25100473
209	0xbe301fb6	-0.17199597
210	0xbd53c9aa	-0.051705994
211	0xbe33f57f	-0.17574118
212	0xbe7dcfe0	-0.2478633
213	0x3d2c1610	0.042013228
214	0x3ce320de	0.027725633
215	0x3e020496	0.12697062
216	0xbdfb3452	-0.12265839
217	0xbeba2e29	-0.36363342
218	0xbd7a68b0	-0.061134994
219	0xbde6b650	-0.11265242
220	0x3e04fe8c	0.12987727
221	0x3e9e88ad	0.3096365
222	0x3db2d96f	0.087328784
223	0xbdaf999c	-0.085742205
224	0xbdb2d138	-0.087313116
225	0x3e435c26	0.1907812
226	0x3ea15877	0.31512806
227	0xbe9d4a2b	-0.30720648
228	0xbf0bd54d	-0.54622346
229	0x3e9b8670	0.30376005
230	0xbe685e86	-0.22692308
231	0xbd5629d2	-0.052285977
232	0xbd33b4f5	-0.043873746
233	0x3fac2e01	1.3451539
234	0x3e994905	0.29938522
235	0xbe9852ae	-0.2975058
236	0x3eab1d63	0.33420858
237	0xbe8b2770	-0.27178526
238	0x3df3549e	0.11881374
239	0x3e266a28	0.16251433
240	0xbe66a218	-0.22522771
241	0xbe525700	-0.20541
242	0x3ea5894c	0.32331312
243	0x3edf58ac	0.4362234
244	0x3f1e24ff	0.617752
245	0xbf2621c1	-0.64895254
246	0x3efb4333	0.49074706
247	0x3e4dd0a6	0.20099124
248	0x3f000cb6	0.50019395
249	0xbec51823	-0.38494977
250	0x3f38a626	0.7212852
251	0x3e8b7f8c	0.27245748
252	0xbe2c4072	-0.16821459
253	0x3edece0e	0.43516582
254	0xbe965fdd	-0.29370013
255	0xbe07ce8b	-0.13262384

encoder.lstm.bias_ih_l0 f4 [128]
0	0xbd92c7ce	-0.07167016
1	0x3e153f81	0.14575006
2	0x3d6e2d2a	0.05814854
3	0x3ce7a1cc	0.028275393
4	0x3d613ea8	0.054991394
5	0x3a969bcb	0.0011490522
6	0x3d9d8f09	0.076932974
7	0xbe3e02bd	-0.18555732
8	0xbd4ef58e	-0.050527148
9	0x3eb931a4	0.36170685
10	0xba2c98c4	-0.0006584043
11	0xbe046e6e	-0.1293275
12	0xbe17b323	-0.14814429
13	0x3c31c5ce	0.010850383
14	0x3e1ee2a7	0.15516149
15	0x3f05294b	0.52016133
16	0x3e371eea	0.17882887
17	0x3d72257c	0.05911778
18	0x3e180ee4	0.1484943
19	0x3dc37106	0.09543042
20	0x3d2ac235	0.041689117
21	0x3d872117	0.06598108
22	0x3e1fda3c	0.15610594
23	0x3c53984d	0.012914729
24	0x3e4b7e2e	0.19872352
25	0x3e2edcbe	0.17076394
26	0x3eb362cd	0.35036317
27	0x3d86817b	0.06567665
28	0xbe568472	-0.20948961
29	0xbe787558	-0.24263513
30	0x3c23bffe	0.009994505
31	0x3e4f28d8	0.20230424
32	0x3dec4102	0.11535837
33	0x3ca400f2	0.020019982
34	0xbb9f5171	-0.0048620035
35	0x3dc8d0f6	0.09805481
36	0x3e77c6a7	0.24196874
37	0x3d9847f3	0.07435598
38	0x3c92f680	0.017939806
39	0x3b7ca706	0.0038551702
40	0x3e1f8b1d	0.15580411
41	0xbbbc1884	-0.005740227
42	0xbdbb5f11	-0.09148992
43	0x3d47ad0b	0.04874901
44	0x3cb7cd9d	0.022436911
45	0x3e282268	0.16419375
46	0x3e97bc35	0.29635778
47	0x3e951f88	0.2912562
48	0x3d7d357c	0.061818585
49	0xbc5798ad	-0.013158959
50	0x3e2c4aea	0.16825452
51	0x3c68b008	0.014202125
52	0x3e1805ef	0.14846013
53	0x3dad8c16	0.08473985
54	0x3d3e3672	0.04643864
55	0xbe1bbd4d	-0.15208931
56	0x3da30f94	0.07961956
57	0xbc924ae2	-0.017857973
58	0x3dc62c2b	0.09676393
59	0x3e013dfe	0.12621304
60	0x3d8b99ca	0.06816442
61	0x3de41041	0.11135913
62	0x3dc76626	0.0973628
63	0x3f2d6a64	0.67740464
64	0x3b464f3a	0.0030259625
65	0xbd8e251b	-0.06940671
66	0xbd04e575	-0.03244539
67	0xbe482a1c	-0.19547313
68	0xbd23fc7c	-0.04003571
69	0x3d8f9ff0	0.070129275
70	0x3e1fdcb2	0.15611532
71	0x3bd56858	0.006512683
72	0xbe0688e2	-0.13138154
73	0x3c88c4ba	0.016695369
74	0x3e562057	0.20910774
75	0x3dd5db73	0.10442247
76	0xbe1111dd	-0.1416697
77	0xbd02a5d1	-0.031896416
78	0xbd1090ca	-0.03529433
79	0x3b2a29c4	0.0025964836
80	0xbe362948	-0.17789185
81	0x3e5051dd	0.20343728
82	0xbdb6aca4	-0.08919647
83	0xbcadcd06	-0.021215927
84	0xbda1180f	-0.07865917
85	0x3e7b9507	0.24568568
86	0xbcebde4a	-0.02879252
87	0x3c154fcc	0.009113263
88	0xbda39bfd	-0.07988737
89	0x3dce2910	0.10066426
90	0x3e18cf95	0.14922936
91	0x3c92b646	0.01790918
92	0x3e10628f	0.14100097
93	0xbd5bdc83	-0.053677093
94	0x3e03aa82	0.12858012
95	0x3deb014a	0.11474855
96	0x3e889038	0.2667253
97	0x3e331dde	0.17491862
98	0x3d15fefe	0.036620133
99	0xbdde29d4	-0.10847822
100	0x3e08e63e	0.1336908
101	0x3e228c28	0.15873778
102	0xbe068955	-0.13138326
103	0x3e8e13b4	0.27749407
104	0xbd0e4bc2	-0.034740217
105	0x3c738a90	0.014864579
106	0xbe1fe964	-0.15616375
107	0xbddd4133	-0.108034514
108	0x3dd1e6dc	0.10249111
109	0x3dc643bd	0.09680889
110	0x39c29441	0.0003711302
111	0x3e44934b	0.19196813
112	0x3e015949	0.12631716
113	0xbdfc442a	-0.12317689
114	0xbd5afa0a	-0.053461112
115	0x3e863335	0.26210943
116	0x3eb33ab1	0.35005715
117	0x3e8eb5b3	0.27873
118	0x3eb2ec1f	0.3494577
119	0x3dceda6f	0.10100257
120	0x3caeba36	0.021329027
121	0xbdc27486	-0.09494881
122	0x3eabd42b	0.3356031
123	0xbd209082	-0.039200313
124	0xbcabf357	-0.020990057
125	0x3de6150c	0.11234483
126	0x3ca7a650	0.020465046
127	0xbdae7a33	-0.085194014

encoder.lstm.bias_hh_l0 f4 [128]
0	0xbb98052d	-0.004639289
1	0xbd84c8ad	-0.06483588
2	0xbe14df1f	-0.14538239
3	0x3d391fcc	0.04519634
4	0x3d8581c7	0.06518894
5	0xbaaf4f32	-0.0013375042
6	0xbd9fb4ba	-0.07798143
7	0xbdcf8222	-0.10132243
8	0xbd36484b	-0.044502538
9	0x3e0c54ed	0.13704272
10	0x3c819134	0.015816309
11	0xbd8a6e4c	-0.06759319
12	0xbdd2a328	-0.10285026
13	0x3cd01a4a	0.02540316
14	0x3c513294	0.012768406
15	0x3ef971e0	0.48719692
16	0x3e694731	0.22781064
17	0xbd746684	-0.05966808
18	0x3ea61c0d	0.32443276
19	0x3de87a46	0.11351447
20	0x3db87e1d	0.09008429
21	0x3e39c42a	0.18141237
22	0x3e3d55c4	0.18489748
23	0x3c4f6e47	0.0126605695
24	0x3e2cd982	0.16879848
25	0x3d73099b	0.059335332
26	0x3ee4aca3	0.4466296
27	0x3e34f073	0.17669849
28	0xbe894775	-0.2681233
29	0xbe85cfb9	-0.26135042
30	0x3d6a31dc	0.057176456
31	0x3e98efad	0.29870358
32	0x3e062aa2	0.131022
33	0x3b80afc6	0.003927204
34	0xbdda1bda	-0.106498435
35	0x3e2e6cf0	0.17033744
36	0x3e2cc889	0.16873373
37	0x3dedbadf	0.116079085
38	0x3c7893dc	0.015171971
39	0x3d75b592	0.059987612
40	0x3e3bfde0	0.18358564
41	0x3d823faf	0.06359803
42	0xbdc01538	-0.09379047
43	0xbe0572c2	-0.13032058
44	0xbc00d702	-0.007863762
45	0xbd5f1317	-0.054461565
46	0x3e8299f9	0.25508097
47	0x3df60a1d	0.12013648
48	0xbc6a9119	-0.014316821
49	0x3cca6457	0.024706049
50	0x3e0547c3	0.13015656
51	0x3ab9d733	0.0014178514
52	0x3e6e41a4	0.23267227
53	0x3db4cef6	0.08828537
54	0xbc308e80	-0.010776162
55	0xbde25bf4	-0.11052695
56	0x3d38cae1	0.045115355
57	0x3dfbb72e	0.12290798
58	0x3cae95fa	0.021311749
59	0x3e478233	0.19483261
60	0x3e2418e2	0.16025117
61	0x3d4dbfcc	0.05023174
62	0x3e84949b	0.25894627
63	0x3f1b085a	0.6055962
64	0x3db7460c	0.08948907
65	0xbd3a2548	-0.04544571
66	0xbe1147c4	-0.14187533
67	0xbe076104	-0.13220602
68	0xbd4fde19	-0.05074892
69	0xbde76335	-0.11298219
70	0x3df202a6	0.118169114
71	0x3dc5a6d9	0.09650964
72	0xbdab4bb3	-0.08364048
73	0x3afe0460	0.0019379966
74	0x3cc77d7b	0.024351826
75	0x3e3de94b	0.18546025
76	0xbd782b90	-0.06058842
77	0xbdb33553	-0.08750405
78	0xbe225e69	-0.15856327
79	0xbdfd4048	-0.12365776
80	0xbc631ec2	-0.013862314
81	0x3e56c9a3	0.20975356
82	0xbddc61db	-0.10760852
83	0xbdc95e14	-0.09832397
84	0x3e00285a	0.12515393
85	0x3e35f231	0.1776817
86	0x3e116fcd	0.14202805
87	0xbd7d6786	-0.061866306
88	0xbd3ba1d7	-0.04580864
89	0x3e0bf1ff	0.13666533
90	0x3e3760bf	0.17908
91	0x3daef68e	0.0854312
92	0x3e0e2816	0.13882479
93	0xbcb372f1	-0.021905394
94	0x3d705432	0.058674045
95	0x3d584dee	0.052808695
96	0x3e695f60	0.22790289
97	0x3e0b7e5b	0.1362242
98	0x3e02d7d9	0.12777652
99	0xbdb1cb4e	-0.086813554
100	0x3ce400f2	0.027832482
101	0x3e223a1b	0.15842478
102	0xbd341067	-0.043960955
103	0x3eaaf96d	0.33393422
104	0x3e09577b	0.13412277
105	0x3c7489b4	0.014925409
106	0xbe17d1f1	-0.1482618
107	0xbe0962a0	-0.13416529
108	0x3d151c03	0.036403667
109	0x3e285fdf	0.16442822
110	0xbba99fc5	-0.0051765167
111	0x3e4ae17b	0.19812576
112	0x3db32e76	0.08749096
113	0xbde25a24	-0.11052349
114	0x3d19ee94	0.03758104
115	0x3e234abf	0.15946482
116	0x3eae8c69	0.340915
117	0x3db76fec	0.08956894
118	0x3e985eba	0.2975977
119	0x3da56cd0	0.08077395
120	0x3d9b36df	0.07578825
121	0xba99e325	-0.0011740668
122	0x3e5d8c54	0.21635562
123	0x3ca61e65	0.020278165
124	0xbdf4dd15	-0.119562306
125	0x3a03c5cd	0.0005026728
126	0x3d985bca	0.074393824
127	0xbdd6a149	-0.104799815

encoder.lstm.weight_ih_l1 f4 [128, 32]
0	0xbde1887c	-0.110123605
1	0x3ec1e8bc	0.37872875
2	0xbe5b6c0d	-0.21427937
3	0x3e5f8773	0.21829014
4	0x3d07f8e8	0.03319636
5	0x3bff5eb7	0.0077932733
6	0x3c7377b3	0.0148600815
7	0x3ee24a5b	0.44197354
8	0x3effd45b	0.49966702
9	0x3ea6a16c	0.3254503
10	0x3d865650	0.065594316
11	0xbde60cb7	-0.11232894
12	0xbe9403f6	-0.28909272
13	0x385449b9	5.06134e-05
14	0xbe8df16b	-0.2772325
15	0xbcce62bb	-0.025193563
16	0xbdc42d1d	-0.09578917
17	0x3c45ca25	0.012072121
18	0x3cbf9da1	0.023390593
19	0x3dbb2ea5	0.09139756
20	0xbe3347da	-0.17507878
21	0x3e32028f	0.17383789
22	0x3de301a8	0.110843
23	0xbd122069	-0.03567544
24	0x3e15d5e8	0.1463238
25	0x3deef6c2	0.11668159
26	0x3f4c6335	0.7983888
27	0xbd5aa70b	-0.05338196
28	0x3e559ef7	0.20861422
29	0xbe6517ac	-0.22372311
30	0xbd716caf	-0.05894154
31	0xbe01f662	-0.12691644
32	0xbd534e1a	-0.051588155
33	0x3e02825b	0.12745039
34	0x3eb34fef	0.35021922
35	0x3de28bde	0.11061834
36	0xbe134451	-0.1438153
37	0x3dfa6b77	0.122275285
38	0xbe0e8122	-0.13916448
39	0xbf1bc3a8	-0.6084542
40	0xbe53bfde	-0.2067866
41	0x3ca48d64	0.020086952
42	0x3de876de	0.11350797
43	0x3d858a50	0.06520522
44	0xbe13d3a0	-0.14436197
45	0xbb5c1b97	-0.003358578
46	0x3d90107a	0.07034393
47	0x3e203294	0.15644294
48	0x3ecb8677	0.39751026
49	0xbe65307c	-0.22381777
50	0x3df4b6cb	0.119489275
51	0x3e0df6ee	0.13863727
52	0x3ebc5b4c	0.36788404
53	0xbdefd762	-0.11711003
54	0xbe6e3ce7	-0.2326542
55	0x3e59802c	0.212403
56	0xbc99a0c2	-0.018753413
57	0x3d6721bb	0.056428652
58	0xbf40129b	-0.7502839
59	0x3e31cee0	0.17364073
60	0xbc979243	-0.01850236
61	0x3e2f2edb	0.17107718
62	0x3d6b55e1	0.057454947
63	0x3deb7efd	0.114988305
64	0xb71c8620	-9.329553e-06
65	0xbcc2c84f	-0.023777155
66	0x3daee838	0.08540386
67	0x3c50e7b0	0.012750551
68	0xbda7c6bc	-0.081922024
69	0x3e9f1da9	0.31077316
70	0xbcd8a09f	-0.026443778
71	0xbea3d329	-0.3199704
72	0xbde00cbd	-0.1093993
73	0x3e080dae	0.13286468
74	0xbcdb57af	-0.02677521
75	0xbd27a2ad	-0.040926624
76	0xbeb6af73	-0.35680732
77	0xbed2b8c7	-0.411566
78	0x3d3f2b9e	0.046672456
79	0x3dc49c8d	0.09600172
80	0xbdafa0a7	-0.08575564
81	0xbe0ead3b	-0.1393327
82	0x3e05916e	0.13043758
83	0xbd87a82f	-0.06623875
84	0x3d56d3e1	0.052448157
85	0x3cd13579	0.025538193
86	0x3db9efbf	0.09078931
87	0xbe4b4b6a	-0.19852987
88	0x3c0c6cdf	0.008570879
89	0xbc7d49e4	-0.015459511
90	0x3e9b0085	0.30273834
91	0x3e9bbfca	0.3041976
92	0xbe4fefa1	-0.20306255
93	0x3d820dc5	0.063502826
94	0xbe38fc1e	-0.18064925
95	0xbe25ae80	-0.16179848
96	0x3e2bacbc	0.16765112
97	0xba48f6b5	-0.0007666157
98	0xbc962bb5	-0.018331388
99	0xbeb9d803	-0.36297616
100	0xbc59161b	-0.013249899
101	0xbe3f0ef5	-0.1865805
102	0x3e6db827	0.2321478
103	0x3d6575d3	0.05602057
104	0x3e050612	0.12990597
105	0x3e0549fc	0.13016504
106	0xbe8c8091	-0.27441838
107	0x3e08de73	0.13366108
108	0xbe76528a	-0.24054924
109	0x3e0f2005	0.13977058
110	0x3d6adfa6	0.057342194
111	0x3cbca682	0.023028616
112	0xbf1be140	-0.6089058
113	0x3e67198b	0.22568338
114	0xbdfff18d	-0.12497244
115	0xbe817925	-0.25287738
116	0x3f24e2e9	0.6440874
117	0x3dfa5758	0.12223691
118	0x3d4d5203	0.05012704
119	0x3e3007ea	0.17190519
120	0xbe19511b	-0.14972346
121	0x3e7db859	0.24777354
122	0x3e75c1ee	0.2399976
123	0x3b1d937d	0.0024044209
124	0xbebc591f	-0.36786744
125	0xbe916ffc	-0.2840575
126	0xbdcec66b	-0.10096439
127	0x3e1999ad	0.15000029
128	0xbeacb753	-0.33733615
129	0xbd348617	-0.04407319
130	0x3d2e3031	0.042526428
131	0xbda3a0ce	-0.079896554
132	0xbe6acf6f	-0.22930692
133	0xbcd1a88f	-0.02559307
134	0x3c2f004c	0.010681223
135	0x3de2f2fc	0.11081502
136	0x3e9986b7	0.29985592
137	0x3ee25b8a	0.44210464
138	0x3da9ed89	0.08297259
139	0xbe7e8696	-0.24856028
140	0x3e27a7d3	0.16372614
141	0xbeefe305	-0.4685289
142	0x3e8c6898	0.2742355
143	0x3dc286f8	0.094983995
144	0xbec12c5a	-0.3772915
145	0xbeb85834	-0.36004794
146	0x3e9e4972	0.3091541
147	0xbed721b6	-0.42017907
148	0xbf0175ab	-0.5057017
149	0xbd9f3fc2	-0.07775833
150	0x3f8243ba	1.0176919
151	0x3ecdc5dd	0.4019002
152	0x3e972d3f	0.29526708
153	0xbc809432	-0.015695665
154	0x3ea2dc09	0.31808499
155	0x3e576b18	0.21036947
156	0xbe8b9497	-0.27261803
157	0xbda86cf9	-0.0822391
158	0xbe93b25a	-0.2884701
159	0xbe636ed3	-0.22210245
160	0xbe0947da	-0.13406315
161	0x3d99008e	0.07470809
162	0xbd10b6c2	-0.03533054
163	0xbd904c1b	-0.07045766
164	0x3e7dcfa9	0.24786247
165	0xbeb361b9	-0.35035494
166	0x3e671300	0.22565842
167	0xbe8da499	-0.2766464
168	0xbea6b6fd	-0.32561484
169	0xbe51f9ef	-0.20505498
170	0xbdcecec5	-0.10098032
171	0x3e881467	0.26578066
172	0x3d5d168a	0.053976573
173	0xbccd499f	-0.02505952
174	0xbdd39eb4	-0.103330046
175	0xbdb0981e	-0.08622764
176	0xbe24be3a	-0.1608819
177	0x3ea58feb	0.32336363
178	0xbbe70fd4	-0.0070514474
179	0xbda711af	-0.0815767
180	0xbe291f1d	-0.16515775
181	0x3ea871e6	0.32899398
182	0xbe5581ad	-0.20850249
183	0xbe00ddca	-0.12584606
184	0xbe11b602	-0.14229587
185	0xbcd0535e	-0.025430378
186	0xbe065f97	-0.13122402
187	0x3e243cfe	0.16038892
188	0x3d9c148f	0.07621109
189	0xbdf6cdab	-0.12050947
190	0x3e905169	0.2818711
191	0x3e66c90a	0.22537628
192	0xbe4ca6db	-0.19985525
193	0xbdd36e78	-0.103238046
194	0xbe6d584d	-0.23178215
195	0xbd4b1b4f	-0.04958659
196	0x3d932736	0.07185213
197	0x3dd06194	0.101748616
198	0x3e1af6ec	0.15133256
199	0xbedea4d3	-0.43485126
200	0x3e07e290	0.1327002
201	0x3d6862c0	0.0567348
202	0xbe5a7335	-0.2133301
203	0x3e29b16a	0.16571584
204	0x3ac68f82	0.001514897
205	0xbc03f5cd	-0.008054209
206	0x3cb91f9e	0.022598084
207	0x3bb9ee28	0.0056741424
208	0x3eda6a52	0.4265924
209	0xbd0d0ac4	-0.034434095
210	0x3c7664ac	0.0150386505
211	0x3d86ed46	0.06588225
212	0xbdcda94b	-0.10042056
213	0xbe680415	-0.22657807
214	0xbe8cdb98	-0.27511287
215	0xbda8604d	-0.08221493
216	0x3e69d8b4	0.22836572
217	0xbbcca9ad	-0.006245813
218	0xbe795b66	-0.24351272
219	0x3c90efed	0.01769253
220	0xbcd4b3cf	-0.025964646
221	0x3e0aa3bb	0.1353902
222	0xbdbb60bd	-0.09149311
223	0xbde5fe0d	-0.11230097
224	0xbe12db57	-0.14341484
225	0xbaca06d7	-0.0015413415
226	0x3c4a522d	0.012348694
227	0xbeb700f6	-0.3574292
228	0xbed8d076	-0.42346543
229	0x3eb8d310	0.36098528
230	0xbe3e6da8	-0.18596518
231	0x3e10a6b1	0.14126088
232	0xbc446aed	-0.011988384
233	0xbe442e1e	-0.19158217
234	0xbdb2de99	-0.087338634
235	0x3df1f6e6	0.1181467
236	0xbebed9af	-0.37275454
237	0xbd949d9e	-0.072566256
238	0x3d37bb93	0.04485662
239	0x3e41f0c0	0.18939495
240	0x3e12d5c8	0.14339364
241	0x3caf3204	0.021386154
242	0x3e533c64	0.20628506
243	0x3dc9d0da	0.098542884
244	0x3e9f917c	0.31165683
245	0xbf2cb40f	-0.6746225
246	0xbede5c6a	-0.4342988
247	0x3dbd2d6b	0.092371784
248	0xbe4ac920	-0.19803286
249	0xbda2dbda	-0.079520896
250	0x3e339566	0.1753746
251	0xbc70bb9e	-0.014693169
252	0xbeb0ee27	-0.34556696
253	0xbc328c44	-0.0108977
254	0xbe1c4bf0	-0.15263343
255	0xbda6221b	-0.08111974

encoder.lstm.weight_hh_l1 f4 [128, 32]
0	0x3c8ef31e	0.017449912
1	0x3e647305	0.22309501
2	0x3ca8c1a8	0.020600155
3	0xbcaec55f	-0.021334348
4	0xbecb0ef3	-0.39659843
5	0xbd53b88e	-0.051689677
6	0xbe631301	-0.22175218
7	0xbec1e602	-0.37870795
8	0xbdc89daa	-0.09795697
9	0xbf05087a	-0.5196606
10	0x3df6dcef	0.120538585
11	0x3de91334	0.11380616
12	0xbda322c8	-0.07965618
13	0x3edf4600	0.43608093
14	0xbdac64b7	-0.08417647
15	0x3cff939e	0.031198319
16	0x3cb45572	0.0220134
17	0x3d711d15	0.058865625
18	0x3d2d4699	0.042303655
19	0x3e575599	0.21028747
20	0x3e7e6d8f	0.24846481
21	0x3e4621cc	0.1934883
22	0xbd455a59	-0.048181865
23	0xbed9a78e	-0.42510647
24	0x3e202e06	0.15642557
25	0xbe95c0db	-0.292487
26	0xbe109c91	-0.14122225
27	0x3c9c646f	0.01909086
28	0xbd73980f	-0.059471186
29	0xbe94e713	-0.29082546
30	0x3dd5e5fe	0.10444258
31	0x3e0585f8	0.13039386
32	0xbe2e3450	-0.17012143
33	0x3d9862f3	0.07440748
34	0xbd252937	-0.04032251
35	0xbe043133	-0.12909393
36	0x3d05078c	0.0324779
37	0xbd998ee9	-0.07497961
38	0x3dc0e715	0.094190754
39	0xbe4c8892	-0.19973972
40	0xbe82fe88	-0.25584817
41	0x3e9b35ec	0.30314577
42	0xbd035203	-0.032060634
43	0x3ee3fcef	0.4452891
44	0x3eb1eb9d	0.3475007
45	0xbe9841e4	-0.2973777
46	0x3e29112c	0.16510457
47	0xbe8770a4	-0.26453125
48	0x3e4116e0	0.18856382
49	0x3e7885e0	0.2426982
50	0x3e09f029	0.1347052
51	0x3e0e8c41	0.1392069
52	0x3edd6894	0.4324385
53	0xbe969aa5	-0.2941486
54	0xbdb89968	-0.09013635
55	0x3da35efe	0.07977103
56	0x3e60cec5	0.21953876
57	0xbda4e1de	-0.08050893
58	0x3e8ac594	0.27103865
59	0x3d38436f	0.044986185
60	0x3f140871	0.5782538
61	0xbea3b18f	-0.31971404
62	0x3f01164d	0.50424653
63	0x3eceb507	0.40372488
64	0x3dbf574d	0.09342823
65	0xbd088334	-0.03332825
66	0xbecf83f5	-0.40530363
67	0x3e186f3c	0.14886183
68	0xbcc13f4a	-0.023589749
69	0x3e4f7e5d	0.20263048
70	0x3e02f935	0.12790377
71	0xbf13321d	-0.5749834
72	0xbdbc3bff	-0.09191131
73	0x3e640e77	0.22271143
74	0xbe484dff	-0.19561003
75	0xba969ae6	-0.0011490255
76	0xbe363d04	-0.17796713
77	0xbe6d7828	-0.23190367
78	0x3e2432ff	0.16035078
79	0x3e12d9b0	0.14340854
80	0xbea97c6e	-0.33102745
81	0xbdc19b32	-0.09453429
82	0x3e54a19d	0.20764776
83	0xbde1a075	-0.11016933
84	0xbcddfd0e	-0.027098205
85	0xbd68bc1a	-0.056820013
86	0xbdf9582e	-0.12175022
87	0xbeb99be2	-0.36251742
88	0x3e118820	0.14212084
89	0x3e5302f8	0.20606601
90	0x3e82a543	0.2551671
91	0xbe3fdf31	-0.18737485
92	0x3e34c7ed	0.1765439
93	0xbe32500b	-0.17413346
94	0x3eba97d7	0.3644397
95	0x3d8f8d2c	0.07009348
96	0xbd49ead7	-0.049296226
97	0xbe4d5846	-0.20053205
98	0xbe49cf03	-0.19707875
99	0xbde801b3	-0.11328449
100	0x3e7498d7	0.23886429
101	0xbd87b58e	-0.06626426
102	0xbc5ed80a	-0.013601312
103	0x3d030a8a	0.031992473
104	0x3d53eeda	0.05174146
105	0x3e513419	0.2043003
106	0x3c304d67	0.010760642
107	0x3e8eba46	0.2787649
108	0x3dba56d5	0.09098593
109	0x3df1e78c	0.11811742
110	0xbe7c75a8	-0.24654257
111	0xbf2610d8	-0.6486945
112	0x3d857d0a	0.0651799
113	0x3c6ececb	0.0145756705
114	0x3cf414a9	0.029795008
115	0xbd866d37	-0.065638
116	0xbbc0c245	-0.0058825337
117	0x3da28022	0.07934596
118	0x3da7ef32	0.0819992
119	0xbe195513	-0.1497386
120	0xbe3d26e3	-0.18471865
121	0xbe1f80cb	-0.15576474
122	0xbe85a26f	-0.2610049
123	0xbdf3161a	-0.1186945
124	0x3e3946f9	0.1809348
125	0xbd83628a	-0.06415279
126	0xbd92a280	-0.07159901
127	0x3dbd957f	0.0925703
128	0xbe9c14d9	-0.30484655
129	0x3ebcf409	0.36904934
130	0xbe29b8c5	-0.1657439
131	0x3df58d9e	0.11989902
132	0x3e1f526a	0.15558782
133	0xbdca2673	-0.09870615
134	0x3e04351b	0.12910883
135	0xbe46335b	-0.19355528
136	0xbe781538	-0.24226844
137	0xbdcbea4c	-0.09956798
138	0x3ee6bafc	0.45064533
139	0xbdcf3683	-0.10117819
140	0xbec92536	-0.39286202
141	0xbb094b21	-0.0020949321
142	0x3bcf0085	0.0063172006
143	0x3edda77d	0.43291846
144	0xbdbb2f3a	-0.09139867
145	0xbdaf971e	-0.08573745
146	0x3e185382	0.14875606
147	0x3e0b29d4	0.13590175
148	0x3e9548d6	0.29157132
149	0x3e65707f	0.22406195
150	0x3d942bbe	0.07234906
151	0xbdbca4e8	-0.09211141
152	0x3c4b647e	0.012414096
153	0x3f176022	0.5913106
154	0x3e22f9ca	0.159156
155	0xbe083f8b	-0.1330549
156	0x3d3db39a	0.04631386
157	0x3e411371	0.18855073
158	0x3d9123ca	0.07086904
159	0xbf07bfed	-0.5302723
160	0xbe20a747	-0.15688811
161	0x3e1671a6	0.14691791
162	0xbeb7f9f7	-0.35932896
163	0xbe329bca	-0.17442241
164	0x3efdfc96	0.4960677
165	0x3dd15378	0.102209985
166	0xbc4f1025	-0.0126381265
167	0xbe3869ad	-0.18009062
168	0x3dfe60a0	0.124207735
169	0x3d53dd03	0.051724445
170	0x3d52e96e	0.051492147
171	0xbeb44553	-0.3520914
172	0x3df17e63	0.117916845
173	0x3e629552	0.22127274
174	0xbe32cc7d	-0.17460819
175	0x3e65bf0c	0.2243616
176	0xbdd4b3e3	-0.10385873
177	0x3dc0b9ed	0.094104625
178	0xbde3d3c2	-0.11124374
179	0x3cba6114	0.022751369
180	0xbe389024	-0.18023735
181	0x3db7a796	0.08967511
182	0x3e6490b1	0.2232082
183	0xbe93b268	-0.2884705
184	0xbe5d4303	-0.21607594
185	0xbe16c0ce	-0.14721987
186	0x3d3d8d2c	0.04627721
187	0x3e359925	0.17734201
188	0x3ebab8b7	0.3646905
189	0x3e9e9af9	0.3097761
190	0xbe523072	-0.20526293
191	0x3e32ef17	0.17474018
192	0xbef2689c	-0.47345436
193	0x3e5c7a27	0.21530972
194	0xbdd5ac81	-0.10433293
195	0x3d45ff4f	0.048339184
196	0xbc97d35c	-0.018533401
197	0x3e451ad5	0.19248517
198	0x3dbfc6f9	0.09364123
199	0xbe6d1e4e	-0.23156092
200	0xbd620bc2	-0.055186994
201	0x3df6cd01	0.1205082
202	0xbe6e5e4f	-0.23278163
203	0x3d92fa63	0.07176664
204	0x3e0158eb	0.12631576
205	0x3d2f7cc0	0.04284358
206	0xbe253815	-0.16134675
207	0xbe5c1a1d	-0.21494336
208	0xbe391844	-0.18075663
209	0xbd8f287b	-0.06990143
210	0xbd5c1b19	-0.05373678
211	0xbc84d0e1	-0.016212882
212	0x3e6017c8	0.21884072
213	0x3dea253e	0.11432885
214	0x3d9e2f5d	0.077238776
215	0x3e9331bf	0.2874889
216	0x3d42b8bb	0.047539454
217	0xbda07135	-0.078340925
218	0x3e3340e8	0.17505229
219	0x3e84691b	0.2586144
220	0x3e1a8178	0.15088451
221	0x3e6cb956	0.23117575
222	0x3cac28a7	0.021015478
223	0xbd9a079a	-0.07520981
224	0xbde84246	-0.11340766
225	0x3cfd989c	0.030956559
226	0x3d2cefb6	0.042220794
227	0xbe145887	-0.14486896
228	0x3e7508e0	0.23929167
229	0x3e9ff68e	0.31242794
230	0xbdb68ae4	-0.0891321
231	0xbe24da6f	-0.16098951
232	0xbd8a3b8f	-0.06749641
233	0xbdbbc215	-0.091678776
234	0x3f54d58a	0.83138335
235	0x3d7b5c7c	0.061367497
236	0x3c61ff7b	0.013793821
237	0xbb0b6252	-0.002126832
238	0x3d2e0bce	0.042491727
239	0xbdce5397	-0.10074537
240	0x3e2708cc	0.1631195
241	0x3e48cd73	0.19609623
242	0xbd26d735	-0.04073258
243	0x3d6f411e	0.05841171
244	0xbe73c6cc	-0.23806304
245	0x3dfe0f5f	0.124052756
246	0x3daa6fc2	0.08322097
247	0x3bb334fb	0.0054689622
248	0x3db46a57	0.08809345
249	0x3e0b2d5d	0.13591523
250	0x3e1a927e	0.15094945
251	0x3eabcbfc	0.33554065
252	0x3e936424	0.2878734
253	0xbd95e796	-0.07319562
254	0xbdb4bbea	-0.08824904
255	0x3e14d395	0.14533837

encoder.lstm.bias_ih_l1 f4 [128]
0	0xbccac308	-0.024751201
1	0xbe366f00	-0.1781578
2	0xbe08fb8c	-0.13377208
3	0x3e1acb57	0.1511663
4	0xbd855120	-0.06509614
5	0x3e286f40	0.16448689
6	0xbd89e19a	-0.06732483
7	0x3e8cf71c	0.2753228
8	0x3df48a97	0.119404964
9	0xbdce9f5e	-0.10088991
10	0x3c185d72	0.009299623
11	0xbdbd7e4a	-0.09252603
12	0x3d92024a	0.07129343
13	0x3e8c85f2	0.27445942
14	0x3e5b71fc	0.214302
15	0xbd7ee35c	-0.062228546
16	0x3e2b7057	0.16742073
17	0x3e78a1ca	0.24280468
18	0xbb1a7d8b	-0.0023573365
19	0xbe602d62	-0.21892312
20	0xbd9f0119	-0.07763881
21	0xbad49726	-0.0016219362
22	0xbd137ddb	-0.036008697
23	0xbd5c9a87	-0.053858306
24	0x3ea62688	0.32451272
25	0x3debab7a	0.11507316
26	0x3e4ac4cc	0.19801635
27	0xbe46cca8	-0.19414008
28	0x3ed30742	0.41216475
29	0x3d9f9831	0.077927
30	0x3ecc3ad3	0.3988863
31	0x3f096e65	0.53684074
32	0x3d4d78a9	0.0501639
33	0xbbee9fdf	-0.0072822417
34	0x3d15a77c	0.03653668
35	0x3d83de28	0.06438857
36	0x3e9b192f	0.3029265
37	0x3da7f69f	0.08201336
38	0xbd08e29e	-0.033419244
39	0x3e00ae78	0.12566555
40	0x3e5f27af	0.21792482
41	0x3da2e29c	0.079533786
42	0xbdae46ec	-0.08509621
43	0x3e85aef3	0.26110038
44	0xbb855efa	-0.00407016
45	0x3e285e82	0.16442302
46	0x3dfe7471	0.12424553
47	0x3db026c7	0.08601146
48	0xbc3e8b14	-0.0116298385
49	0x3da679b7	0.08128684
50	0xbd19203c	-0.037384257
51	0xbda10415	-0.07862107
52	0xbd4556f5	-0.04817863
53	0xbcdb26a9	-0.026751833
54	0x3d8ac6bf	0.06776189
55	0xbcfa836c	-0.030580245
56	0xbd6fc4e4	-0.05853738
57	0xbccd4b62	-0.02506036
58	0x3e8780b8	0.26465392
59	0xbdbc5424	-0.09195736
60	0x3d112870	0.035438955
61	0x3d998033	0.07495155
62	0x3e38ec3c	0.18058866
63	0xbccbe9bf	-0.024891732
64	0x3e2061b7	0.15662275
65	0x3e07c192	0.13257435
66	0xbe308e24	-0.17241722
67	0xbe7796d1	-0.24178626
68	0x3d253035	0.040329177
69	0x3e35d426	0.1775671
70	0x3ddef72b	0.10886987
71	0x3d39cc6f	0.04536098
72	0xbcbc9576	-0.023020487
73	0x3d9b17f7	0.0757293
74	0xbc6fa390	-0.014626399
75	0xbbdeafc0	-0.0067958534
76	0x3c59b0b8	0.013286762
77	0x3ddfbadc	0.109243125
78	0xbcd2cfdf	-0.025733886
79	0x3d272a3c	0.040811762
80	0x3dc5dc18	0.0966112
81	0x3e4d8798	0.20071256
82	0xbe051a1e	-0.12998244
83	0x3ca77bb7	0.020444734
84	0xbe5c08fc	-0.21487802
85	0xbe017c3b	-0.12645046
86	0x3e67888d	0.22610684
87	0xbd090e4f	-0.03346091
88	0xbe61860a	-0.22023788
89	0xbd095029	-0.033523712
90	0xbea3d411	-0.3199773
91	0xbcbb0314	-0.022828616
92	0x3caa35f4	0.02077768
93	0x3db8078e	0.08985816
94	0xbe4b3c0a	-0.19847122
95	0x3cf63a6b	0.030057153
96	0x3e6f9a2b	0.23398654
97	0x3e68ff5b	0.2275366
98	0x3d9014d7	0.07035225
99	0x3d18e251	0.037325207
100	0x3ea87264	0.32899773
101	0x3e2c866d	0.16848154
102	0xbcb16893	-0.02165631
103	0x3ea20ad7	0.31648895
104	0xbc8cd8ec	-0.01719328
105	0xbd344ed4	-0.04402049
106	0x3edcb220	0.4310465
107	0x3db9946b	0.090615116
108	0x3ecee3a9	0.40408066
109	0x3dc006f7	0.093763284
110	0x3d721592	0.059102602
111	0xbd0ba307	-0.034091022
112	0x3e50116f	0.2031915
113	0xbd863184	-0.06552413
114	0xbd991864	-0.07475355
115	0x3e0a19d5	0.13486417
116	0x3deb9c56	0.11504428
117	0x3d0caeae	0.034346275
118	0x3e7fc8f6	0.24979004
119	0x3d9d16f3	0.07670393
120	0x3d956f6f	0.07296645
121	0x3ea0fe0f	0.3144383
122	0x3e2ce61e	0.16884658
123	0x3ddc6df2	0.10763158
124	0x3edadaf7	0.42745182
125	0x3e3c9c84	0.18419081
126	0x3e0e653b	0.13905804
127	0x3ebcfba0	0.36910725

encoder.lstm.bias_hh_l1 f4 [128]
0	0xbd8128d5	-0.06306616
1	0xbad764f4	-0.0016433285
2	0x3d1e4ba3	0.03864635
3	0x3e20a487	0.15687762
4	0x3d47572f	0.04866713
5	0x3e96c68a	0.29448348
6	0xbdfee814	-0.12446609
7	0x3d8a6c78	0.0675897
8	0x3e33f875	0.17575248
9	0x3d3a1f98	0.045440286
10	0x3e6ee61d	0.23329969
11	0xbdffbfaf	-0.124877326
12	0xbce90e16	-0.0284491
13	0x3ebd29e3	0.3694602
14	0x3df7505e	0.12075876
15	0xbd0f496a	-0.034982122
16	0x3e40e924	0.18838936
17	0x3d08b90b	0.033379596
18	0xbcdd36f7	-0.027003748
19	0xbd8bd531	-0.068277724
20	0x399e103f	0.00030148213
21	0xbc8d4c43	-0.017248278
22	0x3da1d612	0.07902159
23	0xbe231d3f	-0.15929125
24	0x3e0b9785	0.13632019
25	0xbcca8606	-0.02472211
26	0x3eb12438	0.34597945
27	0xbe45bcdb	-0.19310324
28	0x3ecd6841	0.40118602
29	0xbd9b00f6	-0.07568543
30	0x3ef7bb78	0.48385215
31	0x3f191540	0.5979805
32	0xbcd5acc9	-0.026083367
33	0xbdc96649	-0.098339625
34	0xbcbdf798	-0.023189351
35	0x3da3e2a2	0.08002211
36	0x3e4c3534	0.1994217
37	0x3dda5ade	0.10661863
38	0xbd038346	-0.032107614
39	0xbdc4a725	-0.09602193
40	0x3ddb14bc	0.10697314
41	0xbca0ab45	-0.019612918
42	0xbd3dce23	-0.046339165
43	0x3deeeb87	0.11666017
44	0x3e287177	0.16449533
45	0x3e803ffd	0.2504882
46	0x3e6be2f2	0.23035792
47	0x3bfe54d9	0.0077615795
48	0x3c7c2ba1	0.015391261
49	0x3e08f7d0	0.13375783
50	0x3d2b0f95	0.041762907
51	0x3df52077	0.11969083
52	0x3d8969bf	0.067096226
53	0x3d89c0ad	0.06726203
54	0x3de3c175	0.111208834
55	0xbd95a0d6	-0.07306068
56	0x3deba5ea	0.11506255
57	0xbe1b67f1	-0.15176369
58	0x3ea7b9cc	0.3275894
59	0xbe043aac	-0.12913007
60	0x3cbdd693	0.023173606
61	0x3cf2efab	0.029655298
62	0x3e235461	0.15950157
63	0xbc3ba4f7	-0.011452905
64	0x3de748c1	0.112931736
65	0x3c8173e2	0.015802328
66	0xbdcaebdf	-0.0990827
67	0xbe342333	-0.17591552
68	0x3d2350a8	0.03987184
69	0x3b9cfa65	0.0047905915
70	0x3c59c825	0.013292347
71	0x3e3ad153	0.18243913
72	0x3e298dc7	0.1655799
73	0x3e371f04	0.17882925
74	0x3e10e2ef	0.14149068
75	0x3d2b41dc	0.041810855
76	0xbcbf4c61	-0.02335185
77	0x3e5e5347	0.21711455
78	0xbe19d7f5	-0.15023787
79	0xbdc5641c	-0.09638235
80	0x3e7545ef	0.23952459
81	0x3e0e6fd3	0.13909845
82	0xbe24e030	-0.16101146
83	0x3d8859a1	0.0665772
84	0xbe6c8d03	-0.23100667
85	0x39987aa7	0.00029083082
86	0x3e7f4213	0.24927549
87	0x3d20f205	0.039293308
88	0xbdf9abc1	-0.121909626
89	0xbe0a01de	-0.13477275
90	0xbe37ae37	-0.17937551
91	0x3e04ba60	0.12961721
92	0x3e2efc0d	0.17088337
93	0xbc076f44	-0.008266274
94	0xbdcdabab	-0.10042509
95	0xbc36eabc	-0.0111643635
96	0x3e7bfa1c	0.24607128
97	0x3d9e3df6	0.07726662
98	0xbcf0a228	-0.029374197
99	0xbd2464b1	-0.04013509
100	0x3ed5ea46	0.417803
101	0x3c90b97f	0.017666576
102	0xbdcc5409	-0.09976966
103	0x3e155c24	0.1458593
104	0x3dc8c2e5	0.09802798
105	0x3dfd5df4	0.12371436
106	0x3e94a82a	0.2903455
107	0xbd940f88	-0.07229525
108	0x3ea6333f	0.32460973
109	0x3d80b082	0.06283666
110	0x3c9815ad	0.018565023
111	0x3e365fec	0.17810029
112	0x3e88c34d	0.26711503
113	0xbd010e4b	-0.03150777
114	0xbd9c1139	-0.076204725
115	0xbda29840	-0.07939196
116	0x3c1669af	0.00918047
117	0xbd3141a0	-0.043275476
118	0x3e217220	0.15766191
119	0x3e47ba67	0.195047
120	0x3d103d0b	0.035214465
121	0x3e4fdf6f	0.20300077
122	0x3db81ff8	0.089904726
123	0x3d61c15a	0.055116035
124	0x3ec8efd4	0.39245474
125	0x3e6ddca9	0.23228706
126	0x3d818ccf	0.06325685
127	0x3f0bc1b6	0.54592454
