results/MSE_LSTM_enc_dec_2_layer_output/310_model.pt (torch, 930089 bytes, 18 tensors)

output_zeros f4 [399, 512, 1]
0	0x00000000	0.0
1	0x00000000	0.0
2	0x00000000	0.0
3	0x00000000	0.0
4	0x00000000	0.0
5	0x00000000	0.0
6	0x00000000	0.0
7	0x00000000	0.0
8	0x00000000	0.0
9	0x00000000	0.0
10	0x00000000	0.0
11	0x00000000	0.0
12	0x00000000	0.0
13	0x00000000	0.0
14	0x00000000	0.0
15	0x00000000	0.0
16	0x00000000	0.0
17	0x00000000	0.0
18	0x00000000	0.0
19	0x00000000	0.0
20	0x00000000	0.0
21	0x00000000	0.0
22	0x00000000	0.0
23	0x00000000	0.0
24	0x00000000	0.0
25	0x00000000	0.0
26	0x00000000	0.0
27	0x00000000	0.0
28	0x00000000	0.0
29	0x00000000	0.0
30	0x00000000	0.0
31	0x00000000	0.0
32	0x00000000	0.0
33	0x00000000	0.0
34	0x00000000	0.0
35	0x00000000	0.0
36	0x00000000	0.0
37	0x00000000	0.0
38	0x00000000	0.0
39	0x00000000	0.0
40	0x00000000	0.0
41	0x00000000	0.0
42	0x00000000	0.0
43	0x00000000	0.0
44	0x00000000	0.0
45	0x00000000	0.0
46	0x00000000	0.0
47	0x00000000	0.0
48	0x00000000	0.0
49	0x00000000	0.0
50	0x00000000	0.0
51	0x00000000	0.0
52	0x00000000	0.0
53	0x00000000	0.0
54	0x00000000	0.0
55	0x00000000	0.0
56	0x00000000	0.0
57	0x00000000	0.0
58	0x00000000	0.0
59	0x00000000	0.0
60	0x00000000	0.0
61	0x00000000	0.0
62	0x00000000	0.0
63	0x00000000	0.0
64	0x00000000	0.0
65	0x00000000	0.0
66	0x00000000	0.0
67	0x00000000	0.0
68	0x00000000	0.0
69	0x00000000	0.0
70	0x00000000	0.0
71	0x00000000	0.0
72	0x00000000	0.0
73	0x00000000	0.0
74	0x00000000	0.0
75	0x00000000	0.0
76	0x00000000	0.0
77	0x00000000	0.0
78	0x00000000	0.0
79	0x00000000	0.0
80	0x00000000	0.0
81	0x00000000	0.0
82	0x00000000	0.0
83	0x00000000	0.0
84	0x00000000	0.0
85	0x00000000	0.0
86	0x00000000	0.0
87	0x00000000	0.0
88	0x00000000	0.0
89	0x00000000	0.0
90	0x00000000	0.0
91	0x00000000	0.0
92	0x00000000	0.0
93	0x00000000	0.0
94	0x00000000	0.0
95	0x00000000	0.0
96	0x00000000	0.0
97	0x00000000	0.0
98	0x00000000	0.0
99	0x00000000	0.0
100	0x00000000	0.0
101	0x00000000	0.0
102	0x00000000	0.0
103	0x00000000	0.0
104	0x00000000	0.0
105	0x00000000	0.0
106	0x00000000	0.0
107	0x00000000	0.0
108	0x00000000	0.0
109	0x00000000	0.0
110	0x00000000	0.0
111	0x00000000	0.0
112	0x00000000	0.0
113	0x00000000	0.0
114	0x00000000	0.0
115	0x00000000	0.0
116	0x00000000	0.0
117	0x00000000	0.0
118	0x00000000	0.0
119	0x00000000	0.0
120	0x00000000	0.0
121	0x00000000	0.0
122	0x00000000	0.0
123	0x00000000	0.0
124	0x00000000	0.0
125	0x00000000	0.0
126	0x00000000	0.0
127	0x00000000	0.0
128	0x00000000	0.0
129	0x00000000	0.0
130	0x00000000	0.0
131	0x00000000	0.0
132	0x00000000	0.0
133	0x00000000	0.0
134	0x00000000	0.0
135	0x00000000	0.0
136	0x00000000	0.0
137	0x00000000	0.0
138	0x00000000	0.0
139	0x00000000	0.0
140	0x00000000	0.0
141	0x00000000	0.0
142	0x00000000	0.0
143	0x00000000	0.0
144	0x00000000	0.0
145	0x00000000	0.0
146	0x00000000	0.0
147	0x00000000	0.0
148	0x00000000	0.0
149	0x00000000	0.0
150	0x00000000	0.0
151	0x00000000	0.0
152	0x00000000	0.0
153	0x00000000	0.0
154	0x00000000	0.0
155	0x00000000	0.0
156	0x00000000	0.0
157	0x00000000	0.0
158	0x00000000	0.0
159	0x00000000	0.0
160	0x00000000	0.0
161	0x00000000	0.0
162	0x00000000	0.0
163	0x00000000	0.0
164	0x00000000	0.0
165	0x00000000	0.0
166	0x00000000	0.0
167	0x00000000	0.0
168	0x00000000	0.0
169	0x00000000	0.0
170	0x00000000	0.0
171	0x00000000	0.0
172	0x00000000	0.0
173	0x00000000	0.0
174	0x00000000	0.0
175	0x00000000	0.0
176	0x00000000	0.0
177	0x00000000	0.0
178	0x00000000	0.0
179	0x00000000	0.0
180	0x00000000	0.0
181	0x00000000	0.0
182	0x00000000	0.0
183	0x00000000	0.0
184	0x00000000	0.0
185	0x00000000	0.0
186	0x00000000	0.0
187	0x00000000	0.0
188	0x00000000	0.0
189	0x00000000	0.0
190	0x00000000	0.0
191	0x00000000	0.0
192	0x00000000	0.0
193	0x00000000	0.0
194	0x00000000	0.0
195	0x00000000	0.0
196	0x00000000	0.0
197	0x00000000	0.0
198	0x00000000	0.0
199	0x00000000	0.0
200	0x00000000	0.0
201	0x00000000	0.0
202	0x00000000	0.0
203	0x00000000	0.0
204	0x00000000	0.0
205	0x00000000	0.0
206	0x00000000	0.0
207	0x00000000	0.0
208	0x00000000	0.0
209	0x00000000	0.0
210	0x00000000	0.0
211	0x00000000	0.0
212	0x00000000	0.0
213	0x00000000	0.0
214	0x00000000	0.0
215	0x00000000	0.0
216	0x00000000	0.0
217	0x00000000	0.0
218	0x00000000	0.0
219	0x00000000	0.0
220	0x00000000	0.0
221	0x00000000	0.0
222	0x00000000	0.0
223	0x00000000	0.0
224	0x00000000	0.0
225	0x00000000	0.0
226	0x00000000	0.0
227	0x00000000	0.0
228	0x00000000	0.0
229	0x00000000	0.0
230	0x00000000	0.0
231	0x00000000	0.0
232	0x00000000	0.0
233	0x00000000	0.0
234	0x00000000	0.0
235	0x00000000	0.0
236	0x00000000	0.0
237	0x00000000	0.0
238	0x00000000	0.0
239	0x00000000	0.0
240	0x00000000	0.0
241	0x00000000	0.0
242	0x00000000	0.0
243	0x00000000	0.0
244	0x00000000	0.0
245	0x00000000	0.0
246	0x00000000	0.0
247	0x00000000	0.0
248	0x00000000	0.0
249	0x00000000	0.0
250	0x00000000	0.0
251	0x00000000	0.0
252	0x00000000	0.0
253	0x00000000	0.0
254	0x00000000	0.0
255	0x00000000	0.0

encoder.lstm.weight_ih_l0 f4 [128, 4]
0	0xbe9bcf32	-0.30431515
1	0xbdd5f1dc	-0.10446522
2	0x3f0f9753	0.5609028
3	0xbf3b8640	-0.73251724
4	0x3f3edcfd	0.7455595
5	0x3eb88a6a	0.36043102
6	0x3f25c403	0.64752215
7	0x3e9509ef	0.2910914
8	0x3edd80e1	0.4326239
9	0x3f3b1ead	0.7309368
10	0xbf746537	-0.9546694
11	0x3ed7cd0d	0.4214863
12	0x3ef65f7f	0.48119733
13	0xbd88339e	-0.0665047
14	0xbe36904d	-0.17828484
15	0x3f54c1b6	0.8310808
16	0x3e7167cb	0.2357475
17	0x3e8162bf	0.2527065
18	0x3f1b2a13	0.60611075
19	0x3d4feaac	0.05076091
20	0xbf218f52	-0.63109314
21	0x3f81b8c1	1.0134507
22	0x3e18449c	0.14869922
23	0xbf24b7fd	-0.64343244
24	0x3c6194e3	0.0137684075
25	0x3ea1791c	0.31537712
26	0x3ea8193d	0.32831755
27	0x3f20bd9b	0.62789315
28	0x3f8b3f8e	1.087877
29	0xbe79415c	-0.24341339
30	0x3e8c8307	0.27443716
31	0xbd7b5330	-0.06135863
32	0xbc9be8da	-0.01903193
33	0xbf2e1d46	-0.6801342
34	0xbd3cd63a	-0.04610274
35	0x3f08d0aa	0.53443396
36	0x3f0b5b3a	0.54436076
37	0x3e623638	0.22090995
38	0x3f5a24cf	0.85212415
39	0xbe14536c	-0.14484948
40	0x3f1d0905	0.6134189
41	0x3ed91dc4	0.42405522
42	0x3e3bbbf9	0.18333425
43	0x3f41132d	0.75419885
44	0x3e49aa6f	0.19693922
45	0x3e977e17	0.29588386
46	0x3ed7cfbf	0.42150685
47	0xbedad64e	-0.42741627
48	0x3fba709c	1.4565616
49	0x3f9fff32	1.2499754
50	0x3f34f5dd	0.7068766
51	0x3e29419a	0.16528931
52	0x3f7cc09f	0.98731416
53	0xbe5b1152	-0.21393326
54	0x3e9afc86	0.30270785
55	0x3eb94c84	0.3619119
56	0x3f81cadc	1.0140033
57	0xbd90182a	-0.07035859
58	0xbefb083a	-0.49029714
59	0x3e204903	0.15652852
60	0xbebbb605	-0.36662307
61	0x3c1e155b	0.009648646
62	0x3faf7471	1.370741
63	0xbea152f3	-0.31508598
64	0xbeae953a	-0.34098226
65	0x3ee8c884	0.4546548
66	0x3f286a68	0.65787363
67	0x3f7fc573	0.9991066
68	0xbf98cd6e	-1.1937692
69	0x3f3e42b6	0.7432054
70	0x3f59b617	0.8504347
71	0xbf7d5380	-0.98955536
72	0xbe484fe5	-0.19561727
73	0xbef0d505	-0.4703752
74	0x3e82a97e	0.25519937
75	0x3f70c8d7	0.9405646
76	0xbce2a0a9	-0.0276645
77	0x3e80c90e	0.25153393
78	0x3f0b1a26	0.54336774
79	0x3e31e6f1	0.17373253
80	0x3f8c1e29	1.0946704
81	0x3f689c9c	0.90863967
82	0x3ef2ed2d	0.47446576
83	0x3f8c0850	1.0940037
84	0x3f69c59b	0.91317147
85	0xbd0b6863	-0.034035098
86	0x3e4cf3eb	0.20014922
87	0x3f38ab77	0.72136635
88	0x3f179bbc	0.59222007
89	0xbe0b00be	-0.13574502
90	0xbe5efef1	-0.2177694
91	0x3e9b5a93	0.3034254
92	0x3ebe4c33	0.3716751
93	0x3ed794c8	0.421057
94	0x3f430a46	0.7618755
95	0x3f18531c	0.59501815
96	0xbe05792c	-0.13034505
97	0x3e1e5429	0.15461792
98	0xbcddae64	-0.027060695
99	0x3f5c2992	0.8600093
100	0x3e8743e9	0.26419
101	0xbd05f24a	-0.032701768
102	0xbe94de65	-0.29075924
103	0xbe27cd72	-0.16386965
104	0xbf74df92	-0.9565364
105	0x3b67da59	0.0035377948
106	0x3eedff20	0.46483707
107	0x3fe7c06c	1.8105597
108	0xbde4fe88	-0.111813605
109	0xbe930de7	-0.28721544
110	0x3e407ad4	0.18796855
111	0x3f0befa1	0.5466252
112	0x3e22b221	0.15888263
113	0x3e959f8f	0.29223296
114	0x3f1a7ed3	0.6034977
115	0x3e71a62b	0.23598544
116	0x3eade500	0.33963776
117	0x3f323bd6	0.6962255
118	0x3f52e7e3	0.8238508
119	0x3f676086	0.9038166
120	0xbe141e12	-0.14464596
121	0x3e2d6204	0.16931921
122	0xbe94c587	-0.2905695
123	0x3fcca17d	1.5986782
124	0x3fb80e59	1.4379379
125	0x3fc2f154	1.5229897
126	0x3f3c3daf	0.7353162
127	0x3f8b98b6	1.0905979
128	0xbeda4ab5	-0.42635122
129	0xbec080d8	-0.375983
130	0x3e994673	0.2993656
131	0x3e0a89c3	0.13529114
132	0x3ef79af1	0.48360398
133	0xbd463419	-0.048389528
134	0x3f1275b0	0.57210827
135	0x3eceb209	0.40370205
136	0xbd94e7ff	-0.07270812
137	0xbe5662d8	-0.20936143
138	0xbf64e75f	-0.89415544
139	0x3fa8f78a	1.3200543
140	0xbda8c630	-0.08240926
141	0x3eb5b38d	0.3548855
142	0xbdf1e1a0	-0.11810613
143	0xbe325b9a	-0.17417756
144	0x3f86ecaa	1.0540974
145	0xbd83d2f2	-0.06436719
146	0xbe28d5e1	-0.16487838
147	0x3e717904	0.2358132
148	0x3d75404c	0.05987577
149	0x3f00a87f	0.50257105
150	0x3b338e42	0.0027398025
151	0xbee4d652	-0.44694763
152	0xbe430979	-0.19046582
153	0x3f15e387	0.58550304
154	0x3e990b84	0.29891598
155	0x3f367a59	0.7128044
156	0x3ea0716e	0.3133654
157	0xbf4f3b43	-0.809498
158	0xbf4c185a	-0.7972466
159	0xbe7ae54f	-0.24501537
160	0x3f952797	1.1652707
161	0x3e57144d	0.21003838
162	0xbedb861f	-0.42875764
163	0x3f251dec	0.6449878
164	0xbfd02891	-1.626238
165	0xbd3ef634	-0.046621516
166	0x3f4da8a1	0.8033543
167	0xbf61a7a4	-0.88146424
168	0xbe150851	-0.14553954
169	0xbfa2b103	-1.271027
170	0x3f897b94	1.0740838
171	0xbb88932d	-0.0041679353
172	0x3ebbc39a	0.3667267
173	0xbed02560	-0.40653515
174	0x3f154e05	0.58322173
175	0xbebb4952	-0.36579376
176	0x3f77fc33	0.968692
177	0x3eb706ab	0.35747275
178	0xbf789da4	-0.9711554
179	0x3eebbcf3	0.46042594
180	0x3f4cd5ba	0.8001362
181	0x3d0cfe5f	0.034422275
182	0xbe1d13ca	-0.1533958
183	0x3e820bfa	0.25399762
184	0x3edb2b40	0.42806435
185	0x3f2344cd	0.63776857
186	0xbf1187a0	-0.5684757
187	0x3fa83b1b	1.3143038
188	0xbec640f5	-0.38721433
189	0x3ef4bd84	0.4780084
190	0x3f19fb61	0.601492
191	0x3dad03fc	0.084480256
192	0xbe32c2bb	-0.17457096
193	0x3f4606b4	0.7735398
194	0xbd9cc466	-0.076546475
195	0xbf07686a	-0.528937
196	0xbf822512	-1.0167563
197	0x3f85853c	1.0431285
198	0xbf5adfcf	-0.85497755
199	0x3d85d8e2	0.06535508
200	0xbf631af8	-0.88713026
201	0xbe444aad	-0.19169112
202	0x3ea3dac6	0.32002848
203	0xbf16c54e	-0.58894813
204	0xbf76a9f5	-0.96353084
205	0x3e460601	0.19338228
206	0x3ef453a5	0.47720066
207	0xbb441b16	-0.002992337
208	0x405b0bbd	3.4225914
209	0x3f107e8c	0.56443095
210	0xc004aa49	-2.0728934
211	0xbf5b1ad1	-0.85587794
212	0x3f6afc48	0.917912
213	0x3eaf4028	0.34228635
214	0x3e133c8d	0.14378567
215	0x3f3e3d91	0.7431269
216	0xbf0d4aa0	-0.55191994
217	0x3fb3fd44	1.4061666
218	0xbcb98ee1	-0.022651138
219	0xbf8aa3de	-1.0831258
220	0xbcc09011	-0.023506196
221	0xbf114228	-0.5674157
222	0xbdad0123	-0.084474824
223	0x3fa69a8e	1.3015916
224	0x3b8c664e	0.0042846566
225	0x3dd52789	0.10407931
226	0x3e352009	0.17688002
227	0xbf8a3891	-1.0798513
228	0x3ed95e1a	0.42454606
229	0xbd3b706a	-0.045761503
230	0x3de392f5	0.11112014
231	0xbe9361dd	-0.287856
232	0x3e97248c	0.2952007
233	0xbea07823	-0.31341657
234	0xbf07dc61	-0.53070647
235	0xbf8924d4	-1.0714364
236	0xbe348b36	-0.1763123
237	0x3d27f32e	0.0410034
238	0xbe62d7ce	-0.22152635
239	0x3eae7c8a	0.3407939
240	0x3efda271	0.49537995
241	0x3fd1ca5a	1.6389878
242	0x3ef7c02d	0.48388806
243	0x3f0d3719	0.551622
244	0x3eb2feb7	0.34959957
245	0x3f584fb1	0.844966
246	0xbe7b75f7	-0.24556719
247	0x3f9b625f	1.2139395
248	0xbef7b5dc	-0.48380935
249	0x3ef7e305	0.4841539
250	0xbe9d882c	-0.30767953
251	0xbd85565f	-0.065106146
252	0x4007d9f2	2.1226773
253	0x402cc38f	2.699436
254	0x3fa7f709	1.3122264
255	0x3ff57b0f	1.917818

encoder.lstm.weight_hh_l0 f4 [128, 32]
0	0xbedb250c	-0.42801702
1	0xbca1bbc0	-0.019742846
2	0xbd90fee7	-0.07079869
3	0x3f494621	0.78622633
4	0x3e9a7995	0.30170885
5	0x3f3087b9	0.68957096
6	0xbcdeedfa	-0.027213085
7	0x3f2d768a	0.67759
8	0x3e03b63f	0.1286249
9	0x3d4e8b22	0.050425656
10	0xbf011124	-0.5041678
11	0x3ed9c066	0.425296
12	0x3e94e1d0	0.2907853
13	0xbe6f1a1f	-0.23349808
14	0xbe1527bb	-0.14565937
15	0x3ea8c3f5	0.32962003
16	0x3facf0c5	1.3510977
17	0xbe0d04b4	-0.13771325
18	0x3ec22742	0.37920576
19	0x3e6d6863	0.23184352
20	0xbf9979ac	-1.1990256
21	0x3e87878e	0.26470608
22	0xbe8b8da8	-0.27256513
23	0xbf4545e9	-0.770598
24	0x3db6d2a1	0.08926893
25	0xbe89ad0e	-0.26889843
26	0xbe46b986	-0.19406709
27	0x3dd5e56d	0.1044415
28	0x3e46e9b1	0.19425084
29	0x3e1afce0	0.15135527
30	0xbd8ae395	-0.06781689
31	0xbe44bc9d	-0.19212575
32	0x3e19b868	0.15011752
33	0x3e8e60b3	0.2780815
34	0x3ed97ede	0.42479604
35	0xbe89d2d9	-0.26918676
36	0xbf2d0ef5	-0.6760095
37	0x3e21f0ca	0.1581451
38	0xbe8e01ae	-0.27735656
39	0xbe0782aa	-0.13233438
40	0xbd87f9bb	-0.06639429
41	0xbe4ea410	-0.20179772
42	0x3dc01789	0.09379489
43	0xbe27e65b	-0.16396467
44	0xbe415848	-0.18881333
45	0x3edbb703	0.42913064
46	0x3e013c6a	0.12620702
47	0x3e98aa39	0.2981737
48	0x3e8a72b5	0.2704064
49	0xbe21edf7	-0.15813433
50	0x3d9a026e	0.07519995
51	0x3df73845	0.120712794
52	0xbd3bb2c4	-0.04582478
53	0x3d90e8d5	0.07075659
54	0xbe31f634	-0.17379075
55	0x3e0df6c0	0.13863659
56	0xbc3e7677	-0.011624924
57	0x3d937fc6	0.07202105
58	0xbf023bc6	-0.5087246
59	0x3e105c74	0.14097768
60	0x3d6a191b	0.05715285
61	0x3dcf5d02	0.10125162
62	0xbe5d58e8	-0.21615946
63	0x3daad55a	0.08341475
64	0x3e01c3ee	0.12672397
65	0x3e2e070e	0.16994879
66	0x3e92b550	0.28653955
67	0x3e13746d	0.14399882
68	0xbd97aed4	-0.07406393
69	0x3e31050a	0.17287078
70	0x3d5048ca	0.050850667
71	0x3e7612ad	0.24030562
72	0x3edbd772	0.4293781
73	0x3e395425	0.18098505
74	0x3f03e500	0.515213
75	0x3e0b0bd0	0.13578725
76	0xbf46c1bd	-0.7763937
77	0xbcf1bb69	-0.02950831
78	0x3f053f08	0.52049303
79	0x3e0adf56	0.13561758
80	0xbf258ff8	-0.64672804
81	0x3dffa219	0.124820895
82	0xbd4c344f	-0.049854573
83	0x3c9a6aec	0.018849812
84	0x3e0963b9	0.13416947
85	0xbe9e2d5e	-0.30893987
86	0x3e94b829	0.29046753
87	0x3d65face	0.05614739
88	0xbd006415	-0.031345446
89	0x3ec2b163	0.3802596
90	0x3e636497	0.2220634
91	0x3d78fdb7	0.060788836
92	0xbdf63994	-0.12022701
93	0x3e10d83f	0.14144991
94	0xbd843499	-0.06455345
95	0xbd5aa042	-0.05337549
96	0xbd828433	-0.06372871
97	0xbd64a4af	-0.055821117
98	0x3e72d84b	0.23715322
99	0x3e77e72f	0.24209283
100	0x3deeb364	0.1165531
101	0x3e0e3f76	0.13891396
102	0x3e2287d7	0.15872131
103	0x3f056977	0.5211405
104	0xbdbcd0e6	-0.09219532
105	0xbd0ab029	-0.033859406
106	0x3ed6a844	0.4192525
107	0xbf0e3b92	-0.5555965
108	0xbe9f4b8c	-0.31112325
109	0x3dd3e35d	0.103461005
110	0x3e9bcdf3	0.30430564
111	0x3de76cac	0.113000244
112	0xbdca7618	-0.09885806
113	0xbd606947	-0.0547879
114	0x3e096996	0.13419184
115	0xbe038cce	-0.12846681
116	0x3d73c0ce	0.059510045
117	0x3e9c016f	0.30469844
118	0x3d70be84	0.05877544
119	0x3dffae72	0.12484445
120	0x3dbb4368	0.09143716
121	0x3e98afd3	0.29821643
122	0xbf196707	-0.5992283
123	0xbd2df84d	-0.042473126
124	0xbe1afcb6	-0.15135464
125	0x3d6fe095	0.058563787
126	0xbefe10a1	-0.49622062
127	0x3dc8fbae	0.09813629
128	0xbea762a9	-0.3269246
129	0x3eab2e27	0.3343365
130	0x3ec81fa4	0.3908664
131	0x3d06000c	0.03271489
132	0xbf22cbb8	-0.635921
133	0x3e999127	0.29993555
134	0xbd503556	-0.050832115
135	0xbe98d444	-0.29849446
136	0x3f5d2d06	0.86396825
137	0x3eba94f9	0.36441782
138	0xbe77c310	-0.24195504
139	0xbf3a34e9	-0.72736984
140	0xbdbe2256	-0.09283893
141	0x3e69bdeb	0.22826354
142	0x3ef48855	0.47760263
143	0x3ea403e8	0.3203423
144	0xbf5acc75	-0.85468227
145	0xbdece4eb	-0.115671
146	0x3ec13c67	0.37741396
147	0x3e38e65f	0.1805663
148	0xbe822baa	-0.25423938
149	0xbf40b57a	-0.7527691
150	0x3e88816e	0.26661247
151	0x3eb267ce	0.34844822
152	0x3ee1a6e3	0.44072637
153	0xbe3f80ad	-0.1870143
154	0x3e7bbaba	0.2458295
155	0x3f212b24	0.6295645
156	0xbe8c9005	-0.27453628
157	0x3edb847b	0.42874512
158	0xbe53d3a7	-0.20686208
159	0xbf180adf	-0.5939159
160	0xbe1684b3	-0.14699058
161	0xbd56492d	-0.05231588
162	0x3e5f6d4d	0.21819039
163	0x3d4ff7dd	0.05077349
164	0xbce6fa04	-0.028195389
165	0x3dd2e685	0.10297874
166	0x3e388bf8	0.18022144
167	0x3ef8b76c	0.4857744
168	0x3f073f96	0.528314
169	0x3efc133b	0.49233422
170	0x3e471307	0.19440852
171	0x3fb9a3ec	1.450315
172	0xbe482d6c	-0.19548577
173	0xbdb890d5	-0.090119995
174	0x3d94d47b	0.0726709
175	0xbe309ec5	-0.17248066
176	0x3f0d0735	0.5508912
177	0xbee20177	-0.44141743
178	0x3e463c9e	0.19359061
179	0xbbaf8226	-0.005356091
180	0x3ec7fa05	0.39057937
181	0x3d63139f	0.055438634
182	0xbe7d1e69	-0.24718632
183	0x3f7b9ada	0.9828316
184	0x3e114dc5	0.14189823
185	0x3e2adee8	0.16686594
186	0xbc84db5b	-0.016217878
187	0x3ed03414	0.40664732
188	0x3e82d0ad	0.25549832
189	0x3ef13e90	0.47118044
190	0xbde35e32	-0.11101951
191	0xbf018050	-0.50586414
192	0xbe801bb1	-0.25021127
193	0x3dd31b81	0.1030798
194	0x3e9db497	0.30801842
195	0x3e8de891	0.27716497
196	0xbeda25b3	-0.42606887
197	0x3ef01af7	0.46895573
198	0xbdc7ceca	-0.09756239
199	0xbe815a9f	-0.2526445
200	0x3ec436bc	0.3832301
201	0x3efa6a8c	0.48909414
202	0xbd8b5c30	-0.06804693
203	0xbe167c1a	-0.14695778
204	0xbd35a044	-0.044342294
205	0xbc8c59dd	-0.017132694
206	0x3ead9ed6	0.33910245
207	0x3e692ee1	0.22771789
208	0xbef28b55	-0.47371927
209	0xbe1a9046	-0.15094098
210	0x3e5cd047	0.21563827
211	0x3c01ceef	0.007922872
212	0xbebbc52e	-0.36673874
213	0xbeedce3c	-0.46446407
214	0x3efd335a	0.4945324
215	0x3eb71203	0.3575593
216	0x3e637299	0.22211684
217	0x3e0acf57	0.13555656
218	0x3d331738	0.043723315
219	0x3e6b41e0	0.22974348
220	0xbcf02582	-0.02931476
221	0x3f2a9dcd	0.66647035
222	0xbda16548	-0.07880646
223	0xbebcfb6a	-0.36910564
224	0xbeb0afd8	-0.34509158
225	0x3ae19ed7	0.0017213476
226	0x3e29e89e	0.16592643
227	0xbe0d839e	-0.13819739
228	0xbe8ada7f	-0.27119824
229	0x3f032032	0.51221
230	0x3e20636c	0.15662926
231	0xbc0079b6	-0.007841518
232	0x3c52264c	0.0128265135
233	0x3fa2eebb	1.2729105
234	0xbd11370a	-0.03545288
235	0xbcfa7a4e	-0.030575898
236	0xbe327628	-0.17427886
237	0x3d95d497	0.07315939
238	0x3d80be4b	0.062862955
239	0x3d9926dc	0.07478115
240	0xbf0371a1	-0.5134526
241	0xbf0318ac	-0.5120952
242	0x3f1717d1	0.59020716
243	0x3e972ef5	0.29528013
244	0x3f8306cb	1.0236448
245	0xbf42faf5	-0.7616418
246	0x3db067b9	0.086135335
247	0x3f860c00	1.0472412
248	0x3f439cdd	0.7641123
249	0xbe9dfba6	-0.30856055
250	0x3f23694d	0.6383255
251	0x3e93cf4d	0.28869095
252	0xbe400c45	-0.1875468
253	0x3e857ba4	0.26070893
254	0xbfa96889	-1.3235027
255	0xbe065ab6	-0.13120541

encoder.lstm.bias_ih_l0 f4 [128]
0	0xbe26185f	-0.16220234
1	0x3e89ec1a	0.26937944
2	0x3db84b43	0.0899873
3	0x3e4cc483	0.19996838
4	0xbeb40349	-0.35158756
5	0xbe87e082	-0.26538473
6	0xbe0c9754	-0.13729602
7	0xbe8246ba	-0.25444585
8	0xbcaad31e	-0.020852622
9	0x3eb3faf2	0.35152394
10	0x3d7928e5	0.060830016
11	0xbe89ee67	-0.269397
12	0x3cc0903c	0.023506276
13	0xbe7cd32e	-0.24689934
14	0xbccae02e	-0.0247651
15	0x3c230026	0.009948766
16	0x3de548e0	0.111955404
17	0xbd2f087b	-0.042732697
18	0x3e479405	0.19490059
19	0xbd809c01	-0.062797554
20	0x3ddd7858	0.108139694
21	0x3db18757	0.08668392
22	0x3e9fc0ee	0.3120188
23	0xbd7344e9	-0.05939189
24	0x3ec98e9d	0.39366618
25	0xbd32d595	-0.04366072
26	0x3ef9bc61	0.48776534
27	0x3e8fbaa0	0.2807207
28	0xbd11bd0c	-0.03558068
29	0xbe24bed3	-0.16088419
30	0xbc80fb64	-0.015744872
31	0x3f18fb75	0.5975869
32	0x3d1a56b6	0.03768035
33	0x3ea53a37	0.32270977
34	0x3e608fce	0.21929857
35	0x3e15abec	0.14616364
36	0x3ec5ef3b	0.3865908
37	0x3e83e291	0.25758794
38	0x3e4e63fd	0.2015533
39	0xbe0ac453	-0.13551454
40	0x3e6d34db	0.23164694
41	0x3e0c91f9	0.13727559
42	0x3d01fa5a	0.031732894
43	0xb92df990	-0.00016591535
44	0x3e3fde2d	0.18737097
45	0x3e4c67d0	0.19961476
46	0x3e963c77	0.29343006
47	0x3d83e343	0.06439831
48	0xbe11bbfb	-0.14231865
49	0x3d3a9516	0.045552336
50	0x3dbd2038	0.09234661
51	0x3dedca96	0.11610906
52	0xbddea1a1	-0.10870672
53	0x3e5d198b	0.21591775
54	0x3dd14cf8	0.10219759
55	0xbdebf84f	-0.115219705
56	0x3dc69e0e	0.09698115
57	0x3e09c651	0.13454558
58	0x3e185d41	0.14879324
59	0x3e93a281	0.28834918
60	0x3d2f9403	0.042865764
61	0x3e35384b	0.17697255
62	0x3d931109	0.071809836
63	0x3f1a4a3e	0.60269535
64	0x3debfbb9	0.11522622
65	0x3ce07bfc	0.02740287
66	0x3dfc497e	0.12318705
67	0xbdb762f3	-0.0895442
68	0xbca4a6df	-0.020099102
69	0x3d822f7f	0.063567154
70	0x3ce79aeb	0.028272113
71	0x3d26a43f	0.04068398
72	0xbe51742a	-0.2045447
73	0xbd626d38	-0.05527994
74	0x3e61dd8f	0.22057174
75	0xbd0bbc67	-0.03411522
76	0xbde01fd4	-0.10943571
77	0x3e3991bb	0.18121998
78	0x3d9c331d	0.076269366
79	0x3d6731c6	0.056443952
80	0xbdb42e0f	-0.087978475
81	0x3e6a0a9b	0.22855608
82	0xbde4d624	-0.111736566
83	0x3d64c490	0.05585152
84	0xbe0eac84	-0.13932997
85	0x3e58330e	0.21113226
86	0xbd5b4ff6	-0.053543054
87	0x3d6e5ec9	0.058195863
88	0xbe5f90e5	-0.21832617
89	0x3e771804	0.24130255
90	0xbd41d348	-0.047320634
91	0xbe3233be	-0.1740255
92	0x3e32e81f	0.1747136
93	0xbda49c86	-0.08037667
94	0x3d42509b	0.047440153
95	0x3eacb19c	0.33729255
96	0x3e9cb6dd	0.30608264
97	0x3eea4577	0.45756122
98	0xbdebd849	-0.115158625
99	0xbe84f370	-0.25966978
100	0x3de0902c	0.109649986
101	0x3ea1d005	0.3160402
102	0xbe1e8c67	-0.15483247
103	0x3ea4a186	0.32154483
104	0x3dfcef3a	0.12350316
105	0x3eb7a21e	0.35865873
106	0xbd9a5085	-0.07534889
107	0xbdc4b912	-0.09605612
108	0x3e3af56d	0.18257685
109	0xbddb4fef	-0.107086055
110	0x3d18fe75	0.037352044
111	0xbe0bc715	-0.13650163
112	0x3e5c9639	0.2154168
113	0x3d1fcb15	0.039012033
114	0xbe49fe79	-0.1972598
115	0x3d86a10d	0.06573687
116	0x3eb629a4	0.35578644
117	0x3ec3d2ea	0.38246852
118	0x3f1c1dbc	0.6098287
119	0x3e1636b5	0.14669307
120	0xbe2cd62d	-0.16878577
121	0xbe06d190	-0.13165879
122	0x3ee75ef8	0.45189643
123	0x3dcd372d	0.100202896
124	0xbe4707a7	-0.19436513
125	0x3e6035a8	0.21895468
126	0xbe767959	-0.24069728
127	0xbe4f2385	-0.20228393

encoder.lstm.bias_hh_l0 f4 [128]
0	0xbdfa5cb1	-0.12224711
1	0x3e134e80	0.14385414
2	0xbd0056d1	-0.031332795
3	0x3e5718a9	0.21005501
4	0xbeb0e6a3	-0.34550962
5	0xbe88a2bc	-0.26686656
6	0xbe6b2586	-0.22963533
7	0xbe512362	-0.20423654
8	0xbc8d67eb	-0.017261466
9	0x3e5ed50e	0.21760961
10	0x3d90b113	0.07065024
11	0xbe6e2e62	-0.23259881
12	0x3d4edef0	0.05050558
13	0xbe73f148	-0.2382251
14	0xbde08b93	-0.10964122
15	0xbc1edfbf	-0.0096969
16	0x3e1089a2	0.14115003
17	0xbde88657	-0.11353748
18	0x3e997c13	0.29977474
19	0xbd55116d	-0.05201857
20	0x3e0c4626	0.13698635
21	0x3e1f38b4	0.15548974
22	0x3ea88a74	0.3291813
23	0xbd73e321	-0.05954278
24	0x3ec06c7a	0.3758276
25	0xbde171bd	-0.11008022
26	0x3f0b8f07	0.5451512
27	0x3eb19c87	0.34689733
28	0xbd907210	-0.07053006
29	0xbe302b02	-0.17203906
30	0x3c4ace80	0.012378335
31	0x3f27b12b	0.6550471
32	0x3d4094d8	0.04701695
33	0x3ea05131	0.31311944
34	0x3e228676	0.15871605
35	0x3e41cab1	0.18924977
36	0x3eaf9535	0.34293523
37	0x3e909e33	0.28245696
38	0x3e4cb3ab	0.19990413
39	0xbdd1025d	-0.10205529
40	0x3e7e2ae6	0.24821052
41	0x3e36e493	0.17860632
42	0x3cf8b96a	0.03036185
43	0xbddaee5f	-0.10689997
44	0x3e2d5f9b	0.16931002
45	0x3d8de3b4	0.069281965
46	0x3e89a38a	0.26882583
47	0xbd1a0378	-0.037600964
48	0xbe403480	-0.18770027
49	0x3d8b83c5	0.068122424
50	0x3d8e9dae	0.06963669
51	0x3dde2f9a	0.10848923
52	0xbd6fa820	-0.058509946
53	0x3e5f4387	0.21803103
54	0x3d8b74ae	0.06809364
55	0xbdb93b91	-0.090445645
56	0x3d9c7ef9	0.076414056
57	0x3e5fb1ab	0.21845119
58	0x3dd49ed6	0.10381858
59	0x3ea8939f	0.32925126
60	0x3dc83409	0.0977555
61	0x3e0fe8b2	0.1405361
62	0x3e2c2923	0.16812567
63	0x3f0f5552	0.55989563
64	0x3e2ac4aa	0.16676584
65	0x3d2abe5c	0.041685447
66	0x3d6d66b1	0.057959262
67	0xbd544dbb	-0.051831942
68	0xbcd8f6db	-0.026484897
69	0xbd3ab1e1	-0.045579795
70	0x3bb93ea2	0.0056532184
71	0x3dc12ffd	0.09432981
72	0xbe345049	-0.17608751
73	0xbd833a5b	-0.06407615
74	0x3de23112	0.11044516
75	0x3c68797e	0.014189122
76	0xbd7a49b7	-0.061105456
77	0x3e17a074	0.14807302
78	0x3b370258	0.002792498
79	0xbc9a1be3	-0.018812126
80	0x3c207a8c	0.009794842
81	0x3e6de5c2	0.23232177
82	0xbdfb5005	-0.12271122
83	0x3c220884	0.009889726
84	0xbc922df8	-0.017844185
85	0x3e2eb0ca	0.17059627
86	0x3d45be8b	0.04827742
87	0x3c82246c	0.015886508
88	0xbe4ac3b9	-0.19801225
89	0x3e8688cc	0.26276243
90	0xbcf1e47b	-0.029527893
91	0xbe08fd31	-0.13377835
92	0x3e319453	0.17341737
93	0xbd7ba704	-0.061438575
94	0x3bbd2360	0.0057720393
95	0x3e99ca71	0.30037263
96	0x3e90ddf1	0.28294328
97	0x3ede7639	0.43449572
98	0xbd7921e8	-0.06082335
99	0xbe7cae19	-0.24675788
100	0x3d3ead0e	0.046551757
101	0x3ea1b7c0	0.31585503
102	0xbdd26115	-0.10272423
103	0x3eb5db04	0.35518658
104	0x3e658975	0.22415717
105	0x3eb7a6e4	0.35869515
106	0xbd90aa78	-0.07063764
107	0xbde49e89	-0.11163051
108	0x3e129f0b	0.14318483
109	0xbd88c3d1	-0.06677974
110	0x3d0b7322	0.034045346
111	0xbe08050c	-0.13283175
112	0x3e44e312	0.19227245
113	0x3d3eaf62	0.046553977
114	0xbe126c61	-0.14299156
115	0x3b952dde	0.004552587
116	0x3eb35fa5	0.35033908
117	0x3e8a17f1	0.2697139
118	0x3f14344d	0.57892305
119	0x3e09dde2	0.13463548
120	0xbe0b9856	-0.1363233
121	0xbd9b296e	-0.075762615
122	0x3ec2fa65	0.3808166
123	0x3e0ae974	0.13565618
124	0xbe819915	-0.25312105
125	0x3e1bf18e	0.15228865
126	0xbe558e5c	-0.20855087
127	0xbe5b1b35	-0.21397097

encoder.lstm.weight_ih_l1 f4 [128, 32]
0	0xbe924ce0	-0.28574276
1	0x3f2547aa	0.64562476
2	0x3e5ac8a7	0.21365605
3	0x3e63d8bf	0.22250651
4	0x3d7b9437	0.061420646
5	0xbe875dd3	-0.2643877
6	0xbef337da	-0.4750355
7	0x3d0e8988	0.03479913
8	0x3efffa44	0.49995625
9	0x3e116ecf	0.14202426
10	0xbba35410	-0.0049843863
11	0x3e21478c	0.15749949
12	0xbeae3d99	-0.3403137
13	0x3ea0dd01	0.31418613
14	0x3dc3d85d	0.095627524
15	0x3c8dc963	0.017307943
16	0x3e707c38	0.23484886
17	0xbe378fd9	-0.17925967
18	0x3e419f90	0.18908525
19	0x3ee22e4c	0.44175947
20	0xbd60b095	-0.0548559
21	0x3ac8171f	0.001526568
22	0x3ddb1c61	0.10698772
23	0xbebd7d1c	-0.37009513
24	0x3e3df70b	0.1855127
25	0x3ba7c4bb	0.0051198876
26	0x3e954d23	0.29160413
27	0x3d963513	0.07334342
28	0xbdf885c1	-0.121348865
29	0xbd9cfe71	-0.07665718
30	0x3c8ccdbd	0.017187947
31	0xbdf67863	-0.12034681
32	0x3d0379e8	0.03209868
33	0xbe561192	-0.2090514
34	0xbe21a898	-0.1578697
35	0x3e271a5b	0.16318648
36	0x3eae215c	0.34009826
37	0x3f1d7b01	0.61515814
38	0x3dda9cc5	0.10674433
39	0x3ef64c71	0.48105195
40	0x3e178ddc	0.14800209
41	0x3e8e7635	0.2782456
42	0x3e07b29c	0.13251728
43	0xbf3cba34	-0.73721623
44	0xbdd4fec2	-0.10400154
45	0xbeb4cd21	-0.3531275
46	0xbc8b30b1	-0.016990991
47	0x3e4696a3	0.19393401
48	0x3f4b9e32	0.7953826
49	0xbea7d415	-0.32778993
50	0x3e91493a	0.2837618
51	0xbdbfc85a	-0.09364386
52	0x3ed729b0	0.42023993
53	0x3da15113	0.07876792
54	0xbee33bc8	-0.44381547
55	0xbf2b00dd	-0.6679819
56	0x3ec5897b	0.38581452
57	0x3dec82f3	0.11548414
58	0xbe00cb46	-0.12577543
59	0x3f339784	0.7015307
60	0x3ce39aca	0.02778377
61	0x3ddc3740	0.107527256
62	0x3dceb7f7	0.10093682
63	0xbd811e1b	-0.0630457
64	0xbed164a1	-0.40897086
65	0xbbde92a2	-0.0067923823
66	0xbd55da8f	-0.052210387
67	0x3dd85cb6	0.10564558
68	0xbda7ac76	-0.08187191
69	0x3ea19fcb	0.31567225
70	0x3e4e52e9	0.20148815
71	0xbec09905	-0.37616745
72	0x3d82ec15	0.06392685
73	0x3e9376d8	0.28801608
74	0x3e6bd601	0.23030855
75	0xbec85556	-0.39127606
76	0x3d7d45a0	0.061833978
77	0xbed82467	-0.42215273
78	0x3e0978fd	0.1342506
79	0x3d35ae88	0.0443559
80	0xbeca2886	-0.39484042
81	0xbe5de119	-0.21667899
82	0x3e9a0c40	0.3008747
83	0xbe87fc67	-0.26559755
84	0x3e04906a	0.12945715
85	0x3d24088a	0.040047206
86	0x3eb5e044	0.35522664
87	0x3f147e87	0.58005565
88	0x3ed0a850	0.40753412
89	0xbe4f8a5a	-0.2026762
90	0x3e6eed17	0.2333263
91	0x3f09a641	0.5376931
92	0xbe30906b	-0.17242591
93	0x3d9318b0	0.07182443
94	0xbeeb5038	-0.4595964
95	0xbcf2d468	-0.029642299
96	0x3ece2456	0.40262097
97	0xbe5450ec	-0.20733994
98	0xbdbd5d46	-0.09246306
99	0xbed78a53	-0.4209772
100	0x3e1cc53e	0.15309617
101	0xbea93753	-0.33050022
102	0x3ee7ec18	0.45297313
103	0xbe2e1ef9	-0.17004003
104	0xbde256c4	-0.110517055
105	0xbe240bdb	-0.16020148
106	0x3ed6e46f	0.41971156
107	0xbefd9797	-0.49529716
108	0xbf344231	-0.704135
109	0x3f1315a9	0.57454926
110	0xbe3bc320	-0.18336153
111	0xbd937e99	-0.07201881
112	0xbeafce9b	-0.34337315
113	0x3eedf5f8	0.46476722
114	0xbe276b11	-0.16349436
115	0xbedf0fa9	-0.43566635
116	0x3deecf5c	0.116606444
117	0x3e8b053c	0.2715243
118	0x3e1fb332	0.15595701
119	0x3e34ab5c	0.17643493
120	0xbe7bddf7	-0.24596392
121	0x3ed3e1e9	0.41383293
122	0xbf0ebbea	-0.55755484
123	0xbdfbfff9	-0.12304682
124	0xbe56b711	-0.20968272
125	0xbea69447	-0.32535002
126	0x3d455986	0.04818108
127	0x3e901784	0.2814294
128	0xbe13ec09	-0.14445509
129	0x3e5cdf58	0.21569574
130	0x3e0a324d	0.1349575
131	0x3d9144e7	0.0709322
132	0x3e50ebab	0.204024
133	0x3f12841a	0.5723282
134	0x3cc00eec	0.023444615
135	0x3e3f3702	0.18673328
136	0x3f0d1a5c	0.55118346
137	0x3e728d15	0.23686631
138	0xbe1d0d85	-0.15337189
139	0xbf054c53	-0.52069587
140	0xbe86a0ab	-0.26294455
141	0x3e5698eb	0.20956771
142	0x3e84e56c	0.25956285
143	0x3ea767ab	0.3269628
144	0x3e08a187	0.13342868
145	0xbf0a1bab	-0.5394847
146	0x3ed20057	0.41015884
147	0xbe974def	-0.29551646
148	0x3ddb2ca6	0.107018754
149	0xbe2c3176	-0.16815743
150	0x3e9fde02	0.31224066
151	0x3e74b8dc	0.23898643
152	0x3e6d2e1d	0.23162122
153	0xbd7051ed	-0.05867188
154	0x3c9e773f	0.01934397
155	0x3eb32acd	0.34993592
156	0xbea429e8	-0.32063222
157	0xbd05d6d7	-0.03267559
158	0xbf29bc27	-0.6630272
159	0xbe229eb1	-0.15880848
160	0xbee70e6f	-0.451282
161	0x3ed04e9a	0.40684968
162	0x3eb07961	0.34467605
163	0x3eb37a6e	0.35054344
164	0xbee44e50	-0.44590998
165	0x3d67edfe	0.05662345
166	0xbeeb4fcc	-0.45959318
167	0x3eb1dd20	0.34739017
168	0x3d347fcf	0.0440672
169	0x3e630a48	0.2217189
170	0xbe5e45bc	-0.21706289
171	0x3cdbbaec	0.02682253
172	0xbeb82b8d	-0.35970727
173	0x3e551602	0.20809177
174	0x3e848774	0.25884593
175	0x3e9acb16	0.30233067
176	0xbe2ed2ce	-0.17072603
177	0x3e3f55b9	0.18685044
178	0x3e989f99	0.29809263
179	0x3e990bfb	0.29891953
180	0x3ed4fd5d	0.4159955
181	0xbdb02f53	-0.086027764
182	0x3e1ce504	0.15321738
183	0x3cf8a8b9	0.03035389
184	0x3e4432e6	0.19160041
185	0x3ea17122	0.31531626
186	0xbd0c823a	-0.03430388
187	0x3ec67d95	0.38767686
188	0xbe07ddfa	-0.13268271
189	0x3ee8a964	0.45441735
190	0xbb71a1c2	-0.0036870097
191	0xbe2d22e6	-0.16907844
192	0xbe658d1b	-0.22417109
193	0x3dedde93	0.11614718
194	0x3da35a06	0.07976155
195	0x3d47c853	0.04877503
196	0xbecec1e2	-0.40382296
197	0x3e5947fc	0.21218866
198	0x3c828d2a	0.015936453
199	0x3e95d6ee	0.2926554
200	0x3c38aa03	0.011271003
201	0x3cadb940	0.021206498
202	0x3db1a2b5	0.08673612
203	0x3d9e1c15	0.077202
204	0xbe85d59f	-0.26139542
205	0x3f14c4d8	0.5811286
206	0x3e1b7bb3	0.15183906
207	0x3ea0998e	0.31367153
208	0x3dbfacb7	0.093591146
209	0x3e02f8cd	0.12790222
210	0xbbc188be	-0.0059061935
211	0x3e66f273	0.22553425
212	0x3e1d4cf4	0.15361387
213	0xbe5118a7	-0.2041956
214	0xbf275656	-0.65366113
215	0xbef2dfec	-0.47436464
216	0x3d401238	0.046892375
217	0x3f4e02f1	0.8047324
218	0xbe8345be	-0.25639147
219	0xba8c596a	-0.00107078
220	0xbdcd56f3	-0.1002635
221	0x3e54f2b7	0.20795713
222	0xbd33a01e	-0.04385387
223	0xbd847491	-0.06467546
224	0xbf061737	-0.52379173
225	0xbe8e24a7	-0.2776234
226	0xbe4ca208	-0.19983685
227	0xbf2ff0d0	-0.68726826
228	0xbe285459	-0.16438426
229	0x3f0e6e93	0.5563747
230	0x3e92e6a4	0.2869159
231	0xbeab9061	-0.3350859
232	0xbdd18fd5	-0.10232512
233	0x3dc55b77	0.09636586
234	0xbf08aa67	-0.53385013
235	0xbe6719c9	-0.2256843
236	0xbf05c78c	-0.5225761
237	0xbde557da	-0.11198397
238	0x3ced44d0	0.028963476
239	0xbe870491	-0.2637067
240	0xbee16ad3	-0.44026813
241	0xbe8d9c6e	-0.2765841
242	0x3e21be17	0.1579517
243	0xbe70ae0c	-0.23503894
244	0x3f48de1e	0.78463924
245	0xbf202716	-0.6255964
246	0x3f677bf4	0.9042351
247	0x3ec9cf11	0.39415792
248	0x3e28e1fb	0.16492455
249	0xbe88b951	-0.26703885
250	0x3f1d764f	0.6150865
251	0x3e5883e7	0.21144067
252	0xbe016049	-0.12634386
253	0x3e251ad2	0.16123512
254	0x3ca4a7f1	0.020099612
255	0xbdca524b	-0.098789774

encoder.lstm.weight_hh_l1 f4 [128, 32]
0	0xbe721242	-0.23639777
1	0x3e1912ed	0.14948626
2	0xbef5c77b	-0.48003754
3	0x3cea6cfb	0.028616419
4	0x3db22535	0.08698503
5	0xbe76e70a	-0.24111572
6	0xbf26f126	-0.65211713
7	0xbea99945	-0.33124748
8	0x3e49c15a	0.19702664
9	0xbf2e4e32	-0.68088067
10	0x3d9d5e0b	0.07683953
11	0xbebd3028	-0.36950803
12	0xbe1dcf03	-0.15411
13	0x3f05d822	0.5228292
14	0xbde49350	-0.1116091
15	0xbe98f5e4	-0.298751
16	0x3e42b394	0.19013816
17	0xbec3e2d9	-0.3825901
18	0x3f03eb76	0.5153116
19	0x3ee6f9fa	0.45112592
20	0xbf108921	-0.5645924
21	0xbd0ba3cd	-0.03409176
22	0xbe1c257d	-0.15248676
23	0xbf02c5a1	-0.5108281
24	0xbeb04d24	-0.34433854
25	0xbe04c60f	-0.12966178
26	0xbe3ca6f3	-0.18423061
27	0x3e5b7195	0.21430047
28	0x3c9b6e26	0.018973421
29	0xbe4a6010	-0.19763207
30	0x3d8bd9b2	0.068286315
31	0x3dc8ede3	0.09810998
32	0xbee49641	-0.44645885
33	0x3e600f6b	0.21880881
34	0x3ef7efdf	0.48425195
35	0x3f47c776	0.7803873
36	0xbee2c8b7	-0.44293758
37	0x3d40dd9c	0.047086343
38	0x3eaef920	0.34174442
39	0xbf12185f	-0.5706844
40	0xbf0fdcd4	-0.5619633
41	0x3e85d60b	0.26139864
42	0xbd8e7206	-0.06955342
43	0x3ce0a3b0	0.027421802
44	0x3e677076	0.22601494
45	0xbe96c788	-0.29449105
46	0x3eb3eb0a	0.35140258
47	0xbeb14f66	-0.3463089
48	0xbc267eb7	-0.010162047
49	0x3e805c19	0.25070265
50	0x3d866041	0.06561328
51	0x3f1c91d3	0.6116001
52	0x3f0029ae	0.500636
53	0xbe073e79	-0.13207425
54	0xbe3b7fe4	-0.18310505
55	0x3f0e603c	0.5561559
56	0x3f53d401	0.8274537
57	0xbea2411b	-0.31690297
58	0x3f261add	0.6488474
59	0x3e2fec38	0.17179954
60	0x3e493bc7	0.1965171
61	0xbdee272f	-0.116285674
62	0x3f4602a8	0.77347803
63	0x3f063ea9	0.5243936
64	0xbb92585b	-0.004466099
65	0x3e4b302b	0.19842593
66	0xbed5abee	-0.41732734
67	0x3e7a6763	0.24453501
68	0xbecb1ee5	-0.39672008
69	0xbde49adf	-0.11162352
70	0x3f4027ca	0.75060713
71	0xbf2d9b81	-0.67815405
72	0xbf39f2f9	-0.7263637
73	0x3eef3aeb	0.46724638
74	0xbd91b493	-0.0711452
75	0x3e20ef67	0.15716325
76	0x3ceba42b	0.028764805
77	0x3dfca576	0.12336247
78	0x3ed5dea8	0.41771436
79	0x3df0174b	0.11723193
80	0xbe9043a1	-0.28176597
81	0xbdffb129	-0.124849625
82	0x3d541d52	0.051785775
83	0xbf1dd7db	-0.61657494
84	0x3d6363c1	0.055515055
85	0xbd23dc0b	-0.04000477
86	0xbe04bba8	-0.1296221
87	0xbe8fe298	-0.28102565
88	0xbdc3a6f2	-0.09553327
89	0xbd85185d	-0.064987876
90	0xbe0f65bc	-0.14003652
91	0xbf0ec915	-0.55775577
92	0x3ccbd709	0.02488281
93	0xbdd246ad	-0.102673866
94	0x3eab726a	0.33485729
95	0xbca5a54f	-0.020220427
96	0x3eeb1a47	0.45918486
97	0x3c2200e0	0.009887904
98	0x3ed47c39	0.41501024
99	0xbdc4bcc5	-0.096063174
100	0x3f192536	0.59822404
101	0x3ea11888	0.31464028
102	0xbe5afe34	-0.21386033
103	0x3e74bdeb	0.23900573
104	0xbe7e8e50	-0.24858975
105	0x3e07e931	0.13272549
106	0x3e1e322c	0.15448827
107	0x3f5a07d5	0.851682
108	0x3e51a823	0.20474295
109	0x3ee3a217	0.44459602
110	0xbe0ba01f	-0.136353
111	0xbdded713	-0.10880866
112	0xbda48fae	-0.08035217
113	0x3e252451	0.16127135
114	0xbefb7420	-0.49112034
115	0xbed9e02e	-0.42553848
116	0xbe8a1ea7	-0.2697651
117	0xbdf2d194	-0.1185638
118	0x3f0f6914	0.5601971
119	0xbe1f6797	-0.1556686
120	0xbea9e474	-0.33182108
121	0xbe8ba5c2	-0.272749
122	0xbe9fcbc0	-0.31210136
123	0xbe0c3446	-0.13691816
124	0x3e78287b	0.24234192
125	0xbd8e111c	-0.06936857
126	0xbe872965	-0.2639877
127	0xbd222cbb	-0.03959344
128	0xbef101c0	-0.47071648
129	0x3e9036bf	0.28166768
130	0x3d5c1957	0.053735103
131	0xbe2fa09e	-0.17151114
132	0x3e42547b	0.18977539
133	0xbe2f6025	-0.1712652
134	0xbe8af59c	-0.2714051
135	0xbd1a92c9	-0.03773764
136	0xbe85c303	-0.26125345
137	0xbf1ce184	-0.6128161
138	0x3f24a09a	0.6430756
139	0xbef37be6	-0.47555465
140	0x3dce06d3	0.10059895
141	0xbf0624ca	-0.52399886
142	0x3d308def	0.04310411
143	0x3d4964ae	0.04916828
144	0x3cca5d37	0.024702651
145	0x3ee7888f	0.45221373
146	0x3f2ab901	0.66688544
147	0xbf3c1994	-0.7347653
148	0x3e342c91	0.17595126
149	0x3ea17eb8	0.3154199
150	0x3d799db5	0.060941417
151	0xbde7f970	-0.11326873
152	0x3e02a347	0.12757598
153	0x3ebea433	0.3723465
154	0xbde33396	-0.110938236
155	0xbdc87ec2	-0.09789802
156	0x3d768781	0.06018782
157	0xbd4a4dd5	-0.049390633
158	0x3f0781a0	0.5293217
159	0xbed802cb	-0.4218963
160	0xbe60dd52	-0.21959427
161	0x3e9941f3	0.29933128
162	0xbe5981d5	-0.21240933
163	0xbe5ee696	-0.21767649
164	0x3fd3d31d	1.6548802
165	0xbea757c4	-0.32684147
166	0x3eba30bc	0.36365306
167	0xbed8bdbe	-0.42332262
168	0xbdaa47d6	-0.08314483
169	0xbf03cc8c	-0.5148399
170	0xbcb8afc2	-0.022544745
171	0xbf609c53	-0.8773853
172	0x3ed8d739	0.42351702
173	0x3ef6b151	0.48182157
174	0xbc2312f1	-0.009953246
175	0xbf11109e	-0.5666598
176	0x3edcee1f	0.43150422
177	0x3e1f9645	0.15584667
178	0x3e5dcf4f	0.21661113
179	0xbe421114	-0.18951827
180	0xba2fdaa5	-0.0006708301
181	0x3ded0b25	0.11574391
182	0x3e918815	0.28424135
183	0xbdf2cef6	-0.11855881
184	0xbdedbfc2	-0.116088405
185	0x3e527536	0.20552525
186	0x3d974a12	0.07387175
187	0x3f553a00	0.83291626
188	0xbecd3da5	-0.40086094
189	0x3dddc9d5	0.10829512
190	0x3dd400bc	0.103517026
191	0x3e4f76e2	0.20260194
192	0xbf868d77	-1.0511922
193	0xbda4103d	-0.0801091
194	0x3e184d74	0.14873296
195	0xbe3a73a1	-0.18208171
196	0x3ed0a05a	0.4074734
197	0xbe086d36	-0.1332291
198	0x3db158ab	0.0865949
199	0x3e9df742	0.30852705
200	0xbe3051a8	-0.1721865
201	0xbe0464b4	-0.1292904
202	0x3c2dd3ef	0.010609611
203	0x3f31e32d	0.6948727
204	0x3e636869	0.22207798
205	0xbf255136	-0.64577043
206	0xbe3cdeb8	-0.18444335
207	0xbf44d294	-0.76883817
208	0x3e719bf5	0.23594649
209	0x3ee1460b	0.4399875
210	0xbe6b4e1d	-0.22979017
211	0x3e135265	0.143869
212	0x3e913362	0.28359514
213	0x3f3d117f	0.7385482
214	0xbdc7d2a2	-0.09756972
215	0x3e25f845	0.16207989
216	0x3e961d87	0.29319403
217	0x3cf10283	0.029420143
218	0xbe1ba0ab	-0.15198009
219	0x3e7575bb	0.23970692
220	0x3fce23f5	1.6104723
221	0x3f015d7d	0.50533277
222	0x3d9e1c31	0.07720221
223	0x3ef16ff9	0.4715574
224	0x3efde4cd	0.49588624
225	0x3e785f05	0.24254997
226	0x3dfb18dc	0.12260601
227	0x3d55c696	0.05219134
228	0xbbbc3fe2	-0.00574492
229	0x3db10968	0.08644372
230	0x3f1037e4	0.5633528
231	0x3d8b564f	0.068035714
232	0xbedbca07	-0.42927572
233	0x3f3067f6	0.6890863
234	0x3f61bcbb	0.88178605
235	0xbe57eb55	-0.21085866
236	0xbe33615d	-0.1751761
237	0x3ea0e973	0.31428108
238	0x3e265e2c	0.16246861
239	0x3ec80f1f	0.39074036
240	0xbd9e91bc	-0.077426404
241	0xbec1a831	-0.37823632
242	0xbf188036	-0.59570634
243	0x3dc6308d	0.09677229
244	0xbe8c2b21	-0.27376655
245	0x3eff0093	0.49805126
246	0x3b88ea00	0.0041782856
247	0x3d952731	0.07282866
248	0x3e850a77	0.25984547
249	0xbe0b94f9	-0.13631047
250	0x3ef76c65	0.48324886
251	0x3e9fa4cc	0.31180418
252	0x3e930920	0.287179
253	0x3eeff749	0.4686835
254	0xbd5949d2	-0.053048916
255	0x3dbc2c27	0.09188109

encoder.lstm.bias_ih_l1 f4 [128]
0	0xbc271573	-0.010197985
1	0xbecc322a	-0.39882022
2	0xbda4127c	-0.08011338
3	0x3eb4dd4f	0.35325095
4	0xbd3e8290	-0.046511233
5	0xbe195c7c	-0.14976686
6	0x3d72d6b0	0.059286773
7	0x3d6d59e4	0.057947055
8	0xbce1cae5	-0.027562568
9	0xbebbb379	-0.36660364
10	0x3f118949	0.56850106
11	0x3e1546d3	0.14577799
12	0xbd93ba74	-0.072132975
13	0x3e1da689	0.1539556
14	0x3e8aeccc	0.27133787
15	0xbe0dc56d	-0.13844843
16	0xbd4c18b3	-0.049828243
17	0x3ec97d26	0.39353293
18	0xbbe42da9	-0.006963451
19	0xbe7140c5	-0.23559864
20	0x3ce3d2f3	0.02781055
21	0x3e4c832a	0.1997191
22	0xbd3380d7	-0.043824043
23	0x3e6128ae	0.21988174
24	0x3ee4d858	0.44696307
25	0x3e504349	0.20338167
26	0x3e48ebdc	0.19621223
27	0xbe5c3586	-0.21504793
28	0xbc2fd363	-0.010731551
29	0xbd8d6c36	-0.06905405
30	0x3e4512f3	0.1924551
31	0x3ea842ae	0.32863373
32	0xbc16f8c6	-0.009214586
33	0x3dc46f55	0.095915474
34	0xbd705d45	-0.0586827
35	0xbb788930	-0.0037923567
36	0x3ec912d7	0.39272186
37	0xbe017abc	-0.12644476
38	0x3cfe342e	0.03103074
39	0x3cfaa7ab	0.030597528
40	0x3ee1f5f6	0.44132966
41	0x3e014ffb	0.12628166
42	0xbdd133f1	-0.10214985
43	0x3dcaadb1	0.0989641
44	0xbdbf343d	-0.093361355
45	0x3eb3b45f	0.3509855
46	0x3ea6043f	0.32425115
47	0xbd6b9082	-0.05751086
48	0x3d3af22a	0.045641102
49	0x3d20b8c8	0.03923872
50	0x3c83e035	0.016098121
51	0x3de639ce	0.11241494
52	0xbd1880c2	-0.037232168
53	0xbe025b89	-0.1273023
54	0x3e992da3	0.2991763
55	0xbd53c8fa	-0.051705338
56	0xbe2d101f	-0.16900681
57	0x3cadcfbc	0.02121722
58	0x3e710393	0.2353652
59	0xbd7d182b	-0.061790626
60	0x3da5aca5	0.0808957
61	0x3db0cb4b	0.08632525
62	0x3e3fafe8	0.18719447
63	0xbce8c5cb	-0.028414628
64	0x3e0e7c7b	0.13914673
65	0x3e366f2f	0.1781585
66	0x3dba0b35	0.09084169
67	0xbed13b50	-0.40865564
68	0x3dd0ba99	0.10191841
69	0x3e1e8fb8	0.15484512
70	0x3d7e8745	0.06214072
71	0x3e06a946	0.1315051
72	0x3d930a97	0.07179754
73	0x3a3f3158	0.00072934246
74	0xbd529dab	-0.051419895
75	0x3e2a44b4	0.1662777
76	0xbcda815c	-0.026673011
77	0x3c8fce1f	0.01755434
78	0x3cb96f48	0.02263607
79	0x3dcf070a	0.101087645
80	0x3de8afb9	0.113616414
81	0x3e565b59	0.20933284
82	0xbf0e6de7	-0.5563645
83	0x3d24e17a	0.040254094
84	0xbe165a07	-0.1468278
85	0xbe2d7aa0	-0.16941309
86	0x3e239287	0.15973864
87	0xbea6c3bb	-0.32571205
88	0xbe57a0a8	-0.21057379
89	0xbbc96014	-0.0061454866
90	0xbebc4e2a	-0.36778384
91	0xbe14a361	-0.14515449
92	0x3de62567	0.11237603
93	0xbdbd34af	-0.09238564
94	0xbee29e0c	-0.44261205
95	0xbd82e59a	-0.06391449
96	0x3dc74f53	0.09731927
97	0x3e160a9f	0.14652489
98	0xbd379f26	-0.04482951
99	0xbe84208d	-0.25806084
100	0x3f1fc1d9	0.62405163
101	0x3ee893f4	0.4542538
102	0x3dfaac2e	0.12239872
103	0x3e525365	0.20539625
104	0x3ebc6b6c	0.36800706
105	0x3ea3b9c6	0.3197767
106	0x3f4519fd	0.7699278
107	0x3f01f70a	0.50767577
108	0xbd45e82e	-0.048317127
109	0x3ebcfc0b	0.36911044
110	0xbdd56273	-0.10419168
111	0x3c1704c7	0.009217448
112	0x3e0ae979	0.13565625
113	0xbe0ecfd7	-0.13946472
114	0xbe1855e1	-0.1487651
115	0x3e1442c1	0.1447859
116	0x3eba00e4	0.36328804
117	0xbda09575	-0.07841007
118	0x3eeeeeb6	0.46666497
119	0xbe579f09	-0.21056761
120	0x3e02c988	0.1277219
121	0x3ec820d9	0.3908756
122	0x3e1abe30	0.15111613
123	0xbd9ff6a3	-0.07810714
124	0x3e3e1fcb	0.18566816
125	0x3c8e18ac	0.017345749
126	0x3e0be531	0.13661648
127	0x3ea4b716	0.32170933

encoder.lstm.bias_hh_l1 f4 [128]
0	0xbd075154	-0.033036545
1	0xbe9653b7	-0.29360744
2	0x3cb9a150	0.022659928
3	0x3eb69b7a	0.35665494
4	0x3cae7d52	0.021299992
5	0xbd940607	-0.07227712
6	0x3ccea886	0.025226843
7	0xbd86ea24	-0.065876275
8	0x3bc56490	0.006023951
9	0xbe8f0a7a	-0.2793768
10	0x3f33b758	0.70201635
11	0x3e0187ce	0.12649462
12	0xbe06beb2	-0.13158682
13	0x3e57a317	0.21058308
14	0x3e5cc0ec	0.21557969
15	0xbdfa486d	-0.12220845
16	0xbd18e6f3	-0.037329625
17	0x3e899344	0.26870167
18	0xbcb164aa	-0.021654446
19	0xbe154d78	-0.14580333
20	0x3d9819ed	0.0742682
21	0x3e42f97e	0.19040486
22	0x3ccaafa6	0.024741959
23	0x3e20ce4d	0.15703698
24	0x3eab68b4	0.3347832
25	0x3df5dfe4	0.120055944
26	0x3e919de5	0.28440776
27	0xbe5b938d	-0.21443005
28	0xbc8d88eb	-0.017277202
29	0xbe2478e3	-0.1606174
30	0x3e78efb8	0.24310195
31	0x3ebaeb32	0.36507565
32	0xbd5fe661	-0.054663066
33	0x3d2a8e6c	0.04163973
34	0xbdc117ae	-0.09428345
35	0x3bb51ae2	0.0055268863
36	0x3ea97c4b	0.3310264
37	0xbde4ec21	-0.111778505
38	0x3d024dd7	0.031812515
39	0xbdcff65f	-0.101544134
40	0x3ec01990	0.37519503
41	0x3d89975f	0.06718325
42	0xbda1e425	-0.07904843
43	0x3c52d797	0.012868783
44	0x3be9283a	0.007115391
45	0x3ecdf830	0.40228415
46	0x3ec6668d	0.38750115
47	0xbdd54e74	-0.10415354
48	0x3d7cead1	0.061747376
49	0x3d906a54	0.070515305
50	0x3d819680	0.06327534
51	0x3e6c283b	0.23062222
52	0x3d00f10a	0.031479873
53	0xbd91f2d7	-0.07126396
54	0x3ea6700a	0.32507354
55	0xbd9dc050	-0.07702696
56	0xbd8633f4	-0.06552878
57	0xbd5e7101	-0.054306988
58	0x3e8bb6f9	0.27288035
59	0xbdabecfe	-0.08394812
60	0x3d96b31d	0.07358382
61	0x3d72ff71	0.05932564
62	0x3e32d105	0.17462547
63	0xbca726ee	-0.020404305
64	0x3de7a32b	0.11310419
65	0x3dde519b	0.10855409
66	0x3e09c887	0.13455401
67	0xbebd20e1	-0.36939147
68	0x3dd02b8a	0.101645544
69	0x3d546981	0.05185843
70	0x3ba96733	0.005169773
71	0x3e5a54c0	0.21321392
72	0x3e3ca254	0.18421298
73	0x3d7eb4de	0.062184207
74	0x3d2a8a51	0.041635815
75	0x3e47efcd	0.1952507
76	0xbd46b524	-0.048512593
77	0x3da7a323	0.08185413
78	0xbd5342af	-0.051577266
79	0x3c9e2eb8	0.019309387
80	0x3e4b9222	0.19879964
81	0x3e30c016	0.17260775
82	0xbf132a2a	-0.5748621
83	0x3d8ac17c	0.067751855
84	0xbe203209	-0.15644087
85	0xbdc03cad	-0.09386573
86	0x3e31b6ae	0.17354843
87	0xbe908f93	-0.28234538
88	0xbe1b9bd9	-0.1519617
89	0xbd882f83	-0.06649687
90	0xbe9164fb	-0.28397354
91	0xbd5e5acd	-0.054285813
92	0x3e4eb117	0.20184742
93	0xbe1a7ef9	-0.15087499
94	0xbec4b20b	-0.38417086
95	0xbdb537b1	-0.08848513
96	0x3dd60f62	0.10452153
97	0x3d6949ab	0.05695502
98	0xbdd58cfb	-0.104272805
99	0xbe9bc4ae	-0.30423492
100	0x3f2d4f15	0.67698795
101	0x3eba8d15	0.36435762
102	0x3d9b50c3	0.075837635
103	0x3dd45ab1	0.103688605
104	0x3edf9577	0.4366872
105	0x3ed6ea67	0.4197571
106	0x3f2fa1ad	0.6860607
107	0x3ed23636	0.41056985
108	0xbdc3f918	-0.09568995
109	0x3eb38bf7	0.35067722
110	0xbe036f8a	-0.12835518
111	0x3e0af4c5	0.13569935
112	0x3e31edc7	0.17375861
113	0xbdf41902	-0.11918832
114	0xbe19386e	-0.14962932
115	0x3c8bdd9b	0.017073443
116	0x3e99b208	0.3001864
117	0xbdff574b	-0.12467822
118	0x3ed2d0cc	0.41174924
119	0xbe0f6341	-0.14002706
120	0x3dd77d1b	0.10521909
121	0x3ea61dff	0.3244476
122	0x3dd51e10	0.104061246
123	0xbde0121a	-0.109409526
124	0x3e28c3b7	0.1648091
125	0x3d3c7a35	0.046014983
126	0x3dbb4184	0.091433555
127	0x3edaae58	0.4271114
