results/MSE_LSTM_enc_dec_2_layer_output/410_model.pt (torch, 930089 bytes, 18 tensors)

output_zeros f4 [399, 512, 1]
000000 00 00 00 00 00 00 00 00 00 00 00 00 00 00 00 00
       0.0 0.0 0.0 0.0
000010 00 00 00 00 00 00 00 00 00 00 00 00 00 00 00 00
       0.0 0.0 0.0 0.0
000020 00 00 00 00 00 00 00 00 00 00 00 00 00 00 00 00
       0.0 0.0 0.0 0.0
000030 00 00 00 00 00 00 00 00 00 00 00 00 00 00 00 00
       0.0 0.0 0.0 0.0
000040 00 00 00 00 00 00 00 00 00 00 00 00 00 00 00 00
       0.0 0.0 0.0 0.0
000050 00 00 00 00 00 00 00 00 00 00 00 00 00 00 00 00
       0.0 0.0 0.0 0.0
000060 00 00 00 00 00 00 00 00 00 00 00 00 00 00 00 00
       0.0 0.0 0.0 0.0
000070 00 00 00 00 00 00 00 00 00 00 00 00 00 00 00 00
       0.0 0.0 0.0 0.0
000080 00 00 00 00 00 00 00 00 00 00 00 00 00 00 00 00
       0.0 0.0 0.0 0.0
000090 00 00 00 00 00 00 00 00 00 00 00 00 00 00 00 00
       0.0 0.0 0.0 0.0
0000a0 00 00 00 00 00 00 00 00 00 00 00 00 00 00 00 00
       0.0 0.0 0.0 0.0
0000b0 00 00 00 00 00 00 00 00 00 00 00 00 00 00 00 00
       0.0 0.0 0.0 0.0
0000c0 00 00 00 00 00 00 00 00 00 00 00 00 00 00 00 00
       0.0 0.0 0.0 0.0
0000d0 00 00 00 00 00 00 00 00 00 00 00 00 00 00 00 00
       0.0 0.0 0.0 0.0
0000e0 00 00 00 00 00 00 00 00 00 00 00 00 00 00 00 00
       0.0 0.0 0.0 0.0
0000f0 00 00 00 00 00 00 00 00 00 00 00 00 00 00 00 00
       0.0 0.0 0.0 0.0
000100 00 00 00 00 00 00 00 00 00 00 00 00 00 00 00 00
       0.0 0.0 0.0 0.0
000110 00 00 00 00 00 00 00 00 00 00 00 00 00 00 00 00
       0.0 0.0 0.0 0.0
000120 00 00 00 00 00 00 00 00 00 00 00 00 00 00 00 00
       0.0 0.0 0.0 0.0
000130 00 00 00 00 00 00 00 00 00 00 00 00 00 00 00 00
       0.0 0.0 0.0 0.0
000140 00 00 00 00 00 00 00 00 00 00 00 00 00 00 00 00
       0.0 0.0 0.0 0.0
000150 00 00 00 00 00 00 00 00 00 00 00 00 00 00 00 00
       0.0 0.0 0.0 0.0
000160 00 00 00 00 00 00 00 00 00 00 00 00 00 00 00 00
       0.0 0.0 0.0 0.0
000170 00 00 00 00 00 00 00 00 00 00 00 00 00 00 00 00
       0.0 0.0 0.0 0.0
000180 00 00 00 00 00 00 00 00 00 00 00 00 00 00 00 00
       0.0 0.0 0.0 0.0
000190 00 00 00 00 00 00 00 00 00 00 00 00 00 00 00 00
       0.0 0.0 0.0 0.0
0001a0 00 00 00 00 00 00 00 00 00 00 00 00 00 00 00 00
       0.0 0.0 0.0 0.0
0001b0 00 00 00 00 00 00 00 00 00 00 00 00 00 00 00 00
       0.0 0.0 0.0 0.0
0001c0 00 00 00 00 00 00 00 00 00 00 00 00 00 00 00 00
       0.0 0.0 0.0 0.0
0001d0 00 00 00 00 00 00 00 00 00 00 00 00 00 00 00 00
       0.0 0.0 0.0 0.0
0001e0 00 00 00 00 00 00 00 00 00 00 00 00 00 00 00 00
       0.0 0.0 0.0 0.0
0001f0 00 00 00 00 00 00 00 00 00 00 00 00 00 00 00 00
       0.0 0.0 0.0 0.0
000200 00 00 00 00 00 00 00 00 00 00 00 00 00 00 00 00
       0.0 0.0 0.0 0.0
000210 00 00 00 00 00 00 00 00 00 00 00 00 00 00 00 00
       0.0 0.0 0.0 0.0
000220 00 00 00 00 00 00 00 00 00 00 00 00 00 00 00 00
       0.0 0.0 0.0 0.0
000230 00 00 00 00 00 00 00 00 00 00 00 00 00 00 00 00
       0.0 0.0 0.0 0.0
000240 00 00 00 00 00 00 00 00 00 00 00 00 00 00 00 00
       0.0 0.0 0.0 0.0
000250 00 00 00 00 00 00 00 00 00 00 00 00 00 00 00 00
       0.0 0.0 0.0 0.0
000260 00 00 00 00 00 00 00 00 00 00 00 00 00 00 00 00
       0.0 0.0 0.0 0.0
000270 00 00 00 00 00 00 00 00 00 00 00 00 00 00 00 00
       0.0 0.0 0.0 0.0
000280 00 00 00 00 00 00 00 00 00 00 00 00 00 00 00 00
       0.0 0.0 0.0 0.0
000290 00 00 00 00 00 00 00 00 00 00 00 00 00 00 00 00
       0.0 0.0 0.0 0.0
0002a0 00 00 00 00 00 00 00 00 00 00 00 00 00 00 00 00
       0.0 0.0 0.0 0.0
0002b0 00 00 00 00 00 00 00 00 00 00 00 00 00 00 00 00
       0.0 0.0 0.0 0.0
0002c0 00 00 00 00 00 00 00 00 00 00 00 00 00 00 00 00
       0.0 0.0 0.0 0.0
0002d0 00 00 00 00 00 00 00 00 00 00 00 00 00 00 00 00
       0.0 0.0 0.0 0.0
0002e0 00 00 00 00 00 00 00 00 00 00 00 00 00 00 00 00
       0.0 0.0 0.0 0.0
0002f0 00 00 00 00 00 00 00 00 00 00 00 00 00 00 00 00
       0.0 0.0 0.0 0.0
000300 00 00 00 00 00 00 00 00 00 00 00 00 00 00 00 00
       0.0 0.0 0.0 0.0
000310 00 00 00 00 00 00 00 00 00 00 00 00 00 00 00 00
       0.0 0.0 0.0 0.0
000320 00 00 00 00 00 00 00 00 00 00 00 00 00 00 00 00
       0.0 0.0 0.0 0.0
000330 00 00 00 00 00 00 00 00 00 00 00 00 00 00 00 00
       0.0 0.0 0.0 0.0
000340 00 00 00 00 00 00 00 00 00 00 00 00 00 00 00 00
       0.0 0.0 0.0 0.0
000350 00 00 00 00 00 00 00 00 00 00 00 00 00 00 00 00
       0.0 0.0 0.0 0.0
000360 00 00 00 00 00 00 00 00 00 00 00 00 00 00 00 00
       0.0 0.0 0.0 0.0
000370 00 00 00 00 00 00 00 00 00 00 00 00 00 00 00 00
       0.0 0.0 0.0 0.0
000380 00 00 00 00 00 00 00 00 00 00 00 00 00 00 00 00
       0.0 0.0 0.0 0.0
000390 00 00 00 00 00 00 00 00 00 00 00 00 00 00 00 00
       0.0 0.0 0.0 0.0
0003a0 00 00 00 00 00 00 00 00 00 00 00 00 00 00 00 00
       0.0 0.0 0.0 0.0
0003b0 00 00 00 00 00 00 00 00 00 00 00 00 00 00 00 00
       0.0 0.0 0.0 0.0
0003c0 00 00 00 00 00 00 00 00 00 00 00 00 00 00 00 00
       0.0 0.0 0.0 0.0
0003d0 00 00 00 00 00 00 00 00 00 00 00 00 00 00 00 00
       0.0 0.0 0.0 0.0
0003e0 00 00 00 00 00 00 00 00 00 00 00 00 00 00 00 00
       0.0 0.0 0.0 0.0
0003f0 00 00 00 00 00 00 00 00 00 00 00 00 00 00 00 00
       0.0 0.0 0.0 0.0

encoder.lstm.weight_ih_l0 f4 [128, 4]
000000 48 d2 c9 be b7 3a 4b bc e3 c8 f7 3e c2 c4 65 be
       -0.39418244 -0.012404135 0.48395452 -0.22438338
000010 fa eb f8 3e 22 ae 8c 3f 99 69 d4 3e ce 68 af 3e
       0.48617536 1.0990641 0.41486815 0.34259647
000020 af 1a 7d be e9 e4 7d 3d d3 1c 5b bf 7d 79 41 3e
       -0.2471721 0.061985884 -0.8559086 0.18894
000030 ae 82 49 3e dd c3 96 3e 15 6a 12 be 8d b0 3c 3f
       0.19678757 0.29446307 -0.1429828 0.73706895
000040 b6 b7 8e 3e 96 ba 8c 3f 64 25 63 3e 92 d6 e9 bd
       0.27874535 1.0994442 0.22182232 -0.11417879
000050 12 a3 45 bf 3f e8 73 3f 38 66 bf bd 83 35 85 bf
       -0.7720195 0.95276254 -0.093456686 -1.0406955
000060 73 d0 e9 bc 44 f9 03 3f f1 db 1a 3f 11 76 86 3f
       -0.02854178 0.51552224 0.60491854 1.0504781
000070 cf 29 30 3f 63 81 d6 bd 1a 6d 8a bc 12 2c 6e bd
       0.68813795 -0.10473897 -0.016897727 -0.058147497
000080 25 ad 70 bd 3f de 12 be a7 cd 98 3d 43 12 2d 3e
       -0.058758873 -0.14342593 0.074611 0.16901498
000090 21 ce 9f 3e cd b5 2d 3e b2 65 fd 3e 4e 3b 1e be
       0.3121195 0.16963883 0.4949165 -0.1545231
0000a0 c3 73 27 bd df 4f 63 3f 75 a8 bf bd 63 04 0b 3f
       -0.040881883 0.8879375 -0.093583025 0.5430357
0000b0 d4 87 12 3e 4b 08 02 3f bb 0e 08 3f 51 04 01 bf
       0.14309627 0.50793904 0.53147477 -0.5039721
0000c0 48 26 98 3f c7 29 5e 3f bf 0e c5 3e af 9b 68 bd
       1.1886683 0.867825 0.38487813 -0.056789096
0000d0 57 05 2f 3f d2 1a da bd c6 59 e3 3c 80 ca 27 bd
       0.6836752 -0.10649647 0.027752768 -0.040964603
0000e0 c7 e7 d5 3e be 15 07 be 4d 89 08 bf 2c ea c0 bd
       0.41778395 -0.13191888 -0.53334504 -0.09419665
0000f0 f9 c5 b8 3c 88 64 1c 3f 5d 72 27 3f 71 b5 55 be
       0.022555338 0.610909 0.6540888 -0.20869996
000100 a0 64 48 bf 03 e7 98 3c 6c 5b 41 3f 52 b9 2a 3f
       -0.7827854 0.018664842 0.75530124 0.66689026
000110 c5 14 d2 be 30 26 33 3e fc 36 cc 3f 13 8e 9b be
       -0.4103147 0.17495036 1.595428 -0.30381832
000120 6c 25 44 3d 2a 9d 27 bf 38 87 ca 3e 7a 0b 28 3f
       0.04788725 -0.6547419 0.3955629 0.6564251
000130 b3 57 20 3f 29 56 17 be 69 33 6d bc 18 3e d4 3d
       0.6263382 -0.14778961 -0.014477589 0.10363406
000140 b8 c1 a7 3b 46 87 9d 3e 3e 2f 52 3f 2f e5 b1 3f
       0.0051195286 0.30767268 0.82103336 1.3898066
000150 fa f4 3f 3e a8 ad 19 be 1e 7a bc be d2 55 87 3e
       0.18745795 -0.15007651 -0.36811918 0.26432663
000160 d4 0f 26 3f 95 e0 08 3e f3 88 25 bf 4d 7f 04 3c
       0.648679 0.13366921 -0.6466209 0.0080869915
000170 d3 61 3f be 0d 84 03 3f b6 ae 26 3f 02 9c e4 3e
       -0.1868966 0.5137337 0.6511034 0.44650275
000180 8e bc 2e be 83 64 9a bd 43 f7 ad 3c fd 5b 45 3f
       -0.17064115 -0.07538702 0.021236068 0.7709349
000190 97 46 6b 3c 8b 80 65 3e cc 5c d8 be a0 f4 5c bc
       0.014360092 0.22412317 -0.42258298 -0.0134860575
0001a0 cb 73 f4 be 79 b9 a9 be 27 aa bb 3e 34 be 74 3f
       -0.47744593 -0.33149317 0.36653253 0.95602727
0001b0 c1 09 a0 be a2 a8 1a be 0e b2 74 3e 66 32 7b bd
       -0.31257442 -0.15103391 0.23896047 -0.06132736
0001c0 de 2d 52 3f c9 17 25 3f 1f e6 d8 3e 76 2f d7 3e
       0.8210124 0.6448942 0.42363068 0.42028397
0001d0 80 88 ab 3e f7 fd c8 3e ea 7d 94 be b5 67 35 3f
       0.3350258 0.3925626 -0.29002315 0.7086137
0001e0 d2 1b 90 be 32 3f 82 3d 4e 93 a3 be b1 24 98 3f
       -0.28146225 0.0635971 -0.31948322 1.1886197
0001f0 7f 68 c8 3f ff 48 d1 3f 3a 0c 3e bf c3 ec 96 3f
       1.565689 1.6350402 -0.74237406 1.1791004
000200 83 bf 11 3d af 67 3d 3e 3a 0d fa 3e 58 9b d5 3d
       0.03558303 0.18496583 0.48838216 0.1043002
000210 9b 92 d6 3e c5 63 41 3e b7 1a 44 3f 01 6a 27 be
       0.41908726 0.18885715 0.76603264 -0.16349031
000220 e5 e0 59 bf ef 8f 01 3d a7 6b ae bf 16 a0 17 3f
       -0.85108787 0.031631406 -1.3626603 0.59228647
000230 e7 81 46 be 30 45 08 3f 3e 1b 0c 3e e3 23 96 3e
       -0.19385491 0.5323057 0.13682267 0.29324254
000240 96 2e b7 3f 3c ea 41 3e b8 2b f5 3e f0 d4 23 be
       1.4311092 0.1893701 0.47884917 -0.15999198
000250 24 a7 5d 3e cb a7 0b 3f 6d 72 fa 3e c8 f3 fb 3e
       0.2164579 0.54552907 0.48915425 0.49209428
000260 99 07 d7 3e 0a 05 3f 3f 6c f1 60 3f 55 7b 35 3e
       0.41997984 0.74617064 0.8786838 0.17722829
000270 a3 4f c2 3e a3 c5 c6 be e7 96 db be 26 df cc bd
       0.37951383 -0.3882266 -0.42888567 -0.100035
000280 d4 bf 58 3e f7 87 35 3f 98 43 4b be 8e 24 45 3f
       0.21166927 0.7091059 -0.19850004 0.77008903
000290 1f 48 66 bf 1c 12 85 be ff 1e b1 3e 72 7f 5b bf
       -0.899538 -0.2599038 0.3459396 -0.8574134
0002a0 e3 ba 1e be 37 71 b5 bf ff 31 9b 3f d4 94 a7 3e
       -0.15500979 -1.4175175 1.2124633 0.32730734
0002b0 9b ec 08 3f 8f 9e e9 bc b5 f5 65 3f 4b a9 de 3e
       0.5348603 -0.02851799 0.89828044 0.43488535
0002c0 70 63 78 3f 09 d5 b3 3e 82 e1 f9 be 70 65 c1 3e
       0.9702673 0.3512347 -0.4880486 0.37772703
0002d0 ad e4 5e 3f fc 9b f4 3e fa 40 57 3e 47 25 f3 3c
       0.8706768 0.47775257 0.2102088 0.029680861
0002e0 e3 80 cb be 3f d1 86 3e 0e df f0 be 79 ac 20 3f
       -0.3974677 0.26331517 -0.47045177 0.6276317
0002f0 69 10 f0 be 5d 8a a8 3f c6 70 06 3e a0 a3 e9 be
       -0.4688752 1.3167225 0.13128957 -0.45632648
000300 bd 55 dd bd 3a ea 77 3f e5 b0 80 bd fa 08 db bf
       -0.10807369 0.96841776 -0.0628374 -1.7112114
000310 4c 92 ed 3e a8 44 21 40 c1 cb 5d 3f a1 a3 56 3f
       0.46400678 2.5198154 0.8663903 0.8384343
000320 7f e2 77 bf da 63 b3 3d f8 87 4f 3d 76 02 fb 3d
       -0.9682998 0.087592795 0.05066678 0.12256329
000330 49 59 9e be ec 23 e4 3a 26 1b c7 3e 05 92 75 3c
       -0.30927494 0.0017405725 0.388879 0.014988427
000340 ae b9 de 3f 71 5c ee 3e 9e 4b 8c bf ca c0 89 bf
       1.7400415 0.46554902 -1.0960577 -1.076196
000350 7d 2c 15 3f 9d c3 d2 3e e4 c0 5c 3d 7b 8d e6 3e
       0.5827101 0.41164866 0.053894892 0.45029816
000360 93 58 2b bf bb 4b 81 3f 4a 6e dc 3d a0 ed 5f bf
       -0.6693203 1.0101236 0.107632235 -0.8747196
000370 91 13 12 3f 34 3f 2b bd f1 5f 8e bc 47 a8 5f 3f
       0.57061106 -0.041808322 -0.017379733 0.87366146
000380 83 4a b6 3e 08 73 cd bd 64 78 47 3d 12 fe fa be
       0.35603723 -0.10031706 0.048698798 -0.49021965
000390 73 60 e0 be 16 33 da 3d 1f aa 25 3f f6 c0 df 3e
       -0.43823585 0.10654275 0.6471271 0.43701905
0003a0 42 84 b0 be 66 0d 08 be fa db d5 be 7f 62 29 bf
       -0.34475905 -0.13286361 -0.4176939 -0.6616592
0003b0 d3 75 31 bf e7 3e 81 be ee be 58 be 00 0b fb 3e
       -0.6932041 -0.25243303 -0.21166584 0.4903183
0003c0 29 aa 10 bf a9 88 25 be 77 e5 04 3f 53 b2 4b 3e
       -0.56509644 -0.16165413 0.51912636 0.19892244
0003d0 de 02 54 3f 4c 3a a6 3f ad 1a 14 3e 4e 4b ec 3f
       0.82816875 1.2986541 0.14463301 1.8460481
0003e0 15 d0 19 bf 88 c6 fe 3d e3 6d ab be b7 d8 1e be
       -0.60083133 0.124402106 -0.33482274 -0.15512358
0003f0 9f ec 8f 40 2f 46 57 40 1e c8 27 3f 0f cc d9 3f
       4.4976344 3.3636587 0.6553973 1.7015399

encoder.lstm.weight_hh_l0 f4 [128, 32]
000000 7a c6 c0 be 63 62 22 3e 14 03 b6 3e 26 ae 85 3e
       -0.37651426 0.15857844 0.35549223 0.26109427
000010 d2 93 9c 3c dd 42 5e 3e 05 96 7d 3e f4 93 01 3f
       0.019113455 0.21705194 0.24764259 0.50616384
000020 83 6f 00 3e 31 89 25 be e2 2a 0d bf 07 b7 91 3e
       0.12542538 -0.16165616 -0.5514356 0.2845995
000030 21 16 86 3e 7c 90 eb bd e7 a0 7e be 8a d6 1a 3f
       0.26188758 -0.115021676 -0.24866067 0.6048361
000040 ed 34 4b 3f 16 30 1b 3d 03 b9 ee 3e 1d 00 9a 3e
       0.79377633 0.037887655 0.46625528 0.3007821
000050 fb 46 20 bf 2b 38 68 bb 80 e7 9e be 3d 23 ac be
       -0.6260831 -0.003543387 -0.31035995 -0.33620635
000060 f8 6a 82 bd 3a 87 90 be cc b7 5a be 33 b1 48 3e
       -0.06368059 -0.2822817 -0.21359175 0.19598846
000070 2e 69 7f 3e bb 62 17 3e 80 0b e4 bd a4 94 4d 3e
       0.24942467 0.14783756 -0.11135006 0.20076233
000080 9c d8 68 3b 8a 85 fc bc 6d e6 8e be da 08 56 be
       0.00355295 -0.030825395 -0.27910176 -0.20901814
000090 a9 68 e4 be 03 19 31 3e 60 47 3a 3e 45 d8 e9 bd
       -0.446111 0.17294697 0.1819129 -0.11418203
0000a0 76 e3 76 be 88 c3 5a be a0 8a 55 be 7e bb 3d be
       -0.24110207 -0.21363652 -0.20853662 -0.18528554
0000b0 ac 20 1b bf 0e 6b 62 bd 5b d8 a3 bd ce 54 15 3f
       -0.6059673 -0.055277877 -0.08000251 0.58332527
0000c0 db 97 3b bf bd e9 3f bd 75 2b 8e 3e 0a 40 ab be
       -0.7327859 -0.04685377 0.2776753 -0.33447295
0000d0 37 2f af 3d a1 ff 75 3d bf 2f 5a 3e 3a 01 9d 3e
       0.085539274 0.06005824 0.21307276 0.30664998
0000e0 27 54 16 3d 7e 44 2b 3e 34 2b c9 be 17 b0 d3 3d
       0.036701348 0.16725346 -0.39290774 0.10336321
0000f0 94 a3 f2 bd c0 c0 0e 3e 82 e5 26 be 4c b1 a1 3b
       -0.11847606 0.13940716 -0.16298488 0.0049344655
000100 86 4f f0 3d 2c db 2c 3b 37 45 3e 3e d5 64 e0 3e
       0.11733918 0.0026375754 0.18581091 0.4382693
000110 ba 97 83 3e e2 02 9a be 6b 8d 2b be 47 f4 f6 3e
       0.25701696 -0.30080324 -0.16753165 0.48233244
000120 e1 4a cd bd a1 16 45 bc 2c 2e 07 3f b7 61 81 bc
       -0.10024048 -0.012029321 0.5280483 -0.015793664
000130 e3 8e 9c bf 70 30 0a 3c 75 4b c3 3d 94 ef 26 be
       -1.2231106 0.0084344 0.09535877 -0.1630233
000140 c7 57 57 bf b5 d4 89 bd bb bc c4 3d cf 62 a1 bd
       -0.8411831 -0.06730024 0.0960631 -0.07880174
000150 29 fd a0 3d 6f a9 5e be 82 9f b7 3e 72 7d 60 3e
       0.078607865 -0.21744321 0.35863882 0.21922854
000160 17 2f 1c 3e 1a e5 93 3e 4d 4b 8b 3e 02 80 ce 3d
       0.15252338 0.28885728 0.27205887 0.10083009
000170 41 f8 94 be e8 e4 6f be b3 09 74 3e b6 45 9d be
       -0.29095653 -0.23427165 0.23831825 -0.30717248
000180 1d f5 9e bd 0b 2c b5 3c bb 00 ff bd 6c 9e 06 bf
       -0.077615954 0.022115728 -0.12451311 -0.5258548
000190 83 66 62 3d 59 be 19 3e b0 96 0b be 64 f5 d2 3e
       0.055273544 0.15014018 -0.13631701 0.41202843
0001a0 12 70 86 be 3f c8 84 bd b5 e8 90 bd d5 f2 ff be
       -0.26257378 -0.064835064 -0.07075635 -0.49989954
0001b0 b3 f7 00 be 24 fa 05 bd 02 d0 85 3e 6d 9f 0a be
       -0.1259449 -0.032709256 0.2613526 -0.13537379
0001c0 0a bd d6 bd dc 68 97 3e 07 d1 03 3d 01 39 27 be
       -0.10485275 0.2957219 0.032181766 -0.16330339
0001d0 f2 2e 49 3d e6 02 1a bd bf 37 b9 bc da b5 b3 3d
       0.049117036 -0.03760042 -0.02260959 0.0877492
0001e0 b2 98 1f 3e c4 2e 86 3e 1b f3 14 bf ed 7d 37 3d
       0.15585592 0.26207554 -0.5818345 0.044797827
0001f0 89 68 fc be e5 15 95 3e b5 f1 9a be 2e 8e 36 3e
       -0.49298504 0.29118267 -0.30262533 0.17827675
000200 58 99 2e 3f fa 70 3c 3f 15 b5 04 3f 9e af cb 3e
       0.68202734 0.7360989 0.5183881 0.39782423
000210 3d bb 88 be ed 76 00 3f ab e9 1c bf 86 f2 a8 be
       -0.2670535 0.50181466 -0.6129405 -0.3299753
000220 89 e3 c9 3f f7 7f a3 3e 58 ad a2 3e 89 67 95 be
       1.5772563 0.31933567 0.31772876 -0.29180554
000230 65 33 16 bf 65 04 62 3e d5 2b 14 3f c1 ce df 3e
       -0.5867217 0.22071989 0.5787938 0.43712428
000240 4f 45 7a be a9 e9 03 bf c4 6f 73 3e 95 6e 7f 3e
       -0.24440502 -0.5152841 0.23773104 0.24944527
000250 75 b7 1c be cd 46 20 bf ed 63 eb 3d 52 c4 f6 3e
       -0.15304358 -0.62608033 0.11493669 0.48196656
000260 1c 5f 23 3e c7 33 c8 be fd 2f f2 3e 71 4d 16 3e
       0.1595425 -0.39102003 0.47302237 0.14677979
000270 41 fe 9c bd ce e9 8a bd 6c 3b ce be a7 b4 9b bf
       -0.076656826 -0.06782876 -0.4027971 -1.2164506
000280 39 22 d5 3e fa f2 f7 be ca 03 86 3e 80 15 4f 3f
       0.41627672 -0.48427564 0.26174766 0.8089218
000290 f1 eb 08 3f d1 0d d5 3c c3 50 08 3f 89 69 1c 3d
       0.5348502 0.026007565 0.5324823 0.038186584
0002a0 63 5b 19 3f a5 dd 83 3e 0c b8 10 be c0 4f 88 3f
       0.5990507 0.2575504 -0.14132708 1.0649338
0002b0 47 4b b8 be 6d e6 06 bf 83 41 84 3e cf d2 2f be
       -0.35994932 -0.5269535 0.2583123 -0.17170261
0002c0 aa 6a 50 3f 4a c2 f3 be 2a 08 11 bc 4a 2b d7 bc
       0.81412756 -0.47609168 -0.008852044 -0.026265759
0002d0 ed f0 05 be 13 fc 19 bd d4 cd 90 be 69 24 73 3f
       -0.13080187 -0.037593912 -0.28282034 0.9497743
0002e0 c1 a3 91 bd dc 3a 0a bd 55 03 20 be fa a7 69 bd
       -0.07111312 -0.03374754 -0.15626271 -0.05704496
0002f0 4c 4f 65 3f 94 51 69 3e b0 5d a7 be a5 23 a3 3d
       0.8957412 0.22785026 -0.32688665 0.07965783
000300 00 a9 10 be 87 05 0b 3f f5 69 90 3e 3a be 5d 3e
       -0.14126968 0.5430531 0.2820584 0.21654597
000310 ae 65 1a bf 11 e6 1f 3f de 73 d8 be 8d b0 25 3e
       -0.603114 0.6246043 -0.422759 0.1618063
000320 35 5a 3f be 7c 9f 73 3e 13 93 5e bf 57 1d 9b 3e
       -0.18686755 0.23791307 -0.8694317 0.30295822
000330 53 b1 28 be 1b 06 23 3e cb fb e6 3e fa ce 14 3f
       -0.16473894 0.15920298 0.45113978 0.5812832
000340 2a 3b a3 be 45 dc 2b bd f4 f6 54 3e 42 1e eb 3d
       -0.31881076 -0.041958112 0.2079733 0.114803806
000350 68 ec 64 be d1 70 0a bf 17 fb 4d 3e 7a 2a 97 bd
       -0.22355807 -0.54078394 0.20115314 -0.07381149
000360 6f 57 a8 be b1 32 9a 3e ab f7 d4 bd df 80 d7 bd
       -0.32879207 0.301168 -0.103988014 -0.10522627
000370 a2 5f d6 be 80 ce 09 3f 9a 11 c0 3d 5c 9d 0b bf
       -0.41869837 0.5383072 0.09378357 -0.54536986
000380 10 a3 b2 bd a0 90 1d 3d b2 ee 98 3d 6c 6b 35 bd
       -0.08722508 0.038468003 0.074674025 -0.0442919
000390 fb c6 3b 3e c9 b8 0a 3f 6d e6 88 3e ab 9e 30 be
       0.18337624 0.5418821 0.267383 -0.17248027
0003a0 38 08 3e 3e 57 cc 9d 3e 5d 1a 28 3c c4 df 6c 3e
       0.18557823 0.3081996 0.010260192 0.23132235
0003b0 aa 9a 23 3c 15 5c 25 3e bd 96 2c ba 9d 15 51 bd
       0.009985605 0.16148408 -0.0006583741 -0.051046003
0003c0 d1 cf ae be e7 47 c5 be 18 99 70 3e 4d d2 76 3d
       -0.34142926 -0.3853142 0.234959 0.060259152
0003d0 2d bb 8d 3d a2 97 b8 be 9f 2f 98 be f4 c3 01 3f
       0.069204666 -0.36053187 -0.29723832 0.50689626
0003e0 ea a6 f2 3e c6 7c 05 bf 33 62 23 3f 67 79 06 3e
       0.4739297 -0.52143514 0.63821715 0.13132249
0003f0 bf e2 3b 3e 4b cf 2b 3d fa 66 1e bf 62 8d 17 3c
       0.18348216 0.041945737 -0.6187588 0.009250017

encoder.lstm.bias_ih_l0 f4 [128]
000000 47 28 88 3c 20 7a 08 3f 70 f6 4d be 9b 00 06 3f
       0.016620768 0.5331135 -0.2011354 0.52344674
000010 c6 ba 31 be c3 01 0c bf 83 f0 de 3e 86 5b 59 be
       -0.17356405 -0.5469019 0.4354287 -0.2122632
000020 ab df a8 3d d5 0d 22 3e 45 80 1f bd ad 4b bf bd
       0.08245786 0.15825589 -0.038940687 -0.09340606
000030 e6 64 94 bd b3 88 98 be 87 18 14 3e 12 94 03 be
       -0.07245807 -0.29791793 0.14462481 -0.12849453
000040 e0 59 b0 3e 18 94 19 3e 9f e5 3b 3e cb 4c 8e bd
       0.3444357 0.149979 0.18349312 -0.06948241
000050 fd 15 ae 3e 2d 31 30 3d b9 e5 65 3d 44 d7 05 3b
       0.3400115 0.043015648 0.056127284 0.0020422498
000060 ab 5c 4e 3e 2b e0 da 3c 5f 23 cc 3e 6e 64 a0 bd
       0.20152538 0.02671822 0.39870736 -0.078316554
000070 b0 51 f0 3e a0 df c2 bc 37 c1 29 be 54 4e cd 3e
       0.46937323 -0.023788273 -0.16577612 0.40098822
000080 8d 08 8e 3e f6 f5 a3 3e 99 81 43 3e 72 74 8f 3e
       0.277409 0.3202359 0.19092406 0.28018528
000090 8d 74 6e 3e 97 08 24 3f f8 45 ca 3e fb 36 59 be
       0.23286648 0.6407561 0.39506507 -0.2121238
0000a0 4d 91 80 3e 62 de 95 bd ab 68 0a 3e 0c 07 93 3e
       0.25110856 -0.07317807 0.1351649 0.28716314
0000b0 bd cc c0 3d a6 e8 2c 3e 46 84 ea 3d 33 ab 23 be
       0.09414051 0.16885623 0.114510104 -0.15983276
0000c0 0c 4b 11 be 6b fe a7 3e e8 73 d3 3c 0d 83 bb 3c
       -0.14188784 0.32811293 0.025812104 0.022889638
0000d0 28 3e 93 be 53 b9 06 3e 4a 6c 94 bd 48 fb 3b 3d
       -0.2875836 0.13156633 -0.07247217 0.045893937
0000e0 e7 d4 fe ba 7f eb 82 3e 28 ec e3 3d e5 09 8a bc
       -0.0019442112 0.25570294 0.111290276 -0.016850421
0000f0 cb 35 39 3e c6 bf 81 3e 9e 57 9a bd 56 bb 6f 3e
       0.18086927 0.25341624 -0.07536243 0.23411307
000100 6b f8 81 bd fd ca 33 3e bb 2e 64 3d 17 ea bb be
       -0.0634621 0.17557903 0.05570863 -0.36702034
000110 ae 6c bf be ba f5 5d bc f9 b3 a1 be d5 ec 96 3d
       -0.37387604 -0.013547355 -0.3158262 0.07369391
000120 6c 9f b8 be 1a 75 55 3c 6b d6 6d 3d dd 9e 6a be
       -0.3605913 0.0130284075 0.058065813 -0.22912164
000130 b0 0c d9 3c b0 57 80 3d f3 41 fb bb bf 4b d8 3d
       0.026495308 0.06266725 -0.007667774 0.105613224
000140 c0 a9 48 3a 77 d1 c1 3e a9 e8 aa bd 0d 54 be 3d
       0.0007654689 0.37855121 -0.08345158 0.09293375
000150 21 16 cb bc 40 50 1e 3d 62 60 59 3d 62 88 37 be
       -0.024790825 0.03865075 0.053070433 -0.1792312
000160 a6 76 96 be e1 6c 1c 3e 38 d5 0c be d1 fa e2 bd
       -0.29387397 0.15275909 -0.13753211 -0.11082996
000170 38 cf 1b be 43 33 2c 3d da a8 57 3d 62 db 11 bd
       -0.15215766 0.042041074 0.052651264 -0.03560961
000180 46 07 d1 3e 17 d5 21 3e 2c 5e 12 be ff b0 0d 3b
       0.40825862 0.15803944 -0.14293736 0.002162039
000190 76 df 71 3e e7 87 f6 3e d9 6d 81 3c 7a d9 ab 3d
       0.236204 0.4815056 0.01579945 0.0839109
0001a0 38 5e 0a bd bf 97 0f 3e d4 d0 85 bd 3e 48 49 3e
       -0.03378126 0.1402273 -0.065339714 0.19656464
0001b0 04 f7 1f 3e de 05 87 be e9 05 16 be 98 a3 05 be
       0.15621573 -0.26371664 -0.14650692 -0.13050687
0001c0 36 f4 2d 3f 4a 69 8e 3c 96 66 64 be 1f 4a ba bd
       0.6795076 0.01738419 -0.22304758 -0.09096169
0001d0 03 db ff 3e 26 86 e4 3d c6 ad f4 3e 64 52 79 3e
       0.4997178 0.11158399 0.4778883 0.24347836
0001e0 14 38 8e 3e af f5 1f bd 9b af ac 3e cf 23 01 be
       0.2777716 -0.03905266 0.33727726 -0.12611316
0001f0 ae 0d 4b bd 8e 21 01 3e 16 b7 6d be d9 cd 67 bd
       -0.049573593 0.12610456 -0.23214373 -0.056592796

encoder.lstm.bias_hh_l0 f4 [128]
000000 bc e0 07 3d 49 54 f6 3e 0a b7 80 be 8b 12 07 3f
       0.033173308 0.4811118 -0.25139648 0.5276267
000010 8b 26 2f be f0 29 0c bf 4d 5a cb 3e c4 0e 44 be
       -0.17104547 -0.5475149 0.39717332 -0.19146258
000020 a3 eb ab 3d 57 7d d2 3d 38 d6 0e bd 0f 13 a0 bd
       0.083945535 0.10277813 -0.034872264 -0.07816135
000030 2b f9 7a bd 82 b1 96 be cd 2d e0 3d d8 e9 0b be
       -0.06127278 -0.29432303 0.10946236 -0.13663423
000040 44 8b b6 3e 5d 15 f7 3d b8 62 68 3e 9b 27 85 bd
       0.35653126 0.120646216 0.22693908 -0.06501695
000050 7f 34 b4 3e 79 79 92 3d 95 82 81 3d 4f b8 01 3b
       0.351963 0.07152075 0.06323735 0.0019793694
000060 93 cb 46 3e 31 22 51 ba 44 4f d8 3e a5 7d 50 bd
       0.19413595 -0.0007977812 0.42247975 -0.050901074
000070 09 e8 e8 3e 3a ba e8 bc e3 d2 1d be 2e 7e d9 3e
       0.4548953 -0.028409112 -0.15412478 0.4247908
000080 ab 03 90 3e 79 ed a1 3e 49 ce 29 3e f7 97 98 3e
       0.28127798 0.3162649 0.16582598 0.2980344
000090 81 ef 5b 3e 99 ab 26 3f 13 ec c9 3e 34 05 4b be
       0.21478082 0.6510559 0.39437923 -0.19826204
0000a0 a3 14 84 3e d8 9a 65 bd d5 d3 09 3e 59 c6 78 3e
       0.25796995 -0.056055874 0.13459714 0.24294414
0000b0 16 7a b1 3d 22 3d eb 3d f8 a3 d5 3d 81 f0 4e be
       0.08665864 0.114862695 0.10431665 -0.20208932
0000c0 ca 8b 24 be 14 c8 ac 3e 93 60 86 3c 62 a7 a1 3c
       -0.1606895 0.33746397 0.016403472 0.019733135
0000d0 65 98 88 be b1 9e 07 3e c8 5b b1 bd ce 05 66 3d
       -0.26678768 0.1324413 -0.08660084 0.05615788
0000e0 8d 76 2b bc a1 b7 94 3e ad c3 bd 3d b0 ef c4 38
       -0.010465276 0.29046348 0.09265838 9.3906536e-05
0000f0 e0 7e 50 3e 60 0a 74 3e ce 3e 11 bd b4 92 5d 3e
       0.20360899 0.23832083 -0.035460286 0.21637994
000100 09 7c 2c bd d5 d9 39 3e 44 fe ea 3c 68 ea b3 be
       -0.042110477 0.18149503 0.028685696 -0.35139775
000110 6b c7 c0 be 70 b2 70 bd 30 80 a6 be 1c 71 c4 3d
       -0.37652144 -0.05876392 -0.32519674 0.095918864
000120 13 96 b2 be 5b bf 19 3c 5d dc 4b 3c 03 21 56 be
       -0.34880123 0.009384002 0.012442675 -0.2091103
000130 a2 8a 3e 3d 6d 70 48 3d 36 17 1c bd a1 71 98 3d
       0.04651893 0.048935343 -0.038108073 0.07443548
000140 ff 0b 29 3d ed 9d c2 3e 7b 38 b4 bd f5 54 97 3d
       0.041271206 0.38011113 -0.08799835 0.07389251
000150 db 36 d1 3c 74 0f b3 3c 3b 14 c3 3d 4f 7b 49 be
       0.025538852 0.021857955 0.09525343 -0.19675945
000160 8b 27 92 be 95 87 25 3e 92 48 05 be f7 d4 c0 bd
       -0.28545794 0.16165002 -0.13015965 -0.0941562
000170 32 5c 1c be a5 55 4c 3d ed f3 10 3d c2 81 50 bd
       -0.15269545 0.049886364 0.035388876 -0.050904997
000180 a6 1e cc 3e 0c 0c 18 3e fe a1 f6 bd ff 1e f6 3b
       0.39867133 0.14848346 -0.12042616 0.0075110192
000190 1f 1b 57 3e 0e 7e f6 3e 58 22 19 3d 58 64 c8 3d
       0.2100644 0.48143047 0.03738627 0.09784764
0001a0 f0 ba 01 3c b3 9b 0f 3e 6b d1 81 bd 1b ac 42 3e
       0.0079181045 0.14024238 -0.063387714 0.19010966
0001b0 27 41 0f 3e 37 f2 7c be ea 6c 17 be 39 15 04 be
       0.13989697 -0.24701773 -0.14787641 -0.12898721
0001c0 e8 7f 2b 3f 0b 01 a8 3c d7 60 4d be 68 33 ee bd
       0.66992044 0.02050831 -0.20056473 -0.11630899
0001d0 b3 b3 fe 3e af db 84 3d ab 1f ee 3e be 34 74 3e
       0.49746475 0.06487214 0.46508536 0.23848245
0001e0 ce 1a 95 3e 86 37 82 bc 32 9c 9d 3e 31 33 e4 bd
       0.29122013 -0.015895616 0.3078323 -0.111425765
0001f0 df 60 97 bd e5 b2 c9 3d 09 14 60 be d7 a2 7b bd
       -0.073915236 0.098485745 -0.21882643 -0.061434593

encoder.lstm.weight_ih_l1 f4 [128, 32]
000000 f7 87 22 bf 09 ce c5 3e 7a 94 04 bf 81 1e 26 3d
       -0.63488716 0.38633755 -0.5178906 0.040556435
000010 e8 2c f7 bc 68 b0 02 3e 50 d0 52 be 1b e2 45 3f
       -0.03017278 0.12762606 -0.20587277 0.77298135
000020 31 27 84 3e 4e a2 b0 3e 8f 04 9e 3e 8f 28 1f be
       0.2581115 0.3449883 0.30862853 -0.15542816
000030 05 3b ec bd 07 b8 ad 3e 8a da 34 be 27 4f 22 3e
       -0.115346946 0.33929464 -0.17661491 0.15850507
000040 3e 96 ab 3e 09 d1 61 3e a1 41 10 3f a6 d7 3a 3e
       0.33513063 0.22052397 0.5635014 0.18246326
000050 f7 ad 40 be de c7 bb bc 3d 69 2c 3d 48 67 35 be
       -0.18816362 -0.022922453 0.04209255 -0.1771518
000060 90 c4 1d 3d 52 38 16 3e 0b 6c cc be c8 48 3f 3e
       0.038517535 0.14669922 -0.3992618 0.18680108
000070 7a b2 b4 be 28 90 2e 3e a3 17 84 be 7f 9a 1a be
       -0.35292417 0.17047179 -0.25799283 -0.15097998
000080 a8 28 96 3a 9e 46 08 3e a2 ce 7b bd df ee ab 3d
       0.0011456208 0.13308188 -0.061476357 0.083951704
000090 d1 18 b1 bd 3d de b4 3f 14 f4 d3 3d ed e3 7f 3f
       -0.086473115 1.4130322 0.103492886 0.9995716
0000a0 69 50 c0 3e 78 0c b1 3e 7d 74 78 3f db 0f 14 be
       0.37561348 0.34579825 0.97052747 -0.14459173
0000b0 0a 8c 1e 3f 8b 3c 05 bf 5a b4 0d bd 33 ec 2b bf
       0.6193243 -0.52045506 -0.034595825 -0.67157286
0000c0 15 27 58 3f 88 e9 55 be 2b 11 ad be ae 14 e0 be
       0.84434634 -0.20889866 -0.3380216 -0.43765777
0000d0 92 46 72 3e 39 c8 f0 bd 0d ad c4 3d 78 76 89 be
       0.23659733 -0.117569394 0.09603319 -0.26848197
0000e0 6d b7 a0 3e e3 ce cb 3e d9 68 59 3d 79 3c 01 3f
       0.31389943 0.3980628 0.053078506 0.504829
0000f0 13 64 5a be db a3 28 3e fe 41 0f 3f bb df a8 bc
       -0.21327238 0.16468756 0.5596007 -0.020614496
000100 7c 61 97 bf 0e 13 db 3e 57 80 f0 be 5c ec ba be
       -1.1826625 0.42787975 -0.46972916 -0.36508453
000110 66 18 2a bf 4f 1f 0a 3e 16 b3 ff be 5c 9d 9d be
       -0.6644348 0.13488506 -0.4994132 -0.30784118
000120 5b f6 ff be 81 c7 b7 3c 61 fb bd 3e f3 09 37 be
       -0.49992642 0.022433998 0.3710585 -0.17874889
000130 e0 ec 81 3e a3 7e 63 bf d1 71 e3 be 04 a2 e5 bd
       0.25376034 -0.8886511 -0.44422773 -0.11212543
000140 cc 21 01 bc fa f3 23 3f c2 50 86 be b4 ec c4 be
       -0.007881593 0.64044154 -0.26233488 -0.3846184
000150 f9 81 76 be bd 6d 6b bd 31 6f 27 3f 39 67 70 3e
       -0.24073018 -0.0574777 0.6540404 0.23476876
000160 b7 08 5d 3e 7d 52 33 be 95 0a 0e be 7f 5c 32 3f
       0.21585356 -0.17511936 -0.13871224 0.6967239
000170 fb ce 4b bf 56 b0 9a 3e d4 e2 a1 3d 73 c1 07 bf
       -0.796127 0.3021266 0.07904592 -0.53029555
000180 8a 74 01 be e2 6b 93 be 69 89 1e bf 21 02 71 3d
       -0.12642112 -0.28793246 -0.6192842 0.05883992
000190 ee c0 d3 bc 17 45 8a bd dd 30 54 3f 1b e7 3d 3f
       -0.025848832 -0.06751459 0.8288706 0.74180764
0001a0 9d d4 52 3e 8a ba 69 3f 29 e1 02 3f fb 0f 08 bf
       0.20588918 0.9130026 0.5112482 -0.53149384
0001b0 7b 2d 95 be b0 c6 14 3f 7e b9 07 bf ba 8c cc 3e
       -0.2913626 0.58115673 -0.53017414 0.39951116
0001c0 28 3c 04 bf dd 2b 08 3f fd 4c d0 3e 72 33 06 bf
       -0.5165429 0.5319193 0.40683737 -0.5242225
0001d0 29 dd a9 bd 61 34 6d 3e dc 88 90 3f 58 0c 28 be
       -0.08294136 0.23164512 1.1291766 -0.16410959
0001e0 57 13 26 3c 9f f8 fc 3e 00 f4 78 3f 9e 04 74 3e
       0.010136447 0.49408433 0.97247314 0.23829886
0001f0 73 1d 26 3e b2 7d bd 3e 0a 24 c9 3d d8 c0 34 3c
       0.16222171 0.3700996 0.09821327 0.011032306
000200 92 0b 73 bd 37 d6 66 3f 43 69 0c 3f 7e a0 98 3e
       -0.059337206 0.90170616 0.54848117 0.29809946
000210 81 0f 02 be 16 78 fb be 6a b5 c4 3e 9c 84 f3 bd
       -0.12701227 -0.49115056 0.38419658 -0.118905276
000220 14 79 93 3f 38 82 d2 3e 5e 9c 89 3e 79 c5 f2 bd
       1.1521325 0.41114974 0.2687711 -0.11854071
000230 fa 6d 6d 3e dd cf bd be 74 e9 95 3e ba 71 b7 3f
       0.23186484 -0.3707265 0.29279673 1.4331582
000240 4d 6c dd 3e bb d6 21 bf a6 da 8e 3e f0 51 18 3f
       0.4324669 -0.6321828 0.2790119 0.59500027
000250 4d f9 51 3f c8 3c f1 bd 94 2c 96 bf 28 6e 06 3f
       0.8202103 -0.11779171 -1.1732354 0.52511835
000260 af 30 24 3f b3 5e bd be 33 31 eb 3e e7 7b c0 be
       0.64136785 -0.36986312 0.45935974 -0.3759453
000270 94 3b 86 3c 45 7f 8e be c3 8f 7e bf 2b 28 64 bf
       0.016385831 -0.27831474 -0.9943811 -0.8912379
000280 80 1b 82 bf df 75 2d 3f 33 a7 c8 3d 3b 54 ff be
       -1.0164642 0.6775798 0.09797516 -0.4986895
000290 ae 5d 86 bf e5 e7 1f 3e cf cd 05 bf 4b ad 0b 3f
       -1.0497339 0.15615804 -0.52267164 0.545613
0002a0 71 f5 a2 be 08 bc 55 3e 91 b1 d5 3d 19 b1 12 bf
       -0.31827882 0.2087251 0.10434259 -0.5730148
0002b0 fc 72 76 3e a1 27 83 3e 90 d2 c8 3e 6d f7 f7 be
       0.240673 0.25616172 0.39223146 -0.48430958
0002c0 3d ec d7 be 28 eb 14 3f 53 d0 cb be 13 41 42 3e
       -0.42172423 0.5817132 -0.39807376 0.18970136
0002d0 31 8e 8d 3e 13 f0 27 bf 78 90 69 3e 0a cc 83 be
       0.27647546 -0.656007 0.22809017 -0.25741607
0002e0 0b cc b4 be 9c e9 be 3e f8 04 e1 be 79 9e 69 3e
       -0.35311922 0.37287605 -0.43949103 0.22814359
0002f0 96 80 5b bf 75 26 81 3f c7 d5 bf 3d 8e 0e 77 be
       -0.8574308 1.0089861 0.09366947 -0.24126646
000300 e0 3c 0e bc b0 ea af bd 77 76 f9 bd c8 f2 57 3e
       -0.008681506 -0.08589685 -0.121807985 0.21088707
000310 25 99 4d 3e 79 e9 a0 3f 8d 17 35 3f 0c 75 65 3f
       0.20077951 1.257125 0.7073906 0.89631724
000320 79 69 92 3e 79 e9 8e bc 8e a4 e9 be d6 37 6b 3d
       0.28596094 -0.017445313 -0.45633358 0.057426296
000330 03 8c 84 3d 53 ec bf 3e c7 bb b1 3e 97 07 d0 3e
       0.064720176 0.3748499 0.34713575 0.4063079
000340 05 db ba be bb e4 82 be c1 27 f4 3d ff e2 a6 be
       -0.36495224 -0.25565132 0.11921645 -0.3259506
000350 38 96 c9 3e 51 82 2c 3d 76 b7 f8 bd 95 03 74 be
       0.3937242 0.042116467 -0.121443674 -0.23829491
000360 a7 9a 24 3e 82 da cf 3e 96 f2 30 3f 76 61 17 be
       0.1607462 0.40596396 0.69120157 -0.14783272
000370 b4 53 f6 3e 23 0d ab bd 7f c7 49 bc 4e 9e 7a be
       0.48110735 -0.08352115 -0.01231563 -0.24474451
000380 41 2d 8f 3e c2 94 b0 bd 40 1e ee bd c2 81 05 bf
       0.27964213 -0.08622123 -0.116268635 -0.5215112
000390 1f f9 14 bf 3c 2b 7e 3d 7a 3d 93 3e a7 da b6 3e
       -0.5819263 0.06205295 0.2875784 0.35713693
0003a0 1f 76 87 be 9b 82 53 3e f3 4c 8c bf 5e 80 c7 bd
       -0.26457307 0.20655291 -1.0960983 -0.09741281
0003b0 c4 81 41 bf 8f a9 ae 3e 1f 71 7d bd 06 d0 8a 3f
       -0.7558863 0.34113738 -0.06187546 1.0844734
0003c0 bc e8 9b be 4a 1e 5b bd 22 77 95 bb 66 14 81 3d
       -0.30451 -0.053495683 -0.004561321 0.06302719
0003d0 40 81 74 3e 28 48 d7 be f9 86 11 3f 3c 4f 77 bd
       0.2387743 -0.42047238 0.56846577 -0.0603783
0003e0 ec f5 ab 3e bd d6 c6 be 32 de 33 3f 20 54 f2 bc
       0.3358606 -0.38835707 0.7026092 -0.02958113
0003f0 a6 ec 86 be f3 b5 58 bd 8d 2d 42 be 4b 2e e9 3d
       -0.26352423 -0.052907895 -0.18962689 0.11385783

encoder.lstm.weight_hh_l1 f4 [128, 32]
000000 ff 98 b1 3e 6f 96 df 3e d7 08 1d bf 99 f7 16 bf
       0.3468704 0.4366946 -0.61341614 -0.58971554
000010 45 e9 5a 3e 1e 03 95 3e bd 51 92 be 1e f5 82 be
       0.21378048 0.2910394 -0.28577986 -0.25577635
000020 29 69 32 3e b9 51 08 bf c9 4b 66 3d 52 23 a5 3d
       0.17422928 -0.532497 0.056224618 0.080633774
000030 5d cf 05 be 0a 54 82 3e d6 7c c6 be 1a 39 6b bd
       -0.13067384 0.25454742 -0.38767117 -0.057427503
000040 36 a5 5b 3e 55 75 0f bc 2b bd ca 3e 5a dd 9f 3e
       0.21449742 -0.0087560015 0.3959745 0.31223565
000050 c1 34 c7 bd 16 fc be bd de ae e0 bd 51 36 f7 be
       -0.09726859 -0.09325425 -0.10970853 -0.48283628
000060 35 b2 16 3d b6 b1 9f be 9b 17 24 bf eb 38 9c 3e
       0.036791045 -0.3119027 -0.6409852 0.30512175
000070 aa 19 87 3e fa ac 1b be db e3 23 be d2 b6 ac 3e
       0.26386768 -0.15202704 -0.16004889 0.3373323
000080 62 f0 f0 bd 5a ee 53 3e 79 b4 e6 bd 18 a9 57 3e
       -0.117645994 0.20696393 -0.11264891 0.21060598
000090 bc 85 ae 3f e2 ae 6b be 73 34 98 3d 43 b8 8a bd
       1.3634562 -0.23015931 0.07431879 -0.067734264
0000a0 ce 00 8d be bd 4f 3c 3e 33 85 96 be 11 52 39 be
       -0.27539676 0.18389793 -0.29398498 -0.18097712
0000b0 a4 5c df bd 8d ba 95 be 82 de da 3d 49 7d 83 bd
       -0.10906342 -0.2924389 0.10686971 -0.064203806
0000c0 34 ae 75 3e ce e9 42 3e 89 e0 34 be 69 17 1a 3f
       0.23992234 0.19034502 -0.17663778 0.6019197
0000d0 72 62 1d 3f 88 92 ec bd 14 60 a6 3e b3 a2 0b bf
       0.6147834 -0.11551386 0.32495177 -0.54545134
0000e0 af 90 b4 3e 93 f9 a7 bb 00 80 4d be aa eb 8b 3e
       0.35266635 -0.005126187 -0.2006836 0.27328235
0000f0 a2 d0 73 3e af d1 7d be e1 26 ba 3e 1f e1 a1 be
       0.23810056 -0.24787019 0.36357787 -0.31617066
000100 fb 65 c7 3e c1 8f 30 3f 93 eb 05 bf 63 f7 1c 3f
       0.38944992 0.6896935 -0.5231258 0.6131498
000110 52 b1 49 bf 16 42 77 be fd 84 94 3e dd b8 8e bf
       -0.78786194 -0.24146304 0.29007712 -1.1150166
000120 cf 44 f8 bc 63 98 2a 3f 13 4e 98 3d 9f 49 64 3f
       -0.030306248 0.66638774 0.074367665 0.89174837
000130 55 08 d7 be 35 c2 fa bb 95 b7 9a bc 1f 90 ea 3e
       -0.41998544 -0.007652546 -0.018886367 0.4581308
000140 fb 5e 7a bd 36 66 43 3f 0b 9f 51 bf 04 46 0a be
       -0.061125737 0.76327837 -0.81883305 -0.13503271
000150 2c c0 a6 3e 54 fb 99 be bb a7 e1 be c4 9e f5 be
       0.3256849 -0.3007456 -0.4407328 -0.4797269
000160 cd 07 fa 3b 14 a8 25 bf 8a 58 a1 be 64 4d 1f bf
       0.0076303245 -0.6470959 -0.31512862 -0.62227464
000170 a0 07 37 bf 9a 3a 7a 3e d1 63 80 be 59 dd 55 3e
       -0.7149601 0.24436417 -0.25076154 0.20885219
000180 bc 15 4e 3f 8a a7 e2 bd 93 d9 7d be bd 5c 5e be
       0.80501914 -0.11067112 -0.24790029 -0.21715064
000190 92 2a 0f 3f 59 a3 22 3e 86 65 43 bd f0 49 ad 3e
       0.5592433 0.15882625 -0.047704242 0.33845472
0001a0 b0 2a 2d bf 68 70 c8 bd 9b 45 78 bd 6c 5d e6 3f
       -0.6764326 -0.09787065 -0.060613256 1.799726
0001b0 fb d3 06 bf 45 6c d9 3e d6 68 50 bc ba 21 62 be
       -0.52667207 0.42465416 -0.012720307 -0.22083178
0001c0 9d 27 9d 3f 8d 0e 00 3f 1e fc a8 be 1b 98 a7 bd
       1.2277714 0.500222 -0.3300485 -0.08183309
0001d0 da 7c e7 3e 7f 83 ce be 50 09 e8 3e 3c 93 63 3c
       0.45212442 -0.403347 0.45319605 0.013890084
0001e0 f2 6d 35 be bc eb 05 3f 7d 6e 9e bd b0 c9 6f 3c
       -0.17717722 0.5231283 -0.07735918 0.014635488
0001f0 2f 06 9b 3f b2 f8 04 3e 4a 70 0f bf d1 35 b4 3d
       1.2111262 0.12985495 -0.56030715 0.08799327
000200 64 dc ba be 2c e2 70 bd 2c 07 80 3e 6e e6 87 3e
       -0.3649627 -0.058809444 0.25005472 0.2654299
000210 9e 9f db be 99 c4 f6 be de ca 92 be d8 5a d9 3e
       -0.42895216 -0.48196867 -0.286704 0.4245212
000220 e3 20 fc 3c d7 59 28 bf 39 fb e5 3e d2 c1 b9 be
       0.0307774 -0.65762085 0.4491823 -0.36280686
000230 fd f3 b2 bc 68 e9 fd be 7b 08 8a 3f d5 61 97 bf
       -0.021844858 -0.49592137 1.0783838 -1.1826731
000240 9f 13 b6 be 55 e0 6f 3e cb 0c 01 3f a1 f6 84 bf
       -0.35561845 0.2342542 0.50410146 -1.0387765
000250 0d 85 06 3e a2 25 bf 3e 29 84 8e be f1 62 08 3f
       0.13136692 0.373334 -0.27835205 0.5327597
000260 f8 3c 15 3f 42 dd ee bd f4 fa 61 3f f2 79 a9 3d
       0.58296156 -0.11663295 0.8827355 0.08275212
000270 73 fd 83 be d7 1d fb be 6f 94 1d 3f 11 71 9b bf
       -0.25779304 -0.49046203 0.61554617 -1.214388
000280 b2 58 20 3e 8e 12 4f 3e 37 ba d4 bd fa 1a 19 3e
       0.15658835 0.20221922 -0.1038708 0.14951697
000290 e8 ff 58 3f e2 0a ff 3e 54 f8 de 3d 10 10 f8 be
       0.8476548 0.4981299 0.108872086 -0.48449755
0002a0 94 33 0e 3e 13 53 12 be b1 d9 25 be 18 29 9a bd
       0.13886863 -0.14289503 -0.16196324 -0.07527369
0002b0 5c 70 95 3e d5 11 a0 3b 24 8c 20 bd 26 b8 2e 3d
       0.29187286 0.0048849382 -0.03919615 0.042656086
0002c0 f7 34 c6 3e 2e 91 c9 3e f4 cb 13 be fe c1 09 bf
       0.38712284 0.39368576 -0.1443327 -0.53811634
0002d0 24 fc ac 3e dd 02 84 be 11 7c 2a be 26 2c 8c 3e
       0.33786118 -0.25783435 -0.1664889 0.27377433
0002e0 36 59 15 bd 4a c0 61 bd de c3 31 bd a5 68 d2 3e
       -0.03646203 -0.05511502 -0.043399684 0.41095462
0002f0 cd e0 43 be 94 56 be 3e 6c 3c bb bd 6b d0 b0 3d
       -0.19128723 0.3717543 -0.09142384 0.086335026
000300 34 38 29 bf b3 0b a0 3e f0 97 6a 3f 05 f0 b4 3d
       -0.66101384 0.31258926 0.9163809 0.088348426
000310 1e 20 85 3f f6 3b 87 bd 48 79 ae bd a7 64 7b 3e
       1.0400426 -0.066032335 -0.08519226 0.24550115
000320 ef fb 8f 3d 0f 5f e6 3d 8a 59 0f 3e c4 9a 31 3e
       0.070304744 0.112486 0.13999 0.17344195
000330 2f 0c d1 3d 21 98 b3 be e3 f8 af 3e b2 c8 92 be
       0.10207402 -0.35077003 0.34369573 -0.28668743
000340 87 e1 ac bd 88 60 18 3e 90 72 4f be 22 b2 4a 3f
       -0.084414534 0.14880574 -0.20258546 0.7917806
000350 67 45 1d 3e 6c a6 06 3f 45 ce 8f 3c e3 ba 85 3e
       0.15358506 0.5259769 0.017554412 0.26119146
000360 bd ca 98 3e 50 d3 2a 3e 33 92 a4 bd 60 90 1c 3e
       0.29842177 0.16682172 -0.08035698 0.1528945
000370 3b 16 57 3f a6 ee 0c 3e f8 f7 46 3e 51 33 8b bd
       0.84018296 0.13762912 0.1943053 -0.06796897
000380 95 99 8e 3d 9d 9c 61 bf d9 bc f0 3e 4d a7 2f bf
       0.06962887 -0.881296 0.4701908 -0.68614656
000390 ff 6b d8 3f bc 05 c5 3d 9b 87 3d 3e 1e ad c9 bd
       1.6907958 0.09620234 0.1850876 -0.098474726
0003a0 9f d9 b7 3d a7 2c a9 be b9 f2 51 3f 76 a8 29 bc
       0.08977055 -0.3304188 0.8201099 -0.010355106
0003b0 b5 c1 01 be 65 2e 8e 3e 87 b1 42 be d4 ce 94 3e
       -0.1267155 0.2776977 -0.19013034 0.29064047
0003c0 e5 8f 72 be 21 4d d3 bd 81 b1 52 be ce c8 6f 3e
       -0.23687704 -0.103174455 -0.20575525 0.23416445
0003d0 82 87 59 be 8a 74 3a 3f 9e b0 35 3f 9f a6 c1 be
       -0.21243098 0.72834074 0.7097262 -0.37822434
0003e0 8c 89 11 3e dd a6 45 bf 48 b2 b1 3d 1d 01 02 3f
       0.14212626 -0.7720774 0.086765826 0.5078295
0003f0 8f 72 1b 3e 15 5b 83 3e a9 08 90 3e 95 86 3a be
       0.1518042 0.25655428 0.28131607 -0.18215401

encoder.lstm.bias_ih_l1 f4 [128]
000000 b4 86 d9 bb e6 3f 52 be 15 84 f1 3e 0a 1f b5 be
       -0.0066383723 -0.20532188 0.47171083 -0.35375243
000010 8e ef b1 be 4a 69 e2 3e e5 63 f4 be 05 e9 ad 3d
       -0.34753078 0.44220954 -0.47732463 0.084917106
000020 6b 01 46 3e 15 85 fc be 61 48 55 3f b2 fa cd bd
       0.19336478 -0.49320284 0.83313566 -0.10057582
000030 e3 57 1e bc 1e 4b 95 3c ab 42 d8 3c d4 8d fb 3c
       -0.0096645085 0.018224295 0.026398977 0.030707277
000040 d6 24 2f be 97 64 4b be 7c df 5f be 41 08 13 3e
       -0.17103896 -0.1986259 -0.21862596 0.14358617
000050 71 fa 7d be c3 07 37 3e 24 b4 84 bd b7 f9 6c 3e
       -0.24802567 0.17874055 -0.064796716 0.23142134
000060 42 95 7a 3e 9d 75 10 be 56 65 ac 3e e8 89 12 be
       0.24471 -0.14107366 0.33671063 -0.1431042
000070 58 a0 27 bd 75 7e e2 3d d0 7d 21 3e 3b 79 ec 3b
       -0.0409244 0.11059276 0.1577065 0.0072166002
000080 52 1f 2d 3e 37 e5 3e 3e 5e c7 a6 bd ac 43 d0 bd
       0.16906479 0.18642126 -0.08143495 -0.101691574
000090 84 29 d6 3e f9 a3 70 3d e0 d8 67 be 5a f3 83 bd
       0.4182855 0.058750127 -0.22641325 -0.064429
0000a0 57 97 96 3e 41 21 37 3e 91 97 1d bd 37 fa ae 3d
       0.29412338 0.17883779 -0.038474623 0.085438184
0000b0 42 60 35 bd e3 cf e2 3e 94 82 d5 3e 11 36 a9 bc
       -0.04428125 0.4429923 0.41701186 -0.020655664
0000c0 1d b3 3e 3e 94 d4 d8 3c 61 b0 66 be 95 d8 9d 3e
       0.18623014 0.026468553 -0.2252822 0.308293
0000d0 53 3b ec 3d 19 2c af 3d 12 a7 be 3e 4e 1f d7 3c
       0.11534753 0.08553333 0.3723684 0.026260044
0000e0 ff 13 71 bd 04 f7 37 be 5f d4 b0 3e 6b 1b 97 be
       -0.05885696 -0.17965323 0.34537026 -0.29513106
0000f0 51 0a 5b bd ac dd a3 3e de a0 44 bd 9b 46 cb b9
       -0.053476635 0.3200506 -0.048004977 -0.00038771782
000100 e6 94 04 3e 6d 64 00 3d 27 61 8f be b9 c8 d7 be
       0.12947425 0.031345773 -0.2800381 -0.42145327
000110 16 ea 2c 3e eb 72 0b 3e 43 20 b7 bd 31 d6 c6 3c
       0.16886172 0.13618056 -0.089417 0.024272056
000120 8f 36 0d be c0 c4 18 be c5 db 06 bf 89 0d 03 3e
       -0.13790344 -0.14918804 -0.5267909 0.12798132
000130 f5 fe eb bc 77 61 35 be 66 47 84 3d 81 59 ac 3e
       -0.028808096 -0.17712961 0.06458931 0.33662036
000140 a3 b7 45 3e a4 66 54 3d 1d a0 31 3c c0 7f bf 3d
       0.19308333 0.0518557 0.010841397 0.09350538
000150 2f cb a5 bd 83 1d b5 be 1e a0 e7 be 50 03 f3 be
       -0.08095395 -0.35374078 -0.45239347 -0.47463465
000160 db 5a a3 be aa 7d 8f bd f0 ae 04 bf 29 11 ff 3c
       -0.31905255 -0.070063904 -0.51829433 0.031136112
000170 8c b5 0c 3d b8 a2 06 be 25 0b 0b bf d1 8f 4e 3e
       0.034352824 -0.1314801 -0.5431388 0.20172049
000180 f3 11 09 3e d4 88 1c 3e ba fc 4c 3d 75 17 84 be
       0.13385753 0.15286571 0.050045706 -0.25799146
000190 73 b0 5a 3e e5 76 0b 3f 1f b8 8a be 6e 61 71 3d
       0.21356373 0.54478294 -0.27093598 0.058930807
0001a0 d7 9c b3 3e 28 a7 b5 3e 61 2b f4 3e 5e 3c 82 3e
       0.35080597 0.35479093 0.47689345 0.25436682
0001b0 ce 77 61 bd 4d 10 55 3e d9 0e e1 bd 1b d0 e6 bd
       -0.055045895 0.20807 -0.1098916 -0.11270162
0001c0 c9 2d e0 bc b8 f9 19 be 01 ab 91 3d 38 bc 00 3e
       -0.027365582 -0.15036666 0.071126945 0.125718
0001d0 ae 80 42 3d 74 bf 94 3e e7 bd c3 bd 40 8e 36 be
       0.047486 0.29052317 -0.095577054 -0.17827702
0001e0 26 d3 5a 3e 4d ab 00 be 75 6a fe 3d 0c 93 0c bf
       0.21369609 -0.12565346 0.12422649 -0.54911876
0001f0 af 31 ec 3d c3 74 ec 3e c5 bc a3 3d f7 3f 1e 3e
       0.11532914 0.46182832 0.07994989 0.15454088

encoder.lstm.bias_hh_l1 f4 [128]
000000 88 e5 83 bc 15 9e 25 be 4f a8 03 3f 29 66 b4 be
       -0.01610066 -0.16173585 0.51428694 -0.35234192
000010 4e 8d a3 be 09 d9 f2 3e 52 9d fb be 57 b4 09 3d
       -0.31943744 0.4743121 -0.49143463 0.03361925
000020 bf 40 54 3e a4 04 ea be 76 71 63 3f fe 56 de bd
       0.20727824 -0.45706666 0.88845 -0.10856436
000030 10 7a 0c bd 68 be 2a 3d 6a 33 58 3b 6d 55 19 3d
       -0.034296095 0.04168549 0.003298963 0.037434984
000040 7a d7 29 be d7 2c 80 be 00 1b 66 be 29 20 39 3e
       -0.16586104 -0.2503421 -0.22471237 0.18078674
000050 04 45 6a be 73 14 33 3e f1 0d 15 bd ca 50 52 3e
       -0.2287789 0.1748827 -0.03639025 0.20538631
000060 10 fe 4a 3e 03 cf 33 be 40 1a bf 3e d5 46 12 be
       0.1982348 -0.17559437 0.37324715 -0.14284833
000070 85 bb 32 bd 7e ce 94 3d d8 f9 36 3e 29 cd b6 3c
       -0.043635864 0.07265948 0.17868745 0.022314625
000080 9f d7 19 3e d6 de 27 3e d7 fb c4 bd 8f 5b c8 bd
       0.15023659 0.16393599 -0.09618347 -0.097830884
000090 53 13 c9 3e bf c3 84 3d e1 83 67 be d7 10 f4 bd
       0.39272556 0.06482648 -0.22608902 -0.119172744
0000a0 8b 90 88 3e 72 0f 1e 3e 67 c8 ec bc 5f dc 4b 3d
       0.26672778 0.1543558 -0.028904153 0.04977071
0000b0 01 09 2e bb 9a b1 ed 3e d6 ec e2 3e e4 c0 23 bd
       -0.002655566 0.46424562 0.44321316 -0.039978877
0000c0 55 88 45 3e 57 7d 21 3d c3 ac 52 be 41 eb b6 3e
       0.19290288 0.039426174 -0.20573716 0.3572636
0000d0 f6 43 13 3e e3 b7 de 3d 45 25 c4 3e f1 2f 81 3c
       0.14381394 0.10874917 0.38309684 0.01576993
0000e0 b5 fa 82 bc e6 00 58 be 35 c9 b8 3e 75 ce 9b be
       -0.015988687 -0.21094093 0.3609101 -0.30430952
0000f0 7d 72 67 bd a8 23 9e 3e fb f4 59 bd 26 14 40 3b
       -0.05650567 0.3088658 -0.053212147 0.0029308884
000100 2c 12 f3 3d a0 7c 24 3b b1 1b 86 be 4e 74 cf be
       0.118687004 0.0025098696 -0.26193002 -0.4051842
000110 4e cc 2c 3e ff 84 bf 3d 11 76 e7 bd 18 12 6e 3d
       0.16874811 0.09351539 -0.11301816 0.058122724
000120 3f 0c bb bd 5a 65 fd bd 5f fa f9 be d8 57 0f 3e
       -0.09133195 -0.12372847 -0.4882383 0.13998353
000130 d9 0e 1b bd 4f 1a 1a be 49 9f 0a 3d e2 00 9b 3e
       -0.037855957 -0.15049098 0.033843312 0.3027411
000140 8b da 69 3e 02 17 16 3d 47 55 50 3b 50 d4 d6 3d
       0.22837274 0.036643036 0.003178911 0.10489714
000150 05 f3 ad bd e3 16 a5 be 65 b2 e4 be 65 d0 e9 be
       -0.08493618 -0.32244024 -0.44667354 -0.45666805
000160 25 ec 96 be 4a b2 c2 bd 8f 96 f7 be 90 dd 8c 3d
       -0.2947704 -0.09506662 -0.48357055 0.06878197
000170 c7 43 92 3d b8 72 1f be 86 d8 04 bf 53 23 44 3e
       0.07141834 -0.15571105 -0.5189289 0.191541
000180 c4 1f 0c 3e 14 13 ed 3d 12 3a d0 3c 9e e2 8d be
       0.13683993 0.115759045 0.025418315 -0.27711958
000190 3a 25 71 3e eb ed 01 3f 8c 98 94 be 57 97 89 3c
       0.23549357 0.5075366 -0.29022634 0.016795797
0001a0 7c 2e c2 3e 5d dc ca 3e 17 61 e2 3e 93 47 5b 3e
       0.3792609 0.3962125 0.442147 0.21414022
0001b0 00 ed 98 bd 1e 3f 4d 3e f3 8e f5 bd 7b ff 76 bd
       -0.07467079 0.20043609 -0.11990156 -0.06030224
0001c0 e9 b9 3d bc 87 5f 11 be 8d ef 90 3d d0 1c 95 3d
       -0.011579969 -0.14196597 0.07076941 0.07280886
0001d0 af d9 ae 3c 13 ef 8a 3e ae 55 f2 bd 8e a1 18 be
       0.021344034 0.27135524 -0.11832748 -0.14905378
0001e0 57 47 51 3e 82 d9 1c be 24 7e d6 3d fa e4 0f bf
       0.2043737 -0.15317348 0.10473278 -0.56208766
0001f0 25 7f da 3d 43 89 f2 3e 43 ce 7a 3d 96 f6 4a 3e
       0.10668782 0.47370347 0.061231863 0.19820628
