results/MSE_LSTM_enc_dec_2_layer_output/470_model.pt (torch, 930089 bytes, 18 tensors)

output_zeros f4 [399, 512, 1]
0	0x00000000	0.0
1	0x00000000	0.0
2	0x00000000	0.0
3	0x00000000	0.0
4	0x00000000	0.0
5	0x00000000	0.0
6	0x00000000	0.0
7	0x00000000	0.0
8	0x00000000	0.0
9	0x00000000	0.0
10	0x00000000	0.0
11	0x00000000	0.0
12	0x00000000	0.0
13	0x00000000	0.0
14	0x00000000	0.0
15	0x00000000	0.0
16	0x00000000	0.0
17	0x00000000	0.0
18	0x00000000	0.0
19	0x00000000	0.0
20	0x00000000	0.0
21	0x00000000	0.0
22	0x00000000	0.0
23	0x00000000	0.0
24	0x00000000	0.0
25	0x00000000	0.0
26	0x00000000	0.0
27	0x00000000	0.0
28	0x00000000	0.0
29	0x00000000	0.0
30	0x00000000	0.0
31	0x00000000	0.0
32	0x00000000	0.0
33	0x00000000	0.0
34	0x00000000	0.0
35	0x00000000	0.0
36	0x00000000	0.0
37	0x00000000	0.0
38	0x00000000	0.0
39	0x00000000	0.0
40	0x00000000	0.0
41	0x00000000	0.0
42	0x00000000	0.0
43	0x00000000	0.0
44	0x00000000	0.0
45	0x00000000	0.0
46	0x00000000	0.0
47	0x00000000	0.0
48	0x00000000	0.0
49	0x00000000	0.0
50	0x00000000	0.0
51	0x00000000	0.0
52	0x00000000	0.0
53	0x00000000	0.0
54	0x00000000	0.0
55	0x00000000	0.0
56	0x00000000	0.0
57	0x00000000	0.0
58	0x00000000	0.0
59	0x00000000	0.0
60	0x00000000	0.0
61	0x00000000	0.0
62	0x00000000	0.0
63	0x00000000	0.0
64	0x00000000	0.0
65	0x00000000	0.0
66	0x00000000	0.0
67	0x00000000	0.0
68	0x00000000	0.0
69	0x00000000	0.0
70	0x00000000	0.0
71	0x00000000	0.0
72	0x00000000	0.0
73	0x00000000	0.0
74	0x00000000	0.0
75	0x00000000	0.0
76	0x00000000	0.0
77	0x00000000	0.0
78	0x00000000	0.0
79	0x00000000	0.0
80	0x00000000	0.0
81	0x00000000	0.0
82	0x00000000	0.0
83	0x00000000	0.0
84	0x00000000	0.0
85	0x00000000	0.0
86	0x00000000	0.0
87	0x00000000	0.0
88	0x00000000	0.0
89	0x00000000	0.0
90	0x00000000	0.0
91	0x00000000	0.0
92	0x00000000	0.0
93	0x00000000	0.0
94	0x00000000	0.0
95	0x00000000	0.0
96	0x00000000	0.0
97	0x00000000	0.0
98	0x00000000	0.0
99	0x00000000	0.0
100	0x00000000	0.0
101	0x00000000	0.0
102	0x00000000	0.0
103	0x00000000	0.0
104	0x00000000	0.0
105	0x00000000	0.0
106	0x00000000	0.0
107	0x00000000	0.0
108	0x00000000	0.0
109	0x00000000	0.0
110	0x00000000	0.0
111	0x00000000	0.0
112	0x00000000	0.0
113	0x00000000	0.0
114	0x00000000	0.0
115	0x00000000	0.0
116	0x00000000	0.0
117	0x00000000	0.0
118	0x00000000	0.0
119	0x00000000	0.0
120	0x00000000	0.0
121	0x00000000	0.0
122	0x00000000	0.0
123	0x00000000	0.0
124	0x00000000	0.0
125	0x00000000	0.0
126	0x00000000	0.0
127	0x00000000	0.0
128	0x00000000	0.0
129	0x00000000	0.0
130	0x00000000	0.0
131	0x00000000	0.0
132	0x00000000	0.0
133	0x00000000	0.0
134	0x00000000	0.0
135	0x00000000	0.0
136	0x00000000	0.0
137	0x00000000	0.0
138	0x00000000	0.0
139	0x00000000	0.0
140	0x00000000	0.0
141	0x00000000	0.0
142	0x00000000	0.0
143	0x00000000	0.0
144	0x00000000	0.0
145	0x00000000	0.0
146	0x00000000	0.0
147	0x00000000	0.0
148	0x00000000	0.0
149	0x00000000	0.0
150	0x00000000	0.0
151	0x00000000	0.0
152	0x00000000	0.0
153	0x00000000	0.0
154	0x00000000	0.0
155	0x00000000	0.0
156	0x00000000	0.0
157	0x00000000	0.0
158	0x00000000	0.0
159	0x00000000	0.0
160	0x00000000	0.0
161	0x00000000	0.0
162	0x00000000	0.0
163	0x00000000	0.0
164	0x00000000	0.0
165	0x00000000	0.0
166	0x00000000	0.0
167	0x00000000	0.0
168	0x00000000	0.0
169	0x00000000	0.0
170	0x00000000	0.0
171	0x00000000	0.0
172	0x00000000	0.0
173	0x00000000	0.0
174	0x00000000	0.0
175	0x00000000	0.0
176	0x00000000	0.0
177	0x00000000	0.0
178	0x00000000	0.0
179	0x00000000	0.0
180	0x00000000	0.0
181	0x00000000	0.0
182	0x00000000	0.0
183	0x00000000	0.0
184	0x00000000	0.0
185	0x00000000	0.0
186	0x00000000	0.0
187	0x00000000	0.0
188	0x00000000	0.0
189	0x00000000	0.0
190	0x00000000	0.0
191	0x00000000	0.0
192	0x00000000	0.0
193	0x00000000	0.0
194	0x00000000	0.0
195	0x00000000	0.0
196	0x00000000	0.0
197	0x00000000	0.0
198	0x00000000	0.0
199	0x00000000	0.0
200	0x00000000	0.0
201	0x00000000	0.0
202	0x00000000	0.0
203	0x00000000	0.0
204	0x00000000	0.0
205	0x00000000	0.0
206	0x00000000	0.0
207	0x00000000	0.0
208	0x00000000	0.0
209	0x00000000	0.0
210	0x00000000	0.0
211	0x00000000	0.0
212	0x00000000	0.0
213	0x00000000	0.0
214	0x00000000	0.0
215	0x00000000	0.0
216	0x00000000	0.0
217	0x00000000	0.0
218	0x00000000	0.0
219	0x00000000	0.0
220	0x00000000	0.0
221	0x00000000	0.0
222	0x00000000	0.0
223	0x00000000	0.0
224	0x00000000	0.0
225	0x00000000	0.0
226	0x00000000	0.0
227	0x00000000	0.0
228	0x00000000	0.0
229	0x00000000	0.0
230	0x00000000	0.0
231	0x00000000	0.0
232	0x00000000	0.0
233	0x00000000	0.0
234	0x00000000	0.0
235	0x00000000	0.0
236	0x00000000	0.0
237	0x00000000	0.0
238	0x00000000	0.0
239	0x00000000	0.0
240	0x00000000	0.0
241	0x00000000	0.0
242	0x00000000	0.0
243	0x00000000	0.0
244	0x00000000	0.0
245	0x00000000	0.0
246	0x00000000	0.0
247	0x00000000	0.0
248	0x00000000	0.0
249	0x00000000	0.0
250	0x00000000	0.0
251	0x00000000	0.0
252	0x00000000	0.0
253	0x00000000	0.0
254	0x00000000	0.0
255	0x00000000	0.0

encoder.lstm.weight_ih_l0 f4 [128, 4]
0	0xbfbcfbea	-1.4764378
1	0xbd9f0490	-0.07764542
2	0x3f2eb49a	0.68244326
3	0xbf2c09d6	-0.6720251
4	0x3f60c9f3	0.8780815
5	0x3f29c28d	0.66312486
6	0x3d91b59b	0.071147166
7	0x3f6045f2	0.8760673
8	0xbe6a37e7	-0.22872888
9	0x3e01f9fb	0.12693016
10	0xbe6c052b	-0.23048846
11	0x3f64a087	0.89307445
12	0x3eb1c396	0.34719533
13	0xbecd0192	-0.4004026
14	0x3ca83a13	0.020535504
15	0x3f8ac441	1.0841142
16	0xbf8f1978	-1.1179647
17	0x3f9a3333	1.2046875
18	0x3e8a0ba4	0.26962006
19	0x3eb269dd	0.34846392
20	0xbf0ba60f	-0.5455026
21	0x3eb7e183	0.3591424
22	0x3e2f369f	0.1711068
23	0xbf4484f9	-0.767654
24	0x3f0b37d4	0.5438206
25	0x3edaad02	0.4271012
26	0x3e263aaa	0.16233316
27	0x3f80137d	1.0005947
28	0x3fd8b0c7	1.6928948
29	0xbd2c3544	-0.042042986
30	0xbf0e8dbe	-0.5568503
31	0x3d9da4e7	0.07697468
32	0xbf687171	-0.907981
33	0x3e15f4bd	0.14644141
34	0xbf1c2d3a	-0.6100651
35	0x3f162186	0.586449
36	0x3f03324d	0.5124863
37	0x3f35d000	0.7102051
38	0x3dd77394	0.10520092
39	0x3f1b8ada	0.60758746
40	0xbf2cbeb2	-0.6747848
41	0x3f6cc4d2	0.92487824
42	0xbf20a9cc	-0.6275909
43	0x3fa54be1	1.2913781
44	0x3e75e023	0.24011283
45	0xbf204b31	-0.62614733
46	0xbe0aedc4	-0.13567263
47	0xbf5d15e9	-0.8636156
48	0x3fd3f508	1.6559153
49	0x400e10d8	2.219778
50	0xbd785a36	-0.060632907
51	0xbf1c7117	-0.6111006
52	0x3f907211	1.128481
53	0x3eda0216	0.42579716
54	0xbefd1ced	-0.4943613
55	0x3fbb7ac0	1.4646835
56	0x3fe9e290	1.8272266
57	0xbed16eab	-0.40904745
58	0xbf5eb5c8	-0.86996126
59	0x3dd40cb6	0.10353987
60	0x3e9f7568	0.3114426
61	0x3edd9821	0.43280128
62	0x3ee136f0	0.43987226
63	0x3bee7b20	0.0072778612
64	0xbee077f8	-0.4384153
65	0xbefe34ad	-0.49649563
66	0x3edf4fe6	0.43615645
67	0x3e386a1a	0.18009225
68	0x3eb3172e	0.34978622
69	0x3f65e9d0	0.89809895
70	0x4009fdb1	2.156109
71	0x3f43e04d	0.7651413
72	0xbf964805	-1.1740729
73	0xbf48ba83	-0.78409594
74	0x3ef1a151	0.47193387
75	0x3fd614d8	1.6725111
76	0x3f5d6e04	0.86495996
77	0x3f694e83	0.91135424
78	0xbedb8470	-0.4287448
79	0xbe4ec1bc	-0.20191091
80	0x3f5e9c5b	0.8695733
81	0x3f1f2a3f	0.6217384
82	0x3fc5ed4c	1.5463042
83	0x3fc22502	1.5167544
84	0x3f0a3245	0.53982955
85	0xbef2566a	-0.47331554
86	0xbfdc7014	-1.7221704
87	0x3e98eefe	0.29869837
88	0x3f0cc94d	0.5499466
89	0xbe74c0ba	-0.23901644
90	0xbe989683	-0.2980233
91	0x3ebf700d	0.37390175
92	0x3d97c05a	0.07409735
93	0x3eedcea0	0.46446705
94	0xbe4aa465	-0.19789274
95	0x3f3a3f4d	0.7275284
96	0xbf04ab99	-0.5182434
97	0x3f224c51	0.633977
98	0xbe33415a	-0.17505398
99	0x3f2fc6ed	0.6866291
100	0xbeb9f2a2	-0.36317927
101	0xbeb5f509	-0.3553851
102	0xbef368ee	-0.47540992
103	0x3e96c5a8	0.29447675
104	0xbfecadf7	-1.849059
105	0x3ec44475	0.3833348
106	0x3ea84de1	0.32871917
107	0x4013594a	2.3023248
108	0x3f245f9f	0.64208406
109	0xbf5a49fe	-0.85269153
110	0x3f27c59e	0.65535915
111	0x3e2b4402	0.16725162
112	0x3ed2842f	0.41116473
113	0xbe415abb	-0.18882267
114	0xbe31eb22	-0.17374852
115	0x3e826b0c	0.25472295
116	0x3f4b586b	0.7943179
117	0x3f64c445	0.89361984
118	0xbe73ef3d	-0.23821731
119	0x3ff0bb29	1.8807117
120	0x3f922617	1.1417874
121	0xbf43b379	-0.7644573
122	0xbf453414	-0.7703259
123	0x3ffcc2a2	1.9746897
124	0x3eebf868	0.46087956
125	0x3fa2a872	1.2707655
126	0xbf8920bf	-1.0713118
127	0x3f9f7e12	1.2460349
128	0x4000c763	2.0121696
129	0x3f0f5ecf	0.5600404
130	0x3fb6415a	1.4238694
131	0x3feb3a02	1.8377078
132	0x3f6bb5da	0.9207436
133	0x3f21e35d	0.63237554
134	0x3df436de	0.119245276
135	0x3ef370ad	0.47546902
136	0x3ea87511	0.32901815
137	0x3edac40d	0.427277
138	0xbf9bbc7d	-1.2166897
139	0x3eda7f01	0.4267502
140	0x3ebd8e35	0.37022558
141	0xbebb9e03	-0.3664399
142	0x3e70735c	0.23481506
143	0x3ff91ac1	1.946129
144	0x405a1a50	3.407856
145	0x3f1a86e9	0.60362107
146	0xbe68e752	-0.22744492
147	0xbf0c19ea	-0.5472704
148	0x3f0e6909	0.5562902
149	0x3f5f0185	0.87111694
150	0x3f35317b	0.70778626
151	0x3ed1b5b1	0.40958932
152	0x3f0e70b6	0.55640733
153	0x3fa90b4a	1.320657
154	0x3f2de2da	0.67924273
155	0x3dfe193a	0.12407155
156	0x3f196b33	0.599292
157	0xbe026641	-0.1273432
158	0xbfe54917	-1.791293
159	0x3ed3c381	0.41360095
160	0xbe57dc8f	-0.2108023
161	0x3fda7086	1.706559
162	0x3f7d7bea	0.990172
163	0xbf39219e	-0.7231692
164	0xbf1ea287	-0.6196675
165	0xbfab217b	-1.3369592
166	0x3f0e875f	0.5567531
167	0x3ebf5186	0.37366885
168	0xbf0b809c	-0.5449312
169	0xbf7377af	-0.951045
170	0x4010616c	2.2559462
171	0xbdad804d	-0.08471737
172	0x3f8bcfca	1.0922787
173	0x3fae41fe	1.3613889
174	0x3fd3370c	1.6501174
175	0x3fc21d03	1.5165104
176	0x3fd2c341	1.6465837
177	0xbdbf420c	-0.09338769
178	0xbed8dd42	-0.42356306
179	0xbf7b1f77	-0.98094887
180	0x3f0177c7	0.5057339
181	0x3f8958e7	1.0730256
182	0x3ec444c3	0.3833371
183	0xbf4c965c	-0.7991693
184	0xbe9a8859	-0.3018215
185	0x3f2cb422	0.6746236
186	0xbeadeb91	-0.33968785
187	0x3f435045	0.76294357
188	0xbeacd04d	-0.3375267
189	0x401eebe4	2.4831476
190	0xbe8a3e20	-0.27000523
191	0xbfa5cf6a	-1.2953923
192	0xbed19190	-0.40931368
193	0x3ec8e398	0.3923614
194	0xbe8a5b3e	-0.27022737
195	0xbfeb43c3	-1.8380054
196	0x3fe04c3c	1.7523265
197	0x40769ec9	3.8534415
198	0x401cefa8	2.4521275
199	0x40088140	2.1328888
200	0xc007102b	-2.1103618
201	0x3c4b53d2	0.012410121
202	0xbdee82c4	-0.11646035
203	0x3db92573	0.09040346
204	0x3f76f3af	0.9646558
205	0xbe0082e1	-0.12549926
206	0x3fa86b66	1.3157775
207	0xbf015b0d	-0.5052956
208	0x3ff975ca	1.9489071
209	0x3f1f09cd	0.6212433
210	0xbf9decf6	-1.233794
211	0xc037c878	-2.8716106
212	0x3f485975	0.782615
213	0xbd2705e7	-0.040777113
214	0x3dbccba5	0.092185296
215	0x3f8e7547	1.112954
216	0xbfa51c13	-1.2899193
217	0x3fdf604f	1.7451266
218	0x3f5f9427	0.8733544
219	0xbf76204b	-0.96143025
220	0x3f27ce0b	0.6554877
221	0xbe8f9a21	-0.2804728
222	0xbea0cbde	-0.31405538
223	0x3f4eb304	0.80741906
224	0x3ffe3c91	1.9862233
225	0xbfa4af6d	-1.2866036
226	0x3ea50474	0.3222996
227	0xbf94f9dd	-1.1638752
228	0xbf03fc20	-0.5155659
229	0x3f9514fc	1.1647029
230	0x403315e1	2.7982104
231	0x3f786e4c	0.970433
232	0xbfb3b8f1	-1.4040815
233	0xbeae9abd	-0.3410243
234	0xbf3d8296	-0.74027383
235	0xbc980f3a	-0.018561948
236	0xbef1e123	-0.47242078
237	0xbf85a1e2	-1.0440028
238	0x3f5f1150	0.8713579
239	0x3f0c9b31	0.54924303
240	0xbf3c8a6a	-0.73648703
241	0x3e905b41	0.2819462
242	0x3f04008d	0.5156334
243	0x3edbe7b3	0.4295021
244	0x4067cdf8	3.6219463
245	0x3f8b8ab7	1.0901707
246	0xbed158ef	-0.40888163
247	0x403db297	2.9640253
248	0xbd3efde6	-0.046628855
249	0xbc7070f7	-0.01467537
250	0xbda6a52b	-0.08136972
251	0x3deef7e5	0.11668376
252	0x40651a67	3.5797365
253	0x405c4925	3.4419644
254	0x3eb9f692	0.3632093
255	0x3f6beeee	0.9216145

encoder.lstm.weight_hh_l0 f4 [128, 32]
0	0xbe6f0a26	-0.23343715
1	0x3e1f81bb	0.15576832
2	0x3eac7db7	0.33689663
3	0x3ef5ccdc	0.48007858
4	0x3e806bcc	0.25082242
5	0xbcd7fdfa	-0.026366223
6	0x3e93b996	0.28852528
7	0x3eb5e38b	0.35525164
8	0x3f02a4c9	0.5103269
9	0x3f300d93	0.6877071
10	0xbcde303f	-0.027122615
11	0x3f324dc3	0.69649905
12	0xbed3f7bb	-0.4139994
13	0xbec2c528	-0.38041043
14	0xbe7e85bc	-0.24855703
15	0x3fa42052	1.2822363
16	0x3fac1505	1.3443915
17	0xbee91e0c	-0.45530736
18	0x3f5481b1	0.83010393
19	0x3d2a9c76	0.04165312
20	0xbf337c5f	-0.7011165
21	0x3f0ac9ef	0.54214376
22	0xbf1c3e7d	-0.6103285
23	0x3d54dd11	0.051968638
24	0xbd1d8618	-0.03845796
25	0xbf5d0e1e	-0.86349666
26	0xbf110ac1	-0.56657034
27	0x3f617732	0.880725
28	0x3dec483a	0.115372136
29	0xbf031d4c	-0.5121658
30	0xbf82c369	-1.0215884
31	0x3e9dbd94	0.308087
32	0x3ee53cf5	0.4477307
33	0xbf942155	-1.1572672
34	0x3d68cfb5	0.05683871
35	0xbf5079dc	-0.8143594
36	0xbf1f79b1	-0.6229506
37	0x3f2f6a3c	0.68521476
38	0x3f15acf6	0.5846704
39	0xbf71a875	-0.9439767
40	0x3f0d1cb9	0.5512195
41	0x3f40d6cc	0.75327754
42	0x3f304f3b	0.68870896
43	0xbf6dce10	-0.9289255
44	0x3dec5871	0.11540306
45	0x3f575459	0.8411308
46	0x3f4b408c	0.79395366
47	0x3f24440c	0.6416633
48	0xbf5654f0	-0.83723354
49	0x3e8cabae	0.2747473
50	0xbd48ad88	-0.048993617
51	0x3e9e329b	0.30897984
52	0x3e120d75	0.14262946
53	0xbf74cb57	-0.9562277
54	0x3f4dcb46	0.80388296
55	0x3e5ca226	0.2154623
56	0xbe43118a	-0.1904966
57	0x3f2f6826	0.6851829
58	0xbe9c3d11	-0.3051534
59	0x3db8a108	0.09015089
60	0x3c881ec0	0.016616225
61	0x3e228e83	0.15874676
62	0x3ea63c27	0.32467768
63	0x3f236c02	0.6383668
64	0x3cf516ec	0.029918157
65	0xbd5c538a	-0.053790607
66	0xbde2c391	-0.110724576
67	0x3e67be7b	0.22631256
68	0xbf1098d0	-0.56483173
69	0xbee09045	-0.4386007
70	0xbeab00b7	-0.33398983
71	0x3d075f20	0.033049703
72	0x3dda9787	0.10673433
73	0x3f3bface	0.7342957
74	0x3ef4a58c	0.47782552
75	0xbdcedc30	-0.10100591
76	0xbf5ea726	-0.869738
77	0x3ee954a0	0.45572376
78	0xbf2c7759	-0.6736961
79	0x3e3e9d96	0.18614802
80	0xbf43238b	-0.7622611
81	0x3df7f76a	0.12107737
82	0xbed9703d	-0.42468444
83	0xbd5d46dc	-0.054022655
84	0x3e9f5c8b	0.31125292
85	0x3e8827a6	0.2659275
86	0x3db579ee	0.08861147
87	0xbe91c731	-0.28472283
88	0xbea7f563	-0.32804403
89	0x3e91b66e	0.28459495
90	0xbd70ee0a	-0.05882076
91	0xbda2d4c2	-0.079507366
92	0xbea03e88	-0.31297708
93	0xbdf3daab	-0.11906942
94	0x3e3c2289	0.18372549
95	0x3e1a04f2	0.15040949
96	0xbdece8f4	-0.1156787
97	0xbee750bb	-0.4517878
98	0x3f7650cc	0.96217036
99	0xbf4e4f1b	-0.80589455
100	0xbf15c42f	-0.5850248
101	0x3e90f12a	0.28308994
102	0xbf78dff0	-0.972167
103	0x3e3fedef	0.18743108
104	0xbd0d1294	-0.034441546
105	0x3e1cad98	0.15300596
106	0x3eebdce4	0.46066964
107	0xbf71e528	-0.9449029
108	0x3dae90f6	0.08523743
109	0xbe8a1d4d	-0.2697548
110	0x3fccaaee	1.5989664
111	0x3f2b706d	0.66968423
112	0x3ee2364e	0.44182056
113	0x3f5a369e	0.8523959
114	0x3f530d46	0.8244213
115	0x3f5fd302	0.8743135
116	0xbf4a6587	-0.7906117
117	0x3d0480d5	0.032349426
118	0x3f17a789	0.59240013
119	0xbd8caf87	-0.06869417
120	0xbdca69be	-0.0988345
121	0x3f2534bd	0.645336
122	0xbf909ffd	-1.1298825
123	0x3e8fefae	0.2811255
124	0xbdae3a71	-0.085072406
125	0x3f240063	0.6406309
126	0x3ca2a21c	0.01985269
127	0xbea445d9	-0.3208454
128	0x3ebb8483	0.36624536
129	0x3f944983	1.1584934
130	0xbe79b3f5	-0.24385054
131	0x3f0ca5f3	0.5494072
132	0xbf7b0c1f	-0.9806537
133	0xbdc897b5	-0.09794561
134	0x3ec6d795	0.3883635
135	0xbefce109	-0.49390438
136	0x3f704885	0.93860656
137	0xbf67a486	-0.9048542
138	0xbf4b4d38	-0.794147
139	0xbe2fbefe	-0.17162701
140	0xbe85974d	-0.26091996
141	0xbc73fd61	-0.014891953
142	0x3f208e60	0.62717247
143	0x3f9540b4	1.1660371
144	0x3e433a9d	0.19065328
145	0xbf811585	-1.0084692
146	0xbf513d6a	-0.81734335
147	0xbdd09105	-0.1018391
148	0xbef7a17f	-0.483654
149	0xbf831dbf	-1.0243453
150	0xbe14fdd1	-0.14549948
151	0x3dcf8b2a	0.10133965
152	0x3c4e4074	0.012588609
153	0xbf116367	-0.567923
154	0x3f8c4a63	1.0960201
155	0x3f03534e	0.5129899
156	0xbe90d73e	-0.28289217
157	0xbde6f26c	-0.11276707
158	0xbe8bace5	-0.27280346
159	0xbfb5e978	-1.4211874
160	0x3dfb2d69	0.12264521
161	0xbedd1c34	-0.4318558
162	0xbd93f5d4	-0.07224622
163	0x3f06731a	0.5251938
164	0xbe537fcb	-0.20654218
165	0xbe0779fd	-0.13230129
166	0x3c9e35d2	0.019312773
167	0x3e7de511	0.24794413
168	0x3e0b76bf	0.13619517
169	0x3e0ffcd3	0.14061289
170	0xbd4b09e3	-0.049569976
171	0x3eff8686	0.4990732
172	0xbee02889	-0.43780926
173	0xbf7accfa	-0.9796902
174	0x3d4ec9bf	0.05048537
175	0x3f1940df	0.5986461
176	0x3f2430c8	0.64136934
177	0xbee94f73	-0.45568427
178	0x3ee9b567	0.45646212
179	0xbe941649	-0.28923252
180	0xbbb15e7b	-0.0054128743
181	0xbe8953dc	-0.26821792
182	0xbe3e66ec	-0.18593949
183	0x3f32c069	0.69824845
184	0x3e651056	0.22369513
185	0xbc999a8e	-0.018750455
186	0xbe06d9c7	-0.13169013
187	0xbddc7d3f	-0.10766076
188	0x3f41941e	0.75616634
189	0x3e67f11c	0.2265057
190	0xbfad514f	-1.3540438
191	0x3e2a4b0b	0.16630189
192	0xbe8fdeef	-0.28099772
193	0x3ea8d53b	0.32975182
194	0x3ec8e043	0.39233598
195	0xbe536530	-0.20644069
196	0xbe7c2f71	-0.24627472
197	0x3e85e950	0.26154566
198	0x3e9202c7	0.28517744
199	0xbfac36bb	-1.3454202
200	0xbe396b8a	-0.18107429
201	0xbf9387aa	-1.1525776
202	0xbf55be0e	-0.83493125
203	0xbdae9b89	-0.0852576
204	0x3eeb3309	0.45937374
205	0xbd1d6d7a	-0.038434483
206	0xbe513201	-0.20429231
207	0x3f0c250c	0.5474403
208	0xbef7e130	-0.48413992
209	0x3e89739e	0.2684602
210	0xbdf9a61d	-0.12189887
211	0x3b70b499	0.0036728738
212	0xbdbeef1b	-0.093229495
213	0xbe9ac814	-0.30230772
214	0x3f11c004	0.5693362
215	0xbec9ce10	-0.39415026
216	0xbe3e5832	-0.18588331
217	0x3eb3773d	0.3505191
218	0xbd4073c0	-0.046985388
219	0xbe8f9f59	-0.2805126
220	0xbf2d7dab	-0.6776988
221	0x3e72a866	0.23697051
222	0x3e801f4a	0.25023872
223	0xbea7e202	-0.32789618
224	0xbc542cb4	-0.012950111
225	0x3f23c4d0	0.6397219
226	0x3af02020	0.0018320121
227	0xbe6c48e1	-0.23074676
228	0xbf3a8d71	-0.7287207
229	0x3ea7c0cf	0.3276429
230	0xbe1ef823	-0.15524344
231	0xbf84e805	-1.0383307
232	0x3e791db9	0.24327745
233	0x3eb66db9	0.35630587
234	0x3e868a4d	0.2627739
235	0x3e98a18f	0.2981076
236	0x3df4dbe8	0.11956006
237	0x3f7c0f81	0.9846116
238	0x3dfd0fb6	0.12356512
239	0xbe7dc8ab	-0.2478358
240	0x3e8e1215	0.2774817
241	0xbe57fb6a	-0.21092
242	0x3fe5035e	1.7891653
243	0x3f3ee0fa	0.74562037
244	0xbf12f384	-0.57402825
245	0x3ddcf6ff	0.10789298
246	0xbf2a9875	-0.6663888
247	0x3f0dc984	0.55385613
248	0x3fc11887	1.508561
249	0xbf2dc752	-0.67882264
250	0x3efe8ecd	0.49718323
251	0x3f8d0b2c	1.1019034
252	0xbe234d92	-0.1594756
253	0xbe52e6ae	-0.2059581
254	0xbe46fb5c	-0.19431823
255	0x3da88187	0.082278304

encoder.lstm.bias_ih_l0 f4 [128]
0	0xbed18a9a	-0.40926057
1	0x3f1d2a3e	0.6139258
2	0xbda69d22	-0.081354395
3	0x3ee70aa4	0.45125306
4	0x3d3a9877	0.045555558
5	0xbea55da7	-0.32298014
6	0x3f1ff44b	0.62482136
7	0xbdb81db2	-0.08990039
8	0x3e4029f7	0.18766008
9	0x3c46b898	0.0121289715
10	0xbe24a96e	-0.16080257
11	0xbe952f06	-0.2913744
12	0x3eb0fad9	0.34566382
13	0x3d6d595f	0.05794656
14	0x3e122434	0.14271623
15	0xbd4ab7bb	-0.049491625
16	0x3eaf61b5	0.34254232
17	0xbdd865ba	-0.10566278
18	0x3c211b84	0.00983322
19	0xbe12b401	-0.14326479
20	0x3ee5755b	0.44816098
21	0xbe2f887d	-0.1714191
22	0x3e6d9e1f	0.2320485
23	0xbe93a411	-0.2883611
24	0x3d9e3ef5	0.07726852
25	0x3e1f4f48	0.15557587
26	0x3e3df652	0.18550995
27	0x3d4608cd	0.048348237
28	0xbe022421	-0.12709095
29	0xbe727ec7	-0.23681174
30	0x3e9d476e	0.3071856
31	0x3ec77565	0.38956752
32	0x3f29a952	0.6627399
33	0x3e9bb920	0.30414677
34	0x3e27a631	0.1637199
35	0x3e9321c4	0.287367
36	0x3e843687	0.2582285
37	0x3e9e8798	0.30962825
38	0x3ed4abfa	0.41537458
39	0xbedddaa3	-0.4333087
40	0x3e687c3f	0.22703646
41	0xbe918389	-0.28420666
42	0xbc8a6e28	-0.01689823
43	0x3eba796d	0.36420766
44	0xbd0f51fd	-0.0349903
45	0x3dab57a6	0.08366327
46	0xbd28eba5	-0.041240353
47	0xbece8cbc	-0.40341747
48	0xbee65534	-0.4498688
49	0x3ede781b	0.43451008
50	0xbef3bdda	-0.47605783
51	0xbde1979a	-0.11015244
52	0xbec98663	-0.3936034
53	0x3e2a7e62	0.16649774
54	0x3dff8b7f	0.12477779
55	0xbe43290a	-0.19058624
56	0xbdaeb2ca	-0.08530195
57	0x3e6404a5	0.22267397
58	0xbf09b0d4	-0.53785443
59	0xbe0e288e	-0.13882658
60	0x3e4ab599	0.19795837
61	0x3ed52117	0.41626808
62	0x3e64e770	0.22353911
63	0x3d5fe77f	0.05466413
64	0x3d624df2	0.055250116
65	0x3df275ef	0.118389
66	0x3e18dac2	0.149272
67	0xbe77ba80	-0.24192238
68	0xbeac3602	-0.33634955
69	0xbd97540b	-0.07389077
70	0xbe8fdd44	-0.280985
71	0xbe9eaab8	-0.30989623
72	0x3cfa2cc7	0.03053893
73	0xbe2f85ce	-0.17140886
74	0x3e25fb23	0.16209082
75	0xbbcf834d	-0.006332791
76	0x3d302195	0.043000776
77	0x3ebc3834	0.3676163
78	0x3e1d56d7	0.15365158
79	0x3e79b678	0.24386013
80	0x3d6cf363	0.0578493
81	0x3dc1fdfa	0.0947227
82	0x3c994f64	0.018714614
83	0x3da7ff0e	0.08202945
84	0xbe82bf70	-0.2553668
85	0xbd14add9	-0.036298607
86	0x3e3ef70c	0.18648928
87	0x3ca16bcb	0.01970472
88	0x387eb16c	6.0723556e-05
89	0x3dd5bf46	0.10436873
90	0xbdbeca6f	-0.09315955
91	0xbdd5c9a4	-0.104388505
92	0xbe7ef3ae	-0.24897644
93	0xbdc8493a	-0.09779592
94	0x3dc6f330	0.09714353
95	0xbda89d98	-0.082331836
96	0x3f36f002	0.7145997
97	0xbea608c9	-0.32428578
98	0xbe33889b	-0.1753258
99	0x3e495780	0.19662285
100	0x3d9ce9be	0.0766177
101	0xbe9b1131	-0.30286554
102	0xbd9e025d	-0.077152945
103	0x3d89c286	0.067265555
104	0xbea109b8	-0.31452727
105	0x3cb7aaf4	0.022420384
106	0x3cfc11ea	0.03077026
107	0xbe0f6a31	-0.14005353
108	0x3eb0d3aa	0.34536487
109	0x3e5c80d8	0.21533525
110	0xbe27ce0a	-0.16387191
111	0xbeb32a1b	-0.3499306
112	0x3f37bd1b	0.7177293
113	0xbe185b89	-0.14878668
114	0xbe142643	-0.1446772
115	0xbec8e2c8	-0.3923552
116	0x3f4433ef	0.76641744
117	0xbe3cb417	-0.18428074
118	0x3ed7ced8	0.42149997
119	0xbe07bd70	-0.13255858
120	0x3e2da63f	0.16957949
121	0xbe520832	-0.20510939
122	0x3f3361a9	0.7007089
123	0xbdafe58d	-0.08588705
124	0xbe8f1ba8	-0.27950788
125	0xbe40e2df	-0.18836544
126	0x3f0867f1	0.532836
127	0xbd8f6df4	-0.07003394

encoder.lstm.bias_hh_l0 f4 [128]
0	0xbecd5a49	-0.40107945
1	0x3f1695b9	0.5882221
2	0xbdd97f5e	-0.106199965
3	0x3ee8198f	0.45332
4	0x3d3fb22f	0.04680079
5	0xbea58576	-0.32328385
6	0x3f1b1cec	0.60591006
7	0xbda30f1a	-0.07961865
8	0x3e40eabd	0.18839546
9	0xbc7a972b	-0.01529483
10	0xbe229a50	-0.15879178
11	0xbe915345	-0.28383842
12	0x3eb3cf94	0.35119307
13	0x3d74a09e	0.05972349
14	0x3e0057d4	0.12533504
15	0xbd5b328d	-0.053515006
16	0x3eb27159	0.34852102
17	0xbdf617c7	-0.12016254
18	0x3d003fd3	0.031310868
19	0xbe10714e	-0.14105722
20	0x3ee87bc9	0.4540694
21	0xbe211a96	-0.15732798
22	0x3e7137ae	0.23556396
23	0xbe93a81a	-0.2883919
24	0x3d96c3d1	0.07361568
25	0x3e1161ae	0.14197418
26	0x3e49feb2	0.19726065
27	0x3d7d8b3e	0.06190037
28	0xbe09786b	-0.13424842
29	0xbe74d585	-0.23909576
30	0x3ea03a55	0.31294504
31	0x3ecd7b59	0.4013317
32	0x3f2a26de	0.66465557
33	0x3e9ab7e9	0.30218437
34	0x3e1af1ba	0.15131274
35	0x3e97a66e	0.29619163
36	0x3e7f45c0	0.24928951
37	0x3ea122cd	0.31471863
38	0x3ed47f65	0.41503444
39	0xbeda5892	-0.426457
40	0x3e6bf568	0.23042834
41	0xbe8d2e50	-0.27574396
42	0xbc8cbb36	-0.017179113
43	0x3eaf481f	0.34234712
44	0xbd1e7845	-0.038688917
45	0x3d695d2e	0.05697363
46	0xbd3d8f21	-0.046279076
47	0xbed93e92	-0.4243055
48	0xbeeb1751	-0.45916227
49	0x3ee0d60e	0.4391331
50	0xbef61f87	-0.48070928
51	0xbde4c9aa	-0.11171277
52	0xbec44313	-0.38332424
53	0x3e2aefdd	0.16693063
54	0x3df13dd3	0.1177937
55	0xbe3df6c7	-0.1855117
56	0xbdb75325	-0.089514054
57	0x3e759d3d	0.23985763
58	0xbf0c0c42	-0.54706204
59	0xbe0594c2	-0.13045028
60	0x3e56382f	0.2091987
61	0x3ed14edf	0.40880486
62	0x3e791a27	0.24326383
63	0x3d3bffec	0.045898363
64	0x3d86c4a4	0.06580475
65	0x3df87356	0.121313736
66	0x3e0b2cf6	0.1359137
67	0xbe6fd245	-0.23420055
68	0xbeace17e	-0.33765787
69	0xbdc51ad8	-0.09624261
70	0xbe923c24	-0.2856151
71	0xbe990b13	-0.2989126
72	0x3d14f5da	0.036367275
73	0xbe315dfd	-0.1732101
74	0x3e0ee37a	0.13953963
75	0x3b693ffa	0.0035591112
76	0x3d58ac7b	0.052898865
77	0x3eb8be77	0.36082813
78	0x3e0dee44	0.13860422
79	0x3e69ee80	0.22844887
80	0x3d9f7b77	0.07787221
81	0x3dc39283	0.09549429
82	0x3c86e5ea	0.016467053
83	0x3d94b832	0.07261695
84	0xbe6c04fe	-0.2304878
85	0xbd36ae4b	-0.044599812
86	0x3e545136	0.20734105
87	0x3c34e2b8	0.011040382
88	0x3b8a513c	0.0042211097
89	0x3ddebfd3	0.10876431
90	0xbdb753c9	-0.089515276
91	0xbdc4e84c	-0.096146196
92	0xbe7f39ca	-0.24924389
93	0xbdc057fd	-0.093917824
94	0x3db57981	0.08861066
95	0xbdb81953	-0.08989205
96	0x3f35b956	0.70985925
97	0xbea873e5	-0.3290092
98	0xbe2823ac	-0.16419858
99	0x3e4c0cc3	0.19926743
100	0x3d827326	0.06369619
101	0xbe9b1618	-0.30290294
102	0xbd8827c6	-0.06648211
103	0x3d97de80	0.074154854
104	0xbe967c10	-0.29391527
105	0x3cb7bb85	0.022428283
106	0x3d01fcb4	0.031735137
107	0xbe12aeb3	-0.14324455
108	0x3eacb24f	0.3372979
109	0x3e64f48d	0.22358914
110	0xbe287f54	-0.16454822
111	0xbeb2c78b	-0.34917864
112	0x3f3686b5	0.71299297
113	0xbe16c6bf	-0.14724253
114	0xbe08c4f2	-0.13356379
115	0xbecf4cef	-0.40488383
116	0x3f43eafb	0.76530427
117	0xbe54593c	-0.20737165
118	0x3ed49126	0.4151699
119	0xbe0a44dd	-0.13502832
120	0x3e3474af	0.17622636
121	0xbe464f25	-0.19366129
122	0x3f2fa7b1	0.6861525
123	0xbda106d5	-0.07862631
124	0xbe9544bf	-0.29154012
125	0xbe4eddc8	-0.2020179
126	0x3f0a1779	0.53942066
127	0xbd9454e9	-0.07242758

encoder.lstm.weight_ih_l1 f4 [128, 32]
0	0x3ec56f7c	0.38561618
1	0x3f278f20	0.65452766
2	0x3ee3f565	0.4452316
3	0x3e2c4b39	0.1682557
4	0xbcd9febb	-0.026610723
5	0xbe0dc6ac	-0.13845319
6	0xbe47906d	-0.19488688
7	0xbf62912d	-0.8850277
8	0x3f0dddc8	0.55416536
9	0x3d5f5916	0.05452832
10	0x3e10faf5	0.14158233
11	0x3d5289fb	0.05140112
12	0x3f884b55	1.064799
13	0xbf32066e	-0.6954106
14	0xbfc07bed	-1.5037819
15	0xbcf5a422	-0.029985491
16	0x3f8038b1	1.0017301
17	0x3ea6d1d0	0.3258195
18	0x3f844840	1.0334549
19	0xbc994da4	-0.01871378
20	0xbf1e2f55	-0.6179097
21	0xbef1c2cb	-0.47218928
22	0x3ecd252a	0.40067416
23	0x3e8909b9	0.2676523
24	0xbeead59a	-0.4586609
25	0x3e85c270	0.26124907
26	0xbea8c443	-0.32962236
27	0x3f8af18a	1.0854962
28	0xbb1b1ed5	-0.00236695
29	0x3e05198a	0.12998024
30	0xbf3e9b7f	-0.7445602
31	0xbe4aa9e4	-0.1979137
32	0x3cf34ed0	0.029700667
33	0x3edba8c4	0.42902195
34	0xbef31e66	-0.4748413
35	0x3dd84577	0.10560124
36	0x3e553dbc	0.20824331
37	0x3ebf129c	0.37318885
38	0xbe53cf0c	-0.20684451
39	0x3f164596	0.5869993
40	0x3d359cd2	0.04433901
41	0xbf8911c9	-1.0708553
42	0x3e5fefe9	0.21868862
43	0x3d49182c	0.049095318
44	0x3ea4bd64	0.32175744
45	0x3e7ff9c1	0.24997617
46	0x3f15e342	0.5854989
47	0xbf501035	-0.8127473
48	0x3e9d716e	0.30750602
49	0xbe5bd223	-0.2146688
50	0xbd63a267	-0.0555748
51	0xbe8525f9	-0.26005533
52	0x3e1f2f70	0.1554544
53	0xbf73eddd	-0.95284826
54	0xbeabe6bf	-0.33574483
55	0x3ef5be90	0.4799695
56	0x3eea1882	0.45721823
57	0xbbb376f8	-0.0054768287
58	0x3e70be4c	0.23510092
59	0x3ee4ba89	0.44673565
60	0xbe93c83f	-0.28863713
61	0xbd8f3646	-0.06992774
62	0x3e5a9efc	0.2134971
63	0xbd7f2a1b	-0.062296014
64	0xbf74f5b8	-0.9568744
65	0xbde1d0fd	-0.110261895
66	0xbf848408	-1.0352793
67	0xbffece42	-1.9906695
68	0x3e4c9057	0.19976936
69	0xbec8cfb6	-0.3922097
70	0xbfa4705f	-1.2846793
71	0xbf0cc41b	-0.54986733
72	0xbf8813fe	-1.0631101
73	0xbec775a0	-0.38956928
74	0x3f6f358c	0.9344108
75	0x3df62858	0.12019414
76	0xbedb3d8d	-0.42820397
77	0x3e1d8160	0.15381384
78	0xbc9029cb	-0.017598053
79	0xbb6118c3	-0.0034347035
80	0x3f3bfd32	0.7343322
81	0x3fabadef	1.3412455
82	0xbf809e30	-1.0048275
83	0xbe1897f4	-0.14901716
84	0x3e869ab0	0.26289892
85	0x3e018e9c	0.12652057
86	0x3f8dd8b5	1.1081759
87	0xbdc069ef	-0.09395205
88	0x3ef4bc8a	0.47800094
89	0x3ed0602f	0.40698382
90	0x3f44d492	0.76886857
91	0x3f0a5747	0.54039425
92	0xbfa7b7e2	-1.3102992
93	0xbedc64a8	-0.43045545
94	0x3f821f9f	1.01659
95	0xbf05a53e	-0.52205265
96	0xbe8584e8	-0.26077962
97	0xbeac728c	-0.33681142
98	0x3ecd770f	0.40129897
99	0xbe6e1535	-0.23250277
100	0xbfe67c2d	-1.8006645
101	0x3eb9049e	0.36136335
102	0x3f1f8090	0.62305546
103	0x3fc7e763	1.5617489
104	0x3ee0d76f	0.43914363
105	0x3f15cc33	0.5851471
106	0xbf2879d6	-0.65810907
107	0xbef9798a	-0.4872554
108	0xbf03e221	-0.5151692
109	0x3f542918	0.82875204
110	0x3fb3d54f	1.4049472
111	0x3f121d9c	0.5707643
112	0xbd880d69	-0.06643183
113	0x3f296591	0.66170603
114	0xbf726e74	-0.9469979
115	0x3e942878	0.28937125
116	0xbf514e39	-0.81759983
117	0xbe383ee2	-0.17992738
118	0x3e1bc88b	0.1521322
119	0xbf71a90c	-0.9439857
120	0x3ed3c6b5	0.4136254
121	0x3f90f989	1.1326152
122	0x3e830f3d	0.25597563
123	0xbf2937c7	-0.66100734
124	0x3f0e374d	0.5555313
125	0x3ed1e387	0.40993902
126	0x3f513a2a	0.81729376
127	0xbec82a5b	-0.39094815
128	0x3e94927a	0.29018003
129	0x3ef96a59	0.4871395
130	0x3db116ed	0.08646951
131	0x3d8dab5b	0.06917449
132	0xbf102905	-0.5631259
133	0x3d44889e	0.04798185
134	0x3f4cba15	0.7997144
135	0xbf1f138f	-0.6213922
136	0x3eaf4b7b	0.34237275
137	0xbe04bf0e	-0.12963507
138	0x3e86c005	0.26318374
139	0xbe3ed83c	-0.18637174
140	0x3f053c00	0.5204468
141	0xbf042843	-0.51623935
142	0x3f070782	0.5274583
143	0x3fc5b3fd	1.5445553
144	0x3eb7a6b1	0.35869363
145	0xbec15a83	-0.37764367
146	0xbf100963	-0.56264323
147	0x3e1a0766	0.15041885
148	0x3f338994	0.701318
149	0x3c8cb81a	0.01717763
150	0xbfd1b6f0	-1.6383953
151	0x3c92c880	0.017917871
152	0x3f30b453	0.6902515
153	0xbf396add	-0.72428685
154	0x3f19191a	0.59803927
155	0xbe9a8673	-0.30180702
156	0xbda49d93	-0.080378674
157	0xbe56cd5e	-0.20976779
158	0xbf52adad	-0.8229626
159	0xbf604acc	-0.8761413
160	0xbfc14b42	-1.5101092
161	0x3e4e13fb	0.2012481
162	0xbead54d2	-0.33853775
163	0xbf141a13	-0.57852286
164	0xbfde4ff0	-1.7368145
165	0x3e909c89	0.28244427
166	0x3e348041	0.1762705
167	0x3f608fa0	0.87719154
168	0xbee2997b	-0.4425772
169	0x3f0159dd	0.50527745
170	0xbe6b4003	-0.22973637
171	0xbfb5f0fb	-1.4214166
172	0x3c45b017	0.012065909
173	0x3f88a7f6	1.0676258
174	0x3ef500b2	0.47852093
175	0x3d1b6a5d	0.037943233
176	0xbf0fa81d	-0.56115896
177	0x3f131ffa	0.5747067
178	0xbf75d376	-0.9602579
179	0x3eb26d3e	0.3484897
180	0x3d47cd41	0.04877973
181	0xbf047b0d	-0.5175026
182	0xbf14cb4e	-0.5812272
183	0xbe0aea62	-0.13565972
184	0x3e6120e1	0.21985199
185	0x3ea9fdf4	0.33201563
186	0xbf95cbad	-1.1702782
187	0xbc92461f	-0.017855702
188	0xbeb95e26	-0.36204642
189	0x3fc3fc52	1.5311377
190	0x3f17ceea	0.593001
191	0x3e54b23c	0.20771116
192	0xbd1b32ad	-0.037890125
193	0x3eaed986	0.34150332
194	0xbf0413e6	-0.5159286
195	0xbf86fd06	-1.0545967
196	0xbfcb3965	-1.587689
197	0x3fc81665	1.5631834
198	0x3f4a6d09	0.79072624
199	0xbedf1940	-0.43573952
200	0x3ef4e9c1	0.4783459
201	0x3fd52d1c	1.6654391
202	0xbf90c4fa	-1.1310112
203	0xbf4cc3d8	-0.79986334
204	0x3f15fce0	0.5858898
205	0x3d48112b	0.048844498
206	0x3f132c9d	0.5748995
207	0x3f733480	0.95001984
208	0xbf8c9fa8	-1.0986223
209	0x3e712680	0.23549843
210	0x3f36db64	0.71428514
211	0xbca07a81	-0.019589664
212	0x3f194a71	0.59879214
213	0xbf51da2f	-0.81973547
214	0xbf2eb60f	-0.6824655
215	0xbf0e24d5	-0.5552495
216	0x3e3e8a49	0.18607439
217	0x3f37f66a	0.71860373
218	0xbe5ec4ec	-0.21754807
219	0xbf26e1a3	-0.65188044
220	0x3e8d85e9	0.27641228
221	0x3f8c8327	1.0977525
222	0xbdbcad7c	-0.09212777
223	0xbde7cf7e	-0.11318873
224	0x3ee5277a	0.4475668
225	0x3ce5592c	0.027996622
226	0xbf629eed	-0.8852375
227	0xbf3a96a0	-0.72886086
228	0xbf86fbaa	-1.0545552
229	0xbf006c70	-0.5016546
230	0xbf17d5a8	-0.5931039
231	0x3ebe9ef9	0.37230662
232	0xbe9fc617	-0.31205818
233	0xbe48ad50	-0.19597363
234	0xbfc0808b	-1.5039228
235	0xbddc03f6	-0.10742943
236	0x3f0e5cb0	0.5561018
237	0xbf27744e	-0.6541184
238	0x3fb814dc	1.4381366
239	0x3f11dfce	0.56982124
240	0xbdf24f34	-0.11831513
241	0xbdc319e6	-0.09526424
242	0x3f567847	0.8377728
243	0xbe5774c2	-0.21040633
244	0x3e77fb76	0.24217018
245	0xbfb634d9	-1.4234878
246	0x3eb15428	0.3463452
247	0xbe53b195	-0.20673211
248	0x3e26a44f	0.16273616
249	0xbe2f1d69	-0.17101063
250	0x3e96553d	0.29361907
251	0xbeecd98b	-0.46259722
252	0xbe9fd6d3	-0.31218585
253	0x3d6cc230	0.05780238
254	0xbe8fd8eb	-0.28095183
255	0xbe04221c	-0.12903637

encoder.lstm.weight_hh_l1 f4 [128, 32]
0	0x3f44ec82	0.7692338
1	0x3f03ce88	0.51487017
2	0xbe873aed	-0.26412144
3	0xbd44c953	-0.04804356
4	0xbcbb57b3	-0.022868967
5	0x3e6065d2	0.21913841
6	0x3bf5279e	0.0074815294
7	0xbfeae768	-1.835187
8	0xbf5be721	-0.8589955
9	0xbf15a223	-0.58450526
10	0xbebfe80f	-0.37481734
11	0x3f3853a2	0.72002614
12	0xbe2bc43a	-0.16774073
13	0x3f5c8da7	0.86153644
14	0x3e5eec74	0.21769887
15	0x3e424a65	0.18973692
16	0x3e012a1d	0.12613721
17	0xbc051375	-0.008122315
18	0x3e9d68f2	0.3074413
19	0x3f613cd8	0.87983465
20	0x3f27465c	0.65341735
21	0xbe9e13f9	-0.30874613
22	0xbd0a0f50	-0.03370601
23	0x3f17c50d	0.5928505
24	0xbf6ba5b2	-0.92049706
25	0x3f459dd6	0.77193964
26	0xbf8a5ddf	-1.0809897
27	0xbf3dd4d9	-0.74152905
28	0x3ea00c33	0.31259307
29	0xbea865f8	-0.32890296
30	0xbefc739a	-0.49306947
31	0x3faaa83b	1.333259
32	0xbea20b1b	-0.31649098
33	0x3e8c0e1f	0.27354524
34	0xbce6a756	-0.028155964
35	0x3e21a406	0.15785226
36	0x3fd89fb7	1.6923741
37	0xbeafbbec	-0.3432306
38	0xbf7c3db2	-0.9853164
39	0xbc8117b6	-0.015758377
40	0x3e22798a	0.15866676
41	0xbfb0a9a9	-1.3801776
42	0xbf64ab48	-0.89323854
43	0xbe539eda	-0.20666066
44	0x3c8b812e	0.017029371
45	0xbf17138d	-0.5901421
46	0x3eb23557	0.3480632
47	0x3e9aed2d	0.30259076
48	0xbd1882fb	-0.037234288
49	0x3f2b8b4f	0.67009443
50	0xbf525f34	-0.8217652
51	0xbd34009b	-0.04394589
52	0x3ef3ae81	0.47594073
53	0x3e3e74f3	0.185993
54	0x3fd40dcc	1.656671
55	0xbec0a6d4	-0.3762728
56	0x3f050005	0.51953155
57	0xbfdfe88e	-1.7492845
58	0xbec1da90	-0.37862062
59	0x3fa9efb5	1.3276278
60	0x3e8cc047	0.27490446
61	0x3d8ea4ef	0.06965052
62	0x3e831b22	0.25606638
63	0xbf715169	-0.9426485
64	0x3eeab22f	0.45839068
65	0x3f14882e	0.58020294
66	0xbf4e9ec3	-0.80711
67	0xbf3e2c07	-0.7428593
68	0xbf3b8a3d	-0.7325781
69	0x3eb8c5cd	0.3608841
70	0x3f8d7717	1.1051968
71	0xbf3a5c9c	-0.7279756
72	0x3e8c93da	0.27456552
73	0xbf260a08	-0.64859056
74	0xbf038422	-0.51373494
75	0x3f365fa6	0.712397
76	0xbed34b64	-0.41268456
77	0xbed8ec62	-0.42367846
78	0xbf0fa832	-0.5611602
79	0x3e31df7d	0.1737041
80	0xbe0e67e5	-0.1390682
81	0x3f6ec8ed	0.9327534
82	0xbe9c6725	-0.30547443
83	0xbe00b5ec	-0.12569398
84	0x3cf79f40	0.030227304
85	0x3ea74bc6	0.32674998
86	0x3e87aa6c	0.2649721
87	0x3d0f88bb	0.035042506
88	0x3de9c421	0.11414362
89	0xbe993d92	-0.29929787
90	0xbec0986e	-0.37616295
91	0x3d95a235	0.07306329
92	0xbef345a6	-0.47514075
93	0x3f30a6bb	0.6900441
94	0xbf39bcbd	-0.72553617
95	0xbf8ef3eb	-1.1168188
96	0x3f0a1617	0.53939956
97	0xbd3c538b	-0.04597811
98	0x3eee0c8c	0.46493948
99	0xbee2db9c	-0.44308174
100	0x3ec96d7b	0.3934134
101	0xbfa0cc29	-1.2562305
102	0xbf04392b	-0.5164973
103	0xbf50efb6	-0.8161577
104	0xbf19b37d	-0.600395
105	0x3ce64dfe	0.028113361
106	0x3de8e614	0.11372009
107	0x3ee10b56	0.4395396
108	0xbfc912fe	-1.5708921
109	0x3f1e546b	0.6184756
110	0xbdd2b3d6	-0.10288207
111	0xbef3a57b	-0.4758719
112	0x3fd869fa	1.6907341
113	0x3fe97c1b	1.8240999
114	0xbebf5e46	-0.37376612
115	0xbdb7646d	-0.089547016
116	0x3f6a6596	0.9156126
117	0xbf0936c2	-0.5359918
118	0xbd3cda20	-0.046106458
119	0xbf18ec4b	-0.59735554
120	0xbf77bf37	-0.96776146
121	0x3d50233f	0.050814863
122	0xbeac9b6c	-0.33712327
123	0x3ed360e0	0.41284847
124	0x3d96dd3a	0.07366414
125	0xbebc39a7	-0.36762735
126	0xbf34bf34	-0.7060425
127	0x3f2fa487	0.68610424
128	0xbeb2f9ad	-0.34956113
129	0xbd561027	-0.052261498
130	0x3e8e5f61	0.27807143
131	0x3e958a18	0.2920692
132	0xbf18b57e	-0.59651935
133	0xbe61db4c	-0.22056311
134	0xbeccc66d	-0.39995137
135	0x3d197af0	0.037470758
136	0xbf6effcf	-0.9335908
137	0xbf3ff57e	-0.74983966
138	0x3fdfdb56	1.7488811
139	0xbf4871c7	-0.7829861
140	0x3cf09fc8	0.029373065
141	0x3e4a5469	0.19758762
142	0x3f9ca153	1.2236732
143	0xc0154cf9	-2.332823
144	0xbf1bfc66	-0.60932004
145	0xbe33e5ef	-0.17568181
146	0x3f1953ea	0.5989367
147	0xbf676ee9	-0.9040361
148	0xbee0d083	-0.43909082
149	0x3eec8b16	0.46199864
150	0x3eaebdaa	0.34129077
151	0x3f1de82e	0.61682403
152	0x3ed8b33e	0.4232425
153	0xbf41e7b9	-0.75744206
154	0x3facb091	1.3491384
155	0xbf400c3b	-0.7501866
156	0x3e712aa1	0.23551418
157	0xbec42b7c	-0.38314426
158	0x3f43ba46	0.76456106
159	0xbfa89f2e	-1.3173578
160	0x3f57aae8	0.8424516
161	0xbec42356	-0.3830821
162	0x3ded0d42	0.11574794
163	0xbf327f72	-0.69725716
164	0xbbe174d2	-0.006880381
165	0xbf472df2	-0.7780448
166	0x3e6493fa	0.22322074
167	0xbf1af248	-0.6052594
168	0x3e8ed510	0.2789693
169	0xbedab0e0	-0.4271307
170	0xbf8e6936	-1.1125858
171	0x3f2f8534	0.68562627
172	0x3e46200b	0.19348161
173	0xbf4365ce	-0.76327217
174	0xbf25e393	-0.64800376
175	0xbe8a955f	-0.27067086
176	0x3fd3d594	1.6549554
177	0x3ed2fd21	0.41208747
178	0xbed4afdf	-0.4154043
179	0xbeffdb86	-0.4997217
180	0x3f99b617	1.2008694
181	0x3a6b714a	0.000898142
182	0xbf3ff070	-0.74976254
183	0xbd1c01b6	-0.03808757
184	0xbe59ebc7	-0.21281348
185	0xbef455c5	-0.47721687
186	0x3e9387bf	0.28814504
187	0xbc96f371	-0.018426629
188	0x3df63c59	0.12023229
189	0x3f0e6112	0.5561687
190	0xbf4b8947	-0.79506344
191	0x3e85dd28	0.2614529
192	0x3ea0bd1f	0.31394288
193	0x3d955c53	0.07293
194	0x3e8330c6	0.2562315
195	0xbf1faee6	-0.6237625
196	0xbf070ce5	-0.5275405
197	0xbe5f9079	-0.21832456
198	0xbe805a3d	-0.25068846
199	0x3f32dd4e	0.69868934
200	0xbe2c8df6	-0.16851029
201	0x3dbc5d8a	0.09197529
202	0x3f607b4e	0.8768815
203	0x3f38828d	0.72074205
204	0x3b43a392	0.0029852134
205	0xbdd03f4f	-0.10168325
206	0xbf1df34a	-0.61699355
207	0x3f9dcd7d	1.2328335
208	0x3f2717cf	0.65270704
209	0xbf448b75	-0.76775295
210	0xbf382e08	-0.7194524
211	0x3f842239	1.0322944
212	0x3ef1eed7	0.47252533
213	0x3f169843	0.5882608
214	0x3ebd6197	0.36988518
215	0x3f161b45	0.5863536
216	0x3f8b603f	1.0888747
217	0x3eb8355f	0.3597822
218	0xbee7b581	-0.45255664
219	0xbee7dc98	-0.45285487
220	0x3fee635a	1.862407
221	0xbe9a8838	-0.30182052
222	0x3e6eeaa0	0.2333169
223	0x3f5bab09	0.85807854
224	0x3e33e92d	0.17569418
225	0xbf0eeb6f	-0.55827993
226	0x3f059d46	0.52193105
227	0xbef71d52	-0.48264557
228	0x3ff2aa7c	1.8958278
229	0xbe0f2ee5	-0.13982733
230	0xbe0b6acc	-0.13614959
231	0xbf54aba9	-0.8307443
232	0xbf775b5b	-0.9662377
233	0xbe252b94	-0.16129905
234	0x3f0bd4e0	0.54621696
235	0x3dd97af5	0.10619155
236	0xbd9b5cab	-0.075860344
237	0x3fb6924d	1.4263397
238	0x3f1b72d7	0.60722107
239	0x3f5734ff	0.8406524
240	0xba6edf5e	-0.0009112264
241	0x3ec56079	0.38550165
242	0x3f5eb6d4	0.86997724
243	0xbe923999	-0.2855957
244	0xbf752538	-0.95759916
245	0xbead4991	-0.3384519
246	0x3fac2d02	1.3451235
247	0xbf6256e8	-0.8841386
248	0xbdcab7ed	-0.09898362
249	0x3c8d775a	0.017268825
250	0xbd977603	-0.07395556
251	0x3f9a3259	1.2046615
252	0x3fa5df49	1.2958766
253	0xbe9060b2	-0.28198773
254	0xbf40a275	-0.7524789
255	0x3f73a5f2	0.9517509

encoder.lstm.bias_ih_l1 f4 [128]
0	0xbe5f4a0b	-0.21805589
1	0xbdf3aa6b	-0.11897739
2	0x3f388c58	0.7208915
3	0x3e218bc0	0.15775967
4	0xbe325185	-0.1741391
5	0x3e7be28b	0.24598138
6	0xbde83550	-0.113382936
7	0x3e04dfc4	0.12975985
8	0x3e8f56ac	0.27995813
9	0xbe8dc005	-0.27685562
10	0x3f9fae59	1.2475082
11	0x3e1d1e95	0.15343697
12	0x3f339aca	0.70158064
13	0xbe0ca7f5	-0.13735946
14	0xbd40f665	-0.04710998
15	0x3dd957af	0.106124274
16	0xbe666e88	-0.22503102
17	0x3dfcddcc	0.12346992
18	0xbedf3b33	-0.43599853
19	0x3f1547e8	0.58312845
20	0xbeb30b92	-0.34969765
21	0xbdf6b9d4	-0.12047163
22	0xbdc10633	-0.094250105
23	0xbe235760	-0.159513
24	0x3f48d2f9	0.7844692
25	0x3b9f96a9	0.004870255
26	0x3e80e7e5	0.2517692
27	0xbd29cd52	-0.041455574
28	0xbce0831b	-0.027406266
29	0x3ea6c9d6	0.32575864
30	0x3f192cd2	0.59834015
31	0xbdb5bc4f	-0.08873808
32	0x3c094ea7	0.008380569
33	0x3e1360af	0.1439235
34	0xbd71ffc1	-0.059081797
35	0xbd862348	-0.06549698
36	0x3ee2ea52	0.44319397
37	0x3d92b267	0.07162934
38	0xbe2f1387	-0.17097293
39	0xbe7d6635	-0.2474602
40	0x3e4fcc9e	0.20292899
41	0xbbb9b13d	-0.0056668804
42	0xbe062468	-0.13099825
43	0x3e21f113	0.15814619
44	0xbe9de8b3	-0.30841598
45	0x3edecd47	0.4351599
46	0x3f268166	0.65041196
47	0x3c295c93	0.010337013
48	0xbd95032c	-0.072759956
49	0x3e68e7e6	0.22744712
50	0x3ce7a2a9	0.028275805
51	0x3e1dfcd9	0.15428485
52	0x3e552087	0.2081319
53	0x3e3ad28d	0.18244381
54	0x3f049fc9	0.5180631
55	0xbdb161f7	-0.086612634
56	0xba98da7f	-0.0011661797
57	0xbe29765f	-0.16549061
58	0x3e63caa3	0.22245269
59	0xbe7cedee	-0.24700138
60	0xbd8783b3	-0.066169165
61	0x3e8da9f2	0.2766872
62	0xbdb35999	-0.08757324
63	0x3db1cd5a	0.08681746
64	0x3c14e2a1	0.009087236
65	0xbd187428	-0.03722015
66	0xbe65641c	-0.2240147
67	0xbe966bef	-0.29379222
68	0x3eb04ce9	0.34433678
69	0x3c20dfa1	0.009818942
70	0xbe90644e	-0.28201526
71	0xbebe2615	-0.3713843
72	0xbbfe0ff1	-0.007753365
73	0xbe07e537	-0.13271032
74	0xbf3f107d	-0.74634534
75	0x3d931e03	0.07183459
76	0xbdef8bde	-0.116965994
77	0xbe9fdb0f	-0.31221816
78	0x3d73d1ed	0.059526373
79	0x3e74acf3	0.238941
80	0x3cc800cf	0.024414448
81	0x3e62fb49	0.2216617
82	0xbe32fcd1	-0.17479254
83	0x3e816cad	0.25278226
84	0xbe08af17	-0.13348041
85	0xbe71328a	-0.23554435
86	0xbe8c706d	-0.27429524
87	0xbedf11a1	-0.43568137
88	0xbf188448	-0.59576845
89	0x3dbd377e	0.092391
90	0xbedf0708	-0.43560052
91	0x3da9dece	0.0829445
92	0x3e29aeb6	0.16570553
93	0x3d9bf7ac	0.07615599
94	0xbf2aa31d	-0.6665514
95	0x3ea672ea	0.32509547
96	0x3d625e64	0.0552658
97	0x3cd2bf40	0.02572596
98	0x3df66489	0.12030894
99	0xbe0db2bc	-0.13837713
100	0x3e62a1e7	0.22132073
101	0x3f11f54f	0.57014936
102	0xbc16be6d	-0.0092006745
103	0x3e25f0c4	0.16205126
104	0x3ed3e3d4	0.41384757
105	0xbdc39fc4	-0.09551957
106	0x3f0e2be5	0.5553573
107	0x3ec9df1a	0.39428025
108	0x3f204ed5	0.6262029
109	0x3e5dc894	0.21658546
110	0xbd140459	-0.03613696
111	0xbd3f3bfa	-0.046688057
112	0x3e075db2	0.13219336
113	0xbdb2b62a	-0.08726151
114	0xbc365e47	-0.011130876
115	0x3e442df7	0.19158159
116	0xbe073482	-0.13203624
117	0xbe2719be	-0.16318414
118	0xbde81faa	-0.113341644
119	0x3de094aa	0.109658554
120	0x3f4fceb7	0.81174797
121	0x3e974294	0.29542983
122	0x3df0e4d2	0.11762394
123	0x3d055f37	0.032561507
124	0x3e807693	0.25090465
125	0x3ebd7be0	0.37008572
126	0x3eb705b9	0.35746554
127	0x3e4865fa	0.19570151

encoder.lstm.bias_hh_l1 f4 [128]
0	0xbe64143c	-0.22273344
1	0xbdc78a91	-0.09743226
2	0x3f3df029	0.7419458
3	0x3e224277	0.15845667
4	0xbe24191d	-0.16025205
5	0x3e861124	0.26184952
6	0xbdf67e80	-0.12035847
7	0x3dd5d06c	0.10440144
8	0x3e92dc36	0.28683633
9	0xbe849a93	-0.2589918
10	0x3fa32e61	1.2748529
11	0x3e191366	0.14948806
12	0x3f307cca	0.68940413
13	0xbe00c7df	-0.12576245
14	0xbd6fbbd6	-0.058528744
15	0x3de02767	0.109450154
16	0xbe63cfba	-0.2224721
17	0x3dc882c2	0.09790565
18	0xbee0c58a	-0.4390071
19	0x3f19fd15	0.601518
20	0xbeae2c93	-0.34018382
21	0xbdfaa1cc	-0.122378916
22	0xbda44418	-0.080208
23	0xbe3084e1	-0.1723819
24	0x3f42f14e	0.7614945
25	0xbc47cada	-0.01219436
26	0x3e8a2749	0.26983097
27	0xbd29489c	-0.04132901
28	0xbceb7de5	-0.028746555
29	0x3e9d2ff8	0.3070066
30	0x3f1bd473	0.60871047
31	0xbda67349	-0.08127458
32	0xba730084	-0.0009269791
33	0x3e07feda	0.13280812
34	0xbd87ee2f	-0.06637227
35	0xbd823ac5	-0.06358866
36	0x3edc7240	0.43055916
37	0x3d98d9b4	0.074633986
38	0xbe2ee989	-0.17081274
39	0xbe8c8e22	-0.2745219
40	0x3e41eeaf	0.18938707
41	0xbc918fb2	-0.017768715
42	0xbe014c35	-0.12626727
43	0x3e0fe308	0.1405145
44	0xbe935f86	-0.28783816
45	0x3ee42e50	0.44566584
46	0x3f29d27a	0.66336787
47	0x3a4dcd7f	0.00078507507
48	0xbd8e41d6	-0.06946151
49	0x3e6f76f6	0.23385224
50	0x3d1b63f1	0.03793711
51	0x3e36c6b4	0.17849237
52	0x3e63895a	0.22220364
53	0x3e4692f5	0.19391997
54	0x3f05fb52	0.5233661
55	0xbdbc00b7	-0.09179824
56	0x3ca40ac4	0.020024665
57	0xbe394cdb	-0.18095724
58	0x3e6ba875	0.2301348
59	0xbe80c96b	-0.2515367
60	0xbd8a949d	-0.06766627
61	0x3e8ad57b	0.27115998
62	0xbdb89f32	-0.09014739
63	0x3db52985	0.0884581
64	0x3b7611cf	0.0037547236
65	0xbd52d709	-0.051474605
66	0xbe5c39c1	-0.21506406
67	0xbe924dc4	-0.28574955
68	0x3eb0457a	0.34428006
69	0xbc38abc6	-0.011271423
70	0xbe965d7f	-0.29368207
71	0xbeb594c0	-0.3546505
72	0x3c7a25de	0.015267817
73	0xbdf6042d	-0.12012515
74	0xbf3a2f6e	-0.7272862
75	0x3d9f44a6	0.077767655
76	0xbdf8b4dd	-0.12143872
77	0xbe991d0b	-0.2990497
78	0x3d359128	0.044327885
79	0x3e6386d3	0.222194
80	0x3d2b7375	0.041858155
81	0x3e5b47d0	0.21414113
82	0xbe36dda4	-0.17857987
83	0x3e844eba	0.25841314
84	0xbe0ab340	-0.13544941
85	0xbe615a53	-0.22007112
86	0xbe8afdcb	-0.27146754
87	0xbeda8550	-0.42679834
88	0xbf157174	-0.5837624
89	0x3da3e76f	0.08003127
90	0xbed63d3e	-0.418436
91	0x3dcffb54	0.10155359
92	0x3e3c7197	0.18402706
93	0x3d836fd9	0.064178176
94	0xbf2792b6	-0.6545824
95	0x3ea3df59	0.32006338
96	0x3d68680b	0.056739848
97	0x3bf1f2ba	0.0073836716
98	0x3ddd75e3	0.10813501
99	0xbe176187	-0.14783297
100	0x3e6dbb5e	0.23216006
101	0x3f0d3ebf	0.5517387
102	0xbc997d18	-0.018736407
103	0x3e109cc4	0.14122301
104	0x3edb17a2	0.42791468
105	0xbd99b0e3	-0.075044416
106	0x3f09c66b	0.53818387
107	0x3ebfb0e8	0.37439656
108	0x3f1dd318	0.6165023
109	0x3e59eb5a	0.21281186
110	0xbd2848b8	-0.041084975
111	0xbcaa4740	-0.020785928
112	0x3e0f5b28	0.13999617
113	0xbdaa34dc	-0.083108634
114	0xbc3943ec	-0.011307698
115	0x3e2965ba	0.16542712
116	0xbe147013	-0.14495878
117	0xbe30cd7f	-0.1726589
118	0xbdff278b	-0.12458714
119	0x3dfe2a3b	0.124103986
120	0x3f4ea0c6	0.8071407
121	0x3e904b82	0.28182608
122	0x3ddd28cd	0.10798798
123	0x3cd63b7f	0.026151417
124	0x3e7c8d78	0.24663341
125	0x3ec07d14	0.37595427
126	0x3eb248e8	0.34821248
127	0x3e5e806d	0.21728678
