results/MSE_LSTM_enc_dec_output/10_model.pt (torch, 860225 bytes, 10 tensors)

output_zeros f4 [399, 512, 1]
000000 00 00 00 00 00 00 00 00 00 00 00 00 00 00 00 00
       0.0 0.0 0.0 0.0
000010 00 00 00 00 00 00 00 00 00 00 00 00 00 00 00 00
       0.0 0.0 0.0 0.0
000020 00 00 00 00 00 00 00 00 00 00 00 00 00 00 00 00
       0.0 0.0 0.0 0.0
000030 00 00 00 00 00 00 00 00 00 00 00 00 00 00 00 00
       0.0 0.0 0.0 0.0
000040 00 00 00 00 00 00 00 00 00 00 00 00 00 00 00 00
       0.0 0.0 0.0 0.0
000050 00 00 00 00 00 00 00 00 00 00 00 00 00 00 00 00
       0.0 0.0 0.0 0.0
000060 00 00 00 00 00 00 00 00 00 00 00 00 00 00 00 00
       0.0 0.0 0.0 0.0
000070 00 00 00 00 00 00 00 00 00 00 00 00 00 00 00 00
       0.0 0.0 0.0 0.0
000080 00 00 00 00 00 00 00 00 00 00 00 00 00 00 00 00
       0.0 0.0 0.0 0.0
000090 00 00 00 00 00 00 00 00 00 00 00 00 00 00 00 00
       0.0 0.0 0.0 0.0
0000a0 00 00 00 00 00 00 00 00 00 00 00 00 00 00 00 00
       0.0 0.0 0.0 0.0
0000b0 00 00 00 00 00 00 00 00 00 00 00 00 00 00 00 00
       0.0 0.0 0.0 0.0
0000c0 00 00 00 00 00 00 00 00 00 00 00 00 00 00 00 00
       0.0 0.0 0.0 0.0
0000d0 00 00 00 00 00 00 00 00 00 00 00 00 00 00 00 00
       0.0 0.0 0.0 0.0
0000e0 00 00 00 00 00 00 00 00 00 00 00 00 00 00 00 00
       0.0 0.0 0.0 0.0
0000f0 00 00 00 00 00 00 00 00 00 00 00 00 00 00 00 00
       0.0 0.0 0.0 0.0
000100 00 00 00 00 00 00 00 00 00 00 00 00 00 00 00 00
       0.0 0.0 0.0 0.0
000110 00 00 00 00 00 00 00 00 00 00 00 00 00 00 00 00
       0.0 0.0 0.0 0.0
000120 00 00 00 00 00 00 00 00 00 00 00 00 00 00 00 00
       0.0 0.0 0.0 0.0
000130 00 00 00 00 00 00 00 00 00 00 00 00 00 00 00 00
       0.0 0.0 0.0 0.0
000140 00 00 00 00 00 00 00 00 00 00 00 00 00 00 00 00
       0.0 0.0 0.0 0.0
000150 00 00 00 00 00 00 00 00 00 00 00 00 00 00 00 00
       0.0 0.0 0.0 0.0
000160 00 00 00 00 00 00 00 00 00 00 00 00 00 00 00 00
       0.0 0.0 0.0 0.0
000170 00 00 00 00 00 00 00 00 00 00 00 00 00 00 00 00
       0.0 0.0 0.0 0.0
000180 00 00 00 00 00 00 00 00 00 00 00 00 00 00 00 00
       0.0 0.0 0.0 0.0
000190 00 00 00 00 00 00 00 00 00 00 00 00 00 00 00 00
       0.0 0.0 0.0 0.0
0001a0 00 00 00 00 00 00 00 00 00 00 00 00 00 00 00 00
       0.0 0.0 0.0 0.0
0001b0 00 00 00 00 00 00 00 00 00 00 00 00 00 00 00 00
       0.0 0.0 0.0 0.0
0001c0 00 00 00 00 00 00 00 00 00 00 00 00 00 00 00 00
       0.0 0.0 0.0 0.0
0001d0 00 00 00 00 00 00 00 00 00 00 00 00 00 00 00 00
       0.0 0.0 0.0 0.0
0001e0 00 00 00 00 00 00 00 00 00 00 00 00 00 00 00 00
       0.0 0.0 0.0 0.0
0001f0 00 00 00 00 00 00 00 00 00 00 00 00 00 00 00 00
       0.0 0.0 0.0 0.0
000200 00 00 00 00 00 00 00 00 00 00 00 00 00 00 00 00
       0.0 0.0 0.0 0.0
000210 00 00 00 00 00 00 00 00 00 00 00 00 00 00 00 00
       0.0 0.0 0.0 0.0
000220 00 00 00 00 00 00 00 00 00 00 00 00 00 00 00 00
       0.0 0.0 0.0 0.0
000230 00 00 00 00 00 00 00 00 00 00 00 00 00 00 00 00
       0.0 0.0 0.0 0.0
000240 00 00 00 00 00 00 00 00 00 00 00 00 00 00 00 00
       0.0 0.0 0.0 0.0
000250 00 00 00 00 00 00 00 00 00 00 00 00 00 00 00 00
       0.0 0.0 0.0 0.0
000260 00 00 00 00 00 00 00 00 00 00 00 00 00 00 00 00
       0.0 0.0 0.0 0.0
000270 00 00 00 00 00 00 00 00 00 00 00 00 00 00 00 00
       0.0 0.0 0.0 0.0
000280 00 00 00 00 00 00 00 00 00 00 00 00 00 00 00 00
       0.0 0.0 0.0 0.0
000290 00 00 00 00 00 00 00 00 00 00 00 00 00 00 00 00
       0.0 0.0 0.0 0.0
0002a0 00 00 00 00 00 00 00 00 00 00 00 00 00 00 00 00
       0.0 0.0 0.0 0.0
0002b0 00 00 00 00 00 00 00 00 00 00 00 00 00 00 00 00
       0.0 0.0 0.0 0.0
0002c0 00 00 00 00 00 00 00 00 00 00 00 00 00 00 00 00
       0.0 0.0 0.0 0.0
0002d0 00 00 00 00 00 00 00 00 00 00 00 00 00 00 00 00
       0.0 0.0 0.0 0.0
0002e0 00 00 00 00 00 00 00 00 00 00 00 00 00 00 00 00
       0.0 0.0 0.0 0.0
0002f0 00 00 00 00 00 00 00 00 00 00 00 00 00 00 00 00
       0.0 0.0 0.0 0.0
000300 00 00 00 00 00 00 00 00 00 00 00 00 00 00 00 00
       0.0 0.0 0.0 0.0
000310 00 00 00 00 00 00 00 00 00 00 00 00 00 00 00 00
       0.0 0.0 0.0 0.0
000320 00 00 00 00 00 00 00 00 00 00 00 00 00 00 00 00
       0.0 0.0 0.0 0.0
000330 00 00 00 00 00 00 00 00 00 00 00 00 00 00 00 00
       0.0 0.0 0.0 0.0
000340 00 00 00 00 00 00 00 00 00 00 00 00 00 00 00 00
       0.0 0.0 0.0 0.0
000350 00 00 00 00 00 00 00 00 00 00 00 00 00 00 00 00
       0.0 0.0 0.0 0.0
000360 00 00 00 00 00 00 00 00 00 00 00 00 00 00 00 00
       0.0 0.0 0.0 0.0
000370 00 00 00 00 00 00 00 00 00 00 00 00 00 00 00 00
       0.0 0.0 0.0 0.0
000380 00 00 00 00 00 00 00 00 00 00 00 00 00 00 00 00
       0.0 0.0 0.0 0.0
000390 00 00 00 00 00 00 00 00 00 00 00 00 00 00 00 00
       0.0 0.0 0.0 0.0
0003a0 00 00 00 00 00 00 00 00 00 00 00 00 00 00 00 00
       0.0 0.0 0.0 0.0
0003b0 00 00 00 00 00 00 00 00 00 00 00 00 00 00 00 00
       0.0 0.0 0.0 0.0
0003c0 00 00 00 00 00 00 00 00 00 00 00 00 00 00 00 00
       0.0 0.0 0.0 0.0
0003d0 00 00 00 00 00 00 00 00 00 00 00 00 00 00 00 00
       0.0 0.0 0.0 0.0
0003e0 00 00 00 00 00 00 00 00 00 00 00 00 00 00 00 00
       0.0 0.0 0.0 0.0
0003f0 00 00 00 00 00 00 00 00 00 00 00 00 00 00 00 00
       0.0 0.0 0.0 0.0

encoder.lstm.weight_ih_l0 f4 [128, 4]
000000 c0 87 34 3e b8 24 30 3e da da ea 3e 2a 7f b8 3d
       0.1762991 0.17201507 0.45870095 0.090086296
000010 ed b2 de bd cc 3d 03 3e 4d c6 0c 3e 43 fe 5f bb
       -0.10873971 0.12816542 0.1374752 -0.0034178651
000020 81 ed 73 3e 7a 10 60 3e 1d f7 07 3d 19 e4 e1 bc
       0.2382107 0.21881285 0.03319465 -0.027574586
000030 ca c7 e1 3c 9a d6 6d 3e 43 28 ba bd 77 6a 50 3e
       0.027561087 0.23226395 -0.090897106 0.20353113
000040 e0 d6 64 bd 5b f0 87 3e b6 55 af bd 33 59 9a 3e
       -0.055868983 0.26550564 -0.0856127 0.3014618
000050 07 94 8c 3e 85 51 f2 3e 81 7f 00 bd 8f ac d8 bd
       0.27456686 0.4732782 -0.031371597 -0.10579788
000060 f3 f8 e8 bc 89 8f 80 3d a4 af a3 3d 7d b8 ac 3e
       -0.02843902 0.06277377 0.07992485 0.33734503
000070 e5 95 17 3e 77 a9 04 3d 0e f5 d7 3d d6 9b a5 3c
       0.14803274 0.032388177 0.10544787 0.02021591
000080 58 80 09 38 ae c3 6f 3e e7 5b 18 3e ef 71 0c bd
       3.2782875e-05 0.2341449 0.14878808 -0.034288343
000090 95 f8 5c be 35 7e 3b 3e a2 33 21 3e 94 61 08 be
       -0.21579202 0.18309863 0.15742353 -0.13318473
0000a0 70 2a 41 be 2b fe 92 be 86 28 2a be ea 0a bb bd
       -0.18863845 -0.2870954 -0.16617021 -0.09132941
0000b0 47 1a 0b 3e 23 e2 66 3e 04 ba 6c 3e 7f 4c 27 bc
       0.13584243 0.22547202 0.23117834 -0.010211109
0000c0 1f 63 17 3e 7f 4c 12 be 50 4a bb 3d 24 a9 78 bb
       0.14783905 -0.14286993 0.09145033 -0.0037942613
0000d0 e4 a4 14 be 90 10 1d bd 13 f0 97 3c 94 5a 69 3d
       -0.14516026 -0.038345873 0.018547093 0.056971148
0000e0 e4 40 4f bc 48 20 5c 3e a1 a4 31 3e c8 be 67 3e
       -0.0126497485 0.2149669 0.17347957 0.22631371
0000f0 f7 d3 b5 3c d4 b9 24 3e 93 b3 2f 3e 25 bf 2d 3e
       0.0221958 0.16086513 0.17158346 0.16967447
000100 72 98 13 be 46 98 fd 3c 81 c4 8f bc 91 3c ba bd
       -0.14413622 0.030956399 -0.017549755 -0.090935834
000110 51 35 0c 3d b7 0b d7 ba f0 c3 be bd fc f9 43 3d
       0.034230534 -0.001640669 -0.09314716 0.047845826
000120 cf 34 3a 3d b3 4f a9 be 2e 58 f2 be de 86 95 3d
       0.04546052 -0.33068618 -0.473329 0.073011145
000130 56 29 fb 3d 16 e0 40 bc 56 b7 85 bd 03 83 32 be
       0.122637436 -0.011772176 -0.06529109 -0.1743279
000140 ce 53 a1 3d 58 fb b7 3d 1f 5a 67 3e d4 b4 b9 bc
       0.078773126 0.08983487 0.22592972 -0.022669233
000150 ac 4b a8 bd 79 d5 1f 3e 16 7f 82 3e 9c fa f3 bd
       -0.08217558 0.15608777 0.25487584 -0.11913034
000160 2f ce a8 3d 5b 3a cd bd 13 15 43 3e 13 84 ab bd
       0.082424514 -0.10020896 0.19051008 -0.083748005
000170 ca 65 ac 3d dc 74 8e 3d 4b 12 47 3e df 11 30 bc
       0.08417852 0.06955883 0.19440572 -0.010746448
000180 a0 05 36 3e ac 75 ca 3e 20 21 c1 3d ac fe 03 3e
       0.17775583 0.39542902 0.09430146 0.12890118
000190 5e fa b9 3c 1d 1b e0 3e 34 9f 33 be 32 3b a4 3d
       0.022702392 0.43770686 -0.175412 0.08019103
0001a0 a8 54 d2 3d a4 a6 8e 3d 61 32 a4 bd f8 83 04 3e
       0.10270053 0.06965378 -0.080174215 0.12940967
0001b0 32 90 48 be c5 c4 2b 3d e9 99 6a 3d 26 92 0b be
       -0.19586256 0.0419357 0.057275686 -0.1362997
0001c0 0c f5 24 be 41 f5 cf be 26 3b 51 3e 1b 2a 87 bd
       -0.16109103 -0.406168 0.2043272 -0.06599828
0001d0 0e 43 1f be 90 12 b7 3e a3 c7 f8 be 85 9c 33 3e
       -0.15552923 0.3575635 -0.4858981 0.17540176
0001e0 1a 91 9a bd 36 ce a7 3e d6 b6 03 3e ed 05 d3 3c
       -0.07547207 0.32774514 0.12862715 0.025759662
0001f0 c1 6e f8 3d a4 a0 8b 3d 4e a8 1a be 52 de 3f bd
       0.121305 0.06817749 -0.15103266 -0.04684288
000200 ad 45 be 3e 45 f1 54 3e 85 de ac 3e 94 17 a9 bd
       0.37162533 0.20795162 0.3376352 -0.0825645
000210 de a7 d2 3c 61 91 13 3e 8c 88 6b be 05 4e ad bd
       0.025714811 0.14410926 -0.23001307 -0.08462147
000220 71 b9 8b 3e 26 ee 71 3d 51 c2 1e 3e 4b f9 3c 3e
       0.27289918 0.059065007 0.15503813 0.18454473
000230 07 d1 30 3e 95 19 98 3d fc 8a 6b 3c d6 9f 69 3e
       0.17267238 0.074267544 0.014376398 0.22814879
000240 8b fc b6 3d 96 2c c4 3d f4 6b 8f be 51 6f 8b 3e
       0.089348875 0.095788166 -0.2801205 0.27233365
000250 a2 be 53 3e 6f cb 9f 3e 54 72 09 3e 3a f0 a1 3c
       0.2067819 0.31209895 0.13422519 0.01976787
000260 97 e4 9b bd 96 17 a2 3e b2 6f be 3c 37 a9 b4 3e
       -0.076119594 0.3165862 0.02324662 0.3528535
000270 0f d0 41 bb d0 77 a5 3e e2 21 24 be 1f f7 bc 3d
       -0.0029573475 0.32317972 -0.1602855 0.09226822
000280 50 e3 07 be f7 50 62 3e 98 47 1e 3e 6e 1a 0d be
       -0.13270307 0.22101198 0.15456998 -0.13779613
000290 5a 21 6e be 50 22 57 3d b3 6b 0e be 49 5a 82 3d
       -0.2325491 0.052522957 -0.13908271 0.06364877
0002a0 92 2a d7 bc 2c fd c6 be ac 61 88 be 41 5a c5 bd
       -0.026265416 -0.3886503 -0.26637018 -0.09636355
0002b0 43 38 66 3e e9 16 78 3e f8 49 22 3e 94 cb 15 be
       0.224824 0.2422749 0.1584853 -0.1462844
0002c0 11 7c 8c 3e b5 6a cd bd 01 23 ef 3d 9a 57 82 3c
       0.27438405 -0.100301184 0.11676598 0.015910912
0002d0 1a 10 0d be e0 94 d1 3b 83 37 8e bd 37 49 23 3d
       -0.13775674 0.006395921 -0.06944182 0.039864745
0002e0 bf 48 5c 3e 10 eb 1b 3e df 2e f1 3d 96 80 23 3e
       0.21512125 0.15226388 0.11776518 0.1596702
0002f0 7e 2e 92 3e a3 9c c8 3e b2 82 11 be 6e fe 7f 3e
       0.28551096 0.39182004 -0.14210013 0.24999401
000300 04 9c 1b be 11 7a 0d bd 25 5c 82 be 4c f4 42 bd
       -0.15196234 -0.03454024 -0.25460926 -0.04759626
000310 11 12 3a 3e a2 c5 8a 3d 85 f3 6c be 81 5c 9b 3c
       0.18170954 0.06775977 -0.2313977 0.018965008
000320 49 ec 1e be b7 a5 69 be 33 02 89 be 36 0d be bc
       -0.15519823 -0.22817121 -0.2675949 -0.023199659
000330 26 5d c1 3c 64 75 d9 bd 0b 5e 08 bc bd 17 d1 bd
       0.023603987 -0.106180936 -0.008323203 -0.10209606
000340 9d 26 9b 3e d4 9b 18 bc 96 51 8d 3e e7 19 6b 3e
       0.30302897 -0.009314496 0.27601308 0.229591
000350 71 24 d5 bd 55 d9 bd 3e ca 0d 53 3e 24 4b 91 bd
       -0.10407341 0.37079874 0.20610729 -0.0709441
000360 37 f6 8a 3e 0c 71 23 3e 54 7f 0c bd 19 2f 02 3c
       0.27140972 0.15961093 -0.034301117 0.007945799
000370 9c a8 96 3e d9 89 57 bc 43 3a 61 3e 6e e6 09 3e
       0.29425514 -0.013155424 0.21994881 0.13466808
000380 c1 10 6d 3e e2 18 48 3e db 41 68 be 8e 7a fe 3d
       0.23150922 0.19540742 -0.22681372 0.12425719
000390 cd e9 8d bb d0 85 74 3e af 2d f3 bd 38 fe e7 3d
       -0.0043308497 0.2387917 -0.11873948 0.11327785
0003a0 96 dd 4c 3d f8 31 ec 3d 08 73 fe 3d fa 30 ff 3c
       0.05001601 0.11532968 0.12424284 0.031151284
0003b0 44 7a ea 3d 27 29 1a 3c b4 41 06 3e 8c cf 20 bd
       0.114491016 0.009409226 0.13111001 -0.039260432
0003c0 cb 19 18 bd ff 77 fd be 13 f4 ae 3e e3 f0 70 be
       -0.037133973 -0.49505612 0.3417059 -0.23529391
0003d0 de 83 2b 3d af 3a 90 3e f0 b4 17 bf 26 ed f4 3d
       0.041873805 0.28169772 -0.59260464 0.11959295
0003e0 9c e9 8a bb 58 67 0a 3e 77 60 c6 be d9 09 e5 bc
       -0.004239274 0.13515985 -0.38745472 -0.027958797
0003f0 e0 d1 05 bd 62 5f 6d 3e 46 95 91 be ca 28 11 3e
       -0.032670856 0.23180917 -0.284342 0.14175716

encoder.lstm.weight_hh_l0 f4 [128, 32]
000000 5c b9 f5 bd b2 8c c0 3d 30 f7 f0 bd 26 4a ce bd
       -0.11998245 0.094018355 -0.11765897 -0.100727364
000010 a2 87 4f 3c 3d 81 e5 3c 6c da d8 bd 87 f2 02 3e
       0.012666615 0.028015727 -0.10588536 0.1278783
000020 2b 7d 1d bd 28 73 15 3d 7a c0 30 be 86 b3 90 3d
       -0.038449448 0.036486775 -0.17260924 0.070654914
000030 96 63 7e 3c 52 cb 42 be fd 49 30 3e 8c a7 55 3e
       0.015526673 -0.19022873 0.17215724 0.20864695
000040 90 92 6b be a6 2e 35 be 63 dc 13 bc 0e a5 48 bd
       -0.23005128 -0.17693576 -0.009024712 -0.048985533
000050 7e 76 39 3e 13 24 19 be 2b 48 93 bd 1c f8 79 3d
       0.18111607 -0.14955167 -0.07191499 0.06102763
000060 26 67 7e 3d 05 78 0f 3d 27 bf 03 be df 57 27 3e
       0.06211009 0.03502657 -0.12865888 0.16342114
000070 85 3d 8c bd 82 52 b1 bd 5a be a3 bd 7b 41 cb 3d
       -0.068476714 -0.08658315 -0.07995291 0.09924599
000080 e6 6c bc 3d 32 24 1c 3c ee b6 88 3e be a8 3d bd
       0.09200458 0.009530114 0.26702064 -0.046303503
000090 14 d7 4d 3d 23 bb 35 bd e6 95 3c 3d 1c 8c 88 3d
       0.050253943 -0.04436792 0.04604139 0.06667349
0000a0 de cc 30 3e fa c3 2a be 71 ce 01 3e ad 48 91 3c
       0.1726565 -0.16676322 0.12676407 0.01773485
0000b0 18 6f ee bc 04 be a4 3d e6 a0 37 3e 5c a0 ff bd
       -0.029105708 0.08044055 0.17932472 -0.12481758
0000c0 dc fb 16 bc 9c 28 c9 3d 4f af da bc 49 7b a5 bd
       -0.009215321 0.09822199 -0.026694922 -0.080801554
0000d0 5d 96 c5 3c cf 4d b6 3d dc 94 4d 3e 73 e5 d7 3b
       0.02411955 0.089015596 0.20076317 0.006588632
0000e0 90 18 61 3e 30 35 2f 3d c3 cc 6d be 16 4c c4 bd
       0.21982026 0.042775333 -0.23222642 -0.09584825
0000f0 72 25 e9 3c 1f b7 02 bc 92 90 3a 3d 26 88 99 3d
       0.028460238 -0.00797823 0.04554803 0.074966714
000100 d7 53 2b 3d 77 e4 2f 3e f9 74 59 3e 3a 0f 38 be
       0.041828003 0.17176996 0.21236028 -0.17974558
000110 ac 3e c6 3d d7 df 54 be 54 5b 03 be 43 c9 5d be
       0.096799225 -0.20788513 -0.12827808 -0.21658807
000120 03 52 2d bd 72 d8 76 be 55 0f 2e 3d 63 34 45 bd
       -0.04231454 -0.24106005 0.04249509 -0.048145663
000130 ce 85 ad 3c e6 03 6f bd c0 7b 09 3e 31 1c 4d be
       0.021181967 -0.058353327 0.13426113 -0.20030285
000140 bc 88 92 bd 8b 30 78 3c df d8 0b bd 6a 4f ed bc
       -0.07154986 0.015148292 -0.03414237 -0.028968532
000150 07 b5 20 bc 69 63 89 bd ce 83 bf bc 19 5c 1c bb
       -0.009808785 -0.06708414 -0.023378279 -0.0023858605
000160 a9 bf 73 3e 86 2f 57 bd fb d4 35 be 59 14 1f 3e
       0.23803581 -0.052535556 -0.17757027 0.15535106
000170 d7 f9 d4 3d 96 5d 62 bc a6 45 7c 3c 31 27 26 3d
       0.10399216 -0.013816258 0.015397465 0.04056472
000180 f1 28 42 3e 10 96 00 3e 3c c7 69 3e 0f 75 c0 bd
       0.1896093 0.12557244 0.22829908 -0.09397327
000190 04 0d 76 3d e4 64 6a be 43 ae 8e bd 46 68 7b bd
       0.060071006 -0.22890049 -0.069668315 -0.06137874
0001a0 e8 21 68 bd 13 b7 42 bd 71 c0 1e 3e c9 1a fa 3c
       -0.05667296 -0.047537874 0.15503098 0.03053035
0001b0 6f 88 34 bd eb 33 da 3d 3c c1 2b 3e 5a d1 8e bd
       -0.044075426 0.10654434 0.16772932 -0.069735244
0001c0 ea 79 38 be e3 fb 20 be 8d 9b 4a be ca da aa bd
       -0.18015257 -0.15721087 -0.197859 -0.08342512
0001d0 77 01 54 be 61 1e 56 3e 51 98 4f 3d 61 83 2d be
       -0.20703684 0.20910026 0.05068237 -0.16944648
0001e0 d2 9e 7e 3e 5e 29 3d 3b 73 7d cd bd 50 d2 99 bd
       0.24865273 0.0028863768 -0.10033693 -0.07510817
0001f0 c0 f7 69 3e c8 db 70 3e d4 48 18 3e b7 17 d3 3c
       0.22848415 0.2352134 0.14871532 0.025768144
000200 33 af 9f 3d 09 3b c6 bd 8e bf 36 be c7 5e c7 bd
       0.077970885 -0.09679229 -0.1784651 -0.09734874
000210 bd 5f b7 bd a7 cf ee 3d 36 4f 27 3b 18 77 9a bb
       -0.089538075 0.116607 0.002552939 -0.004713904
000220 ad d6 f0 bd cf 4c b8 bd aa 06 ed 3d d0 ee 4c 3d
       -0.11759696 -0.08999025 0.11573537 0.050032437
000230 7c 26 b8 bb 2e b7 39 3c 25 ac 2f bd d7 aa 94 3d
       -0.005619822 0.011335177 -0.04288878 0.072591476
000240 a1 ba e1 bd 90 72 22 be c2 b3 8b 3d d2 74 2b be
       -0.11021925 -0.15864015 0.068213955 -0.16743782
000250 29 b0 38 bd 24 44 07 be 8a b7 f2 3d 79 e1 8f 3c
       -0.045089874 -0.13209587 0.118514135 0.017563568
000260 36 72 5e bd 00 b2 3d be 65 1d 27 3d 24 f4 f2 bd
       -0.05430814 -0.18524933 0.040799517 -0.118629724
000270 bc 73 90 bc b2 a9 85 3d e5 da 93 bd 93 ee 8b bd
       -0.017633311 0.065265074 -0.07219485 -0.06832614
000280 29 a7 fb 3d 83 93 26 3d b2 2e f5 bc 13 99 62 3d
       0.12287743 0.040668022 -0.029929493 0.055321764
000290 c3 77 10 be 51 37 6b 3d 85 9e bc 3d 15 1b b7 3c
       -0.14108185 0.0574258 0.09209923 0.02235178
0002a0 8d 53 40 3e cb 17 0e be 65 c9 18 3e b1 95 be bd
       0.18781872 -0.13876264 0.14920576 -0.09305895
0002b0 f1 ec 97 3d 33 e8 53 3d 69 98 7c bd 94 2d e3 bc
       0.0741824 0.051735114 -0.061668787 -0.027731694
0002c0 44 4b d0 3d 31 9e 0c bd 40 eb 11 be 09 88 fa bd
       0.10170606 -0.03433055 -0.14249897 -0.12232978
0002d0 7c 87 c1 bd d5 85 41 3e 95 6f 2d 3e 35 1f 14 3e
       -0.0944967 0.18898709 0.16937096 0.1446503
0002e0 0c d3 59 3e e8 7c 1c bd e6 70 06 3d 24 b8 57 3d
       0.21271914 -0.038205057 0.032822512 0.052665845
0002f0 c8 a5 be 3d 6c c8 19 3c 43 00 aa 3d 90 9d fc 3d
       0.09308964 0.009386163 0.08300831 0.1233474
000300 05 ce 86 3d 58 36 88 bd 4f 93 26 bd 50 d9 25 3e
       0.06582264 -0.0665099 -0.04066783 0.1619618
000310 e8 70 72 3d 72 0a 55 bd 34 be 29 bc fe c1 b8 bd
       0.059189707 -0.052011915 -0.010360289 -0.09021376
000320 59 e1 ad 3c 91 25 57 3d 9d da 01 be 1c 77 26 3e
       0.021225618 0.05252606 -0.1268105 0.16256374
000330 5f 41 ad bb e2 fc f4 3d 08 87 0d bd 73 6f cd 3d
       -0.005287334 0.11962296 -0.034552604 0.10031023
000340 9c 01 23 3e b3 98 20 be 49 18 61 bd 91 66 31 be
       0.15918583 -0.1568325 -0.0549548 -0.17324282
000350 37 03 bc 3b 2a 89 13 be 26 97 6e bd 7e f7 24 3e
       0.005737688 -0.14407793 -0.058249615 0.16110036
000360 d7 01 5d 3d b9 be 95 bd 13 be 80 3d f7 54 c7 3c
       0.053956833 -0.07311768 0.06286254 0.024332507
000370 bf 79 48 bd 1c bd 0e 3e 79 a7 84 bd d0 9b ef bc
       -0.04894423 0.13939327 -0.064772554 -0.029249102
000380 e3 bc 3d 3e b5 1f 6d bd 3b 01 e0 3c 1a 2c da 3d
       0.18529086 -0.057891566 0.027344337 0.10652943
000390 66 7a 1b be 3a 99 48 be f9 ab 4f 3c 93 b5 0b bc
       -0.1518341 -0.19589701 0.012675279 -0.008527177
0003a0 5f b4 30 3e 07 29 b5 bc b3 7c 7c bc 1b 8f 09 3e
       0.17256306 -0.02211429 -0.01541059 0.13433497
0003b0 3a dd dd bd 83 00 50 be 95 d9 60 3e d9 85 09 be
       -0.10833211 -0.20312695 0.21958001 -0.13429965
0003c0 73 ea 81 bd ba e9 d7 bd d3 c2 3d 3d 42 97 09 3e
       -0.06343546 -0.10542627 0.046328377 0.13436607
0003d0 1b 98 4f 3e a9 69 c2 bd 27 05 34 3e c8 36 2e 3d
       0.20272867 -0.09492809 0.1758009 0.042532712
0003e0 41 a3 ab bc 40 28 3e 3e 99 55 df 3d 58 e1 e7 bc
       -0.020951869 0.18570042 0.10904998 -0.028305694
0003f0 75 10 ed 3c 1a 61 b4 3d 01 91 f4 bd b8 e1 db bc
       0.028938511 0.08807583 -0.1194172 -0.02684103

encoder.lstm.bias_ih_l0 f4 [128]
000000 f3 6d fc bd 1e 29 82 bd 34 e9 7d 3e b5 5a 2e 3e
       -0.12325659 -0.06355499 0.24795991 0.1702679
000010 8b 72 9b 3b c6 15 1e 3e 90 b4 a2 3d 2d b7 38 3e
       0.004743879 0.15437993 0.07944596 0.18038626
000020 65 5b dc bc c4 31 a1 3d 81 72 17 3e 64 b8 b2 3c
       -0.026899049 0.0787082 0.14789774 0.02181644
000030 8d d9 06 be 13 df f2 bc fe ff ee 3d b3 5f e1 bd
       -0.13168927 -0.029647386 0.116699204 -0.11004581
000040 c2 d6 30 3e 08 2d 08 be 76 32 55 3d 72 f7 1c 3e
       0.17269424 -0.13298428 0.052050076 0.15328768
000050 6f ed b3 bd 1c e6 bd 3c 84 35 e1 bd a9 e3 95 bc
       -0.08785521 0.023181014 -0.109965354 -0.018297033
000060 1f f8 20 bd c6 1c 27 3e b5 b7 ec 3d f3 20 9e bd
       -0.039299127 0.1631957 0.11558477 -0.07721128
000070 86 73 31 3e 5f 8b 24 3e 9c 2c 2b 3e 1e 01 9c 3b
       0.17329225 0.16068791 0.16716236 0.0047608754
000080 57 a2 e7 bd 16 b5 8e 3c 0c 3f f3 bc 29 a0 17 3e
       -0.11310261 0.017420333 -0.029693149 0.1480719
000090 31 17 9b 3c d6 be e6 bc c8 8a d7 3d da bd 61 3c
       0.018931957 -0.02816717 0.10524517 0.013778174
0000a0 8c 7b 51 3e a9 d8 b2 3d 03 17 c1 bd 5e 88 6f 3e
       0.20457286 0.08732731 -0.09428217 0.23391864
0000b0 a5 98 ad 3c 22 7d 11 3e a4 b9 02 3d c3 41 11 3e
       0.02119095 0.1420789 0.031915322 0.14185242
0000c0 52 98 64 3c 73 27 86 3d 27 f3 b0 bd 69 8e 06 3e
       0.013952332 0.06550493 -0.08640128 0.13140263
0000d0 41 f4 86 bd e5 a7 b5 bd a0 48 17 3e db 79 44 bd
       -0.065895565 -0.08869914 0.14773798 -0.047967773
0000e0 b8 df 60 3b 85 79 56 bd eb 1d 21 bd f8 8d 9c bc
       0.0034313034 -0.052361984 -0.039335173 -0.019110665
0000f0 7c 18 f6 bd 22 7b bd bc 22 b5 af bc 5e 60 83 3b
       -0.12016389 -0.023130003 -0.021448676 0.0040092906
000100 19 fc 9c 3d 5b 99 4a 3e 35 7b f7 3c d6 12 4b be
       0.07665271 0.19785063 0.030210117 -0.19831404
000110 7b d6 81 bd 74 d4 6f 3d 03 0b a9 bd 24 46 b0 bd
       -0.06339737 0.05855222 -0.082540534 -0.08607128
000120 f8 2a 5c 3d 48 5d c3 bd bb 48 b7 3d bb d7 1a 3e
       0.053751916 -0.09539276 0.08949419 0.15121357
000130 ef 66 40 bc 5e 00 30 bc 94 64 5e 3d 4c 91 59 bc
       -0.011743291 -0.010742275 0.054295138 -0.01327927
000140 96 08 7b bd aa 0e 32 bd 0e 8b f7 3d 55 f8 b7 bc
       -0.061287485 -0.043471016 0.120870695 -0.022457281
000150 d6 ae 2d 3e 2c 8f a2 3d 3a c1 00 3d e6 c5 5a 3d
       0.16961226 0.07937464 0.031434275 0.053411387
000160 b6 9d ea 3d 19 b9 22 3e 6a 18 dd bd 67 f3 cd 3d
       0.11455862 0.15890922 -0.10795672 0.10056191
000170 3a 2f 11 3d b1 e6 68 3d 4b ce 96 3d 32 47 4a bc
       0.03544543 0.05686063 0.07363566 -0.012346076
000180 45 7d 8f bd d5 95 42 3e 38 5d 9f 3d 96 ca d0 3d
       -0.07006315 0.19002469 0.07781452 0.1019489
000190 ea ea 09 bc c9 29 4c 3e 64 c8 09 3e 6f f2 6c 3d
       -0.008417824 0.19937815 0.13455349 0.05784839
0001a0 cb 5a 42 3e be 71 16 bc 45 81 93 3c 99 55 65 3e
       0.18979947 -0.009182392 0.018005976 0.22395934
0001b0 2d 64 46 3d fe 78 a3 3d 79 f6 f6 3d b2 69 4d bb
       0.04843538 0.07982062 0.1205873 -0.0031343517
0001c0 3c d5 60 3e 09 ec e1 bd 8a 3a d2 3d 14 5e 7e bd
       0.21956342 -0.11031348 0.10265072 -0.06210144
0001d0 5c ed 9a 3d b6 f4 8c 3d 4d 41 82 bd 80 31 03 3d
       0.07564804 0.068826124 -0.063601114 0.03202963
0001e0 3f 70 18 3e 3d 12 d8 bc 5b 26 64 bc 17 e9 24 bc
       0.14886568 -0.026375884 -0.01392516 -0.010065339
0001f0 de b8 2e 3d a0 ce ae bd 43 42 21 3e 86 3a d4 3d
       0.04265677 -0.08535504 0.15747933 0.10362725

encoder.lstm.bias_hh_l0 f4 [128]
000000 73 3d 00 be 0c e5 a8 3d 7e 2a e0 3d 89 70 0f 3e
       -0.12523441 0.08246812 0.10945605 0.14007773
000010 04 c4 05 be c4 5d 13 3e e7 25 f0 bd 51 53 11 bc
       -0.13063055 0.14391237 -0.11725979 -0.008869962
000020 9b 25 e4 3d 6f 51 4b 3c 82 ac 91 bc 2b ee c7 3d
       0.11139985 0.012409552 -0.017782453 0.09762224
000030 52 51 4b 3e 2b b4 ff 3d 56 40 2e 3e e2 a9 ad bd
       0.1985524 0.12485536 0.1701673 -0.08479668
000040 cc 39 2f 3e e2 bf e5 3d 63 10 cf bd ec 40 2d 3d
       0.17111892 0.11218239 -0.101105474 0.042298242
000050 73 d7 1d 3e 49 25 e3 3d ed 3e 2a bc 74 f6 0c be
       0.15414219 0.11091096 -0.010390979 -0.1376589
000060 41 2b 19 3e 37 4b 50 3e 03 bb cc bd 07 86 70 3c
       0.14957906 0.20341192 -0.09996607 0.014680392
000070 6c 7b ed 3d 2f 05 e8 bd 97 3a a3 bd 19 3d 48 bd
       0.115958065 -0.11329114 -0.079701595 -0.048886392
000080 66 70 86 3d 8c cf 2f 3b 8b 82 cd 3d d3 6d 45 3e
       0.06564407 0.0026826588 0.10034665 0.19280176
000090 31 e6 2d 3d 46 fd 11 bd 7e 29 09 be dc 71 01 3d
       0.042455856 -0.03564193 -0.13394734 0.031602725
0000a0 d8 0f 62 3e a0 da e3 3d 5d 61 d6 bc b4 f8 de 3d
       0.22076356 0.11125684 -0.026169473 0.1088728
0000b0 b6 49 f2 3d 6f b1 2f be f8 5f 50 3d e0 43 29 3e
       0.118304655 -0.1715753 0.050872773 0.16529799
0000c0 a3 cf f0 3d 87 11 0d 3e f9 0d e0 3c a4 5c c7 bb
       0.117583536 0.13776217 0.027350413 -0.0060840417
0000d0 26 ee 35 3d de 7e 8f 3c 9b 82 0e be 41 e9 03 be
       0.04441657 0.01751655 -0.1391701 -0.12881948
0000e0 47 c4 41 3d 04 79 3d 3d b4 67 80 3c 7c 8e df bd
       0.047306325 0.046257988 0.01567445 -0.109158486
0000f0 64 a6 3c 3d aa 07 88 bd de 65 bb 3d 8b 9b b2 bc
       0.04605712 -0.06642087 0.09150289 -0.021802684
000100 8f 08 ad 3d 42 17 d6 3c 71 64 5f 3e 0b 5f 4d be
       0.08448898 0.026134137 0.21815659 -0.20055787
000110 b6 43 63 bd b0 d2 29 be bd e8 f9 bd b2 8f 34 3d
       -0.055484496 -0.16584277 -0.122025944 0.04408235
000120 b1 31 52 3e 52 f7 5b bd 1c 0d 0c be cf 01 8e bd
       0.20526768 -0.05370266 -0.13676876 -0.06933939
000130 d0 ba 9f 3d 45 4d d8 bd d2 79 70 3e 6e c8 02 be
       0.077993035 -0.10561613 0.23483971 -0.1277177
000140 43 9e 79 bd 6d 1c 32 bd 98 c9 94 bc 9c 60 fd 3d
       -0.060941946 -0.04348414 -0.018162534 0.123719424
000150 2c fc a6 bd b3 65 ea 38 05 2f 05 3b ca 65 94 3d
       -0.08153567 0.000111769325 0.0020322215 0.07245977
000160 a1 34 01 bd 3b c0 42 3e c8 f1 e6 3c 5a 88 b8 bc
       -0.03154433 0.19018643 0.028191462 -0.022525955
000170 5f a6 9e 3c ab 4d 1a 3e a3 96 2a 3c 3f a9 d5 3d
       0.019366441 0.1506869 0.010411891 0.10432672
000180 3d b4 ec 3d 77 80 c4 3d 8b a7 46 3e b3 ae 59 3e
       0.11557815 0.09594815 0.1939985 0.21258049
000190 b5 9e 27 3e b9 3b 6c bc b4 8f 17 3e bc aa eb bc
       0.16369136 -0.014418536 0.14800912 -0.028767936
0001a0 c0 76 ce 3c 28 15 db 3d c7 3b a8 bc e1 ae 25 3d
       0.025203109 0.106973946 -0.020536317 0.04044998
0001b0 0a 7f 86 3d 24 4b 15 3e 1f 29 56 3d 5c ab f4 3c
       0.065671995 0.14579445 0.05228531 0.029866867
0001c0 08 6a 63 3e a1 4c c3 3b ad 7c 46 3d 2f b4 9e bd
       0.22208416 0.0059600626 0.048458744 -0.07749211
0001d0 02 f3 4b 3e c2 e9 c2 bd 4e 20 b7 3d ff d6 88 3d
       0.19916919 -0.09517242 0.089417085 0.06681632
0001e0 df b1 8a 3d e4 a7 cc 3d a7 98 dd 3d 31 f1 f1 3d
       0.067722075 0.0999296 0.10820132 0.11813582
0001f0 fa fb 19 be aa 03 47 3d b2 45 56 bd cf d5 30 bd
       -0.15037528 0.04858748 -0.05231256 -0.043172654

decoder.lstm.weight_ih_l0 f4 [128, 5]
000000 e0 85 11 be ed 1c f9 3d 1b e5 d5 3c 20 d4 30 bd
       -0.14211226 0.1216372 0.026110223 -0.04317105
000010 c0 46 16 bd 69 74 90 bc 6f 93 b2 3d 4c 24 06 3e
       -0.036688566 -0.017633634 0.08719527 0.13099784
000020 10 1c c1 3d cf bb e3 bb 53 b4 7f be 12 1c b9 bc
       0.094291806 -0.0069498788 -0.24971132 -0.022596393
000030 89 1d d1 3d 25 b1 06 3e fc ca 32 3e 6c 93 83 3d
       0.102107115 0.13153513 0.17460245 0.06424603
000040 de d6 f2 3d 3c 7f ad bd 15 aa ef bd 57 67 16 be
       0.11857389 -0.08471534 -0.117023624 -0.14687859
000050 88 78 82 3e 96 94 51 bc 7e 01 0a be b1 80 a5 3b
       0.25482583 -0.012791773 -0.13477132 0.0050507416
000060 a8 23 ff 3d d8 22 be 3d ef 53 46 bc ab a7 00 3e
       0.12457973 0.0928399 -0.012104972 0.1256396
000070 16 35 d0 bd 80 70 34 3e 1a ba 51 3e f4 7f 5f 3d
       -0.10166375 0.1762104 0.20481148 0.054565385
000080 a2 42 b6 bd 1f 6e 21 3c 97 01 fa 3b 5d 2e 8c 3d
       -0.08899428 0.009852915 0.007629584 0.068447806
000090 11 61 28 3d c6 f9 3a 3d 93 ff 8d 3d 1c 08 33 3e
       0.041108195 0.04564836 0.069335125 0.17483562
0000a0 1b ae f7 bd 70 bc 00 3d 15 cf 71 bb 71 6f 2e 3e
       -0.12093755 0.031429708 -0.0036897112 0.17034699
0000b0 07 e6 12 be 4b cd 36 3e fb e4 31 bd d6 c9 42 3d
       -0.14345561 0.1785175 -0.043431263 0.047555767
0000c0 d3 fb 89 3c 2f 37 14 3e ca 24 70 3e 5d 2a b9 3d
       0.016843712 0.14474176 0.23451534 0.09041283
0000d0 95 a1 c5 bd 61 5f 4a bd cd c3 38 3e ad 36 be 3d
       -0.0964996 -0.049407367 0.18043442 0.09287772
0000e0 30 fa 3e 3e 63 04 05 3e 22 a2 4d bd 81 3e 19 3e
       0.18650126 0.12989955 -0.05020345 0.1496525
0000f0 a4 17 66 bd ca c3 09 be 05 33 da bd 27 fb 35 bc
       -0.05617489 -0.13453594 -0.106542625 -0.011107243
000100 01 11 b0 bd 49 a1 41 3e 0f 9c a6 bd 4e e6 7f bd
       -0.08596993 0.18909182 -0.081352346 -0.062475495
000110 88 e5 2c 3e c9 5f c2 bd 3c 64 15 3d 8e f3 b6 bd
       0.16884434 -0.09490926 0.036472544 -0.08933173
000120 45 97 18 3e 18 1b cf 3c 36 84 3a 3e cd 47 2b 3e
       0.14901455 0.025281474 0.18214497 0.16726609
000130 77 3a 88 3e 9d ac db 3d 71 66 da 3d c2 2e 46 3d
       0.26607105 0.10726283 0.106640704 0.048384435
000140 05 c0 86 3e 5e e6 3c 3e 20 8f b8 bd 4d 8d 4d 3e
       0.26318374 0.18447253 -0.09011674 0.20073433
000150 20 c7 f6 bd c9 4b 9f 3c 87 4c 5b bc 0e 5a ca 3d
       -0.12049699 0.019445317 -0.013384945 0.09880458
000160 77 3f c7 bd 29 53 9c 3b a2 45 82 3e b8 09 ad bd
       -0.09728902 0.0047706557 0.2544375 -0.08449119
000170 72 7b ae bd 5d ab 20 3e 0e 63 25 bd a5 7e 33 bd
       -0.08519639 0.1569037 -0.04037767 -0.04382195
000180 2a a5 35 3d 89 40 ba bb 81 77 83 bd 6d 75 11 be
       0.044346966 -0.0056839627 -0.06419278 -0.1420495
000190 e4 b8 21 3e af d2 58 3e 8d da 0f 3e 61 73 60 3e
       0.15793186 0.2117412 0.14048214 0.21919014
0001a0 bb 2e 2d bd f7 e1 be 3d 17 49 4c 3d f2 7f 31 3c
       -0.042280894 0.09320443 0.04987439 0.010833727
0001b0 19 bc 0b 3e 43 ac 86 3d a1 4a c9 3d 59 5c 06 3e
       0.13645972 0.06575825 0.098286875 0.13121165
0001c0 77 60 3c 3d 26 f0 2e 3e b2 c2 54 3e 0e 73 2a 3e
       0.045990434 0.17083797 0.20777395 0.16645452
0001d0 fc fe e3 3d a6 30 3b 3e f2 19 4b 3d d0 13 c6 3e
       0.11132619 0.18280277 0.04958529 0.3868699
0001e0 7e ba 5f 3d 18 45 be 3d 04 72 12 3e 26 de 5d 3d
       0.054621212 0.09290522 0.14301306 0.054166935
0001f0 ff 30 b0 3d 48 54 f1 3d 7e c8 91 3d 80 de 3e 3e
       0.08603095 0.117836535 0.07118319 0.18639565
000200 10 33 96 bd 61 c7 83 bd df d3 8d 3d 38 90 5c bd
       -0.07333958 -0.06434513 0.06925177 -0.053848475
000210 d0 31 d9 bd 22 58 db bd 0f a5 00 be 2b 2b f5 bb
       -0.10605204 -0.107101694 -0.12562965 -0.0074819527
000220 df 31 ea 3d 3c a0 d5 3d 2a 60 69 bc 52 09 1d bd
       0.114352934 0.10430953 -0.014244119 -0.038338967
000230 af 29 d5 be de b1 81 3d 2b 37 13 bd 7d b8 fc 3d
       -0.41633365 0.063327536 -0.035941284 0.12339876
000240 e8 08 44 3d ab b5 bb 3d 9d cc 65 3e 9b 42 a0 3e
       0.047860056 0.0916551 0.22441335 0.31300816
000250 70 a7 1a 3e 48 c6 ea 3c 8c b8 6b 3e fa e6 34 3d
       0.15102935 0.028659001 0.23019618 0.04416559
000260 4f 64 6e 3d eb cf 30 3d 58 4f 5e 3e 0a 9f 48 3e
       0.05820113 0.043167036 0.21709955 0.19591919
000270 f0 d0 76 3d 73 9c 76 3d 36 13 fc 3d 19 48 0b 3e
       0.060257852 0.060207795 0.12308352 0.13601722
000280 96 b4 b7 be b4 86 96 bd a7 d6 08 3e 0f fd 07 3d
       -0.35879964 -0.07349911 0.13363133 0.03320032
000290 63 4d 8b 3e 78 38 9e 3e 73 08 ae bd db 79 cb bd
       0.2720748 0.30902457 -0.08497705 -0.099353515
0002a0 72 ae 94 3c 8f c9 8d 3c a5 d6 92 bc a8 41 ab bd
       0.018149588 0.017308025 -0.017924616 -0.08362132
0002b0 f4 de 14 3e ec 36 f6 ba 7e 3d bd 3c a8 c6 91 3e
       0.14538175 -0.0018784679 0.02310061 0.28471875
0002c0 f2 c9 85 bd c3 d9 6e 3d 81 7b 2e 3e bd c0 17 be
       -0.06532659 0.058313143 0.170393 -0.14819618
0002d0 3d 3e a4 3d 66 de eb 3c c1 6b 1b 3e 67 19 94 bd
       0.080196835 0.028792571 0.15177824 -0.072314076
0002e0 4b 9b cc 3c 91 9f ce 3b 59 e2 91 bd 23 80 d6 bd
       0.024976393 0.006305643 -0.071232505 -0.10473659
0002f0 42 d7 21 bd d0 45 a6 3d 05 39 4f 3e 0f d2 14 bd
       -0.039511926 0.081187844 0.20236595 -0.03633314
000300 cb 37 8f 3d b1 e1 36 bd e4 78 09 bd 43 0f 3f 3b
       0.069930635 -0.04464883 -0.033562556 0.0029153384
000310 7b b1 ca 3d ff 0c 17 be 60 cb d2 bd d3 6b 29 3e
       0.09897133 -0.14751051 -0.10292697 0.16545038
000320 cf 4f 13 3e a0 41 e0 3d 13 fe 00 be d4 33 20 3e
       0.14385913 0.10950017 -0.12596922 0.15644771
000330 d5 b5 12 3c 99 1e 0d 3e 5a 1f d0 3d 87 2a 96 3c
       0.008954485 0.13781203 0.1016223 0.018330825
000340 13 f7 40 3e 34 34 c0 3d 2a 53 84 3e 3b 90 c3 3d
       0.18844251 0.09384957 0.258447 0.09548994
000350 a8 1c fd 3c 80 68 e4 bd d7 bf 08 be fa a9 90 3e
       0.030897453 -0.11152744 -0.13354431 0.28254682
000360 6b 88 27 3e 3f b1 8d 3d af f5 34 3e 85 10 d7 bd
       0.16360633 0.06918573 0.17671846 -0.10501198
000370 8d 2d a4 bd 06 2e d3 bd 8a 89 3d be b5 de ee 3c
       -0.080165006 -0.10311513 -0.18509498 0.02915893
000380 23 8b 1b be d2 27 6b 3d 3e d1 54 bd 5c c5 e9 bd
       -0.15189795 0.057411022 -0.05195736 -0.114145964
000390 e3 f4 92 3d 82 b4 38 be 9c 49 15 3e e2 65 b6 3d
       0.07175615 -0.18037608 0.14578861 0.08906151
0003a0 12 b4 b1 3c d2 10 c4 3d cf 15 d4 bd 3a 46 b2 3e
       0.02169231 0.09573521 -0.10355722 0.34819204
0003b0 80 9d 6f 3d 74 2d a1 bd eb 16 08 3d e3 68 dc bd
       0.058499813 -0.078699976 0.03322498 -0.10762193
0003c0 1d fa 9b 3e 42 48 86 3c 9b e1 00 3d 05 44 9a bc
       0.3046426 0.016391877 0.031465154 -0.018831262
0003d0 b8 06 32 3e 07 b1 83 3e 99 eb 47 3d a6 10 1f 3e
       0.17385375 0.25721 0.048808668 0.15533695
0003e0 9e c2 19 3e e1 51 fd 3d e2 0a 2f bd 6f 85 97 3d
       0.15015647 0.12369133 -0.042734988 0.07398497
0003f0 e6 1a e1 bd 9e 4a f0 bd e1 03 86 bd 0f 8f de 3c
       -0.109914586 -0.11732982 -0.065437086 0.027167825

decoder.lstm.weight_hh_l0 f4 [128, 32]
000000 3c d8 ea 3d 59 fa 30 3e 8e d7 96 3d ad 6d d1 be
       0.11467025 0.17283 0.073653325 -0.40903988
000010 87 26 a3 3c 2f 60 28 bd 15 80 59 3e 35 0d 8d 3c
       0.019915832 -0.041107353 0.21240266 0.017218212
000020 d7 54 c4 3e 98 4d 21 be 17 1c 23 3e e1 3e 02 3e
       0.38345978 -0.15752256 0.15928684 0.12719299
000030 e2 0a ab be 18 12 ba 3d a5 d9 76 3e f6 09 e1 bd
       -0.3340674 0.09085482 0.24106462 -0.10988228
000040 bc ff 8c 3d 3e 48 49 3e 18 d3 81 bd a3 66 9b be
       0.06884715 0.19656464 -0.06339091 -0.30351743
000050 cb ae 59 be df 82 0f bd 70 cf 19 3c b8 1a 7d be
       -0.21258084 -0.035036918 0.009387836 -0.24717224
000060 dc cb cd 3c 71 de 37 3e f2 a6 3a 3e b9 f7 2f be
       0.025121622 0.17955948 0.18227747 -0.17184342
000070 36 70 b3 3e 42 e1 b0 3d 3d db 0a 3e 2f 0b 1d 3c
       0.35046548 0.086367145 0.13560195 0.009585186
000080 8c 0f dc 3d 64 4e 39 bc 8f e3 f0 3d 6c 33 dd bc
       0.10745153 -0.011310194 0.11762153 -0.027002059
000090 4a 24 82 3d ac 57 b9 bc f6 cd a1 3d 5d 41 15 be
       0.06354578 -0.022624813 0.07900612 -0.14575715
0000a0 2d 29 80 3d 69 9c ee bd a1 a8 e8 bc b1 5b 14 3e
       0.06257854 -0.116509266 -0.028400721 0.14488102
0000b0 23 ba 56 be 1a 26 1a be 10 65 14 3d b9 18 54 be
       -0.20969443 -0.15053597 0.036229193 -0.20712556
0000c0 c2 6a 4b 3c 88 a1 4f 3e 7e 2e 34 be bf 08 8a bd
       0.01241559 0.20276463 -0.1759586 -0.067399494
0000d0 a6 ec 17 3e 7e 2b 9e bd a1 b6 9f 3d 35 c5 fe bd
       0.14836368 -0.07723139 0.077985056 -0.12439958
0000e0 90 40 5d 3e 41 80 b1 bd f5 91 2a 3d b0 1a 5a 3d
       0.2160666 -0.086670406 0.0416431 0.053248107
0000f0 05 b1 1c 3e 77 5d 03 3e fd 87 80 3d 78 e9 57 3e
       0.15301903 0.12828623 0.06275938 0.21085155
000100 7b 42 8f 3d 60 55 17 3e c4 3e 02 be 89 cf 16 be
       0.06995102 0.14778662 -0.12719256 -0.14727606
000110 ff 45 38 3e 6f 59 3e bd 5d 0b 3e 3d 27 84 cf bb
       0.17995451 -0.04647201 0.046397556 -0.0063328925
000120 b7 fb d4 3b 3b 47 78 bb 3b 32 61 3d 7d 3f 7d bb
       0.0064997333 -0.0037884254 0.054979544 -0.0038642578
000130 65 59 00 be 7d 59 71 3e 9e e2 0c 3c 1a a2 39 3e
       -0.12534101 0.23569293 0.008598952 0.18128243
000140 7f b7 2b 3e dd e1 b2 3d 59 a4 24 3e 5f 69 87 bd
       0.16769217 0.08734486 0.16078319 -0.06611895
000150 f7 b3 9b bd 2d 1a db 3d 48 50 e0 bd 23 3e 47 be
       -0.07602685 0.10698352 -0.109528124 -0.19457297
000160 3b c4 0c 3e ae b1 01 be ff 0d b7 bd 0a 2e 0b 3e
       0.13746731 -0.12665436 -0.089382164 0.13591781
000170 ca 69 fd 3d 70 53 5a be 8d 8a 4c 3c d1 e3 d0 3d
       0.12373693 -0.21320891 0.012484205 0.101997025
000180 42 74 02 3e de ab 44 3e 03 21 17 bb 75 f4 94 bc
       0.12739661 0.19206187 -0.0023060448 -0.018182972
000190 cd 23 63 3e bd 13 f4 bd c3 df d3 3d 24 13 bd bd
       0.22181626 -0.11917827 0.103454135 -0.092321664
0001a0 34 91 38 3e 77 44 6c bd 8c ad 12 be 1e fe 54 3c
       0.1802414 -0.05768248 -0.14324015 0.013000039
0001b0 15 20 d0 3c cf 7b 43 bc fd e1 81 bc 8b 71 9c bd
       0.025405923 -0.011931374 -0.01585483 -0.07638844
0001c0 dc ca 9e 3d 02 dd 45 3d 7a 59 37 3d 5c 40 9c bd
       0.07753536 0.048306473 0.044763066 -0.07629463
0001d0 d8 83 57 be 2b b3 04 3e 9a 02 d7 bd a9 6a 02 3d
       -0.21046388 0.12958972 -0.10498543 0.03184
0001e0 f1 59 8d 3d 57 40 93 3d 74 cc 5f 3e ea fd 28 3e
       0.069019206 0.07190006 0.21855336 0.1650311
0001f0 d1 ae c4 3d ec bf 52 3e ef 0a 5b 3d fc b5 1f 3e
       0.09603656 0.20581025 0.053477224 0.15596765
000200 ec 0b 16 3e 4f f6 86 bd 47 51 1a 3e 55 16 aa 3b
       0.14652985 -0.065899484 0.15070067 0.0051906505
000210 b9 4e 29 3e 72 92 53 be 6f b8 07 3e 96 3e 8b 3d
       0.16533937 -0.20661333 0.1325395 0.06799047
000220 e1 ae 29 3e 4d 86 19 be 23 76 dc 3d 53 a6 00 be
       0.16570617 -0.14992638 0.1076472 -0.12563448
000230 8a e5 0a bd 18 b2 92 3d d2 de 58 3d 7a 19 0f be
       -0.03391031 0.07162875 0.052946873 -0.13974562
000240 e6 81 a0 bd ba b9 4e bc 87 78 55 3c d9 32 2f be
       -0.07837276 -0.012617523 0.013029224 -0.1710924
000250 bb f6 9e 3d 15 43 09 3e e8 ec 15 3e b7 73 c0 bc
       0.07761904 0.13404496 0.14641154 -0.023492677
000260 80 bb 5b 3e 7d c0 b8 bd f0 82 01 be a1 07 20 be
       0.21458244 -0.09021089 -0.12647605 -0.1562791
000270 5b d1 90 bd d2 44 1a bd 8c 4d 13 be 5f 23 95 bd
       -0.070711814 -0.03766329 -0.1438505 -0.07282137
000280 fd 36 27 3e b4 87 f2 bd d9 f2 b5 bd 5f 1b 5f bd
       0.1632957 -0.118422896 -0.0888421 -0.054469462
000290 01 2e ab 3d 1a 66 d7 bd be 49 04 3e 44 39 5c bd
       0.08358384 -0.10517521 0.12918755 -0.05376555
0002a0 34 0b 34 3d f3 a2 52 bd cd 7d 75 3b c9 0f 08 3d
       0.043955997 -0.05142493 0.0037459016 0.03321818
0002b0 1e dd 96 3d f9 72 a1 3d c5 21 8f 3d d8 d1 20 3e
       0.073663935 0.078832574 0.06988863 0.15705049
0002c0 1f a1 be 3c 2e 11 16 3e 15 62 51 3b c5 0f 1e be
       0.023270188 0.14654991 0.003194933 -0.15435703
0002d0 17 94 c3 bd c4 3a 4f bd 07 c0 34 3e 6a 39 16 be
       -0.0954973 -0.050593153 0.17651378 -0.14670339
0002e0 4e 2a 34 bd 28 70 80 bd 39 22 bf bd 32 f1 19 be
       -0.043985657 -0.06271392 -0.09332699 -0.15033415
0002f0 1a 14 41 3e 2a 5f 2d be e5 65 18 be 72 85 0c 3e
       0.18855324 -0.16930833 -0.1488262 0.1372278
000300 b0 a1 26 3e ba 79 91 3d a0 c8 5d 3b 5b 13 5e be
       0.16272616 0.071032956 0.0033841506 -0.21687071
000310 3e e5 c3 3d dc d1 09 3d 85 59 29 3e 27 38 6e 3d
       0.09565209 0.033647403 0.16538055 0.05815902
000320 38 cf 7b 3e ec 99 b7 3d bd 3d d6 bd 3d 57 99 bd
       0.24590766 0.08964905 -0.104609944 -0.074873425
000330 4b e6 fc bd e1 4f c9 3d f4 ab ec 3c b2 4b 89 3d
       -0.123486124 0.09829689 0.028890587 0.06703891
000340 d9 73 9f bd ca 31 58 3c f0 2e 3e be 69 a4 68 bc
       -0.07785768 0.013195464 -0.18572593 -0.014199355
000350 b0 3e 95 bc c9 11 41 be 24 1e 11 3e 68 66 94 be
       -0.018218368 -0.18854441 0.14171654 -0.2898438
000360 fd 98 0a 3e 13 9d 11 bd fe 22 08 3e 63 35 9f 3d
       0.13534923 -0.03555019 0.13294598 0.077738546
000370 92 62 95 bb 92 b6 44 3e 26 b5 c8 bd 54 0b 20 3e
       -0.0045588696 0.1921027 -0.09800176 0.15629321
000380 2a f8 12 3e ec 8b 8d 3d 41 da c3 bd 59 69 70 be
       0.1435248 0.069114536 -0.09563113 -0.23477687
000390 a9 41 02 be 5c 29 3e be ca d4 4c 3e 18 66 b7 3d
       -0.1272036 -0.18570465 0.20003048 0.0895502
0003a0 df 94 21 3e a0 7c ef bc 3e d4 93 3d b2 d5 51 3c
       0.15779446 -0.02923423 0.07218216 0.012807297
0003b0 21 a0 d5 3d d7 a6 27 3d 90 b9 91 bd 33 ca a8 3d
       0.10430933 0.040930595 -0.07115471 0.082416914
0003c0 c6 96 20 3d bf bd ac 3d fb 5e f9 bd 91 33 67 bd
       0.03920629 0.08434629 -0.12176319 -0.056445662
0003d0 58 bb 04 bd 2a 07 20 3d 69 cd b2 bd d1 c2 9a 3d
       -0.032405227 0.039069332 -0.08730585 0.075566895
0003e0 1a 1a 7f bd 2e f4 4e 3e 59 39 e1 bd de ce c2 3d
       -0.06228075 0.20210335 -0.10997266 0.09512113
0003f0 58 d1 4a bd c6 f7 11 be d9 b7 ee 3d 2c c4 03 3e
       -0.049516052 -0.14254674 0.1165616 0.12867802

decoder.lstm.bias_ih_l0 f4 [128]
000000 b8 a5 33 bc 13 ca 3d 3c b6 ea a5 bc 5b a2 bf 3d
       -0.010964803 0.011583823 -0.02025352 0.09357139
000010 b7 72 8c 3d b4 ee 98 bd 89 e4 aa 3c ba a2 9c 3d
       0.068578176 -0.07467404 0.020860927 0.07648225
000020 e6 b6 b7 3d ba b7 a2 bd 41 09 08 be 10 40 89 3d
       0.08970432 -0.07945199 -0.1328478 0.06701672
000030 90 05 ef bd d2 1a 2a 3d a1 d7 43 3e c7 95 c5 3d
       -0.11670983 0.041529484 0.19125225 0.096477084
000040 2e a8 4e bd 05 f9 53 3e 9a 8b f2 3c 81 99 e5 bd
       -0.050453357 0.20700462 0.029607583 -0.11210919
000050 d8 f6 09 3e 78 50 f9 bd 09 ee a5 3d b1 83 84 3e
       0.1347307 -0.12173551 0.08102042 0.25881723
000060 68 04 de 3d b2 9c 06 bd 93 5c 31 3d cc 79 36 3e
       0.10840684 -0.03286428 0.043301176 0.178199
000070 63 9f 55 bc a1 94 0d 3e ce 16 11 3e 3d c2 66 bc
       -0.013038489 0.13826229 0.14168856 -0.014084396
000080 e9 1f 87 3c 57 77 22 3e 2e 15 fd 3c d4 b6 4a bc
       0.016494708 0.15865837 0.030893888 -0.012372691
000090 d7 f2 eb 3c 76 ba 02 3e a2 ae a3 3d 23 c3 26 bd
       0.028802318 0.12766442 0.07992293 -0.04071344
0000a0 26 72 7c bc 18 5e 4f bd 55 f6 ab bc c0 ac a7 bd
       -0.0154080745 -0.050626844 -0.020991484 -0.08187246
0000b0 b2 61 21 3e 2f 95 83 3d 63 01 0a 3e f6 57 b0 bd
       0.15759924 0.06424939 0.13477091 -0.08610527
0000c0 c8 c9 17 bd 33 5a 15 3d 5c e2 90 3d 60 3e eb 3d
       -0.037057668 0.036462974 0.070744246 0.114865065
0000d0 4a e8 34 3e b8 95 c0 bd e8 ba db 3d 59 6e 00 bd
       0.17666736 -0.094035566 0.10729009 -0.031355236
0000e0 00 45 0c 3e f6 c2 b1 bd eb 83 21 3e 17 05 33 3e
       0.13698196 -0.08679764 0.15772979 0.1748241
0000f0 28 a3 14 bd 4c f2 c7 bd 57 15 1a 3d 02 b6 3e 3e
       -0.03628841 -0.09763011 0.037618008 0.18624118
000100 25 7c df 3d a8 93 47 3e d8 36 89 bc 4f 7a c6 bd
       0.109123506 0.1948992 -0.016749784 -0.09691297
000110 bc 4f df 3c 2f 01 2d be d1 1e 32 3d 86 17 20 bd
       0.0272597 -0.16894983 0.04348642 -0.039084934
000120 6d 54 e9 3d 53 93 2b be 1b 26 b3 3d 0f 2f 37 3e
       0.11393056 -0.16755418 0.087475024 0.17889045
000130 2c 94 da bd fa e6 be 3d a1 e8 05 3d 41 94 2f 3d
       -0.10672793 0.09321399 0.032692555 0.042865995
000140 be d4 03 3e ba 72 28 3e 96 ee ee bd 30 2f 18 be
       0.12874123 0.16450015 -0.116666004 -0.1486175
000150 ee 70 91 bd b9 20 09 be b9 f4 d1 3d ce 04 21 bd
       -0.07101618 -0.13391389 0.10251755 -0.039311223
000160 91 c6 21 bd b7 65 ee bc ae 09 de 3d ab 2e 75 3c
       -0.03949601 -0.029101236 0.1084169 0.01496474
000170 ad a7 85 bd a7 7d d3 3c 1d 89 11 be 8d 17 be 3d
       -0.06526122 0.025816752 -0.14212461 0.09281836
000180 c1 a6 68 3e f4 e6 9e 3d f7 96 3a bd eb 6b b7 3d
       0.22719862 0.077588946 -0.045554128 0.089561306
000190 d6 56 fd bb 7c f8 9a bc 9e 80 d0 3d 4b 3a a7 3d
       -0.007731299 -0.018917315 0.10180782 0.081654154
0001a0 3f fb 1a 3b 09 4a bd 3c 18 0e 5c 3d b5 39 83 bd
       0.002364829 0.023106592 0.05372438 -0.06407491
0001b0 b0 37 31 bd f1 e6 18 bd bb d1 ff bd 08 54 9c 3e
       -0.043266 -0.037329618 -0.12491175 0.3053286
0001c0 ca 10 f3 bc 0e 7c 80 3c ba 33 2c 3e 9c 67 d4 bd
       -0.029671092 0.015684154 0.16816607 -0.103713244
0001d0 28 fc c6 bb f8 bd d9 bc 6c 77 a9 3c 13 53 d3 3d
       -0.00607254 -0.026579842 0.020686828 0.103185795
0001e0 80 e9 c3 3c 62 61 13 3e 2a f9 1e 3e 99 bb 98 3d
       0.023915052 0.14392617 0.15524736 0.074576564
0001f0 be eb ea 3c fc 04 9d 3e c3 1a 92 bd a6 04 09 3e
       0.028676864 0.30667865 -0.07134011 0.1338068

decoder.lstm.bias_hh_l0 f4 [128]
000000 55 15 8e 3e 5e 62 ed bd 9a 3b 03 3c b5 ad ce 3d
       0.2775065 -0.11591028 0.008009816 0.10091726
000010 8b 99 49 3e e0 54 20 3e f9 c0 c5 bd 6d b9 06 3e
       0.19687478 0.15657377 -0.09655947 0.13156672
000020 d9 c5 e4 bc e9 93 c4 3b 30 2a a2 3d 43 50 a7 bc
       -0.027926372 0.0059990776 0.07918203 -0.020424014
000030 69 0a 15 be f9 4f 70 3d 4d bc 17 3e f8 ee be 3d
       -0.14554752 0.058670018 0.14817925 0.093229234
000040 ca 43 42 3e b4 c2 87 3d 65 50 8a bd ca e3 33 3e
       0.18971172 0.066289335 -0.06753615 0.17567363
000050 64 5b 66 bd c5 21 84 3c ca 8a 6e 3e f1 ee 90 3e
       -0.0562395 0.016129384 0.23295131 0.28307298
000060 1b 5e 7d 3d 2f b0 0a be 8f 0c b5 3d 40 4c f0 3d
       0.061857324 -0.13543771 0.08840286 0.117332935
000070 02 cf bc bd 2a e2 2e 3e f0 a7 1a 3e 20 11 85 3d
       -0.09219171 0.17078462 0.15103126 0.06497407
000080 d6 a9 68 3d 5a f8 43 3e 7c f1 5e 3e ff 70 d9 bd
       0.056802593 0.19137707 0.21771806 -0.106172554
000090 b7 d0 2a 3d cb 94 0a 3e bb 1e 83 bd c5 d6 06 be
       0.041702952 0.13533323 -0.06402346 -0.13167866
0000a0 63 74 f0 bd be 74 3c 3e f4 cd 70 bd c0 57 7e 3d
       -0.11740949 0.18403909 -0.058790162 0.062095404
0000b0 da 9f 2e be a9 51 b1 bd f6 81 1d 3e 9b 30 f6 bd
       -0.17053166 -0.086581536 0.15381607 -0.120209895
0000c0 7e 06 ff bd 70 a7 d0 3d fe 31 b4 bc d8 6b 8b 3d
       -0.1245241 0.10188186 -0.021996494 0.06807679
0000d0 0c 96 0b bd be 69 d6 3d 54 a5 15 be f6 d0 83 bc
       -0.034078643 0.104693875 -0.14613849 -0.016090851
0000e0 2e 65 84 bd 60 4c ae 3b 58 50 ba bd 49 97 2d be
       -0.06464611 0.005319163 -0.090973556 -0.16952242
0000f0 a2 c4 c8 3d 74 2e 64 3c 64 f0 82 3d 62 2e cc bd
       0.0980313 0.013927091 0.06393507 -0.09969784
000100 d9 71 1c 3e 2d 40 2e bd 6f aa fb 3d 4b f0 09 3e
       0.15277804 -0.04254167 0.12288367 0.1347057
000110 d4 0b 1a 3e 1e d3 f8 bd b5 52 1a 3e 4d 4e 18 be
       0.15043575 -0.121496424 0.15070613 -0.1487362
000120 48 02 88 3c 77 4a 90 3d df 15 10 3e 6b ce 13 3e
       0.01660265 0.07045453 0.14070843 0.14434211
000130 b6 65 41 bc 16 bf a3 bd 08 99 53 3e 6d 74 dc bc
       -0.011804035 -0.07995431 0.20663846 -0.026910985
000140 be 83 26 3e 16 bc 7a bd 93 9c 2f be 6d a1 c6 bd
       0.16261193 -0.06121453 -0.17149572 -0.09698758
000150 44 7d 90 3d ef fe 10 3e 92 82 08 3d 96 6c 82 bc
       0.070551425 0.1415975 0.033327647 -0.015920918
000160 9e ea 65 b9 8b 63 20 3e af 3b 4d 3d 59 a2 c3 3c
       -0.00021926544 0.15662973 0.050105747 0.023881124
000170 fa 4e c0 3d b8 04 24 be f3 11 b3 bb 7f e9 fe 3d
       0.093900636 -0.16017425 -0.005464786 0.124468796
000180 cd da 06 3e fc e3 b6 3d 72 99 45 3d bf 8c ee ba
       0.13169403 0.08930203 0.04824204 -0.0018199905
000190 ae 79 3a 3e 58 d1 19 3e 85 56 26 3e 52 56 0c 3c
       0.1821048 0.15021265 0.16243942 0.008565502
0001a0 2d f1 8e bb 86 01 4e 3e bb 42 d8 3d a9 08 46 3e
       -0.0043622465 0.20117769 0.10559603 0.19339241
0001b0 75 53 e9 3d ca 81 73 bd 05 ab 88 bd 65 da 35 3e
       0.11392871 -0.05944995 -0.066732444 0.17759092
0001c0 64 35 2e 3e f5 f3 e9 3d 87 2c ae 3d 28 f2 26 bd
       0.17012554 0.11423484 0.08504587 -0.040758282
0001d0 8f 5e b5 bd 87 b1 ef 3d ce a1 74 3d 18 0e ef 3d
       -0.08855926 0.117037825 0.05972462 0.1167261
0001e0 52 71 76 3e 04 f1 93 3d 26 69 d8 bd 8d 51 22 3d
       0.24066666 0.072237045 -0.105669305 0.039628554
0001f0 67 96 84 3b 3b 77 11 3e 55 39 db 3d 39 cd 8e bb
       0.0040462497 0.14205639 0.107042946 -0.0043579605

decoder.linear.weight f4 [1, 32]
000000 89 16 33 be db e0 32 3e 90 8b 1e be cd 12 da bd
       -0.17489065 0.17468588 -0.15482926 -0.10648117
000010 54 de 13 3e 3d ae 28 bc 0d 3b 62 3e 7a cf eb bd
       0.1444028 -0.010295448 0.22092839 -0.115141824
000020 00 85 79 bd 3a b3 cb bd 03 6d 1c 3e 45 0a c1 3d
       -0.060917854 -0.09946294 0.1527596 0.09425787
000030 a2 15 14 3d 63 46 7d 3c b2 3f 96 3d 3a 64 ea be
       0.036153443 0.015458676 0.07336368 -0.45779592
000040 18 82 4d 3e 34 f8 2e 3e 9a 03 f7 bd e6 a4 e3 bd
       0.20069158 0.1708687 -0.12061234 -0.11115436
000050 89 ad aa 3d 23 a6 ad bd 3f c0 74 be e1 b7 d2 3e
       0.083338805 -0.08478954 -0.23901461 0.41155913
000060 97 ee 23 bd 4d 26 41 3e 8b 41 22 3d 17 54 8c be
       -0.04002246 0.18862267 0.039613288 -0.27407905
000070 0c b9 45 be 82 83 b7 3e 0f 66 93 3e f9 42 97 3d
       -0.19308871 0.3584252 0.28788802 0.07385821
