results/MSE_LSTM_enc_dec_output/145_model.pt (torch, 860225 bytes, 10 tensors)

output_zeros f4 [399, 512, 1]
00000000: 0000 0000 0000 0000 0000 0000 0000 0000
00000010: 0000 0000 0000 0000 0000 0000 0000 0000
00000020: 0000 0000 0000 0000 0000 0000 0000 0000
00000030: 0000 0000 0000 0000 0000 0000 0000 0000
00000040: 0000 0000 0000 0000 0000 0000 0000 0000
00000050: 0000 0000 0000 0000 0000 0000 0000 0000
00000060: 0000 0000 0000 0000 0000 0000 0000 0000
00000070: 0000 0000 0000 0000 0000 0000 0000 0000
00000080: 0000 0000 0000 0000 0000 0000 0000 0000
00000090: 0000 0000 0000 0000 0000 0000 0000 0000
000000a0: 0000 0000 0000 0000 0000 0000 0000 0000
000000b0: 0000 0000 0000 0000 0000 0000 0000 0000
000000c0: 0000 0000 0000 0000 0000 0000 0000 0000
000000d0: 0000 0000 0000 0000 0000 0000 0000 0000
000000e0: 0000 0000 0000 0000 0000 0000 0000 0000
000000f0: 0000 0000 0000 0000 0000 0000 0000 0000
00000100: 0000 0000 0000 0000 0000 0000 0000 0000
00000110: 0000 0000 0000 0000 0000 0000 0000 0000
00000120: 0000 0000 0000 0000 0000 0000 0000 0000
00000130: 0000 0000 0000 0000 0000 0000 0000 0000
00000140: 0000 0000 0000 0000 0000 0000 0000 0000
00000150: 0000 0000 0000 0000 0000 0000 0000 0000
00000160: 0000 0000 0000 0000 0000 0000 0000 0000
00000170: 0000 0000 0000 0000 0000 0000 0000 0000
00000180: 0000 0000 0000 0000 0000 0000 0000 0000
00000190: 0000 0000 0000 0000 0000 0000 0000 0000
000001a0: 0000 0000 0000 0000 0000 0000 0000 0000
000001b0: 0000 0000 0000 0000 0000 0000 0000 0000
000001c0: 0000 0000 0000 0000 0000 0000 0000 0000
000001d0: 0000 0000 0000 0000 0000 0000 0000 0000
000001e0: 0000 0000 0000 0000 0000 0000 0000 0000
000001f0: 0000 0000 0000 0000 0000 0000 0000 0000
00000200: 0000 0000 0000 0000 0000 0000 0000 0000
00000210: 0000 0000 0000 0000 0000 0000 0000 0000
00000220: 0000 0000 0000 0000 0000 0000 0000 0000
00000230: 0000 0000 0000 0000 0000 0000 0000 0000
00000240: 0000 0000 0000 0000 0000 0000 0000 0000
00000250: 0000 0000 0000 0000 0000 0000 0000 0000
00000260: 0000 0000 0000 0000 0000 0000 0000 0000
00000270: 0000 0000 0000 0000 0000 0000 0000 0000
00000280: 0000 0000 0000 0000 0000 0000 0000 0000
00000290: 0000 0000 0000 0000 0000 0000 0000 0000
000002a0: 0000 0000 0000 0000 0000 0000 0000 0000
000002b0: 0000 0000 0000 0000 0000 0000 0000 0000
000002c0: 0000 0000 0000 0000 0000 0000 0000 0000
000002d0: 0000 0000 0000 0000 0000 0000 0000 0000
000002e0: 0000 0000 0000 0000 0000 0000 0000 0000
000002f0: 0000 0000 0000 0000 0000 0000 0000 0000
00000300: 0000 0000 0000 0000 0000 0000 0000 0000
00000310: 0000 0000 0000 0000 0000 0000 0000 0000
00000320: 0000 0000 0000 0000 0000 0000 0000 0000
00000330: 0000 0000 0000 0000 0000 0000 0000 0000
00000340: 0000 0000 0000 0000 0000 0000 0000 0000
00000350: 0000 0000 0000 0000 0000 0000 0000 0000
00000360: 0000 0000 0000 0000 0000 0000 0000 0000
00000370: 0000 0000 0000 0000 0000 0000 0000 0000
00000380: 0000 0000 0000 0000 0000 0000 0000 0000
00000390: 0000 0000 0000 0000 0000 0000 0000 0000
000003a0: 0000 0000 0000 0000 0000 0000 0000 0000
000003b0: 0000 0000 0000 0000 0000 0000 0000 0000
000003c0: 0000 0000 0000 0000 0000 0000 0000 0000
000003d0: 0000 0000 0000 0000 0000 0000 0000 0000
000003e0: 0000 0000 0000 0000 0000 0000 0000 0000
000003f0: 0000 0000 0000 0000 0000 0000 0000 0000
0.0 0.0 0.0 0.0 0.0 0.0 0.0 0.0
0.0 0.0 0.0 0.0 0.0 0.0 0.0 0.0
0.0 0.0 0.0 0.0 0.0 0.0 0.0 0.0
0.0 0.0 0.0 0.0 0.0 0.0 0.0 0.0
0.0 0.0 0.0 0.0 0.0 0.0 0.0 0.0
0.0 0.0 0.0 0.0 0.0 0.0 0.0 0.0
0.0 0.0 0.0 0.0 0.0 0.0 0.0 0.0
0.0 0.0 0.0 0.0 0.0 0.0 0.0 0.0
0.0 0.0 0.0 0.0 0.0 0.0 0.0 0.0
0.0 0.0 0.0 0.0 0.0 0.0 0.0 0.0
0.0 0.0 0.0 0.0 0.0 0.0 0.0 0.0
0.0 0.0 0.0 0.0 0.0 0.0 0.0 0.0
0.0 0.0 0.0 0.0 0.0 0.0 0.0 0.0
0.0 0.0 0.0 0.0 0.0 0.0 0.0 0.0
0.0 0.0 0.0 0.0 0.0 0.0 0.0 0.0
0.0 0.0 0.0 0.0 0.0 0.0 0.0 0.0
0.0 0.0 0.0 0.0 0.0 0.0 0.0 0.0
0.0 0.0 0.0 0.0 0.0 0.0 0.0 0.0
0.0 0.0 0.0 0.0 0.0 0.0 0.0 0.0
0.0 0.0 0.0 0.0 0.0 0.0 0.0 0.0
0.0 0.0 0.0 0.0 0.0 0.0 0.0 0.0
0.0 0.0 0.0 0.0 0.0 0.0 0.0 0.0
0.0 0.0 0.0 0.0 0.0 0.0 0.0 0.0
0.0 0.0 0.0 0.0 0.0 0.0 0.0 0.0
0.0 0.0 0.0 0.0 0.0 0.0 0.0 0.0
0.0 0.0 0.0 0.0 0.0 0.0 0.0 0.0
0.0 0.0 0.0 0.0 0.0 0.0 0.0 0.0
0.0 0.0 0.0 0.0 0.0 0.0 0.0 0.0
0.0 0.0 0.0 0.0 0.0 0.0 0.0 0.0
0.0 0.0 0.0 0.0 0.0 0.0 0.0 0.0
0.0 0.0 0.0 0.0 0.0 0.0 0.0 0.0
0.0 0.0 0.0 0.0 0.0 0.0 0.0 0.0

encoder.lstm.weight_ih_l0 f4 [128, 4]
00000000: 2d52 70bd b374 653e 7b8f 843f 7749 623f
00000010: 0aee b9bd 1bd0 703d b379 0bbe 9609 ce3e
00000020: 3ea7 2abd 8519 633d 10a7 dfbe 182a cf3e
00000030: dd97 e83f 586c d03e a925 34bf 5024 3a3d
00000040: 8321 403e c35f 5c3e 4017 4a3e e202 203f
00000050: 22bf 2bbe 4856 8e3f 1fd6 8f3e 97fe 983e
00000060: 1d9d fcbf e2bc e23e b926 853d 0745 ab3f
00000070: c474 edbe 9287 373f eccd c4bd ddfa 9abe
00000080: b8d7 1b3e 9e93 303e 02a0 4cbe d69d cb3d
00000090: 14fa 9fbd cfbe 1f3f e8ba b53e f0f6 00bf
000000a0: fa78 fa3e 2f84 c6bd 2d52 453f 2b2a dabd
000000b0: d646 123f d72a fb3e d4b5 92bd cc0e fd3e
000000c0: 5ad5 d53e 480c e53e c435 3cbf 99b2 7fbd
000000d0: ae38 7d3e 1bbf 6cbf 73ef dd3d de3e 3cbf
000000e0: b64d b93c 52af ddbe 18ec 00bd d825 053f
000000f0: 00d3 e0be 966e ef3f 67b1 843e e08b 4e3f
00000100: 1a0c 4e3f b9b1 153f cf43 30bd 562b 9ebe
00000110: 1d8e b53e 02a3 153f 8f38 0ebf 5097 233e
00000120: daa2 c23e 2c82 aebe c7db 1bbf a922 da3e
00000130: 05c3 593f f92c 0a3e 03cf 6f3e 6e44 ecbd
00000140: 6846 883e 3c71 373f 7cea 683f 496e 123e
00000150: 3ecd 903f fea3 9d3f bdd9 223f 66ef 42be
00000160: f300 8c3e 8f01 573f f595 123f c730 ecbd
00000170: 3a55 1e3f d072 0a3f 4b5b cb3e f37e 5cbd
00000180: 0b16 533f 0c18 563f 0cc8 273e 369e d0bd
00000190: 85f6 083e b51a 313f 178b 6fbe ca7b d5bc
000001a0: db3e 9e3f 6cd8 dc3e 7bfe ddbd 7554 c03f
000001b0: 6ad3 da3e 12bc 0e3f 2ef9 3b3e 9dec 313f
000001c0: 901a b6be 89fc 87bd 3772 233f ab44 a93e
000001d0: 8deb 863f 8793 7d3f 5713 afbd 6bac 423f
000001e0: a53c e1be f74a 723f a9b3 0c3f 7427 763e
000001f0: b7e7 693e 4a27 e83d 63d4 bcbe 3551 73be
00000200: aabe 93be c982 d33d 8ad8 1f3f 65ed 673f
00000210: 97b2 60be 4922 b4bd 6f64 a4be fe4a b03e
00000220: 53ec 50be a905 c33d ba2a 84be 659e 913f
00000230: 781e f53f 9ec6 573e 8211 0ebf b5a6 1b3f
00000240: 0cf7 e43f d488 3b3e a6c4 7ebe bc24 173e
00000250: 169d e4bd 1648 b63d 0a62 a83e 4c44 03bf
00000260: 359f 7cbe 5110 803f f74e b03e d22b b33e
00000270: 53ed 983c cf58 b73e 9e5a bbbe 647e 20bd
00000280: 52c5 af3d b8a5 8bbd f624 0ebf 401a 92be
00000290: 0048 e4be e2ce 993e 395c 013e ceb8 9dbd
000002a0: 4451 1cbf 26ed 8c3d db8e 12bf da80 bdbe
000002b0: ea0c b43f 4cd9 863f 3e80 57be 6188 66bf
000002c0: e395 e83e f8cc 53bf 08d3 113f 4a42 cd3d
000002d0: c8be bcbe 3aae f8be c959 d1be 2031 383e
000002e0: 34dc a33d 07c5 8cbe 19ee be3c 6650 783e
000002f0: 28d7 d83c 964d df3f 1271 0ac0 adf9 2dbf
00000300: 3fac cf3e dfe2 333f 46a4 93bc 679f 02bf
00000310: cd14 f73d fdfc 603e 8e27 4cbf f8d9 213f
00000320: d5ae 9b3c 669b c2bd cadf 02bf 0df0 513e
00000330: 83d9 b63e 2337 6e3e c2c5 043f d46e e1bd
00000340: a2c7 df3e 187e 2f3e 4cb7 4c3f 682d 9d3e
00000350: 46bd c83f 0be3 cc3f 3a2f b23f 8dac 1fbe
00000360: ee28 183f 0a3b 153f 4c0f b83e d3c4 ebbd
00000370: e9dc 323f 8087 dd3d 976b ad3e 2f5b c43e
00000380: 7d28 433f f7f0 4c3f 7237 3ebb 6b83 afbd
00000390: a9e8 223e e9bc 1c3f caab 51be 27a2 fcbd
000003a0: 6dd5 7d3e 7681 a13e 88c5 06be cc01 163f
000003b0: 8a08 263e 73a0 e43e 2c0f 8bbd 8734 903e
000003c0: c1d5 b3be b8ad 20bf 3157 163f 6d1d adbe
000003d0: b458 5c3f de01 473f 0318 d0bf d003 793d
000003e0: 4ffa bf3e 0e22 24bf 14c4 6bbf 02ad f7be
000003f0: 324a 253e 5197 533e e9e8 1ebf 67a2 1ebe
-0.05867212 0.22407798 1.0356287 0.8839335 -0.090786055 0.058792215 -0.13620643 0.40241688
-0.0416634 0.05544426 -0.43682146 0.40461802 1.8171345 0.4070766 -0.70369965 0.045444787
0.18762784 0.21520905 0.19735432 0.625044 -0.1677213 1.1120081 0.2809305 0.29881737
-1.9735447 0.4428473 0.065015264 1.338044 -0.46378148 0.7169124 -0.09609589 -0.30269518
0.15219009 0.17243811 -0.19982913 0.09942214 -0.078113705 0.62400526 0.3549416 -0.50376797
0.48920423 -0.09693181 0.77078515 -0.10652574 0.5713934 0.49056122 -0.07163587 0.49425352
0.41764337 0.44735932 -0.7351954 -0.062426183 0.24728653 -0.92479104 0.10836687 -0.7353343
0.022620063 -0.4329782 -0.031475157 0.5201087 -0.4391098 1.8705623 0.25916597 0.8068218
0.80487216 0.5847431 -0.043033417 -0.30892438 0.35459986 0.58451855 -0.5555505 0.1597569
0.3801487 -0.34083688 -0.6088223 0.4260457 0.850632 0.13493718 0.23418812 -0.115364894
0.26616216 0.71657157 0.90982795 0.14299883 1.1312635 1.2315671 0.6361349 -0.19036636
0.27344474 0.83986753 0.57260066 -0.11532741 0.61848795 0.5408144 0.39718089 -0.053832006
0.8245551 0.8363044 0.16384906 -0.10186426 0.1337529 0.69181377 -0.23392902 -0.026060004
1.2362932 0.43133867 -0.10839554 1.5025774 0.4273942 0.5575572 0.18356773 0.6950167
-0.3556714 -0.06639964 0.63846153 0.33060202 1.0540634 0.99053234 -0.08548611 0.7604434
-0.4399158 0.9464564 0.5496164 0.24038488 0.22842298 0.11335619 -0.36880788 -0.23761447
-0.28856403 0.1032768 0.6243979 0.9059661 -0.21943127 -0.08795602 -0.32107875 0.34432214
-0.2040265 0.09522564 -0.25813848 1.1376463 1.9149923 0.2107186 -0.55495465 0.6080125
1.7887893 0.18313915 -0.24879703 0.14760107 -0.11162774 0.08900468 0.32887298 -0.5127609
-0.24670108 1.0004979 0.34435245 0.3499437 0.018667853 0.35809943 -0.36592573 -0.039183035
0.08582558 -0.06818718 -0.5552515 -0.28535652 -0.44586182 0.30040652 0.12632836 -0.07701264
-0.610615 0.0688117 -0.5724923 -0.37012368 1.4066441 1.0535064 -0.21045014 -0.9005185
0.45426854 -0.8273463 0.56962633 0.10022409 -0.36864305 -0.48570424 -0.40888813 0.1798749
0.08000985 -0.2749407 0.023306893 0.2424942 0.026469782 1.7445552 -2.1631513 -0.679591
0.405611 0.7026805 -0.018022668 -0.5102448 0.12064514 0.21971507 -0.79747856 0.6322322
0.019004265 -0.09502296 -0.51122725 0.20501728 0.35712823 0.2326322 0.51864254 -0.11007467
0.43706995 0.17137945 0.7996719 0.30698705 1.5682762 1.6006788 1.3920662 -0.15593167
0.59437454 0.5829321 0.3594917 -0.115121506 0.6986833 0.1081686 0.33871147 0.38350818
0.76233655 0.80055183 -0.0029024747 -0.08569988 0.15909065 0.61225754 -0.20475689 -0.123356156
0.24788447 0.31544083 -0.1316129 0.5859649 0.16214195 0.44653663 -0.06790003 0.28165075
-0.3512402 -0.62765074 0.58726794 -0.33811513 0.8607285 0.77737224 -1.6257328 0.06079465
0.37495658 -0.64114463 -0.92096066 -0.48374182 0.16141585 0.20663191 -0.6207414 -0.15491639

encoder.lstm.weight_hh_l0 f4 [128, 32]
00000000: b320 c83d 7e42 8d3e 0915 f33d 4651 6cbe
00000010: 7368 c7be a653 383e d3d7 843e 0807 823e
00000020: 5b86 2a3e 7c6d 1c3e 9944 19be 9886 3cbe
00000030: 6a3a 32bd 0e5e 14bf 2950 a53e e264 1dbb
00000040: 63f5 c1bd eb6a 573d c426 62be 44cb 76be
00000050: 74a4 95bd da4f cebe 5b38 073e eab7 0d3e
00000060: 762d 5f3e 08fa 713e 852c b03d 5ac7 a1bd
00000070: 77ed 653d d6c5 4b3e f75e cebd 7276 343e
00000080: 6c63 073e f25c de3d 5f7b 923e 1e3e 1bbe
00000090: 1c09 27be 6db5 8ebb 3378 413e 2c22 ebbd
000000a0: b54f b73e 57a3 a53d 284c 5ebe 8262 5c3e
000000b0: 2e28 c8bc 8a93 4bbe 3089 5a3e 9eea 06bf
000000c0: f74a 573e 6d5c a63d 0b5e 52be 863b bd3c
000000d0: 3f20 19be ee13 17bd d92b 3e3e d469 873e
000000e0: 00da 5e3e a383 3a3e 2f2d 9bbe 6061 81be
000000f0: 0cf4 63be 5871 bc3e 9899 253e a67c 38bd
00000100: e1b7 2c3e 8391 8d3e 4046 9a3e f48e 81be
00000110: 2d9b 81be cff5 4ebe 2fec 05be 0105 03bf
00000120: 32f6 bd3d 9872 9abe 2b41 383d 3c44 12be
00000130: b64e 11be 30ba 51be 53e8 723e 27bf a7be
00000140: d971 143e 1e47 4a3e 6cc7 31be a696 12be
00000150: 2bc3 15be 0ade cfbd fe16 873d 7f25 43bd
00000160: d358 b83e adce bb3d 3ce5 8cbe ec02 813d
00000170: 2f48 0c3e de30 1e3e 467a 44bd 47cb 383e
00000180: 9f6d 943d ecaf cabb 9206 bd3d 05f7 0b3c
00000190: 5d46 663e c816 3abe 11f3 78be 3e03 e83d
000001a0: 92f4 0ebe f058 d43c 3327 14bc c971 ccbc
000001b0: 69ce b93d bed3 8e3e d662 e33c abdc 373d
000001c0: dbc0 44be 63c7 63be d52d 22bd 29a1 adbd
000001d0: 7d14 bfbd b958 f33d 4d04 2bbe fd11 be3b
000001e0: 09aa 0e3e a06a bdbd e0be 0dbe c3cb b53d
000001f0: 7eac 6f3e 9c6b b23d 119a 603e 7067 03bd
00000200: 89e8 0e3e e45b 14be 5bb8 98bd d7a1 86bc
00000210: 43bc e43d a0b7 f7be 92c5 573f ebe9 2dbc
00000220: 0608 94be a5bd 143e cd78 653f f192 39be
00000230: 8d0f bf3e 1fa9 0f3f 15e6 5cbd 4e1d ef3d
00000240: bee1 0bbf 1363 91bc c075 833e afb5 27bf
00000250: 2849 133d f780 31be 9cbd 6e3d 386c e33e
00000260: 502c bb3c 6391 52be 5b00 73be c9a9 a6be
00000270: 47d4 1d3e b468 92bd 6c66 503d 0366 0e3d
00000280: a654 b23d 6d8b 013d 6912 0ebd 630b 103d
00000290: 9512 a3be b5c2 85bc 96e3 363e a088 59be
000002a0: b5c6 203e c5d7 ebbd 080b 21be 0051 13be
000002b0: 4356 4e3e 0e29 08bd 48d8 63bd da6b 2abe
000002c0: 731a 2dbe bfd3 30bd 0d60 97bd c6ae 3dbd
000002d0: 5ac0 eabd d99a b03d 68b7 76bd 95bc fd3e
000002e0: 7a53 453e 2fc3 06bd 506c febd 0567 52be
000002f0: 4b08 803b e647 9bbc b0d9 ab3e d995 f03d
00000300: b518 ba3e e232 693d 339e 573e 7281 863e
00000310: 6e51 cc3d 5512 b0bc 81dd 5c3e f1e6 b4bb
00000320: ddb2 f63d 413d 9d3c 191a 513f 5933 86be
00000330: 360f bcbe 9a31 05bd feb2 0a3e 46a9 683e
00000340: 1423 7d3e efb5 0abe de4b fdbd c2ac 2bbf
00000350: 627e abbd f714 5ebe d728 9e3d 6296 803e
00000360: e04a 263e 8ec8 a73d dc77 03bd 7380 36be
00000370: 0d2b 1f3e 3205 6b3e e02b cfbe 9352 303e
00000380: d2aa a03d 87d1 3dbe 53f8 86bd ceb4 783e
00000390: dcdf bc3e 7215 05bf 9f27 373e 5f4d 8ebe
000003a0: 0509 7c3b 0e9c f23d b4ba af3e e865 143e
000003b0: 2dc5 d13e ef7c 16be ac0d 943d 5e3b cabe
000003c0: da8b 0bbf 38d5 85be 8451 623e d297 fc3d
000003d0: 7c9c 813e 08b0 73bd 231c acbe 745e b23e
000003e0: b5d3 89bd ea38 323d 1e4a b0be cb67 60be
000003f0: 7095 a7be 2af8 ee3d 8e40 2d3e 05df 42be
0.09771862 0.27589792 0.118692465 -0.23077878 -0.38946876 0.1800066 0.2594591 0.2539599
0.16652815 0.1527614 -0.14967574 -0.18410718 -0.04351274 -0.57956016 0.3228772 -0.002401643
-0.09470632 0.0525922 -0.220851 -0.24100977 -0.073067576 -0.40295297 0.13205092 0.13839689
0.21794686 0.23630536 0.086022414 -0.078993514 0.056134667 0.19899687 -0.10076707 0.17623308
0.1322152 0.10857572 0.2860975 -0.15160415 -0.16312069 -0.0043551237 0.18893509 -0.11481127
0.35803 0.08087795 -0.21708739 0.21521953 -0.024433222 -0.198805 0.21341395 -0.5270175
0.2102469 0.081230976 -0.20543687 0.023099672 -0.14953707 -0.03688424 0.18571414 0.26447928
0.21762848 0.18214278 -0.3030791 -0.25269604 -0.22261065 0.36805224 0.16171873 -0.04504075
0.16867019 0.2765008 0.30131721 -0.25304377 -0.25313702 -0.20210956 -0.13078378 -0.5117951
0.09275474 -0.30165553 0.044984024 -0.14283842 -0.14190182 -0.20481181 0.23721437 -0.32763025
0.14496554 0.19753692 -0.1736123 -0.1431528 -0.14625232 -0.101497725 0.06596182 -0.04764318
0.36005268 0.0917028 -0.27518642 0.062993854 0.13699411 0.15448329 -0.04796817 0.18046294
0.07247471 -0.0061855223 0.09229769 0.008542781 0.22487779 -0.18172753 -0.24311472 0.113287434
-0.13960484 0.025921315 -0.009042549 -0.0249566 0.09072573 0.2789592 0.02775709 0.04488818
-0.19214194 -0.22244029 -0.03959449 -0.084780045 -0.0933008 0.11882157 -0.1670086 0.005800484
0.13932051 -0.09248853 -0.13842344 0.08876755 0.23405644 0.08711931 0.21933772 -0.032081068
0.13955893 -0.14488178 -0.07457038 -0.016434593 0.111687206 -0.48382282 0.84285843 -0.010614852
-0.2891237 0.14525469 0.8963745 -0.1812246 0.37316552 0.56117433 -0.05393036 0.11675511
-0.5464133 -0.017747438 0.25675774 -0.655116 0.03595844 -0.17334352 0.058286294 0.44418502
0.022848278 -0.20563273 -0.23730604 -0.3255141 0.15413009 -0.07148877 0.050878927 0.034765255
0.08707552 0.031627107 -0.034685526 0.03516711 -0.31850114 -0.016328195 0.17860255 -0.21243525
0.157008 -0.11515764 -0.15726864 -0.14386368 0.20150094 -0.033242278 -0.055626184 -0.16642705
-0.16904621 -0.043170687 -0.07391367 -0.046309255 -0.114624694 0.08623285 -0.060233504 0.4955794
0.19270125 -0.032900985 -0.12423003 -0.20547111 0.0039072386 -0.018955182 0.3356452 0.11747331
0.36346975 0.05693329 0.21056442 0.26270634 0.09976469 -0.021493116 0.21568872 -0.0055206944
0.12045834 0.019194247 0.81680447 -0.2621105 -0.36730355 -0.032518007 0.13544843 0.22720823
0.24720412 -0.13545965 -0.12367986 -0.6706048 -0.08373715 -0.21687685 0.07722633 0.25114733
0.162395 0.0819255 -0.03209673 -0.17822437 0.15543766 0.229512 -0.4046316 0.17219
0.078450814 -0.1853696 -0.06590333 0.24287722 0.3688954 -0.5198585 0.17886208 -0.27793404
0.0038457524 0.11846171 0.3432213 0.14491999 0.40970746 -0.14696096 0.0722917 -0.3949842
-0.5451027 -0.26139235 0.22101408 0.12333645 0.253147 -0.05949405 -0.33615217 0.34837687
-0.06729833 0.04351131 -0.34431547 -0.21914594 -0.327312 0.11668427 0.16919157 -0.19030388

encoder.lstm.bias_ih_l0 f4 [128]
00000000: 7330 0a3e 4dd3 a33d e2d6 9a3e e802 1f3d
00000010: 1782 62bd 4edd 013e ff72 7b3e 82e1 853d
00000020: 885f b53c 23cd b2bd b3ca a43e dd7e 84bd
00000030: 8144 01be fbdc 633e 1f5f 533e f0dc 86bd
00000040: 5c48 b33d 2aa2 08bd 6461 873e 8ba4 6c3e
00000050: d734 093d cf2e a03a 004b dd3c a314 70bd
00000060: 97c5 f2bb defe 843e be18 423d c2fd a53c
00000070: 1167 563e f8d1 903e 8e50 533e 5fa4 f53c
00000080: 9472 c53c 4305 9d3d ad6e 9a3d 5786 6b3c
00000090: f010 e73d 6e63 8c3c 83be 3c3e 49a8 793d
000000a0: 9d08 473e 482a 79bd 2f85 cebd eaa6 fc3d
000000b0: c181 21bd 1a0c 403e 1b47 043e 015b 313e
000000c0: 18b6 2e3e 6532 433d b50c da3b 613a ee3d
000000d0: 7f23 093c d924 f33d 7f3a 653e c187 00be
000000e0: faa6 e33c 41c5 7b3d 034a 70bc a67e ab3c
000000f0: deab 01be 1933 253d 3e14 49bc 01e1 dd3c
00000100: 16ad 8a3e 51e8 743e fe07 123e b014 0abe
00000110: eaf7 c3bd 777f b53d 1df6 fabd d06b a7bd
00000120: a727 a73d 5afc adbd f10a 053e 8467 a13d
00000130: 8484 0fbd 7e85 0abd c870 de3d dc5b 02bc
00000140: 82dd 95bc 3b94 33bc ba85 283d 2bdb 243c
00000150: 762a 983d 9488 ddba 3c08 573d 4b6e 21bb
00000160: 1407 c03d c79d 2f3e e6ab f0bd cff9 273c
00000170: 2915 433d e28a b73d 825f 7d3d d25c 8d3b
00000180: c66f c5bc 6c1e 1f3e 8b75 9ebb a1ea a93c
00000190: 81eb d63d 59ba 623e a926 983e 44a4 093e
000001a0: 4cc9 523e af89 fabd 5625 9e3e f1a3 593e
000001b0: a515 ef3d e2fa c53e 8fc9 133e 77ca 6cbd
000001c0: 1eb5 b83e 62ca eebc 0d51 aa3d 7371 4b3d
000001d0: fb14 0e3d c515 dd3c afab a03d d45e cb3d
000001e0: 7dab 9d3d 0bab a33c 5570 65bd a5f9 18be
000001f0: ac6c a93e 887c c63b b39d a73e 02f6 f13d
0.13495044 0.07999287 0.30242068 0.03882113 -0.055299845 0.12682077 0.24555586 0.06537153
0.02214028 -0.08730533 0.32185897 -0.0646951 -0.12623788 0.22252266 0.20641755 -0.06585109
0.08754036 -0.033357777 0.2644149 0.23109643 0.033497658 0.0012220981 0.027013302 -0.05861343
-0.0074088085 0.25975698 0.047386877 0.020262603 0.20937754 0.28285193 0.20636198 0.029985605
0.024102487 0.07667019 0.07540641 0.014375291 0.112825274 0.017137256 0.1843205 0.060951505
0.1943688 -0.06083134 -0.100839965 0.12336524 -0.039430384 0.18754616 0.1291775 0.17319871
0.17061651 0.04765548 0.006654347 0.11632229 0.008370279 0.118722625 0.22385596 -0.12551786
0.027789582 0.061467413 -0.014666083 0.020934414 -0.12663218 0.040331934 -0.0122728925 0.02708483
0.2708518 0.23916747 0.14260861 -0.13484454 -0.0956877 0.088622026 -0.12253974 -0.081748605
0.0816186 -0.08495398 0.12992455 0.07881072 -0.035038486 -0.033818714 0.10861355 -0.007956471
-0.0182941 -0.010960634 0.041143157 0.010062019 0.07429974 -0.0016901665 0.052498087 -0.002463239
0.0937635 0.17150031 -0.11751537 0.01025243 0.0476276 0.08962037 0.06185866 0.0043140436
-0.02410115 0.15538949 -0.0048357896 0.020741763 0.104941376 0.22141398 0.29716995 0.13441569
0.20584601 -0.12233292 0.3088786 0.21253945 0.1167405 0.3866797 0.14432357 -0.057810273
0.3607568 -0.029149238 0.083162405 0.04966874 0.034687977 0.02698792 0.07845246 0.099301964
0.076987244 0.01997902 -0.05601533 -0.14938982 0.33090723 0.0060573258 0.32737502 0.118145004

encoder.lstm.bias_hh_l0 f4 [128]
00000000: 2d7f 083e 77de 4e3e f729 3f3e c2a7 5e3c
00000010: b678 2cbe 6cd0 f13d 783f a63d d307 bebd
00000020: 2005 0d3e 2522 12be d6cd 3b3e ee14 b0ba
00000030: ab55 193e c509 b43e 298f 803e 8b4d 37bd
00000040: 7492 b03d 09a3 2f3e 8ab2 0b3e 95aa 0d3e
00000050: 5c64 713e 84a6 983d cebd e13d 152a 22be
00000060: ca0b 1a3e 4833 963e b9ee 07be 66c4 c63d
00000070: 4157 253e 5ac0 5c3d 7638 8638 0741 73bc
00000080: e8a4 313e c7cb 833d 2a80 3c3e 03f9 533d
00000090: 5daa 073e 2470 323c 6002 7fbc 3c56 9b3d
000000a0: e4e6 543e 5a42 27bd dde3 33bd 8996 9a3c
000000b0: dde9 2a3d c4b3 98bd 8f80 143e 0e6d 453e
000000c0: 32b2 833e d043 dd3d f44f d03d 984e bb3a
000000d0: 12f0 cd3d b378 543e 335a 82bc f5b9 45be
000000e0: a901 843d 0a56 133e 1e39 003d 3d7b 5ebd
000000f0: 6d23 493c 1122 883b 7c2e a83d 0aae b43b
00000100: 1108 8e3e c0eb c33d a070 993e 8202 0cbe
00000110: 976d b6bd 2e91 cabd 4645 1fbe 5b56 dd3c
00000120: 463d 553e ca44 4dbd 1257 72bd d415 d8bd
00000130: 54a5 233d 79a3 e7bd 75db 843e 2326 d4bd
00000140: f080 93bc 5ac2 33bc a3b1 99bd d064 073e
00000150: ffd4 0abe 001f 8bbd 52c7 e43c 6c71 5c3c
00000160: eb10 e8bc d25e 4a3e 61f7 74bb 15aa bdbd
00000170: b40a 0c3d f00f 2c3e 85d9 133c e584 d03d
00000180: 5d2e 063e 3139 9d3d 5df1 bc3d 50d3 e73d
00000190: a4bd 7e3e 3f10 2f3d d9e7 9d3e 2c14 7e3d
000001a0: 64dc 8b3d 4df3 cebc 32a8 8d3e 3d66 723d
000001b0: 774a 063e 3f36 e23e a2ad b23d 1fa8 f7bc
000001c0: 6ec8 b93e d34c 8b3d 5422 1b3d ebc2 163d
000001d0: 7a39 0d3e 1969 e1bd ad47 533e fb73 033e
000001e0: b85c 163c bc8a 003e c197 3c3d 0312 2dbd
000001f0: a2aa 2d3e f0a5 f13d 6cb4 1b3e 858b 94bb
0.13329764 0.20202051 0.18668352 0.013589801 -0.16842923 0.118073314 0.081175745 -0.09278836
0.13771486 -0.14270838 0.18340239 -0.0013433972 0.14974086 0.35163704 0.25109223 -0.044751685
0.08621684 0.17152037 0.13642326 0.13834603 0.2357344 0.07453635 0.110225305 -0.15836366
0.1504356 0.29336 -0.13274659 0.09705429 0.16146566 0.05389438 6.4001346e-05 -0.014847047
0.17348063 0.06435352 0.18408266 0.051751148 0.13248582 0.010890994 -0.015564531 0.07584807
0.20791203 -0.040834762 -0.04391848 0.018870609 0.041726936 -0.074561626 0.14502166 0.19279882
0.2572189 0.1080395 0.101715 0.001429039 0.100555554 0.20749168 -0.015912151 -0.19309218
0.06445629 0.1438829 0.03130447 -0.054316748 0.012276513 0.0041544517 0.08211991 0.005513911
0.2774053 0.0956645 0.2996874 -0.13672832 -0.08907621 -0.09890972 -0.1555377 0.027018717
0.20824155 -0.05011443 -0.059165068 -0.105510384 0.03995259 -0.11310477 0.25948682 -0.103588365
-0.018005818 -0.01097163 -0.07504585 0.1322205 -0.13557814 -0.06793022 0.027927075 0.013454776
-0.02832838 0.19762734 -0.0037378895 -0.09260956 0.034189895 0.16802955 0.009024029 0.101815976
0.13103624 0.07676924 0.09225724 0.113196015 0.2487703 0.042740103 0.30840948 0.062030956
0.068291456 -0.0252625 0.27667385 0.059179533 0.13114344 0.4418201 0.08724524 -0.030231534
0.36285728 0.068017624 0.037874535 0.036806982 0.13791457 -0.11006374 0.20632811 0.12837212
0.009177379 0.12552923 0.04604316 -0.042253505 0.16959623 0.11799228 0.15205544 -0.0045332336

decoder.lstm.weight_ih_l0 f4 [128, 5]
00000000: 4acc 01bf 505d 803e e914 3a3e 6a39 13be
00000010: 06f9 e2bc 6a8d 32be 9e66 773f d8eb 493d
00000020: a1d8 8d3d 3f35 873e adc8 ddbe fcb2 613e
00000030: 6797 7c3e 96da 443e 4d79 813d 02fa f3bd
00000040: 2d6b c73c fded adbd 3dac 17be 9d38 aabd
00000050: 96cb af3e c145 933e 4c38 753e 174f db3d
00000060: 7c75 de3e f312 bc3e 757f 15be a5ee 9f3e
00000070: cab7 203d 8939 a03e e47b 523e 1603 733e
00000080: 8c94 84be 6b17 d83c bbfc fd3d b0ea 783d
00000090: 3669 35be ee9d 463e 4df0 93bd 978a 883e
000000a0: 83fb a23c 2c50 6e3d 1355 b73c 2733 b63d
000000b0: af98 3dbd 0a7b 533d ce55 07be 37d3 f33d
000000c0: c209 d23e 4605 a03e dff8 4a3c ebe6 9b3e
000000d0: d77f b13d c3fd 5bbd 0f47 a1bd da05 3e3e
000000e0: 5a97 54be fcb4 17be 073d 42be 729c 843f
000000f0: c180 17bd 7e19 5cbe 141d 5d3f a2cb c03d
00000100: e97f 49bd 82d9 573e c154 6d3d 6b1f 17bd
00000110: 4087 4f3e 1b10 cbbd cfd6 87be b3df f5be
00000120: b2dc 21bc d2a7 5a3f 67f2 9f3e db24 c73f
00000130: bf44 203e fadc 303e 365a 6cbe e5d5 8a3d
00000140: c877 eb3d 3fea 0c3e cf6b 92bd b1d3 653e
00000150: a090 5bbe abf7 81bc 8146 9b3e 74b5 7c3e
00000160: 5d65 8d3d eaa7 aa3e 3e01 b73e 19bd 2e3e
00000170: 4083 393b 24d5 753f 15f5 a43e 1046 933e
00000180: cd4d 473f 2075 5dbe 6d61 dabc cea7 0fbe
00000190: 3d9e 323e eda6 c53e e470 e73e a470 923e
000001a0: fde5 4dbd 6401 42bf 419f d23d b63c b2bd
000001b0: cafb b93e ee7e 2c3e 9497 2f3f 76db bfbe
000001c0: 7305 7abe 5c87 ba3f 3e5d eb3e 2dc0 d5be
000001d0: 6c7e 5e3f 5851 b0bc cd8c 94be a34b 9b3e
000001e0: 3dd8 30be 53af 4f3e 9488 b83e e9dd d23e
000001f0: 1d9d a33e 7da4 4c3c a770 ff3d ce74 593e
00000200: d4e0 bbbe f5ea 37bd 2f47 493e 3313 a23d
00000210: 9007 1e3d aaae 153e c982 b4be c411 d83d
00000220: 3f19 f73e 5480 a2be 97af b43f e23b 27bc
00000230: 2598 73be 839e 163d f6a5 19bc a34d 1d3e
00000240: 74ce 67bd d297 e6bd 7703 b33e db18 9a3c
00000250: 983b c73d 8d91 99be 667b 4a3f 8105 b43a
00000260: d864 15be 7861 a8bd 724d b33e c1b0 e43d
00000270: 406e 973e 43a3 923d da08 353d 9e19 ca3d
00000280: 38b1 2fbf 7ec7 2d3e cd54 333e e024 a63d
00000290: fb71 423e 6f96 323f 0d9a 0ebe 9e2a 3cbe
000002a0: 46ed 913d a20c e43d 6831 31bc 88ea acbe
000002b0: 274e 9abd ddda 153e 1a14 71bc 8cc9 a33e
000002c0: 36ad a0be d4ea 64bd ba7a 573d 04bd 273d
000002d0: 87f8 a13d e5ec b23d 59fa 883e f9d0 0bbe
000002e0: 6ea9 2a3e ba85 b73e dbb6 133d 6aee 5d3d
000002f0: 01a0 84be ae13 873e 91fc 0c3e 0139 1e3e
00000300: f9de 653e 333e 233c e544 49be 4f6c 893d
00000310: 042b 443e 0836 073e 3b90 7ebe 5722 833d
00000320: 5068 8a3e 3374 f23c 4250 34be 6e31 173c
00000330: e328 103d 94ee 5c3d 4f67 b93d 469f 0b3e
00000340: 2dea 8b3d 59d6 083d 862c a23e b346 7bbc
00000350: a0b2 3dbd 82aa 02bc 7be5 d43c 1deb 963e
00000360: cedd f2bd 1bbf f1be 389f 953e 7405 af3e
00000370: 0b82 05bf c1f2 cbbe bff4 64be 1401 d5bc
00000380: ebcd 8fbe 7972 973d 15e1 65bd f774 53be
00000390: 4ba4 36bd 99c0 ffbc 0f13 5c3e a400 a33e
000003a0: 8c3a 01be 974e a5bc 7ce0 69be e5a4 043e
000003b0: 177a 75be 36db 833c a433 89bd c7e2 b2bd
000003c0: 809d 8e3e fe01 38be 57c2 723e 51d9 04be
000003d0: b507 733e 840a 263e 7acd 563e 739c 833e
000003e0: 3b01 9d3d 46a4 b53d f51d 7e3e f58a 19be
000003f0: 9c4e afbc 796e 05be 57fd cabd 3deb 663e
-0.50702345 0.25071192 0.18172039 -0.1437737 -0.027706634 -0.17436758 0.96640956 0.049297184
0.06926084 0.2640781 -0.43317166 0.22040933 0.2466713 0.19224009 0.063219644 -0.119129196
0.024343098 -0.08492658 -0.14811797 -0.083115794 0.3433501 0.28764156 0.23947257 0.107084446
0.43449008 0.36733207 -0.14599402 0.3123676 0.039237775 0.31293896 0.20555073 0.23731646
-0.25894582 0.026378354 0.1240172 0.06077069 -0.17715916 0.19396183 -0.07223568 0.26668236
0.01989532 0.058181927 0.022379434 0.08896475 -0.04628819 0.05163101 -0.13216326 0.119055204
0.4102307 0.31254023 0.012388437 0.30449614 0.08666962 -0.053708803 -0.078748815 0.1855692
-0.20760861 -0.14815134 -0.18968593 1.0360243 -0.036988024 -0.214941 0.86372495 0.0941384
-0.04919425 0.21079066 0.057942156 -0.036895197 0.20266438 -0.09915181 -0.26531073 -0.4802223
-0.009879278 0.85412323 0.31239626 1.5558122 0.15651225 0.17271796 -0.23081288 0.067790784
0.11497456 0.13761233 -0.07149469 0.22444035 -0.21441889 -0.015865168 0.30327228 0.24678594
0.06904099 0.33331233 0.35743135 0.17064323 0.002830699 0.9602835 0.32218233 0.2876439
0.7785309 -0.21626711 -0.026657784 -0.14028856 0.17443176 0.38603917 0.45203316 0.28601563
-0.050268162 -0.7578337 0.102842815 -0.08702986 0.36324912 0.16845295 0.68590665 -0.37472123
-0.24416141 1.4572558 0.45969576 -0.4174818 0.86911654 -0.021523163 -0.29013672 0.30331144
-0.17269988 0.20281725 0.360417 0.4118493 0.31955805 0.012490389 0.124726586 0.21235964
-0.36694968 -0.044901807 0.1965606 0.07913818 0.03858143 0.1461741 -0.3525603 0.105502635
0.4826145 -0.31738532 1.4116086 -0.010207148 -0.23788507 0.036772262 -0.009377947 0.15361647
-0.056593373 -0.11259426 0.3496358 0.01881068 0.097281635 -0.2999386 0.7909454 0.001373455
-0.1458925 -0.08221716 0.35020024 0.11166526 0.29576302 0.07160046 0.044197895 0.09868167
-0.6862979 0.16970631 0.17512818 0.08112502 0.18988793 0.69760793 -0.13925953 -0.18375632
0.071253344 0.11135222 -0.010815002 -0.33772683 -0.075344376 0.14634271 -0.014714265 0.31989706
-0.3138215 -0.055888012 0.052607276 0.040951744 0.07908731 0.0873659 0.267535 -0.13653935
0.16666195 0.35844213 0.036063056 0.054182447 -0.25903323 0.26382202 0.13768221 0.15451433
0.22448339 0.00996356 -0.19655187 0.06710111 0.19157034 0.13204205 -0.24859707 0.06403034
0.2703271 0.029596424 -0.17608741 0.009228094 0.035195243 0.053938463 0.09052908 0.13634977
0.06831775 0.033407543 0.31674594 -0.01533668 -0.04631293 -0.007975223 0.025988331 0.29476252
-0.11858712 -0.47216114 0.29223037 0.34183848 -0.52151555 -0.39833644 -0.22358988 -0.02600149
-0.2808679 0.07394881 -0.056122858 -0.20650087 -0.044590276 -0.031219767 0.21491645 0.31836426
-0.1261999 -0.020179076 -0.2283954 0.12953527 -0.23972355 0.016095739 -0.06699303 -0.087346606
0.27854538 -0.1796951 0.23706947 -0.12973525 0.23733409 0.16214949 0.2097682 0.257053
0.0766625 0.08869223 0.24816115 -0.14994414 -0.021399789 -0.13030423 -0.09911602 0.22550674

decoder.lstm.weight_hh_l0 f4 [128, 32]
00000000: 57b4 923b f55e 593d 466f 85be af6e 8ebf
00000010: 6d9c 4d3f 7bb1 b6bf 0c26 f5bd 331c 63be
00000020: 9d32 133f 2d34 1dbf c5df 483f c238 1d3f
00000030: b0ed 0bbe cc0a 133f ef82 453f 928f a63f
00000040: 0d7c 623e d56c 033e bba7 673e 2267 dfbe
00000050: 0e5c 27bf 084e 0abf bcd2 2a40 94a7 02c0
00000060: d5f8 3e3d be15 5d3e d3d7 363f 67b6 843f
00000070: 3e0b 443f 965c b4bf efd8 ab3f a7ab a63e
00000080: 032f 603e 4bf4 593e ec9d f0bd d2f5 5cbd
00000090: 55d9 9d3e 5f16 8bbe 1428 753e 64ae 5ebe
000000a0: 01a9 643e 3eea 95be f2ef 82be af89 9a3e
000000b0: c6d0 a4be 511b 903d 5c4f d83c bb90 9a3d
000000c0: 7b69 013e dc27 c13e 7325 88be 7280 72be
000000d0: fc8a cebd 574b fdbe 6014 423e d9f3 533e
000000e0: e8c9 ac3e 9c04 943d 4621 6e3e 2422 03be
000000f0: 785e 783e 500b 8cbf 4be5 053e f040 bf3e
00000100: 155c 1f3e d621 193e d97e 58be fe3a f03d
00000110: e0a7 6e3e 6a03 dcbc 0c56 f63d 965e 0ebe
00000120: e305 3fbd 9210 d23d 4b73 88be fa64 f0bb
00000130: 5297 d03c 6cec 383e 48ee bdbd 1fd7 863f
00000140: 1611 8c3e 3b61 4e3e 2762 483d 05b3 04be
00000150: 415c f4bd 9df7 0dbf 018c 9b3e ba82 0bbd
00000160: 92c1 713e 3c55 efbd 176e b73c eee0 4d3d
00000170: 833b 463f 4219 22bf d88b 00be 29d3 383e
00000180: 9994 983e ed8e 393e 42cd 19bd 0621 d23b
00000190: ed0c 143e 771a 77bd cccc 2f3e 563a 87bd
000001a0: f2e5 be3d 697d 003e a25b 81be bbf4 083d
000001b0: 09c6 10bc 83ac 66bd 690b f63c d44c a3be
000001c0: a326 36bd 304d b53d 111e 2bbd 6129 a3bd
000001d0: a5dc 16be 9957 8ebe b6cd 9abf b3d0 ea3e
000001e0: b214 783d 52a6 de3d 2e89 5d3e 34e1 ed3d
000001f0: ce86 2a3e e710 463f 9cf3 acbe 8eec 0a3e
00000200: 3c28 3e3e 184b 243e 83c5 3e3e 6e47 9dbd
00000210: e1ec bc3e 4e46 a1be a69c 393e 7b5e edbd
00000220: 0b88 bf3e ad20 39be 3a07 283e b6dd f03d
00000230: bc9f ecbd 8854 453e 2cde 7c3e f387 26be
00000240: 0769 c33b a801 873e 6f35 8cbe 2e08 a7be
00000250: b576 37be 9f5f 1fbe cbe1 57be f704 393d
00000260: 7100 c03e 3d8f 0b3e 8e08 b63d 785b d8be
00000270: 39b2 33bc b97b 0a3e ab7d 28be f38b 163e
00000280: a049 fd3d b229 1cbd d8ff d1bc 54a2 7fbd
00000290: 4f56 343e b795 f5bd 23e0 713d c43b 07be
000002a0: cd1b d03d af2d 963c c7c0 c1bc 304a 513d
000002b0: 79b1 e83d d7d4 1b3e bdbc 103e d2e4 ebbc
000002c0: 90c8 213d d873 793e 4a8a 7dbd f20d 5fbe
000002d0: 2780 36be a788 42be 6e9e 233e 28cd 18be
000002e0: 27bb 853d 10fe d2bc 2497 843d f8b5 8dbe
000002f0: 79d1 a13d ff7c 913d a82f 85be 46c5 513e
00000300: a940 1e3e ff2e 463d f8c2 38be c6f3 1dbe
00000310: 3b8d 753d d4ed a43e 1187 0e3e c84f f13d
00000320: 5fe1 483e cffb c23d 1caa 2ebd 18ae 40bd
00000330: 10fb 00be bbcb f13c 21ad 65bc 146b a93d
00000340: a207 83bd 4e6d cb3b bbbe 10be ba41 c03b
00000350: 288a abbc 025a a9be 1558 bd3d fe80 07be
00000360: 6a46 1d3e 8b4d 7c3d 5460 c63d 498d 273e
00000370: 3d35 05be 2bb8 7b3e 4ed8 0fbe 08ab c73d
00000380: 1cc9 9e3d 0c46 183d 8375 1cbe c7cf 98be
00000390: 6381 f2bd d9eb 463d 0f13 903e d16f bd3d
000003a0: 4ec3 0f3e 29f0 873d 369f 7abd 1257 bdba
000003b0: baeb 013e 56c7 e3bc 39b1 00be c079 a8bd
000003c0: 4781 4d3d 62be 933d 6c50 04be 0c15 abbc
000003d0: 455a 173a e588 04be f10e 48be e4fc 133e
000003e0: 9e40 6abd 8465 543e a37d 0ebe d3ba 923c
000003f0: 73bf e73c d9c3 dc3d caae 5dbb 2563 c53d
0.0044770646 0.053069074 -0.26061457 -1.1127528 0.8031681 -1.4272913 -0.119701475 -0.22178726
0.57499105 -0.6140774 0.78466445 0.6141473 -0.1366489 0.5743835 0.77152914 1.3012564
0.22117634 0.12834485 0.22622578 -0.43633372 -0.6537484 -0.54025316 2.6691122 -2.0414782
0.046624023 0.21590325 0.7142307 1.0368165 0.76579654 -1.4090755 1.3425578 0.32552835
0.21892934 0.21284597 -0.11748871 -0.05394537 0.30829874 -0.27165505 0.2394107 -0.21746212
0.22330095 -0.29280275 -0.2557369 0.3018317 -0.32190531 0.0703646 0.026405029 0.075471364
0.12637894 0.37725723 -0.2659107 -0.2368181 -0.10085103 -0.49471542 0.18953085 0.20698489
0.33747792 0.07227442 0.2325488 -0.12805992 0.24254787 -1.0940952 0.1307575 0.3735423
0.1556247 0.14954314 -0.21142139 0.11730002 0.23306227 -0.026857097 0.12028131 -0.13903269
-0.046636473 0.10257067 -0.26650462 -0.007336256 0.02546278 0.18058938 -0.09273964 1.05344
0.27356786 0.20154278 0.04892173 -0.12958916 -0.119316585 -0.5545595 0.30380252 -0.034060217
0.23608997 -0.11686179 0.022391362 0.050263338 0.7743456 -0.6331979 -0.12553346 0.18049301
0.2980087 0.18120928 -0.037549265 0.006412628 0.14458056 -0.060327973 0.17167968 -0.066029236
0.09321202 0.1254784 -0.25265223 0.03343652 -0.008836278 -0.056316864 0.030034738 -0.31894553
-0.04447044 0.08852613 -0.04177672 -0.07966877 -0.14732607 -0.27801207 -1.2094028 0.4586235
0.06056661 0.10871567 0.21634361 0.1161522 0.16652986 0.7736954 -0.3377961 0.13566801
0.18570036 0.16044271 0.18630032 -0.0767964 0.36899474 -0.3149895 0.18126163 -0.11590286
0.3740848 -0.18078871 0.16409007 0.11761038 -0.115539044 0.19270527 0.24694127 -0.16262798
0.005963448 0.2636845 -0.27384517 -0.32623428 -0.17916377 -0.1556382 -0.21082227 0.04517075
0.37500337 0.1362886 0.088883504 -0.42257285 -0.010967785 0.13523759 -0.16454189 0.14701824
0.123675585 -0.0381257 -0.025634691 -0.062410668 0.17611049 -0.119914465 0.059051644 -0.13206393
0.101615526 0.01833233 -0.023651494 0.05109614 0.11361975 0.1521791 0.14134498 -0.028795633
0.039497912 0.24360597 -0.06189946 -0.21782663 -0.17822324 -0.18997441 0.15978405 -0.14922011
0.06529837 -0.025755912 0.0647414 -0.27677894 0.07901282 0.07103919 -0.2601292 0.2048541
0.15454353 0.048384663 -0.18043125 -0.15425023 0.05994914 0.32212698 0.13918711 0.11782795
0.19617222 0.09520685 -0.042642698 -0.04704103 -0.12595773 0.029516092 -0.014018328 0.08272377
-0.0639794 0.0062080985 -0.14135258 0.00586721 -0.020939901 -0.33076483 0.09245316 -0.132328
0.15358892 0.06159739 0.09686342 0.1636249 -0.1300859 0.24581973 -0.14047357 0.097494185
0.07753202 0.037176177 -0.15279202 -0.29846022 -0.11841085 0.048564766 0.2813954 0.09249843
0.14039347 0.06637604 -0.06118699 -0.0014445505 0.12687579 -0.027805012 -0.12567605 -0.08226347
0.050172117 0.07214047 -0.12921304 -0.02088406 0.0005773644 -0.12942846 -0.1953695 0.14451939
-0.05719053 0.2074185 -0.13915114 0.01791135 0.028289532 0.107795425 -0.0033826106 0.09638051

decoder.lstm.bias_ih_l0 f4 [128]
00000000: 53dc b93c 33ce 583e 304f 783d fee9 6e3d
00000010: 945e 9f3e d439 6b3d 35be 213c 39b1 463d
00000020: 2fb7 c23d 94a7 b33d ddf1 debd e85b 663d
00000030: 9794 eb3d 1c6e a53d f357 833e 4cd8 eebc
00000040: b2b6 91bd 5c7e d13e 69df cf3e c4aa 24bd
00000050: 01a2 a73e af0f 083d 0e00 9c3e ba75 363e
00000060: 0ff4 b83e 10d9 cebd c440 a73d 0fc2 033f
00000070: 24d6 cdbc babc 15bd 8900 7a3d 272b 833c
00000080: 5361 9c3d f7d3 0e3e 7fb6 58bd 5b56 7cbd
00000090: 7109 af3d a974 0e3e f25f ce3d 33e7 c2bc
000000a0: bf08 89bd 0cad 56bd 4818 a73c cb5f 95bd
000000b0: c533 b8bc 2cdf 083d 2746 713d 4500 15be
000000c0: 6e1e 11bd 1b9d 9e3d cf9f e23b f2b9 393e
000000d0: 8bae ab3e bb03 ce3c 8565 66bd c4d7 e2bc
000000e0: 3a90 fd3d 0d29 76bd ddaa 493e db5f 973d
000000f0: 4ca2 aa3b b3cc 77bd c17e ce3d 1717 333e
00000100: cace 5a3e fbd8 673e f0c2 09be 7514 1bbb
00000110: 19f7 813d 8365 e1bd 445b d93c 24e2 dd3b
00000120: f76f 913d 8276 1abe 4010 0d3d 8876 b43d
00000130: 8e16 923c a768 b63d 4db3 93bc a288 653d
00000140: c055 8f3d 7647 283e ce3e c7bd 58b3 1ebe
00000150: 1417 59be d263 10be d849 0f3e b69f 34bd
00000160: b95b b0bd 07b3 80bd f6d7 aa3d 7da3 253d
00000170: ea36 91bd 2dca 17bc 6bae 2abe faef e63d
00000180: 1f46 343e 147c 3a3e 100a fe3d 2fc8 dd3d
00000190: f5e7 c73d 832d 133b 8035 2d3e f70d b73d
000001a0: 2f7d 893d 5ba4 ff3c 9af7 033e 4007 40bd
000001b0: 8471 a63d b03a d8bc f7ec 033c 8e04 5c3e
000001c0: 0bcf bfbc 59d2 353d aac4 a53e 1ce5 9fbd
000001d0: 622a 443d e439 4e3d 0194 563c d8ab 8d3d
000001e0: d44c 4a3d c8d3 d73d f74d 783d 318b ac3e
000001f0: eac6 92bc 3021 483e 5aeb 17be b985 c03d
0.022688067 0.21172409 0.060622394 0.05832862 0.31126845 0.057428196 0.009872009 0.048508856
0.09507596 0.08772197 -0.108859755 0.056239992 0.11502951 0.08077642 0.25653037 -0.029155873
-0.071149245 0.40916717 0.40600136 -0.040201917 0.32740787 0.033218082 0.30468792 0.17818347
0.36123702 -0.10099995 0.0816665 0.51467985 -0.025126524 -0.036556937 0.061035667 0.016011788
0.076357506 0.13948046 -0.052908417 -0.061605792 0.08546723 0.1391169 0.10076894 -0.023791885
-0.06691121 -0.052411124 0.02039732 -0.07293662 -0.022485623 0.03341596 0.058904793 -0.14550884
-0.03542941 0.07744809 0.0069160233 0.18137339 0.33531603 0.025148263 -0.05624916 -0.027690776
0.12381025 -0.060097743 0.19694085 0.0739133 0.0052073356 -0.06049795 0.1008277 0.17489277
0.21367946 0.22641365 -0.13453269 -0.0023663316 0.06345958 -0.1100569 0.026532777 0.006771343
0.07101434 -0.1508427 0.034439325 0.088116705 0.01783302 0.089066796 -0.018029833 0.056038506
0.069987774 0.1643351 -0.09728776 -0.15498102 -0.2120021 -0.14100578 0.13993013 -0.044097625
-0.08611245 -0.06284147 0.083419725 0.040439118 -0.07090552 -0.009264511 -0.16668098 0.11276241
0.17604874 0.18211395 0.12404263 0.108291976 0.09761039 0.0022457547 0.1691494 0.089382105
0.0671333 0.0312063 0.12887421 -0.046881914 0.0812712 -0.026395172 0.008052102 0.21486112
-0.023414155 0.044390056 0.32376605 -0.07807371 0.047891982 0.050348178 0.01309681 0.06917542
0.049389675 0.10538441 0.060621228 0.33699945 -0.017917115 0.1954391 -0.14835873 0.094005056

decoder.lstm.bias_hh_l0 f4 [128]
00000000: c90b 873e be68 d73d 0887 ac3d c507 843d
00000010: 0d44 d63e ac58 803e 02be b4bd 179f c13d
00000020: 9c59 53bb b2f3 223e 33f2 8b3d 80e6 89bc
00000030: ad39 ba3d fcc4 c23d f0d5 613e b486 02bd
00000040: 2aa9 043e 7f49 953e cc4e a63e f01b 4d3e
00000050: 40da 2b3e 91fd 173e 1c03 dd3e 3339 4b3e
00000060: 1e09 a53e 7b32 3fbe ea70 f43d 7c79 ed3e
00000070: 2fef babd df82 19bc 7efc 8c3d 1519 a83d
00000080: a55d e13d 0ad7 2a3e 8368 d33d ff5a 0fbe
00000090: c21d c53d 1005 153e b1f5 9fbc 1467 ccbd
000000a0: a6cc 1bbe 8c25 133e c057 37bc 950f 423d
000000b0: 37ea 97be 22b6 bdbd 743b 993d b72f 32be
000000c0: d241 debd 8c49 073e 6390 90bd 2cb1 113e
000000d0: 5903 233e 80ce 433e eb3b 89be 8eb0 74bc
000000e0: f207 37bd 6f50 8a3c f59f 32bc cef9 5abe
000000f0: 5990 f03d 610f 063d f887 fb3d dc2c 83bd
00000100: 1a16 803e db47 e53c d53f 92bc 02c7 433e
00000110: e262 2a3e 452e 90bd 3cdb ed3d 03cc adbd
00000120: 9f23 29bc 47db 443d bda3 a13d 39a9 723d
00000130: 19fb c63d 3cef 63bd 7663 023e cdeb 14bb
00000140: bd48 c93d 4d01 c7bc 298e 12be 8a09 e5bd
00000150: e6e4 bfbd 3ac3 b63d 4027 a83d 141f c9bc
00000160: 8e46 5abd b62b bd3d 6319 0e3d cb27 443d
00000170: 3c5e 7e3d bda5 28be 75ef 56bd c68e 0e3e
00000180: d418 c53d cf82 443e 9d48 4f3e 2fc8 023d
00000190: 3b33 833e 0f08 133e b518 613e 93d3 e73c
000001a0: 29f3 7b3d 6d57 383e 2b5d 303e cb51 2c3e
000001b0: b8bb 593e 24d5 37bd d71d 683d 4a66 dd3d
000001c0: e300 133e 9cca 013e a834 823e 8e8e d0bc
000001d0: fe5e acbc 9a75 2e3e 6c45 3b3d 7dd7 a43d
000001e0: bd10 6c3e fa3e 3a3d 1733 21be 4c97 9d3e
000001f0: f2b2 1dbd 420f 6d3d e4a7 3b3a 94d0 afbc
0.2637618 0.10518025 0.08424193 0.064467944 0.41848794 0.2506765 -0.088253036 0.09454172
-0.0032249456 0.15913275 0.06833305 -0.016833544 0.09093032 0.09510228 0.22054267 -0.031866744
0.12955156 0.29157636 0.32481992 0.20030189 0.16782475 0.14842822 0.43166435 0.19846039
0.32233518 -0.186716 0.11935599 0.46381748 -0.09127652 -0.009369581 0.068840966 0.08207909
0.110041894 0.16683593 0.103226684 -0.13999556 0.096248165 0.14552712 -0.019526334 -0.09980598
-0.15214786 0.14369792 -0.011190355 0.04737814 -0.2967088 -0.09263255 0.07482043 -0.17401014
-0.10852398 0.1321165 -0.070587896 0.14227742 0.15919246 0.19121742 -0.26803526 -0.014934672
-0.04468531 0.016884057 -0.010902395 -0.21384355 0.11746282 0.03272951 0.12281793 -0.064050406
0.25016862 0.027988365 -0.017852703 0.19118884 0.16639283 -0.07040075 0.11614081 -0.08486178
-0.010323434 0.04806068 0.07892559 0.059243415 0.09715862 -0.055648074 0.12733254 -0.0022723556
0.09828327 -0.024292612 -0.14312042 -0.1118346 -0.09369831 0.08923955 0.08210611 -0.024550952
-0.053289942 0.09236853 0.03469218 0.047889512 0.062101588 -0.16469474 -0.052474458 0.13921651
0.09623876 0.19190525 0.20242544 0.03192919 0.25625023 0.14358543 0.21982081 0.028299129
0.061511192 0.180021 0.17223041 0.16828077 0.21263015 -0.044881 0.056669082 0.10810526
0.14355807 0.12674946 0.254308 -0.0254586 -0.02104139 0.17037049 0.045720503 0.08048914
0.2305326 0.045470215 -0.15742145 0.30779493 -0.038500734 0.05787588 0.00071585015 -0.021461762

decoder.linear.weight f4 [1, 32]
00000000: 380b f0be 038e 1c3e eed3 28be 3778 a3bd
00000010: b6ca 0c3e 2b95 6d3b e541 1b3e 1043 e2bd
00000020: fa59 3fbd 3f63 01be 0284 0e3e fa5c 973d
00000030: ac8d 653d c6db fa3c 193a 993d 5589 a6be
00000040: 862f 263e d49c 203e 4f2f ffbd 3174 d7bd
00000050: 617b 343d 5534 19be c453 c2be 784e e83e
00000060: 53ed f4bb a21a 1f3e 2df9 043d a8b8 e3be
00000070: 69c6 0fbe 0a41 663e b431 803e 6532 963d
-0.4688356 0.15288548 -0.16487095 -0.079819135 0.13749203 0.003625224 0.15161856 -0.110479474
-0.046716668 -0.12635516 0.13917544 0.07390781 0.056043312 0.030622374 0.074817844 -0.3252665
0.16229066 0.15684825 -0.12460195 -0.105202086 0.044062976 -0.1496137 -0.37954533 0.45372367
-0.0074745803 0.15537503 0.032464195 -0.4447682 -0.14040531 0.22485748 0.2503792 0.07333831
