results/MSE_LSTM_enc_dec_output/365_model.pt (torch, 860225 bytes, 10 tensors)

output_zeros f4 [399, 512, 1]
00000000: 0000 0000 0000 0000 0000 0000 0000 0000
00000010: 0000 0000 0000 0000 0000 0000 0000 0000
00000020: 0000 0000 0000 0000 0000 0000 0000 0000
00000030: 0000 0000 0000 0000 0000 0000 0000 0000
00000040: 0000 0000 0000 0000 0000 0000 0000 0000
00000050: 0000 0000 0000 0000 0000 0000 0000 0000
00000060: 0000 0000 0000 0000 0000 0000 0000 0000
00000070: 0000 0000 0000 0000 0000 0000 0000 0000
00000080: 0000 0000 0000 0000 0000 0000 0000 0000
00000090: 0000 0000 0000 0000 0000 0000 0000 0000
000000a0: 0000 0000 0000 0000 0000 0000 0000 0000
000000b0: 0000 0000 0000 0000 0000 0000 0000 0000
000000c0: 0000 0000 0000 0000 0000 0000 0000 0000
000000d0: 0000 0000 0000 0000 0000 0000 0000 0000
000000e0: 0000 0000 0000 0000 0000 0000 0000 0000
000000f0: 0000 0000 0000 0000 0000 0000 0000 0000
00000100: 0000 0000 0000 0000 0000 0000 0000 0000
00000110: 0000 0000 0000 0000 0000 0000 0000 0000
00000120: 0000 0000 0000 0000 0000 0000 0000 0000
00000130: 0000 0000 0000 0000 0000 0000 0000 0000
00000140: 0000 0000 0000 0000 0000 0000 0000 0000
00000150: 0000 0000 0000 0000 0000 0000 0000 0000
00000160: 0000 0000 0000 0000 0000 0000 0000 0000
00000170: 0000 0000 0000 0000 0000 0000 0000 0000
00000180: 0000 0000 0000 0000 0000 0000 0000 0000
00000190: 0000 0000 0000 0000 0000 0000 0000 0000
000001a0: 0000 0000 0000 0000 0000 0000 0000 0000
000001b0: 0000 0000 0000 0000 0000 0000 0000 0000
000001c0: 0000 0000 0000 0000 0000 0000 0000 0000
000001d0: 0000 0000 0000 0000 0000 0000 0000 0000
000001e0: 0000 0000 0000 0000 0000 0000 0000 0000
000001f0: 0000 0000 0000 0000 0000 0000 0000 0000
00000200: 0000 0000 0000 0000 0000 0000 0000 0000
00000210: 0000 0000 0000 0000 0000 0000 0000 0000
00000220: 0000 0000 0000 0000 0000 0000 0000 0000
00000230: 0000 0000 0000 0000 0000 0000 0000 0000
00000240: 0000 0000 0000 0000 0000 0000 0000 0000
00000250: 0000 0000 0000 0000 0000 0000 0000 0000
00000260: 0000 0000 0000 0000 0000 0000 0000 0000
00000270: 0000 0000 0000 0000 0000 0000 0000 0000
00000280: 0000 0000 0000 0000 0000 0000 0000 0000
00000290: 0000 0000 0000 0000 0000 0000 0000 0000
000002a0: 0000 0000 0000 0000 0000 0000 0000 0000
000002b0: 0000 0000 0000 0000 0000 0000 0000 0000
000002c0: 0000 0000 0000 0000 0000 0000 0000 0000
000002d0: 0000 0000 0000 0000 0000 0000 0000 0000
000002e0: 0000 0000 0000 0000 0000 0000 0000 0000
000002f0: 0000 0000 0000 0000 0000 0000 0000 0000
00000300: 0000 0000 0000 0000 0000 0000 0000 0000
00000310: 0000 0000 0000 0000 0000 0000 0000 0000
00000320: 0000 0000 0000 0000 0000 0000 0000 0000
00000330: 0000 0000 0000 0000 0000 0000 0000 0000
00000340: 0000 0000 0000 0000 0000 0000 0000 0000
00000350: 0000 0000 0000 0000 0000 0000 0000 0000
00000360: 0000 0000 0000 0000 0000 0000 0000 0000
00000370: 0000 0000 0000 0000 0000 0000 0000 0000
00000380: 0000 0000 0000 0000 0000 0000 0000 0000
00000390: 0000 0000 0000 0000 0000 0000 0000 0000
000003a0: 0000 0000 0000 0000 0000 0000 0000 0000
000003b0: 0000 0000 0000 0000 0000 0000 0000 0000
000003c0: 0000 0000 0000 0000 0000 0000 0000 0000
000003d0: 0000 0000 0000 0000 0000 0000 0000 0000
000003e0: 0000 0000 0000 0000 0000 0000 0000 0000
000003f0: 0000 0000 0000 0000 0000 0000 0000 0000
0.0 0.0 0.0 0.0 0.0 0.0 0.0 0.0
0.0 0.0 0.0 0.0 0.0 0.0 0.0 0.0
0.0 0.0 0.0 0.0 0.0 0.0 0.0 0.0
0.0 0.0 0.0 0.0 0.0 0.0 0.0 0.0
0.0 0.0 0.0 0.0 0.0 0.0 0.0 0.0
0.0 0.0 0.0 0.0 0.0 0.0 0.0 0.0
0.0 0.0 0.0 0.0 0.0 0.0 0.0 0.0
0.0 0.0 0.0 0.0 0.0 0.0 0.0 0.0
0.0 0.0 0.0 0.0 0.0 0.0 0.0 0.0
0.0 0.0 0.0 0.0 0.0 0.0 0.0 0.0
0.0 0.0 0.0 0.0 0.0 0.0 0.0 0.0
0.0 0.0 0.0 0.0 0.0 0.0 0.0 0.0
0.0 0.0 0.0 0.0 0.0 0.0 0.0 0.0
0.0 0.0 0.0 0.0 0.0 0.0 0.0 0.0
0.0 0.0 0.0 0.0 0.0 0.0 0.0 0.0
0.0 0.0 0.0 0.0 0.0 0.0 0.0 0.0
0.0 0.0 0.0 0.0 0.0 0.0 0.0 0.0
0.0 0.0 0.0 0.0 0.0 0.0 0.0 0.0
0.0 0.0 0.0 0.0 0.0 0.0 0.0 0.0
0.0 0.0 0.0 0.0 0.0 0.0 0.0 0.0
0.0 0.0 0.0 0.0 0.0 0.0 0.0 0.0
0.0 0.0 0.0 0.0 0.0 0.0 0.0 0.0
0.0 0.0 0.0 0.0 0.0 0.0 0.0 0.0
0.0 0.0 0.0 0.0 0.0 0.0 0.0 0.0
0.0 0.0 0.0 0.0 0.0 0.0 0.0 0.0
0.0 0.0 0.0 0.0 0.0 0.0 0.0 0.0
0.0 0.0 0.0 0.0 0.0 0.0 0.0 0.0
0.0 0.0 0.0 0.0 0.0 0.0 0.0 0.0
0.0 0.0 0.0 0.0 0.0 0.0 0.0 0.0
0.0 0.0 0.0 0.0 0.0 0.0 0.0 0.0
0.0 0.0 0.0 0.0 0.0 0.0 0.0 0.0
0.0 0.0 0.0 0.0 0.0 0.0 0.0 0.0

encoder.lstm.weight_ih_l0 f4 [128, 4]
00000000: 3610 38bc f1ee 61bf d582 853f dbc6 3a3e
00000010: 5fa6 b73f fcc0 753f e7c3 aa3f 23ca ddbe
00000020: 5037 923e f7fc c9be a938 22be 965e 6d3f
00000030: d110 963f cbda 203f 1b3d 03bf c0c5 f4bd
00000040: 25af 963e 6eaf 39bc 081c 343e 185f 273f
00000050: fb5d d73e 1dc8 8b3f 8c98 c43e 93e0 5cbe
00000060: 109d 71bf 1eba 533f 9616 a73d 0004 8d3e
00000070: 2eed 45bf 4d17 133e 2dd9 c9be ea00 c63d
00000080: 7890 b2bc c900 ac3e 2992 d3bd bbc0 a03d
00000090: 59f5 f8bc a0ee 9d3f 945b 353e 9ad0 aebe
000000a0: 1d45 603f d2e1 ca3c 197b ef3e 886e f03d
000000b0: bda4 5c3f c171 683f d332 18be 19e9 fc3e
000000c0: 458a 32be 90c9 5d3f 4132 243e 2191 47bf
000000d0: 98e7 6f3f 1039 66bf 1928 6d3e 9f01 ea3d
000000e0: 46ad 863e f0c1 453f 6f97 a53d c9fa 2b3e
000000f0: ac4e 2ebe ec87 463f 6584 a03e 80bf 0f3f
00000100: ed3a 3d3f 5678 7f3f 7d89 c43e ec7d a6be
00000110: 4ad9 3b3e 5af6 853e e346 0fbe 5dfc 6b3f
00000120: 86a1 3a3f 59bf 08bf 2420 b83e d4d5 f6be
00000130: a729 bc3e 0368 72bd a0bb 95be de85 d6be
00000140: 402e c13c e0a0 39be f81e 0b3f 7305 d13f
00000150: 40c7 943f 1651 0b40 2734 d63f d9f2 d9bd
00000160: 48ee 683e 32d4 cd3e 2383 8b3e f151 07be
00000170: 4e2a f13e 256d 2a3f e142 52be 27ed cebe
00000180: eb01 8d3f f17c 293f c8ec cc3e 441a 0a3f
00000190: c28c 95be cfb8 b5be 1d3d 48bf 0840 de3b
000001a0: 8506 2b3f e515 983f f42d fa3e 4c92 303f
000001b0: 4245 5f3f 77cb 0a3f c21d b03e 7fe4 033f
000001c0: 9f96 44be 9f9f 443f 348a 60bd a790 663f
000001d0: ae86 183f 807b 753f a1c7 edbd d779 b43e
000001e0: b630 debe e26e 2f3f 273f 073e 70c7 a53f
000001f0: d398 6d3f 3b27 753f c7f0 83be e10d ecbe
00000200: bc02 3dbf e183 cbbe afe9 c93f 287a a63c
00000210: b978 55be ff94 743f 298d ac3e b265 2340
00000220: 4f48 01bf d178 783e 1dcc 573e 6e4b 1a3f
00000230: 11e2 823f 30b2 ce3e 0a20 a23f ab50 3b3f
00000240: ef6f 883f 55b8 6d3e 34bf eb3e 239e a5be
00000250: d20b 673f ef0b 573e 2eae 453f 2a26 79be
00000260: d55e aabc fdb7 cd3f 14b1 013f 8906 ad3e
00000270: 1cd9 2e3b 5543 8abe ba5c 0dbe 7b82 af3d
00000280: aa35 3fbe d327 a7be 1690 9abe 953f 2f3e
00000290: 33e0 62be 96d9 b03f e4f4 153f 187d 54be
000002a0: b979 4dbf 7879 eabe 8032 15be 9940 41be
000002b0: 2356 253f a46c 713f 2963 613f 6d36 93bf
000002c0: 51d1 0a3f 4ee7 ecbe 2966 0b3f 7649 0a3f
000002d0: 324c 6dbf cafc d83d 1437 05bf b742 b93e
000002e0: 8353 813e f0a3 1a3e 1001 83bf 298a 99be
000002f0: 3b4b ba3e 90a9 063f 58ce 91bf f7c0 9cbc
00000300: 1508 033f d645 8f3e ea2b 7cbe 49f6 55be
00000310: 94c3 babd 3e6f be3e 74d8 39bf 517a 013f
00000320: d5e4 7cbe f5fd 733f add7 25bf b42d 22bf
00000330: 59a0 c03e 7880 b0be e045 6ebe 7c63 84bf
00000340: 41c8 913e aa18 613f 7df5 413f 2419 2e3d
00000350: 3db4 cb3f c8eb 0d40 b43e 1640 723b a73e
00000360: f81b b83e ebbd d1bd 6ce3 20bd 879f 51be
00000370: b739 c1bd a4dd 5b3e 30ab 2abe a4b2 bc3d
00000380: 2169 2c3b 92da 403e d1fb a4be 096a 41bf
00000390: 7698 97be ca1c 01bf b8a4 883d 899d c7be
000003a0: a208 b4be 2765 1c3f 29ff 763e 2ea2 d4be
000003b0: f9e8 6cbe 0bfd 0b3b cb3a f1be 97ad 043e
000003c0: 061c 84bd c310 b9bd 614c 9b3e c622 0f3e
000003d0: 6639 d23e ae02 513f d5b3 0bbf 81ef e83e
000003e0: 5c72 8e3e 2cf6 0ebe 1fd6 1ebf b855 c23e
000003f0: e2fc 603f 7161 46be 097b 01bf 4be5 f3be
-0.011234334 -0.8825522 1.0430552 0.1823992 1.4347647 0.95997596 1.3341035 -0.4331828
0.28557825 -0.3945081 -0.15841927 0.9272245 1.1723882 0.6283385 -0.51265115 -0.1195178
0.294305 -0.01133333 0.17588818 0.65379477 0.4206389 1.0920445 0.38397634 -0.21570043
-0.94380283 0.8270587 0.08158605 0.27542114 -0.7731503 0.14364357 -0.39423504 0.09668143
-0.021797404 0.3359435 -0.10330612 0.078492604 -0.030390428 1.2338448 0.17710716 -0.34143525
0.8760546 0.024765883 0.46773604 0.11739832 0.8618887 0.90798575 -0.14863138 0.4939659
-0.17435558 0.86635685 0.16034795 -0.77955824 0.9371276 -0.8993082 0.23159827 0.114260904
0.26304072 0.7724905 0.08085524 0.16794886 -0.17022198 0.7755115 0.3135101 0.5615158
0.7391804 0.99792993 0.38386145 -0.32517946 0.18344608 0.26164514 -0.13991885 0.9218195
0.72902715 -0.53416973 0.3596202 -0.48210013 0.36750528 -0.059181225 -0.2924471 -0.41899008
0.023581624 -0.18127775 0.5434413 1.6329788 1.1623306 2.176824 1.6734666 -0.10642023
0.22747147 0.40200955 0.27248487 -0.13214852 0.47102588 0.6657279 -0.20533325 -0.40415308
1.101621 0.6620627 0.400244 0.5394633 -0.29208952 -0.3549256 -0.7821825 0.0067825355
0.66806823 1.1881682 0.48863184 0.6897323 0.87215054 0.5421671 0.34397703 0.5152053
-0.19198082 0.7680606 -0.0548193 0.9006447 0.59580505 0.9589157 -0.11610342 0.35249206
-0.43396538 0.6852857 0.13207684 1.2951488 0.92811316 0.95762986 -0.25769636 -0.4610434
-0.738323 -0.39749053 1.577444 0.02032192 -0.20846833 0.9553985 0.33701447 2.553082
-0.5050096 0.24264838 0.21073957 0.60271347 1.022524 0.4037032 1.2666028 0.73169965
1.065916 0.23214848 0.46044314 -0.3234721 0.9025241 0.21000646 0.772189 -0.24330965
-0.020797173 1.6071774 0.50660825 0.33794048 0.00266797 -0.27004495 -0.13804904 0.08569809
-0.18672815 -0.3264757 -0.30188054 0.17114098 -0.22155838 1.3816402 0.585768 -0.20750844
-0.8026386 -0.45795798 -0.14570045 -0.18872298 0.6458456 0.943064 0.8804193 -1.1500984
0.5422564 -0.4627022 0.5445276 0.5401834 -0.9269439 0.10595091 -0.5203717 0.36183712
0.25259027 0.151016 -1.0234699 -0.2998822 0.3638552 0.5260248 -1.1391096 -0.019134982
0.5118421 0.27982968 -0.24626127 -0.20894732 -0.09119335 0.37194246 -0.72595906 0.50577265
-0.24696667 0.9530938 -0.6478222 -0.6335099 0.37622336 -0.34473014 -0.23268843 -1.034286
0.28473094 0.8792826 0.7576521 0.042504445 1.5914379 2.217516 2.347577 0.3266254
0.35958838 -0.10241302 -0.039279386 -0.20471011 -0.09434836 0.21471268 -0.16666865 0.092137605
0.002630778 0.18833378 -0.3222337 -0.7555242 -0.29608506 -0.50434554 0.066720426 -0.38987377
-0.35162836 0.61091846 0.24120773 -0.41529983 -0.23135747 0.0021360542 -0.47115168 0.12956844
-0.064506575 -0.090364 0.3033171 0.13978109 0.41059417 0.81644714 -0.54571277 0.45495227
0.27821624 -0.13961095 -0.6204547 0.37956023 0.8788587 -0.19373108 -0.5057836 -0.47635874

encoder.lstm.weight_hh_l0 f4 [128, 32]
00000000: 7ca4 503f 2e1b f8be 322f 2d3f d3fd 5ebe
00000010: 1ca1 b43c 24aa dfbe 7774 1bbf 4bf2 f33d
00000020: 0ee6 d13e 386e 23be 5d6e 8c3c b63f 693e
00000030: 71ff ebbd 2b49 cebe 64b7 79bd 04f5 e43e
00000040: 2151 743d 1321 b43e 7eba 71be 2f28 07bf
00000050: 1c14 183f 6a7b 963d 70d5 043f 88a9 3bbe
00000060: 1e44 43be 35b5 933d 3b90 823f a346 933d
00000070: c897 cc3f 31d6 fd3e 70ed 5ebf 8ce5 5f3f
00000080: 90c8 f0be 3523 b93e 86aa d0be dd47 cd3e
00000090: ce54 f63e fb69 4abe 2974 df3e 0aa2 70bf
000000a0: 8552 fdbe 3c73 1e3e ce24 2c3f 4cd5 a13e
000000b0: 8adc 8f3e 361f 993e edcb c6be ae0d f43c
000000c0: 8baf cbbe f543 61be b5ea 1e3e 0bb6 823e
000000d0: 8660 0a3f 26f4 d6be 9a76 4fbf 6139 093f
000000e0: 7169 873e b1ec 9abe f44a 8cbf 3c48 81bd
000000f0: 2423 8fbf 649c 76be 5040 243f 0e8c 33bf
00000100: a48f b63c 1479 323e da69 27bf 4197 f9be
00000110: 9529 413e 844e 5c3e 20de fcbe 3947 c13d
00000120: 087a 3d3f 3141 b7be 7678 f2be a3ea 28bc
00000130: b630 94be e329 78be ebdc a23e a830 9cbe
00000140: 024f 093f 6277 163f 1574 91be 7462 933d
00000150: aac6 87be 7d10 3d3e 78e5 9e3e 8609 c3bc
00000160: 4f8b 2b3f 9420 9fbc ba32 15bf d1ce c93d
00000170: 0bd2 173e 9f50 953f 70e9 7f3d 1bde 783e
00000180: fa8d f03e 558c 003e 0748 d6bd e1e2 1cbe
00000190: c1a1 3b3e 16f1 e5bd 9f6f 2ebe 45f6 c03d
000001a0: 49d7 3a3e 0a01 e23d 2b75 40bd 1649 9b3d
000001b0: ae4c 8a3a 9417 283d 3dfb 323e 16ae 16be
000001c0: 6fff bdbc c452 933e 45fd 2b3e 0731 c0bd
000001d0: 8029 4cbe 45ba 423d 8ac2 3c3e debf febd
000001e0: 7a98 cc3e 30f6 eb3e fdb9 c33d e6fe c53d
000001f0: 15a5 ee3c 2451 3f3d 92cb 74bd da93 553d
00000200: ee8e cb3e 96bc a83c fbad 823d b993 92bd
00000210: 0dc8 233e 237f 02bd 3650 5b3f 5cf2 79be
00000220: 06fd 11be 3406 703d f435 5a3f ae3c 3fbf
00000230: 8ab0 0f3d 2973 bf3d 64dc 343e 2142 d63d
00000240: 4065 20be 13f7 503e 3ed8 ff3e 32b7 b9bd
00000250: 95c6 863d 357e fcbe b8ff 6fbd d483 dc3e
00000260: 45b6 ea3e afed aa3c 2341 ecbd 241e 47bc
00000270: 3ed6 a83e cfe9 74bc bef0 1e3e 32fb d83c
00000280: d7c1 9a3e a8b1 943e 20e4 e3bd ece5 713e
00000290: f808 c7be e4bc 9fbe f6ba b63e debe febd
000002a0: 1a20 36bd 7a10 1f3f f357 8bbb 0f6d 8cbf
000002b0: d997 fa3e c5d4 b4bd 7e37 b43c db91 fc3d
000002c0: 3bb0 e83d c9d2 b4bd ff46 38be 3d5b 96be
000002d0: 3dac f0bd e0e5 7fbd 92bd 273e e060 053f
000002e0: 1e3a bbbe 26e6 26be 5e8e 86be 14b0 cebe
000002f0: f34f 2e3e 0c27 303f 7052 dc3e 4a8d 583e
00000300: d379 513e 9e15 843e be59 c2bd b947 9dbd
00000310: 630c e73e 07a1 183f f2af f83d c5d5 53be
00000320: 83b5 7a3d 31f1 fcbd bfd1 ed3e 8934 90be
00000330: 512a d3bb 7ab0 943e 90c8 7ebd 8441 9abd
00000340: bdbf b13d c689 ba3d 13af 15bd 4f6d dc3b
00000350: 50e4 01be 8c2d 8c3e df3c 233e fef3 143f
00000360: bfe4 d33e 077e 9a3e bcd0 e7bc 0f08 9bbc
00000370: 60a1 0c3f 544d a8be 4912 97be b145 b3be
00000380: 1eeb e53c 2d22 52be 97d8 84bc 2189 273e
00000390: c8f4 b73e 5284 9cbe 8845 2d3e 9738 adbe
000003a0: 9aa7 f1bb 9f5e 8e3e f1b8 ca3e 369a 7abd
000003b0: b1d0 7a3d 634c 4dbe 1c82 c33c 089c c5be
000003c0: b775 75be 9940 4fbf 0e19 b5bd 0d77 e43d
000003d0: 7362 0a3f a771 63be 15b6 25be fe09 2f3e
000003e0: eda8 cabe a593 2dbd e8d0 b23e 481d bfbe
000003f0: 7767 54be 7df9 433e ae6a 9cbe 0d66 0b3e
0.81500983 -0.48458236 0.6765014 -0.21776514 0.02204948 -0.43684494 -0.60724586 0.11911448
0.4099583 -0.15960014 0.017142469 0.2277821 -0.11523331 -0.40290198 -0.06096591 0.44718182
0.059647683 0.35181484 -0.23606297 -0.5279569 0.59405684 0.07347758 0.5188818 -0.1832639
-0.19068953 0.07212297 1.0200266 0.07191207 1.598382 0.49577478 -0.8708105 0.87459636
-0.47028017 0.36159673 -0.407551 0.4009389 0.48111576 -0.19766991 0.4364331 -0.9399725
-0.4947702 0.15473646 0.6724366 0.31608045 0.28097945 0.29906625 -0.38827458 0.02979168
-0.39782366 -0.2199858 0.15519221 0.25529513 0.54053533 -0.41983145 -0.81040347 0.5360318
0.26447633 -0.30258706 -1.0960374 -0.06312606 -1.1182599 -0.24083096 0.64160633 -0.7013558
0.02228529 0.17429 -0.6539589 -0.4874821 0.18863519 0.21514326 -0.49388218 0.09437413
0.7401433 -0.35791925 -0.4735753 -0.010309848 -0.28943413 -0.24234729 0.31809172 -0.30505872
0.5363618 0.58775914 -0.28408876 0.07196513 -0.26518756 0.18463321 0.31034446 -0.023808252
0.67009443 -0.019424714 -0.5828053 0.098539 0.14826219 1.1665229 0.062478483 0.24303477
0.4698332 0.12553532 -0.10462957 -0.15320922 0.18323423 -0.11227624 -0.17034768 0.09421972
0.18246187 0.110353544 -0.04698674 0.075822994 0.0010551417 0.04103811 0.17478652 -0.14714846
-0.02319309 0.28774083 0.16795833 -0.09384351 -0.19937706 0.04754092 0.18433586 -0.124389395
0.3996008 0.46086264 0.09556959 0.09667759 0.029131452 0.04670824 -0.059764452 0.052142955
0.39757484 0.020597737 0.063808404 -0.07157082 0.15994282 -0.03185953 0.8566927 -0.24408859
-0.14256677 0.058599666 0.85238576 -0.74701965 0.03508047 0.09348137 0.17662197 0.10461832
-0.15663624 0.20406751 0.49969667 -0.09068145 0.06580845 -0.49315038 -0.05859348 0.43069327
0.45842186 0.02086529 -0.11535861 -0.012153182 0.32975954 -0.014948322 0.15521523 0.026486967
0.30226013 0.2904179 -0.11127496 0.23622864 -0.3887403 -0.311988 0.35689515 -0.12438749
-0.04446421 0.62134516 -0.0042524277 -1.0970782 0.48943976 -0.08829645 0.021999117 0.12332507
0.11361738 -0.088292666 -0.17995833 -0.29366484 -0.11751602 -0.062475085 0.16380909 0.52100945
-0.36567777 -0.16298732 -0.26280493 -0.40368712 0.17022686 0.6880958 0.43031645 0.21147648
0.20456629 0.25797743 -0.09489773 -0.07679696 0.45126638 0.5962071 0.12142934 -0.20687015
0.06120826 -0.12350691 0.46449086 -0.2816508 -0.0064442535 0.2904089 -0.06220299 -0.07532027
0.08679149 0.091083094 -0.036543917 0.006726898 -0.1268475 0.273785 0.15941189 0.581848
0.41385457 0.30174276 -0.028297774 -0.018924741 0.5493374 -0.32871497 -0.29506138 -0.35014108
0.028066214 -0.2052085 -0.01621656 0.16360904 0.3592894 -0.30569702 0.16921055 -0.33832237
-0.007374716 0.27806565 0.39594224 -0.061182223 0.06123418 -0.2004867 0.023865752 -0.38595605
-0.23970686 -0.80957943 -0.088426694 0.1115552 0.5405647 -0.22211324 -0.1618274 0.17093655
-0.39582005 -0.042377133 0.34925008 -0.37327027 -0.20742594 0.19138141 -0.3055014 0.13613148

encoder.lstm.bias_ih_l0 f4 [128]
00000000: e185 4cbe 96c9 aebe d011 3d3e 5927 983e
00000010: 62fd 4c3d 4531 013e 1f73 383e 0163 b5bd
00000020: e88b b03e c839 f4bd e1ab 033f 8416 8a3d
00000030: 6c68 3bbe bb27 0f3e c07e a73e 9381 2d3d
00000040: c29c fabd 0012 413b 0a27 ab3e 47fd 4fbe
00000050: a634 743e 77e2 37be 6b60 413c cd25 61be
00000060: ff51 223e 0c95 b1bc 509a 42bb 1235 be3e
00000070: fcd3 e93e 8dde 5b3d 5683 27bd 8876 0f3e
00000080: 8921 8cbe 91d5 003f f3f0 1a3e 466b a63d
00000090: 9b34 c33d c210 5d3e db2d 393e f591 9fbd
000000a0: 308a ab3e 4456 76bd 9ec1 7d3d ddad aa3d
000000b0: 623d 223e 5616 693b 4d5b 513d ff3e 853d
000000c0: f322 7cbd 5dea da3d b8ca 633e 2795 be3d
000000d0: 81a5 873e 1a0e e8bd 5ed2 463d 21e9 59be
000000e0: 90c8 aebc 8875 1f3f 03e7 c9bd 9451 19be
000000f0: b6b0 a6bd e072 db3d 9fc5 fc3d e91d 993d
00000100: 2443 2a3e 23b7 f83d 8c13 bb3b 03df a0be
00000110: 0a56 f7bd c006 143e a1c7 a0bd c8c0 213d
00000120: 9df2 633d c783 b4bc 5b42 97bd 22fc 5d3d
00000130: 32de 4abe cc84 1bbe bcb8 8e3c 125e 293c
00000140: c396 883d 97ee 393e deb0 d93d 027a 3e3e
00000150: 9a9d adbd 11f4 19be d8bf 483d 6c85 4cbe
00000160: 5f46 33bd b1f0 e13d a6ab b1bd 5b16 89bd
00000170: 65c6 3a3e db35 1d3e f797 0c3e 9fdf 17be
00000180: a565 573d cb04 f03d 02db c43d 9122 103e
00000190: 0ec5 1e3f c858 e73e 077d 683e ddfa bb3d
000001a0: 6016 4dbe e1b4 e03d 9be3 cd3e 9aa1 8d3e
000001b0: 1793 8fbe f293 313f 0c8f c33d 76b0 0b3e
000001c0: f047 c4bd f01e 153d 394d fbbd d25a 2fbe
000001d0: b6bc 9abe 6d3f fc3d 7352 123e 702e adbd
000001e0: a655 e63e f51a 9ebd 217d 313e c49b 97bb
000001f0: 6238 d33e 40c7 163e a826 ab3e f7d8 8ebb
-0.19972946 -0.34138173 0.18463826 0.2971752 0.050046332 0.12616451 0.18012665 -0.08856774
0.3448174 -0.119250834 0.5143414 0.06742576 -0.18301553 0.1398 0.3271389 0.0423599
-0.122369304 0.0029460192 0.33428222 -0.20311461 0.23848209 -0.17957483 0.011802773 -0.21987076
0.15851592 -0.021677516 -0.0029694028 0.37149864 0.45669544 0.053679038 -0.040896736 0.1401006
-0.27369335 0.50325876 0.15130977 0.081259295 0.09531518 0.21588424 0.18083899 -0.07791511
0.33503866 -0.060140863 0.061952226 0.08333943 0.15843728 0.0035566292 0.05111246 0.06506156
-0.061556768 0.106892325 0.222453 0.09305792 0.26493457 -0.11330815 0.048540466 -0.21280338
-0.02133587 0.62288713 -0.09858515 -0.14972526 -0.08139174 0.1071527 0.12342381 0.07476408
0.16627175 0.121443056 0.0057091173 -0.31420144 -0.120769575 0.144557 -0.07850576 0.03949049
0.055651296 -0.022035493 -0.07385703 0.05419553 -0.19811323 -0.15187377 0.017422073 0.0103373695
0.066693805 0.18157421 0.10629438 0.1860123 -0.08477326 -0.1503451 0.04901108 -0.19972771
-0.043768283 0.11032236 -0.086753175 -0.06693717 0.18239744 0.15352575 0.13729845 -0.14831398
0.05258717 0.11719664 0.09612085 0.14075686 0.6201943 0.45184922 0.22703944 0.09178708
-0.20028067 0.10972 0.40212712 0.27662355 -0.28041908 0.6936637 0.095487684 0.13641533
-0.095840335 0.036406457 -0.122705884 -0.17124489 -0.302221 0.12316785 0.14289264 -0.08456123
0.4498722 -0.077199854 0.17332889 -0.004626723 0.41253954 0.14724445 0.3342793 -0.0043593603

encoder.lstm.bias_hh_l0 f4 [128]
00000000: ff0b 4dbe 0c78 9bbe f16c 183e c128 943e
00000010: a1dc 763c 58d7 fc3d b267 043e ffc4 0cbe
00000020: c9d7 c23e a1a7 0bbe 866c f13e 3734 b23d
00000030: 4a0f c8bd b609 383e c090 ae3e 583a 483d
00000040: 4e73 fbbd cfc4 873d 6ae4 963e 6c5b 6dbe
00000050: a61e 9a3e 18ac 20be 7bba 193d 335d 80be
00000060: cf4b 543e 55e8 38bc e64a 70bd 1f5d ca3e
00000070: 9d3e e23e 3330 8cbc 3f64 d6bd 9d44 013e
00000080: 83f7 68be 24b8 ff3e 6459 3d3e 5916 be3d
00000090: e0a7 cf3d 1916 5b3e dac8 f33d 8d23 96bd
000000a0: a5ae ad3e 4a03 5dbd 4aec a23d d705 513d
000000b0: 48ef 3b3e 0bb1 9ebd 4e6b 653d e6a7 913d
000000c0: 6575 0ebd ae93 003e 18f2 803e 49a8 6b3d
000000d0: 433d 963e 60d8 afbd 30ae d1bc 764e 6fbe
000000e0: 17d3 23bc 3efb 253f 14cb acbd fa24 31be
000000f0: 4e75 1dbd 458a c43d 9545 1c3e a574 8b3d
00000100: 2756 2c3e 5bd9 9d3d 8f52 5e3d 2f2b a1be
00000110: e925 f3bd aa4d b13d b3ac b5bd d6bf 953d
00000120: d526 c23d 6089 38bc 797f 07be 1833 37bb
00000130: 801f 33be 179f 34be ec37 833d 2b8c 9dbc
00000140: 7cc5 883d b7ed 393e 651d 903d 6527 653e
00000150: 3642 19be 3fed 2ebe 0ea2 293d 1d7b 47be
00000160: 85f3 a6bd 6f7c f23d 083f 53bd a138 cabd
00000170: 8185 363e 3909 363e eeba f73d 2d01 f2bd
00000180: 0af0 cd3d 893c be3d 652b 013e 1b68 2d3e
00000190: 2327 2a3f 7b0f cb3e b90b 6c3e fe23 8e3d
000001a0: 96a3 78be 4116 0f3e 06ca c83e eeb4 6a3e
000001b0: 814b 8dbe 32f1 353f 506a 9f3d 106c 143e
000001c0: 93f3 c2bd db16 883d 79fd 0bbe 3f6d 33be
000001d0: 2765 8abe 8876 a53d e4ce 3a3e 4dc6 9abd
000001e0: 1299 db3e c888 36bd 6dcd 513e 0b78 e93c
000001f0: f6ae b93e cc37 3a3e cc65 8f3e e138 2dbd
-0.20024107 -0.30365026 0.14885308 0.28937343 0.0150672505 0.12345761 0.12930182 -0.13747023
0.38055256 -0.13638164 0.4715311 0.087013654 -0.09768541 0.17972454 0.3409481 0.048883766
-0.12277852 0.06629335 0.2947114 -0.23179406 0.30101508 -0.15690649 0.037531357 -0.25071105
0.20732044 -0.011285861 -0.05866518 0.3952417 0.44188395 -0.017112827 -0.10468339 0.1262383
-0.22750668 0.49945176 0.18491131 0.09281606 0.101394415 0.21395148 0.11903544 -0.073309995
0.33922306 -0.053958215 0.07955225 0.05103096 0.18352997 -0.07748612 0.056010537 0.07112102
-0.034779925 0.12556335 0.25184703 0.057533536 0.29343614 -0.08586192 -0.025595754 -0.23369774
-0.009999058 0.6483649 -0.084371716 -0.17299262 -0.03844195 0.09596685 0.15260918 0.068093576
0.1682974 0.07707473 0.054277953 -0.3147826 -0.11872465 0.08657391 -0.088708304 0.073119804
0.09480063 -0.0112632215 -0.1323222 -0.0027954038 -0.17492485 -0.17638813 0.064071506 -0.019231876
0.06678292 0.18157087 0.070368566 0.22378309 -0.14966664 -0.1708269 0.041414313 -0.19480558
-0.081519164 0.1184014 -0.051573783 -0.09874082 0.17824365 0.17776956 0.12096201 -0.118166305
0.100555494 0.0928889 0.1261421 0.16934244 0.6646597 0.39660248 0.23051347 0.06940459
-0.24281153 0.13973333 0.39216632 0.22920582 -0.27596667 0.7107116 0.077839494 0.14494348
-0.09519114 0.06644984 -0.13670911 -0.17522143 -0.27030298 0.08079249 0.18242985 -0.07557354
0.4289022 -0.04456404 0.2048852 0.028499624 0.36266297 0.18185347 0.28007352 -0.042290572

decoder.lstm.weight_ih_l0 f4 [128, 5]
00000000: 4403 08be 96aa ad3e b106 063f 63f8 cc3e
00000010: 48fe fa3e 3b36 663e 4f64 b23f 8200 9dbe
00000020: 1ba5 83be 8c36 dd3d c7b9 8a3f 161e bb3f
00000030: e1bc fd3e 90ea 7f3f 7004 9d3d 47fd 31bf
00000040: 8031 323e fc27 8f3f 1eeb a33f 7c0d 99bf
00000050: a9f2 093f b9ed 8abe 6744 3e3e f94d 18be
00000060: 176e 073c 3a3a a4be b2e6 fe3e ab26 543e
00000070: 14e7 2dbd e350 ca3e 997d 2a3f 8a1a 87be
00000080: fce6 26be 1ea8 e7bd d104 2d3f 4d2d a4be
00000090: 8dd4 793e d9a7 12bf 26b1 a73d 2d23 9abe
000000a0: e44e 9bbe 9481 febc a5c8 c63e fbce 123f
000000b0: 44ab 2dbf d56c 3a3f b1d5 c83d 3928 ab3c
000000c0: 0920 013e 98a2 b13e 6275 3e3d 1550 733f
000000d0: c81b 2dbe 264c a93e f7b2 04bf 6188 753f
000000e0: 5b2e 9d3f 10ca cebe 90a3 9fbf 57a7 c23f
000000f0: 0fd5 8cbf 381e 4ebe cb44 f33e e9f1 b3bc
00000100: d5d4 993e 8365 083e 18b7 c53f 5ba6 cebf
00000110: 1de1 9b3e 201a 84bf 4e12 4ac0 8fac f23e
00000120: fa3c af3e 6a43 d03e 19ba 013f 1ae8 0441
00000130: fbe5 f4bd fb65 a4bc e12a a43b ebf1 4dbe
00000140: b07f 67be 97cf 2940 5fea b6be 6818 c0bd
00000150: 1298 1dbf 9e60 9a3c 24ab 6940 0fc2 ee3e
00000160: 477e 033f eed7 bebe edeb 8fbe e1b6 973d
00000170: b5bb 0fbe dc66 093f 131e 503f 74a2 583f
00000180: 36bc e03f d781 a83f 7913 aebe 7820 1dbf
00000190: 9ac7 0f40 956f 0d3f 96a6 533e af40 e3bf
000001a0: f915 dc3f 9db5 38bf 1c19 883c c0d2 1cbf
000001b0: bda0 14be af67 ab3e f7f1 d43f f9b3 013f
000001c0: 22f2 ddbc 9301 ff3d 5a55 6fbe 98c4 7c3f
000001d0: c70f 523e 5e4b e13d 995d 6dbe 02e3 bf3e
000001e0: 7f6a df3e 2c05 1bbe 8d47 a4bf 0387 1c40
000001f0: 2039 91bf 3c8b 403e a1ef 143d 1784 c53f
00000200: 6ca2 b9be 4304 6cbf 07c3 04bf 3e30 973f
00000210: ffeb 833f 0e95 973e e0c0 c0bf 638f 473f
00000220: 18de 6e3e c9ea b13e 7e5f 993e 1bef 033f
00000230: 39dc 903b aaa3 28bd c2bf c23d 3b54 b6bd
00000240: 8fd3 e2bd b49b 3f3f eece fc3e 52da f73e
00000250: 80df b5be 9a19 27be 8acb 913f 4339 cdbe
00000260: 1e69 8ebe 1481 0c3f 714b 393c 27c9 803e
00000270: 810d f53f 34f2 8b3e 2b53 fb3d 79cb e3be
00000280: 2893 efbe d72a ca3d c4e0 853c c107 a1bd
00000290: 2e70 013e 9c57 173f 684d 92be 809d 64be
000002a0: 7503 6abd 1618 ec3e 31f5 c93d 407e 93be
000002b0: 9a5b a1be 88c4 86be 3ac1 8ebe 88c7 efbe
000002c0: ee3b e13e c60c 2bbf 24f1 7d3f c7a4 80be
000002d0: 5653 9bbe 06f7 5b3e 38f7 013e 1129 d8bc
000002e0: 7e62 52bd 1661 0a3f f7c1 37bf 0a48 eb3e
000002f0: 2353 4a3f f2de 29be c845 3bbe ea3a 0d3f
00000300: 1ebe 4840 174d 06bf 9adc f1be b3aa 643e
00000310: 5b84 1d3e 9b1d e53e ae38 1d3e d5f3 6b3e
00000320: b3d2 81bc 93f6 8e3e 16f5 483d a593 fe3d
00000330: c5b9 81bd 74d6 e13d 82e0 b13a 2bbc b83e
00000340: 20e2 323d 4c6d b5bd e41c ee3e f810 43bf
00000350: a8fd e8bd ea37 023f fe9b e0bc 585d e73e
00000360: 6c50 95be f6de 1abf 508b 813e 650d 9e3e
00000370: 80b8 81bf 6711 b1be 814d 13bb 620b 123b
00000380: 76f3 ecbe 30b8 f9bd b59f 5ebf d189 2ebf
00000390: c29b d73e a871 2d3f feb2 28bf 873b 003e
000003a0: 8269 273e 8403 a03e af92 edbd 5f8b 093f
000003b0: 313b b0be 8715 81be 32ec 143c 1124 57be
000003c0: e2ba d93d 259b 09bf 6e25 1c3f d686 44bf
000003d0: 6e79 0940 bf25 f5be 3f1a 1b3f caca d13d
000003e0: 8039 abbd 0737 9e3d 66ed 2f3e dccf 4abe
000003f0: 38fe 17be 4460 f8be e043 7bbe 90f1 af3e
-0.13282496 0.3391921 0.5235396 0.40033254 0.49022126 0.22481625 1.3936862 -0.3066445
-0.25711903 0.108014196 1.0837945 1.4618556 0.49558166 0.9996729 0.07666862 -0.69527096
0.17401695 1.1184077 1.2806127 -1.195724 0.53885895 -0.27134493 0.18580781 -0.14873494
0.008265994 -0.32075673 0.49785382 0.20717876 -0.0424567 0.39514837 0.66597897 -0.26387435
-0.16299051 -0.11311363 0.67585474 -0.32065812 0.24397488 -0.57287365 0.08188085 -0.30104962
-0.30333626 -0.031067647 0.38824955 0.5734708 -0.67839456 0.72822315 0.098063834 0.020893203
0.12609877 0.34694362 0.046498664 0.9504407 -0.16905129 0.3306591 -0.5183558 0.9591122
1.2279772 -0.40388536 -1.247179 1.5207318 -1.100252 -0.20128715 0.47513422 -0.021965938
0.3004519 0.13319974 1.5446501 -1.6144518 0.30445185 -1.0320473 -3.1573672 0.47397277
0.3422621 0.40676433 0.5067459 8.306665 -0.11957928 -0.02006816 0.0050099944 -0.20111816
-0.22607303 2.6532953 -0.35725686 -0.09379655 -0.61560166 0.018844899 3.6510706 0.4663243
0.5136456 -0.37274116 -0.28109685 0.07407928 -0.14036448 0.53672576 0.8129589 0.84622884
1.7557437 1.3164624 -0.3399923 -0.6137767 2.2465577 0.55248386 0.20669016 -1.7754115
1.7194206 -0.7215212 0.016613536 -0.6125908 -0.14514442 0.33477542 1.6636342 0.5066524
-0.027092997 0.12451472 -0.23372403 0.9873748 0.20513831 0.11000703 -0.23180236 0.3747788
0.43635938 -0.15138692 -1.2834336 2.4457405 -1.1345558 0.18803114 0.03636134 1.5430936
-0.3625673 -0.92194 -0.5186009 1.1811597 1.0306395 0.29605907 -1.5058861 0.77953166
0.2332691 0.3474944 0.29955667 0.5153672 0.004420784 -0.041171707 0.09509231 -0.089027844
-0.11075508 0.7484696 0.49376625 0.48408753 -0.3552208 -0.1631836 1.139024 -0.4008275
-0.27814573 0.5488446 0.011309491 0.25153467 1.9144746 0.27333224 0.122717224 -0.44491175
-0.4679196 0.09871452 0.016342528 -0.07862807 0.1264045 0.59118056 -0.2857468 -0.22325706
-0.057132203 0.46112126 0.0986122 -0.2880726 -0.315152 -0.26321816 -0.27881795 -0.46831918
0.43991035 -0.66816366 0.99196076 -0.25125715 -0.30337018 0.2148095 0.12691963 -0.02638677
-0.05136346 0.5405439 -0.7178034 0.459534 0.79033107 -0.16588953 -0.18288338 0.5516802
3.1366038 -0.5246138 -0.47238618 0.22330742 0.15382521 0.4474915 0.15353653 0.23042233
-0.01584754 0.27922496 0.049061857 0.12430505 -0.06334261 0.11027232 0.0013570937 0.3608106
0.04367268 -0.08858737 0.46506417 -0.7619777 -0.11376506 0.5086657 -0.027418133 0.45188403
-0.2916292 -0.6049646 0.253016 0.30869594 -1.013443 -0.3458359 -0.0022476616 0.0022284617
-0.46279496 -0.12193334 -0.86962444 -0.6817904 0.4211102 0.6775155 -0.6589812 0.12522708
0.16348842 0.31252682 -0.11600243 0.5372829 -0.3442016 -0.25211737 0.0090895165 -0.21009852
0.10631348 -0.53752357 0.60994613 -0.76768243 2.1480365 -0.4788036 0.60586923 0.10243757
-0.08360577 0.077253394 0.17180404 -0.19805855 -0.1484307 -0.48510945 -0.24537611 0.34363985

decoder.lstm.weight_hh_l0 f4 [128, 32]
00000000: e11a 403e 0896 ad3e adc8 26bf daec 8e3d
00000010: 0963 c23e 693f 9cbf 8572 c2bd c477 ebbd
00000020: 91bf 353f 0c28 cfbf 628c db3e b071 2fbe
00000030: ccbf 94be fb1b 123d a1e0 46be 25b3 693f
00000040: 5e4f 363e d24a a53e 2088 05be 1d84 eabe
00000050: 4259 92be 6725 94bd e365 bf3f b759 09c0
00000060: 27ec 64be b5f9 043e 7d15 f23e f178 103e
00000070: 12ea 0dbf 8645 713e bf12 0b40 d972 7b3e
00000080: 2678 45bd b12a cbbc 1c06 37be b08e da3e
00000090: b579 65be 9134 7f3f 4e0a 63bf bb2d 5a3f
000000a0: bcf2 9ebe 06fd 7bbd 3c1b d9bd a045 eebe
000000b0: 756f 95be d9fc a63e 2d26 ed3e 304e ea3d
000000c0: a3c1 b43e df1d 853e 6515 05be ed6b b3bd
000000d0: 092c adbd 5c5f a5be 801c 9d3f ba89 c7be
000000e0: 79c0 74be 4ce6 3ebf 6974 4e3f c5c6 5b3e
000000f0: 2808 93be d836 37bf 8f33 afbd e207 953e
00000100: 41de 8e3e d853 973f e0f9 bd3e 4239 4f3f
00000110: 15b6 3ebe 5843 f5bc 17a6 b63e 0aa1 37bf
00000120: 9fb8 84be 026a 53be a207 0b3f e5d3 983f
00000130: e6c2 173d e1eb 343f 59ae 76bf 623e c73e
00000140: 218a 5b3e b8c6 0f3f cb0d 393f 98cd 5fbf
00000150: 1bdb dcbe fc46 f5bd f135 7b3f a4be 88bd
00000160: 406e f93d 6bd0 05bf 7a1f 963f 1b55 03bf
00000170: 509f 9abf 3208 07bf fe5d 813f 4460 183f
00000180: 76f8 92be 3da2 16bf 752c aabe 3237 5dbd
00000190: e5f2 bcbe 9e9e 323d 2613 33bf ec96 c0be
000001a0: 5cc0 45bf 8899 22be ad39 cebe a3a5 d93f
000001b0: eb3f 4abd 950f 0fbf 98b8 213f b0ce d3bd
000001c0: f9b0 a7be c457 163d a2c0 0dbf 2aee a5be
000001d0: 26e4 3ebf c705 75bf 4388 86bf 5f19 1640
000001e0: 577c 22bf ed82 56bf 018b 9dbe c747 88bf
000001f0: 8cb5 9a3e 2078 263f a632 75bd 2740 fc3e
00000200: 3dd2 a3bc a7dc e3bd 484c a4be ff73 adbe
00000210: 7447 debe 824a efbe bf49 e8be fb43 da3e
00000220: 0ffa 1c3f 1017 51bf cdff cfbd 59f4 a5bf
00000230: fd41 d7bf 9b68 db3d 8646 123f ab96 433e
00000240: f9ea babe 02a7 88bf b894 a13e 4fdd 5a3f
00000250: f2d4 803f 9a6d ce3e db50 803c 24ce 253e
00000260: fcc4 e63e c173 51bf aa86 cfba 76a4 bcbf
00000270: a6ea f83e 0abd b23f 2f7f b93e 5959 c93e
00000280: 8f59 de3f 9114 063e 8ae3 76bf 532e 70bf
00000290: 73f7 5e3e c76a c2be 1091 ad3d 4cbb 343d
000002a0: d12e 42be 241d 033f 5988 53bf b361 e6be
000002b0: d722 013e eb61 c6be 44fa dd3e 3c63 8a3e
000002c0: ab2b 18bf 0050 983e c14d 6c3e 46e7 12be
000002d0: 5350 a1be c7ab 0cc0 5248 f83e efbc 8fbf
000002e0: 01df 10bf c549 823f 7ef8 1d3f 1b82 48bd
000002f0: 929d a8bf ac41 c1be b8d3 b4bf 8b8e 6e3f
00000300: babb 0a3f 0139 96bd 6409 3a3d 73c8 7b3f
00000310: 68bd 203c 07c5 f23d b374 9fbe 2b12 d33f
00000320: 29c1 82be 4508 323f f958 083f dbb4 8dbf
00000330: 099f c8be 1bf0 813e b79b 81bf 5c10 cfbd
00000340: 30b9 cdbe 2afb dcbd c873 aebe fb77 523f
00000350: 98c6 ca3d 945f 37bf 8ea7 4f3e 157d b03e
00000360: ac41 12bf 9b6f 58be 55db 89bf c4f0 203e
00000370: a934 31bf 125a e63e 53fe 6a3f d18e 01bf
00000380: 458c 6abe 9bb0 5c3e 9bd6 893e 3743 99be
00000390: 5630 3e3c 0b5a 02bf 1a6c 143c bb44 da3e
000003a0: d7e7 1bbd 6a68 553e 4df4 b13e 3166 e93e
000003b0: beb3 f83e f125 06bf 70e7 0abf 9011 ef3d
000003c0: 08a5 6f3d 805f 0aba 6194 dc3d 6d92 21bd
000003d0: 24a2 583e 8f4b e03d d23c 593f 54e0 8a3e
000003e0: 55c3 5bbf 5406 813d 9839 b5be f099 9dbd
000003f0: 6466 943f 8089 9c3e 0e03 353b e81d 503e
0.18760253 0.33903527 -0.65149957 0.069787696 0.37966183 -1.2206851 -0.09494499 -0.11497453
0.7099543 -1.6184096 0.4288054 -0.17133212 -0.2905258 0.035671216 -0.19421627 0.9128898
0.17803714 0.32283646 -0.13040209 -0.4580392 -0.28583723 -0.072336964 1.4952968 -2.1461008
-0.2235571 0.1298588 0.4728202 0.14108635 -0.5543529 0.23561677 2.1730192 0.2455553
-0.048210286 -0.02480063 -0.17873424 0.42686987 -0.22409709 0.99689585 -0.886876 0.8522603
-0.31044567 -0.0615206 -0.10600898 -0.46537495 -0.29186597 0.32614782 0.46318188 0.11440694
0.35303983 0.25999352 -0.12996443 -0.087608196 -0.08455665 -0.32299316 1.2274323 -0.38972265
-0.23901547 -0.74570155 0.8064638 0.21462543 -0.2871716 -0.7156806 -0.08554756 0.29107577
0.2790394 1.1822462 0.37104702 0.80946743 -0.18624146 -0.029939339 0.35673591 -0.717301
-0.25922105 -0.20645908 0.5430852 1.1939665 0.037051104 0.7067242 -0.96359783 0.38914782
0.21439411 0.56162596 0.7228667 -0.87423086 -0.43135914 -0.1197643 0.98129183 -0.06676987
0.12179232 -0.52271146 1.1728356 -0.51301736 -1.2079868 -0.5274688 1.0106809 0.5952189
-0.28705186 -0.58841306 -0.33237043 -0.054007716 -0.36904064 0.0436083 -0.69951093 -0.37615144
-0.7724664 -0.1587888 -0.40278378 1.7003673 -0.049377363 -0.5588315 0.6317229 -0.10342157
-0.32752207 0.036704794 -0.5537206 -0.32408267 -0.74566877 -0.9571194 -1.0510334 2.3452985
-0.6347098 -0.83793527 -0.30770114 -1.0646905 0.30216634 0.65027046 -0.059862755 0.49267694
-0.01999771 -0.111260705 -0.32089448 -0.3387756 -0.4341389 -0.46736532 -0.45368764 0.4262999
0.6131906 -0.81675816 -0.10156212 -1.2965194 -1.6817013 0.10713311 0.5713886 0.19100444
-0.36507395 -1.0675967 0.31558776 0.8549394 1.0064986 0.40317994 0.015663555 0.16191918
0.45072162 -0.8181725 -0.001583298 -1.473769 0.48616523 1.396394 0.36229846 0.3932598
1.7371081 0.13093783 -0.9644095 -0.93820685 0.21774082 -0.3797209 0.08474934 0.044123933
-0.18963172 0.5121634 -0.82629925 -0.44996414 0.12610947 -0.3874658 0.43355 0.27028835
-0.5944163 0.29748535 0.23076536 -0.14346036 -0.31506595 -2.1979845 0.48492676 -1.1229533
-0.56590277 1.0178763 0.61707294 -0.048952203 -1.3173087 -0.37745416 -1.4127111 0.93186253
0.541927 -0.073350914 0.04541911 0.98352736 0.009810783 0.11853986 -0.31143722 1.648992
-0.25537995 0.6954387 0.5326076 -1.1070818 -0.39183834 0.25378498 -1.0125645 -0.10110542
-0.4018035 -0.10790093 -0.3407271 0.82214326 0.0990116 -0.71630216 0.20278761 0.3447043
-0.5713146 -0.21136324 -1.077006 0.15716845 -0.6922098 0.44990593 0.9179432 -0.50608546
-0.22905071 0.21551745 0.26921543 -0.29934093 0.011608204 -0.50918645 0.009058977 0.42630562
-0.038062897 0.20840612 0.347567 0.45585778 0.48574632 -0.52401644 -0.54259396 0.11673272
0.058506995 -0.0005278513 0.107704885 -0.039446283 0.21155602 0.10951912 0.8485843 0.27124274
-0.8584493 0.06300035 -0.35395503 -0.07695377 1.1593747 0.30573654 0.002762023 0.20323908

decoder.lstm.bias_ih_l0 f4 [128]
00000000: fcd7 eb3e 737f a7bb 9ef0 413f 2ba1 163d
00000010: deae ebbd a69d 733e 279a 6b3d e259 c4bd
00000020: 65b5 fe3d 84de 193e baee e23c 1df9 13bc
00000030: b798 123e 1543 6c3c b1fc f23e 49a3 d1bd
00000040: ad21 383d f429 b53e da96 d63e 99b9 7d3b
00000050: 6759 a3be 51ca 06be 6c83 dd3d 70e0 da3d
00000060: 3b54 afbd 60f6 e3be be16 613e dbd7 fe3e
00000070: 9803 30be 401f 44bd b17d 23bb 3cbc 463e
00000080: dfbe 5a3c e39a 413d c37f 9abe d070 203e
00000090: 537a 763d 6c3c f23d 3949 a63c 8ea8 6a3e
000000a0: 6f73 ae3d 1e32 e83c 4aa0 23bd 2afa 8dbd
000000b0: 7c8c 32be c9a2 cdbc eee8 1e3e 45f4 4ebe
000000c0: ea8a ca3d b87f d63d fb4e 88be 90ee 833e
000000d0: 920e d53e 5b82 c83d 7dbc 51be 6335 19be
000000e0: 6c10 863e e305 5d3e 9242 b73e bbc6 abbd
000000f0: 8418 9cba 6b47 85bd f54a 07be 795c 9d3e
00000100: 8b37 933e cdb9 df3d 8268 2ebe 9101 853d
00000110: cbf9 be3d ec50 af3d ce08 513d 1b26 993d
00000120: 15c6 34bd 1273 173d 66d3 eabd e53f 3f3d
00000130: 5f9d 92bc 4fa5 bf3d ddd2 423e 75b5 0b3e
00000140: 33dd c3bd 0a4e de3d dcab b5bc 2650 a63c
00000150: 27ae 8fbe 62be 05be 7516 cf3d 1e24 22bd
00000160: 4d59 e33d 2488 6bbd 0219 0d3d abde 81bd
00000170: 4934 24bd a33f 11bd ed29 33be 9b11 3f3e
00000180: 2e96 983d 907f ea3d 4bd7 993e 4dbd 803e
00000190: 3b67 883e be62 27bd b5d0 16bd 6d79 403e
000001a0: 4342 b33e 1ca9 3d3e eeb4 443e 64fb bf3d
000001b0: 5172 1d3d cbc9 843e 3abb d1bc c259 2cbd
000001c0: f48e 9abd d684 69bd 2825 623e fcd4 b6b9
000001d0: ec79 e93d ee75 283e 896e b83d 080c 403e
000001e0: ad97 5fbd 0271 c4bd 370e 583e e035 dc3e
000001f0: 40da 70be 0a7f 6a3e 10c2 87bd fca4 803d
0.4606322 -0.0051116287 0.7575778 0.036774796 -0.11507963 0.23790607 0.057520058 -0.09587456
0.12436942 0.15026289 0.027701724 -0.009031561 0.14316069 0.0144202905 0.47458413 -0.10236222
0.04495399 0.3538357 0.41911966 0.003871536 -0.31904146 -0.13163115 0.10816082 0.10687339
-0.085609876 -0.44523907 0.21981332 0.4977406 -0.17188871 -0.047881365 -0.0024946744 0.19407743
0.013351171 0.047266852 -0.301756 0.15668035 0.06017525 0.11827931 0.020298587 0.22915861
0.08518111 0.02834421 -0.039947785 -0.06932481 -0.17436403 -0.025102036 0.15518543 -0.20210369
0.09889777 0.10473579 -0.26622757 0.25767946 0.4161268 0.09790488 -0.20482059 -0.14961772
0.26184404 0.21584277 0.35792977 -0.08387514 -0.0011909162 -0.065077625 -0.13212188 0.30734614
0.28753313 0.109241106 -0.17032054 0.064944394 0.09324988 0.085603565 0.051033787 0.07477971
-0.04413422 0.036974974 -0.11466102 0.046691794 -0.017897306 0.09357702 0.1902575 0.13643439
-0.09563675 0.108547285 -0.022176675 0.02030189 -0.28062555 -0.13060907 0.10111705 -0.039585225
0.11101017 -0.05750288 0.034447677 -0.06341299 -0.040088926 -0.03546108 -0.17496462 0.1865906
0.074505195 0.11450112 0.30047068 0.25144425 0.2664126 -0.040865652 -0.036820132 0.1879632
0.3501149 0.18521541 0.19209644 0.09374121 0.0384391 0.25935206 -0.025601972 -0.042077787
-0.075467974 -0.057011448 0.22084486 -0.0003487243 0.11400208 0.16451237 0.09005458 0.1875459
-0.05458801 -0.09591867 0.21099173 0.43009853 -0.23520756 0.22900024 -0.06628811 0.06281468

decoder.lstm.bias_hh_l0 f4 [128]
00000000: cf00 093f 50de 1bbd 71cf 433f a067 1e3d
00000010: bfc9 a7bd a966 983e 2da9 de3c b133 a7bd
00000020: 4376 c03d a97a 303e 17f0 a83d 9b89 01bd
00000030: 9bf7 0a3e 8e6b 9a3c 394a ed3e 025b d3bd
00000040: ef27 db3d a48c a23e ecbc c93e f739 a03d
00000050: 019d bcbe 46a0 c4bd 9af5 163e 55b7 e73d
00000060: fcf6 c7bd 1788 f1be 7d05 6d3e d2ca f63e
00000070: 7af5 44be 34b0 21bd 245b abb8 39a7 5b3e
00000080: f1b0 c23c 9f3f 643d 39c8 81be d79e 073e
00000090: c310 823d 794b f63d 3e6b 8abc 1697 523e
000000a0: d1f3 703d 5b3b b63d d9a1 4bbd 2695 03bd
000000b0: adaf 84be 2a3a 83bd bdf2 233e 73fa 57be
000000c0: ac41 9c3d 791d f93d d493 94be 187c 7b3e
000000d0: cd2c b93e a4d5 183e 5165 8abe 272b 15be
000000e0: d7c7 563e e065 753e e95b 963e dafe 30be
000000f0: 2b4a 093d f67c 14bd a054 00be 1c11 6f3e
00000100: c5fe 983e f627 443d 2877 09be aa92 ff3d
00000110: d513 003e b36d c83d e942 a13d 4a3f 3e3d
00000120: 46e4 8dbd edac c93d c9a7 cebd d6ae 1a3d
00000130: 973e d93b c303 483d 13d9 703e 517e f23d
00000140: 57f2 b1bd 81b7 4d3d 88e1 14bd 99cc 093d
00000150: dae7 79be ca61 73bd dc78 aa3d 8862 09bd
00000160: 9121 f83d 01da 1bbc eac5 9e3c 8e4d 7abd
00000170: e8c3 873a 040c abbd c700 0fbe bb71 473e
00000180: 0b19 4c3d ffb1 f03d e63f a63e de4c 693e
00000190: 4184 a13e cdd9 393b 5f4c adbc 6b22 2d3e
000001a0: 455e b23e 4ac7 6c3e 8b6f 523e 241d 243e
000001b0: bce7 a13d a9dc 813e e02a 2dbc 9cc6 99bd
000001c0: 494d c3bc ad36 01bd b127 4c3e f169 823c
000001d0: 0fd3 bd3d 4076 4e3e f216 cd3d c8a0 433e
000001e0: 8b13 ba3a 3661 eabd ff04 133e fa95 d73e
000001f0: b45e 77be d6f0 3e3e 4170 a5bc 731b de3c
0.5351686 -0.03805381 0.76488405 0.038673043 -0.08192777 0.29765823 0.027180279 -0.08164156
0.09397557 0.17234291 0.082489185 -0.03162537 0.13571016 0.018850114 0.4634569 -0.10320093
0.10700976 0.31747925 0.39401948 0.07823556 -0.36838534 -0.09600882 0.14742127 0.11314265
-0.097639054 -0.4717414 0.23146625 0.48201615 -0.19234267 -0.03947468 -8.170892e-05 0.21450509
0.023766013 0.055724736 -0.2534807 0.13244186 0.06350853 0.12026114 -0.01689684 0.20565447
0.05882627 0.0889804 -0.049714897 -0.03212466 -0.2591528 -0.06407578 0.16010566 -0.21091633
0.076297134 0.121638246 -0.29019034 0.24559057 0.36166993 0.14925247 -0.27030423 -0.14567243
0.2097467 0.23964643 0.29366997 -0.17284718 0.033517998 -0.036251985 -0.12532282 0.2334637
0.29881874 0.047889672 -0.13424361 0.12479146 0.12507565 0.097865485 0.0787409 0.046447076
-0.06928305 0.09847436 -0.10090596 0.037764393 0.0066297757 0.048831712 0.23520307 0.11840499
-0.08688801 0.05022383 -0.036347896 0.033642385 -0.2440485 -0.05941943 0.08323833 -0.033541232
0.12115777 -0.009512425 0.019381482 -0.06110912 0.0010358067 -0.08351901 -0.1396514 0.19476978
0.04982857 0.117527 0.32470626 0.22783229 0.31546214 0.002835858 -0.02115458 0.1690766
0.34837547 0.23122898 0.20550363 0.16026741 0.07905528 0.25363663 -0.010569304 -0.07508585
-0.023840563 -0.031546284 0.19937016 0.015919657 0.09268772 0.20162296 0.10014142 0.19104302
0.0014196498 -0.11444323 0.14357375 0.4210661 -0.2415722 0.18646559 -0.020195128 0.027112698

decoder.linear.weight f4 [1, 32]
00000000: 2b2f f5be c159 d23d 5f20 20bf d523 c2bc
00000010: 2ffd 3f3e fa58 d03b 31c0 1e3d e73b 80bd
00000020: 6757 e23c 493e e4bd 31a3 923c b3b0 c43d
00000030: 5905 973c 6af3 783d e4a5 6d3e dd93 0abf
00000040: 23f9 143d cb35 c03d f754 9fbe d63d 4bbd
00000050: 5378 6cbc 4913 14bd 3c32 3fbf c44f 353e
00000060: 5874 fe3b 09c9 023d 76bb 003d 3738 8fbe
00000070: 6f09 15bd c2f8 483e 379c 523e 33dc 6f3b
-0.4788755 0.102710254 -0.62549394 -0.023698727 0.18748926 0.006358263 0.038757507 -0.062614255
0.027629567 -0.111446925 0.017900081 0.09604015 0.018435167 0.060779013 0.23207814 -0.5413187
0.036370408 0.0938526 -0.3111951 -0.04961952 -0.014432984 -0.036151204 -0.74686027 0.1770621
0.007765334 0.031930003 0.031428777 -0.27972576 -0.03638595 0.19626144 0.20567404 0.0036599755
