results/MSE_LSTM_enc_dec_output/545_model.pt (torch, 860225 bytes, 10 tensors)

output_zeros f4 [399, 512, 1]
00000000: 0000 0000 0000 0000 0000 0000 0000 0000
00000010: 0000 0000 0000 0000 0000 0000 0000 0000
00000020: 0000 0000 0000 0000 0000 0000 0000 0000
00000030: 0000 0000 0000 0000 0000 0000 0000 0000
00000040: 0000 0000 0000 0000 0000 0000 0000 0000
00000050: 0000 0000 0000 0000 0000 0000 0000 0000
00000060: 0000 0000 0000 0000 0000 0000 0000 0000
00000070: 0000 0000 0000 0000 0000 0000 0000 0000
00000080: 0000 0000 0000 0000 0000 0000 0000 0000
00000090: 0000 0000 0000 0000 0000 0000 0000 0000
000000a0: 0000 0000 0000 0000 0000 0000 0000 0000
000000b0: 0000 0000 0000 0000 0000 0000 0000 0000
000000c0: 0000 0000 0000 0000 0000 0000 0000 0000
000000d0: 0000 0000 0000 0000 0000 0000 0000 0000
000000e0: 0000 0000 0000 0000 0000 0000 0000 0000
000000f0: 0000 0000 0000 0000 0000 0000 0000 0000
00000100: 0000 0000 0000 0000 0000 0000 0000 0000
00000110: 0000 0000 0000 0000 0000 0000 0000 0000
00000120: 0000 0000 0000 0000 0000 0000 0000 0000
00000130: 0000 0000 0000 0000 0000 0000 0000 0000
00000140: 0000 0000 0000 0000 0000 0000 0000 0000
00000150: 0000 0000 0000 0000 0000 0000 0000 0000
00000160: 0000 0000 0000 0000 0000 0000 0000 0000
00000170: 0000 0000 0000 0000 0000 0000 0000 0000
00000180: 0000 0000 0000 0000 0000 0000 0000 0000
00000190: 0000 0000 0000 0000 0000 0000 0000 0000
000001a0: 0000 0000 0000 0000 0000 0000 0000 0000
000001b0: 0000 0000 0000 0000 0000 0000 0000 0000
000001c0: 0000 0000 0000 0000 0000 0000 0000 0000
000001d0: 0000 0000 0000 0000 0000 0000 0000 0000
000001e0: 0000 0000 0000 0000 0000 0000 0000 0000
000001f0: 0000 0000 0000 0000 0000 0000 0000 0000
00000200: 0000 0000 0000 0000 0000 0000 0000 0000
00000210: 0000 0000 0000 0000 0000 0000 0000 0000
00000220: 0000 0000 0000 0000 0000 0000 0000 0000
00000230: 0000 0000 0000 0000 0000 0000 0000 0000
00000240: 0000 0000 0000 0000 0000 0000 0000 0000
00000250: 0000 0000 0000 0000 0000 0000 0000 0000
00000260: 0000 0000 0000 0000 0000 0000 0000 0000
00000270: 0000 0000 0000 0000 0000 0000 0000 0000
00000280: 0000 0000 0000 0000 0000 0000 0000 0000
00000290: 0000 0000 0000 0000 0000 0000 0000 0000
000002a0: 0000 0000 0000 0000 0000 0000 0000 0000
000002b0: 0000 0000 0000 0000 0000 0000 0000 0000
000002c0: 0000 0000 0000 0000 0000 0000 0000 0000
000002d0: 0000 0000 0000 0000 0000 0000 0000 0000
000002e0: 0000 0000 0000 0000 0000 0000 0000 0000
000002f0: 0000 0000 0000 0000 0000 0000 0000 0000
00000300: 0000 0000 0000 0000 0000 0000 0000 0000
00000310: 0000 0000 0000 0000 0000 0000 0000 0000
00000320: 0000 0000 0000 0000 0000 0000 0000 0000
00000330: 0000 0000 0000 0000 0000 0000 0000 0000
00000340: 0000 0000 0000 0000 0000 0000 0000 0000
00000350: 0000 0000 0000 0000 0000 0000 0000 0000
00000360: 0000 0000 0000 0000 0000 0000 0000 0000
00000370: 0000 0000 0000 0000 0000 0000 0000 0000
00000380: 0000 0000 0000 0000 0000 0000 0000 0000
00000390: 0000 0000 0000 0000 0000 0000 0000 0000
000003a0: 0000 0000 0000 0000 0000 0000 0000 0000
000003b0: 0000 0000 0000 0000 0000 0000 0000 0000
000003c0: 0000 0000 0000 0000 0000 0000 0000 0000
000003d0: 0000 0000 0000 0000 0000 0000 0000 0000
000003e0: 0000 0000 0000 0000 0000 0000 0000 0000
000003f0: 0000 0000 0000 0000 0000 0000 0000 0000
0.0 0.0 0.0 0.0 0.0 0.0 0.0 0.0
0.0 0.0 0.0 0.0 0.0 0.0 0.0 0.0
0.0 0.0 0.0 0.0 0.0 0.0 0.0 0.0
0.0 0.0 0.0 0.0 0.0 0.0 0.0 0.0
0.0 0.0 0.0 0.0 0.0 0.0 0.0 0.0
0.0 0.0 0.0 0.0 0.0 0.0 0.0 0.0
0.0 0.0 0.0 0.0 0.0 0.0 0.0 0.0
0.0 0.0 0.0 0.0 0.0 0.0 0.0 0.0
0.0 0.0 0.0 0.0 0.0 0.0 0.0 0.0
0.0 0.0 0.0 0.0 0.0 0.0 0.0 0.0
0.0 0.0 0.0 0.0 0.0 0.0 0.0 0.0
0.0 0.0 0.0 0.0 0.0 0.0 0.0 0.0
0.0 0.0 0.0 0.0 0.0 0.0 0.0 0.0
0.0 0.0 0.0 0.0 0.0 0.0 0.0 0.0
0.0 0.0 0.0 0.0 0.0 0.0 0.0 0.0
0.0 0.0 0.0 0.0 0.0 0.0 0.0 0.0
0.0 0.0 0.0 0.0 0.0 0.0 0.0 0.0
0.0 0.0 0.0 0.0 0.0 0.0 0.0 0.0
0.0 0.0 0.0 0.0 0.0 0.0 0.0 0.0
0.0 0.0 0.0 0.0 0.0 0.0 0.0 0.0
0.0 0.0 0.0 0.0 0.0 0.0 0.0 0.0
0.0 0.0 0.0 0.0 0.0 0.0 0.0 0.0
0.0 0.0 0.0 0.0 0.0 0.0 0.0 0.0
0.0 0.0 0.0 0.0 0.0 0.0 0.0 0.0
0.0 0.0 0.0 0.0 0.0 0.0 0.0 0.0
0.0 0.0 0.0 0.0 0.0 0.0 0.0 0.0
0.0 0.0 0.0 0.0 0.0 0.0 0.0 0.0
0.0 0.0 0.0 0.0 0.0 0.0 0.0 0.0
0.0 0.0 0.0 0.0 0.0 0.0 0.0 0.0
0.0 0.0 0.0 0.0 0.0 0.0 0.0 0.0
0.0 0.0 0.0 0.0 0.0 0.0 0.0 0.0
0.0 0.0 0.0 0.0 0.0 0.0 0.0 0.0

encoder.lstm.weight_ih_l0 f4 [128, 4]
00000000: bc97 ebbe 9248 363f 6e22 823e 1f59 bfbe
00000010: eaf8 2b3f 976d d9be edd2 423f 448e f3be
00000020: e0d5 573e 1896 9b3e c7c6 bd3e 3e00 463f
00000030: 1fe2 7cbe 84c0 1c3f 7d3f d93e e3d9 2dbf
00000040: f331 693f fab3 1cbf 6608 323e c428 473f
00000050: 6898 7e3f f15b bcbe ff0c 833d 6c25 7e3d
00000060: 05da 17bf 3523 1b40 db26 0fbf 38b7 503f
00000070: 072c 7abf 02bc 11bf f030 f83e 87dc 823f
00000080: 41fc 5a3f dd16 36bf fa97 f53c 979e 883f
00000090: 9177 cfbe 51a2 643f ffc3 e13f a9d6 72bf
000000a0: 8012 d3bd 804c 9c3d 1658 733f 36f0 f93e
000000b0: 59da 4fbf fd27 063f f4ac 883f 7e2f 66bf
000000c0: 1f4d 08be d3b9 0f3f 192a 24bf fc3e 28bf
000000d0: 7045 0640 2a84 2abf 421b 6a3e 7ce9 c4be
000000e0: 114d 46bf 7285 68bf 0a13 cdbd a397 703f
000000f0: e0e2 9d3f 298e e8be e377 cbbe b2d6 3c3e
00000100: c2dd 44bf 4ff6 ea3d 0cb4 833f d02e b3be
00000110: fd05 c53f 4e44 333f 53d0 31bf ee1b 6c3f
00000120: c427 adbe a297 97bf 80ab fdbe 0cdc 073f
00000130: 5d17 103e 00de 9dbf 46fe 3a3f 3134 ee3e
00000140: da7e e73e dfcf 0abf 599a ad3e 12a4 dc3f
00000150: cd99 463f 6c18 a93f ab23 803f 8e8d 89bd
00000160: 99b2 833f 1685 d9be 0a02 873e 41f4 28bc
00000170: 349a bb3e 52fe ed3f 577a c4be 5614 8ebe
00000180: d88e 033f 8095 e73d 6225 c3be e8a4 d13e
00000190: 0e38 8dbe bc18 6c3f 2324 0b3e 4105 733f
000001a0: 7a24 463e 5532 ca3e 7765 fbbc c930 ccbd
000001b0: 93c8 783f 10a2 dd3e b3a3 bf3e a888 713e
000001c0: 782c e03d 1e67 313f 2692 af3d c442 1e3f
000001d0: cbbf a13f e3ec 10bf 3146 0bbe 07be 8abc
000001e0: a160 ba3d df0a 053f dc01 12be 79dd 0abf
000001f0: 107f 143f c61d 75be 0616 493e e41f e03d
00000200: bc8a c4bf 00dc 6a3e c53f 603f 7081 503f
00000210: fcb2 d63e 8e38 083f beb9 fd3a 64be b63f
00000220: 57ce 95be 9d1f 42bf a0f1 403e 9be3 b03e
00000230: 80a5 c73f 8280 463f 896a 613f cc88 f93e
00000240: 8088 4c3f 6491 bbbf 9ff1 e5be 043d 913f
00000250: b319 e53e 4069 b53f fe06 033e 6ed8 c33e
00000260: 6fec b73f 1fd0 d03f 6a5d 573f f6b2 5abf
00000270: 2cba e83e ef99 3a3f 876d dcbe deb9 0abf
00000280: 399f febe a24a 68c0 94f1 c1bf 42e2 99bf
00000290: d343 eb3f 10c5 013f 4fa1 fd3e 128a d63e
000002a0: aaee 1abe b0b3 3dbf fbc7 403f b988 a23f
000002b0: 3532 913f f9e7 9bbe 2fa0 193f f553 3dbf
000002c0: 2609 05bf 52a6 e3bf bc1b 893f dc9b 683f
000002d0: 8257 0dbf 6111 583f d988 d43e 4e49 283f
000002e0: 1875 05bf dd2e bc3e fba8 40bf 760c 18be
000002f0: d49d a43e de2b 443f 5b65 59bd 4e4f 813f
00000300: 1979 b2bf 060f 8abf 8a2f a8bc 4357 9cbd
00000310: 58ba 463f 05a0 ab3f 1a16 34bf 6909 84b9
00000320: f4ed 443f 78f6 3e3f 88eb dcbe c4b5 fa3e
00000330: c3f4 123e 0d51 1c3e 9d98 a6be b97e 3d3f
00000340: ffdd 11bf 607e 58bf 66d2 023f 2c25 d43c
00000350: 27ef 0f3f d7a9 943f f765 a73f 0ed6 f83e
00000360: 3cef 4b40 17f0 40bf 9c8c 0140 2c41 e7be
00000370: ee09 b2bb 0a04 80be a47e a7bd 7264 ef3e
00000380: dd7f d3bd 5bac 09be 5048 ca3e 1087 7c3e
00000390: 720e e53e e2be 953e 70e6 ad3f 55af 8b3f
000003a0: 45e0 d63f 8c1a 4ebe 2717 22be 8bcd 30bf
000003b0: d75a d5bf a384 9e3f cdce b7be 1027 ff3f
000003c0: 3a88 873d da0e b93e 9150 0bbf 6a1e 0a3f
000003d0: 5624 cdbe 8f5f 893f b64c d8be a312 9d3d
000003e0: 2774 743f 6bfd 563f baed 513e bc36 4bbc
000003f0: d6a4 fe3e 32b5 cdbf 601c 1a3f 221f 8ebf
-0.46014202 0.71204484 0.25416893 -0.37372681 0.6717669 -0.42466423 0.761031 -0.47569478
0.2107768 0.3038795 0.37065718 0.7734412 -0.24695633 0.61231256 0.4243125 -0.67910594
0.9109184 -0.6121212 0.17386016 0.7779658 0.99451303 -0.36788896 0.06398963 0.062047407
-0.59317046 2.4240239 -0.55918664 0.8152957 -0.9772343 -0.569275 0.48474836 1.022355
0.8554116 -0.71128637 0.029979695 1.0673398 -0.4052091 0.89310175 1.7637938 -0.94858795
-0.10306263 0.07631779 0.95056283 0.4881608 -0.8119255 0.5240477 1.0677781 -0.8991622
-0.1331067 0.5614292 -0.64126736 -0.65721107 2.0979881 -0.66607916 0.2286196 -0.38459384
-0.77461344 -0.9082862 -0.10013397 0.9398138 1.2334862 -0.4542096 -0.39739904 0.18441275
-0.76900876 0.11472761 1.0289321 -0.34996653 1.5392452 0.700261 -0.694585 0.9223012
-0.338194 -1.184315 -0.49544907 0.5307014 0.14071412 -1.2333374 0.7304424 0.46524194
0.45213968 -0.54223436 0.3390682 1.723757 0.7757843 1.3210578 1.0010885 -0.067164525
1.0288879 -0.4248435 0.26368743 -0.010312141 0.36641085 1.8593237 -0.38374588 -0.2774989
0.5138984 0.11307812 -0.38114458 0.40946126 -0.2758183 0.9222524 0.13588004 0.9492989
0.19349852 0.39491525 -0.03068803 -0.099702425 0.9718105 0.43287706 0.3742958 0.23587286
0.10945982 0.6929797 0.085727975 0.61820626 1.2636656 -0.5661146 -0.13600995 -0.016936315
0.09100462 0.5196971 -0.14258522 -0.5424419 0.5800638 -0.23937139 0.19637308 0.10943583
-1.5354838 0.22935486 0.87597305 0.81447506 0.4193343 0.53211296 0.0019357724 1.4276853
-0.29258987 -0.7582949 0.18842173 0.3454865 1.5597382 0.7753984 0.88053185 0.4873718
0.7989578 -1.4653745 -0.44910905 1.1346745 0.4474617 1.4172745 0.12795636 0.3825106
1.4369029 1.6313514 0.84126914 -0.8542932 0.45454538 0.72891134 -0.43052313 -0.5418986
-0.49730852 -3.6295552 -1.5151849 -1.2022173 1.8380073 0.5069132 0.4953713 0.41902214
-0.15130106 -0.74102306 0.75305146 1.2697974 1.1343447 -0.3045042 0.60010046 -0.73956233
-0.51967084 -1.7785132 1.0711589 0.9086282 -0.5521165 0.8440152 0.41510656 0.65736854
-0.52131796 0.36754504 -0.75257844 -0.14848503 0.32151663 0.76629436 -0.053075176 1.0102327
-1.3943206 -1.0785835 -0.02053048 -0.07633831 0.7762809 1.3408209 -0.70346224 -0.00025184013
0.7692559 0.7459483 -0.43148446 0.489668 0.14351182 0.15265293 -0.3253831 0.7402149
-0.56979364 -0.8456783 0.5110229 0.025896631 0.5622429 1.1614331 1.3077992 0.4860081
3.1864767 -0.7536635 2.024207 -0.4516691 -0.0054333126 -0.25003082 -0.08178452 0.4675632
-0.10327122 -0.13444655 0.39508295 0.24660897 0.44737583 0.29247195 1.3585949 1.0912882
1.6787192 -0.20127314 -0.15829144 -0.69063634 -1.6668347 1.2384228 -0.35899964 1.9933796
0.0661778 0.36144143 -0.5441981 0.5395266 -0.40066785 1.0732287 -0.42246026 0.0766957
0.95489734 0.83980435 0.20500842 -0.012403186 0.49735135 -1.6070921 0.60199547 -1.1103251

encoder.lstm.weight_hh_l0 f4 [128, 32]
00000000: 5ca2 2a3f a45a 6c3d 5ae7 413f fc68 1f3e
00000010: 2ed5 e63e 7a5c 5ebf 763e ea3d 1c97 483f
00000020: e44d b2be f81e e83e 67e6 0b3e 8948 58bf
00000030: defe 3bbe 17fb cfbd c9e6 72bf 74eb cebe
00000040: fc3d d9be bea8 a63e cfea 27bf 2665 dfbe
00000050: a9d7 093f 6325 22bf e29f 5e3d 6c89 5ebd
00000060: d350 51be 3522 2cbd 9a03 9fbd 4417 b93e
00000070: da4d 253f ca09 583d 4478 70be b1b5 aa3e
00000080: 0fb4 07bf 1a9c d1be 215e a2bf 47e2 bfbe
00000090: 92c1 f13f 12ef a8bf 9989 27bf e63f 96bf
000000a0: faaf 3f3f c729 d13d 3c6e bc3e 45bf 593f
000000b0: cc0c 663f 0024 c63f 0d40 1f3d a42e 553f
000000c0: 2c31 03bf 999f a1bf 7e61 3e3e 93db ac3f
000000d0: 7610 0d40 9a25 e4be d42b 84bf 3bd3 583f
000000e0: 3cf1 98bf 6c26 8b3f 5d6a 3c3c 03ed 213f
000000f0: 51c7 1fbf d67d 2d3d fc87 44bd d4e8 523f
00000100: c5db d03d a32e 56be 9221 39be 67b1 bbbe
00000110: 4799 c4be c733 a4bd c3f7 d13e 0b77 403e
00000120: 45e4 d53e e771 193f 937b efbe 67fe 89be
00000130: 6f81 70be e2fb b93e c9b2 a53f 01ac f93d
00000140: baad 7ebe 96e7 e83e 358b 5d3e ec29 333f
00000150: 18d7 8fbe b635 72be 191a cdbe f727 f6be
00000160: ad63 8a3e bb56 0e3f ce32 88bf 7780 e93d
00000170: ec1c f7be 6606 ec3e b7d3 343f ef60 c0be
00000180: 8755 1e3f a910 a73d aaba 883f 8bfa 2bbe
00000190: d143 843e b667 6c3f 24e5 163f d474 f5be
000001a0: 9398 e43e aa96 72be e212 133f 2b34 16bf
000001b0: 89d4 1bbf 9e7f 833e 2ec6 b9be 59a3 ecbd
000001c0: e717 f53e f82e d43e f576 4a3f 23de 3e3f
000001d0: 3ce6 24bf 3d35 49bf 95e7 8cbe b855 eebe
000001e0: a9af 36bf 5367 433f 4af9 9fbe e22a bcbe
000001f0: fa1e 1a3f cc6a 283f e6c7 323f 82b0 893e
00000200: 66e7 3cbf dd33 b83f 660a 97be 37de e63d
00000210: 7877 003d 730a fe3e ac58 043e 3589 563e
00000220: 52e8 30be 721d eebe 8bf9 e6be a6ab f3be
00000230: fe9b 92be dbaa 08bf 1065 233f 8609 7fbe
00000240: d1c7 3abf afbc 21bf 42e7 33bf 1221 ad3f
00000250: ad37 ef3e e94a 6bbf 85a7 a8bd a8a4 cd3e
00000260: 1e69 cfbf 1e70 cbbf 8782 d03d fbcc 04bf
00000270: 2980 843e 4473 acbe f182 6bbe 8e7f 75be
00000280: 4364 e2bf cd9c 693d 9918 31bf 2d55 2bbf
00000290: 8c57 70be 31cf 81bf cfd3 18bf e829 4e3e
000002a0: 7b90 993f d1b5 b83e 67a5 8dbf 9d11 c7bd
000002b0: e2a5 3f3e 1079 75be ada5 2b3f 996e a9bf
000002c0: 690f 843f 333b 433f 9f8e b03e 6b09 7b3f
000002d0: 26fe dfbf ca9b b4be b80d c43e de3b 69bf
000002e0: e9a9 1bbe 5ec2 9e3f 4278 97bf d27a c8be
000002f0: bf1f 34bf 89c7 5e3f cfa2 633f ebb3 25bf
00000300: 45d2 153f 0898 373f 0056 c43e d4b7 27bf
00000310: 413c c8bf a37c b33e c489 513e 74d3 103f
00000320: 00df 383f 4f16 96be 0638 22be 7106 3ebf
00000330: 3821 6dbf b21e 11bf 5e47 383c 0dc6 a7be
00000340: 12f4 6ebe 2445 35bc 0d40 6f3f 67ed c33e
00000350: 9d49 82be d7bf 35bf 15b6 e33e a5e7 4abe
00000360: c895 4abe 82c0 393f caee dcbe 8be0 3a3c
00000370: 298c 7c3f d398 223f 4913 f1be b7e2 92bc
00000380: d76e 863e f114 02bf 5cda 923d 0409 5dbe
00000390: 9a08 7bbd e8e7 2abd 2520 503e 40c1 923e
000003a0: f5c8 b33d 62e2 13bf b34c 573d 49e1 4fbf
000003b0: 7ddb 55bf ea40 3bbf 6bed 5a3e 976f 5abf
000003c0: a13d 9a3e 156b a7bd 397e 533e ef3e fd3d
000003d0: fbcb 9a3e 600b c4be 9803 743d 47d0 833e
000003e0: 7662 0d3e 2307 91bd d674 84be 6325 dfbe
000003f0: 316b 863e e10b cb3e 2b26 243f fa47 523f
0.6665399 0.05770363 0.7574364 0.15567392 0.45084518 -0.8685986 0.11437695 0.78355575
-0.3482505 0.45336127 0.1366211 -0.8448568 -0.18358943 -0.101553135 -0.948834 -0.4041401
-0.42430103 0.32550615 -0.65592664 -0.43631858 0.53844696 -0.633383 0.054351695 -0.054330274
-0.20440988 -0.04202481 -0.07764359 0.36150563 0.6457192 0.05274371 -0.23483378 0.33341745
-0.5300912 -0.4093941 -1.2684976 -0.37477323 1.8887198 -1.3197958 -0.6544433 -1.173825
0.74877894 0.102130465 0.36802852 0.8505748 0.89863276 1.5479736 0.038879443 0.8327429
-0.51246905 -1.262683 0.18591878 1.3504509 2.2041297 -0.44559938 -1.0325875 0.8469731
-1.1948619 1.08711 0.011499968 0.63252276 -0.6241351 0.042356335 -0.047981247 0.8238652
0.10198168 -0.20916228 -0.18079212 -0.36658785 -0.3839819 -0.08017688 0.4100934 0.18795411
0.41775718 0.59939426 -0.46773967 -0.26951906 -0.23486875 0.36324984 1.2945186 0.1219101
-0.24870959 0.45489186 0.21635135 0.6998584 -0.2809379 -0.23653302 -0.40058973 -0.48077366
0.27029172 0.5560109 -1.0640504 0.11401456 -0.48264253 0.46098632 0.7063555 -0.37573954
0.61849254 0.081574745 1.0681965 -0.16794793 0.2583299 0.9234575 0.5894339 -0.47940695
0.44647655 -0.23690286 0.5745069 -0.5867335 -0.6087118 0.25683302 -0.36284012 -0.115545936
0.478698 0.41442084 0.79087764 0.74557704 -0.6441381 -0.7859686 -0.27520433 -0.46549773
-0.71361786 0.76329535 -0.3124488 -0.36751467 0.60203516 0.6578796 0.6983627 0.26892477
-0.73790586 1.4390827 -0.2950012 0.11272853 0.031363934 0.49617347 0.1292445 0.20950778
-0.17276123 -0.4650684 -0.4511226 -0.47591895 -0.28634638 -0.53385705 0.63826084 -0.24905977
-0.72961146 -0.63178533 -0.70274746 1.3525717 0.46722165 -0.9191118 -0.08235077 0.40164685
-1.6203954 -1.589359 0.10181146 -0.51875275 0.25879028 -0.3368169 -0.22999169 -0.2397444
-1.7686847 0.057034303 -0.6917816 -0.6692684 -0.23470896 -1.0141355 -0.59698194 0.20133173
1.1997217 0.36076215 -1.1066102 -0.09720156 0.18715623 -0.23971963 0.67049676 -1.3236877
1.0317203 0.76262206 0.3448381 0.98061246 -1.7499435 -0.35275108 0.38291717 -0.91106975
-0.15201534 1.2403066 -1.1833575 -0.39156204 -0.7036094 0.87023216 0.889203 -0.6472766
0.5852397 0.71716356 0.38346863 -0.65514874 -1.5643388 0.35056028 0.2046271 0.5657265
0.7221527 -0.29313895 -0.15841684 -0.7422858 -0.9262881 -0.5668746 0.011247484 -0.32768288
-0.23335293 -0.011063848 0.9345711 0.3826706 -0.25446787 -0.7099585 0.44474855 -0.19814928
-0.197837 0.7255937 -0.43150932 0.011406074 0.9865137 0.6351444 -0.47085026 -0.017930372
0.2625644 -0.50813204 0.07170555 -0.2158547 -0.0612875 -0.04172507 0.20324762 0.28663063
0.08778564 -0.5776731 0.05256338 -0.8120313 -0.8353804 -0.73145926 0.2137963 -0.8532652
0.30125144 -0.08174721 0.20653619 0.12365519 0.3023375 -0.38289928 0.05957374 0.2574484
0.13807091 -0.07081439 -0.2587039 -0.4358321 0.26253656 0.396575 0.6412074 0.8214108

encoder.lstm.bias_ih_l0 f4 [128]
00000000: f745 a73e cc7d ffbe 46fc a63f 95c9 8f3e
00000010: ba77 ca3d 4937 8ebe d92d e53e 1dae 0c3f
00000020: 1a72 903d 45b5 04bd bf3e 353f 3b0a 973e
00000030: fd1c 13bf 7475 7c3e 2039 343d 0cec 853e
00000040: 12b0 a93e c1d2 823e fe22 a4be 6534 063f
00000050: fdfe ba3e 997f 0f3e 7e02 82bd e3ff 8b3e
00000060: 3cba cd3e 400c ae3d dff9 c43e 8fa6 a2be
00000070: 2c06 013f e98b 3e3f 9ff2 c3be 855d 77bc
00000080: 5b13 ae3d ef8a 213f c2a2 cb3d a867 903e
00000090: aa74 ab3e 223b 923c 082d 2ebd a636 ecbe
000000a0: 9bb3 e53d 7967 7239 2791 19be e55a b6bc
000000b0: c41d c3bb f08c 143e baaa b2be a3e8 253e
000000c0: 1377 d1be 7b6f c3bd 534a ff3e 410c 9b3d
000000d0: 6f39 93be 9009 c93e 9893 a23e e843 b5be
000000e0: d264 2fbc b7fd 653e da3e 4ebe 144d 98be
000000f0: 9568 80be 55e3 5cbe 32c0 b13c b735 3ebe
00000100: 9276 843e cd89 453e b0d2 dd3d 532e 4dbe
00000110: 61bc b3be 2136 eb3d e289 c5be 1012 8e3e
00000120: edc4 96bd 72db 013d c27b 693d 52ce 1a3e
00000130: 3524 b8bd 54ed 8ebe 1a8e 083e 98ef fdbc
00000140: aff5 593e 6c31 a83e 4fc4 debd 6da7 f43c
00000150: ddce e1be f3c7 73be e132 4f3e 0ecf fd3e
00000160: beac 333d e05b 8c3d def4 8abe cdf5 5cbe
00000170: 46f7 3b3e 1f11 873e ecd8 353e 0a54 31be
00000180: 3a5b df3e 8ba1 bf3d e2a3 e93e bcf4 683e
00000190: 45f5 023f 62f4 7ebe d516 8cbe 81d7 0f3f
000001a0: 2431 053d b373 203e e4f7 073f 415d dabd
000001b0: 512e 2b3e 6b53 a23e f500 18be 151e 9c3e
000001c0: 2e3a ac3e 82ff 863e 7203 823e 8d54 11be
000001d0: f9b6 2a3d 3c2a f73d baa7 14be c735 b33e
000001e0: 8d2a eb3c f3f6 b43e 9350 71bd aa5f 24bd
000001f0: c37e d33d 4367 94bc 79b2 013e 0e5a 693e
0.32670566 -0.49900663 1.3045738 0.28083482 0.09886117 -0.27776554 0.4476154 0.54953176
0.07053013 -0.032399435 0.7079887 0.29499993 -0.5746611 0.2465418 0.04399979 0.26156652
0.33142143 0.25551417 -0.32057947 0.524237 0.36522666 0.14013518 -0.063481316 0.27343664
0.40181148 0.0849843 0.38471887 -0.317677 0.5040004 0.74432236 -0.38271043 -0.01509798
0.084997855 0.6310262 0.09943153 0.28204083 0.33487445 0.017850462 -0.042523414 -0.46135443
0.11215898 0.00023117465 -0.14996777 -0.022260139 -0.005954476 0.14506888 -0.3489588 0.16202025
-0.4091116 -0.095427476 0.49861392 0.075706966 -0.28754756 0.39265108 0.3175323 -0.3540337
-0.01070519 0.22460066 -0.20141163 -0.29746306 -0.2507979 -0.21571095 0.021698091 -0.18575178
0.25871712 0.19290848 0.10831201 -0.20037203 -0.3510466 0.11484934 -0.3858176 0.27748156
-0.07361779 0.03170342 0.05700279 0.15117767 -0.08991281 -0.27915442 0.13335457 -0.030998036
0.21285127 0.32850206 -0.10877287 0.029864991 -0.44103137 -0.23806743 0.20234253 0.49572033
0.04386591 0.06853461 -0.27139944 -0.2157814 0.18356046 0.2638025 0.1775853 -0.17317215
0.43624288 0.09356984 0.45632845 0.22749609 0.511555 -0.24897912 -0.2736117 0.5618821
0.032517567 0.15669136 0.53112626 -0.10662318 0.16716887 0.31704268 -0.14844115 0.304917
0.33638138 0.26366812 0.25393254 -0.1419241 0.041678403 0.120686024 -0.14517108 0.35001966
0.028706813 0.35344657 -0.058914732 -0.040130295 0.10326912 -0.018115645 0.12665738 0.2278826

encoder.lstm.bias_hh_l0 f4 [128]
00000000: 573e a73e b25b fdbe c87a a63f c258 8f3e
00000010: d98f c23d 905e 8ebe 6f4e e23e 404c 0b3f
00000020: ff86 983d 2a74 0cbd fb08 343f af25 983e
00000030: 87b3 10bf 7c7c 803e e077 3a3d 7c4a 863e
00000040: 2eaa a93e 7467 863e 965f a6be ec64 053f
00000050: 1e88 be3e cd0f 123e 6a62 78bd bd41 8a3e
00000060: 7f7c d03e a265 b03d 22d4 c13e fc4e a1be
00000070: 139b 003f 938b 3c3f d98d c7be 7e36 88bc
00000080: d984 b83d 6b6f 213f c73b d33d e80e 913e
00000090: accc ab3e 4e7a 903c d91f 4abd eef3 ebbe
000000a0: f2a5 e63d 8fb4 6f3a c893 17be ef94 d3bc
000000b0: 9bb5 50bb 7863 0b3e ee63 b2be f197 263e
000000c0: 7df3 cfbe 6937 bfbd c879 003f fe03 933d
000000d0: 1b9d 91be bf96 ca3e ca62 9e3e 5c72 b6be
000000e0: 15e8 1abc f5de 683e 53a3 4cbe d29d 99be
000000f0: 48f6 7bbe fe26 5ebe 6826 cc3c ebf6 3ebe
00000100: ea93 843e 9585 403e 0fce e83d 2a3f 4dbe
00000110: d89e b3be f819 de3d 651d c6be c2f8 8f3e
00000120: 03eb 8dbd 29ba 063d 880b 4f3d f25c 143e
00000130: e2e5 b2bd 0e50 90be 32d4 0d3e 2857 0cbd
00000140: 45f8 593e 5e31 a83e 09e3 e6bd f968 0b3d
00000150: e179 e5be a018 76be 1657 4e3e 4b16 fe3e
00000160: ac9b 223d 272f 8e3d aef7 88be 2d8e 60be
00000170: 107f 3b3e d26f 883e 3600 343e 86eb 2dbe
00000180: 4111 e23e cf23 ba3d 4c56 eb3e e72f 6c3e
00000190: 0f37 043f 8c99 82be 86e4 8bbe 5935 0f3f
000001a0: b8e6 e33c 38d8 233e feaf 073f 3d15 e5bd
000001b0: 55af 2b3e 054a a33e aaff 19be 6f99 9c3e
000001c0: 6a43 ac3e 5fb2 883e b638 813e 87c7 11be
000001d0: 0826 393d c995 ed3d 842f 10be e5b7 b33e
000001e0: ef30 d83c 3ccf b63e 7f0c 63bd fa64 15bd
000001f0: ea36 c83d 5334 6abc 4623 f73d 5210 653e
0.3266475 -0.4948402 1.300622 0.27997404 0.09500093 -0.2780652 0.44200465 0.54413223
0.074476235 -0.03429047 0.70326203 0.2971625 -0.56523937 0.25094974 0.045524478 0.26228702
0.3313765 0.26250803 -0.324948 0.5210712 0.37213224 0.1426384 -0.06064073 0.2700328
0.40719983 0.08613135 0.37857157 -0.31505573 0.50236624 0.73650473 -0.3897541 -0.016627546
0.09009714 0.63060635 0.10314136 0.28331685 0.3355459 0.017636444 -0.04934678 -0.4608454
0.1126212 0.0009144032 -0.14802468 -0.025827853 -0.0031846527 0.13612163 -0.34841865 0.16268899
-0.40615454 -0.093367405 0.50185823 0.07178496 -0.28440174 0.39568135 0.30934745 -0.35634124
-0.009454747 0.22741301 -0.19984178 -0.3000322 -0.24605668 -0.21694562 0.024920657 -0.18648879
0.258941 0.18800958 0.113674276 -0.20043626 -0.35082126 0.10844797 -0.386943 0.28119475
-0.069295906 0.03289238 0.050548106 0.14488581 -0.08735253 -0.28186077 0.13850477 -0.034262806
0.21286114 0.32850164 -0.11273772 0.034035657 -0.4481955 -0.24032831 0.20150408 0.49626383
0.03969924 0.06942587 -0.26751465 -0.21929236 0.18310189 0.26647812 0.17578205 -0.16984376
0.4415379 0.09088861 0.45964277 0.23065148 0.5164651 -0.25507772 -0.27322787 0.5594078
0.027819976 0.1600045 0.5300292 -0.111856915 0.16766103 0.3189241 -0.15038934 0.3058581
0.33645183 0.26698586 0.2523858 -0.1423627 0.045202285 0.11600835 -0.14080626 0.35101238
0.02639052 0.35704982 -0.05543184 -0.036473252 0.09776099 -0.014294702 0.12067275 0.22369507

decoder.lstm.weight_ih_l0 f4 [128, 5]
00000000: ec89 723f d77b 133f 6d0e 253f ad55 bc3e
00000010: 2c8f 453e ec92 6d3d 5485 55be a229 23bf
00000020: 1647 64bf bf90 803f 1329 4640 47b3 1c3f
00000030: 082b 203e 5942 0d3f a763 c63e 3b6f 3f3d
00000040: 2f3a 4fbe 13b2 b13f 8cc2 c63f a7c7 cebf
00000050: 4b97 c03e 7fef fbbe 44b2 b53e d72e ea3d
00000060: ebee a63d babe 2cbf c654 1b3e 87bd 133f
00000070: 3092 723e b29c 3a3e e05d 163d 6b0b 883e
00000080: e22f 123f 8b66 afbf 881b 81bd 8bbf a9be
00000090: cb74 b73e 7b80 89bf 08ea 023e e2db 87bf
000000a0: 3770 b9bd 9a6a 54bf fd8d e73e 735d 97be
000000b0: 25b2 9fbe 4093 873e 41e3 37be 0511 23be
000000c0: 3510 883e 14c7 1b3f f777 afba 1e8a 153f
000000d0: b9e0 f13d c33b ac3e 3c59 1abe f666 683e
000000e0: f934 be3f 3fd0 3fbf 32da 9dbf 09e0 293f
000000f0: a241 87bf 3b77 0dbe 6a9f c6bc 100a 8fbe
00000100: cb7b 383f db55 37bd 8365 9e3f bc65 b0bf
00000110: 824a a63e 86ae f2bf fffa 23c0 61b2 0a3e
00000120: 730e b13e 0250 d73e 9c6d bd3e 8df8 9540
00000130: 89ca 09bf 3944 47bf 8844 92be 9a5a f7be
00000140: 2359 42be 92f9 5340 4d52 6bbf 8439 143f
00000150: 91b4 dbbe 1c69 6abf dff9 2241 651f 453f
00000160: 0ad4 653f cc63 64bf e1be 6d3e eb1b 083e
00000170: 78cb 833e 05a8 6e3f c99e 1f3f 3f33 483e
00000180: 058e 3840 9878 3540 3f15 e6bf a20c 87bf
00000190: efd2 7cbd 2051 813e 0784 d1bd 5bb9 9fbf
000001a0: d0a1 c93f f03f 01be 8083 613e 7828 9cbf
000001b0: b1b3 04bf c91a bc3e 7428 c13f 1cb6 2940
000001c0: 7aaf d93f 2470 a43c a1b0 9fbd 7d0d a73f
000001d0: 94bd 97be 3fb4 1e3e 24a1 cabe 45cc 283e
000001e0: 1e53 343e 9484 c7be 4bc3 7ebf e92b 373f
000001f0: 2fd1 19bf 326c 423e e60b f8bd 590f a43f
00000200: d3be cfbd 3afc 59bf bcf6 fbbd 071e a33f
00000210: 7f27 983e 56e1 20bf f6ae 05c0 f2bd 693e
00000220: 735a 8b3d 50aa 513e 557c a03e 07ef 7e3e
00000230: dbbe af3d d3f7 f9be 6be5 debe 8245 9bbd
00000240: 7be4 28bf 6b90 8cbb f863 fb3e f6dc 743e
00000250: d88c 4abf b36e 16bf 6e0a 163f bb2b 473e
00000260: 68df 85be b208 4bbe 9d6f 48be 8d70 8fbe
00000270: 6938 4140 7d7f f33e bbe7 af3f 3423 86bf
00000280: b94a 87be 4af6 36bd bf50 bfbe 8925 65be
00000290: 1f91 033b b84b 3f3d 96e5 093f 2833 903e
000002a0: d498 75be 3b69 093f 40ce 0dbf 9321 e2be
000002b0: c288 abbe 3311 c2be 36c5 cfbe a94a 97be
000002c0: bafb a53d f1e1 10bf 5c29 b13f 3475 5ebe
000002d0: 44c6 ccbd d4c2 68be 6acb 0a3e c308 a03d
000002e0: 25a9 ebbd f9ca da3e 96d7 9abf 04ba cd3f
000002f0: 4402 503f 90f3 d0be de5d 7b3d 50c0 233f
00000300: 754d bd40 500b bebe de8e b5be 9c62 013e
00000310: 3fed 083f c0f0 803f c7f4 573f 7810 9d3b
00000320: c3e3 02be 6188 eb3e 68ed 403f 9867 723e
00000330: e5fd a9be 7b19 67bd 65c5 f9be b94a 053e
00000340: 9c43 2e3d 9bd6 8c3d 2a50 1e3e d2df 14bf
00000350: 75a1 2d3e 5bd4 3f3f ef52 f53e 55a3 e33e
00000360: 9a92 993e 401c c2be d03b 90bf 14a5 103f
00000370: c26e 28bc 4dea 61be 0058 103f ca10 a8bc
00000380: 0c7a b0bf d8bb a7b9 a2fb 2abf 54e7 74bf
00000390: a486 3d40 c737 ec3f 6934 97be 090a d73e
000003a0: ffc1 f63c ec16 993e 9c2d 213e accf 603f
000003b0: 9872 37bf 8481 63be eeb2 3cbe 9702 c8be
000003c0: 42f2 49be b125 9d3f 6a74 1a3e 5291 96bf
000003d0: 3a00 7d40 4e92 6dbe 0826 ba3f 1bc5 b03f
000003e0: a17e bbbe 3c8f c2be 2d68 8a3e fce7 26be
000003f0: ccca 1fbe ca77 0cbf 6af9 0cbf 5aad 423e
0.947417 0.5761084 0.64475137 0.36784115 0.19292897 0.058001444 -0.20851642 -0.637354
-0.8917097 1.0044173 3.096257 0.61211056 0.15641415 0.55179363 0.38747904 0.046736937
-0.20237039 1.3882469 1.5528121 -1.6154679 0.37615427 -0.4920616 0.35487568 0.11434715
0.08151039 -0.67478526 0.15169057 0.5771107 0.23688579 0.18223837 0.03671062 0.2657121
0.57104313 -1.3703169 -0.06304079 -0.33153948 0.35831293 -1.0742334 0.12784588 -1.0613978
-0.090546064 -0.8297516 0.45225516 -0.29563484 -0.311906 0.2647953 -0.17957784 -0.15924461
0.26574865 0.60850644 -0.0013387193 0.58413875 0.118104406 0.33639345 -0.15073103 0.22695526
1.4859916 -0.74927133 -1.2332213 0.66357476 -1.0566905 -0.13815014 -0.024245936 -0.27937365
0.72063893 -0.044759613 1.2374729 -1.3781047 0.3247872 -1.895951 -2.5621946 0.13544609
0.34581336 0.4205323 0.36997688 4.6865907 -0.5382467 -0.77838475 -0.2856791 -0.4831131
-0.18979315 3.3121076 -0.91922456 0.5790026 -0.429112 -0.91566634 10.186004 0.7700103
0.8977667 -0.8921478 0.23217346 0.132919 0.25741172 0.9322513 0.6235166 0.19550799
2.8836682 2.8354855 -1.7975234 -1.055073 -0.0617246 0.25257206 -0.1023026 -1.2478441
1.5752506 -0.12622046 0.2202282 -1.219985 -0.5183669 0.36739185 1.509047 2.65174
1.7006676 0.020073004 -0.07797361 1.3050991 -0.29636824 0.15498446 -0.39576066 0.16484173
0.17609832 -0.38968337 -0.99516743 0.71551377 -0.60084814 0.18986586 -0.121116444 1.2817184
-0.10143819 -0.8515049 -0.1230292 1.2743539 0.29717633 -0.62843835 -2.0888038 0.22826365
0.06804361 0.20475125 0.31344858 0.24895869 0.08581325 -0.48821887 -0.43534407 -0.07581617
-0.65973634 -0.004289677 0.49099708 0.23912415 -0.7912116 -0.58762664 0.58609664 0.19450276
-0.26147008 -0.19827536 -0.19573827 -0.28015557 3.019068 0.47558203 1.3742594 -1.0479493
-0.26424196 -0.044668473 -0.37366292 -0.223776 0.0020075513 0.04670307 0.53865945 0.2816403
-0.2398408 0.53676194 -0.5539284 -0.4416624 -0.33502775 -0.37903747 -0.40580148 -0.2954915
0.08104654 -0.5659476 1.3840747 -0.21724397 -0.09998754 -0.22730571 0.13554159 0.07814171
-0.11506871 0.4273298 -1.2097042 1.6072392 0.8125346 -0.40810823 0.061368816 0.6396532
5.915705 -0.37118006 -0.35460562 0.12635273 0.5348701 1.0073471 0.84357876 0.004793223
-0.12782197 0.46002486 0.75362253 0.2367233 -0.3320152 -0.056420784 -0.48783413 0.13016786
0.042544946 0.0687687 0.15460268 -0.5815402 0.16956122 0.74933404 0.47914836 0.4446055
0.2999466 -0.37912178 -1.1268253 0.5650189 -0.010280313 -0.22062035 0.5638428 -0.020515818
-1.3787246 -0.00031992677 -0.6679021 -0.9566548 2.9613428 1.8454522 -0.29532173 0.41999844
0.030121801 0.299003 0.15740055 0.8781688 -0.7165923 -0.22217375 -0.18427631 -0.39064476
-0.1972132 1.2277128 0.15083471 -1.1763098 3.9531388 -0.23200342 1.4542856 1.3810152
-0.36620048 -0.37999904 0.27032605 -0.16299433 -0.15604705 -0.54870284 -0.55068076 0.19011441

decoder.lstm.weight_hh_l0 f4 [128, 32]
00000000: 1d2c 8e3e 1ea1 28be 9464 51be b257 bf3e
00000010: 2e07 613f f79e 48bf 0923 663e fba4 07be
00000020: ec86 a5be 5146 eebe fe79 a2be 881d f33e
00000030: c66f 96be 3124 d5be 3556 0dbf 80c7 853f
00000040: 0fe9 fcbd a102 e5be 0c2e f5bc d24e 5ebe
00000050: f232 3d3d 578f cf3e 9a96 123f 808f e2bf
00000060: 574a d3be 2430 96be f36d 043f 7e17 c0bd
00000070: 7733 ec3e 7de2 9bbe b625 1740 2a5a c2be
00000080: 8c6d 91be 27de 1a3f 5226 b1be e77a 0940
00000090: 8c4c 13bf ede2 cd3f 098e 25bf 3ac5 abbb
000000a0: 168a d5be 40e4 fabd 891e 293e 4f58 8cbf
000000b0: 98dc 17bd 0899 113f 7f87 2cbf 87bb c6be
000000c0: 25f1 3a3f f34b 903c 9e74 413e cde2 44be
000000d0: 7129 b4be e3e4 063d 64a8 5c3f f1f8 3f3f
000000e0: 232a a2bf 894f 7cbf e124 6c3f f3bf 443e
000000f0: 093c 62bc b97a dabf 91c6 5abf e799 1cbe
00000100: ac8a 813e cac7 5e3f 9dda 603f 96c4 3abe
00000110: 9f41 05bf 114f a13e 4115 d43d ef9f 76bf
00000120: 4dda a6bf ff6a a9bd ccd7 06bf bbb6 c43f
00000130: 8865 ad3f 1730 863e 4c2a f4be de00 91bf
00000140: edb7 653f de74 0d3e 1cfe 5a3f 03b3 91bf
00000150: b680 0cbf 2fc0 42bf 78b2 cbbd aff9 073e
00000160: 5e59 2e3f ae77 7abe d1c9 123f 2d46 ea3c
00000170: e487 54be 9517 43bd 2b9b 913e 489f 83be
00000180: f017 53bf a3e3 073f e97c ffbe 993a b6bf
00000190: 3816 17bf 2fbb e2be e8f3 3f3f 0ab1 f23d
000001a0: 3319 833f c634 c5bf da09 cdbf c68a 1d40
000001b0: 33cf 17bf fca2 59bf e05b a83e 3cbb d4bc
000001c0: e2cd 36bf bb7e a23e 5f9d 893e 8c5c b53e
000001d0: 5bf5 0cc0 0bbe 2e3f 397d d0bf 9ef5 de3e
000001e0: 381c a83f 5f8e 02c0 13b5 1abf 932a f4bd
000001f0: fcef de3e 31d5 d63e 18f1 42bf 4c2c 373e
00000200: 757e 003f 33d6 5dbe bff6 4ebf 51bb fcbe
00000210: 1ea7 febe a93b 20bf cbd0 273e 80e1 54bd
00000220: a98f cc3e 77f3 94be 1583 1dbf 7229 733e
00000230: f351 9fbf 68f2 5cbe 5e5f 923e 2b48 f2bd
00000240: c4fc cbbe 4808 173e d969 f03e c126 ac3e
00000250: 0642 d93f ff58 55bf 2500 bd3e c60a bc3e
00000260: 1721 bcbd 0069 d03d 24ec 5d3e c5a8 e1be
00000270: 91e2 193f 407d 393f 3b96 66bf a307 f53e
00000280: 2014 823f a846 debe 4c15 94be 1ef6 873e
00000290: 9559 f33e 3062 3d3f 726c 54bf 2ff4 b73f
000002a0: 8be3 90bf 13bf 853e bd0c 07bf 547e 103e
000002b0: 8bc1 90be a220 a5bf e7fd a0bf 0101 ac3e
000002c0: 538f 49bf 2d9d 823f 190e f33e 60fd 0fbf
000002d0: 3f33 0cbe 940d 2cbf b3e2 26bf 30cf d73f
000002e0: ea1f aabf 3992 ab3f b7e3 963e cd3f 393f
000002f0: ad37 843f 83d3 603f 0fae d4bf de8f 15bf
00000300: 9e3d 6a3c a816 dd3e 7925 edbe 06c6 f0bd
00000310: 88a1 84bb f0dc 5ebf 856b 18bf 5033 103f
00000320: b4a5 edbe bffe c0be ec6a 853f 2691 c63d
00000330: 7ae1 44bf 8532 fa3d dd72 68be d6ac d6be
00000340: b3ce 83bf 08b0 26bd a1ad 86be d55a 9a3e
00000350: 65dd 8cbe 9331 0a3f 0185 9e3d c91c 813e
00000360: fa10 c1be d588 193e 869b cbbf cc47 b7bd
00000370: 529c a2bf 4476 c33f d52c a13f 713c 90bf
00000380: 6d03 293f 7f39 13bd 33c1 a83e 432e fa3e
00000390: 07f5 293e c166 273e 85a0 d23d 2691 f03e
000003a0: 4aea 053e c244 253f 0156 533e f28b bb3f
000003b0: 1f97 483e c83d e73d c4bc eabd 4ac4 51bf
000003c0: 060b 103e 3fc9 1f3f 22b7 30be 3439 933c
000003d0: b416 dc3d 961a b6be d223 8f3f 01d3 e0be
000003e0: 6de8 1bc0 50f4 783e f970 17bf d41f 453e
000003f0: 819c 823f 0d98 19bf 9add 133f d1b3 a7be
0.2776803 -0.16467711 -0.20448524 0.37371594 0.8790158 -0.7836756 0.22474302 -0.13246529
-0.323295 -0.46538022 -0.31733698 0.47483468 -0.2938215 -0.41629174 -0.55209666 1.0451508
-0.1234914 -0.44728568 -0.029929183 -0.21709755 0.046191163 0.40539047 0.5726105 -1.7700043
-0.41267654 -0.29333603 0.5173027 -0.09379481 0.46133015 -0.30446234 2.3616767 -0.37959415
-0.2840389 0.6049523 -0.3459955 2.1481264 -0.57538676 1.6084877 -0.64669853 -0.005242017
-0.41706914 -0.122505665 0.16515554 -1.096445 -0.03707561 0.5687413 -0.6739425 -0.38814947
0.7302421 0.01761434 0.18892142 -0.19227143 -0.35187867 0.032933127 0.86194444 0.7498923
-1.2669109 -0.9855886 0.9224377 0.19213848 -0.013808259 -1.7068702 -0.8545924 -0.15293084
0.2530111 0.87023604 0.8783358 -0.18239054 -0.52053255 0.31505635 0.10355616 -0.9633779
-1.303537 -0.08272361 -0.5267303 1.5368265 1.354661 0.26208565 -0.4768852 -1.132839
0.89733773 0.13814113 0.8554399 -1.1382755 -0.548839 -0.760745 -0.099461496 0.1327884
0.68105114 -0.24459717 0.573392 0.028597916 -0.20754963 -0.04762991 0.28438696 -0.2570746
-0.824584 0.5308172 -0.49899986 -1.4236633 -0.5901828 -0.44283435 0.74981546 0.11850174
1.0242065 -1.540673 -1.6018631 2.461595 -0.59300536 -0.8501432 0.32882595 -0.025968187
-0.714079 0.31737313 0.26877877 0.3542217 -2.2024753 0.6825873 -1.6288215 0.43546766
1.3133612 -2.0399396 -0.6043255 -0.11922183 0.4354247 0.41959527 -0.7614913 0.17887992
0.5019296 -0.21663742 -0.80845255 -0.4936166 -0.49736875 -0.62591034 0.16388242 -0.051972866
0.39953354 -0.29092 -0.6152814 0.23746279 -1.2446884 -0.21576846 0.28588384 -0.11830171
-0.39841282 0.14749253 0.46955755 0.33623317 1.6973274 -0.8333892 0.36914173 0.3672697
-0.09185999 0.10176277 0.21672112 -0.44074073 0.6011134 0.7245674 -0.90072984 0.4785739
1.0162392 -0.4341328 -0.28922498 0.2655496 0.47529283 0.7397795 -0.82977974 1.4371394
-1.1319441 0.2612234 -0.5275381 0.1411069 -0.28272662 -1.2900584 -1.2577485 0.33594516
-0.7873432 1.0204216 0.47471693 -0.56245995 -0.13691424 -0.6720822 -0.65189666 1.6860104
-1.3290989 1.3403999 0.29470608 0.7236298 1.0329491 0.8782274 -1.6615618 -0.5842265
0.014296917 0.43181348 -0.46317652 -0.1175652 -0.0040475763 -0.87055874 -0.5953906 0.56328297
-0.46415484 -0.37694356 1.0423255 0.096956536 -0.7690655 0.12216667 -0.22700067 -0.41928738
-1.0297455 -0.04069522 -0.26304343 0.30147424 -0.2751266 0.53981894 0.07740212 0.25217274
-0.37708265 0.14993604 -1.5906837 -0.08949241 -1.2703955 1.5270467 1.2591807 -1.1268445
0.6602085 -0.035943504 0.329599 0.4886342 0.16597377 0.16347791 0.10284523 0.4698574
0.13077655 0.6455804 0.20638277 1.4652083 0.19588898 0.11291081 -0.114617854 -0.8194014
0.14066705 0.6241645 -0.1725736 0.017971613 0.10746518 -0.35567158 1.1182806 -0.43910983
-2.4360611 0.24311948 -0.5915676 0.19250423 1.0204011 -0.59997636 0.5776001 -0.32754377

decoder.lstm.bias_ih_l0 f4 [128]
00000000: f5e7 d53e 5b92 9e3c 8da0 e93e ea90 d8be
00000010: 9325 9cbc 3307 b43e 834c 90be 006a d2bd
00000020: 52dd b9be 1423 423e fc71 463e 0a7b cebd
00000030: 2a0e 8f3d 9e78 85be 7708 b23e 290e 09bf
00000040: a328 823e ec88 833e 4c08 0c3f c1b1 38be
00000050: f314 95bd bc38 c3be 0c57 c83e 2141 27bd
00000060: 08ba b1be ff45 33bf 3112 aebe b55b 7a3e
00000070: ed41 4ebf c0f3 b9be 6465 15be d4f9 d73e
00000080: d956 1fbe 0b08 4e3e c17a d2be 64fd 4f3e
00000090: f842 4abd 07fe 843e cd0b 84bc a13c 023f
000000a0: 4927 443e 7916 49bd 2c4c 613e 5627 b2be
000000b0: d231 5dbe e806 0e3e 2160 6b3e eda3 babe
000000c0: 443e 803e 4111 163e 2fef cebe da5d 303e
000000d0: ff94 b33e b28f 23bd 4c7e b8be 8d55 16be
000000e0: 03d8 953e e642 053f 2a4c 313f 669a d0be
000000f0: 8f8d 943d 7da9 1abe 0fa6 0c3d 560a 3a3e
00000100: e531 893e a30c 253b a747 38be fdcd 023d
00000110: 94e8 c43d 9cb2 643d ab74 a83c de93 c23d
00000120: 9c62 42be 14f0 033e ed6b 15be 537e c6bc
00000130: 1227 39bc 6bfa c23d 63c9 3e3e 471b 033e
00000140: 0e19 1dbe 037b 03bc 6002 db3d 562c 3dbc
00000150: 4cc3 d2be be19 2ebc 8614 9c3d 8134 f0bc
00000160: 03fa 0b3e 26fb 62bd 0a3b 1fbc 5d2a 74bc
00000170: 0dc4 84bd aad0 f6bd f78d 12be 17db 153e
00000180: ea69 283e 6420 3e3e 1d94 263e bf5c 1b3d
00000190: d19e 9b3e 9451 533c 9efe d739 91ad e03e
000001a0: 785a 723e 88e1 7e3e 9843 333e bb84 5d3e
000001b0: 4841 c2ba 4e20 b9b8 399d bcbc 38d1 52bd
000001c0: 3a3a f5bb b417 343e b4b4 673d 703f 77be
000001d0: 3a2a 323e 1347 ac3d 6860 bc3e f8b7 9e3e
000001e0: 166a ebbd aa47 043f 6e96 c53d 2c29 273d
000001f0: a362 573e ef7b a23e 4e24 94bd 7bdc 14be
0.41778532 0.019356897 0.45630303 -0.4229806 -0.019060886 0.35161743 -0.28183374 -0.10274124
-0.36301666 0.18958694 0.19379419 -0.100820616 0.069851235 -0.26068586 0.34772083 -0.5353723
0.25421628 0.256904 0.5470016 -0.18036558 -0.07279386 -0.38129222 0.39128911 -0.040833596
-0.34712243 -0.7002868 -0.33998254 0.24449046 -0.80569345 -0.3631878 -0.14589459 0.4218279
-0.15560474 0.20120256 -0.4110928 0.20311505 -0.049380273 0.25975057 -0.016118908 0.5087376
0.19155611 -0.049093697 0.22001714 -0.34795636 -0.21601036 0.13869822 0.22985889 -0.3645319
0.25047505 0.1465502 -0.40416858 0.17223302 0.35074612 -0.03993196 -0.36033857 -0.14681073
0.29266366 0.52055204 0.6925684 -0.40742797 0.07253563 -0.15103717 0.034338053 0.18168005
0.2679588 0.0025184534 -0.17996083 0.031934727 0.09614673 0.055834398 0.020563444 0.0950086
-0.18982929 0.12884551 -0.14591952 -0.024230158 -0.011300819 0.0952042 0.1863151 0.12803374
-0.15341589 -0.008024934 0.10693812 -0.011546215 -0.41164625 -0.010626255 0.07621102 -0.02932191
0.1366959 -0.055415295 -0.009718666 -0.014902678 -0.06482706 -0.12051518 -0.14311968 0.14634357
0.16446653 0.18567044 0.16267438 0.037930246 0.30394605 0.012897868 0.000411977 0.4388242
0.23667324 0.24890721 0.17506254 0.21632664 -0.0014820481 -8.827505e-05 -0.023024188 -0.051469058
-0.007483748 0.17587167 0.056568816 -0.24145293 0.1739892 0.08411994 0.36792302 0.30999732
-0.11494844 0.5167185 0.09647833 0.04081075 0.2103372 0.3173518 -0.07233487 -0.14537232

decoder.lstm.bias_hh_l0 f4 [128]
00000000: 891e da3e 88c7 803c 650a ea3e 8f75 d8be
00000010: ef53 7cbc f267 b73e 8503 92be 1332 cfbd
00000020: 2995 bbbe 1fa2 443e 9fa3 4c3e db96 d3bd
00000030: 3e5f 8d3d a138 85be 6067 b13e 3b14 09bf
00000040: 94aa 853e c37a 813e 9a52 0b3f 6549 30be
00000050: eb3c a0bd 3d35 c1be 6c8f ca3e 616b 24bd
00000060: 3268 b2be b705 34bf 7769 adbe 6794 783e
00000070: ccd5 4ebf 407a b9be 751f 15be 5321 d93e
00000080: 4d29 1ebe e0fc 4e3e 30c0 cfbe ce3f 4d3e
00000090: 39c1 48bd 9e1a 853e d9af a5bc 9892 013f
000000a0: d82c 413e b0aa 2dbd 3a31 603e 110d b0be
000000b0: 92c7 66be eb9e 093e 4eee 6b3e 5823 bbbe
000000c0: 54ee 7d3e b5fa 173e 034a d0be 0d00 2f3e
000000d0: 0981 b03e 7157 0cbd e831 bcbe 61e3 15be
000000e0: 06e6 923e 02ef 053f 627b 2f3f bda1 d5be
000000f0: 8a66 9c3d fa66 17be 47b9 0f3d 3eb0 313e
00000100: 62d5 893e 8c6b 8bbb c333 34be 01de 1d3d
00000110: bb1a cc3d c73d 6a3d de83 c13c ce2b bc3d
00000120: 373a 45be 39e4 0a3e dedd 13be a491 cebc
00000130: c2c9 0cbc 5bdc b83d 4ade 433e 8111 013e
00000140: ef1b 1cbe d5f9 6cbc 17ce d73d b90a 25bc
00000150: b5b1 d0be f854 35bb 8f09 983d 48bd eabc
00000160: 8f1f 0d3e 8147 4dbd 747b 3abc 21ff 6fbc
00000170: 78ef 76bd 54d7 00be c48f 0ebe bac7 163e
00000180: f99f 253e d577 3e3e 5f51 293e ccae 103d
00000190: bf64 9e3e b42e 913c fd57 0c3b 669c df3e
000001a0: 2e28 723e bf0a 823e 75c7 343e 270a 653e
000001b0: 6dc0 443b 7894 3cba c904 afbc 7dbe 61bd
000001c0: 26e3 e9ba 23f9 363e d0fe 5d3d b868 75be
000001d0: 43c1 2f3e e9aa b43d 82f2 bc3e 89ea 9e3e
000001e0: 42c0 debd a7c1 033f 3b58 b63d 1f14 233d
000001f0: 84aa 563e 7714 a03e 41b8 89bd eae5 18be
0.4260142 0.015720144 0.45711055 -0.4227719 -0.015400871 0.3582149 -0.2851831 -0.10116973
-0.36637238 0.1920247 0.19984291 -0.10331508 0.06902932 -0.26019767 0.3464918 -0.53546494
0.26106703 0.25288972 0.54422915 -0.17215498 -0.07824119 -0.3773593 0.39562547 -0.040141467
-0.3484512 -0.7032122 -0.33869526 0.24275361 -0.8079498 -0.36226082 -0.14562781 0.42408237
-0.15445442 0.20213652 -0.40576315 0.20043871 -0.049012396 0.2599687 -0.020225452 0.5061431
0.18864763 -0.04239911 0.21893778 -0.3438497 -0.22537068 0.13439529 0.23040125 -0.36550403
0.24797946 0.14841731 -0.40681466 0.17089863 0.34473446 -0.034263078 -0.36756825 -0.1463752
0.2869112 0.5231782 0.6854764 -0.4172496 0.07636745 -0.14785376 0.035088804 0.17352387
0.2692061 -0.004254764 -0.1759787 0.038541798 0.09966036 0.05718782 0.02362245 0.091880426
-0.19260488 0.13563623 -0.14440104 -0.025215931 -0.008593025 0.090264045 0.19127765 0.12604333
-0.15245031 -0.0144638615 0.105373554 -0.010073357 -0.4076058 -0.0027669054 0.07423698 -0.02865471
0.1378157 -0.05011702 -0.011381973 -0.01464823 -0.06028697 -0.12582141 -0.1392203 0.14724627
0.16174306 0.186004 0.16534947 0.03532295 0.30936238 0.017722465 0.002141475 0.4367401
0.2364814 0.25398824 0.17654212 0.22367154 0.0030021921 -0.00071937544 -0.021364586 -0.055113304
-0.0017844185 0.17868476 0.054198086 -0.23965728 0.17163567 0.08821661 0.3690377 0.3103831
-0.10876514 0.51467365 0.089035474 0.03981411 0.20963484 0.31265613 -0.06724597 -0.14931455

decoder.linear.weight f4 [1, 32]
00000000: 6650 ecbe 3399 813c 7e06 1abf 377f 88bc
00000010: 7287 5c3e 2a65 103d 20ec f23c dced d4bc
00000020: b747 6cbb 1816 babd 4fbd 973b 2830 4d3d
00000030: c1b0 373d dbd9 f53b 2693 853e 25fe 4abf
00000040: 0ae9 a13c 39c4 173d 8bd6 c8be 7a37 c3bc
00000050: a8ab 24bd 3527 f6bc 9217 00bf 89b5 553e
00000060: 1fe1 023d ed2f 193c c7d3 3e3c 727c 92be
00000070: 6832 2dbd 9492 9b3d e0a1 523e c766 8e39
-0.4615509 0.015820121 -0.60166156 -0.016662223 0.21536043 0.035252728 0.029653609 -0.025992326
-0.0036053488 -0.09086245 0.0046307216 0.050094754 0.0448463 0.007502777 0.26088828 -0.79294044
0.019764442 0.037052367 -0.39226183 -0.023830164 -0.040202767 -0.030047992 -0.50035965 0.20870031
0.031952973 0.009349805 0.011647171 -0.2861057 -0.0422844 0.07596317 0.20569563 0.00027160926
