results/MSE_LSTM_enc_dec_output/640_model.pt (torch, 860225 bytes, 10 tensors)

output_zeros f4 [399, 512, 1]
00000000: 0000 0000 0000 0000 0000 0000 0000 0000
00000010: 0000 0000 0000 0000 0000 0000 0000 0000
00000020: 0000 0000 0000 0000 0000 0000 0000 0000
00000030: 0000 0000 0000 0000 0000 0000 0000 0000
00000040: 0000 0000 0000 0000 0000 0000 0000 0000
00000050: 0000 0000 0000 0000 0000 0000 0000 0000
00000060: 0000 0000 0000 0000 0000 0000 0000 0000
00000070: 0000 0000 0000 0000 0000 0000 0000 0000
00000080: 0000 0000 0000 0000 0000 0000 0000 0000
00000090: 0000 0000 0000 0000 0000 0000 0000 0000
000000a0: 0000 0000 0000 0000 0000 0000 0000 0000
000000b0: 0000 0000 0000 0000 0000 0000 0000 0000
000000c0: 0000 0000 0000 0000 0000 0000 0000 0000
000000d0: 0000 0000 0000 0000 0000 0000 0000 0000
000000e0: 0000 0000 0000 0000 0000 0000 0000 0000
000000f0: 0000 0000 0000 0000 0000 0000 0000 0000
00000100: 0000 0000 0000 0000 0000 0000 0000 0000
00000110: 0000 0000 0000 0000 0000 0000 0000 0000
00000120: 0000 0000 0000 0000 0000 0000 0000 0000
00000130: 0000 0000 0000 0000 0000 0000 0000 0000
00000140: 0000 0000 0000 0000 0000 0000 0000 0000
00000150: 0000 0000 0000 0000 0000 0000 0000 0000
00000160: 0000 0000 0000 0000 0000 0000 0000 0000
00000170: 0000 0000 0000 0000 0000 0000 0000 0000
00000180: 0000 0000 0000 0000 0000 0000 0000 0000
00000190: 0000 0000 0000 0000 0000 0000 0000 0000
000001a0: 0000 0000 0000 0000 0000 0000 0000 0000
000001b0: 0000 0000 0000 0000 0000 0000 0000 0000
000001c0: 0000 0000 0000 0000 0000 0000 0000 0000
000001d0: 0000 0000 0000 0000 0000 0000 0000 0000
000001e0: 0000 0000 0000 0000 0000 0000 0000 0000
000001f0: 0000 0000 0000 0000 0000 0000 0000 0000
00000200: 0000 0000 0000 0000 0000 0000 0000 0000
00000210: 0000 0000 0000 0000 0000 0000 0000 0000
00000220: 0000 0000 0000 0000 0000 0000 0000 0000
00000230: 0000 0000 0000 0000 0000 0000 0000 0000
00000240: 0000 0000 0000 0000 0000 0000 0000 0000
00000250: 0000 0000 0000 0000 0000 0000 0000 0000
00000260: 0000 0000 0000 0000 0000 0000 0000 0000
00000270: 0000 0000 0000 0000 0000 0000 0000 0000
00000280: 0000 0000 0000 0000 0000 0000 0000 0000
00000290: 0000 0000 0000 0000 0000 0000 0000 0000
000002a0: 0000 0000 0000 0000 0000 0000 0000 0000
000002b0: 0000 0000 0000 0000 0000 0000 0000 0000
000002c0: 0000 0000 0000 0000 0000 0000 0000 0000
000002d0: 0000 0000 0000 0000 0000 0000 0000 0000
000002e0: 0000 0000 0000 0000 0000 0000 0000 0000
000002f0: 0000 0000 0000 0000 0000 0000 0000 0000
00000300: 0000 0000 0000 0000 0000 0000 0000 0000
00000310: 0000 0000 0000 0000 0000 0000 0000 0000
00000320: 0000 0000 0000 0000 0000 0000 0000 0000
00000330: 0000 0000 0000 0000 0000 0000 0000 0000
00000340: 0000 0000 0000 0000 0000 0000 0000 0000
00000350: 0000 0000 0000 0000 0000 0000 0000 0000
00000360: 0000 0000 0000 0000 0000 0000 0000 0000
00000370: 0000 0000 0000 0000 0000 0000 0000 0000
00000380: 0000 0000 0000 0000 0000 0000 0000 0000
00000390: 0000 0000 0000 0000 0000 0000 0000 0000
000003a0: 0000 0000 0000 0000 0000 0000 0000 0000
000003b0: 0000 0000 0000 0000 0000 0000 0000 0000
000003c0: 0000 0000 0000 0000 0000 0000 0000 0000
000003d0: 0000 0000 0000 0000 0000 0000 0000 0000
000003e0: 0000 0000 0000 0000 0000 0000 0000 0000
000003f0: 0000 0000 0000 0000 0000 0000 0000 0000
0.0 0.0 0.0 0.0 0.0 0.0 0.0 0.0
0.0 0.0 0.0 0.0 0.0 0.0 0.0 0.0
0.0 0.0 0.0 0.0 0.0 0.0 0.0 0.0
0.0 0.0 0.0 0.0 0.0 0.0 0.0 0.0
0.0 0.0 0.0 0.0 0.0 0.0 0.0 0.0
0.0 0.0 0.0 0.0 0.0 0.0 0.0 0.0
0.0 0.0 0.0 0.0 0.0 0.0 0.0 0.0
0.0 0.0 0.0 0.0 0.0 0.0 0.0 0.0
0.0 0.0 0.0 0.0 0.0 0.0 0.0 0.0
0.0 0.0 0.0 0.0 0.0 0.0 0.0 0.0
0.0 0.0 0.0 0.0 0.0 0.0 0.0 0.0
0.0 0.0 0.0 0.0 0.0 0.0 0.0 0.0
0.0 0.0 0.0 0.0 0.0 0.0 0.0 0.0
0.0 0.0 0.0 0.0 0.0 0.0 0.0 0.0
0.0 0.0 0.0 0.0 0.0 0.0 0.0 0.0
0.0 0.0 0.0 0.0 0.0 0.0 0.0 0.0
0.0 0.0 0.0 0.0 0.0 0.0 0.0 0.0
0.0 0.0 0.0 0.0 0.0 0.0 0.0 0.0
0.0 0.0 0.0 0.0 0.0 0.0 0.0 0.0
0.0 0.0 0.0 0.0 0.0 0.0 0.0 0.0
0.0 0.0 0.0 0.0 0.0 0.0 0.0 0.0
0.0 0.0 0.0 0.0 0.0 0.0 0.0 0.0
0.0 0.0 0.0 0.0 0.0 0.0 0.0 0.0
0.0 0.0 0.0 0.0 0.0 0.0 0.0 0.0
0.0 0.0 0.0 0.0 0.0 0.0 0.0 0.0
0.0 0.0 0.0 0.0 0.0 0.0 0.0 0.0
0.0 0.0 0.0 0.0 0.0 0.0 0.0 0.0
0.0 0.0 0.0 0.0 0.0 0.0 0.0 0.0
0.0 0.0 0.0 0.0 0.0 0.0 0.0 0.0
0.0 0.0 0.0 0.0 0.0 0.0 0.0 0.0
0.0 0.0 0.0 0.0 0.0 0.0 0.0 0.0
0.0 0.0 0.0 0.0 0.0 0.0 0.0 0.0

encoder.lstm.weight_ih_l0 f4 [128, 4]
00000000: 973b 493d b4fb 22be b484 dc3f 7e9f 32bf
00000010: f113 2140 afd9 05c0 5622 b43d b7a8 34c0
00000020: ce88 773d 7aa5 e43f abd2 0fbf 750c 1ac0
00000030: 4425 143f 986d 893f 9e4b 323e a120 43bf
00000040: dbc6 c23e 864b 9fbf 0b8d be3f a015 523e
00000050: 2549 0ec0 99af 273f 267f 3cbe 5caf 1fc0
00000060: bc35 2b3f eec3 d53f 1b2d bebf 971e 853f
00000070: d87c 9fbf a6c9 ecbd a26c fe3f d970 d03f
00000080: 5a17 bc3f 0936 abbd 3033 dbbe 3e90 1a40
00000090: d1e6 bcbe 44b9 803f d1fe 5940 d656 3cbf
000000a0: caed 0cbf 6ffe 52bf 6d1d ce3f c155 563f
000000b0: 6721 99be 4b1a fbbe ec6d ab3f 2dfe ff3f
000000c0: 09ee 4d3e 52af 7ebf 2031 8bbf caba 9940
000000d0: 7b18 9b3f 347e bdbf 01a7 813f ae41 50bf
000000e0: b175 c83f 1de5 e1bc 640c 33bf 19cc 653f
000000f0: 7d64 503f 497c 3c3d ab5f 31bf a0a9 b8be
00000100: 1cf8 c4be 6ca7 c7be e9e5 c13d a490 70bf
00000110: a8f5 8e3f b765 d5be f1bb 533f 5078 643c
00000120: 3ff5 723f c0e4 38c0 ce4b c03e ef8a 823f
00000130: b491 46bf a65d 6abf 0acb b23f e9e7 5940
00000140: 4070 843e b352 ccbf 7ab2 433f 1aa3 2640
00000150: c229 2a40 4ee0 303f d6e1 963f 9393 0140
00000160: 97cc 133f dadf b5bd 069a bc3f 1ff2 08c0
00000170: f282 223f 7c90 d43f e431 b73e c34d 67be
00000180: a6e9 ec3e 4697 ce3e 747d 8ebf a313 743f
00000190: 3f2a 97bf d469 f83f 277d af3d a866 fb3e
000001a0: b23a 78bf 39aa 21bf 9dce a23f 9117 c73f
000001b0: 0907 2940 386f 923f 7128 adbf 1f26 183f
000001c0: cfec 1c3c 22c8 ed3f 9b0c 4ebf 7233 8b3e
000001d0: 9404 f7be ac25 133f 0155 c83f 3cd6 cebf
000001e0: 2474 bbbd bd92 613f 271a d5be 0ce5 7cbf
000001f0: 2117 873e 0453 bd3f fbc2 84be dd80 f63d
00000200: 3127 8dbf dd7f 123f 5ab2 b73e 316d 89bd
00000210: d81a 2e3e 94d4 da3f 8547 66bf 9851 a240
00000220: 9a63 ab3f 94d5 ffbf 8dc8 963f 5671 133f
00000230: fc58 b83f 407b 65bf 4c56 b03f b819 833f
00000240: c331 3d3e 4547 d83e 7360 c0bf ac41 cc3f
00000250: abf9 0dc0 5394 1c3f 6113 993f f290 693f
00000260: a921 1a3e 0524 90be d08b c03f b768 49be
00000270: 84af 8d3f 4ee0 c33f 5864 12be 6996 46bf
00000280: 393e 4dbf 9920 c5bf 149e 933c 8764 9ac0
00000290: ebeb 6bbf 704d ac3e 53b5 403f 3b9b 2e3f
000002a0: 3fb5 a8bf b698 15bf 1b1d 083f d6cb 3740
000002b0: caa4 4940 7a82 27be c0d7 9c3f 3c28 dcbf
000002c0: 596a af3f 069b 0bc0 aacb b93f a2a6 c1bf
000002d0: 39cf a5bf 6b17 053f 81ee 8d3f 7f2c e23f
000002e0: 17c9 b8bf 7d4f 7e3f 3d36 05c0 e3cd 0440
000002f0: e4ef 01bf 5def 0e3f e7bf 4c3e 9500 76bf
00000300: 6ded e0bd a1d7 acbf 1c05 493e acf4 e93d
00000310: ea77 033f d760 353f 65b9 a5bf a449 de3f
00000320: 2493 dc3f a858 3f40 7d4e 1d40 82df 99bf
00000330: d07f 8fbf be0e dabe b7c0 d2bf 6f8d ba3f
00000340: 3d8d b93f 11c4 0ac0 857e 03bf b515 53bf
00000350: 1ace 7d3e 94c4 a03f b838 673f e483 08c0
00000360: 515b 3e40 7713 f3bd 68b1 1340 7e68 bb3e
00000370: f306 d8bf 19f2 6abf 0ec9 2fbf 3165 c23f
00000380: 1b9d 1abf 5b06 29bf cce9 a63f 042b 90be
00000390: 209a 4abf 9c7e dcbe fd0e d13f 5845 643f
000003a0: 6621 613f 27d5 1640 574f 1640 f1a9 c5bf
000003b0: 862e 8fbf 8d36 c03f 2f9a d4bf 9d35 bebf
000003c0: 19f0 04bf eea0 19c0 8a62 a73d dc03 0640
000003d0: 5997 733f 7857 3d3e 1290 cfbf ec1e 0840
000003e0: 3df6 bcbf 7642 da3f 3dc9 3f3f c23b 6540
000003f0: 7e65 c33f 6955 c7bf e425 d93e 1038 32bf
0.049129095 -0.1591633 1.7227998 -0.69774616 2.5168421 -2.0914114 0.087956116 -2.8227975
0.0604332 1.7863 -0.5618083 -2.4070103 0.5786936 1.073657 0.17411658 -0.7622166
0.3804234 -1.2444923 1.4886793 0.20516062 -2.2232144 0.65502316 -0.18407878 -2.495078
0.6687887 1.6700418 -1.4857515 1.039996 -1.2459974 -0.11561899 1.9876902 1.6284438
1.4694626 -0.08359916 -0.4281249 2.4150538 -0.3689485 1.0056539 3.4061778 -0.7357
-0.5505034 -0.82419485 1.610273 0.837246 -0.29908296 -0.49043497 1.339292 1.9999443
0.20110334 -0.9948627 -1.0874367 4.8040514 1.2116846 -1.4804139 1.012909 -0.8135022
1.5660917 -0.02757507 -0.6994078 0.89764553 0.8140333 0.046016965 -0.692866 -0.36066914
-0.38470542 -0.3899492 0.0946768 -0.93970704 1.1168718 -0.41679165 0.8270865 0.0139447
0.94905466 -2.8889618 0.37557834 1.0198649 -0.77566075 -0.91549146 1.3968213 3.4047797
0.2586689 -1.5962738 0.7644421 2.603705 2.6587987 0.6909226 1.178767 2.0246322
0.57734054 -0.08880587 1.4734504 -2.139778 0.63481057 1.6606593 0.3578025 -0.22588257
0.4627201 0.40349787 -1.1132035 0.95342463 -1.1809767 1.9407296 0.08568793 0.49101758
-0.9696456 -0.63150364 1.2719303 1.5554067 2.6410544 1.1440191 -1.3527967 0.5943317
0.009577944 1.8576701 -0.80487984 0.27187687 -0.4824568 0.5747936 1.5650941 -1.6159129
-0.091530114 0.8811453 -0.41621515 -0.98787 0.26384833 1.4790959 -0.25930008 0.120362975
-1.1027585 0.57226354 0.3587826 -0.0671028 0.17002428 1.7096124 -0.8995288 5.07246
1.3389771 -1.9987054 1.1779953 0.5759481 1.4402156 -0.8964119 1.3776336 1.0242224
0.18476014 0.42241874 -1.5029434 1.5957541 -2.2183635 0.61163825 1.1959039 0.91236794
0.15051903 -0.2815248 1.5042667 -0.19668852 1.1069188 1.5302827 -0.1429609 -0.7757326
-0.8017307 -1.5400573 0.018019713 -4.8247714 -0.9215686 0.3365283 0.7527668 0.6820561
-1.3180312 -0.58436143 0.5316941 2.8718162 3.150683 -0.16358367 1.2253342 -1.7199779
1.370433 -2.1813369 1.4515278 -1.5128977 -1.2953864 0.5198886 1.1088411 1.7669829
-1.4436368 0.9934004 -2.0814354 2.0750663 -0.5075667 0.5583399 0.1999508 -0.9609464
-0.109827854 -1.3503305 0.19630855 0.114236206 0.5135485 0.7085089 -1.2947203 1.7366223
1.7232404 2.9897861 2.4579155 -1.2021334 -1.121088 -0.42589372 -1.6465062 1.4574412
1.4496228 -2.168217 -0.5136493 -0.82455 0.24785653 1.2559991 0.9032092 -2.13305
2.9743235 -0.11868947 2.307703 0.3660316 -1.6877121 -0.9177566 -0.6866616 1.5187131
-0.60395974 -0.6602532 1.3040099 -0.28157818 -0.79141426 -0.43065345 1.6332699 0.8916831
0.87941587 2.3567598 2.3485925 -1.5442487 -1.1186073 1.5016648 -1.6609553 -1.4860111
-0.5192886 -2.4004474 0.08173092 2.0939856 0.95152813 0.18490398 -1.6215842 2.1268873
-1.4762646 1.7051532 0.7491644 3.5817723 1.5265348 -1.557294 0.4241172 -0.69616795

encoder.lstm.weight_hh_l0 f4 [128, 32]
00000000: 00ea d23e cdeb 303f 1849 aebd 5c74 30bf
00000010: e105 a43e c0e6 21bf a3a2 443e 5cae 843e
00000020: 93ba 08bf 7735 843f 1a59 23bd 497a c5bf
00000030: 362d 20bf 7970 fbbe 9a7c be3e 68ee 87bf
00000040: 8e76 0d3f 22a7 e63e 39e0 323f af6b c03f
00000050: 11b1 e1be 217d 97bf fae4 acbe 0de8 043f
00000060: 58d0 b63f 530c acbf 7478 0dbf 4150 4a3f
00000070: 9d2c e0bd 5228 f43d eebd 083f e462 8cbf
00000080: 8d9f b03d fed0 133e 2bae a6bf 64c4 1cbf
00000090: b472 3c40 15d3 7abf 5802 5bbf 10ca d5bf
000000a0: cee0 c9be d3c1 6d3f 7908 e13e bd5e 0c40
000000b0: 7aa1 e33e 6eb7 183f 4830 77bf 6ac1 a23e
000000c0: 6103 b6be 5140 c0bf 04ed b5be 24aa 0f40
000000d0: c00f 0940 c59b bbbf 7d52 3fbf 4324 10be
000000e0: 9d5c abbf 9a71 1a40 4acf f3bc 362f ae3e
000000f0: 1c4c 9cbe 258d ac3f 9503 843c 284c 763e
00000100: 7e16 51be d758 d4be 1cd6 203f dfc9 443f
00000110: d68a 96bd 9147 c43e b3f6 ee3d 02e4 f33e
00000120: 6909 b13f aec2 4c3e 1ade 69bf 88ea 12c0
00000130: 649a 873f 55b2 8a3f ceff 163f c580 d63e
00000140: a9cb bfbf 3cd0 093f c5ec 873b ba6d d83f
00000150: ebd5 93be 1158 603d 39c1 6d3f f5b8 81bf
00000160: d932 85bf f3dd b43e bf61 5e3e 8438 ecbd
00000170: eb03 e13d a335 b9be 622a eb3e 2d0b 34bf
00000180: 10f8 13bf 546f 693f 690b ba3d 51f2 85bf
00000190: fc21 85bc 57a4 8d3f 2cb8 953e 59d3 49bf
000001a0: b46b b73f 15d4 0ebf afbe 43bf 0b07 913e
000001b0: 6cbb 093f 5fec 3dbe ca06 623f a212 afbe
000001c0: bfb0 303f 492e 8e3e 97ac 8fbf 71de 063f
000001d0: fad3 293e 0c07 8abe 0e20 153e fceb f6bd
000001e0: 0534 6fbf 0795 253f 05cf 40be e9f2 943b
000001f0: 9a22 b1bc 8370 fb3e 25ae 10bf 2318 743f
00000200: 1c6b 3e3d 8eba 1540 8be9 c23e e64b 60be
00000210: 29e5 50be c1bf 6fbf 9300 80bc 0f4d 303f
00000220: 1a23 1cbb aed7 0a3e a258 0ebf b91f f33e
00000230: cba0 85be 953e a4bf 0d3c f03e 40c1 0b3e
00000240: 9b14 1f3f 6600 30bd 6b8f 60bf 1499 363f
00000250: 504f 5ebf 66b4 a6bf 9115 5a3f e74f 04bf
00000260: 0eb4 24bf b23f b73f 152e 37bf 827f f8bd
00000270: 7c2a 483f 30dc 473f 3f76 1b3f 54a9 e0be
00000280: 2cea b3bf 8723 82bf 7e03 25be 4685 5c3f
00000290: c2f1 05bf 54c2 95bf 1c3a b6be 0920 993c
000002a0: 8c3a e13f 447f 98bf 1fa8 26bf 5379 d13e
000002b0: 915f 02bf 6c42 14bf 9b3e ba3f 172f 1abf
000002c0: 01f5 883f b4fc 203f 0a21 bd3f 8105 60bf
000002d0: 0df9 89be 3457 e93f db48 533f 1bb7 d0bf
000002e0: f261 10c0 0bca 933f 4850 c4bf 113a 913e
000002f0: 9120 5cbe e4c9 2d3e fed8 923f a0e0 b7bd
00000300: a642 c83e 3219 59bf c2f5 843e d9e4 9dbe
00000310: f4b5 29bf 301a 37be 01aa 173e 97ee 84be
00000320: 1640 84be e8db 543e 037f 8bbc 6507 7dbf
00000330: fba5 a6be 3cc9 a9be b5c8 6c3f feb3 e4be
00000340: 7bc5 3bbf a35a 0abf d77f 833f 170b a63e
00000350: ba52 1a3f 8393 9d3f b85d 303f 3bf9 ccbe
00000360: 4c02 2e3f f11f 293f c673 78bf 1a85 923f
00000370: 78b5 4dbe 20ef ef3e 0a88 47be 60ab 2b3f
00000380: 0af3 efbe 2532 573f 0c7c a6be f706 8e3f
00000390: a385 07be 25ac 623f 57ad 3e3f 33bc e73e
000003a0: 5467 9e3e 4d3a a8bf 8a28 793e 512e 0cbf
000003b0: e734 60bf 613b ecbf 8a05 d5bc 9255 70bf
000003c0: 31f1 103f ff54 8e3e b875 03bf a890 15bf
000003d0: ace9 c73e b278 d7be 01b4 bf3e a02e 503d
000003e0: 51e6 303e 8a37 0c3f 9c27 54bf 6639 d5be
000003f0: 9ed3 77be ce90 923f 5a81 99bd 5809 813c
0.41194153 0.69109803 -0.08510035 -0.6892755 0.32035735 -0.6324272 0.19202666 0.25914276
-0.5340969 1.0328816 -0.039879896 -1.5427943 -0.62568986 -0.49109247 0.37204438 -1.0619631
0.55259025 0.45049387 0.69873387 1.5032862 -0.44080403 -1.1835061 -0.33768445 0.5191658
1.4282331 -1.3441261 -0.5526192 0.7902871 -0.10946009 0.11921753 0.5341481 -1.0967679
0.08624182 0.14435193 -1.3021902 -0.6123717 2.944501 -0.97978336 -0.8555045 -1.670229
-0.39429325 0.9287388 0.43951777 2.1932824 0.44459134 0.5965489 -0.96558046 0.31788188
-0.35549453 -1.5019628 -0.3553239 2.2447596 2.1415863 -1.4656912 -0.7473524 -0.14076333
-1.3387638 2.4131837 -0.029761929 0.34020394 -0.30526817 1.3480574 0.01611499 0.24052489
-0.20418736 -0.4147403 0.62826705 0.7687053 -0.073506996 0.3833585 0.11668148 0.47634894
1.3830997 0.1999614 -0.91354525 -2.2955647 1.0593991 1.0835673 0.58984077 0.41895118
-1.4984027 0.53833365 0.004148098 1.6908486 -0.28874144 0.054771487 0.9287296 -1.013457
-1.0406142 0.35325584 0.21716975 -0.11534217 0.109870754 -0.36173734 0.45930773 -0.7032955
-0.5780039 0.911855 0.090842076 -1.0464574 -0.016251557 1.1065778 0.29242074 -0.78838116
1.4329743 -0.5579236 -0.76462835 0.28325686 0.5380161 -0.185472 0.8829161 -0.34193903
0.69019693 0.27769688 -1.1224545 0.5268317 0.16584769 -0.269585 0.14563009 -0.12056729
-0.9343875 0.6468052 -0.18828972 0.0045455587 -0.021622945 0.49109277 -0.56515723 0.9534933
0.046488866 2.3395114 0.38068804 -0.21903953 -0.20399918 -0.9365197 -0.015625274 0.6886758
-0.0023824633 0.13558838 -0.5560399 0.4748514 -0.26099238 -1.2831599 0.46920815 0.13647938
0.62140816 -0.04296913 -0.8771884 0.7132733 -0.8683977 -1.3023803 0.8518916 -0.5168442
-0.6433724 1.4316313 -0.7155469 -0.12133695 0.78189826 0.78070354 0.60727304 -0.43879187
-1.4055839 -1.0167092 -0.16114613 0.8614086 -0.5232202 -1.1699929 -0.3559121 0.018692033
1.7595992 -1.1913838 -0.6510028 0.40912876 -0.5092707 -0.5791385 1.4550356 -0.60228103
1.0699769 0.62885594 1.4775708 -0.875084 -0.26947823 1.8229737 0.82533044 -1.6305879
-2.255978 1.1546034 -1.5337 0.28364614 -0.21496798 0.16971546 1.1472471 -0.08978391
0.3911335 -0.8480407 0.25968748 -0.3083866 -0.66293263 -0.17881083 0.14810945 -0.2596328
-0.25830144 0.20787013 -0.017028337 -0.9883941 -0.32548508 -0.33161342 0.92493755 -0.44668573
-0.73348206 -0.5404455 1.0273389 0.32430336 0.6028248 1.2310642 0.68893003 -0.40033898
0.67972255 0.66064364 -0.97051656 1.1446869 -0.20088756 0.46862125 -0.19485489 0.6705837
-0.46865112 0.8406089 -0.32516515 1.1095876 -0.13234572 0.8854392 0.74483246 0.45260772
0.30938208 -1.3142792 0.2433187 -0.54758173 -0.8758072 -1.8455621 -0.026003618 -0.9388057
0.5661803 0.27799222 -0.513515 -0.5842385 0.39045465 -0.4208427 0.3744202 0.050825715
0.17275359 0.54772246 -0.8287294 -0.41645354 -0.2420182 1.1450441 -0.07495375 0.015751526

encoder.lstm.bias_ih_l0 f4 [128]
00000000: 8634 d13e 121f 843c 9741 92be d939 2e3d
00000010: 182d 643c a7c8 9cbd 09c7 183f 606a 4e3f
00000020: cb9b 293f 22e9 afbd c0e2 d93e 15ee 483f
00000030: 7ab3 19be 4815 713e d588 e93e b9ca 0abd
00000040: 7cf1 c2bd 4721 a53d d37f 0dbe b4ef 023f
00000050: ad84 5b3e 84a7 4dba 7309 473d bab7 8a3e
00000060: db13 543d f0c7 013e c2f0 1f3f 7f7d 063c
00000070: d42c 70bc efde 35be 682f 9abd 4674 5c3f
00000080: 6423 81bd 269b ba3e f4f7 18be 84cd 4d3e
00000090: dbd4 ee3d 51c6 393d c8c0 413e 27b1 92bd
000000a0: d2ed af3e 4cbc ccbd a4af 4cbe 6d89 58bc
000000b0: 59a7 6abe 65cb 05bd 43d8 07bf 5ea4 cc3d
000000c0: f36d 9bbe 2119 cabe 7575 443f fccf adbe
000000d0: 3240 cdbe c5af d1be 0abb d63c 7de0 edbe
000000e0: e657 0abd 10cb 863b af81 06be c4d1 9bbf
000000f0: 5ed2 f8be 22ce efbc 1dfc a3bd aa99 52be
00000100: 1dec f8bc 6c00 cf3e 2651 c5bc 20e6 033e
00000110: 0697 0cbe 9a59 fe3c 25ce 51be 975d a9bd
00000120: beb5 f13d 9673 31be 7a18 32bd 3fb8 1abe
00000130: 57cf f8bb 82c5 21bf d37d a83e 4302 273e
00000140: 2ab8 9d3e c11d 873d a922 e6be 188e 473d
00000150: a745 d7be e18f 36be 53a2 753c 4c87 c93e
00000160: 1bbb 223e 23b9 3f3e 8ac6 bdbe c41a 41bd
00000170: 70ef f53d af82 26be ec86 81bc 5adb f6bc
00000180: 2a86 f13e b1a0 e23e 4146 463f 11f5 bd3d
00000190: b1f8 8c3e a889 19bd 2ef9 163e 2125 4d3e
000001a0: aeca 373e 1833 7b3e 0b14 513e 2fcb 7d3e
000001b0: afa5 853e 82af 1a3e 8bc9 d43d b162 293e
000001c0: 08d8 92bd a52e 2c3e 1240 1a3f 47ea ad3e
000001d0: 4bec 1b3d 5697 993d b3ee 883c 8aa0 d33e
000001e0: 3d95 683e 8b6f 743e 478f 2d3d 624e 6f3e
000001f0: 2b93 69bd 4822 8fbd b7f4 06bc 736e 79bd
0.40860385 0.016128097 -0.28565666 0.042535637 0.013926767 -0.07655459 0.59678704 0.80631065
0.66253346 -0.085893884 0.4255581 0.78488284 -0.15009871 0.23543274 0.45612207 -0.033884738
-0.09518716 0.08062988 -0.13818292 0.5114701 0.2143733 -0.0007845091 0.048592996 0.27093297
0.05177675 0.12673926 0.6247674 0.008208632 -0.014659125 -0.17760824 -0.07528573 0.8611492
-0.06305578 0.36446494 -0.14938337 0.20097929 0.11661693 0.045355145 0.18921196 -0.071626954
0.3436113 -0.09996852 -0.19988877 -0.013216359 -0.229154 -0.032664675 -0.53064364 0.09992288
-0.30357322 -0.39472297 0.76741725 -0.33947742 -0.4008804 -0.40954414 0.026212234 -0.46460333
-0.033775233 0.0041135624 -0.13135408 -1.217339 -0.48597997 -0.029273096 -0.08007071 -0.2056643
-0.030386025 0.4043001 -0.024086546 0.12880754 -0.13729486 0.031048585 -0.20488794 -0.08269804
0.11802243 -0.17329249 -0.043480374 -0.15109347 -0.007593076 -0.63192 0.32908496 0.16309457
0.3080457 0.06597472 -0.4494832 0.048719496 -0.42045328 -0.17828323 0.014992314 0.39361036
0.15891688 0.18722968 -0.37065536 -0.047144666 0.1200856 -0.1626079 -0.015811406 -0.030133892
0.47172672 0.44263223 0.7745095 0.09275258 0.27533486 -0.037484795 0.14743492 0.20033695
0.1794841 0.2453121 0.20417802 0.2478454 0.2610297 0.15106013 0.10390004 0.16541554
-0.07170111 0.16814668 0.60254014 0.33967802 0.038067143 0.07499568 0.016715383 0.4133342
0.2271318 0.23870675 0.042372968 0.23369744 -0.057025116 -0.069889605 -0.0082370555 -0.06089635

encoder.lstm.bias_hh_l0 f4 [128]
00000000: d832 d13e 3627 8b3c 39ac 92be 5880 2d3d
00000010: a823 573c 15e9 9cbd 2e7b 183f 7521 4e3f
00000020: 37d1 293f 73b5 b0bd b763 d93e 4b0b 493f
00000030: 7db6 17be 8b03 723e 32b2 e93e ed2e 0abd
00000040: 21f6 c2bd e814 a83d bc6b 0ebe f7c4 023f
00000050: 1bfa 5c3e 88d7 8cb9 f16e 493d df5b 8a3e
00000060: 5ba0 583d dc05 023e dc9d 1f3f c258 0f3c
00000070: c0b2 75bc 0485 37be 9228 9dbd 9f5f 5c3f
00000080: 2ff9 7dbd e08f ba3e a52f 18be 5b12 4e3e
00000090: 871d ef3d 1498 393d 3450 403e d27a 92bd
000000a0: 2cfa af3e 6e72 ccbd a246 4cbe 4a95 64bc
000000b0: fd11 6abe 0a59 0dbd 27d1 07bf 9fec cc3d
000000c0: ff1d 9bbe 5de1 c9be 6ca1 443f f839 aebe
000000d0: 48eb ccbe 155e d1be 88e9 c83c d91e eebe
000000e0: 9d49 09bd 53c8 993b 042d 06be 1fe3 9bbf
000000f0: 5952 f8be b9e3 f1bc 2da0 a2bd 94c1 52be
00000100: 7e8b f8bc 197c ce3e 9e43 bcbc ace2 033e
00000110: f98a 0cbe 228a f33c e20a 52be 5ecc a7bd
00000120: b988 f33d 8533 31be 8e8b 37bd fa0b 1cbe
00000130: b984 e7bb 19ea 21bf da08 a93e ea51 263e
00000140: 67b8 9d3e b71d 873d be8d e6be 5013 4b3d
00000150: 4107 d8be f809 37be 17ce 723c 3d96 c93e
00000160: 3eda 213e 1fe9 3f3e 9c5d bdbe 5a11 44bd
00000170: 0fbe f53d 3ef2 25be 9092 84bc d23c f1bc
00000180: 6415 f23e 6c58 e23e 1373 463f 144a bf3d
00000190: 5c7d 8d3e 8baf 1ebd fb0d 173e 3b9f 4c3e
000001a0: 08cd 363e 36e6 7b3e 0ad9 503e 04b1 7c3e
000001b0: dfb2 853e 2915 1b3e d2f6 d33d 9495 293e
000001c0: 7dd0 92bd ece1 2c3e 352b 1a3f 34de ad3e
000001d0: 80e5 1e3d f79d 973d c24c 903c 6ebb d33e
000001e0: c917 683e 7232 753e c57f 303d f913 703e
000001f0: 1f39 6ebd 6885 8dbd dd28 1bbc 2af7 7cbd
0.40859103 0.01698647 -0.2864702 0.042358726 0.01313106 -0.07661644 0.5956296 0.805198
0.6633486 -0.08628359 0.4245889 0.78532857 -0.14815708 0.23634164 0.45643765 -0.03373616
-0.095196016 0.082071126 -0.13908285 0.51081795 0.21579783 -0.00026863464 0.049178068 0.27023217
0.052887302 0.12697548 0.6235025 0.008749189 -0.014996231 -0.17921835 -0.07673754 0.86083406
-0.062005218 0.36437893 -0.14861925 0.2012419 0.11675554 0.04531105 0.18780595 -0.07152332
0.34370553 -0.09982763 -0.1994882 -0.013951609 -0.22858424 -0.034508742 -0.53053516 0.100060694
-0.30296323 -0.3942975 0.7680881 -0.34028602 -0.40023255 -0.4089209 0.024525419 -0.4650791
-0.03351747 0.00469307 -0.1310311 -1.2178687 -0.48500326 -0.029527532 -0.07940707 -0.20581657
-0.030339953 0.40329054 -0.022981461 0.12879437 -0.13724889 0.029728953 -0.20511964 -0.08193277
0.11891312 -0.1730481 -0.044810824 -0.15238944 -0.0070653823 -0.6324783 0.33014566 0.16242185
0.3080475 0.065974645 -0.45030016 0.049578965 -0.42193034 -0.17874897 0.014819643 0.39372435
0.15805909 0.18741272 -0.3698548 -0.04786811 0.119991414 -0.1620569 -0.016183168 -0.029447947
0.47281945 0.44208086 0.7751934 0.09340301 0.27634704 -0.03874163 0.14751427 0.19982617
0.1785165 0.24599537 0.20395294 0.24676901 0.2611303 0.1514479 0.103498116 0.16560966
-0.07168672 0.16883057 0.6022218 0.3395859 0.038793087 0.07403176 0.017614726 0.41353935
0.22665323 0.23945025 0.0430906 0.23445119 -0.058159944 -0.06910211 -0.009470192 -0.06175915

decoder.lstm.weight_ih_l0 f4 [128, 5]
00000000: 22f0 953f 7742 f93e ce01 d13e 6321 c53e
00000010: 391c 3d3e c082 9d3c b4a4 8cbe 841e d2be
00000020: 2d08 50bf d6fd 7f3f 469f c140 a450 573e
00000030: 8e51 1fbe a591 bf3e 2e24 b43e 5879 483e
00000040: c0f8 31be c6c4 c63f 7cbc f83f a2ef d9bf
00000050: 1442 7e3e eb2a 8bbe 8bef a03e 196c f23d
00000060: ce63 8abd 16de 42be 6b34 cd3d 9efd 2d3e
00000070: 0fa0 8fbd 3cc8 5d3d f40c 683d 2266 083f
00000080: 9227 323f c318 d4bf 877c 8c3b 7eeb 17be
00000090: 17c5 9f3e f682 6cbf c92a 363d 0a37 65bf
000000a0: bb08 5c3d 670b aabf 3677 a83e 9b0e c3be
000000b0: 473d 73be 3bdc 42bd a048 3ebe 7e67 1abd
000000c0: df4b 023e 1e11 0c3f d557 95bd 15e7 8e3e
000000d0: 2155 8dbe 4881 1a3f c073 7cbe bd8e aa3d
000000e0: 261c 823f 8ebf 1fbe 59b7 62bf 82ca 663f
000000f0: 20c4 bbbe bdc1 92be c181 5abe c9fa a9be
00000100: 5498 823f f36d 5e3d 3cc2 b33f c655 a9bf
00000110: b0e6 103f a094 f7bf 1076 c7bf b6e1 47be
00000120: 20f6 6c3d e894 c03e caed 053e 6ad6 1740
00000130: 6b25 f2be cf3b f1be f01f 34be 1194 96be
00000140: 8584 1ebe 9b45 4e40 ad37 87bf 8db5 043f
00000150: def4 38bf 0119 dfbe b51b 2841 c9de 263f
00000160: 926c 893e c17d 82bf 8829 2e3f abfe a93e
00000170: 5da0 2f3b e68d 263f 03bd fe3e 8f85 a1bd
00000180: 9da9 0f40 8369 2c40 df63 d7bf 087b 46bf
00000190: 1740 e63d 5c33 a53e a701 0abe c2d0 9dbf
000001a0: 8995 0140 9fad 09bd 917c c33e 8057 91bf
000001b0: 6c44 4ebf d445 cf3e 5831 ee3e 6632 d63f
000001c0: 11f3 fa3f b1aa 9a3e e517 3bbe 7b32 2f3e
000001d0: cfe0 f93a 38f9 d53d 55a4 83be e212 3c3d
000001e0: 5688 7b3d fad3 d9be dbcd 58bf 5dca 203f
000001f0: fdbb 27bf 440f b93d 5660 dcbe 13bb 8d3f
00000200: f54e 01be a773 68bf adcb 883c d92d 863f
00000210: b728 783e 638e 33bf 5961 05c0 13f5 d23d
00000220: 48d6 94bd a5b5 4f3d 094a a53d 81bb 1e3e
00000230: e8fc f6bd b646 15bf ab64 ffbe bb7e 193e
00000240: 0fc8 38bf d731 93bd d992 273f 96cb 453e
00000250: c2bb 70bf 0630 2ebf 8438 953d 9e2e 643e
00000260: e8ff 14bf 0b93 32be dce1 673a 6bed 38be
00000270: a487 3640 5c54 b43e 6b3b 803f 64ff 7abf
00000280: 6283 00bf d3a0 c9bd 7d21 aebe 4aaa 1fbe
00000290: 9d3f 6fbe d1a2 b43c e7ff f33e 39fa d83e
000002a0: 1ba6 36be e78b a93f d89f 69be 1d0c eebe
000002b0: 2840 5abe 4fee a9be 9384 e6bd c577 703d
000002c0: ea26 bc3e 4f85 eabe 6355 d03f 0984 edbe
000002d0: 1699 f7be 1d63 36bd 36aa b53d f7aa 2a3e
000002e0: dd9d 7cbe f222 cc3b 5cc4 c3bf da1b d13f
000002f0: a01d a23f ab56 bfbe 37ef 93bc 8a63 6b3f
00000300: db6b 9a40 7574 b0be 2b74 11bf caad bfbd
00000310: 1e84 bd3e e950 a03f 3f8c 8e3f 8c67 f03d
00000320: c4dd b73c 2fc7 eb3e a2b8 623f 9b33 213f
00000330: 9c15 aabe 911b 32be 9c82 d7be 0494 143f
00000340: cfc8 193e 3bb5 d93e 31f2 523d dab3 18bf
00000350: 2391 963e 30b9 863f 88b1 743e c824 363e
00000360: fde9 4b3e ac85 163e afcc 8abf 2b9a a03f
00000370: 27a2 603d 12fe a1be b5f6 e23e 9fcc dbbd
00000380: d815 bebf 0bae 9cbc b61d 06bf a4fc 3dbf
00000390: 35f2 7e40 f7f4 2e40 970e 8bbe dfe5 5b3f
000003a0: b7f0 85be e779 b33e d340 273e 20e6 673f
000003b0: 59dd d7be 128c 92be b2e8 50be 3527 e7be
000003c0: b6bc e33d 412e 8c3f c124 2e3e 5860 4ebf
000003d0: 482d 8140 4970 c93d 3c3e da3f 591c 1a40
000003e0: d409 bebe 7d72 46bf 688d 7e3e dc53 34be
000003f0: 4b47 0dbe fd8b b4be 2933 71be d036 663d
1.1713908 0.4868352 0.4082169 0.38502035 0.18467797 0.019227386 -0.2746941 -0.41038907
-0.81262475 0.999967 6.0506926 0.21026856 -0.15558454 0.37415805 0.35183853 0.19577539
-0.17380047 1.55288 1.9432521 -1.7026255 0.24829894 -0.2718118 0.31432757 0.11837024
-0.067573175 -0.19030032 0.100197636 0.16991279 -0.07012951 0.054146037 0.056652978 0.5328084
0.6959163 -1.6570057 0.0042873058 -0.14835927 0.31205055 -0.9238733 0.044474397 -0.8953711
0.053719264 -1.328473 0.3290345 -0.3809708 -0.23753844 -0.04757331 -0.18582392 -0.037696354
0.12724255 0.5471362 -0.07292143 0.27910677 -0.2760401 0.6035352 -0.2465353 0.083280064
1.016484 -0.15600416 -0.88561016 0.9015275 -0.3667307 -0.28663436 -0.2133856 -0.33199146
1.0202737 0.054304074 1.4043651 -1.3229301 0.56602 -1.9342232 -1.5582905 -0.19519696
0.05785191 0.37613606 0.1307899 2.3724618 -0.47294173 -0.47115943 -0.17590308 -0.2940984
-0.1548024 3.2229984 -1.0563866 0.51839525 -0.7224864 -0.43573764 10.506764 0.65183693
0.26840645 -1.0194627 0.6803212 0.3320211 0.0026798465 0.6506027 0.4975358 -0.078868024
2.2447274 2.69394 -1.6827353 -0.7753148 0.11242693 0.32265747 -0.13477193 -1.2329333
2.024752 -0.033612844 0.38180974 -1.1354828 -0.80573153 0.40482962 0.4652202 1.673413
1.9605428 0.30208352 -0.18270834 0.171091 0.001906419 0.10447925 -0.25711313 0.045916446
0.061409317 -0.42544538 -0.8468911 0.6280878 -0.6552122 0.09036115 -0.43042248 1.1072716
-0.12627776 -0.9080147 0.016698683 1.0482742 0.24234281 -0.7013914 -2.0840666 0.103006504
-0.072674334 0.05071034 0.08070762 0.15501215 -0.12059957 -0.5831102 -0.4988149 0.1498975
-0.72180265 -0.071872406 0.65458447 0.19315943 -0.94036496 -0.6804203 0.0728617 0.22283408
-0.5820298 -0.17438905 0.00088456064 -0.18059318 2.8520288 0.3522061 1.0018133 -0.98045945
-0.50200474 -0.09845128 -0.34009925 -0.15592304 -0.2336411 0.022050293 0.47656175 0.42378405
-0.17836802 1.324582 -0.22814882 -0.46493617 -0.21313536 -0.33189628 -0.11255755 0.05870797
0.3674844 -0.4580483 1.6276058 -0.46389797 -0.48358983 -0.044528116 0.08870356 0.1666678
-0.24669595 0.0062297517 -1.5294299 1.6336625 1.2665291 -0.3737081 -0.018058402 0.9194876
4.825666 -0.3446385 -0.56817883 -0.093593195 0.3701486 1.2524692 1.113655 0.117385
0.022444613 0.46050403 0.8856298 0.6296937 -0.33219612 -0.17393328 -0.42091835 0.58038354
0.15018009 0.4252108 0.051500503 -0.5964943 0.29407606 1.0525265 0.23895848 0.17787468
0.19913478 0.1469943 -1.0843714 1.2547048 0.05484214 -0.31639153 0.44328848 -0.10732388
-1.4850416 -0.019125959 -0.52389085 -0.74213624 3.9835331 2.7337015 -0.2715957 0.8589763
-0.26160213 0.35053942 0.16333322 0.9058552 -0.42161062 -0.2862249 -0.20401266 -0.451471
0.11119978 1.0951616 0.17006208 -0.8061576 4.0367775 0.0983587 1.7050242 2.4079802
-0.37116873 -0.77518445 0.2485863 -0.17610115 -0.13796727 -0.35263053 -0.23554672 0.056204617

decoder.lstm.weight_hh_l0 f4 [128, 32]
00000000: 369a d23e c422 3cbe 6f1b fe3e ea01 01bf
00000010: f6a9 c83f efe2 33bf 3d92 89be 0758 86bd
00000020: 48eb 05bf 069b 173e 9592 73be 61a2 b43e
00000030: d08f fdbe 8427 4dbe 7e95 43be 529b 80bd
00000040: 12c9 0cbe ad6d 64bf 47e0 f73e b687 62be
00000050: 1af3 bc3c cf4b ba3a 9557 203f b5f4 67bf
00000060: 588b d0be ff84 b1be 702b ea3c 14de c63d
00000070: 225a 5a3f 6f4e 86bf 0856 c53f cabc 09be
00000080: dedd 2abe ecc5 853e 2daa 84bb 16a9 0b40
00000090: 8aa7 eabe dc1b 8a3f cb2e 2ebf 8ca4 15be
000000a0: e61f 75be 720f 1bbf 20b4 123e 3e47 c5bf
000000b0: c812 1f3e 8928 2f3f b1cc 19bf 386c 99bd
000000c0: adaf 513f 7ba1 5b3f a5cc 72be 1d87 00bf
000000d0: 1ade 7c3f e3ed 9fbe bbae e23e 25b6 e63e
000000e0: 1dca 5bbf 2a54 9abe d8b3 833f 9e0e b33e
000000f0: 189c a93e c8c2 fbbf f063 53bf 60e1 2bbb
00000100: 20c8 8d3f e4d6 1a40 855d 8abe fc75 39bf
00000110: f8f2 89bf db8a bc3f 5683 163f 035f 00bf
00000120: 52ee 49bf f3a8 1f3f 3aee 863e 42d9 b33f
00000130: 9461 e33f ab52 f83e 5d52 2b3f cb13 ffbe
00000140: a66d 933f 7bb0 c03e 3bd3 423f 3c2d bcbf
00000150: b3cd 43bf 1de2 b6bf 9891 c6bd e8bf 9b3e
00000160: 10e3 563f 2cb7 52be ad32 923e 5038 febc
00000170: a29b 77bf 19c9 b23e a792 c0be c1dc debd
00000180: ae09 25bf 3b07 923e 330d dbbe 209a 15bf
00000190: 0158 c3be 2f7f 9c3c d1aa 293f b1f9 07be
000001a0: 82d5 b83f b205 c7bf ed7a 8bbf 78a4 b43f
000001b0: e4c7 96bf 5984 19bf 33c6 a53e 46e1 d63e
000001c0: 84b3 1fbf 08dc 7c3c 2558 9e3c c821 23be
000001d0: 149e 27c0 e9bb ccbc 574d b4bf d51a 213f
000001e0: da57 1a3e b100 06c0 ad95 d3bf b58d a9bd
000001f0: b408 ca3d d472 b83e f0ad 613e 8080 2e3f
00000200: d1c4 0e3f a7e3 4bbf 148b 12bf 67ab afbd
00000210: 9863 553c 9e4f 54bf e780 4e3f 42a1 2f3c
00000220: 86c0 43be 9a4d e1be 5942 98bf a1cf a73e
00000230: 59aa 58bf 3ca4 97be fbb5 e8be 3a50 9bbe
00000240: ea73 28bf ac7f 47bf 446a 1e3f d9e7 0d3f
00000250: 13b9 603f 207d 39bf be69 323e 8490 403f
00000260: a258 bfbd 8cea 8dbc 9ac6 733e 1fc7 9abe
00000270: c9d1 133f 610f 9c3e 9878 10bf 5ea0 523e
00000280: 173d 443f 8a41 563e 379d 17bf 402b ee3e
00000290: ee49 5a3e 7fea 923f 0bab 37bf 0b54 a93f
000002a0: 3f9c 7cbf 3de4 cc3f f7cb d4be 40d4 933b
000002b0: 664a 52be 2ca2 a1bf 112f abbf b6cf b23c
000002c0: 27b0 25bf 078e 663f d814 3f3e 39a0 21bf
000002d0: 8acf bdbe 0582 d5bf 2cae cebe 7f92 d63f
000002e0: ef38 b8bf 6b72 a83f f378 343f 0821 823f
000002f0: 6c85 8d3f 8784 da3e a37c bcbf 7977 2fbf
00000300: 4733 0ebe cff8 5e3e 31b7 61be 2188 b23d
00000310: 1c48 753e 2396 f9be d26e ddbe 7a86 4f3e
00000320: acd6 10bf f2da f7be cda6 9a3f bd39 963e
00000330: cac8 62bf ed3e c13e c427 90bd b784 efbe
00000340: c736 7abf aa5e debd 0de1 19bd a095 e53e
00000350: 0488 e8be 4234 703e fe8f d73e bbff 673f
00000360: 6da2 07bf 3bd3 233f 2cc2 cebf cb1f 3a3e
00000370: 8cd0 95bf ad5f ae3f f23f 343f a2a2 71bf
00000380: 7312 b43e f5e5 debe 07bb 923d 45b7 183f
00000390: 9f1b fcbb 7bc4 0ebf 16cb 0b3f c024 f03e
000003a0: b52a 013f 9e4f 983f f2ab ba3e fa5f fa3f
000003b0: 9b4e 0ebf b527 cabe 3f75 153e fadd 2dbf
000003c0: a902 b23e 55e7 a83e 8a8f 10bd 235b cd3d
000003d0: 5b65 1e3f 156d 75bf 551b bc3e be1b 75bf
000003e0: a0a2 0cc0 e794 c83d c498 6abf 8464 b13e
000003f0: 13e0 263f 5a0c 22bf efdb 6d3f 1cee c0be
0.4113328 -0.18372637 0.49630305 -0.50393546 1.5676868 -0.7026815 -0.26869383 -0.06559759
-0.52312136 0.1480523 -0.23786385 0.35280135 -0.49523783 -0.20034605 -0.19099995 -0.06279625
-0.13748577 -0.8922985 0.48413298 -0.22122082 0.023065139 0.0014213267 0.6263364 -0.9060777
-0.4073131 -0.3467178 0.028585166 0.09710327 0.8529378 -1.0492686 1.541688 -0.13450924
-0.16686198 0.26127565 -0.004048607 2.1821952 -0.45830947 1.0789752 -0.6804015 -0.14613551
-0.2393795 -0.6057044 0.14326525 -1.5412366 0.15534508 0.68421227 -0.6007796 -0.07491344
0.81908685 0.85793275 -0.23710878 -0.50206167 0.987764 -0.3123618 0.44273934 0.4506084
-0.85855275 -0.30142337 1.0289259 0.3497209 0.33126903 -1.9668818 -0.8257437 -0.0026226863
1.1076698 2.419366 -0.27024475 -0.72445655 -1.0777273 1.4729875 0.5879415 -0.50144976
-0.7887927 0.6236717 0.26353627 1.4050677 1.7764153 0.4850057 0.6692255 -0.49819788
1.1517837 0.37634644 0.7610356 -1.4701304 -0.7648575 -1.4287754 -0.096957386 0.3041985
0.8394022 -0.20577687 0.28554288 -0.031032711 -0.9672185 0.3491905 -0.37611887 -0.10881949
-0.64467895 0.2852114 -0.42783508 -0.584383 -0.3815308 0.019103615 0.6627627 -0.13278843
1.4440157 -1.5548613 -1.0896889 1.4112692 -1.1779752 -0.5996757 0.32377777 0.41968745
-0.62383294 0.015433319 0.01932914 -0.15930855 -2.6190233 -0.024991946 -1.4086102 0.6293157
0.15072575 -2.0937922 -1.6530052 -0.082789816 0.09864941 0.36025107 0.22039008 0.68164825
0.5576907 -0.79644245 -0.57243466 -0.08577614 0.013024233 -0.82933986 0.8066544 0.010719599
-0.1911641 -0.44004518 -1.1895248 0.32775596 -0.8463493 -0.29617488 -0.4545134 -0.30334646
-0.6580187 -0.77929187 0.618809 0.55431896 0.877824 -0.7245655 0.1742315 0.75220513
-0.09343077 -0.017323755 0.23806229 -0.30230042 0.5774198 0.30480483 -0.5643401 0.20568988
0.76655716 0.20923439 -0.59224266 0.46517372 0.21317264 1.1477813 -0.71745366 1.3228773
-0.9867591 1.6007153 -0.41561863 0.004511386 -0.20536193 -1.2627616 -1.3373739 0.02182756
-0.6472191 0.90060467 0.18660295 -0.63135105 -0.37072402 -1.6680304 -0.40367258 1.6763457
-1.4392375 1.3159918 0.70497054 1.016633 1.1056342 0.42679235 -1.4725536 -0.68541676
-0.13886748 0.217746 -0.22042538 0.08717371 0.23953289 -0.48747358 -0.43248612 0.20266142
-0.56577563 -0.4840923 1.2082154 0.29340926 -0.8858763 0.3774332 -0.07038835 -0.4678094
-0.97739834 -0.108578995 -0.03756814 0.44840717 -0.45416272 0.23457435 0.42102045 0.9062459
-0.5298222 0.6399419 -1.6153007 0.1817619 -1.1704268 1.3622948 0.7041007 -0.9438878
0.35170326 -0.43534818 0.07164579 0.5965465 -0.0076937224 -0.55768555 0.5460676 0.46903038
0.5045579 1.1899297 0.3645931 1.956054 -0.5558869 -0.3948342 0.14595507 -0.67916834
0.34767655 0.32988992 -0.03529314 0.100271486 0.61873406 -0.9586957 0.36739603 -0.95745456
-2.1974258 0.09794026 -0.9163935 0.34647 0.6518566 -0.63300097 0.9291372 -0.37681663

decoder.lstm.bias_ih_l0 f4 [128]
00000000: 749f b43e 59bc 3dbe d1cd 5a3e e6cb 07bf
00000010: 6426 9b3c 3f4d a13d 3981 80be 901a aebd
00000020: 5b35 e5be d571 263e f689 f33c 3f00 563d
00000030: 4c0a 6cbb c9d1 61be 4072 d33d 6e55 afbe
00000040: b60a f63d c64d ddbd 9329 cd3e 71a8 ed3c
00000050: 81d8 923d 4b8f f0be b2da 8a3e 317a abbc
00000060: b145 b3be 6eff 45bf 73a7 b2be d643 963d
00000070: 11f7 3bbf 3c49 bcbe 1078 0ebe 17eb bc3e
00000080: bf83 56be a36c cd3e 0bb7 91be af31 873d
00000090: b4f9 38bc d5f3 c03e da69 01bd 3712 173f
000000a0: c4f3 9e3e 042f 4d3e 6166 733e c617 8abd
000000b0: 7a9e c7be 0e97 f03c eac0 7b3e c891 aebe
000000c0: d49b 633e df45 34bd 6a7d 7cbe 3541 a83e
000000d0: 5de2 c8bd 8f59 b5bd ce8e bfbd aa9f 6638
000000e0: c756 d13e 3ad9 173f 45f7 2d3f ad1a ccbe
000000f0: 9227 8e3d 2d66 e5bd 4445 3b3e 434c ab3c
00000100: 6458 843e 5e79 673d a2ec 1bbe c994 1f3d
00000110: 3b15 a93d 22c8 c73c c890 143c f2f8 ce3d
00000120: bc1f 4cbe 40c7 aa3d 13ba 05be 12bf 03bd
00000130: 7eba b7bd 81eb 343e b983 083e e202 6d3d
00000140: c524 06be e2fb 83bd 4961 103e aa8e 34bd
00000150: a3a6 dcbe a1ef 313b a45a 8c3d c2e9 06bb
00000160: 0f37 2a3e a199 a8bd 25b5 643d 5a9b 1b3c
00000170: b00a e9bc 74cb febd beb6 29be 811c 1c3d
00000180: 2d6d 503d 56dc aa3e 9292 0c3e 05a9 70be
00000190: 0ca6 263f 81c2 633e f67e 9cbd 23cb f73e
000001a0: 86c0 283e 0d40 443e cfa4 593e f366 553e
000001b0: ad54 6ebd 5fbe a23d 75f8 583d de6b 843d
000001c0: fe2d 83bd e64b f8bc 4745 203d 3b1a 57be
000001d0: 00a8 0c3e b1e6 193e b0b5 083e 2e12 313f
000001e0: e161 0bbe 2c72 d93e 732c 413d 4837 50be
000001f0: aec8 633e 66a5 ae3e 9433 7c3e f0f6 81be
0.35277903 -0.1852888 0.21367575 -0.530455 0.018939205 0.07876062 -0.2509859 -0.0850116
-0.4476727 0.16254361 0.02972887 0.05224633 -0.003601688 -0.22052683 0.10324526 -0.34244865
0.12013762 -0.1080585 0.4007078 0.029010983 0.07170201 -0.46984324 0.27119976 -0.020932289
-0.35014108 -0.7734288 -0.3489338 0.073371574 -0.7342387 -0.36774623 -0.13912988 0.3689811
-0.20948695 0.40121946 -0.28459963 0.06601273 -0.011290003 0.3768603 -0.03159509 0.5901217
0.31045353 0.20037466 0.23769523 -0.06742816 -0.38988096 0.029368903 0.2458531 -0.34095597
0.22227412 -0.044011947 -0.24657217 0.3286225 -0.098088 -0.088549726 -0.0935341 5.4984972e-05
0.40886518 0.59315836 0.6795543 -0.39864102 0.06941141 -0.11201129 0.18288141 0.020910388
0.25848687 0.05651223 -0.15226987 0.038960252 0.082560025 0.024387423 0.009067722 0.10106076
-0.1993398 0.08338785 -0.13059263 -0.03216464 -0.089711174 0.17667963 0.13331498 0.057864077
-0.13099964 -0.06444527 0.14099611 -0.044081368 -0.43095884 0.0027150887 0.06853226 -0.0020586108
0.16622566 -0.082324274 0.055836815 0.009497488 -0.028447479 -0.12441149 -0.16573617 0.03811312
0.05088537 0.33371228 0.13727787 -0.23501976 0.6509712 0.22242166 -0.076414034 0.4839717
0.16479692 0.19165058 0.21254276 0.20840053 -0.058186222 0.07946467 0.052971322 0.064658865
-0.06405257 -0.030309629 0.039128568 -0.210061 0.13735962 0.15029408 0.13350558 0.69168365
-0.13611557 0.4246992 0.04716153 -0.20333588 0.22244522 0.34110564 0.2462905 -0.2538371

decoder.lstm.bias_hh_l0 f4 [128]
00000000: b47d b53e 0281 3ebe b3f9 5a3e 0ec9 07bf
00000010: 0254 a13c 1616 a43d 9adb 80be 8d70 adbd
00000020: f38f e5be 69f5 263e 47c0 fd3c 46e5 533d
00000030: 5025 77bb 67b7 61be 08ed d23d d957 afbe
00000040: c6ee f83d 83ff debd a2de cc3e c485 fb3c
00000050: d58b 903d 0d25 f0be c34f 8b3e 554f aabc
00000060: a069 b3be c326 46bf b184 b2be 3c88 953d
00000070: c015 3cbf 4c30 bcbe 9769 0ebe 1b28 bd3e
00000080: 8145 56be ed85 cd3e 1227 91be b410 863d
00000090: a5bb 37bc bdf9 c03e 6ee1 04bd 30ef 163f
000000a0: 37a5 9e3e c298 4e3e 432c 733e e95b 88bd
000000b0: 2c9b c8be 4653 e93c 8cdd 7b3e 09ac aebe
000000c0: fb14 633e 64b2 32bd 860c 7dbe 3b1d a83e
000000d0: 0f6c cbbd f1f4 b2bd 259c c2bd e2e9 1739
000000e0: 50bb d03e 89fc 173f 9797 2d3f f823 cdbe
000000f0: a7c5 8f3d 4a0e e4bd b06d 3b3e ff87 9d3c
00000100: 307a 843e bec1 613d 8815 1bbe 7528 253d
00000110: ea90 aa3d f810 ca3c dce4 1e3c 3ea7 cd3d
00000120: b1b5 4cbe 18a5 ad3d eb67 05be 2194 04bd
00000130: f395 b6bd 99e0 333e e28f 093e 4055 6b3d
00000140: b8f0 05be 8db3 86bd d90c 103e 2a50 33bd
00000150: a939 dcbe a60a 8e3b 5485 8b3d 43cd fbba
00000160: 6873 2a3e 3a5d a6bd a14d 633d 4677 1c3c
00000170: 4360 e1bc 3484 00be 36e4 28be c9df 1c3d
00000180: b120 4e3d 53e5 aa3e 1323 0d3e d435 71be
00000190: 49ef 263f 1dc7 643e 12c4 9bbd cf92 f73e
000001a0: 0cb6 283e 7552 453e 84f4 593e bef3 563e
000001b0: 838b 6abd 2d7a a23d 165f 5a3d f2e1 823d
000001c0: 43c6 80bd 128c f3bc 0345 1e3d 2eb9 56be
000001d0: f828 0c3e d3c3 1a3e 06f2 083e 7517 313f
000001e0: 9c13 0abe fa3a d93e d2e3 3a3d 296d 50be
000001f0: 95a2 633e 8a26 ae3e 6e46 7d3e 5161 82be
0.35447466 -0.186039 0.21384315 -0.5304116 0.019693378 0.08012025 -0.25167543 -0.08468733
-0.44836387 0.16304554 0.030975474 0.051732324 -0.003771145 -0.22042619 0.102991164 -0.3424671
0.121549174 -0.10888579 0.40013605 0.030703433 0.07057921 -0.46903268 0.2720929 -0.020789782
-0.35041523 -0.77402896 -0.3486686 0.07301375 -0.7347069 -0.36755598 -0.13907467 0.3694466
-0.20924951 0.4014124 -0.2835012 0.065461546 -0.011214172 0.37690535 -0.03244155 0.5895872
0.30985424 0.2017546 0.23747353 -0.066581555 -0.39180887 0.02848209 0.24596232 -0.34115627
0.22175972 -0.043627158 -0.24711809 0.328348 -0.0993272 -0.08738125 -0.095024385 0.0001448761
0.40767908 0.59369713 0.6780943 -0.40066504 0.07020121 -0.11135538 0.18303561 0.019229887
0.25874472 0.055116408 -0.15144932 0.040321786 0.083284214 0.024666294 0.009698119 0.100416645
-0.19991185 0.08478755 -0.13027923 -0.03236783 -0.08915319 0.17566146 0.13433793 0.057454348
-0.13080108 -0.06577215 0.14067401 -0.043777622 -0.4301274 0.0043347655 0.0681254 -0.0019210953
0.16645586 -0.0812325 0.055493955 0.009549921 -0.027511721 -0.12550431 -0.16493306 0.038299356
0.050324146 0.33378085 0.13782911 -0.2355569 0.6520887 0.2234158 -0.07605757 0.48354194
0.16475695 0.19269736 0.21284682 0.20991418 -0.057261955 0.079334594 0.053313337 0.06390752
-0.062878154 -0.029729877 0.038640033 -0.20969078 0.13687503 0.15113764 0.13373575 0.6917642
-0.13484043 0.42427808 0.045627423 -0.20354141 0.22229989 0.34013778 0.24733898 -0.25464872

decoder.linear.weight f4 [1, 32]
00000000: f345 0cbf 6793 8b3b 75c7 34bf fccc a6bc
00000010: 3f7c 2c3e 51fe 1a3d 666e 1d3d 9c7b 66bc
00000020: 774d 93bb de5e 88bd c3db 043c 90a8 3b3d
00000030: 18d0 2a3d 3bb8 c13b efd9 423e 7a94 66bf
00000040: d7b4 903c 74e6 193d d364 febe db52 14bd
00000050: 487e 25bd 2b41 c8bc 118c a6be dc16 0d3e
00000060: f3e2 b23c e840 f83b b713 4d3c fa46 9bbe
00000070: 052b 1bbd 66ea a93d 7d0b 043e 1d67 2abb
-0.54794234 0.004259515 -0.7061685 -0.020361416 0.16844271 0.03784019 0.038435362 -0.014067557
-0.0044953185 -0.066587195 0.008109036 0.04581505 0.04170236 0.0059118546 0.19028448 -0.9007031
0.017664356 0.037573293 -0.49686298 -0.03621183 -0.040403634 -0.024445137 -0.32528737 0.13778251
0.021836733 0.007576097 0.012516907 -0.30327588 -0.037882823 0.08296661 0.12895007 -0.0026001402
