results/MSE_LSTM_enc_dec_output/760_model.pt (torch, 860225 bytes, 10 tensors)

output_zeros f4 [399, 512, 1]
0.0 0.0 0.0 0.0 0.0 0.0 0.0 0.0
0.0 0.0 0.0 0.0 0.0 0.0 0.0 0.0
0.0 0.0 0.0 0.0 0.0 0.0 0.0 0.0
0.0 0.0 0.0 0.0 0.0 0.0 0.0 0.0
0.0 0.0 0.0 0.0 0.0 0.0 0.0 0.0
0.0 0.0 0.0 0.0 0.0 0.0 0.0 0.0
0.0 0.0 0.0 0.0 0.0 0.0 0.0 0.0
0.0 0.0 0.0 0.0 0.0 0.0 0.0 0.0
0.0 0.0 0.0 0.0 0.0 0.0 0.0 0.0
0.0 0.0 0.0 0.0 0.0 0.0 0.0 0.0
0.0 0.0 0.0 0.0 0.0 0.0 0.0 0.0
0.0 0.0 0.0 0.0 0.0 0.0 0.0 0.0
0.0 0.0 0.0 0.0 0.0 0.0 0.0 0.0
0.0 0.0 0.0 0.0 0.0 0.0 0.0 0.0
0.0 0.0 0.0 0.0 0.0 0.0 0.0 0.0
0.0 0.0 0.0 0.0 0.0 0.0 0.0 0.0
0.0 0.0 0.0 0.0 0.0 0.0 0.0 0.0
0.0 0.0 0.0 0.0 0.0 0.0 0.0 0.0
0.0 0.0 0.0 0.0 0.0 0.0 0.0 0.0
0.0 0.0 0.0 0.0 0.0 0.0 0.0 0.0
0.0 0.0 0.0 0.0 0.0 0.0 0.0 0.0
0.0 0.0 0.0 0.0 0.0 0.0 0.0 0.0
0.0 0.0 0.0 0.0 0.0 0.0 0.0 0.0
0.0 0.0 0.0 0.0 0.0 0.0 0.0 0.0
0.0 0.0 0.0 0.0 0.0 0.0 0.0 0.0
0.0 0.0 0.0 0.0 0.0 0.0 0.0 0.0
0.0 0.0 0.0 0.0 0.0 0.0 0.0 0.0
0.0 0.0 0.0 0.0 0.0 0.0 0.0 0.0
0.0 0.0 0.0 0.0 0.0 0.0 0.0 0.0
0.0 0.0 0.0 0.0 0.0 0.0 0.0 0.0
0.0 0.0 0.0 0.0 0.0 0.0 0.0 0.0
0.0 0.0 0.0 0.0 0.0 0.0 0.0 0.0
00000000: 0000 0000 0000 0000 0000 0000 0000 0000
00000010: 0000 0000 0000 0000 0000 0000 0000 0000
00000020: 0000 0000 0000 0000 0000 0000 0000 0000
00000030: 0000 0000 0000 0000 0000 0000 0000 0000
00000040: 0000 0000 0000 0000 0000 0000 0000 0000
00000050: 0000 0000 0000 0000 0000 0000 0000 0000
00000060: 0000 0000 0000 0000 0000 0000 0000 0000
00000070: 0000 0000 0000 0000 0000 0000 0000 0000
00000080: 0000 0000 0000 0000 0000 0000 0000 0000
00000090: 0000 0000 0000 0000 0000 0000 0000 0000
000000a0: 0000 0000 0000 0000 0000 0000 0000 0000
000000b0: 0000 0000 0000 0000 0000 0000 0000 0000
000000c0: 0000 0000 0000 0000 0000 0000 0000 0000
000000d0: 0000 0000 0000 0000 0000 0000 0000 0000
000000e0: 0000 0000 0000 0000 0000 0000 0000 0000
000000f0: 0000 0000 0000 0000 0000 0000 0000 0000
00000100: 0000 0000 0000 0000 0000 0000 0000 0000
00000110: 0000 0000 0000 0000 0000 0000 0000 0000
00000120: 0000 0000 0000 0000 0000 0000 0000 0000
00000130: 0000 0000 0000 0000 0000 0000 0000 0000
00000140: 0000 0000 0000 0000 0000 0000 0000 0000
00000150: 0000 0000 0000 0000 0000 0000 0000 0000
00000160: 0000 0000 0000 0000 0000 0000 0000 0000
00000170: 0000 0000 0000 0000 0000 0000 0000 0000
00000180: 0000 0000 0000 0000 0000 0000 0000 0000
00000190: 0000 0000 0000 0000 0000 0000 0000 0000
000001a0: 0000 0000 0000 0000 0000 0000 0000 0000
000001b0: 0000 0000 0000 0000 0000 0000 0000 0000
000001c0: 0000 0000 0000 0000 0000 0000 0000 0000
000001d0: 0000 0000 0000 0000 0000 0000 0000 0000
000001e0: 0000 0000 0000 0000 0000 0000 0000 0000
000001f0: 0000 0000 0000 0000 0000 0000 0000 0000
00000200: 0000 0000 0000 0000 0000 0000 0000 0000
00000210: 0000 0000 0000 0000 0000 0000 0000 0000
00000220: 0000 0000 0000 0000 0000 0000 0000 0000
00000230: 0000 0000 0000 0000 0000 0000 0000 0000
00000240: 0000 0000 0000 0000 0000 0000 0000 0000
00000250: 0000 0000 0000 0000 0000 0000 0000 0000
00000260: 0000 0000 0000 0000 0000 0000 0000 0000
00000270: 0000 0000 0000 0000 0000 0000 0000 0000
00000280: 0000 0000 0000 0000 0000 0000 0000 0000
00000290: 0000 0000 0000 0000 0000 0000 0000 0000
000002a0: 0000 0000 0000 0000 0000 0000 0000 0000
000002b0: 0000 0000 0000 0000 0000 0000 0000 0000
000002c0: 0000 0000 0000 0000 0000 0000 0000 0000
000002d0: 0000 0000 0000 0000 0000 0000 0000 0000
000002e0: 0000 0000 0000 0000 0000 0000 0000 0000
000002f0: 0000 0000 0000 0000 0000 0000 0000 0000
00000300: 0000 0000 0000 0000 0000 0000 0000 0000
00000310: 0000 0000 0000 0000 0000 0000 0000 0000
00000320: 0000 0000 0000 0000 0000 0000 0000 0000
00000330: 0000 0000 0000 0000 0000 0000 0000 0000
00000340: 0000 0000 0000 0000 0000 0000 0000 0000
00000350: 0000 0000 0000 0000 0000 0000 0000 0000
00000360: 0000 0000 0000 0000 0000 0000 0000 0000
00000370: 0000 0000 0000 0000 0000 0000 0000 0000
00000380: 0000 0000 0000 0000 0000 0000 0000 0000
00000390: 0000 0000 0000 0000 0000 0000 0000 0000
000003a0: 0000 0000 0000 0000 0000 0000 0000 0000
000003b0: 0000 0000 0000 0000 0000 0000 0000 0000
000003c0: 0000 0000 0000 0000 0000 0000 0000 0000
000003d0: 0000 0000 0000 0000 0000 0000 0000 0000
000003e0: 0000 0000 0000 0000 0000 0000 0000 0000
000003f0: 0000 0000 0000 0000 0000 0000 0000 0000

encoder.lstm.weight_ih_l0 f4 [128, 4]
1.9308872 0.82899874 2.3880906 -1.9017582 1.9447101 -2.0107875 0.10607698 -2.8866997
0.34891888 2.4461632 -0.5653311 -2.2081454 0.7743749 0.83227324 0.37571946 -0.69030166
0.2697325 -1.1811937 1.0365999 0.21818118 -2.4591508 0.82352114 0.28490868 -1.7553802
1.8845537 1.0367539 -1.2505997 0.2817709 -0.37059554 0.67438847 1.5525677 0.14620338
2.3125653 0.25201735 -0.5194877 0.5901437 -0.08444926 0.18755282 3.0253103 -0.07794145
-0.7394328 0.623135 0.55877066 0.57821286 -0.68168986 -0.29230496 1.4840738 1.5653665
0.3839343 -0.93840396 -0.76571244 3.9283206 0.60055715 -1.092944 0.5365859 -0.3496778
3.0549326 0.06658001 -0.79675347 0.5858805 0.55699235 0.0314081 -0.5011106 0.6636318
-0.5821975 -0.6328457 0.7041814 0.6148 1.7797496 -0.34833902 0.17537472 -0.18874744
0.7057652 -3.7921638 0.2368855 0.89175373 0.39119762 -1.2306837 0.617907 3.7578936
0.52280945 -0.58593744 1.3346089 1.7088698 2.3410745 1.2239255 1.7844952 1.863739
0.3652284 -0.46513826 1.8673306 -2.398795 0.7971897 0.97192544 0.083345436 -0.52458274
1.0880008 0.1403683 -1.6275928 1.3840243 -1.7617677 2.1412742 -0.11914878 0.38100863
-0.27533835 -1.0833787 0.93337893 3.5056825 3.0499525 1.7576114 -0.86121756 0.9676237
0.023986455 2.7804909 -0.8982427 0.32175133 -0.79941416 0.3878787 1.3326509 -1.5836366
0.71705216 1.4721541 -1.4606534 -0.9228981 0.6636636 1.1968645 -0.5968188 -0.67729384
0.042431246 0.38663355 0.021180632 0.15196255 -0.5316124 1.7708768 -0.8866938 4.55213
0.45903215 -2.3890886 1.8157372 0.4822993 0.73429835 -1.3216263 2.1796072 2.6478171
0.9667852 0.8423502 -1.366644 0.86208063 -1.3619765 2.3219743 2.4810781 0.2959446
0.52516115 -0.53047186 1.317042 0.14912023 -0.61028117 1.5696774 -0.2651803 -1.0189254
-0.2705403 -0.93052286 1.1319876 -3.4578185 0.37845877 0.7330707 0.438797 0.26081342
-1.8060713 -0.6191099 0.6883707 1.906531 2.8241663 -1.1569037 1.1902535 -1.2641146
1.4212308 -0.8318662 1.196265 -1.112299 -2.2482462 0.47175658 1.3216476 0.8246587
-0.77767193 0.94310397 -2.4513505 1.8259089 -0.8264651 0.8211331 0.095727146 -0.33772624
0.3353431 0.43447676 -0.15582871 -1.3961501 -0.35448736 0.6689306 -1.3427663 2.3378446
2.711555 2.7858484 3.8288283 -0.727657 -0.14815031 -1.2787695 -1.4733926 1.3568213
1.8910296 -1.5200139 -0.7076555 -0.12403951 -0.46659788 0.7546258 0.5607533 -1.5206131
2.7417035 0.9480636 1.9338151 -0.33524007 -2.225527 -1.1145111 -0.6444374 1.2008767
-1.1561489 -2.0418067 2.508589 -0.362505 -1.0802574 -0.43773472 2.0328882 0.34918657
1.6351467 1.39078 2.2781887 -2.2043016 -1.5449246 1.1272476 -0.48164037 -1.4540511
-2.2841744 -2.9512835 -0.08809042 2.047975 0.07315921 -0.4563262 -0.61227936 1.8949685
-2.1965637 1.2286657 1.0768526 2.4548264 1.6973964 -0.88920623 0.0016412353 -0.5292726
00000000: 5027 f73f 4339 543f 7ad6 1840 d06c f3bf
00000010: 43ec f83f beb0 00c0 e33e d93d b0bf 38c0
00000020: 7fa5 b23e f08d 1c40 8ab9 10bf 4152 0dc0
00000030: 6f3d 463f dc0f 553f 4d5e c03e 9cb7 30bf
00000040: 611a 8a3e 5b31 97bf 4eaf 843f e36a 5f3e
00000050: ba62 1dc0 48d2 523f 8ddf 913e 4cb0 e0bf
00000060: 0e39 f13f 5ab4 843f a713 a0bf 4744 903e
00000070: b3be bdbe b9a4 2c3f 8aba c63f 57b6 153e
00000080: 1201 1440 6b08 813e 25fd 04bf a813 173f
00000090: bcf3 acbd d90d 403e af9e 4140 c49f 9fbd
000000a0: 784b 3dbf c685 1f3f 980b 0f3f c205 143f
000000b0: 3a83 2ebf ffa8 95be 21f6 bd3f ee5d c83f
000000c0: 0993 c43e 3e3b 70bf bb05 44bf 9b69 7b40
000000d0: 1dbe 193f 97e5 8bbf b25d 093f f808 b3be
000000e0: 0484 4340 1a5b 883d 09f8 4bbf 44fc 153f
000000f0: 0d97 0e3f c8a5 003d c948 00bf c6e3 293f
00000100: e50a 15bf 2d02 22bf 3b45 343f 8863 1d3f
00000110: d6ce e33f 7e59 b2be 6e95 333e 0247 41be
00000120: 07ad 343f d0b2 72c0 1d92 723e f949 643f
00000130: 0e4b c83e 0b87 9dbf 272f 1e3f 5481 7040
00000140: d7d6 053f ffff 15bf 77d4 aa3f 3fbc da3f
00000150: 2ad4 1540 97a9 9c3f 576a e43f 008f ee3f
00000160: 38ff ba3e 9a26 eebe b004 ef3f db85 19c0
00000170: a014 4c3f 1bd0 783f 03b1 aa3d 0e4b 06bf
00000180: 9c43 8b3f b5bc 0f3e f654 d0bf b527 b13f
00000190: 9b81 e1bf a30a 0940 4704 f4bd 9013 c33e
000001a0: 26f9 8cbe 27ac 8abf ecf1 6e3f 1a5d 6040
000001b0: 6c32 4340 69f9 e03f c178 5cbf 30b6 773f
000001c0: 3e7f c43c 90f3 3140 3cf3 65bf 97bc a43e
000001d0: 68a6 4cbf 0998 c63e 4e94 aa3f 9bb4 cabf
000001e0: bb90 373f 8c6f bc3f b1f6 babf 0d43 6cbf
000001f0: dce5 293f db32 993f 1ec9 18bf 2163 2dbf
00000200: 63cc 2d3d d5f4 c53e 0183 ad3c 129c 1b3e
00000210: c017 08bf 17ac e23f 5dfe 62bf 0dab 9140
00000220: 4306 eb3e d4e6 18c0 146a e83f efef f63e
00000230: fafa 3b3f 0d2b a9bf af7e 0b40 d675 2940
00000240: 3c7f 773f 43a4 573f 31ee aebf 51b1 5c3f
00000250: 3f55 aebf 3a9b 1440 fcc9 1e40 0d86 973e
00000260: f670 063f 01cd 07bf d594 a83f f9b2 183e
00000270: 633b 1cbf 30eb c83f b6c5 87be 266c 82bf
00000280: 4284 8abe bf36 6ebf f8e4 903f e64c 5dc0
00000290: 59c5 c13e 85aa 3b3f 00aa e03e 5689 853e
000002a0: 582d e7bf fd7d 1ebf 1039 303f 3509 f43f
000002b0: 24bf 3440 6c15 94bf 3a5a 983f 82ce a1bf
000002c0: e4ea b53f 2ff5 54bf 361f 993f d05f 8ebf
000002d0: 44e3 0fc0 148a f13e c02b a93f d51c 533f
000002e0: 8215 47bf 436f 713f ede2 1cc0 62b7 e93f
000002f0: 3793 53bf c735 523f 980c c43d 74ea acbe
00000300: 17b2 ab3e bd73 de3e 9091 1fbe 0cb5 b2bf
00000310: 5e7f b5be 093f 2b3f c4df abbf 3f9f 1540
00000320: 1e8a 2d40 574b 3240 860b 7540 bb47 3abf
00000330: b7b4 17be b8ae a3bf 2198 bcbf 52ac ad3f
00000340: 420d f23f d18f c2bf e928 35bf 6d08 febd
00000350: ebe5 eebe 282f 413f 878d 0f3f 73a3 c2bf
00000360: 1278 2f40 4cb4 723f 4187 f73f 96a4 abbe
00000370: 096f 0ec0 4da8 8ebf d9f9 24bf 54b6 993f
00000380: b0fc 93bf f6ac 02c0 b98c 2040 419a b9be
00000390: e045 8abf c41e e0be d71a 0240 95c8 b23e
000003a0: 7d4c d13f 1405 b23f d8cd 1140 4713 0dc0
000003b0: 17c0 c5bf a649 903f 9199 f6be 591e babf
000003c0: ea2f 12c0 d4e1 3cc0 c068 b4bd 0612 0340
000003d0: 7fd4 953d 96a3 e9be 57be 1cbf 548e f23f
000003e0: 8094 0cc0 eb44 9d3f 4ed6 893f e01b 1d40
000003f0: 4944 d93f 05a3 63bf b81e d73a 697e 07bf

encoder.lstm.weight_hh_l0 f4 [128, 32]
-0.5657469 0.5283301 -0.20709875 -0.77725345 -0.55280215 0.25380713 -0.06950113 -0.73334074
0.586525 0.828465 0.10656974 -0.17091084 0.14389326 0.20395125 -0.79513997 -0.8299919
0.62109786 0.010587319 -0.904465 0.54330355 -0.72258437 -0.9124726 0.85184956 -1.1219277
0.80514157 0.030770918 0.30490083 0.68911797 -0.39616928 -0.24793404 0.6163864 -0.075097665
0.4541379 0.31840643 -1.5776166 -0.36678433 2.557297 -1.5591967 -0.9017652 -1.6786952
-0.21425317 1.0649902 -0.07118352 1.7758435 0.56537646 0.49333838 -0.28142354 0.35410666
-0.49634132 -1.199876 -0.21817753 1.4703157 1.9971704 -1.4153578 -0.6606979 0.22213879
-1.353693 2.1543748 0.014399747 0.12572777 -0.22775473 1.1965568 0.14970562 0.24313268
-0.8928467 0.3783679 0.9369543 0.15110944 0.13264216 -0.22388624 0.38006586 -0.34582227
0.63078773 0.38670015 -0.78547543 -1.2802746 0.7980757 0.52000326 -0.118128546 0.017982874
-0.36679503 0.41836 -0.17972724 1.4203097 0.33776283 0.65897626 1.3222418 -1.7013825
-1.6397772 0.05656092 -0.11541559 -1.1580355 0.267366 -0.5587018 0.30490974 -0.08548411
-1.3817412 1.7314796 0.026563497 -0.82540804 0.10620964 1.0019398 0.32657167 -0.75489205
0.51717323 -0.19772491 -0.9801467 0.10979518 0.634422 -0.42064142 0.7971619 -0.14209493
-1.0967592 -0.01645809 -1.7302729 0.7431881 0.5571732 0.19520463 -0.06950199 0.5932304
-1.1528996 1.5118613 0.12046976 -0.31230128 -2.0323536 0.4949455 -0.1640279 0.9352579
0.51183933 0.8144938 0.49395335 -0.8510266 -0.3559015 -0.4638214 0.33324268 0.8428139
-0.39867762 -0.46873066 -1.2235316 0.39040905 0.36830425 0.09174285 -0.2681288 0.41451928
1.9683863 0.03648697 -0.7825887 0.606265 0.462339 -1.4052769 0.42295358 -0.021714434
-0.29072824 0.19696769 -0.48062032 0.3471667 -0.095769525 1.233951 0.26558885 -0.10644763
-0.5886282 -0.6609425 0.5498362 1.9237907 -1.8345966 -2.0086253 1.7639209 -0.902231
1.8653893 -0.004072564 -0.28579164 0.82145184 -0.0056990725 -1.5811226 0.6609682 -1.1502094
0.088421084 0.53395385 0.98238194 0.056288317 0.80877656 0.7442538 0.37490994 -1.1931602
-0.63638234 0.8400034 -1.5039879 -0.47198036 0.77934897 -0.13825333 1.0949095 0.35905966
0.4797294 -1.0734606 0.59719384 -0.44388968 -0.19472893 0.57979643 0.0012166162 0.04705556
0.93616104 0.9055725 0.002573396 -0.8898973 -0.45777327 -0.07193764 0.13987622 -0.7315006
-0.96574855 -0.042034116 0.5205914 1.5847245 0.646242 1.8618023 0.25351462 0.121719204
0.31487188 -0.19594967 0.08943766 0.39026037 -0.6577782 0.4003645 0.92734903 0.7950386
-0.23260833 0.8015707 -0.03238667 0.3479492 -0.6237381 0.75659287 0.021132663 -0.18295397
0.6431694 -1.9400889 0.051596973 0.21137507 -0.42608786 -2.0179374 -0.6109508 -0.7499701
-0.39585423 -0.17105474 -0.512561 -0.93292165 0.8302763 -0.34227866 0.5834025 -0.14885484
0.43153635 0.30726695 -0.47865418 -0.17452298 -0.828315 1.7319933 0.6349516 -0.16622613
00000000: cad4 10bf a440 073f b211 54be 15fa 46bf
00000010: 7184 0dbf 02f3 813e 9c56 8ebd 38bc 3bbf
00000020: 8126 163f 4816 543f 3c41 da3d 4003 2fbe
00000030: c158 133e 99d8 503e 4b8e 4bbf 597a 54bf
00000040: 4500 1f3f 6f76 2d3c 058b 67bf f115 0b3f
00000050: 4afb 38bf ce97 69bf d012 5a3f 549b 8fbf
00000060: c21d 4e3f 4b13 fc3c f61b 9c3e 096a 303f
00000070: b3d6 cabe 6ce2 7dbe 80cb 1d3f cecc 99bd
00000080: c384 e83e 2b06 a33e 57ef c9bf 28cb bbbe
00000090: c1aa 2340 c293 c7bf 16da 66bf 7cdf d6bf
000000a0: 2f65 5bbe 9951 883f aac8 91bd d74e e33f
000000b0: 83bc 103f d996 fc3e bf16 90be 784d b53e
000000c0: 7320 febe 8995 99bf ee69 5fbe 4e33 bc3f
000000d0: 48a3 ff3f 722a b5bf 7f23 29bf 5a78 633e
000000e0: d045 adbf 47e1 0940 ebec 6b3c c8be 003e
000000f0: 8938 69be c628 993f 6e4c 193e c6f7 783e
00000100: 9a91 64bf 70b9 c13e 3ddc 6f3f 6fbc 1a3e
00000110: 59d3 073e 6f42 65be fe97 c23e 9e0f b1be
00000120: 4e7b 213f 90fd c53e eb14 49bf 0ae0 a3bf
00000130: b04e 4c3f ef1e 053f 61ed f1bd d250 933c
00000140: 8fcc bbbe 4833 d63e 6b0a 38be b5cc b53f
00000150: 40ef ac3e abb2 283f 383f a93f e7c6 d9bf
00000160: 38e4 d1bf 6cac 673d 025f ecbd 823a 94bf
00000170: 32e4 883e 1507 0fbf 211d 9c3e 4b12 afbd
00000180: e5dc b0bf 20a1 dd3f b19b d93c f14d 53bf
00000190: 7184 d93d 903f 803f 6734 a73e 9b40 41bf
000001a0: 7765 043f 6678 4abe e5ea 7abf 4cdc e03d
000001b0: 7b69 223f 505e d7be cd12 4c3f 5581 11be
000001c0: 9b62 8cbf 1ed3 86bc 9579 ddbf 9341 3e3f
000001d0: e7a2 0e3f b9e3 473e 0f57 8ebd f3dd 173f
000001e0: 3792 93bf ac84 c13f d9b8 f63d f4e5 9fbe
000001f0: 1512 02c0 7f69 fd3e eef6 27be 106d 6f3f
00000200: e707 033f aa82 503f 74e7 fc3e e1dc 59bf
00000210: b938 b6be 007a edbe c99e aa3e a7c2 573f
00000220: 791f ccbe 77fd efbe af9c 9cbf b2e3 c73e
00000230: 6092 bc3e ade3 bb3d 2e48 89be df3b d43e
00000240: 15f4 fb3f 5c73 153d bc57 48bf 2f34 1b3f
00000250: b3b7 ec3e 1de0 b3bf 5f8d d83e 78e2 b1bc
00000260: 55da 94be e6b1 493e de13 f6be d5bf b13e
00000270: d022 c4bd 1bf2 9d3f 43fb 873e 3701 dabd
00000280: 56b0 16bf 8733 29bf 11c2 0c3f c63e f63f
00000290: 10d4 eabf 518d 00c0 29c8 e13f 9cf8 66bf
000002a0: 14c5 ee3f 2573 85bb 4853 92be ab4a 523f
000002b0: 49bf babb 3a62 cabf 3635 293f 103a 93bf
000002c0: 1d16 b53d 33b1 083f 627d 7b3f 948e 663d
000002d0: fb0b 4f3f 6b87 3e3f 32f4 bf3e 79b9 98bf
000002e0: f4e9 22bf 760a 573f ad82 c0bf 69a7 f1be
000002f0: 6a83 473f 4892 0dbe ff25 8c3f abd6 b73e
00000300: 189f f53e 2867 89bf b2e1 183f 8245 e3be
00000310: 0567 47be 8a6d 143f de76 9f3a 55bd 403d
00000320: 40a8 6f3f 99d3 673f 6ca6 283b 4fd0 63bf
00000330: 4261 eabe 0b54 93bd b63b 0f3e a043 3bbf
00000340: 4c3b 77bf f72b 2cbd 7a45 053f 41d8 ca3f
00000350: 1e70 253f 8a4f ee3f abcc 813e eb47 f93d
00000360: e336 a13e 08a7 48be 182b b73d 35d0 c73e
00000370: 2764 28bf 93fc cc3e bf66 6d3f a687 4b3f
00000380: e130 6ebe bd33 4d3f e3a7 04bd 6626 b23e
00000390: 4dad 1fbf 12b0 413f 681e ad3c 4958 3bbe
000003a0: c0a6 243f d554 f8bf 5957 533d b572 583e
000003b0: 3028 dabe e325 01c0 4667 1cbf 0afe 3fbf
000003c0: 68ad cabe f928 2fbe 3337 03bf f4d3 6ebf
000003d0: fd8c 543f 263f afbe de59 153f 676d 18be
000003e0: 55f2 dc3e 1852 9d3e 2912 f5be 27b6 32be
000003f0: 740c 54bf f5b1 dd3f 308c 223f 2f37 2abe

encoder.lstm.bias_ih_l0 f4 [128]
0.56913817 -0.046784725 -0.38633305 0.21500294 0.45333108 -0.095898576 0.6643828 0.4260796
0.42796588 0.075896226 0.41367444 0.5305592 -0.13111919 0.3736312 0.32048362 0.016244119
0.07142128 0.4887393 -0.06232529 0.43251535 0.331489 0.15746711 -0.026536673 0.16808826
-0.17887148 -0.36785388 0.427051 -0.03575743 0.08920771 -0.09001202 0.033295713 0.3110726
-0.31198376 0.48518175 0.25968024 -0.045297805 0.06847007 0.09352098 0.13007036 0.056431282
0.39064112 -0.31429467 -0.18640898 -0.08706631 -0.15405995 0.032047655 -0.07800808 0.17913783
-0.5707938 -0.29921895 0.84306335 -0.21836719 -0.016000174 -0.08725988 0.13966052 -0.8421579
-0.09612155 0.07487399 -0.27272528 -0.76958555 -0.43563893 0.019516172 0.043886174 -0.2898368
0.1835271 0.38739878 -0.006518419 0.10469299 -0.042677917 0.1885075 -0.08913599 -0.18313648
0.086172335 -0.070665926 -0.0065788873 -0.13478057 0.026525317 -0.73447293 0.24904287 0.32784826
0.34958598 0.123599835 -0.38029867 0.091759935 -0.49113804 -0.3112624 0.020879734 0.40546775
0.08424246 0.12179118 -0.49352846 0.03566866 0.114457995 -0.28456444 -0.04911402 0.21374121
0.3468907 0.47946417 0.6363607 0.012130311 0.42762056 -0.08317771 0.07088497 0.22125714
0.10671405 0.15963273 0.19505116 0.2528395 0.2963731 0.18647833 -0.0445188 0.11428479
-0.22522564 0.51332045 0.58131444 0.3346817 -0.22607712 0.53748244 0.10095853 0.77617955
0.08029548 0.3044658 0.1567516 0.24013044 0.07276112 0.09849336 0.03826523 0.0011533208
00000000: 0ab3 113f 57a1 3fbd 72cd c5be bb29 5c3e
00000010: 031b e83e 7966 c4bd fe14 2a3f 1b27 da3e
00000020: 581e db3e 7b6f 9b3d 23cd d33e bad2 073f
00000030: 1c44 06be 974c bf3e 6e16 a43e 6312 853c
00000040: 5245 923d 0a3c fa3e ce48 7fbd a772 dd3e
00000050: edb8 a93e 0f3f 213e 7063 d9bc 541f 2c3e
00000060: 162a 37be 5857 bcbe 6ea6 da3e 6276 12bd
00000070: 88b2 b63d 3958 b8bd 1661 083d e844 9f3e
00000080: 56bc 9fbe be69 f83e cff4 843e 318a 39bd
00000090: 093a 8c3d ed87 bf3d 2a31 053e 7d24 673d
000000a0: 1d02 c83e 3beb a0be ffe1 3ebe d24f b2bd
000000b0: e4c1 1dbe 6744 033d b3c2 9fbd e86f 373e
000000c0: 8b1f 12bf 3a33 99be 00d3 573f a69b 5fbe
000000d0: cc12 83bc 4fb5 b2bd 2b03 0f3e a997 57bf
000000e0: 60db c4bd 8957 993d a6a2 8bbe 8f03 45bf
000000f0: 110c dfbe 61e0 9f3c fdc1 333d 7d65 94be
00000100: 87ee 3b3e 2259 c63e 7698 d5bb 4769 d63d
00000110: 0acf 2ebd 1c08 413e ee8c b6bd 2188 3bbe
00000120: 1f7b b03d 4cb9 90bd b593 d7bb eb03 0abe
00000130: 9f4b d93c 6b06 3cbf 1805 7f3e badb a73e
00000140: effc b23e e921 fd3d 82b6 c2be a2ec bb3d
00000150: 7276 fbbe c95d 9fbe fa0b ab3c 7899 cf3e
00000160: 5087 ac3d a76d f93d c3af fcbe 4d19 123d
00000170: f468 ea3d 6eb2 91be c82b 49bd fade 5a3e
00000180: a89b b13e 547c f53e 89e8 223f 36be 463c
00000190: 15f1 da3e 1359 aabd 242c 913d 3b91 623e
000001a0: e58c da3d c376 233e 7ebb 473e 2e74 813e
000001b0: 37be 973e 2df4 3e3e 5859 36bd 250e ea3d
000001c0: 8da1 66be f868 033f 06d1 143f 665b ab3e
000001d0: c380 67be 7398 093f 59c3 ce3d b4b3 463f
000001e0: f571 a43d f1e2 9b3e 7e83 203e c1e4 753e
000001f0: c803 953d e3b6 c93d 00bc 1c3d 062b 973a

encoder.lstm.bias_hh_l0 f4 [128]
0.56913716 -0.04669415 -0.38642013 0.21498409 0.4532473 -0.095905386 0.6642595 0.42596242
0.42805317 0.07585536 0.41357476 0.53060603 -0.13091326 0.37372848 0.32051784 0.016259775
0.07142042 0.48889193 -0.062420342 0.43244484 0.33164096 0.15752167 -0.026474893 0.16801396
-0.17875414 -0.36783013 0.42691925 -0.035700317 0.08917206 -0.090181865 0.03314205 0.31103927
-0.31187326 0.4851731 0.25976068 -0.045270246 0.0684848 0.09351622 0.12992176 0.056442108
0.39065084 -0.31428057 -0.18636692 -0.08714404 -0.15400018 0.031852644 -0.0779967 0.17915212
-0.5707293 -0.2991741 0.84313524 -0.21845224 -0.01593161 -0.087194175 0.13948216 -0.84220916
-0.09609424 0.07493499 -0.27269033 -0.7696423 -0.43553427 0.0194894 0.04395657 -0.28985327
0.18353203 0.38729084 -0.0064015104 0.10469178 -0.042672813 0.18836795 -0.089160316 -0.18305597
0.08626651 -0.0706403 -0.0067195664 -0.13491768 0.026581218 -0.7345368 0.24915488 0.3277762
0.34958622 0.123599835 -0.38038704 0.09185099 -0.49129525 -0.31131276 0.020861238 0.40547913
0.08415165 0.1218111 -0.4934443 0.035592005 0.114448234 -0.28450578 -0.049153283 0.21381375
0.3470052 0.47940576 0.6364351 0.012199148 0.42772752 -0.08331085 0.070893474 0.22120306
0.10661192 0.15970525 0.19502768 0.2527253 0.2963838 0.18651934 -0.0445612 0.11430541
-0.22522391 0.51339173 0.5812807 0.33467123 -0.22600013 0.5373817 0.10105344 0.77620107
0.08024462 0.30454376 0.15682785 0.24020973 0.07264116 0.098576665 0.038133886 0.0010620113
00000000: f9b2 113f 5d42 3fbd dcd8 c5be ca24 5c3e
00000010: 0810 e83e 0b6a c4bd e90c 2a3f bf17 da3e
00000020: c929 db3e 0e5a 9b3d 12c0 d33e ccd5 073f
00000030: 200e 06be 5759 bf3e ea1a a43e 3833 853c
00000040: df44 923d 0b50 fa3e 79ac 7fbd 6969 dd3e
00000050: d8cc a93e 5c4d 213e e0e1 d8bc da0b 2c3e
00000060: 530b 37be 3b54 bcbe 2995 da3e 7f3a 12bd
00000070: d79f b63d 45b1 b8bd f5bf 073d 8a40 9f3e
00000080: daad 9fbe 9c68 f83e 5aff 843e 4b6d 39bd
00000090: c241 8c3d 6f85 bf3d 360a 053e d72f 673d
000000a0: 6303 c83e 62e9 a0be f8d6 3ebe 9378 b2bd
000000b0: 39b2 1dbe eb77 023d bcbc 9fbd a773 373e
000000c0: 511b 12bf 592d 99be b6d7 573f f2b1 5fbe
000000d0: 0283 82bc dc92 b2bd 69d4 0e3e 059b 57bf
000000e0: 0fcd c4bd 8477 993d 119e 8bbe 4707 45bf
000000f0: 59fe debe 3ca8 9f3c ce0b 343d a667 94be
00000100: d2ef 3b3e fc4a c63e c3c3 d1bb a568 d63d
00000110: b0c9 2ebd 87e3 403e af99 b6bd 0673 3bbe
00000120: 7fac b03d ddab 90bd cf2f dcbb dc27 0abe
00000130: dbc0 d93c 9b0a 3cbf 7522 7f3e 48d2 a73e
00000140: f7fc b23e e921 fd3d 17c2 c2be 5f1c bc3d
00000150: 0d8b fbbe 6364 9fbe 30e5 aa3c f69a cf3e
00000160: b357 ac3d 1978 f93d bba4 fcbe ecc8 113d
00000170: d663 ea3d beaa 91be f454 49bd fef1 5a3e
00000180: aaaa b13e ac74 f53e 69ed 223f efde 473c
00000190: 1aff da3e e19e aabd 9930 913d 0e83 623e
000001a0: 5a57 da3d c689 233e 56b5 473e 3665 813e
000001b0: 9ebf 973e edfe 3e3e ce85 36bd f418 ea3d
000001c0: 19a1 66be a46d 033f d0ce 143f 075a ab3e
000001d0: 946c 67be d991 093f 1bf5 ce3d 1db5 463f
000001e0: 4b57 a43d 29ed 9b3e 7b97 203e 8af9 753e
000001f0: e3c4 943d 90e2 c93d 4732 1c3d 3033 8b3a

decoder.lstm.weight_ih_l0 f4 [128, 5]
1.4413174 0.18919377 0.18336558 0.08654791 -0.059258234 -0.019067897 -0.17487824 -0.54794526
-0.900628 0.9894094 5.991758 -0.14096348 0.034454755 0.25523785 0.050742876 0.036949694
-0.20341243 1.475341 1.7960322 -1.4541864 0.05502115 -0.13128324 0.2126506 0.23702891
0.008488446 -0.025631987 0.03048659 0.03043825 -0.15535821 0.15107913 0.14298062 0.4753346
0.7781677 -1.3832077 -0.02165556 -0.047430757 0.31947568 -0.6941235 0.056381308 -0.638361
-0.025694 -1.3305823 0.48912388 -0.09150253 -0.19994964 -0.05991567 -0.33136 0.089426056
0.109296605 0.5594772 0.024388265 0.10011831 -0.49631473 0.61239547 -0.20627202 0.06476751
1.2520794 0.269204 -0.66939336 0.734102 -0.10035923 -0.33580023 -0.19314179 -0.1772079
1.0326457 0.0116784405 1.3898731 -1.1690016 0.62976384 -1.7156607 -0.32301074 -0.6120371
-0.31516978 0.019650346 -0.15254727 1.605881 -0.22036885 -0.19897245 0.16833791 -0.35763726
-0.019959966 2.6704404 -0.8732713 0.4203762 -0.8015546 -0.18781893 5.653878 0.24953964
0.35011593 -1.3057891 0.8382959 -0.110314965 0.07206861 0.26552987 0.06291169 0.009432905
2.355709 3.1656682 -1.578725 -1.0128034 0.231465 -0.4255272 -0.082471095 -1.1079319
1.8326586 0.007744108 0.34493884 -1.0285081 -0.77302116 0.37421155 -0.41211697 1.2484101
1.4508567 -0.02471659 -0.2602346 0.0038980206 -0.431446 0.13903458 -0.35743207 0.3858432
0.06787962 -0.55632937 -0.73421216 0.607544 -0.64155316 0.10211836 -0.4560217 1.1951537
-0.12756646 -0.9456664 -0.009205078 1.1972709 0.01907954 -0.51286006 -1.8195765 -0.02787978
-0.2938414 -0.052637685 0.19201724 0.22363435 -0.026098002 -0.54126656 -0.6935455 0.033775453
-0.70265985 -0.023248794 0.61092144 0.2845073 -1.0648719 -0.6005101 -0.14538015 0.34597656
-0.64970934 -0.057308882 -0.29861712 -0.050928716 2.0894477 0.43278173 1.0141741 -0.962198
-0.8414153 -0.24418226 -0.3493711 -0.23598191 -0.43359143 0.16480586 0.19677787 0.10888917
-0.09575383 1.6321086 0.6201456 -0.53305835 -0.5965511 -0.6645641 -0.66929954 0.03663534
0.734234 -0.53807586 1.6284626 -0.44313255 -0.22067022 0.27770942 0.010244013 0.14222665
-0.38104913 0.0022706306 -1.3517222 1.7306384 1.3016462 -0.3398247 0.0173932 0.73763275
3.1376746 -0.3552787 -0.39877725 -0.09958488 0.20108779 1.3606786 0.7852114 0.21152759
0.023102041 0.5202978 1.0614808 0.5943224 -0.38480154 0.057907786 -0.3901534 0.5624785
0.07241408 0.317812 0.011944595 -0.53656864 0.44146436 0.871677 0.337948 0.069805965
0.40310645 0.12018464 -1.3622946 1.6179295 -0.016052537 -0.52832025 0.5901783 0.017762056
-1.1216615 -0.05920309 -0.26883358 -0.7112175 3.5223346 2.7810333 0.0060171965 1.0663401
-0.3876147 0.33269954 0.10316931 0.89264065 -0.35668302 -0.12798767 -0.19728766 -0.3987477
-0.023446098 1.2787014 0.24156712 -0.9371782 3.8408031 -0.06074946 1.3947154 2.783935
-0.27317637 -0.8756727 0.43014044 -0.34947914 -0.26069123 -0.5157919 -0.425439 0.061335728
00000000: 177d b83f 03bc 413e 30c4 3b3e 0840 b13d
00000010: c3b8 72bd 4734 9cbc 4813 33be 2446 0cbf
00000020: 8e8f 66bf ef49 7d3f 7bbc bf40 bb58 10be
00000030: 6e20 0d3d 89ae 823e c3d7 4f3d 9058 173d
00000040: 594b 50be f9d7 bc3f 62e4 e53f c822 babf
00000050: db5d 613d 1d6f 06be 14c1 593e b5b7 723e
00000060: 1f13 0b3c 2cfa d1bc 03bf f93c a359 f93c
00000070: 3916 1fbe 7db4 1a3e 8369 123e 0f5f f33e
00000080: 0036 473f f30c b1bf 0067 b1bc c146 42bd
00000090: 5192 a33e 14b2 31bf 16f0 663d a06b 23bf
000000a0: 397c d2bc 8550 aabf 726e fa3e ae65 bbbd
000000b0: 99bf 4cbe 226a 75bd 05a8 a9be 0225 b73d
000000c0: e6d6 df3d e639 0f3f e6c9 c73c d40a cd3d
000000d0: f71c febe f3c5 1c3f f938 53be d4a4 843d
000000e0: 2344 a03f 1bd5 893e 5d5d 2bbf 1cee 3b3f
000000f0: 2489 cdbd 02ee abbe f6c6 45be fd75 35be
00000100: bc2d 843f ee56 3f3c 5de7 b13f d8a1 95bf
00000110: 3438 213f c59a dbbf aa61 a5be 77ae 1cbf
00000120: ef5d a1be c3f9 a03c 5a35 1cbe 828d cd3f
00000130: 5fa8 61be 6fbf 4bbe c660 2c3e 3b1c b7be
00000140: 1583 a3bc 7fe8 2a40 b58e 5fbf 8d3b d73e
00000150: af32 4dbf 9b53 40be 92ec b440 5287 7f3e
00000160: 6542 b33e 1924 a7bf 8f9a 563f d0ec e1bd
00000170: b598 933d 88f3 873e d8d7 803d 798c 1a3c
00000180: f0c3 1640 4f9a 4a40 a913 cabf 8ba3 81bf
00000190: 2905 6d3e b3de d9be 9be6 a8bd b6d0 8dbf
000001a0: 8f94 ea3f 49c2 fd3b d39b b03e 27a6 83bf
000001b0: b7e4 45bf a898 bf3e ff00 d3be e7cb 9f3f
000001c0: acb5 b93f 727a cabc 783d 85be ef75 7f3b
000001d0: 7de6 dcbe 155f 0e3e 5601 b7be 3d8d c53e
000001e0: 7804 8b3d 9a6b 0ebf 54f5 3bbf 0188 1b3f
000001f0: d43c 24bf 6e23 d13d ad7b e9be ccfa 983f
00000200: c8a0 02be 3117 72bf e5d0 16bc 2c40 993f
00000210: b24c 9c3c cc4a 03bf e2e7 e8bf 2364 e4bc
00000220: 6172 96be 9d9a 57bd 2ba0 443e 6700 653e
00000230: 7acb d5bc 7290 0abf 338c 31bf 2158 0a3d
00000240: 84e1 33bf 4174 bebc 5965 1c3f f1aa 913e
00000250: b94d 88bf 08bb 19bf 89de 14be d723 b13e
00000260: 5a53 26bf b8bc 6abd 58e4 98be a19a 50bd
00000270: 83b9 0540 9195 dd3e 75d0 813f 9c52 76bf
00000280: fe66 57bf ea0a 7abe c5e0 b2be 3ea5 71be
00000290: b2ff ddbe dec2 283e 2380 493e 4901 df3d
000002a0: 961a c4bd efe8 d03f ddc1 1e3f 8376 08bf
000002b0: 93b7 18bf df20 2abf 3757 2bbf f00e 163d
000002c0: c2f6 3b3f 57bf 09bf 7671 d03f 45e2 e2be
000002d0: 60f7 61be ee2f 8e3e 81d6 273c dda3 113e
000002e0: df18 c3be dcce 143b 3c05 adbf 8f85 dd3f
000002f0: 589c a63f 81fd adbe 2f7c 8e3c 80d5 3c3f
00000300: a9cf 4840 17e7 b5be 882c ccbe 28f3 cbbd
00000310: f5e9 4d3e b72a ae3f 9d03 493f b09a 583e
00000320: 7e40 bd3c 3d32 053f 9ade 873f 8325 183f
00000330: b504 c5be b730 6d3d 30c2 c7be 97fe 0f3f
00000340: d54d 943d 41b8 a23e 43b3 433c 905c 09bf
00000350: 9e07 e23e 3926 5f3f 8507 ad3e 6ef6 8e3d
00000360: f863 ce3e 5d23 f63d ab5f aebf 5018 cf3f
00000370: 9c80 83bc ff3f 07bf ed15 173f bb81 913c
00000380: 9b92 8fbf f07e 72bd 8ea4 89be 5a12 36bf
00000390: ee6d 6140 73fc 3140 e72b c53b d57d 883f
000003a0: 6f75 c6be 9857 aa3e 6e4a d33d 1984 643f
000003b0: 289f b6be 330f 03be c705 4abe a928 ccbe
000003c0: 0812 c0bc 7dac a33f 5f5d 773e e9ea 6fbf
000003d0: b8cf 7540 6dd4 78bd 0986 b23f fe2b 3240
000003e0: c6dd 8bbe 162c 60bf 5e3b dc3e eeee b2be
000003f0: 5279 85be f00a 04bf 24d3 d9be 2c3b 7b3d

decoder.lstm.weight_hh_l0 f4 [128, 32]
-0.10767514 0.08551878 0.6912002 0.049666584 1.6348604 -0.41753042 -0.4140909 -0.02771001
-0.22067207 -0.4674191 0.06286514 0.18980806 -0.3412951 0.0730386 -0.17837664 -1.2376279
-0.18361256 -0.52758574 0.6373633 -0.037110254 0.296223 0.03293048 1.0587974 -0.55665237
0.08278517 -0.22215591 -0.030012755 0.29697308 0.46738234 -1.0655837 1.3640475 0.41979906
0.2430319 -0.36236835 0.44969136 1.7876425 -0.39745438 1.4897261 -0.15377997 -0.1798895
-0.1458357 -0.7249425 0.72488886 -1.3612384 0.29130915 0.51225924 -0.57354087 0.40001276
0.2163978 1.1734036 -0.03982605 -1.0765269 1.6284896 -0.80849075 0.6724276 -0.026641365
-0.15094884 -0.47181067 1.3414153 0.2841694 -0.28655514 -1.5676876 -0.6455728 -0.04686737
0.48588842 2.4733322 -1.3433042 -0.90241677 -1.2775646 2.228534 0.68595344 -0.51894134
-0.39636868 0.38168564 -0.2822178 0.8560423 2.0422745 0.74130434 0.2335155 -0.8483417
0.69762015 0.6462015 0.97737145 -1.4509941 -1.3429765 -1.94213 -0.34994307 0.2634761
0.9070228 0.19450113 0.50413877 0.28514925 -0.9427802 1.1732181 -0.27806085 -0.22987582
-0.61361045 0.40326205 -0.2735175 -0.8605458 0.09505788 0.090517744 0.41500852 -0.25964957
1.1383312 -1.8628355 -1.0483598 1.0572484 -0.8799937 -0.7683559 0.4060379 0.8810277
-0.6582531 -0.20106958 -0.25121564 -0.00982225 -2.4283545 -0.18918645 -1.4564158 0.6565664
0.33715582 -1.8349292 -1.5749055 0.11946303 -0.36002025 0.51972276 0.44322103 0.12850225
-0.5197085 -0.59974706 -0.13660574 0.8233605 -0.2505791 -0.489552 1.0586112 -0.2746906
-0.6998521 -0.18609273 -0.39497986 0.5301594 -0.25298506 -0.33617362 -0.3001081 0.33010295
-0.6155118 -0.28794062 0.25005916 0.582394 0.9775136 -1.0758867 0.5291866 0.24762243
-0.5832498 -0.030271916 0.54800594 0.5587742 0.70981437 0.155213 -0.35198972 -0.10058664
0.3247038 0.009752616 0.15138249 0.25486597 -0.05600976 1.2580408 -0.39562497 1.0626802
-0.6170957 1.7418084 -0.7399677 0.4687061 -0.035727713 -1.4650972 -1.0302565 0.33566627
-0.192142 0.7516839 0.43675733 -0.9106172 -0.48734412 -1.2654986 -0.8084776 0.8494745
-0.70269865 1.5108235 0.45197 0.8175091 1.4085672 0.17558846 -0.93387955 -0.8091364
-0.3780859 -0.013844172 -0.50946414 -0.0045381794 0.28885818 -0.793561 -0.3534557 0.022936814
-0.34655413 -0.20242223 1.0746728 0.47984475 -0.6490624 0.5278318 -0.18298015 -0.020378433
-0.6024045 -0.6998284 -0.2055835 0.64001304 -0.468605 0.17543985 0.22112672 0.6662284
-0.5991569 0.512432 -1.1368008 0.54665166 -1.0722909 1.1193551 0.6204121 -1.1028913
0.33741063 -0.51035243 0.41692358 0.4531855 -0.1800479 -0.81602514 0.21758649 0.033150386
0.5198297 0.8675944 0.33347404 1.063857 -0.59412855 -0.50617117 0.39524505 -0.047616724
0.36073795 0.16385701 0.055972688 0.42404193 0.36166418 -0.33650798 -0.1228858 -0.48264855
-1.909445 -0.22885942 -0.8586593 0.4875334 0.37072456 -0.70545876 0.77843106 -0.42044
00000000: c984 dcbd 7824 af3d 7ff2 303f 306f 4b3d
00000010: 1b43 d13f 8cc6 d5be b903 d4be 1a00 e3bc
00000020: dcf7 61be 8e51 efbe 70bf 803d 0b5d 423e
00000030: 3bbe aebe 4395 953d 5ea8 36be 976a 9ebf
00000040: ee04 3cbe dc0f 07bf 3e2a 233f ec00 18bd
00000050: 8baa 973e 1ce2 063d ac86 873f c580 0ebf
00000060: 458b a93d d77c 63be 4fdd f5bc db0c 983e
00000070: bd4c ef3e 0c65 88bf 1c99 ae3f e7ef d63e
00000080: 5bdd 783e 5888 b9be f23d e63e 78d1 e43f
00000090: 247f cbbe 58af be3f 7f78 1dbe f434 38be
000000a0: f455 15be d595 39bf 5192 393f 0f3d aebf
000000b0: 7926 953e 6c23 033f 93d3 12bf 79ce cc3e
000000c0: 6397 5d3e 1732 963f a420 23bd a2cb 89bf
000000d0: 5972 d03f 40f9 4ebf 3724 2c3f fe3e dabc
000000e0: 5592 1abe 2b91 f1be 7fb3 ab3f a77e 913e
000000f0: 5bb7 92be fda9 c8bf 4244 25bf 00f8 3fbd
00000100: 5ec6 f83e 134b 1e40 64f1 abbf c904 67bf
00000110: 3d87 a3bf 4da0 0e40 a59a 2f3f 57d9 04bf
00000120: d6f0 cabe 4d6c c33e da7e 90be 9725 5b3f
00000130: a0b4 0240 1fc6 3d3f b01e 6f3e ec2c 59bf
00000140: 3c97 323f 766d 253f 0435 7a3f 2dba b9bf
00000150: a7e6 abbf b797 f8bf bd2b b3be 57e6 863e
00000160: a532 683f 4e2b 473e 3d0f 013f 15ff 913e
00000170: 0b5a 71bf 032c 963f fe5d 8ebe 9164 6bbe
00000180: 9315 1dbf 5d78 ce3e 7c0a 8cbe bb4c 5cbf
00000190: b5ad c23d 5e61 b93d ff7b d43e caf0 84be
000001a0: d6b4 913f 6571 eebf a730 86bf ea53 873f
000001b0: 4447 61bf f9b2 44bf 33e4 cf3e 088b 613f
000001c0: 4683 28bf 2fe5 4dbe 569f 80be 81ed 20bc
000001d0: 296a 1bc0 18ba 41be d56b babf bc14 283f
000001e0: b09f ac3e f6de eabf 8196 c9bf 08a9 f43d
000001f0: 9354 b8be 8d0c 053f deed e23e 1896 033e
00000200: 9e0b 05bf 0689 19bf 60e2 0bbe c1c7 523f
00000210: e74b 80be 8fa6 fabe 9280 873f 3fa4 8cbe
00000220: 8229 33bf 188f 3ebe cd3a cabe 87b8 073f
00000230: 4287 81be f31e acbe c5a7 99be 4103 a93e
00000240: 2e92 1dbf f46c 93be c107 803e c617 153f
00000250: 553e 7a3f a8b6 89bf c678 073f bc90 7d3e
00000260: dc4f 15bf cffc f7bc 1e4a 0c3f d30b 0f3f
00000270: 65b6 353f 28f0 1e3e ff37 b4be 5e00 cebd
00000280: 943f a63e 70c9 1f3c 0304 1b3e cb7d 823e
00000290: 7d6a 65bd 7b07 a13f 5b8f cabe e805 883f
000002a0: fcf9 1dbf 94f3 de3f 866e 3dbf 3ffa ef3e
000002b0: 3957 12bd 4e88 bbbf 72df 83bf 73dc ab3e
000002c0: dfc0 44be 5b6e 403f a89e df3e 351e 69bf
000002d0: 2b85 f9be dcfb a1bf 63f8 4ebf 2977 593f
000002e0: 0fe4 33bf aa62 c13f 9d68 e73e 4748 513f
000002f0: ee4b b43f 76cd 333e bb12 6fbf 9023 4fbf
00000300: 7a94 c1be aad2 62bc 3e6c 02bf 02b5 94bb
00000310: 38e5 933e d026 4bbf 25f8 b4be fce5 bb3c
00000320: 8b6f b1be c647 4fbe e18e 893f 36ae f53e
00000330: f428 26bf fc1f 073f 265f 3bbe acf0 a6bc
00000340: 2e37 1abf f427 33bf 7b84 52be e5d7 233f
00000350: ffec efbe 81a6 333e 0b6f 623e f28d 2a3f
00000360: 5962 19bf be2e 033f b082 91bf 5df1 0b3f
00000370: d440 89bf 0747 8f3f 54d3 1e3f 8b2b 8dbf
00000380: 16c1 ac3e 75a6 02bf 0277 d53e ee07 e83e
00000390: 7a5e 38be 06e7 50bf fece 5e3e b3c8 073d
000003a0: 8f13 053f ab1a 5e3f 1cbd aa3e 772c 883f
000003b0: cf18 18bf 6f94 01bf 8f5d ca3e c109 43bd
000003c0: a5b2 b83e 22ca 273e 9e43 653d 061c d93e
000003d0: 0c2c b93e c64a acbe 8dab fbbd b61d f7be
000003e0: b268 f4bf 205a 6abe 19d1 5bbf fa9d f93e
000003f0: 9ccf bd3e f298 34bf 4247 473f e943 d7be

decoder.lstm.bias_ih_l0 f4 [128]
0.08252224 -0.35711676 0.061805733 -0.4694477 0.11794465 0.021620015 -0.10489734 -0.022616154
-0.24088688 0.16152355 -0.019196566 0.24228434 -0.0050491965 -0.19245687 -0.30866665 -0.13689707
-0.0022717644 -0.15416221 0.084999986 0.07664087 -0.2351352 -0.45719564 0.21478476 0.0037416546
-0.40050375 -0.74251634 -0.23450182 0.06797736 -0.7950076 -0.41674763 -0.20357487 0.39377424
-0.32548982 0.34460458 -0.6933198 0.14452882 -0.01028313 0.3163738 0.106633306 0.5345098
0.29275325 0.13561334 0.28551206 -0.08392592 -0.315354 0.08769491 0.21598746 -0.2767181
0.28733474 -0.17716178 -0.41465446 0.41013506 -0.08665529 0.085646175 0.028251434 0.0526554
0.40356162 0.5775099 0.69282067 -0.40869573 0.08379559 -0.14189093 0.18978852 0.15000488
0.21848255 0.08746626 -0.119170666 0.025748111 0.04109024 0.044276696 0.076191515 0.112339675
-0.16948478 0.10935004 -0.10298374 -0.026464254 -0.105080135 0.19083765 0.13274351 -0.006832097
-0.09654162 -0.014758877 0.11348183 -0.02969009 -0.4348539 0.021882156 0.0674701 0.015490591
0.16324489 -0.11037208 0.08507418 -0.01901929 0.012411252 -0.1311621 -0.16166934 -0.0066876994
-0.16115506 0.439113 0.10886559 -0.07263769 0.7435123 0.2342165 0.16393963 0.5491748
0.1365303 0.23914416 0.044254374 0.10729065 0.11128553 0.008215675 0.38996977 -0.010875342
0.118236326 -0.09939798 0.08163649 -0.17103723 0.13467613 -0.06273967 0.174092 0.6118529
-0.12516172 0.30727032 0.0805312 -0.24570937 0.2928153 0.5649335 0.3081133 -0.14956619
00000000: 6c01 a93d 02d8 b6be 0228 7d3d 735b f0be
00000010: f78c f13d 751c b13c 6bd4 d6bd 8345 b9bc
00000020: 0dab 76be 6e66 253e 1e42 9dbc 6319 783e
00000030: bb73 a5bb 6a13 45be 8e09 9ebe bf2e 0cbe
00000040: e2e1 14bb b3dc 1dbe 7914 ae3d e3f5 9c3d
00000050: 48c7 70be 8c15 eabe 89f0 5b3e 8c36 753b
00000060: d40e cdbe 8d15 3ebf 3f21 70be b737 8b3d
00000070: 9e85 4bbf f25f d5be ee75 50be c79c c93e
00000080: 9aa6 a6be 0370 b03e 687d 31bf 5dff 133e
00000090: 937a 28bc bffb a13e 9062 da3d a2d5 083f
000000a0: c1e3 953e 39de 0a3e a32e 923e 5ae1 abbd
000000b0: 1476 a1be 6499 b33d d12b 5d3e ffad 8dbe
000000c0: 8a1d 933e e669 35be 974d d4be 39fd d13e
000000d0: 5478 b1bd 4367 af3d 8d6f e73c 30ad 573d
000000e0: a19f ce3e b0d7 133f b25c 313f 9140 d1be
000000f0: 069d ab3d db4b 11be ec57 423e e19a 193e
00000100: e4b9 5f3e 8321 b33d c00f f4bd b4ed d23c
00000110: 3d4e 283d 7b5b 353d 4c0a 9c3d 5812 e63d
00000120: 6b8d 2dbe eaf2 df3d 24e9 d2bd 90cb d8bc
00000130: 4134 d7bd f26a 433e eaed 073e c9df dfbb
00000140: 9db7 c5bd 38cf 71bc 2969 e83d a238 f3bc
00000150: 2ca5 debe 3542 b33c c42d 8a3d 3fcc 7d3c
00000160: ab29 273e c20a e2bd 5f3b ae3d 58ce 9bbc
00000170: 9058 4b3c 5c4f 06be a68c 25be 7d24 dbbb
00000180: d505 25be 6bd3 e03e ecf4 de3d 12c3 94bd
00000190: d256 3e3f 73d6 6f3e cadf 273e b896 0c3f
000001a0: 99ce 0b3e 35e2 743e 1344 353d 33bb db3d
000001b0: abe9 e33d 0a9b 063c 1eaa c73e 7e2e 32bc
000001c0: e325 f23d 2b91 cbbd 0831 a73d 6224 2fbe
000001d0: 8ae8 093e a87d 80bd 2c45 323e 64a2 1c3f
000001e0: 652a 00be 8952 9d3e 8bed a43d 3d9b 7bbe
000001f0: e3eb 953e 7b9f 103f 07c1 9d3e e127 19be

decoder.lstm.bias_hh_l0 f4 [128]
0.082701385 -0.3571963 0.06182349 -0.46944314 0.118024446 0.021764053 -0.10496988 -0.02258182
-0.24095993 0.1615762 -0.019064803 0.24222973 -0.0050671655 -0.19244623 -0.30869395 -0.13689892
-0.0021224716 -0.1542495 0.084939376 0.07681963 -0.23525397 -0.45711023 0.2148804 0.003756902
-0.40053138 -0.7425816 -0.23447378 0.06793925 -0.7950567 -0.41672784 -0.20356902 0.39382342
-0.32546505 0.3446248 -0.6932022 0.14447005 -0.010275074 0.31637877 0.10654355 0.53445446
0.2926914 0.13575898 0.28548774 -0.08383668 -0.31555808 0.08760116 0.21599868 -0.276739
0.28727955 -0.17712082 -0.414711 0.41010496 -0.086786084 0.08576952 0.0280939 0.052665077
0.4034369 0.5775676 0.6926667 -0.40891 0.083879486 -0.14182137 0.18980494 0.14982685
0.21851069 0.08731846 -0.11908379 0.025892 0.041166715 0.04430627 0.07625824 0.1122716
-0.1695454 0.1094979 -0.10295047 -0.026485806 -0.105021134 0.19073068 0.13285159 -0.006875442
-0.096520334 -0.014899085 0.11344807 -0.02965797 -0.43476427 0.022053353 0.067427315 0.015505027
0.16326909 -0.11025652 0.08503772 -0.019013816 0.012510214 -0.13127829 -0.1615842 -0.00666796
-0.16121517 0.43912053 0.10892376 -0.07269485 0.74363256 0.23432194 0.16397738 0.5491294
0.13652602 0.23925543 0.044286203 0.107450664 0.11138307 0.0082018385 0.39000657 -0.010954787
0.118360676 -0.09933688 0.08158481 -0.17099771 0.13462462 -0.06265046 0.17411645 0.61186093
-0.12502733 0.30722612 0.080368854 -0.24573097 0.29279837 0.5648306 0.30822346 -0.14965123
00000000: 585f a93d 6fe2 b6be a13a 7d3d da5a f0be
00000010: cdb6 f13d 874a b23c 73fa d6bd 82fd b8bc
00000020: 33be 76be 3b74 253e ca2d 9cbc 120b 783e
00000030: 770a a6bb a010 45be 220d 9ebe 3b2f 0cbe
00000040: 2a19 0bbb 95f3 1dbe b2f4 ad3d 9c53 9d3d
00000050: 6be6 70be 5a0a eabe 9c09 5c3e 5b36 763b
00000060: 7312 cdbe d419 3ebf e519 70be bc23 8b3d
00000070: d688 4bbf 5a5d d5be 6674 50be 39a3 c93e
00000080: 5ba3 a6be a972 b03e b375 31bf f5ef 133e
00000090: c958 28bc 66fc a13e 8133 da3d 02d2 083f
000000a0: a6db 953e 6704 0b3e 732b 923e 91b2 abbd
000000b0: d490 a1be 3d68 b33d c22e 5d3e bcb0 8dbe
000000c0: 4e16 933e 295f 35be 0055 d4be 47f9 d13e
000000d0: e7bc b1bd eea7 af3d 2e25 e63c 56b7 573d
000000e0: 488f ce3e 78db 133f 9b52 313f a75c d1be
000000f0: 02c9 ab3d 9f39 11be 3a5c 423e 366c 193e
00000100: 44c1 5f3e 05d4 b23d 34e2 f3bd 761b d43c
00000110: 6e9e 283d 7e7a 353d 482d 9c3d a7ee e53d
00000120: 4f9d 2dbe 6f40 e03d b2d7 d2bd c3f8 d8bc
00000130: 5215 d7bd e74e 433e 3f0a 083e 634b e1bb
00000140: 74ac c5bd 4b1b 74bc 7657 e83d 45f5 f2bc
00000150: 6c99 debe 3ca9 b43c 5517 8a3d cc08 7e3c
00000160: 0330 273e 2cce e1bd 4228 ae3d ddc2 9bbc
00000170: a4f7 4c3c d16d 06be 5476 25be e77e dabb
00000180: 9715 25be 68d4 e03e 6c13 df3d 0ae1 94bd
00000190: b45e 3e3f 17f2 6f3e b0e9 273e bf93 0c3f
000001a0: 7acd 0b3e 60ff 743e 7365 353d 180f dc3d
000001b0: cf1c e43d 0161 063c f1ae c73e b57b 33bc
000001c0: 1567 f23d 2271 cbbd f015 a73d 061a 2fbe
000001d0: 09db 093e e24e 80bd 954b 323e eba2 1c3f
000001e0: 2a07 00be be4c 9d3e 6d98 a43d e6a0 7bbe
000001f0: abe9 953e bd98 103f 77cf 9d3e 2c3e 19be

decoder.linear.weight f4 [1, 32]
-1.0263569 0.01864946 -0.70768917 -0.011945236 0.13751025 0.03411518 0.0591971 -0.020419369
-0.006262536 -0.06664995 0.010408309 0.06342474 0.06288514 0.0041720564 0.11405097 -0.5858068
0.009085915 0.037151996 -0.6545701 -0.04001773 -0.05471153 -0.031021705 -0.15104684 0.08192684
0.032874152 0.009735888 -0.0016119357 -0.2786096 -0.047455568 0.07908016 0.07204741 -0.013468227
00000000: aa5f 83bf c1c6 983c 1e2b 35bf f3b5 43bc
00000010: 7dcf 0c3e 5cbc 0b3d a978 723d 8546 a7bc
00000020: f635 cdbb c57f 88bd 9d87 2a3c d5e4 813d
00000030: edc9 803d bfb5 883b 8e93 e93d 6ff7 15bf
00000040: 17dd 143c b12c 183d e891 27bf a2e9 23bd
00000050: 3319 60bd 3b21 febc 06ac 1abe 42c9 a73d
00000060: 0ca7 063d 4683 1f3c 9647 d3ba eba5 8ebe
00000070: c560 42bd c7f4 a13d 988d 933d d7a9 5cbc
