results/MSE_LSTM_enc_dec_output/795_model.pt (torch, 860225 bytes, 10 tensors)

output_zeros f4 [399, 512, 1]
0.0 0.0 0.0 0.0 0.0 0.0 0.0 0.0
0.0 0.0 0.0 0.0 0.0 0.0 0.0 0.0
0.0 0.0 0.0 0.0 0.0 0.0 0.0 0.0
0.0 0.0 0.0 0.0 0.0 0.0 0.0 0.0
0.0 0.0 0.0 0.0 0.0 0.0 0.0 0.0
0.0 0.0 0.0 0.0 0.0 0.0 0.0 0.0
0.0 0.0 0.0 0.0 0.0 0.0 0.0 0.0
0.0 0.0 0.0 0.0 0.0 0.0 0.0 0.0
0.0 0.0 0.0 0.0 0.0 0.0 0.0 0.0
0.0 0.0 0.0 0.0 0.0 0.0 0.0 0.0
0.0 0.0 0.0 0.0 0.0 0.0 0.0 0.0
0.0 0.0 0.0 0.0 0.0 0.0 0.0 0.0
0.0 0.0 0.0 0.0 0.0 0.0 0.0 0.0
0.0 0.0 0.0 0.0 0.0 0.0 0.0 0.0
0.0 0.0 0.0 0.0 0.0 0.0 0.0 0.0
0.0 0.0 0.0 0.0 0.0 0.0 0.0 0.0
0.0 0.0 0.0 0.0 0.0 0.0 0.0 0.0
0.0 0.0 0.0 0.0 0.0 0.0 0.0 0.0
0.0 0.0 0.0 0.0 0.0 0.0 0.0 0.0
0.0 0.0 0.0 0.0 0.0 0.0 0.0 0.0
0.0 0.0 0.0 0.0 0.0 0.0 0.0 0.0
0.0 0.0 0.0 0.0 0.0 0.0 0.0 0.0
0.0 0.0 0.0 0.0 0.0 0.0 0.0 0.0
0.0 0.0 0.0 0.0 0.0 0.0 0.0 0.0
0.0 0.0 0.0 0.0 0.0 0.0 0.0 0.0
0.0 0.0 0.0 0.0 0.0 0.0 0.0 0.0
0.0 0.0 0.0 0.0 0.0 0.0 0.0 0.0
0.0 0.0 0.0 0.0 0.0 0.0 0.0 0.0
0.0 0.0 0.0 0.0 0.0 0.0 0.0 0.0
0.0 0.0 0.0 0.0 0.0 0.0 0.0 0.0
0.0 0.0 0.0 0.0 0.0 0.0 0.0 0.0
0.0 0.0 0.0 0.0 0.0 0.0 0.0 0.0
00000000: 0000 0000 0000 0000 0000 0000 0000 0000
00000010: 0000 0000 0000 0000 0000 0000 0000 0000
00000020: 0000 0000 0000 0000 0000 0000 0000 0000
00000030: 0000 0000 0000 0000 0000 0000 0000 0000
00000040: 0000 0000 0000 0000 0000 0000 0000 0000
00000050: 0000 0000 0000 0000 0000 0000 0000 0000
00000060: 0000 0000 0000 0000 0000 0000 0000 0000
00000070: 0000 0000 0000 0000 0000 0000 0000 0000
00000080: 0000 0000 0000 0000 0000 0000 0000 0000
00000090: 0000 0000 0000 0000 0000 0000 0000 0000
000000a0: 0000 0000 0000 0000 0000 0000 0000 0000
000000b0: 0000 0000 0000 0000 0000 0000 0000 0000
000000c0: 0000 0000 0000 0000 0000 0000 0000 0000
000000d0: 0000 0000 0000 0000 0000 0000 0000 0000
000000e0: 0000 0000 0000 0000 0000 0000 0000 0000
000000f0: 0000 0000 0000 0000 0000 0000 0000 0000
00000100: 0000 0000 0000 0000 0000 0000 0000 0000
00000110: 0000 0000 0000 0000 0000 0000 0000 0000
00000120: 0000 0000 0000 0000 0000 0000 0000 0000
00000130: 0000 0000 0000 0000 0000 0000 0000 0000
00000140: 0000 0000 0000 0000 0000 0000 0000 0000
00000150: 0000 0000 0000 0000 0000 0000 0000 0000
00000160: 0000 0000 0000 0000 0000 0000 0000 0000
00000170: 0000 0000 0000 0000 0000 0000 0000 0000
00000180: 0000 0000 0000 0000 0000 0000 0000 0000
00000190: 0000 0000 0000 0000 0000 0000 0000 0000
000001a0: 0000 0000 0000 0000 0000 0000 0000 0000
000001b0: 0000 0000 0000 0000 0000 0000 0000 0000
000001c0: 0000 0000 0000 0000 0000 0000 0000 0000
000001d0: 0000 0000 0000 0000 0000 0000 0000 0000
000001e0: 0000 0000 0000 0000 0000 0000 0000 0000
000001f0: 0000 0000 0000 0000 0000 0000 0000 0000
00000200: 0000 0000 0000 0000 0000 0000 0000 0000
00000210: 0000 0000 0000 0000 0000 0000 0000 0000
00000220: 0000 0000 0000 0000 0000 0000 0000 0000
00000230: 0000 0000 0000 0000 0000 0000 0000 0000
00000240: 0000 0000 0000 0000 0000 0000 0000 0000
00000250: 0000 0000 0000 0000 0000 0000 0000 0000
00000260: 0000 0000 0000 0000 0000 0000 0000 0000
00000270: 0000 0000 0000 0000 0000 0000 0000 0000
00000280: 0000 0000 0000 0000 0000 0000 0000 0000
00000290: 0000 0000 0000 0000 0000 0000 0000 0000
000002a0: 0000 0000 0000 0000 0000 0000 0000 0000
000002b0: 0000 0000 0000 0000 0000 0000 0000 0000
000002c0: 0000 0000 0000 0000 0000 0000 0000 0000
000002d0: 0000 0000 0000 0000 0000 0000 0000 0000
000002e0: 0000 0000 0000 0000 0000 0000 0000 0000
000002f0: 0000 0000 0000 0000 0000 0000 0000 0000
00000300: 0000 0000 0000 0000 0000 0000 0000 0000
00000310: 0000 0000 0000 0000 0000 0000 0000 0000
00000320: 0000 0000 0000 0000 0000 0000 0000 0000
00000330: 0000 0000 0000 0000 0000 0000 0000 0000
00000340: 0000 0000 0000 0000 0000 0000 0000 0000
00000350: 0000 0000 0000 0000 0000 0000 0000 0000
00000360: 0000 0000 0000 0000 0000 0000 0000 0000
00000370: 0000 0000 0000 0000 0000 0000 0000 0000
00000380: 0000 0000 0000 0000 0000 0000 0000 0000
00000390: 0000 0000 0000 0000 0000 0000 0000 0000
000003a0: 0000 0000 0000 0000 0000 0000 0000 0000
000003b0: 0000 0000 0000 0000 0000 0000 0000 0000
000003c0: 0000 0000 0000 0000 0000 0000 0000 0000
000003d0: 0000 0000 0000 0000 0000 0000 0000 0000
000003e0: 0000 0000 0000 0000 0000 0000 0000 0000
000003f0: 0000 0000 0000 0000 0000 0000 0000 0000

encoder.lstm.weight_ih_l0 f4 [128, 4]
1.7842871 0.4342117 2.1474895 -1.5188646 1.8581656 -1.7266564 0.04988857 -2.4127254
0.29904792 2.3689315 -0.6032233 -2.0361345 0.85632324 0.40399987 0.58017594 -0.69214153
0.12804031 -1.198529 1.0951587 0.28908157 -2.3941128 0.7073874 0.28016776 -0.6919254
1.9250115 0.8136492 -1.0339938 0.35314524 0.04099538 0.72743076 1.6234975 -0.08759493
2.103472 0.23179086 -0.49709964 0.39141592 -0.30417264 0.34059483 3.1311758 -0.42325318
-0.828978 1.7543472 0.0927783 -0.08686148 -0.6392332 -0.24518941 1.708309 1.5751625
0.8702581 -1.2044958 -1.1944605 4.156945 -0.36720574 -1.5029867 0.5766674 0.28622058
1.6899123 0.41084236 -1.1078026 1.2632914 0.64267546 -0.31447837 0.08170452 0.811453
-0.45321584 -0.5657956 0.8686874 0.92454666 1.6853442 -0.54321706 0.770345 -0.4768671
0.8415961 -2.9373915 0.15248814 0.77374274 0.61340743 -1.077429 0.4741306 3.7532332
0.3827846 -0.99042606 0.9568078 1.9554211 1.8097174 1.1253027 1.4129817 1.8018599
0.45519233 -0.2543587 1.8255392 -2.4071903 0.73576754 1.0278776 0.6165434 -1.1192279
1.7129245 0.22251345 -1.3682617 1.36445 -1.7562453 2.1363788 -0.27081034 0.43795598
-0.92623615 -1.2174652 1.2659609 3.1224163 3.6265323 1.4836333 -0.8654619 1.1529144
0.12777594 2.8627546 -0.7041049 -0.3379999 -0.7230185 0.33118838 1.0486019 -1.2371068
0.90001035 1.5481334 -1.5764788 -0.59032404 0.6265822 1.6820414 -0.44701272 -0.41307265
-0.3904514 0.5963437 0.13011192 0.7319289 -0.27206525 1.6959761 -0.84486187 5.2602215
0.9357272 -2.394419 1.4571079 0.44553497 1.5164067 -1.0143589 1.9578462 1.7293751
0.7080381 0.8267597 -1.5539665 0.46944988 -1.0111226 2.317922 2.143568 1.2966961
0.3805513 -0.5075596 2.3926475 0.62705517 -0.13779086 1.4019778 0.070062414 -0.75620437
-0.811793 -0.7892644 0.96587694 -2.8295934 0.77288777 0.98031795 0.6712371 -0.5528354
-1.3997189 -0.17080474 1.0101178 1.600511 2.5436444 -1.3055645 1.0263056 -0.90513045
1.3538477 -0.81785166 0.63568217 -0.58306754 -2.29345 0.20145229 1.4335378 0.5936922
-0.75359124 0.56174195 -2.109273 1.3643727 -1.0629612 1.205703 0.49995774 -0.4435343
0.31401786 0.7422684 -0.27043867 -1.2229615 -0.81085914 0.64880216 -1.6463374 2.7443163
2.7580643 2.941691 3.4630463 -0.83255327 -1.406097 -2.0414877 -1.1826605 1.4643275
1.3508425 -1.349683 -0.8937895 0.8159197 -0.8039611 1.6653651 1.4828941 -1.3719134
3.758234 0.19355291 1.6641111 -0.68051237 -2.5816016 -0.5043607 -0.6985274 1.1704986
-1.6961563 -2.2895966 2.6396532 -0.43450013 -1.0150717 -0.4876242 2.1482985 0.810301
1.7923789 0.68986 2.4127352 -2.229264 -1.8595031 0.40198478 -0.4251308 -0.6338177
-3.564064 -1.7243537 -0.2672053 1.703785 0.35045782 0.15805344 0.05748555 1.8654516
-1.5275066 0.9136273 0.85733294 2.9075747 1.6405269 -0.8203286 0.6498747 -0.567469
00000000: 8563 e43f ff50 de3e 7870 0940 286a c2bf
00000010: 5fd8 ed3f 1403 ddbf f557 4c3d 186a 1ac0
00000020: cf1c 993e 939c 1740 d86c 1abf 0750 02c0
00000030: 0038 5b3f 12d9 ce3e 6986 143f 3030 31bf
00000040: 001d 033e 6669 99bf 292e 8c3f 8002 943e
00000050: 2539 19c0 5717 353f 2672 8f3e 0622 31bf
00000060: c766 f63f 504b 503f e959 84bf 74cf b43e
00000070: c6ea 273d e738 3a3f c4ce cf3f f864 b3bd
00000080: 499f 0640 955a 6d3e d883 febe ab67 c83e
00000090: 84bc 9bbe 7262 ae3e 2f65 4840 a4b4 d8be
000000a0: e737 54bf 738e e03f 8d02 be3d 6ee4 b1bd
000000b0: c9a4 23bf ef12 7bbe dfa9 da3f ed9e c93f
000000c0: 3cc9 5e3f eb2c 9abf 15e4 98bf b205 8540
000000d0: 6402 bcbe de61 c0bf 7aa0 133f 818b 923e
000000e0: 0c4f d83f ee59 d23e 7acc 8dbf 88b3 a13f
000000f0: 6186 243f 4f03 a1be b354 a73d 62bb 4f3f
00000100: e80b e8be fbd7 10bf 4c62 5e3f 17af 6c3f
00000110: 5cb9 d73f 4610 0bbf 5435 453f ed27 f4be
00000120: d872 573f 39fe 3bc0 da25 1c3e 0114 463f
00000130: 4508 1d3f 32e9 89bf 3fc1 f23e f934 7040
00000140: 58fc c33e 908c 7dbf 5bf1 743f 3d4b fa3f
00000150: d2a4 e73f eb09 903f 96dc b43f 58a3 e63f
00000160: f80e e93e 4e3b 82be 45ab e93f 680f 1ac0
00000170: 435b 3c3f 7e91 833f cad5 1d3f dc42 8fbf
00000180: 1c41 db3f 91da 633e 3323 afbf 4ca6 ae3f
00000190: a5cc e0bf 6eba 0840 a7a7 8abe c43b e03e
000001a0: d01d 6dbf e6d5 9bbf 020b a23f abd5 4740
000001b0: 1b19 6840 b2e7 bd3f e98e 5dbf b392 933f
000001c0: b2d7 023e 5f37 3740 3840 34bf 530e adbe
000001d0: be17 39bf 8691 a93e 9638 863f 8459 9ebf
000001e0: 1467 663f 3c29 c63f 0fca c9bf 7a1f 17bf
000001f0: b167 203f 224d d73f dade e4be 427e d3be
00000200: 3fe9 c7be fba9 183f 0f3c 053e b15f 3b3f
00000210: 234c 8bbe bf15 d93f de48 58bf bc53 a840
00000220: d18b 6f3f 293e 19c0 8382 ba3f 291d e43e
00000230: 9d19 c23f 83d6 81bf b49a fa3f 2a5c dd3f
00000240: fc41 353f 86a6 533f 60e8 c6bf bc5b f03e
00000250: 776c 81bf d658 1440 3830 0940 23fa a53f
00000260: 9fd7 c23e 6def 01bf 2321 1940 b086 203f
00000270: 0c19 0dbe 0274 b33f e27c 8f3d 9c96 41bf
00000280: abd1 4fbf 3b0d 4abf b643 773f 0f18 35c0
00000290: f9db 453f 1ef6 7a3f 32d6 2b3f 9f86 0dbf
000002a0: fd29 b3bf 70e7 2ebe 8a4b 813f 8bdd cc3f
000002b0: 12cb 2240 bd1c a7bf fb5d 833f a1b6 67bf
000002c0: e24a ad3f ba5e 51bf 11bc 223f ea43 15bf
000002d0: e3c7 12c0 8249 4e3e 2b7e b73f 36fc 173f
000002e0: 5beb 40bf 52ce 0f3f 54fe 06c0 c4a3 ae3f
000002f0: 1d0f 88bf 7a54 9a3f 76fa ff3e ee16 e3be
00000300: f3c6 a03e 4d05 3e3f f076 8abe 018a 9cbf
00000310: 7794 4fbf e617 263f 2fbb d2bf e1a2 2f40
00000320: 2084 3040 aa44 3c40 8da2 5d40 3622 55bf
00000330: fdfa b3bf bca7 02c0 6b61 97bf 156f bb3f
00000340: 68e8 ac3f 6ac2 acbf 64cf 64bf 1de0 503f
00000350: 65d0 4dbf af2a d53f 79cf bd3f dc9a afbf
00000360: e886 7040 bc32 463e 9801 d53f 0f36 2ebf
00000370: f638 25c0 c81d 01bf b1d2 32bf e6d2 953f
00000380: a61b d9bf c088 12c0 14f0 2840 cd76 debe
00000390: dfed 81bf e1a9 f9be b97d 0940 e36f 4f3f
000003a0: ac6c e53f aa9a 303f 416a 1a40 43ac 0ec0
000003b0: 3304 eebf f3d0 cd3e bfaa d9be e041 22bf
000003c0: a019 64c0 9fb7 dcbf 22cf 88be a015 da3f
000003d0: 356f b33e c3d8 213e f875 6b3d 1ec7 ee3f
000003e0: 5685 c3bf 7be3 693f 2c7a 5b3f b415 3a40
000003f0: c9fc d13f 0e01 52bf 305e 263f a645 11bf

encoder.lstm.weight_hh_l0 f4 [128, 32]
-0.41448668 0.15796077 -0.0745133 -0.12058495 -0.6153475 0.5074503 0.28310353 -0.9508913
0.49311697 1.0987436 1.0045534 -0.31037533 0.16903995 0.64702404 -1.1957536 -0.45409355
-0.08530461 0.24652648 -0.8447081 0.42495936 -0.45276555 -1.9341053 0.763063 -0.19952463
0.58641 -0.1391482 0.13213922 -0.0070536477 -0.76043546 -0.92197347 0.7147417 -0.3726623
0.6539643 0.2601669 -1.4100616 -0.39402914 2.3901355 -1.3859179 -0.5790489 -1.6320748
-0.25386408 1.2538918 -0.14141995 1.7286035 0.635932 0.2960223 -0.21291515 0.03986633
-0.5011638 -1.1334602 -0.1746898 1.1297225 2.0531242 -1.4727399 -0.79562944 0.36889374
-1.2804937 2.0626307 -0.12731005 0.20024064 -0.3526887 1.1465802 0.07788858 0.543221
-0.736422 -0.2709023 0.700687 0.67970675 -0.14008887 -0.42684382 -0.007790387 -0.4319209
0.9412537 0.11420211 -0.7413158 -1.3529683 0.67814606 0.5111816 0.19239947 -0.3580344
0.4333159 0.59212154 -0.30255637 1.2870948 0.5106279 0.42715544 0.7643713 -1.8251923
-1.3687611 0.24264874 0.056329414 -0.83470786 0.54606646 -0.6664477 1.0735608 0.011821834
-0.47222388 1.05619 -0.022914823 -0.52682745 -0.01676119 0.9395999 -0.19641984 -0.6626544
0.11642491 0.19364683 -0.9819936 0.1301247 0.14227112 -0.36453047 0.5806197 0.05331718
-0.9313258 -0.046383653 -1.5699424 -0.0033492132 -0.016166858 0.5694777 -0.048388112 0.46839002
-0.9143225 1.1286268 0.13029756 0.40035197 -1.680723 0.34439644 -0.03913468 0.6320216
0.99165094 0.6479602 0.6838532 -0.95993346 -0.46976292 -0.023801656 0.2889404 1.1040962
-0.31782037 -0.88704526 -1.6107254 0.14388904 0.6669473 0.048445586 -0.057576608 0.26661542
1.2730685 -0.2679616 -0.43816435 0.42193928 0.58651286 -0.5844614 0.88201076 0.26895258
-1.2236464 -0.116802886 -0.16720371 0.12014924 -0.13316463 1.1623546 0.10585661 -0.15154989
-0.7956119 -0.19229391 0.39428967 0.9197192 -0.9785176 -1.7418032 1.9006732 -0.8366445
0.9578665 -0.2683598 0.014277594 0.4098505 -0.161606 -1.3663704 2.1005986 -0.1465902
-0.3356873 0.52358687 0.6544848 0.18777601 1.0088954 0.8372476 1.513684 -1.3902756
-0.15895787 -0.35668135 -0.901427 -0.71292186 0.26877972 -0.7886661 0.79831696 0.5978009
0.46926674 -1.3546458 -0.13264196 -1.0460476 -0.18035105 -0.44095257 0.07366955 0.46093023
0.98967683 0.6028632 0.32392225 -1.0216606 -0.027098898 -0.023754463 0.7356941 -0.19150849
-0.81218505 0.8221787 0.50811833 0.8539086 0.832065 1.7347792 0.1973524 -0.15733066
-0.03619484 -0.92128944 0.465486 0.68194807 -0.8825258 0.7649779 0.6101908 0.81101996
0.18589827 0.83605087 0.16590905 -0.1782369 -0.56545144 0.77947986 -0.2504281 -0.13974328
0.4062801 -1.4255782 0.32344013 -0.04445544 -0.4509912 -1.7946434 -0.29832682 -1.2467065
-0.21870723 0.11330914 -0.6025343 -0.22762899 -0.053517234 -0.40985388 0.7966716 0.22845156
-0.30618298 0.60443187 -0.020248542 -0.1077393 -0.42450225 1.1633927 0.06208791 -0.14941247
00000000: 9937 d4be 78c0 213e 6e9a 98bd 3ef5 f6bd
00000010: 6a87 1dbf 43e8 013f f2f2 903e 9d6d 73bf
00000020: d479 fc3e a1a3 8c3f 3595 803f 84e9 9ebe
00000030: cf18 2d3e 5ea3 253f 740e 99bf f37e e8be
00000040: 2fb4 aebd 7071 7c3e ca3e 58bf 4694 d93e
00000050: e3d0 e7be c390 f7bf 1958 433f 2f50 4cbe
00000060: f71e 163f de7c 0ebe 814f 073e 4922 e7bb
00000070: e6ab 42bf 7406 6cbf 50f9 363f 98cd bebe
00000080: 346a 273f 9934 853e e67c b4bf 30be c9be
00000090: fbf7 1840 c265 b1bf 8c3c 14bf d4e7 d0bf
000000a0: 79fa 81be 877f a03f 64d0 10be e142 dd3f
000000b0: 71cc 223f 3c90 973e 6e06 5abe e04a 233d
000000c0: 454c 00bf 3915 91bf e2e1 32be bf9a 903f
000000d0: 6366 0340 be82 bcbf 5fae 4bbf a4df bc3e
000000e0: 38e7 a3bf 2402 0440 915d 02be e20b 4d3e
000000f0: 9d93 b4be 24c3 923f 0c84 9f3d 8810 0b3f
00000100: 2786 3cbf b5b3 8abe 3960 333f 4301 2e3f
00000110: 7573 0fbe 468b dabe 8146 ffbb bc24 ddbe
00000120: 01f6 703f cce2 e93d dfc6 3dbf 112e adbf
00000130: fb9a 2d3f ccdc 023f 5e04 453e 4950 b7be
00000140: 95db dd3e 4795 173f abe8 9abe 86bf a43f
00000150: 83b8 023f 1eb4 da3e d6ad 433f e79f e9bf
00000160: 9033 afbf e978 783e acb9 663d 6aaf 55bf
00000170: 03cb 0b3f 519c 2abf 716a 893f 5eb0 413c
00000180: 54c7 f1be 3c31 873f deb7 bbbc 2ade 06bf
00000190: c34e 89bc 9e89 703f 4822 49be b8a3 29bf
000001a0: 2f70 ee3d 5b4b 463e ef63 7bbf 693f 053e
000001b0: 85af 113e bda3 babe 7ea3 143f 1e63 5a3d
000001c0: 5e6b 6ebf c9fc 3dbd dff3 c8bf 797e 5bbb
000001d0: 5c70 84bc 4ac9 113f 9d32 46bd d1d0 ef3e
000001e0: 0a11 6abf d876 903f b96c 053e effa cc3e
000001f0: ee21 d7bf bb54 b03e b04b 20bd 2bcc 213f
00000200: d6dc 7d3f b8e0 253f 0111 2f3f 33be 75bf
00000210: c484 f0be b1fb c2bc ffef 933e 0653 8d3f
00000220: 5ab9 a2be 6615 63bf 402c cebf a657 133e
00000230: 0fbd 2a3f e16e 463d 73d5 6bbd d181 883e
00000240: e9f3 a23f 4332 89be 1457 e0be 6d08 d83e
00000250: b525 163f 439f 15bf 75cb 613f 27b4 893e
00000260: 72a0 9cbf 5a36 efbd 7337 2bbe ce10 f63d
00000270: 4f5c 08be 09c8 943f 5acb d83d e52f 1bbe
00000280: 39ad 4bbf b2e8 44be 56e0 c93e b872 6b3f
00000290: 2180 7abf 68f3 debf 4249 f33f 552e 56bf
000002a0: bd36 753f 7566 89be 92ec 693c edd7 d13e
000002b0: 0b7c 25be 3ae5 aebf 3570 0640 be1b 16be
000002c0: 35df abbe ca09 063f 518c 273f 5b48 403e
000002d0: 7c23 813f dc55 563f 66c0 c13f 8df4 b1bf
000002e0: dac5 22be f09e b6be ebc3 66bf 0c82 36bf
000002f0: 7f9d 893e 06e6 49bf 805e 4c3f 7b09 193f
00000300: bb43 f03e 0965 adbf 4bd3 07be e3e4 85bf
00000310: f2ad 38be 89c4 e1be 10e0 963d 0cff eb3e
00000320: 765b 7d3f 3e55 1a3f 23d9 a53e c6c5 82bf
00000330: 82fe ddbc b898 c2bc 7356 3c3f cd1a 44be
00000340: 5ceb 4fbf 4e7a 523f 0b14 023f c199 5a3f
00000350: 3602 553f 3f0d de3f bf16 4a3e 4a1b 21be
00000360: 0a41 14bd a0d9 6bbf 2e54 ee3e 2694 2e3f
00000370: 36ed 61bf 97d5 433f 7735 1c3f 019f 4f3f
00000380: 1e5c 3e3e 6e07 563f 10e4 293e bc83 36be
00000390: 6dc1 10bf fe8b 473f 1d38 80be dd18 0fbe
000003a0: f203 d03e 5979 b6bf f299 a53e e816 36bd
000003b0: 52e8 e6be e0b6 e5bf 4bbe 98be 1494 9fbf
000003c0: caf4 5fbe 9f0e e83d b03f 1abf 9317 69be
000003d0: e334 5bbd 5ed8 d1be acf2 4b3f 35ef 693e
000003e0: 04c4 9cbe 0cbc 1a3f 45e0 a5bc 6ca6 dcbd
000003f0: 5c58 d9be 0dea 943f e44f 7e3d 95ff 18be

encoder.lstm.bias_ih_l0 f4 [128]
0.35686275 -0.034933526 -0.37463218 0.32166415 0.43952027 0.038259838 0.5878889 0.5399411
0.39759308 0.055592194 0.40293962 0.58938754 -0.15357551 0.1701224 0.28739387 0.061439924
0.15892532 0.41568625 0.03137716 0.34052908 0.32663494 0.08282329 0.071097076 0.15692165
-0.023652297 -0.47568065 0.10006891 -0.0108269565 0.12345474 -0.049864464 -0.0072109844 0.5312195
-0.15052608 0.5361373 0.25139114 0.06636174 0.07304397 0.08217439 0.1441619 0.0917678
0.43949035 -0.17435086 -0.1428853 -0.07770265 -0.2592178 -0.009936039 0.034539327 0.15785427
-0.46681187 -0.092638075 0.9342086 -0.43745485 -0.0012098157 -0.064212576 0.14322357 -0.6558214
-0.3628828 0.15759781 -0.41434467 -0.66067684 -0.115056165 0.0398279 0.1396894 -0.2236545
0.20308383 0.3664775 -0.09439768 0.048413455 -0.0863138 0.15683235 -0.17627168 -0.04627112
0.0484237 -0.047670282 -0.10348955 -0.13256527 -0.029749634 -0.55622625 0.12987201 0.30435333
0.31810325 0.08805473 -0.38636294 0.2073764 -0.5132486 -0.30381328 0.057755135 0.42639875
0.11886603 0.15957166 -0.48795354 -0.02529005 0.10038089 -0.31214067 -0.22697932 0.12206437
0.18798965 0.41624787 0.6184978 0.038304858 0.44058114 0.057217184 0.22587582 0.28138465
0.10239905 0.00910993 0.14135718 0.18358952 0.37474674 0.18366234 -0.031571016 0.15591761
-0.16924661 0.49234924 0.51401484 0.30143306 -0.04386265 0.542269 0.040675506 0.6848116
-0.14194159 0.44757473 0.14082898 0.33309457 0.3191 0.20642224 0.106067814 -0.020970745
00000000: b7b6 b63e 7516 0fbd cacf bfbe 2ab1 a43e
00000010: cd08 e13e 59b6 1c3d e37f 163f 9439 0a3f
00000020: 5291 cb3e a4b4 633d 1a4e ce3e 1ae2 163f
00000030: e642 1dbe 9134 2e3e 4a25 933e 6ea8 7b3d
00000040: 52bd 223e d4d4 d43e 5685 003d d459 ae3e
00000050: b23c a73e 429f a93d 589b 913d 12b0 203e
00000060: 76c2 c1bc 6a8c f3be eef0 cc3d 8c63 31bc
00000070: d7d5 fc3d ae3e 4cbd 1f4a ecbb 00fe 073f
00000080: 8223 1abe 4b40 093f 57b6 803e aae8 873d
00000090: 1498 953d 0c4b a83d 2d9f 133e c2f0 bb3d
000000a0: e104 e13e 0889 32be 8650 12be 9122 9fbd
000000b0: 32b8 84be c5ca 22bc 1c79 0d3d 8da4 213e
000000c0: f701 efbe 08b9 bdbd 4b28 6f3f 15fa dfbe
000000d0: ae92 9eba e281 83bd 33a9 123e e9e3 27bf
000000e0: c6cb b9be 5261 213e fc24 d4be 1e22 29bf
000000f0: 91a2 ebbd 9422 233d bd0a 0f3e af05 65be
00000100: 35f5 4f3e f0a2 bb3e 9253 c1bd 304d 463d
00000110: 4ac5 b0bd a998 203e 9080 34be c986 3dbd
00000120: ee57 463d ea41 43bd 54f2 d3bd 31bf 07be
00000130: 81b5 f3bc d864 0ebf 2bfd 043e 33d4 9b3e
00000140: 6ede a23e 0a56 b43d 5dd1 c5be 7b5a 543e
00000150: 4364 03bf 6a8d 9bbe a690 6c3d f050 da3e
00000160: 0870 f33d c166 233e 0cd5 f9be 142d cfbc
00000170: 7f94 cd3d e7d0 9fbe 446d 68be e2fc f93d
00000180: 5c80 403e 711e d53e df55 1e3f 8ee5 1c3d
00000190: da93 e13e 915c 6a3d fe4b 673e a611 903e
000001a0: 98b6 d13d d141 153c f0bf 103e e4fe 3b3e
000001b0: cede bf3e fb11 3c3e 9c50 01bd dea8 1f3e
000001c0: fc4e 2dbe 3315 fc3e 7a96 033f 6f55 9a3e
000001d0: 52a9 33bd 24d2 0a3f 5c9b 263d d04f 2f3f
000001e0: 2359 11be 8428 e53e 7935 103e 5f8b aa3e
000001f0: 1361 a33e 5a60 533e 153a d93d d7ca abbc

encoder.lstm.bias_hh_l0 f4 [128]
0.35686234 -0.034887522 -0.37467575 0.3216543 0.43947718 0.038256314 0.5878259 0.53988385
0.3976379 0.055571415 0.40288892 0.5894115 -0.15347095 0.17017175 0.28741133 0.061447885
0.15892492 0.41576338 0.03132887 0.3404934 0.32671237 0.08285054 0.07112826 0.15688397
-0.023592701 -0.4756688 0.100002214 -0.010798018 0.1234365 -0.049950495 -0.0072889905 0.53120244
-0.15047069 0.5361324 0.2514312 0.066375926 0.07305154 0.08217196 0.14408627 0.091773346
0.43949574 -0.17434391 -0.14286374 -0.077742025 -0.2591869 -0.010035023 0.03454509 0.15786119
-0.46677878 -0.09261481 0.93424433 -0.43749812 -0.0011751386 -0.064179234 0.14313301 -0.6558478
-0.36286852 0.15762879 -0.41432694 -0.6607053 -0.11500332 0.03981445 0.13972507 -0.22366253
0.20308623 0.36642444 -0.094338775 0.048412926 -0.086311065 0.15676162 -0.1762841 -0.046230253
0.048471354 -0.04765723 -0.10356099 -0.13263507 -0.029721128 -0.55625856 0.12992838 0.30431715
0.31810337 0.08805473 -0.38640764 0.20742261 -0.5133296 -0.3038391 0.05774577 0.42640463
0.11881978 0.15958217 -0.48791105 -0.02532898 0.10037604 -0.3121115 -0.22699903 0.12210071
0.18804845 0.4162184 0.6185345 0.038339797 0.4406353 0.05714959 0.22587994 0.28135768
0.102347195 0.00914717 0.14134537 0.18353173 0.37475216 0.18368326 -0.03159257 0.15592815
-0.1692458 0.4923853 0.51399803 0.3014279 -0.043823585 0.5422171 0.040723264 0.68482214
-0.14196777 0.4476152 0.14086773 0.33313477 0.31903833 0.20646441 0.106001385 -0.021017099
00000000: a9b6 b63e 38e6 0ebd 80d5 bfbe dfaf a43e
00000010: 2703 e13e a7b2 1c3d c27b 163f d435 0a3f
00000020: 3297 cb3e da9e 633d 7547 ce3e ace3 163f
00000030: 7d27 1dbe 8141 2e3e 9427 933e c7b0 7b3d
00000040: 37bd 223e f0de d43e b452 003d 2755 ae3e
00000050: d846 a73e 8bad a93d b1ab 913d 31a6 203e
00000060: 7b45 c1bc dc8a f3be f6cd cc3d 2cea 30bc
00000070: 47cc fc3d e498 4cbd 7cd8 eebb e2fc 073f
00000080: fd14 1abe f93f 093f 97bb 803e 1af0 873d
00000090: 0c9c 953d c649 a83d 5a8b 133e aaf3 bb3d
000000a0: 9605 e13e 3687 32be df4a 12be 3637 9fbd
000000b0: 25b4 84be f069 24bc 277f 0d3d 5da6 213e
000000c0: a1fd eebe d5ac bdbd a32a 6f3f c1ff dfbe
000000d0: 1c07 9aba 6770 83bd 7691 123e a4e5 27bf
000000e0: e7c9 b9be 7169 213e a922 d4be fc23 29bf
000000f0: dc86 ebbd 7a14 233d 1714 0f3e ca07 65be
00000100: d6f5 4f3e fc9b bb3e b034 c1bd a24c 463d
00000110: dbc3 b0bd 1e86 203e d283 34be ef5b 3dbd
00000120: e689 463d 3a34 43bd c917 d4bd 7dd1 07be
00000130: b979 f3bc f666 0ebf f20b 053e 75cf 9b3e
00000140: 72de a23e 0a56 b43d 39d7 c5be 9866 543e
00000150: 9269 03bf cc90 9bbe d486 6c3d b551 da3e
00000160: c957 f33d 8269 233e 7acf f9be b97e cfbc
00000170: f491 cd3d 14cd 9fbe 6f72 68be f00f fa3d
00000180: c68f 403e 941a d53e 4758 1e3f 310a 1d3d
00000190: f39a e13e b015 6a3d 124d 673e 1d0e 903e
000001a0: 689b d13d 03de 153c d7bc 103e beef 3b3e
000001b0: 84df bf3e 7717 3c3e 3667 01bd a1ab 1f3e
000001c0: c54e 2dbe ed19 fc3e 6095 033f c254 9a3e
000001d0: 5c80 33bd bdce 0a3f 70cd 263d 8150 2f3f
000001e0: 0060 11be d22d e53e a13f 103e a490 aa3e
000001f0: fe58 a33e 686b 533e 4117 d93d 0d2c acbc

decoder.lstm.weight_ih_l0 f4 [128, 5]
1.5845898 0.050086327 0.06484672 -0.05658532 -0.08940569 0.034776773 -0.1484162 -0.71540004
-1.0636584 0.9403049 5.1108475 -0.2542973 0.09200318 0.17130989 0.0631105 0.005686415
-0.3044926 1.3017844 2.0355742 -1.4021248 -0.07664959 -0.08075412 0.26368853 0.31085685
-0.023645436 -0.011040455 -0.058278676 0.008187731 -0.14863865 0.09081703 0.09093481 0.47416756
0.7780802 -1.4690988 -0.048467673 -0.05223039 0.2795741 -0.80064654 0.046496093 -0.44865322
-0.010312624 -1.309699 0.53104043 -0.15741926 -0.10824407 -0.033220775 -0.3373109 0.18327415
-0.022739666 0.5985078 -0.0063687414 0.00677544 -0.78691274 0.48128873 -0.23789383 0.06514551
1.1131893 0.15573673 -0.62722564 0.80392444 -0.07065339 -0.47978973 -0.19215903 -0.17690518
0.9960165 0.025878089 1.2924695 -1.1597043 0.64468044 -1.7251772 -0.18064556 -0.5084518
-0.17762181 -0.08125974 -0.08745858 1.2711897 -0.1764207 -0.13255371 0.34715855 -0.46053097
-0.025467146 2.7125907 -0.9478637 0.46165946 -0.82962394 -0.067548215 5.9020357 0.3381875
0.2867923 -1.6647421 0.81511253 -0.20177048 0.032505777 0.23699409 0.0906384 -0.01735996
2.1410232 3.001553 -1.2508528 -0.90937483 0.28951028 -0.64527553 -0.089966305 -0.9388252
1.949527 0.024398338 0.34380332 -1.1093842 -0.7853575 0.39410985 -0.34254962 0.75752604
1.5720087 -0.12715483 -0.20381263 -0.004813016 -0.4884402 0.17614414 -0.48982304 0.66214466
0.017184278 -0.6271392 -0.595884 0.5853056 -0.5100702 0.05739917 -0.35666105 1.1319363
-0.087493256 -0.9414682 -0.01967635 1.2279673 0.03531722 -0.4931093 -1.7202455 -0.062326666
-0.26785392 -0.0065303594 0.16024496 0.19264975 0.0061238445 -0.6588954 -0.6198292 0.11105062
-0.7492169 -0.050313335 0.5992973 0.2927343 -1.0510957 -0.5843903 -0.11363899 0.33903345
-0.74569005 0.14490828 -0.33311155 -0.042040907 1.9917947 0.3746266 0.91378874 -0.87725985
-1.3472251 -0.4913038 -0.36735418 -0.2504823 -0.54077536 0.12102072 -0.03047434 0.12792206
-0.16477703 1.3910478 0.69579357 -0.71881217 -0.60343146 -0.63341224 -0.43682775 0.030541329
0.6742191 -0.45098326 1.7220508 -0.5104854 -0.120823674 0.15252842 0.06661477 0.061056808
-0.4077608 -0.020331021 -1.2707428 1.6080266 1.3412037 -0.24812956 0.021278441 0.6776258
3.0468032 -0.3324179 -0.36715737 -0.12888418 0.08183415 1.4984229 0.69126844 0.24041687
0.029582158 0.61377317 1.1301545 0.6586369 -0.33184418 0.11962507 -0.5357077 0.7075093
-0.10998664 0.3173115 0.05817301 -0.56572807 0.6431614 0.8074307 0.49161026 0.15164949
0.3722945 0.10436829 -1.3907413 1.3897358 -0.012972592 -0.39690873 0.5465168 -0.093731426
-1.0064837 -0.06078809 -0.36549047 -0.6944642 3.6891952 2.9173768 -0.0848857 0.6247327
-0.38792694 0.4838693 0.0067035784 0.7509257 -0.29167455 -0.019611271 0.04076376 -0.33967134
0.011986113 1.4068097 0.32122242 -0.9405677 3.6037977 -0.0764229 1.5050753 2.6351297
-0.5392063 -0.80050635 0.4162957 -0.47838223 -0.30097815 -0.6419326 -0.4331485 0.07076143
00000000: d7d3 ca3f 5227 4d3d 5bce 843d 02c6 67bd
00000010: 551a b7bd 1772 0e3d 6bfa 17be 7524 37bf
00000020: f525 88bf d2b7 703f 108c a340 4133 82be
00000030: 2a6c bc3d dc6b 2f3e 1440 813d 1b55 ba3b
00000040: 74e6 9bbe dfa0 a63f d946 0240 d378 b3bf
00000050: 76fa 9cbd 6b62 a5bd 2f02 873e a128 9f3e
00000060: 13b4 c1bc 06e3 34bc 9fb5 6ebd d525 063c
00000070: bb34 18be 47fe b93d 083c ba3d 17c6 f23e
00000080: 4430 473f 6e0b bcbf 0a86 46bd 89ef 55bd
00000090: 5624 8f3e 2cf7 4cbf b072 3e3d e0b5 e5be
000000a0: 48f6 28bc 38a4 a7bf 44f2 073f 8432 21be
000000b0: 11af ddbd 8212 08bd 04b4 acbe 38ac 3b3e
000000c0: 8948 babc cf37 193f e0b0 d0bb 8304 de3b
000000d0: 1d73 49bf 7a6b f63e 719a 73be 026b 853d
000000e0: fd7c 8e3f 7379 1f3e dc91 20bf fecd 4d3f
000000f0: b9b2 90bd 00a7 f5be 56c5 44be a226 35be
00000100: f0fa 7e3f 49fe d33c a46f a53f 3171 94bf
00000110: c709 253f 9bd2 dcbf 26fb 38be e629 02bf
00000120: 7ee2 35be 826b a6bd 7c1d b3bd 58b6 a23f
00000130: a1a7 34be 29bc 07be c4be b13e b7ca ebbe
00000140: 7aa0 d0bc 169b 2d40 32a7 72bf a15e ec3e
00000150: 3c62 54bf b856 8abd 7add bc40 e926 ad3e
00000160: 71d6 923e 4516 d5bf 37ab 503f ec9c 4ebe
00000170: c724 053d 94ae 723e a0a0 b93d 7a36 8ebc
00000180: 8606 0940 7219 4040 f21b a0bf cacc 68bf
00000190: b13a 943e c730 25bf 4140 b8bd d956 70bf
000001a0: 1a8a f93f 06df c73c fd06 b03e 4d00 8ebf
000001b0: 300d 49bf c4c8 c93e aa62 afbe 3aed 413f
000001c0: 9537 c93f e034 02be 42b4 50be 81b6 9dbb
000001d0: d514 fabe 215f 343e 16ca fabe 5082 293f
000001e0: 0bc6 8c3c 328c 20bf db8b 18bf 96d6 153f
000001f0: f693 02bf 641b 6b3d 479c b6be 4ae3 903f
00000200: aa2f b3bd 0f04 71bf 4c30 a1bc 082e 9d3f
00000210: caa8 103d d278 fcbe 0131 dcbf 3f4a 7fbd
00000220: 2624 89be a0fc d5bb 4117 243e fa45 453e
00000230: 88aa c83b 5ead 28bf 20ad 1ebf 826e e33d
00000240: aecc 3fbf 5b15 4ebd 8c6b 193f 45e1 953e
00000250: 4e8a 86bf 9a9a 15bf 8fbb e8bd cb95 ad3e
00000260: 8be5 3ebf d662 143e 998d aabe 1633 2cbd
00000270: 21f3 fe3f 0fcf bf3e 0fee 693f 1a94 60bf
00000280: df71 acbf 2c8c fbbe d915 bcbe 373f 80be
00000290: 4170 0abf b6d9 f73d 53a5 f9bc 00fe 023e
000002a0: 4fbb 28be db0d b23f 871f 323f 1304 38bf
000002b0: 7c7a 1abf 4e27 22bf e3a7 dfbe cf31 fa3c
000002c0: 9f99 2c3f 47e7 e6be 296c dc3f 2caf 02bf
000002d0: 6772 f7bd 6930 1c3e 536d 883d b416 7a3d
000002e0: 06c6 d0be 3e8d a6bc b3a7 a2bf d1d3 cd3f
000002f0: 90ac ab3f ad15 7ebe 2050 ae3c e278 2d3f
00000300: d3fe 4240 ae32 aabe 0dfc bbbe 37fa 03be
00000310: aa98 a73d 52cc bf3f f8f6 303f d72f 763e
00000320: 4856 f23c 3d20 1d3f e7a8 903f 6e9c 283f
00000330: 7be7 a9be fdfd f43d 2424 09bf 541f 353f
00000340: ad40 e1bd a776 a23e d246 6e3d 8ed3 10bf
00000350: 3aa6 243f c7b3 4e3f 57b4 fb3e 014a 1b3e
00000360: 629d be3e 0bbf d53d d003 b2bf dde2 b13f
00000370: ff8a 54bc 9f37 cbbe 86e8 0b3f 43f6 bfbd
00000380: 75d4 80bf effc 78bd 9121 bbbe 68c8 31bf
00000390: c61b 6c40 4db6 3a40 8ed8 adbd 7bee 1f3f
000003a0: 5c9e c6be b8bd f73e b1a9 db3b ab3c 403f
000003b0: 5e56 95be d1a7 a0bc e7f7 263d 67e9 adbe
000003c0: 6761 443c 5712 b43f 4477 a43e 0bc9 70bf
000003d0: 9fa4 6640 9c83 9cbd 4fa6 c03f f7a5 2840
000003e0: 6d09 0abf fced 4cbf b624 d53e 84ee f4be
000003f0: cf19 9abe b255 24bf a4c5 ddbe 5eeb 903d

decoder.lstm.weight_hh_l0 f4 [128, 32]
-0.34701788 -0.049101427 1.2338406 0.25078654 1.6537869 -0.44907323 -0.5945545 0.025055753
-0.21898988 -0.51597357 0.23966457 -0.048256304 -0.45075464 0.056929465 -0.11218405 -1.2613578
-0.1587361 -0.5692198 0.6325472 0.046126433 0.5336654 0.13136463 1.1768827 -0.5807514
-0.09829527 -0.14936993 -0.16124164 0.3970716 0.40832382 -1.0713929 1.1490825 0.35949787
0.12703282 -0.1542139 0.55605394 1.5488113 -0.53498113 1.3335738 -0.35006914 -0.44741908
0.1854115 -0.35755315 0.7641931 -1.4265441 0.52412516 0.52676785 -0.75363714 0.19076037
-0.051185355 1.442727 -0.1215296 -1.1755531 1.8260058 -1.0871171 0.73171806 0.3048936
0.0025613063 -0.60575753 1.4342365 0.21271503 -0.13977066 -1.3821045 -0.6181922 -0.035979655
-0.050122283 1.9499781 -0.8014741 -1.0559163 -1.1373233 1.9531621 0.6928285 -0.5125681
-0.46624517 0.07382723 -0.060432065 0.7426464 1.9327067 0.81354815 -0.012159272 -0.8545831
0.6199999 0.74331534 0.8483094 -1.4857057 -1.439253 -1.5097264 -0.14606126 0.36777377
1.1247879 0.46668535 0.25968274 0.6975384 -1.1657403 1.2681019 -0.23923768 -0.30756956
-0.39530045 0.4974975 -0.31939408 -0.79950196 0.15009321 -0.07475815 0.41490215 -0.31797427
1.1964253 -2.005976 -1.1263479 0.92699647 -1.3581325 -0.9170807 0.28372094 0.75631624
-0.46983302 -0.58601725 -0.24467386 0.02272538 -2.1569047 -0.281349 -1.6429116 1.0871093
0.23362513 -1.5426944 -1.3811866 -0.062328145 -0.42842168 0.77336633 0.4037407 0.105783805
-0.81829876 -0.4097467 -0.13125932 0.8451704 -0.24136794 -0.4830162 0.98171175 -0.4413034
-0.5762986 -0.1353702 -0.5760791 0.5294665 0.24489447 -0.40176547 -0.48520312 0.6300352
-0.7977288 -0.06004154 0.11291717 0.60938436 0.7233054 -1.1453998 0.45992374 -0.0962579
-0.8747364 0.16875088 0.349564 0.53217334 0.24345516 0.3924773 -0.30977663 -0.33570564
0.29482108 0.19142428 0.4308177 0.0028224702 0.11600261 1.1060965 -0.15450615 0.8435839
-0.6945563 1.940707 -0.7206841 0.52840936 0.11479845 -1.6258175 -0.8533833 -0.26096144
-0.47948247 0.8488534 0.42889753 -1.0870043 -0.2897268 -1.3978168 -0.5927609 0.5329432
-0.76244503 1.7669561 0.54819787 0.77767336 1.2835238 0.49411675 -0.93162954 -1.0023361
-0.12732702 0.04407406 -0.8373417 -0.035565592 0.23211838 -0.76635617 -0.46749985 -0.0114018535
-0.021166118 -0.14553148 1.1835641 0.61075866 -0.73019344 0.51947725 -0.0972559 -0.2650332
-0.5503282 -0.7342555 -0.22599065 0.7746455 -0.53294855 0.15305889 0.2391174 0.9794316
-0.18307588 0.55327094 -1.1199359 0.4278442 -0.9718019 1.3843471 0.6216397 -1.1923332
0.11467987 -0.56112224 0.044666387 0.53536624 -0.2995424 -0.5593206 0.4023434 -0.017305672
0.5104311 0.9637753 0.49578613 0.87206286 -0.5564114 -0.37435013 0.3805733 -0.029624438
0.26486042 0.25339144 -0.045516927 0.55946714 0.19521092 -0.54423016 0.17275792 -0.73766506
-1.8566628 -0.25465858 -0.9337366 0.57406294 0.12008025 -0.7770308 0.9736206 -0.3745379
00000000: 54ac b1be 941e 49bd 7dee 9d3f 1867 803e
00000010: 4aaf d33f edec e5be b934 18bf b941 cd3c
00000020: e23e 60be d816 04bf a16a 753e 67a8 45bd
00000030: 50c9 e6be df2e 693d c0c0 e5bd 2c74 a1bf
00000040: b78b 22be 64b8 11bf 9dee 213f 12ef 3c3d
00000050: 4c9e 083f 7384 063e 18a4 963f 20ac 14bf
00000060: 084f c9bd 6ef4 18be 871c 25be f84c cb3e
00000070: d20f d13e 6723 89bf 2315 933f 1b10 b83e
00000080: e414 023e 40ea 1dbe 8d59 0e3f 733f c63f
00000090: 86f4 08bf 8cb2 aa3f 433c b3be 1d14 e5be
000000a0: 83dc 3d3e 3511 b7be 29a2 433f ff98 b6bf
000000b0: 112d 063f 42da 063f 5dee 40bf b056 433e
000000c0: bca7 51bd 47ab b83f 83e4 f8bd 8678 96bf
000000d0: 8fba e93f a726 8bbf e051 3b3f 041b 9c3e
000000e0: 97db 273b ed12 1bbf 1095 b73f f8d1 593e
000000f0: 0a20 0fbe cde8 b0bf d841 1ebf 675f 13bd
00000100: 064d 4dbd e298 f93f 682d 4dbf 4428 87bf
00000110: cf93 91bf 3701 fa3f 355d 313f aa37 03bf
00000120: b0b7 eebe bb32 973d 9d87 77bd 131e 3e3f
00000130: ef62 f73f b144 503f af37 47bc f5c5 5abf
00000140: 50b8 1e3f ea49 3e3f ce2a 593f 9b2b bebf
00000150: 7139 b8bf b73e c1bf 1591 15be d84c bc3e
00000160: 0df9 8f3f 62f1 ee3e 23f5 843e e091 323f
00000170: fa36 95bf 2a51 a23f b9fa 74be c279 9dbe
00000180: d264 cabe feb7 fe3e 9f87 a3be 29ac 4cbf
00000190: 09b2 193e cd1a 99bd 0e6e d43e 86cd a2be
000001a0: 7724 993f e961 00c0 2b2c 90bf a44f 6d3f
000001b0: 49d7 adbf cdc5 6abf df43 913e f19d 413f
000001c0: f48d f0be 3a05 16bf c98b 7abe 932a ba3c
000001d0: ba0a 0ac0 fa0c 90be ed4a d2bf 6626 8b3f
000001e0: 6d3b 6f3e 0377 c5bf b9ca b0bf cc4b 7fbd
000001f0: 165a dbbe 56fb 453f 1ab7 ce3e 2ea5 d83d
00000200: 077c 51bf 52ca d1be d868 06be 165d 583f
00000210: 2829 77be e64d f7be 7651 7b3f 85f2 e1be
00000220: 4e88 13bf 7c9e 0abe eb79 13bf 1e8b 073f
00000230: 9ec5 7a3e 34b4 cdbe 8b6c f8be fd49 213f
00000240: f437 4cbf 1eee 75bd 1e41 e73d 9d00 1c3f
00000250: 8b2a 393f 769c 92bf 207b eb3e dd22 c5bd
00000260: baee 5fbf 08cd 2c3e 0dfa b23e 833c 083f
00000270: 4f4c 793e c9f2 c83e 0b9b 9ebe 9ce1 abbe
00000280: caf2 963e ba04 443e 2394 dc3e 31f9 383b
00000290: c792 ed3d 9294 8d3f dc36 1ebe 1df5 573f
000002a0: 71ce 31bf 1669 f83f c17e 38bf d645 073f
000002b0: 731b eb3d ca1a d0bf 5477 5abf bd9c 85be
000002c0: ba7e f5be 754e 593f 7598 db3e f522 8bbf
000002d0: 1257 94be a9eb b2bf 2ebf 17bf f76e 083f
000002e0: 992f 43bf 9e2b e23f b256 0c3f 9a15 473f
000002f0: 824a a43f dffc fc3e 467f 6ebf 8d4c 80bf
00000300: 0462 02be 0087 343d 075c 56bf 3aad 11bd
00000310: 71b0 6d3e eb2f 44bf 245c efbe d7ce 3abc
00000320: 9164 adbc 3406 15be 077f 973f ae5a 1c3f
00000330: f5ed 3abf 76fc 043f 1a2e c7bd 6eb2 87be
00000340: 4fe2 0cbf 2bf8 3bbf 186a 67be 2b4f 463f
00000350: 516f 08bf 78bb 1c3e 31db 743e 08bc 7a3f
00000360: 3e78 3bbe 2aa3 0d3f 0f5a 8fbf 650e db3e
00000370: 02c8 78bf 4932 b13f c823 1f3f 609e 98bf
00000380: 48dd ea3d b5a5 0fbf 1af4 363d c30d 093f
00000390: 9f5d 99be a32f 0fbf f4ff cd3e a0c4 8dbc
000003a0: 9dab 023f fab9 763f aed7 fd3e 833f 5f3f
000003b0: fa70 0ebf d2aa bfbe 81da c23e f3ae f2bc
000003c0: c99b 873e 86bc 813e f56f 3abd 3d39 0f3f
000003d0: 5fe5 473e ab52 0bbf 74e7 303e 9ed7 3cbf
000003e0: 20a7 edbf 9c62 82be 5d09 6fbf caf5 123f
000003f0: a2ec f53d 7eeb 46bf 333f 793f 6ec3 bfbe

decoder.lstm.bias_ih_l0 f4 [128]
-0.022770008 -0.45864472 0.032798752 -0.47568762 0.17149165 -0.02786892 -0.18344438 -0.013211787
-0.17418745 0.13050066 -0.13439934 0.21779661 -0.061500277 -0.17767884 -0.26510233 -0.08964343
-0.016982896 -0.26434156 0.05763594 0.10436984 -0.19274732 -0.46829665 0.16664074 0.08514725
-0.33992466 -0.6695567 -0.19563322 0.06378714 -0.7974606 -0.4139051 -0.16968611 0.36762425
-0.41705078 0.2143866 -0.7103026 0.12583944 -0.06880948 0.32763287 0.16221479 0.50390726
0.34870315 0.052023545 0.3753303 -0.1469315 -0.3001345 0.13335024 0.14274146 -0.14886354
0.29628626 -0.23656341 -0.4873252 0.35653457 -0.06037995 0.1527713 0.020453509 0.06497267
0.42115235 0.5503854 0.6625978 -0.42202243 0.022108361 -0.14398366 0.26441994 0.1518396
0.20986317 0.11538807 -0.10685169 0.04385641 0.060748167 0.012418342 0.051636934 0.13405934
-0.1835449 0.1337059 -0.084384315 -0.047651593 -0.15366386 0.22292152 0.1126833 -0.006530689
-0.08389517 0.026039895 0.098210424 -0.05718403 -0.40832517 0.031502344 0.046873257 -0.032043558
0.15596347 -0.12980105 0.08815632 -0.0231937 0.004317947 -0.10985182 -0.11247553 0.020744402
-0.27075282 0.43467316 0.0774377 -0.059412826 0.6707846 0.3057519 0.19497561 0.6216395
0.08890346 0.29228532 -0.017476663 0.039852187 0.088417225 -0.027611248 0.47311065 -0.019495482
0.21920283 -0.08136499 0.116094895 -0.09703447 0.15713686 -0.049797326 0.33449998 0.52267945
-0.14223838 0.17434599 0.08290838 -0.2370115 0.2492467 0.6113634 0.15282613 -0.105734825
00000000: 2b88 babc 7bd3 eabe fc57 063d 548d f3be
00000010: 829b 2f3e 5c4d e4bc d8d8 3bbe 4076 58bc
00000020: 325e 32be f7a1 053e fb9f 09be 1306 5f3e
00000030: b7e7 7bbd 71f1 35be 7ebb 87be fa96 b7bd
00000040: b71f 8bbc c757 87be aa13 6c3d dbbf d53d
00000050: 8e5f 45be 94c4 efbe dfa3 2a3e ae61 ae3d
00000060: 9b0a aebe 1168 2bbf 1354 48be d5a2 823d
00000070: 6126 4cbf 5feb d3be 32c2 2dbe 3f39 bc3e
00000080: ae87 d5be 2988 5b3e 64d6 35bf 0edc 003e
00000090: fceb 8cbd 7fbf a73e a21b 263e 1100 013f
000000a0: 3889 b23e a416 553d 4b2b c03e 3675 16be
000000b0: 3bab 99be f78c 083e d12a 123e af6f 18be
000000c0: d5b2 973e ae3d 72be b082 f9be b38b b63e
000000d0: f750 77bd 1470 1c3e 1e8e a73c 6410 853d
000000e0: 48a1 d73e 0fe6 0c3f 02a0 293f 5313 d8be
000000f0: 981c b53c 7470 13be 0d62 873e d77b 1b3e
00000100: 5fe6 563e 9550 ec3d 0fd5 dabd c7a2 333d
00000110: 12d3 783d 4d76 4b3c 4081 533d da46 093e
00000120: 32f3 3bbe 33ea 083e afd1 acbd 512e 43bd
00000130: 0f5a 1dbe 8a45 643e 81c6 e63d 64ff d5bb
00000140: 3bd1 abbd 9e51 d53c 8c22 c93d cd39 6abd
00000150: ff0f d1be 9a08 013d 2cfe 3f3d 1b40 03bd
00000160: e3b4 1f3e 91ea 04be 4d8b b43d b700 bebc
00000170: 917d 8d3b fef9 e0bd 9259 e6bd 2af0 a93c
00000180: 1da0 8abe 7b8d de3e a897 9e3d dd5a 73bd
00000190: 8ab8 2b3f 838b 9c3e b0a7 473e c423 1f3f
000001a0: 0413 b63d 6ca6 953e 382b 8fbc 0c3c 233d
000001b0: 1714 b53d fc30 e2bc 8f3b f23e fdb4 9fbc
000001c0: b576 603e b0a2 a6bd 29c3 ed3d 02ba c6bd
000001d0: 7ce8 203e 48f8 4bbd 9543 ab3e 52ce 053f
000001e0: f0a6 11be c187 323e decb a93d 25b3 72be
000001f0: 873a 7f3e 5082 1c3f 747e 1c3e 808b d8bd

decoder.lstm.bias_hh_l0 f4 [128]
-0.02267902 -0.4586856 0.032807983 -0.47568524 0.17153268 -0.027795734 -0.18348081 -0.013194393
-0.1742247 0.13052757 -0.1343327 0.21776912 -0.061509587 -0.17767328 -0.26511624 -0.08964438
-0.01690709 -0.26438525 0.057605255 0.10446066 -0.19280785 -0.4682536 0.16668823 0.085154995
-0.33993924 -0.6695904 -0.19561929 0.06376741 -0.79748535 -0.41389525 -0.16968293 0.36764956
-0.4170385 0.21439709 -0.7102428 0.12580976 -0.068805404 0.32763532 0.16216868 0.5038795
0.348672 0.052097492 0.37531838 -0.14688596 -0.30023766 0.13330287 0.14274693 -0.14887413
0.29625815 -0.23654269 -0.48735353 0.3565189 -0.06044624 0.15283373 0.020373628 0.06497758
0.4210894 0.55041474 0.66252065 -0.42213067 0.022150831 -0.14394835 0.26442868 0.15174915
0.20987721 0.11531279 -0.10680744 0.043929372 0.060787067 0.012433354 0.05167069 0.13402493
-0.18357511 0.13378076 -0.08436732 -0.047662396 -0.15363358 0.22286712 0.11273895 -0.0065526897
-0.08388443 0.025968753 0.098193265 -0.057167917 -0.40828022 0.031589203 0.04685153 -0.032036196
0.15597567 -0.12974219 0.08813796 -0.023190947 0.004368164 -0.109910525 -0.11243209 0.020754473
-0.27078378 0.43467715 0.077467136 -0.059441607 0.670847 0.30580422 0.1949942 0.62161833
0.08890125 0.29234126 -0.01746055 0.039933395 0.08846651 -0.02761829 0.4731295 -0.019535845
0.21926618 -0.081334166 0.116068974 -0.09701442 0.15711063 -0.049751922 0.33451274 0.52268445
-0.14216994 0.17432347 0.08282595 -0.23702219 0.24923812 0.611311 0.1528823 -0.105777994
00000000: 5ac9 b9bc d7d8 eabe aa61 063d 048d f3be
00000010: 43a6 2f3e e1b3 e3bc 65e2 3bbe 4c2d 58bc
00000020: f667 32be 05a9 053e 838e 09be defe 5e3e
00000030: 7af1 7bbd fcef 35be 51bd 87be 7997 b7bd
00000040: bd80 8abc 815d 87be 7df3 6b3d 78ef d53d
00000050: 6c6f 45be f0be efbe 52b0 2a3e be65 ae3d
00000060: 840c aebe 476a 2bbf 6c50 48be 7d98 823d
00000070: 0028 4cbf 14ea d3be 5dc1 2dbe 903c bc3e
00000080: 1286 d5be e98a 5b3e 79d2 35bf 46d4 003e
00000090: d9e9 8cbd d1bf a73e 8c0f 263e 3ffe 003f
000000a0: 2385 b23e 2e64 553d bb29 c03e 4669 16be
000000b0: c0b8 99be 8c80 083e 402c 123e 7672 18be
000000c0: 26af 973e 3f38 72be 6786 f9be a589 b63e
000000d0: 7a96 77bd 7280 1c3e 98e6 a63c f712 853d
000000e0: 0899 d73e fbe7 0c3f f49a 293f 8321 d8be
000000f0: a975 b53c 3267 13be 3263 873e 2164 1b3e
00000100: 0dea 563e 1d29 ec3d dcbd dabd 49ef 333d
00000110: dcfb 783d 44b5 4b3c a5a4 533d d53d 093e
00000120: 1dfb 3bbe d3fd 083e c6c8 acbd a539 43bd
00000130: 1f52 1dbe 4737 643e aee3 e63d f2b7 d6bb
00000140: 9acb abbd 6cbc d43c 8d19 c93d e828 6abd
00000150: 1b0a d1be ae63 013d 64e7 3f3d 6338 03bd
00000160: 16b8 1f3e 23db 04be ad81 b43d f1fa bdbc
00000170: d122 8f3b c518 e1bd cc42 e6bd 4905 aa3c
00000180: 2ca4 8abe 018e de3e 17a7 9e3d 0b79 73bd
00000190: a1bc 2b3f 5f92 9c3e 8fac 473e 6122 1f3f
000001a0: dc11 b63d c1ad 953e 6d09 8fbc 3391 233d
000001b0: ee2d b53d c13f e2bc 083e f23e a309 a0bc
000001c0: 5087 603e 8792 a6bd 92b5 ed3d 7faf c6bd
000001d0: 9ce1 203e acc8 4bbd 4145 ab3e a6ce 053f
000001e0: ff94 11be da81 323e a7a0 a93d f2b5 72be
000001f0: 4738 7f3e e17e 1c3f 2d8d 1c3e 22a2 d8bd

decoder.linear.weight f4 [1, 32]
-1.4053073 0.025465084 -0.6513959 -0.005466133 0.09303632 0.023469957 0.05362162 -0.013388423
-0.007551289 -0.058652256 0.0093018 0.06604657 0.07693058 -0.0032934898 0.09858784 -0.39833587
0.009174895 0.041511796 -0.68986875 -0.034323987 -0.05221783 -0.02763071 -0.12435046 0.05898715
0.03370304 0.010566971 -0.0064122938 -0.2653466 -0.043882746 0.08942179 0.049363613 -0.019246027
00000000: 1ce1 b3bf 279c d03c e2c1 26bf 3f1d b3bb
00000010: d389 be3d 1144 c03c 58a2 5b3d 1e5b 5bbc
00000020: ce70 f7bb 593d 70bd 9466 183c 6d43 873d
00000030: c88d 9d3d 97d7 57bb 6ce8 c93d aef2 cbbe
00000040: 4c52 163c 4608 2a3d 3d9b 30bf 4f97 0cbd
00000050: 5de2 55bd cc59 e2bc 74ab febd 839c 713d
00000060: 330c 0a3d 1721 2d3c 381e d2bb 82db 87be
00000070: 65be 33bd c522 b73d 8031 4a3d d8a9 9dbc
