results/MSE_LSTM_enc_dec_output/845_model.pt (torch, 860225 bytes, 10 tensors)

output_zeros f4 [399, 512, 1]
0	0x00000000	0.0
1	0x00000000	0.0
2	0x00000000	0.0
3	0x00000000	0.0
4	0x00000000	0.0
5	0x00000000	0.0
6	0x00000000	0.0
7	0x00000000	0.0
8	0x00000000	0.0
9	0x00000000	0.0
10	0x00000000	0.0
11	0x00000000	0.0
12	0x00000000	0.0
13	0x00000000	0.0
14	0x00000000	0.0
15	0x00000000	0.0
16	0x00000000	0.0
17	0x00000000	0.0
18	0x00000000	0.0
19	0x00000000	0.0
20	0x00000000	0.0
21	0x00000000	0.0
22	0x00000000	0.0
23	0x00000000	0.0
24	0x00000000	0.0
25	0x00000000	0.0
26	0x00000000	0.0
27	0x00000000	0.0
28	0x00000000	0.0
29	0x00000000	0.0
30	0x00000000	0.0
31	0x00000000	0.0
32	0x00000000	0.0
33	0x00000000	0.0
34	0x00000000	0.0
35	0x00000000	0.0
36	0x00000000	0.0
37	0x00000000	0.0
38	0x00000000	0.0
39	0x00000000	0.0
40	0x00000000	0.0
41	0x00000000	0.0
42	0x00000000	0.0
43	0x00000000	0.0
44	0x00000000	0.0
45	0x00000000	0.0
46	0x00000000	0.0
47	0x00000000	0.0
48	0x00000000	0.0
49	0x00000000	0.0
50	0x00000000	0.0
51	0x00000000	0.0
52	0x00000000	0.0
53	0x00000000	0.0
54	0x00000000	0.0
55	0x00000000	0.0
56	0x00000000	0.0
57	0x00000000	0.0
58	0x00000000	0.0
59	0x00000000	0.0
60	0x00000000	0.0
61	0x00000000	0.0
62	0x00000000	0.0
63	0x00000000	0.0
64	0x00000000	0.0
65	0x00000000	0.0
66	0x00000000	0.0
67	0x00000000	0.0
68	0x00000000	0.0
69	0x00000000	0.0
70	0x00000000	0.0
71	0x00000000	0.0
72	0x00000000	0.0
73	0x00000000	0.0
74	0x00000000	0.0
75	0x00000000	0.0
76	0x00000000	0.0
77	0x00000000	0.0
78	0x00000000	0.0
79	0x00000000	0.0
80	0x00000000	0.0
81	0x00000000	0.0
82	0x00000000	0.0
83	0x00000000	0.0
84	0x00000000	0.0
85	0x00000000	0.0
86	0x00000000	0.0
87	0x00000000	0.0
88	0x00000000	0.0
89	0x00000000	0.0
90	0x00000000	0.0
91	0x00000000	0.0
92	0x00000000	0.0
93	0x00000000	0.0
94	0x00000000	0.0
95	0x00000000	0.0
96	0x00000000	0.0
97	0x00000000	0.0
98	0x00000000	0.0
99	0x00000000	0.0
100	0x00000000	0.0
101	0x00000000	0.0
102	0x00000000	0.0
103	0x00000000	0.0
104	0x00000000	0.0
105	0x00000000	0.0
106	0x00000000	0.0
107	0x00000000	0.0
108	0x00000000	0.0
109	0x00000000	0.0
110	0x00000000	0.0
111	0x00000000	0.0
112	0x00000000	0.0
113	0x00000000	0.0
114	0x00000000	0.0
115	0x00000000	0.0
116	0x00000000	0.0
117	0x00000000	0.0
118	0x00000000	0.0
119	0x00000000	0.0
120	0x00000000	0.0
121	0x00000000	0.0
122	0x00000000	0.0
123	0x00000000	0.0
124	0x00000000	0.0
125	0x00000000	0.0
126	0x00000000	0.0
127	0x00000000	0.0
128	0x00000000	0.0
129	0x00000000	0.0
130	0x00000000	0.0
131	0x00000000	0.0
132	0x00000000	0.0
133	0x00000000	0.0
134	0x00000000	0.0
135	0x00000000	0.0
136	0x00000000	0.0
137	0x00000000	0.0
138	0x00000000	0.0
139	0x00000000	0.0
140	0x00000000	0.0
141	0x00000000	0.0
142	0x00000000	0.0
143	0x00000000	0.0
144	0x00000000	0.0
145	0x00000000	0.0
146	0x00000000	0.0
147	0x00000000	0.0
148	0x00000000	0.0
149	0x00000000	0.0
150	0x00000000	0.0
151	0x00000000	0.0
152	0x00000000	0.0
153	0x00000000	0.0
154	0x00000000	0.0
155	0x00000000	0.0
156	0x00000000	0.0
157	0x00000000	0.0
158	0x00000000	0.0
159	0x00000000	0.0
160	0x00000000	0.0
161	0x00000000	0.0
162	0x00000000	0.0
163	0x00000000	0.0
164	0x00000000	0.0
165	0x00000000	0.0
166	0x00000000	0.0
167	0x00000000	0.0
168	0x00000000	0.0
169	0x00000000	0.0
170	0x00000000	0.0
171	0x00000000	0.0
172	0x00000000	0.0
173	0x00000000	0.0
174	0x00000000	0.0
175	0x00000000	0.0
176	0x00000000	0.0
177	0x00000000	0.0
178	0x00000000	0.0
179	0x00000000	0.0
180	0x00000000	0.0
181	0x00000000	0.0
182	0x00000000	0.0
183	0x00000000	0.0
184	0x00000000	0.0
185	0x00000000	0.0
186	0x00000000	0.0
187	0x00000000	0.0
188	0x00000000	0.0
189	0x00000000	0.0
190	0x00000000	0.0
191	0x00000000	0.0
192	0x00000000	0.0
193	0x00000000	0.0
194	0x00000000	0.0
195	0x00000000	0.0
196	0x00000000	0.0
197	0x00000000	0.0
198	0x00000000	0.0
199	0x00000000	0.0
200	0x00000000	0.0
201	0x00000000	0.0
202	0x00000000	0.0
203	0x00000000	0.0
204	0x00000000	0.0
205	0x00000000	0.0
206	0x00000000	0.0
207	0x00000000	0.0
208	0x00000000	0.0
209	0x00000000	0.0
210	0x00000000	0.0
211	0x00000000	0.0
212	0x00000000	0.0
213	0x00000000	0.0
214	0x00000000	0.0
215	0x00000000	0.0
216	0x00000000	0.0
217	0x00000000	0.0
218	0x00000000	0.0
219	0x00000000	0.0
220	0x00000000	0.0
221	0x00000000	0.0
222	0x00000000	0.0
223	0x00000000	0.0
224	0x00000000	0.0
225	0x00000000	0.0
226	0x00000000	0.0
227	0x00000000	0.0
228	0x00000000	0.0
229	0x00000000	0.0
230	0x00000000	0.0
231	0x00000000	0.0
232	0x00000000	0.0
233	0x00000000	0.0
234	0x00000000	0.0
235	0x00000000	0.0
236	0x00000000	0.0
237	0x00000000	0.0
238	0x00000000	0.0
239	0x00000000	0.0
240	0x00000000	0.0
241	0x00000000	0.0
242	0x00000000	0.0
243	0x00000000	0.0
244	0x00000000	0.0
245	0x00000000	0.0
246	0x00000000	0.0
247	0x00000000	0.0
248	0x00000000	0.0
249	0x00000000	0.0
250	0x00000000	0.0
251	0x00000000	0.0
252	0x00000000	0.0
253	0x00000000	0.0
254	0x00000000	0.0
255	0x00000000	0.0

encoder.lstm.weight_ih_l0 f4 [128, 4]
0	0x3fe7fbde	1.8123739
1	0x3ef6ce8d	0.4820446
2	0x3ff441e3	1.9082607
3	0xbfaa2a41	-1.3294145
4	0x3fe0f584	1.7574925
5	0xbfb44fd0	-1.4086857
6	0xbd85688a	-0.0651408
7	0xc00aad2d	-2.1668198
8	0x3f290a74	0.66031575
9	0x4015d401	2.3410647
10	0xbefe8672	-0.4971195
11	0xbff45b4a	-1.9090359
12	0x3f770c53	0.9650318
13	0x3f843e90	1.0331593
14	0xbd9aa8b2	-0.07551707
15	0xbf8f2b52	-1.1185095
16	0xbebb7417	-0.36612007
17	0xbf53a8b5	-0.826793
18	0x3eeeb38a	0.46621352
19	0x3f45c99d	0.7726076
20	0xbfc922b9	-1.5713722
21	0x3eeb8690	0.460011
22	0x3e8331d4	0.25623953
23	0xbea54c7c	-0.32284915
24	0x3fdf11d9	1.7427322
25	0x3f0a1220	0.53933907
26	0xbf801967	-1.0007752
27	0x3ec451b5	0.38343588
28	0x3f30d2eb	0.69071835
29	0x3ba62da9	0.005071361
30	0x3f8bf4b2	1.093405
31	0x3e46c48f	0.19410919
32	0x3fa4115e	1.28178
33	0x3e3befc4	0.18353182
34	0xbe71bcbc	-0.23607153
35	0x3f6f217a	0.93410456
36	0x3e2b3fb5	0.16723521
37	0xbed13477	-0.4086034
38	0x4048e84f	3.139179
39	0xbe347f2b	-0.17626636
40	0xbf687b60	-0.90813255
41	0x3fb8a47c	1.4425197
42	0x3e85ff50	0.2617135
43	0xbe8af1fd	-0.27137747
44	0x3ec179e0	0.37788296
45	0xbe53849d	-0.20656057
46	0x3feec89e	1.8654974
47	0x3c15240b	0.009102832
48	0x3f89428f	1.0723437
49	0xbfa4a88f	-1.286394
50	0xbfbc41de	-1.4707601
51	0x4073b2dd	3.807792
52	0xbde0fa9c	-0.109853
53	0xbfd95f45	-1.6982199
54	0x3f607b87	0.8768849
55	0x3fabf185	1.3433081
56	0x3fa0951e	1.2545507
57	0x3e7257d8	0.23666322
58	0xbea17389	-0.3153346
59	0x3f92fc64	1.1483274
60	0x3f6cfd0f	0.92573637
61	0xbf003818	-0.5008559
62	0x3ec4b43c	0.38418758
63	0x3fa96657	1.3234357
64	0xbeacea6e	-0.33772606
65	0xbf937db4	-1.1522737
66	0x3f5f409e	0.87207973
67	0x3f5209f8	0.8204646
68	0x3fc27d14	1.5194421
69	0xbeb73722	-0.3578425
70	0x3e48559d	0.19563909
71	0xbe1274aa	-0.14302316
72	0x3f846958	1.0344648
73	0xc03d4346	-2.957231
74	0xbc311a33	-0.010809469
75	0x3f2f592b	0.68495435
76	0x3f239ce8	0.63911295
77	0xbf6c2e77	-0.922584
78	0x3f2c3940	0.67274857
79	0x4086fb0f	4.218147
80	0x3d2d6f7a	0.04234264
81	0xbf2aa206	-0.6665348
82	0x3f879b66	1.0594299
83	0x3fa4c68e	1.2873094
84	0x3fc950e5	1.5727812
85	0x3f483f9f	0.7822208
86	0x3f15192b	0.5824153
87	0x3faacb05	1.3343207
88	0x3f89c25a	1.0762436
89	0xbef876dd	-0.48528185
90	0x3f8abce8	1.08389
91	0xbffd5266	-1.9790771
92	0x3f2b48c2	0.66907895
93	0x3fb4b449	1.4117519
94	0x3f95e59e	1.1710699
95	0xbf86fee3	-1.0546535
96	0x401fbc63	2.4958732
97	0x3f138bae	0.5763501
98	0xbfeeaf12	-1.8647177
99	0x3f9b41d2	1.2129462
100	0xbf96d0a7	-1.1782426
101	0x400dd28f	2.2159765
102	0x3c9687c2	0.018375281
103	0x3f33fcfc	0.703079
104	0xbecd4cd9	-0.40097693
105	0xbfafaeb1	-1.3725187
106	0x3fcc9edb	1.5985979
107	0x40360b74	2.844449
108	0x406c82a6	3.6954741
109	0x3fadafd3	1.3569282
110	0xbf9d6768	-1.2297182
111	0x3fd98e18	1.6996489
112	0x3dc16753	0.09443536
113	0x4031f708	2.7807026
114	0x3d9a7988	0.075427115
115	0xbe3ed26b	-0.18634956
116	0xbf463df6	-0.77438295
117	0x3e9bb8fe	0.30414575
118	0x3fc646d5	1.5490366
119	0xbf9ed32e	-1.2408197
120	0x3f831040	1.0239334
121	0x3f9a66c1	1.2062608
122	0xbf926e0d	-1.1439835
123	0xbf0821b5	-0.5317643
124	0x3f7184bc	0.9434316
125	0x3fb07410	1.378542
126	0xbf8e105b	-1.1098741
127	0xbec7a4ec	-0.38993013
128	0xbe8d548a	-0.2760356
129	0x3f2eef50	0.6833391
130	0xbed55970	-0.41669798
131	0x3f2a8ce4	0.6662123
132	0xbef634ab	-0.48087057
133	0x3fd171fe	1.6362913
134	0xbf6731a8	-0.90310144
135	0x40cebfad	6.460898
136	0x3eeac824	0.4585582
137	0xc009cc4f	-2.153095
138	0x3fe37283	1.7769321
139	0x3efb2d18	0.4905784
140	0x3fbcff8c	1.4765487
141	0xbf8f87b4	-1.1213288
142	0x3f95ffa8	1.1718645
143	0x3e942490	0.28934145
144	0x3ec0558d	0.3756527
145	0x3f591d82	0.8481065
146	0xbfb0f124	-1.382359
147	0x3ed29d57	0.41135666
148	0xbf4b51e0	-0.79421806
149	0x400f5542	2.2395787
150	0x4028f250	2.6397896
151	0x402467e8	2.568842
152	0x3e4ddfbc	0.20104879
153	0xbe1b73d6	-0.15180907
154	0x3fe10f4b	1.7582792
155	0x3ea0e593	0.3142515
156	0x3ebe57e2	0.37176424
157	0x3f9346f3	1.1506027
158	0x3ec7c76a	0.39019328
159	0xbf9e8bb0	-1.2386379
160	0xbf39e769	-0.7261873
161	0xbf77c114	-0.9677899
162	0x3f650001	0.8945313
163	0xc026586b	-2.5991466
164	0x3c856491	0.016283305
165	0x3f892b83	1.0716404
166	0x3f6936ea	0.9109942
167	0xbf2b1877	-0.66834205
168	0xc01c691c	-2.4439154
169	0x3d0058f6	0.03133484
170	0x3fc8bb6d	1.5682198
171	0x3f823f13	1.0175499
172	0x403f88c9	2.9927237
173	0xbf66cace	-0.90153205
174	0x3fb9cddc	1.4515948
175	0xbf44c1c1	-0.76858145
176	0x3fe4be8d	1.7870651
177	0xbf19f18e	-0.6013421
178	0x3f2901ff	0.6601867
179	0xbf981f87	-1.1884621
180	0xbf1a2583	-0.6021349
181	0x3ade281c	0.0016949209
182	0x3f492f26	0.7858757
183	0x3d8f42e3	0.069951795
184	0xbffb0e8e	-1.9613817
185	0x3f9be7e2	1.218014
186	0xbfc94f71	-1.5727369
187	0x3f89be5a	1.0761216
188	0xbf509adf	-0.81486315
189	0x3f578f29	0.8420282
190	0x3f3620cd	0.711438
191	0xbf268a86	-0.6505512
192	0x3e87a6b3	0.2649437
193	0x3f1dbdde	0.6161784
194	0x3e57c939	0.21072854
195	0xbfa441d1	-1.2832586
196	0x3e2aaade	0.16666743
197	0x3ee2ce01	0.44297794
198	0xbfae1aca	-1.3601925
199	0x403288bc	2.7895956
200	0x4033134f	2.7980535
201	0x401d2df9	2.455931
202	0x4005594a	2.0835748
203	0xbf51fc3e	-0.82025516
204	0xc0198c61	-2.399193
205	0xc006e6d2	-2.1078382
206	0xbe6b18b9	-0.2295865
207	0x3fffb361	1.9976617
208	0x3eed37aa	0.4633153
209	0xbf8ce9e4	-1.1008878
210	0xbf7edcc9	-0.9955564
211	0x3f5e8553	0.86922187
212	0xbf52a072	-0.8227607
213	0x3fd74676	1.6818378
214	0x3f61bf6f	0.8818273
215	0xbfd56f8c	-1.6674666
216	0x405a62ce	3.4122806
217	0xbf460428	-0.7735009
218	0x403496d6	2.8217063
219	0xbf8e2bf0	-1.1107159
220	0xc0062c99	-2.096472
221	0xbfae1459	-1.359996
222	0xbec1922e	-0.3780684
223	0x3fb1f988	1.3904276
224	0xbfc5337c	-1.5406337
225	0xbfaa8d35	-1.3324343
226	0x400372b4	2.053876
227	0xbf8e118f	-1.1099108
228	0xbf82105a	-1.016124
229	0x3ed45ea9	0.4147847
230	0x4008c033	2.136731
231	0x3f4595a3	0.7718145
232	0x405344ad	3.3010666
233	0x3f531b94	0.82463956
234	0x400696a8	2.1029453
235	0xc003d553	-2.0598953
236	0xbf3cd7ec	-0.7376697
237	0x3f0a309b	0.53980416
238	0xbe1d8cd6	-0.15385756
239	0xbfa665a7	-1.2999772
240	0xc008490c	-2.1294584
241	0xbfc5e8c0	-1.5461655
242	0xbf1490f7	-0.580337
243	0x3fba63af	1.4561671
244	0x3ef13a0d	0.47114602
245	0x3f34b98d	0.7059563
246	0xbeb392f2	-0.35073048
247	0x3fafc877	1.3733052
248	0xbf68be73	-0.909156
249	0x3e746fbb	0.23870747
250	0x3ee76d0e	0.4520039
251	0x4072f377	3.79611
252	0x3f958030	1.1679745
253	0xbf3caea1	-0.7370396
254	0xbc7936ea	-0.015210846
255	0xbf0b7620	-0.5447712

encoder.lstm.weight_hh_l0 f4 [128, 32]
0	0xbefa873d	-0.48931304
1	0x3f0a5986	0.5404285
2	0xbe641277	-0.22272669
3	0x3bedab84	0.0072531123
4	0xbf2f7082	-0.6853105
5	0xbdd74511	-0.1051122
6	0x3f580b4b	0.8439223
7	0xbf95fdaf	-1.1718043
8	0xbe546fff	-0.20745848
9	0x3f936c78	1.1517477
10	0x3e18cdde	0.14922282
11	0xbe6ccbfd	-0.2312469
12	0x3f1c5872	0.61072457
13	0x3f03db51	0.51506525
14	0xbf827135	-1.0190798
15	0xbef91262	-0.48646837
16	0x3e74655a	0.23866788
17	0xbdb9b97b	-0.09068581
18	0xbf2bfc0e	-0.6718148
19	0xbf03a0fc	-0.5141752
20	0xbf467878	-0.7752757
21	0xbfd93897	-1.6970395
22	0x3e96a416	0.29422063
23	0xbe96b325	-0.2943355
24	0xbecbdcef	-0.39816996
25	0x3e4bf610	0.19918084
26	0xbd835b5b	-0.06413909
27	0x3ed68961	0.41901687
28	0x3e9b0538	0.3027742
29	0xbf92560a	-1.1432507
30	0x3c3a285f	0.011362164
31	0xbf43fe26	-0.76559675
32	0x3f77825e	0.966833
33	0x3d9118f4	0.070848376
34	0xbfc23817	-1.5173367
35	0xbd8156f2	-0.063154116
36	0x3ffac00b	1.9589857
37	0xbf99f6d9	-1.2028457
38	0xbf2db313	-0.6785137
39	0xbfbad8b5	-1.4597384
40	0xbddf42d7	-0.109014206
41	0x3f8d18e9	1.1023227
42	0x3de9fd29	0.114252396
43	0x3ffa02fc	1.9532161
44	0x3f0f59f7	0.5599665
45	0x3e26f83f	0.16305636
46	0xbe50f331	-0.2040527
47	0xbb83e261	-0.004024789
48	0xbe918628	-0.28422666
49	0xbf8854ae	-1.0650842
50	0xbe78c069	-0.24292149
51	0x3f5d2f2d	0.8640011
52	0x3fffb090	1.9975758
53	0xbfc8762f	-1.5661067
54	0xbf4ddf0a	-0.80418456
55	0x3eb8fe32	0.36131436
56	0xbf526fb4	-0.82201695
57	0x4020ef71	2.5146143
58	0xbe901133	-0.28138122
59	0x3ee59a40	0.44844246
60	0xbdc70e4b	-0.09719523
61	0x3f821d01	1.0165101
62	0x3d65064c	0.05591421
63	0x3ee9fcd3	0.45700702
64	0xbed6b670	-0.41936064
65	0xbeb42f3f	-0.35192296
66	0xbd189429	-0.03725067
67	0x3f06aee8	0.52610636
68	0xbdefc902	-0.11708261
69	0x3cd90f69	0.026496606
70	0xbef6f057	-0.4823024
71	0xbf025b24	-0.5092032
72	0x3f71a068	0.94385386
73	0x3c3cd887	0.0115262335
74	0xbf6b3920	-0.9188404
75	0xbf81e844	-1.0149007
76	0x3f21fc7a	0.63275874
77	0x3e53025a	0.20606366
78	0x3e3a9109	0.18219389
79	0x3e7b4482	0.24537852
80	0x3f26f54f	0.6521806
81	0x3f2e2a41	0.68033224
82	0xbec9278a	-0.39287978
83	0x3fd8d39a	1.6939576
84	0xbe31290d	-0.17300816
85	0x3f40c88e	0.7530602
86	0x3f76057b	0.9610211
87	0xbfee567a	-1.862014
88	0xbfb0a4e9	-1.3800327
89	0xbdc47e8d	-0.0959445
90	0x3dd6e506	0.104929015
91	0xbec7235e	-0.3889417
92	0xbdb960c5	-0.090516604
93	0xbf339c49	-0.7016035
94	0x3ee27bdb	0.4423512
95	0x3f49c84d	0.7882126
96	0xbdb2151c	-0.086954325
97	0xbc5624f2	-0.013070332
98	0x3ee5d37e	0.44887918
99	0xbf2d6fe6	-0.6774887
100	0xbeb28d01	-0.34873202
101	0x3f7dc379	0.9912639
102	0xbe14fb9b	-0.14549105
103	0x3dfe7dc9	0.12426335
104	0xbc30bfc4	-0.010787908
105	0xbf39b4e4	-0.7254164
106	0xbe6e6cf9	-0.23283757
107	0xbe2c5910	-0.1683085
108	0xbe926597	-0.28593132
109	0xbe1eec6f	-0.1551988
110	0x3fbc4a59	1.4710189
111	0x3e9fbb49	0.31197575
112	0xbf2c9d27	-0.67427295
113	0xbce677dc	-0.028133325
114	0xbfcc915d	-1.5981861
115	0xbf81480f	-1.0100116
116	0xbb0ede39	-0.0021799935
117	0x3e92ba0b	0.28657565
118	0x3d2d0344	0.042239442
119	0xbdfae84d	-0.12251339
120	0x3f9cbcd7	1.2245129
121	0x3eaaa998	0.33332515
122	0xbb810940	-0.0039378703
123	0x3ed0c6eb	0.40776762
124	0xbf20203e	-0.625492
125	0x3ebde97c	0.37092197
126	0x3d771df5	0.060331304
127	0xbe2b914b	-0.16754644
128	0x3f3b5e5c	0.73190856
129	0x3e5c0b38	0.21488655
130	0x3e870ab7	0.26375362
131	0xbf43928a	-0.76395476
132	0xbe6bc45d	-0.23024125
133	0xbe0bec6f	-0.13664411
134	0x3f8a50c7	1.0805901
135	0x3facccbd	1.3499981
136	0xbdc251b1	-0.09488238
137	0xbf9d57e6	-1.229245
138	0xbfb3ebb3	-1.4056305
139	0xbcaa693c	-0.020802133
140	0x3e893d6b	0.2680467
141	0x3dd422aa	0.10358174
142	0x3eb6b4b6	0.35684747
143	0x3f3917be	0.7230185
144	0x3fc47cb8	1.5350561
145	0x3e2d85f1	0.16945626
146	0x3ccde0bf	0.025131581
147	0x3f0136a3	0.50473994
148	0x3e8fa33f	0.28054234
149	0xbf59d77d	-0.85094434
150	0x3ed3d005	0.41369644
151	0x3f8313b0	1.0240383
152	0xbf534014	-0.8251965
153	0x3e435234	0.19074327
154	0xbe1b10ac	-0.15143079
155	0xbe3d9791	-0.18514849
156	0x3f038a4d	0.51382905
157	0x3f9a45fe	1.205261
158	0xbd7b7c95	-0.061398108
159	0xbeec998f	-0.46210906
160	0xbe604f19	-0.21905173
161	0xbf80b900	-1.0056458
162	0x3d3da201	0.046297077
163	0xbf3489c7	-0.7052273
164	0xbebe9766	-0.37224883
165	0xbf221edb	-0.6332833
166	0x3f99c16e	1.2012155
167	0xbf8323b3	-1.024527
168	0x3eb0126c	0.34389055
169	0x3e936789	0.2878993
170	0x3ecef7cd	0.40423432
171	0x3e18d036	0.14923176
172	0xbbab6ca9	-0.005231459
173	0xbfccdd73	-1.6005081
174	0x4024b2e5	2.5734189
175	0xbe9d4e70	-0.30723906
176	0x3e5a9cb1	0.21348836
177	0x3f621803	0.8831789
178	0x3e3b6584	0.18300444
179	0x3f36c4a1	0.7139378
180	0xbeae9b79	-0.3410299
181	0x3f52dc11	0.82367045
182	0x40141b30	2.3141594
183	0xbf85a979	-1.0442344
184	0x3e3321cb	0.1749336
185	0xbec9a701	-0.39385226
186	0xbeada4af	-0.33914706
187	0xbfa90088	-1.3203287
188	0x3f179380	0.5920944
189	0xbfb7ff82	-1.437485
190	0x3f0904a8	0.5352273
191	0x3fbe4284	1.4864049
192	0x3e3fbaca	0.18723598
193	0xbfa03437	-1.2515935
194	0x3cb5c9dd	0.022190982
195	0xbf6d6f74	-0.9274819
196	0xbe12ac34	-0.14323503
197	0xbc93b1c3	-0.0180291
198	0x3e26a951	0.16275527
199	0x3e23a953	0.15982561
200	0x3f3e385b	0.7430474
201	0x3f17087b	0.58997315
202	0x3e7571d9	0.2396921
203	0xbfd95953	-1.6980385
204	0x3facdf9f	1.3505744
205	0xbec53e66	-0.3852417
206	0x3f55a50c	0.83454967
207	0xbf4beae2	-0.7965528
208	0xbe96310f	-0.29334304
209	0x3f20eeae	0.62864196
210	0x392569de	0.00015775065
211	0x3f70c685	0.94052917
212	0x3e39f6aa	0.18160501
213	0x40068a83	2.102204
214	0x3f2c0543	0.6719553
215	0x3dd89a59	0.105763145
216	0xbe8523e4	-0.26003945
217	0xbf13a456	-0.5767263
218	0x3f348896	0.70520914
219	0x3f757efa	0.95896876
220	0xbe4c41f2	-0.19947031
221	0xba36e27b	-0.0006976497
222	0xbad11ddd	-0.0015954335
223	0x3f7d4b69	0.9894319
224	0xbf966e1c	-1.1752353
225	0x3f4ed6d4	0.8079655
226	0x3ad501f7	0.0016251196
227	0xbeee7fef	-0.4658198
228	0xbcd74f5b	-0.026282957
229	0x3f8ea2f5	1.114348
230	0xbe1bfd7d	-0.15233417
231	0x3e833e95	0.25633684
232	0xbd9bc7f3	-0.07606497
233	0xbfc35717	-1.5260953
234	0x3c75036c	0.014954429
235	0xbbc70f0f	-0.006074793
236	0xbf51d802	-0.81970227
237	0xbfe048f0	-1.7522259
238	0x3f8338c2	1.0251696
239	0xbfb1a032	-1.3877013
240	0x3e9fbe3f	0.31199834
241	0x3e355705	0.17708977
242	0xbf164e2f	-0.5871305
243	0x3e1d0ed8	0.15337694
244	0xbefa99aa	-0.4894536
245	0xbdc1a30e	-0.09454928
246	0x3f1be3e9	0.6089464
247	0x3f96a8db	1.1770281
248	0x3de2c8ac	0.110734314
249	0x3ee7c4dc	0.4526738
250	0x3e7b3a59	0.24533977
251	0xbd00cf43	-0.03144766
252	0x3d00f661	0.031484965
253	0x3f8f8d3d	1.1214978
254	0xbf040e0e	-0.51583946
255	0x3e77472e	0.24148247

encoder.lstm.bias_ih_l0 f4 [128]
0	0x3e9c7436	0.30557412
1	0xbd9821ac	-0.074282974
2	0x3e04eba0	0.12980509
3	0x3ea2a29a	0.3176468
4	0x3f117e8a	0.5683371
5	0x3e3a6f4c	0.18206519
6	0x3f1815ee	0.5940846
7	0x3f005c96	0.50141275
8	0x3ed966a2	0.42461115
9	0x3e4b4f62	0.19854501
10	0x3e88a1d0	0.26685953
11	0x3f436312	0.76323044
12	0xbd87a741	-0.06623698
13	0x3db87e67	0.09008484
14	0x3f012df0	0.5046072
15	0x3e1fdd35	0.15611728
16	0x3e2cebd6	0.1688684
17	0x3f151d97	0.58248276
18	0x3e326732	0.17422178
19	0x3efb044b	0.49026713
20	0x3e0a6362	0.13514474
21	0x3eba3702	0.36370093
22	0x3dbe9d23	0.09307315
23	0x3ea08f1e	0.3135919
24	0xbcee0643	-0.02905572
25	0xbdb695c8	-0.08915287
26	0x3ef0ad4b	0.47007212
27	0xbea6a1fb	-0.32545456
28	0xbd610c0d	-0.054943133
29	0xbd129189	-0.035783324
30	0x3db36465	0.08759383
31	0x3e730170	0.23731017
32	0xbe0fd361	-0.14045478
33	0x3e97563e	0.29557985
34	0x3e6cf3f7	0.2313994
35	0x3d78378c	0.06059985
36	0x3dc584ca	0.09644468
37	0x3e0102cd	0.12598725
38	0x3ea7e65a	0.32792932
39	0x3d7a1bb8	0.06106159
40	0x3eccdae0	0.40010738
41	0xbe08e6af	-0.13369249
42	0xbe9a2c18	-0.30111766
43	0xbdca6282	-0.0988207
44	0xbeac0958	-0.3360088
45	0x3e504303	0.20338063
46	0xbd6cbf73	-0.057799768
47	0x3d6a2adf	0.05716979
48	0xbe965fb0	-0.2936988
49	0xbeaaab09	-0.33333614
50	0x3f310171	0.69142824
51	0xbcec5e10	-0.028853446
52	0xbea417aa	-0.32049304
53	0xbd1d81b4	-0.038453773
54	0x3ce4ae80	0.02791524
55	0xbefedfb3	-0.49780044
56	0xbef3ff1a	-0.47655565
57	0x3e291ac5	0.16514118
58	0x3e762d23	0.24040656
59	0xbf3824b5	-0.7193101
60	0xbe2d3bad	-0.16917296
61	0x3b6b69f0	0.0035921298
62	0x3e304ff2	0.17217997
63	0xbe75bd57	-0.23998009
64	0xbd246457	-0.040134754
65	0x3e52ca20	0.20584917
66	0xbe4cd450	-0.20002866
67	0xbc335a89	-0.010946878
68	0xbde1ab40	-0.110189915
69	0x3e90f402	0.28311163
70	0xbe1e10b6	-0.15436062
71	0xbd153fe6	-0.03643789
72	0xbe3cc63b	-0.18434994
73	0x3db672c1	0.08908606
74	0x3d8e8289	0.06958491
75	0xbe31ac2e	-0.17350838
76	0xbeb5228a	-0.35377914
77	0xbf3ac5e0	-0.72958183
78	0x3e7b906f	0.24566816
79	0x3ea597fb	0.32342514
80	0x3ebbe1b1	0.36695626
81	0xbdef7e74	-0.11694041
82	0xbeda8a08	-0.42683434
83	0x3dfc7a3e	0.12328003
84	0xbed143a0	-0.40871906
85	0xbebabe7e	-0.3647346
86	0x3ca78acf	0.020451931
87	0x3ea73f55	0.32665506
88	0x3db926ce	0.090406045
89	0x3e70f578	0.23531139
90	0xbe95966d	-0.29216328
91	0xbd91efb3	-0.07125797
92	0xbc6390d3	-0.013889509
93	0xbe2e10d4	-0.16998607
94	0x39cdbd2a	0.00039241585
95	0xbc2686c2	-0.010163965
96	0x3e4d33a1	0.20039226
97	0x3e627314	0.22114211
98	0x3f0539da	0.520414
99	0x3d7e8359	0.06213698
100	0x3e8dbad8	0.27681613
101	0xbdfdc567	-0.12391167
102	0xbe8f6db6	-0.2801339
103	0x3e5dd70e	0.21664068
104	0x3dd1ba52	0.10240616
105	0x3de78368	0.11304361
106	0x3d2b5772	0.04183144
107	0x3e4c56c6	0.19954976
108	0x3ea5ca95	0.3238112
109	0x3e3612f6	0.1778067
110	0x3e57ef59	0.21087398
111	0x3e7a8cd0	0.24467778
112	0x3e3fcc6e	0.18730327
113	0x3e76400e	0.24047872
114	0x3ee10be8	0.43954396
115	0x3e0a763c	0.13521665
116	0xbeb00b71	-0.3438373
117	0x3e8816ae	0.26579803
118	0x3e193d5a	0.1496481
119	0x3f759e4d	0.9594467
120	0x3e34eea6	0.17669162
121	0x3dc1d29e	0.09464
122	0x3e7ee5ae	0.24892303
123	0x3de46541	0.11152125
124	0x3eaa0304	0.33205426
125	0x3f04622b	0.5171229
126	0x3ed559bd	0.41670027
127	0x3e01a5ae	0.12660858

encoder.lstm.bias_hh_l0 f4 [128]
0	0x3e9c7432	0.305574
1	0xbd981887	-0.07426553
2	0x3e04e74a	0.12978855
3	0x3ea2a219	0.31764296
4	0x3f117d72	0.5683204
5	0x3e3a6efb	0.18206398
6	0x3f18144d	0.59405977
7	0x3f005b23	0.50139064
8	0x3ed968af	0.4246268
9	0x3e4b4d45	0.19853695
10	0x3e889f4f	0.26684043
11	0x3f4363b5	0.76324016
12	0xbd8792c1	-0.06619788
13	0x3db887e7	0.09010296
14	0x3f012e5c	0.50461364
15	0x3e1fddf7	0.15612017
16	0x3e2cebcd	0.16886826
17	0x3f151f8b	0.58251256
18	0x3e32625b	0.17420332
19	0x3efb027e	0.4902534
20	0x3e0a6ad5	0.13517316
21	0x3eba385d	0.36371127
22	0x3dbea370	0.09308517
23	0x3ea08d40	0.31357765
24	0xbcedd704	-0.029033192
25	0xbdb69371	-0.08914841
26	0x3ef0aa0c	0.47004735
27	0xbea6a08f	-0.3254437
28	0xbd611380	-0.054950237
29	0xbd12b3a3	-0.035815846
30	0x3db354d3	0.08756413
31	0x3e72ffc7	0.23730384
32	0xbe0fcdd6	-0.14043364
33	0x3e975602	0.29557806
34	0x3e6cf812	0.23141506
35	0x3d783cc9	0.060604844
36	0x3dc58643	0.09644749
37	0x3e01028f	0.12598632
38	0x3ea7e2aa	0.32790118
39	0x3d7a1e08	0.061063796
40	0x3eccdb25	0.40010944
41	0xbe08e5f9	-0.13368978
42	0xbe9a2b07	-0.30110952
43	0xbdca6a64	-0.09883574
44	0xbeac07c5	-0.33599678
45	0x3e50393b	0.20334332
46	0xbd6cbd13	-0.057797503
47	0x3d6a2dc1	0.05717254
48	0xbe965dff	-0.29368588
49	0xbeaaa9e9	-0.33332756
50	0x3f31026a	0.6914431
51	0xbcec7f9f	-0.028869448
52	0xbea41605	-0.3204805
53	0xbd1d74b0	-0.03844136
54	0x3ce46667	0.02788086
55	0xbefee11a	-0.49781114
56	0xbef3fe63	-0.4765502
57	0x3e291de9	0.16515316
58	0x3e762ef2	0.24041346
59	0xbf38256f	-0.7193212
60	0xbe2d367b	-0.16915314
61	0x3b6b11f5	0.0035868858
62	0x3e305395	0.17219384
63	0xbe75be20	-0.23998308
64	0xbd24634a	-0.040133752
65	0x3e52c4c0	0.20582867
66	0xbe4cce63	-0.20000605
67	0xbc335b65	-0.010947083
68	0xbde1aab4	-0.11018887
69	0x3e90f081	0.2830849
70	0xbe1e11e4	-0.15436512
71	0xbd152fcf	-0.036422547
72	0xbe3cc189	-0.18433203
73	0x3db6754e	0.08909093
74	0x3d8e7470	0.069558024
75	0xbe31b329	-0.173535
76	0xbeb5212a	-0.35376865
77	0xbf3ac6bb	-0.7295949
78	0x3e7b95ed	0.24568911
79	0x3ea59647	0.32341215
80	0x3ebbe1b3	0.36695632
81	0xbdef7e74	-0.11694041
82	0xbeda8c2f	-0.42685077
83	0x3dfc8362	0.12329747
84	0xbed14797	-0.4087493
85	0xbebabfd5	-0.3647448
86	0x3ca78353	0.020448362
87	0x3ea73f9a	0.32665712
88	0x3db91d80	0.0903883
89	0x3e70f682	0.23531535
90	0xbe959471	-0.29214814
91	0xbd91f755	-0.07127253
92	0xbc639912	-0.013891475
93	0xbe2e0dff	-0.16997527
94	0x39c98f7a	0.00038444606
95	0xbc264c87	-0.0101500815
96	0x3e4d395a	0.20041409
97	0x3e62703d	0.22113128
98	0x3f053acb	0.52042836
99	0x3d7e915d	0.062150348
100	0x3e8dbdc2	0.27683836
101	0xbdfdd2e1	-0.123937376
102	0xbe8f6d84	-0.2801324
103	0x3e5dd435	0.21662982
104	0x3dd1b00a	0.10238655
105	0x3de78abe	0.1130576
106	0x3d2b529a	0.041826822
107	0x3e4c511b	0.19952814
108	0x3ea5cae5	0.3238136
109	0x3e36151c	0.1778149
110	0x3e57ed3d	0.21086593
111	0x3e7a8de8	0.24468195
112	0x3e3fcc89	0.18730368
113	0x3e7643b1	0.2404926
114	0x3ee10b11	0.43953755
115	0x3e0a75b4	0.13521463
116	0xbeb00985	-0.34382263
117	0x3e8813ee	0.26577705
118	0x3e194214	0.14966613
119	0x3f759e92	0.95945084
120	0x3e34ec11	0.17668177
121	0x3dc1daed	0.09465585
122	0x3e7ee9a7	0.24893819
123	0x3de46d33	0.111536406
124	0x3ea9ffde	0.33203024
125	0x3f04633c	0.5171392
126	0x3ed5566e	0.41667503
127	0x3e01a11a	0.12659112

decoder.lstm.weight_ih_l0 f4 [128, 5]
0	0x3f9caa2c	1.2239432
1	0xbedaea96	-0.427571
2	0xbea5a601	-0.32353213
3	0xbf2c187a	-0.6722485
4	0xbf1f7c30	-0.6229887
5	0x3e5ea046	0.21740827
6	0xbb84840d	-0.004044062
7	0xbf277e7b	-0.6542737
8	0xbf815fb5	-1.0107332
9	0x3ec960f7	0.3933179
10	0x400d4bdc	2.207755
11	0xbebf18d5	-0.37323633
12	0xbee073b5	-0.43838277
13	0xbeba1521	-0.36344245
14	0xbebb8d28	-0.3663113
15	0x3d6e362b	0.058157127
16	0xbd60648d	-0.054783393
17	0x3fc9ca78	1.5764914
18	0x4010226d	2.2521012
19	0xbfb63e83	-1.4237827
20	0xbe310890	-0.17288423
21	0xbe96a9a7	-0.2942631
22	0x3e2c96c9	0.16854395
23	0x3d8fb57b	0.070170365
24	0x3e8e2eae	0.2776999
25	0xbb9bb4c7	-0.004751775
26	0x3bafa9b4	0.0053608064
27	0x3ddfdf1b	0.10931226
28	0xbe817cba	-0.2529047
29	0x3d9ace2c	0.075588554
30	0xbe59424e	-0.212167
31	0x3ece9030	0.4034438
32	0x3f34d964	0.7064421
33	0xbfc02dff	-1.5014037
34	0xbe0cbc47	-0.13743697
35	0xbe80cfa3	-0.25158414
36	0x3e88eac3	0.2674161
37	0xbfab322b	-1.3374685
38	0xbe26f4ca	-0.16304317
39	0xbf5275ac	-0.82210803
40	0xbec3a396	-0.38210744
41	0xbf85bf95	-1.0449091
42	0x3e5e676e	0.21719143
43	0xbe6b1795	-0.22958215
44	0xbe8837bc	-0.26605022
45	0x3dd74b04	0.10512355
46	0xbeb0a9c1	-0.34504512
47	0x3d290f4d	0.041274358
48	0x3e416fea	0.18890348
49	0x3ef4b7f7	0.47796604
50	0xbd0d2a93	-0.03446443
51	0xbddb3763	-0.107039236
52	0xbf2a810c	-0.6660316
53	0x3f167a83	0.5878069
54	0xbea1142f	-0.3146071
55	0xbe6f284d	-0.23355217
56	0x3f85b352	1.0445349
57	0xbc3ab330	-0.011395261
58	0xbf329772	-0.6976234
59	0x3f1097a9	0.56481415
60	0xbe10e866	-0.14151153
61	0xbee26dcc	-0.44224393
62	0x3da002aa	0.07813008
63	0xbe0e324a	-0.13886371
64	0x3f6cdf1b	0.9252793
65	0xbe386fd5	-0.1801141
66	0x3f95bbe0	1.169796
67	0xbf839565	-1.0279967
68	0x3f0191fb	0.50613374
69	0xbfe5ad58	-1.7943525
70	0xbcbabcb3	-0.022795057
71	0xbeea2fca	-0.45739585
72	0xbeec66ef	-0.46172282
73	0xbec00ec3	-0.37511262
74	0xbea96056	-0.3308131
75	0x3ebda5c2	0.37040526
76	0x3d974476	0.07386105
77	0xbeb0e8c4	-0.34552586
78	0x3e0925d8	0.13393342
79	0xbef6dc1a	-0.482148
80	0xbe0b90f8	-0.1362952
81	0x40257808	2.5854511
82	0xbf575b68	-0.8412385
83	0x3f0f63fc	0.5601194
84	0xbf7bdd65	-0.98384696
85	0x3cfed5cd	0.031107808
86	0x40b9ee79	5.8103604
87	0x3f00c43f	0.5029945
88	0x3e3ce764	0.18447644
89	0xbfc43008	-1.5327158
90	0x3efda832	0.49542385
91	0xbdcc847f	-0.09986209
92	0x3deaff08	0.114744246
93	0x3de8bb1c	0.11363813
94	0x3b59a8fa	0.003321229
95	0xbe0c8917	-0.1372417
96	0x40052fa3	2.0810325
97	0x40307250	2.756977
98	0xbfb1593a	-1.3855355
99	0xbf102386	-0.56304204
100	0xbd976b44	-0.07393506
101	0xbf5caa48	-0.8619733
102	0xbe0fa7bc	-0.1402883
103	0xbf8d0114	-1.1015954
104	0x3fdbe1ef	1.7178324
105	0x3d92d537	0.07169574
106	0x3edc2287	0.42995092
107	0xbf43a86f	-0.76428884
108	0xbf671007	-0.9025883
109	0x3e838f4f	0.25695273
110	0x3e7a8e76	0.24468407
111	0x3f1684ec	0.5879657
112	0x3fb4e3b2	1.4131987
113	0xbeb42dd2	-0.35191208
114	0xbe5af147	-0.21381103
115	0xbe2d2810	-0.16909814
116	0xbf2e18ca	-0.68006575
117	0xbe0c7fe9	-0.13720669
118	0xbee0ad62	-0.4388228
119	0x3f3893ff	0.72100824
120	0xbcae7a14	-0.021298446
121	0xbf53136b	-0.82451504
122	0xbf3324b8	-0.69977903
123	0x3ef01f7c	0.4689902
124	0xbe48d999	-0.19614257
125	0xbe102762	-0.14077523
126	0xbe80b52c	-0.25138223
127	0x3f7c3bf1	0.98528963
128	0xbdd6c958	-0.10487622
129	0xbf711bb9	-0.94182926
130	0x3d76d870	0.060265005
131	0x3f90c517	1.1310147
132	0x3d8862c3	0.06659462
133	0xbe9a2501	-0.30106357
134	0xbfcde79d	-1.6086308
135	0x3e70a08e	0.23498747
136	0x3e221b49	0.15830721
137	0x3e3e7848	0.18600571
138	0x3e77a7c8	0.24185097
139	0x3d7b9a42	0.06142641
140	0xbdc464f0	-0.09589565
141	0xbf34f1c8	-0.7068143
142	0xbf38de59	-0.72214276
143	0x3ea59f72	0.3234821
144	0xbf32f611	-0.6990672
145	0xbdf2e618	-0.11860293
146	0x3e2d5018	0.16925085
147	0x3d5f59af	0.05452889
148	0xbf9ab7d7	-1.2087353
149	0xbf0e5177	-0.55593055
150	0xbe997876	-0.29974717
151	0x3eeb480a	0.459534
152	0xbf5bac60	-0.858099
153	0x3e05943e	0.13044831
154	0xbf449896	-0.7679533
155	0xbe6f9a08	-0.23398602
156	0x401c2bb1	2.4401667
157	0x3eb0174c	0.34392774
158	0x3f5e7df6	0.8691095
159	0xbf8c015a	-1.0937912
160	0xc0354d5c	-2.8328466
161	0xbfa9c142	-1.3262103
162	0xbecb1771	-0.39666322
163	0xbebeda68	-0.37276006
164	0xbf3e8578	-0.7442241
165	0x3e759126	0.23981151
166	0x3d51302f	0.051071342
167	0x3ecb1fc8	0.39672685
168	0xbe8a3eb6	-0.2700097
169	0x3fa005eb	1.2501806
170	0x3f9a7dc3	1.206963
171	0xbedd2fa8	-0.4320042
172	0xbf09e7f6	-0.5386957
173	0x3dd835f9	0.105571695
174	0xbfc2fc75	-1.5233294
175	0xbd7254bc	-0.05916284
176	0x3eaf0c93	0.3418928
177	0xbf2cc0c4	-0.67481637
178	0x3fc0184c	1.5007415
179	0xbeeaf707	-0.45891592
180	0xbace6cee	-0.0015749016
181	0x3cd3c720	0.025851786
182	0x3e8f1988	0.27949166
183	0xbbacbbc5	-0.0052714073
184	0xbe890ed9	-0.2676914
185	0xbb646c23	-0.0034854494
186	0xbf9d2df8	-1.2279654
187	0x3fa21357	1.2662152
188	0x3fc806f7	1.5627126
189	0xbe8665f7	-0.26249668
190	0xbdbecdf1	-0.09316624
191	0x3f2461ac	0.64211535
192	0x4034e865	2.8266842
193	0xbef7b204	-0.48378003
194	0xbd9defbf	-0.077117436
195	0xbde34fae	-0.11099182
196	0x3e5ac8e6	0.21365699
197	0x3fd8b3ef	1.6929911
198	0x3f1a65ad	0.60311395
199	0x3e2be0d1	0.1678498
200	0xbb9b61bd	-0.004741876
201	0x3f1002b6	0.56254137
202	0x3f923357	1.1421918
203	0x3eeee021	0.46655372
204	0xbed583e9	-0.41702202
205	0x3e0851a5	0.13312395
206	0xbe929701	-0.28630832
207	0x3f214df1	0.63009554
208	0xbdc11cb9	-0.094293065
209	0x3db51ae4	0.088430196
210	0x3de06243	0.10956242
211	0xbf01b26e	-0.5066289
212	0x3efb6a61	0.49104598
213	0x3f56550e	0.83723533
214	0x3f067697	0.52524704
215	0x3e600b43	0.21879296
216	0x3e07fffe	0.13281247
217	0xbe362a97	-0.17789684
218	0xbf8fb055	-1.1225687
219	0x3fd44180	1.6582489
220	0x3e06305d	0.13104387
221	0xbef34ea2	-0.4752093
222	0x3f119d0c	0.5688026
223	0x3db66bc6	0.08907275
224	0xbf520196	-0.8203367
225	0xbce2b161	-0.027672471
226	0xbeed1816	-0.4630744
227	0xbf6584b2	-0.896556
228	0x403b98d5	2.9312031
229	0x40521ac6	3.2828841
230	0xbd64ff0e	-0.0559073
231	0x3e7f20da	0.24914876
232	0xbef34038	-0.47509933
233	0x3f38c84c	0.7218063
234	0xbee3e66f	-0.44511744
235	0x3f207c85	0.6269
236	0xbf0bb757	-0.5457663
237	0x3eb7aa5a	0.35872155
238	0x3ec8a234	0.3918625
239	0xbf1c11d0	-0.6096468
240	0x3e380901	0.17972185
241	0x3fe489bb	1.7854532
242	0x3e7ed6bd	0.24886604
243	0xbf3299ce	-0.6976594
244	0x403f19f8	2.98596
245	0x3c60b08e	0.013713969
246	0x3f92493f	1.1428603
247	0x3ffe71f4	1.9878526
248	0xbf1aa381	-0.6040574
249	0xbf0c352d	-0.5476864
250	0x3ef1b2bc	0.47206676
251	0xbee37858	-0.44427752
252	0xbedac053	-0.42724857
253	0xbf083353	-0.53203315
254	0xbf01a363	-0.50639933
255	0x3e5ef691	0.21773745

decoder.lstm.weight_hh_l0 f4 [128, 32]
0	0xbfc5c372	-1.545027
1	0xbf394632	-0.72372735
2	0x40402624	3.002328
3	0x3f2e5e15	0.6811231
4	0x3faa9d63	1.3329281
5	0xbf61549d	-0.88019735
6	0xbef7b1df	-0.48377892
7	0x3e6a95c1	0.22908689
8	0x3e822b86	0.2542383
9	0xbf093897	-0.53601974
10	0x3f4907f5	0.78527766
11	0x3e25b15f	0.16180943
12	0xbeda306f	-0.42615077
13	0xbedc86ab	-0.43071494
14	0xbf0b35dc	-0.5437906
15	0xbe9d3079	-0.30701044
16	0x3d4c344e	0.04985457
17	0xbee591b9	-0.4483774
18	0x3f7df78b	0.99205846
19	0x3ec40b37	0.38289806
20	0x3f8a419b	1.0801271
21	0x3f1a8e37	0.6037325
22	0x3f6813a1	0.9065495
23	0xbec3addc	-0.38218582
24	0xbe7bb246	-0.24579725
25	0xbe9cf09d	-0.30652323
26	0xbf15a3a0	-0.58452797
27	0x3f68eb79	0.909843
28	0x3db0fc19	0.08641834
29	0xbee372c6	-0.44423503
30	0x3eb85bd1	0.3600755
31	0x3d0b574b	0.034018796
32	0xbea2902d	-0.31750622
33	0xbe9e4867	-0.30914614
34	0x3e058b3f	0.130414
35	0x3fbeabf4	1.4896226
36	0xbe5c6168	-0.21521533
37	0x3fb8a0eb	1.4424108
38	0xbf671717	-0.9026961
39	0xbf5e301b	-0.86792153
40	0x3d554373	0.052066278
41	0xbdac2c86	-0.0840693
42	0x3e61ed65	0.22063215
43	0xbf4a6c5d	-0.790716
44	0x3f25e3c9	0.648007
45	0x3f5f28e5	0.87171775
46	0xbf62819b	-0.8847901
47	0x3e69020b	0.22754686
48	0xbe9e3691	-0.30901006
49	0x3f5bec51	0.85907465
50	0xbeb94d97	-0.3619201
51	0xbf5d93fb	-0.86553925
52	0x3fd939c1	1.697075
53	0xbd6c201c	-0.05764781
54	0x3e93429f	0.28761765
55	0x3e4c91de	0.19977519
56	0x3e203389	0.15644659
57	0xbf29aab0	-0.66276073
58	0x3fe958e7	1.8230256
59	0x3e59f6c1	0.21285535
60	0x3b7b0a0c	0.003830555
61	0xbfabf5cc	-1.3434386
62	0xbf00f585	-0.50374633
63	0x3ec63c06	0.3871767
64	0xbf8d6b0b	-1.1048292
65	0x3f7127fb	0.9420163
66	0xbec27396	-0.3797881
67	0x3e3457e6	0.17611656
68	0xbf713cb5	-0.94233257
69	0x3fae3f6a	1.3613102
70	0x3f5b3b63	0.8563749
71	0xbf3ca516	-0.736894
72	0xbf250519	-0.64460903
73	0xbf6a161c	-0.91439986
74	0x3f7ddc9d	0.99164754
75	0x3e9b812b	0.30371985
76	0x3f7a0c28	0.976748
77	0x3f0990fa	0.5373684
78	0xbe8cb9b8	-0.27485442
79	0xbde3e8cc	-0.11128387
80	0x3d8e9170	0.06961334
81	0x3f7d1a59	0.9886833
82	0x3ecb3d1c	0.3969506
83	0xbf3e4789	-0.74327904
84	0xbf92507b	-1.1430811
85	0xbdf8b702	-0.12144281
86	0x3e014eb3	0.12627678
87	0x3fe03e88	1.7519083
88	0x3f964a42	1.1741412
89	0x3f4c213c	0.7973821
90	0xbdb32e69	-0.087490864
91	0x3f43efa2	0.76537526
92	0xbf7c0ee3	-0.98460215
93	0x3f9124d3	1.1339363
94	0x3ef0e524	0.4704982
95	0xbea3b5d2	-0.31974655
96	0xbf0aba54	-0.54190564
97	0x3e0f7330	0.14008784
98	0xbe6dd3d7	-0.23225342
99	0xbe1d7b2d	-0.15379019
100	0x3bf656b9	0.0075176624
101	0xbdbae6c1	-0.09126044
102	0x3e35bd31	0.17747952
103	0x3c401000	0.011722565
104	0x3f959435	1.1685854
105	0xbfb69a59	-1.4265853
106	0xbf5c2f47	-0.8600964
107	0x3f4334a6	0.7625221
108	0xbf97f87f	-1.187271
109	0xbf71fdc6	-0.9452785
110	0x3d913a77	0.070912294
111	0x3fa9ea8a	1.3274701
112	0xbf06e8d1	-0.52699
113	0xbf9e1e5e	-1.2353017
114	0xbdbff447	-0.09372764
115	0x3d4c641c	0.04990016
116	0xbfff6971	-1.9954053
117	0xbeac2cda	-0.3362797
118	0xbf9f7428	-1.2457323
119	0x3f4279b5	0.7596696
120	0x3e080750	0.1328404
121	0xbfb7f663	-1.4372066
122	0xbfe14beb	-1.7601293
123	0x3dcda7bd	0.10041759
124	0xbf5f0a38	-0.8712497
125	0x3f1f133b	0.6213872
126	0x3e8c25df	0.27372643
127	0xbd2f57f7	-0.0428085
128	0xbfa84a7f	-1.3147734
129	0xbea70d48	-0.3262732
130	0x3e449d20	0.19200563
131	0x3f948b23	1.1604961
132	0xbf1579a2	-0.5838872
133	0xbf151d61	-0.58247954
134	0x3f80351c	1.0016208
135	0xbea0081d	-0.3125619
136	0xbeb66cc7	-0.35629866
137	0xbe548623	-0.20754294
138	0xbefe440b	-0.49661288
139	0x3f1fe927	0.6246514
140	0x3e4d17aa	0.20028558
141	0xbdeab097	-0.11459463
142	0xbf31be53	-0.69431037
143	0x3f3aadd0	0.72921467
144	0xbf2d8277	-0.677772
145	0xbd1a5f67	-0.03768864
146	0xbe1c4bc9	-0.15263285
147	0xbe095b79	-0.134138
148	0x3f694a34	0.9112885
149	0xbfbc3092	-1.4702322
150	0x3f2ba33e	0.6704596
151	0xbe226295	-0.15857919
152	0xbf962392	-1.1729605
153	0x3ed8f5ff	0.4237518
154	0xbeb46be0	-0.35238552
155	0x3efe423e	0.49659914
156	0xbe4007c0	-0.18752956
157	0x3f3477a4	0.7049506
158	0xbe987f51	-0.29784635
159	0xbec51ebe	-0.38500017
160	0x3d593002	0.0530243
161	0xbe93d233	-0.28871307
162	0x3dbf5158	0.09341687
163	0x3e10a475	0.14125235
164	0xbd86c3cd	-0.06580315
165	0x3f500fff	0.8127441
166	0xbe538f3b	-0.20660107
167	0x3f56b404	0.8386843
168	0xbe754a09	-0.23954023
169	0x40018e99	2.0243285
170	0xbf1ddf68	-0.61669016
171	0x3f20aaaf	0.6276044
172	0xbe3d26c0	-0.18471813
173	0xbfb6421e	-1.4238927
174	0xbf235872	-0.6380683
175	0xbeec3d30	-0.46140432
176	0xbead158b	-0.33805498
177	0x3f5e137b	0.86748475
178	0x3d459198	0.048234552
179	0xbf26477c	-0.64952826
180	0x3dd682ec	0.1047419
181	0xbf88887c	-1.0666652
182	0xbec8fbad	-0.39254513
183	0x3e8bd899	0.27313688
184	0xbf0c7fea	-0.5488268
185	0x3fc20ce2	1.5160182
186	0x3f0a9027	0.5412621
187	0x3f4c8b95	0.79900485
188	0x3f52e43a	0.82379496
189	0x3ef81c9b	0.48459324
190	0xbf89a359	-1.0752975
191	0xbfaa4fe9	-1.3305637
192	0x3e0dfb37	0.13865362
193	0xbe27c64c	-0.16384238
194	0xbf39e23a	-0.7261082
195	0xbe2cbc84	-0.16868788
196	0x3f1a5f4a	0.6030165
197	0xbf084b25	-0.5323966
198	0xbf2302a2	-0.6367589
199	0xbe66c142	-0.2253466
200	0xbe028276	-0.1274508
201	0x3c477e3c	0.012176093
202	0x3fa97a57	1.324046
203	0xbcf8c48d	-0.03036716
204	0xbf68a44f	-0.90875715
205	0x3ecd3229	0.40077332
206	0xbed87c4e	-0.42282337
207	0x3eca1f96	0.39477223
208	0xbea7c6bb	-0.32768807
209	0xbf9377fb	-1.152099
210	0xbd78bca5	-0.06072678
211	0x3f3b1fba	0.73095286
212	0xbefb2c03	-0.49057016
213	0x3e94fac6	0.29097575
214	0xbe8e9eeb	-0.2785562
215	0x3f227ea0	0.63474464
216	0x3e3e7c5c	0.18602127
217	0x3f36cf0a	0.71409667
218	0xbf79b753	-0.97545356
219	0x3f1453ec	0.57940555
220	0xbf3e77ee	-0.7440175
221	0x3f5615a6	0.8362678
222	0x3f36d353	0.71416205
223	0xbf84f7b8	-1.0388098
224	0xbd504ed3	-0.050856423
225	0xbf97fa19	-1.1873199
226	0x3ea5dd65	0.32395473
227	0x3ecf5000	0.40490723
228	0xbe9318c7	-0.2872984
229	0xbf00982b	-0.5023219
230	0x3ea839be	0.32856554
231	0xbe2bcb3e	-0.1677675
232	0x3f6c4aa0	0.9230137
233	0x3f8700ef	1.054716
234	0x3f7eebbf	0.9957847
235	0x3f28b08d	0.65894395
236	0xbed9a3d1	-0.42507794
237	0xbeacf7a6	-0.3378269
238	0x3e90545b	0.28189358
239	0x3eb1a2e7	0.34694597
240	0x3e87a8c7	0.26495954
241	0x3f4146c6	0.75498617
242	0x3e2ceebb	0.16887943
243	0x3f0ad0ae	0.5422467
244	0x3e9a6c58	0.30160785
245	0xbedbc526	-0.4292385
246	0x3e515490	0.20442414
247	0xbf369dd6	-0.7133459
248	0xbf9cdaed	-1.2254311
249	0xbe479b9a	-0.19492951
250	0xbf7defa5	-0.99193794
251	0x3f1faea4	0.62375855
252	0x3efaad26	0.48960227
253	0xbf39a87c	-0.7252271
254	0x3f3ce7bb	0.7379109
255	0xbe604f79	-0.21905316

decoder.lstm.bias_ih_l0 f4 [128]
0	0xbf0c3106	-0.54762304
1	0xbf1e3963	-0.61806315
2	0xbf03e744	-0.5152476
3	0xbebc404e	-0.3676781
4	0x3d5585dd	0.052129615
5	0xbc8b1a20	-0.01698023
6	0xbedaa128	-0.42701077
7	0xbe7d672b	-0.24746387
8	0xbecda040	-0.40161324
9	0x3e3c5e7d	0.1839542
10	0xbdfaf24f	-0.12253248
11	0x3cf0a6e4	0.029376455
12	0x3cad1227	0.02112682
13	0xbe80c1c6	-0.25147837
14	0xbf0a523f	-0.5403175
15	0xbe4d9773	-0.20077305
16	0xbdb3a4e2	-0.08771683
17	0xbe5da538	-0.21645057
18	0x3d12056a	0.035649695
19	0x3e821361	0.2540541
20	0xbed86582	-0.42264944
21	0xbedb5eb4	-0.4284569
22	0x3d564069	0.05230752
23	0xbd4a8b77	-0.04944941
24	0xbeaf81e6	-0.34278792
25	0xbf514f6c	-0.81761813
26	0xbd92f58a	-0.07175739
27	0x3e2a5427	0.16633664
28	0xbf36a3b8	-0.71343565
29	0xbf2c7893	-0.6737148
30	0xbebb61a8	-0.36597943
31	0x3e1c300c	0.15252703
32	0xbf34840d	-0.70513994
33	0x3e632b26	0.22184429
34	0xbf608c91	-0.8771449
35	0xbd8258b4	-0.06364575
36	0xbd0b6610	-0.03403288
37	0x3e9ef7d6	0.3104846
38	0x3e746318	0.23865926
39	0x3efd4ca2	0.4947253
40	0x3e8080ee	0.25098366
41	0x3d423d0a	0.047421493
42	0x3ebc7b2c	0.36812723
43	0xbdc05699	-0.09391517
44	0xbe6f0171	-0.23340394
45	0x3c8b6bc8	0.017019168
46	0xbd4d604c	-0.050140664
47	0xbdbd2913	-0.0923635
48	0x3eb4e30b	0.3532947
49	0xbe47e2f6	-0.19520172
50	0xbf007bcf	-0.50188917
51	0x3f0bc26d	0.54593545
52	0xbd69d7e9	-0.057090674
53	0x3db9d550	0.09073889
54	0xbeffea31	-0.4998336
55	0x3da721e0	0.08160758
56	0x3ebee754	0.37285864
57	0x3ecfeba0	0.40609455
58	0x3f30485c	0.6886041
59	0xbec3fe71	-0.3828006
60	0xbda0e2bf	-0.078557484
61	0xbe8a95f9	-0.27067545
62	0x3cc32a65	0.023823926
63	0x3e803aa1	0.2504473
64	0x3e87a90a	0.26496154
65	0x3ddec61c	0.1087763
66	0xbda9f41c	-0.08298513
67	0x3d8b30e6	0.06796436
68	0xbdc1ed91	-0.0946914
69	0xbccc52f8	-0.024941906
70	0x3dba04d0	0.09082949
71	0x3df4280b	0.119217
72	0xbe574b93	-0.21024923
73	0x3e44e7bf	0.19229029
74	0xbd7354e4	-0.05940713
75	0x3d6c535c	0.057696685
76	0xbda5611d	-0.080751635
77	0x3e813c37	0.25241253
78	0x3e157675	0.14595969
79	0xbdd88d8d	-0.10573874
80	0xbdf352c7	-0.11881023
81	0x3e4c566e	0.19954845
82	0x3e27d7c3	0.163909
83	0xbe0e4ee8	-0.13897288
84	0xbe8f5cc1	-0.28000453
85	0xbd632eb3	-0.055464458
86	0x3c354601	0.0110640535
87	0xbd08bc55	-0.033382732
88	0x3d35fb31	0.044429008
89	0xbe28f908	-0.16501248
90	0x3db14646	0.08655982
91	0x3e2499e0	0.16074324
92	0xbd762d58	-0.060101837
93	0xbe1de23b	-0.15418331
94	0xbdd13a94	-0.10216251
95	0x3ce11f41	0.027480723
96	0xbf595122	-0.84889424
97	0x3ee08733	0.4385315
98	0xbe7b2b52	-0.24528244
99	0xbe831e1b	-0.25608906
100	0x3f095e55	0.53659564
101	0x3e3d96b0	0.18514514
102	0x3e75c131	0.23999478
103	0x3f0d387b	0.5516431
104	0x3e9ee368	0.31032872
105	0x3ee421db	0.4455708
106	0x3dcd11e5	0.10013179
107	0xbe1e5caf	-0.15465043
108	0x3e42a2ca	0.19007412
109	0x3e28d138	0.1648606
110	0xbdd2ffde	-0.10302709
111	0xbeac47de	-0.3364858
112	0x3deebe54	0.11657396
113	0xbe31d1cd	-0.17365189
114	0x3de98e0d	0.11404047
115	0xbe77c2f3	-0.24195461
116	0x3cdeee78	0.02721332
117	0xbdcb462e	-0.09925495
118	0x3f331e0d	0.6996773
119	0x3f0056e8	0.5013261
120	0xbe90b7ab	-0.28265128
121	0xbcbdb964	-0.02315969
122	0xbe1388b3	-0.14407615
123	0xbd1b53fb	-0.037921887
124	0xbdd37882	-0.103257194
125	0x3f0bbafb	0.54582185
126	0xbcc7eedb	-0.024405887
127	0xbe532c61	-0.20622398

decoder.lstm.bias_hh_l0 f4 [128]
0	0xbf0c2ec2	-0.54758847
1	0xbf1e3a6e	-0.61807907
2	0xbf03e708	-0.515244
3	0xbebc4036	-0.3676774
4	0x3d559626	0.052145146
5	0xbc8ae09e	-0.016952809
6	0xbedaa300	-0.42702484
7	0xbe7d6573	-0.24745731
8	0xbecda225	-0.4016277
9	0x3e3c6138	0.18396461
10	0xbdfae4ff	-0.12250709
11	0x3cf09119	0.029366063
12	0x3cad0a9a	0.02112322
13	0xbe80c17d	-0.2514762
14	0xbf0a529e	-0.54032314
15	0xbe4d978d	-0.20077343
16	0xbdb395d5	-0.087688126
17	0xbe5da9a0	-0.21646738
18	0x3d11f953	0.035638165
19	0x3e8217de	0.25408834
20	0xbed86892	-0.4226728
21	0xbedb5c8a	-0.4284404
22	0x3d565328	0.052325398
23	0xbd4a886f	-0.04944652
24	0xbeaf82b5	-0.3427941
25	0xbf515043	-0.81763095
26	0xbd92f2db	-0.07175227
27	0x3e2a523b	0.16632931
28	0xbf36a46f	-0.71344656
29	0xbf2c7857	-0.67371124
30	0xbebb6183	-0.36597833
31	0x3e1c3287	0.1525365
32	0xbf3483bf	-0.7051353
33	0x3e632c28	0.22184813
34	0xbf608af0	-0.87712
35	0xbd825ead	-0.06365714
36	0xbd0b6467	-0.034031298
37	0x3e9ef7f2	0.31048542
38	0x3e745e9a	0.23864213
39	0x3efd4b3c	0.49471462
40	0x3e807f59	0.2509716
41	0x3d425ac9	0.04744986
42	0x3ebc7a97	0.3681228
43	0xbdc04d84	-0.09389785
44	0xbe6f0bfb	-0.23344414
45	0x3c8b46e8	0.017001584
46	0xbd4d5e37	-0.05013868
47	0xbdbd2b19	-0.09236736
48	0x3eb4e1b8	0.3532846
49	0xbe47e0f3	-0.19519405
50	0xbf007c7f	-0.50189966
51	0x3f0bc20b	0.5459296
52	0xbd69f265	-0.05711593
53	0x3db9e208	0.09076315
54	0xbeffee2b	-0.49986395
55	0x3da722c9	0.081609316
56	0x3ebee411	0.37283376
57	0x3ecfed1d	0.4061059
58	0x3f304683	0.6885759
59	0xbec403c8	-0.38284135
60	0xbda0da46	-0.07854132
61	0xbe8a9432	-0.2706619
62	0x3cc3317f	0.023827313
63	0x3e80361a	0.25041276
64	0x3e87a9bc	0.26496685
65	0x3ddeb733	0.10874786
66	0xbda9eb3f	-0.08296823
67	0x3d8b3f63	0.067991994
68	0xbdc1e5c9	-0.09467656
69	0xbccc46ed	-0.024936164
70	0x3dba0b9b	0.09084245
71	0x3df420f1	0.119203456
72	0xbe574ea6	-0.21026096
73	0x3e44ef1e	0.19231841
74	0xbd734e54	-0.05940087
75	0x3d6c4f2f	0.057692703
76	0xbda55b12	-0.08074011
77	0x3e813971	0.25239137
78	0x3e157bfc	0.14598078
79	0xbdd891ea	-0.10574706
80	0xbdf350a3	-0.118806146
81	0x3e4c4f70	0.19952178
82	0x3e27d620	0.16390276
83	0xbe0e4d60	-0.13896704
84	0xbe8f5a83	-0.27998742
85	0xbd630c17	-0.05543145
86	0x3c3522f0	0.011055693
87	0xbd08b969	-0.033379946
88	0x3d36000a	0.04443363
89	0xbe28f33d	-0.16499038
90	0x3db142b6	0.08655302
91	0x3e249a1f	0.16074418
92	0xbd76196c	-0.060082838
93	0xbe1de815	-0.15420564
94	0xbdd131d3	-0.10214581
95	0x3ce12726	0.027484488
96	0xbf5951e4	-0.8489058
97	0x3ee08763	0.43853292
98	0xbe7b2846	-0.24527082
99	0xbe831f90	-0.25610018
100	0x3f095fdc	0.53661895
101	0x3e3d9bc5	0.18516453
102	0x3e75c2ee	0.24000141
103	0x3f0d37e0	0.55163383
104	0x3e9ee34b	0.31032786
105	0x3ee424c6	0.44559306
106	0x3dcd150c	0.1001378
107	0xbe1e54b6	-0.15462002
108	0x3e42a7a6	0.19009265
109	0x3e28d084	0.16485792
110	0xbdd2fc3c	-0.10302016
111	0xbeac49e2	-0.33650118
112	0x3deecae8	0.11659795
113	0xbe31cea2	-0.1736398
114	0x3de988c7	0.11403041
115	0xbe77c0dc	-0.24194664
116	0x3cdeda93	0.027203834
117	0xbdcb3d1f	-0.09923767
118	0x3f331e56	0.69968164
119	0x3f005709	0.50132805
120	0xbe90b458	-0.2826259
121	0xbcbdca1c	-0.023167662
122	0xbe1390eb	-0.1441075
123	0xbd1b57f6	-0.037925683
124	0xbdd37a34	-0.10326043
125	0x3f0bb9c2	0.5458032
126	0xbcc7c266	-0.024384689
127	0xbe5330a4	-0.20624024

decoder.linear.weight f4 [1, 32]
0	0xbfcd5dd7	-1.6044263
1	0x3dfdb526	0.12388067
2	0xbea71a07	-0.32637045
3	0xba98039a	-0.0011597753
4	0xbc5be136	-0.013420394
5	0x388039b4	6.114264e-05
6	0x3cf7dec2	0.030257586
7	0x3b9b749a	0.0047441246
8	0x3c4b14fd	0.012395141
9	0xbd4fb386	-0.050708316
10	0xbdbc0d72	-0.09182252
11	0x3db63e21	0.08898569
12	0x3da51a83	0.08061697
13	0xbc0490d0	-0.008091167
14	0x3e326239	0.17420281
15	0xbe00a814	-0.12564117
16	0x3d245664	0.04012145
17	0x3d95cf1a	0.07314892
18	0xbf270fd7	-0.65258545
19	0xbd442d13	-0.04789455
20	0xbda388be	-0.07985066
21	0xbdc63a36	-0.096790716
22	0xbe3d3d04	-0.18480307
23	0x3dd276b6	0.102765486
24	0xbd603b38	-0.054743975
25	0xbd35c7b0	-0.04437989
26	0x3d5ce269	0.05392686
27	0xbe4e85b4	-0.20168191
28	0xbaed138d	-0.0018087492
29	0x3da65ebf	0.0812354
30	0xbd2559ac	-0.04036872
31	0xbccc3a71	-0.02493021
