results/MSE_LSTM_enc_dec_output/875_model.pt (torch, 860225 bytes, 10 tensors)

output_zeros f4 [399, 512, 1]
0	0x00000000	0.0
1	0x00000000	0.0
2	0x00000000	0.0
3	0x00000000	0.0
4	0x00000000	0.0
5	0x00000000	0.0
6	0x00000000	0.0
7	0x00000000	0.0
8	0x00000000	0.0
9	0x00000000	0.0
10	0x00000000	0.0
11	0x00000000	0.0
12	0x00000000	0.0
13	0x00000000	0.0
14	0x00000000	0.0
15	0x00000000	0.0
16	0x00000000	0.0
17	0x00000000	0.0
18	0x00000000	0.0
19	0x00000000	0.0
20	0x00000000	0.0
21	0x00000000	0.0
22	0x00000000	0.0
23	0x00000000	0.0
24	0x00000000	0.0
25	0x00000000	0.0
26	0x00000000	0.0
27	0x00000000	0.0
28	0x00000000	0.0
29	0x00000000	0.0
30	0x00000000	0.0
31	0x00000000	0.0
32	0x00000000	0.0
33	0x00000000	0.0
34	0x00000000	0.0
35	0x00000000	0.0
36	0x00000000	0.0
37	0x00000000	0.0
38	0x00000000	0.0
39	0x00000000	0.0
40	0x00000000	0.0
41	0x00000000	0.0
42	0x00000000	0.0
43	0x00000000	0.0
44	0x00000000	0.0
45	0x00000000	0.0
46	0x00000000	0.0
47	0x00000000	0.0
48	0x00000000	0.0
49	0x00000000	0.0
50	0x00000000	0.0
51	0x00000000	0.0
52	0x00000000	0.0
53	0x00000000	0.0
54	0x00000000	0.0
55	0x00000000	0.0
56	0x00000000	0.0
57	0x00000000	0.0
58	0x00000000	0.0
59	0x00000000	0.0
60	0x00000000	0.0
61	0x00000000	0.0
62	0x00000000	0.0
63	0x00000000	0.0
64	0x00000000	0.0
65	0x00000000	0.0
66	0x00000000	0.0
67	0x00000000	0.0
68	0x00000000	0.0
69	0x00000000	0.0
70	0x00000000	0.0
71	0x00000000	0.0
72	0x00000000	0.0
73	0x00000000	0.0
74	0x00000000	0.0
75	0x00000000	0.0
76	0x00000000	0.0
77	0x00000000	0.0
78	0x00000000	0.0
79	0x00000000	0.0
80	0x00000000	0.0
81	0x00000000	0.0
82	0x00000000	0.0
83	0x00000000	0.0
84	0x00000000	0.0
85	0x00000000	0.0
86	0x00000000	0.0
87	0x00000000	0.0
88	0x00000000	0.0
89	0x00000000	0.0
90	0x00000000	0.0
91	0x00000000	0.0
92	0x00000000	0.0
93	0x00000000	0.0
94	0x00000000	0.0
95	0x00000000	0.0
96	0x00000000	0.0
97	0x00000000	0.0
98	0x00000000	0.0
99	0x00000000	0.0
100	0x00000000	0.0
101	0x00000000	0.0
102	0x00000000	0.0
103	0x00000000	0.0
104	0x00000000	0.0
105	0x00000000	0.0
106	0x00000000	0.0
107	0x00000000	0.0
108	0x00000000	0.0
109	0x00000000	0.0
110	0x00000000	0.0
111	0x00000000	0.0
112	0x00000000	0.0
113	0x00000000	0.0
114	0x00000000	0.0
115	0x00000000	0.0
116	0x00000000	0.0
117	0x00000000	0.0
118	0x00000000	0.0
119	0x00000000	0.0
120	0x00000000	0.0
121	0x00000000	0.0
122	0x00000000	0.0
123	0x00000000	0.0
124	0x00000000	0.0
125	0x00000000	0.0
126	0x00000000	0.0
127	0x00000000	0.0
128	0x00000000	0.0
129	0x00000000	0.0
130	0x00000000	0.0
131	0x00000000	0.0
132	0x00000000	0.0
133	0x00000000	0.0
134	0x00000000	0.0
135	0x00000000	0.0
136	0x00000000	0.0
137	0x00000000	0.0
138	0x00000000	0.0
139	0x00000000	0.0
140	0x00000000	0.0
141	0x00000000	0.0
142	0x00000000	0.0
143	0x00000000	0.0
144	0x00000000	0.0
145	0x00000000	0.0
146	0x00000000	0.0
147	0x00000000	0.0
148	0x00000000	0.0
149	0x00000000	0.0
150	0x00000000	0.0
151	0x00000000	0.0
152	0x00000000	0.0
153	0x00000000	0.0
154	0x00000000	0.0
155	0x00000000	0.0
156	0x00000000	0.0
157	0x00000000	0.0
158	0x00000000	0.0
159	0x00000000	0.0
160	0x00000000	0.0
161	0x00000000	0.0
162	0x00000000	0.0
163	0x00000000	0.0
164	0x00000000	0.0
165	0x00000000	0.0
166	0x00000000	0.0
167	0x00000000	0.0
168	0x00000000	0.0
169	0x00000000	0.0
170	0x00000000	0.0
171	0x00000000	0.0
172	0x00000000	0.0
173	0x00000000	0.0
174	0x00000000	0.0
175	0x00000000	0.0
176	0x00000000	0.0
177	0x00000000	0.0
178	0x00000000	0.0
179	0x00000000	0.0
180	0x00000000	0.0
181	0x00000000	0.0
182	0x00000000	0.0
183	0x00000000	0.0
184	0x00000000	0.0
185	0x00000000	0.0
186	0x00000000	0.0
187	0x00000000	0.0
188	0x00000000	0.0
189	0x00000000	0.0
190	0x00000000	0.0
191	0x00000000	0.0
192	0x00000000	0.0
193	0x00000000	0.0
194	0x00000000	0.0
195	0x00000000	0.0
196	0x00000000	0.0
197	0x00000000	0.0
198	0x00000000	0.0
199	0x00000000	0.0
200	0x00000000	0.0
201	0x00000000	0.0
202	0x00000000	0.0
203	0x00000000	0.0
204	0x00000000	0.0
205	0x00000000	0.0
206	0x00000000	0.0
207	0x00000000	0.0
208	0x00000000	0.0
209	0x00000000	0.0
210	0x00000000	0.0
211	0x00000000	0.0
212	0x00000000	0.0
213	0x00000000	0.0
214	0x00000000	0.0
215	0x00000000	0.0
216	0x00000000	0.0
217	0x00000000	0.0
218	0x00000000	0.0
219	0x00000000	0.0
220	0x00000000	0.0
221	0x00000000	0.0
222	0x00000000	0.0
223	0x00000000	0.0
224	0x00000000	0.0
225	0x00000000	0.0
226	0x00000000	0.0
227	0x00000000	0.0
228	0x00000000	0.0
229	0x00000000	0.0
230	0x00000000	0.0
231	0x00000000	0.0
232	0x00000000	0.0
233	0x00000000	0.0
234	0x00000000	0.0
235	0x00000000	0.0
236	0x00000000	0.0
237	0x00000000	0.0
238	0x00000000	0.0
239	0x00000000	0.0
240	0x00000000	0.0
241	0x00000000	0.0
242	0x00000000	0.0
243	0x00000000	0.0
244	0x00000000	0.0
245	0x00000000	0.0
246	0x00000000	0.0
247	0x00000000	0.0
248	0x00000000	0.0
249	0x00000000	0.0
250	0x00000000	0.0
251	0x00000000	0.0
252	0x00000000	0.0
253	0x00000000	0.0
254	0x00000000	0.0
255	0x00000000	0.0

encoder.lstm.weight_ih_l0 f4 [128, 4]
0	0x3f96f5f3	1.1793808
1	0x3ee9d72a	0.4567197
2	0x40208f51	2.5087473
3	0xbf87fcff	-1.0624083
4	0x3fbaf0ad	1.4604698
5	0xbfb1e055	-1.3896586
6	0x3cee5342	0.029092435
7	0xc0109b0c	-2.2594633
8	0x3f588335	0.84575206
9	0x401141d2	2.2696424
10	0xbf275ac5	-0.6537288
11	0xc000f3a8	-2.0148716
12	0x3ee703d6	0.45120114
13	0x3fbc5af7	1.471526
14	0x3f0398ff	0.5140533
15	0xbf47b366	-0.78008115
16	0xbe9d03fb	-0.306671
17	0xbf8018c5	-1.0007559
18	0x3e042494	0.12904578
19	0x3f43ac50	0.76434803
20	0xbfd157d8	-1.6354933
21	0x3ed67e24	0.41893113
22	0x3e05eb60	0.1307807
23	0xbe883d2b	-0.26609167
24	0x3fb1846e	1.3868539
25	0x3f43052a	0.76179755
26	0xbe92a29b	-0.28639683
27	0xbded3ce6	-0.11583881
28	0x3fd4b42d	1.6617485
29	0xbf5a33b0	-0.8523512
30	0x3f812df3	1.0092148
31	0x3cda0b93	0.026616847
32	0x3fa52680	1.2902374
33	0x3dad7fe6	0.0847166
34	0x3e8c3143	0.27381334
35	0x3f83ffb2	1.0312407
36	0x3df2a355	0.11847559
37	0xbe93cd0d	-0.2886738
38	0x4027ff9d	2.6249764
39	0xbe14e46f	-0.14540266
40	0xbf5055de	-0.8138102
41	0x3ff68ff5	1.9262682
42	0x3da7fb63	0.08202245
43	0x3e484ee5	0.19561346
44	0x3ca04039	0.019561874
45	0xbf11f1be	-0.57009494
46	0x40362325	2.845895
47	0x3dff9719	0.124799915
48	0x3f829058	1.02003
49	0xbf853842	-1.0407794
50	0xbf9067e3	-1.1281704
51	0x404d55fe	3.2083735
52	0x3df01d42	0.117243305
53	0xbfb41b2a	-1.407079
54	0x3f309beb	0.6898791
55	0x3f998cc0	1.1996078
56	0x3fc9c25d	1.576244
57	0xbe50823a	-0.20362177
58	0xbe6e0c3d	-0.23246856
59	0x3f2524d4	0.6450932
60	0x3fab8ef2	1.3402998
61	0xbf2e0634	-0.67978215
62	0x3f50c49d	0.8155001
63	0x3fc3abea	1.5286839
64	0xbeb073e1	-0.3446341
65	0xbf86c7d4	-1.0529733
66	0x3f5668ee	0.8375386
67	0x3fad01ed	1.3516213
68	0x3f76fd35	0.96480113
69	0xbf10e9be	-0.5660666
70	0x3ed65c0e	0.41867107
71	0xbea92678	-0.33037162
72	0x3f905090	1.1274586
73	0xc033ef0c	-2.8114653
74	0x3e9946b0	0.29936743
75	0x3e40b93a	0.18820658
76	0x3f147007	0.5798344
77	0xbdb46c52	-0.08809723
78	0x3ec54633	0.3853012
79	0x407b9f12	3.931584
80	0xbd45aa3c	-0.04825805
81	0xbea7f84b	-0.3280662
82	0x3fc5dcfd	1.5458065
83	0x3f8bdd07	1.0926827
84	0x3f92fa35	1.1482607
85	0x3e3907e2	0.18069413
86	0x3fffdadd	1.9988667
87	0x3ed4ed4a	0.41587287
88	0x3f34bc1f	0.7059955
89	0xbf86939f	-1.05138
90	0x3f6bef0d	0.9216164
91	0xbf934f85	-1.1508642
92	0x3f4d4278	0.8017955
93	0x3fd53601	1.6657106
94	0x3f34623e	0.70462406
95	0xbfc5561c	-1.5416903
96	0x402b0d67	2.672693
97	0x3e80e276	0.25172776
98	0xbfc55a4c	-1.5418181
99	0x3ed1976e	0.40935844
100	0xbff08965	-1.879193
101	0x40182af0	2.3776207
102	0x3e9d72f8	0.30751777
103	0x3f6cf55e	0.925619
104	0xbe820025	-0.25390735
105	0xbfb09047	-1.379403
106	0x3f944120	1.1582375
107	0x40443e64	3.066308
108	0x405f9487	3.4934404
109	0x3f273931	0.6532164
110	0xbf99915d	-1.1997486
111	0x3f8f0526	1.1173446
112	0xbf0c8d37	-0.54902977
113	0x3ff7a491	1.9347097
114	0x3dcb45d0	0.09925425
115	0xbdb291f8	-0.087192476
116	0xbd2a6763	-0.041602504
117	0x3e2fc1c8	0.17163765
118	0x3fd7dabd	1.6863629
119	0xbfb73e4d	-1.4315888
120	0x3f66583e	0.89978397
121	0x3f362169	0.7114473
122	0xbf146dfb	-0.57980317
123	0xbcd96078	-0.026535258
124	0x3f25955e	0.6468104
125	0x3f849787	1.0358742
126	0xbf51fe41	-0.82028586
127	0x3e95af1c	0.2923516
128	0xbefe34af	-0.4964957
129	0x3f510fd6	0.8166479
130	0xbe9e9576	-0.30973405
131	0x3f3c1e2e	0.7348355
132	0xbe949069	-0.29016426
133	0x3f9141da	1.1348221
134	0xbf5c64c4	-0.86091256
135	0x40b28cdd	5.579695
136	0x3f7f9628	0.99838495
137	0xc020ca01	-2.5123293
138	0x3fa4454b	1.2833647
139	0x3eb0f780	0.34563828
140	0x3f7492fe	0.9553679
141	0xbf49f9a0	-0.7889652
142	0x3fcd321a	1.6030915
143	0x3eac8dc5	0.33701912
144	0x3ef8debf	0.48607442
145	0x3f0cc9f4	0.54995656
146	0xbffbb04e	-1.9663179
147	0x3eb56526	0.35428733
148	0xbeb24e2f	-0.34825274
149	0x4006dd14	2.1072435
150	0x4048f177	3.1397378
151	0x3fc3abc0	1.5286789
152	0xbf8601b1	-1.0469266
153	0x3dd2c763	0.10291936
154	0x3fae14a5	1.360005
155	0x3ed63b5b	0.4184216
156	0xbe24e70f	-0.16103767
157	0x3e4a2d2e	0.19743797
158	0x3e93e92c	0.28888834
159	0xbf751e7a	-0.9574963
160	0xbeba6eee	-0.36412758
161	0xbf95161c	-1.1647372
162	0x3f849d4c	1.0360503
163	0xc008ff55	-2.1405842
164	0x3edca5f0	0.4309535
165	0x3f9cf4f2	1.2262251
166	0x3ea2e830	0.3181777
167	0xbe8cf46b	-0.27530226
168	0xc01d04ff	-2.45343
169	0xbc892dc8	-0.016745463
170	0x3f84faa8	1.0388994
171	0x3f6fa07f	0.9360427
172	0x40196b35	2.3971684
173	0xbf9216d3	-1.1413215
174	0x3fabe2e3	1.3428615
175	0xbf0fd71c	-0.56187606
176	0x3fbf5b5c	1.4949756
177	0xbfa2f736	-1.2731693
178	0x3f7a49cf	0.9776887
179	0xbf5e7dfd	-0.8691099
180	0xbea4c529	-0.3218167
181	0x3e1ca750	0.152982
182	0x40167f90	2.3515358
183	0x3dedd2d9	0.116124816
184	0xbfe141ef	-1.7598246
185	0x3f6fad01	0.9362336
186	0xbf10a582	-0.56502545
187	0x3f900e57	1.1254376
188	0xbf6938ae	-0.9110211
189	0x3e86ab95	0.26302782
190	0x3edce3ae	0.43142456
191	0xbed2848a	-0.41116744
192	0x3f5f9961	0.8734341
193	0x3c2b2eac	0.010448139
194	0xbe4a9536	-0.19783482
195	0xbf08fd20	-0.5351124
196	0x3e89133e	0.26772493
197	0x3efb7fb0	0.49120855
198	0xbf149cf6	-0.58052003
199	0x3ff52d8f	1.9154528
200	0x4013f5c7	2.311876
201	0x3fa51018	1.2895536
202	0x4006d1a9	2.1065466
203	0xbf7be402	-0.9839479
204	0xbfc93ba0	-1.5721321
205	0xc01e3075	-2.4717076
206	0x3cbfe4c2	0.02342451
207	0x403264e9	2.787409
208	0xbe48c1ef	-0.1960523
209	0xbeb444ae	-0.35208648
210	0xbf2efab3	-0.68351287
211	0x3f435422	0.7630025
212	0xbf1f7850	-0.6229296
213	0x3fe056f5	1.7526537
214	0x3f7849c5	0.96987563
215	0xc0208ad6	-2.5084739
216	0x4080b42f	4.021995
217	0xbf4f6ddf	-0.81027025
218	0x3ff5dc76	1.9207904
219	0xbf1e0196	-0.6172117
220	0xc0152525	-2.3303921
221	0xbf9f4d24	-1.2445416
222	0xbe61b6a0	-0.22042322
223	0x3f957c16	1.1678493
224	0xbedee457	-0.43533584
225	0xbf93558b	-1.1510481
226	0x3ffd9298	1.9810362
227	0xbfe55b31	-1.7918454
228	0xbec91fe5	-0.39282146
229	0x3e709a0f	0.23496269
230	0x3fff87d8	1.9963331
231	0x3f1b523e	0.60672367
232	0x4022bb6d	2.5426896
233	0x3f567139	0.83766514
234	0x3fde5e54	1.7372537
235	0xbff48c53	-1.9105324
236	0xbf9dcf07	-1.2328805
237	0x3f2b13e0	0.668272
238	0x3ecf555f	0.4049482
239	0xbfc9b72f	-1.5759028
240	0xbfe43e4e	-1.7831514
241	0xbf16f34e	-0.58965003
242	0xbf8fb79d	-1.1227909
243	0x3fa20e7e	1.2660673
244	0x3e9d5fff	0.30737302
245	0x3e4056a9	0.18783058
246	0xbfca29d8	-1.579402
247	0x3fddd110	1.7329426
248	0xbf52125f	-0.8205928
249	0x3ee3856a	0.44437724
250	0x3d7c73e4	0.06163396
251	0x405890ed	3.3838456
252	0x3f053db0	0.5204725
253	0xbf9bb481	-1.216446
254	0x3dbcff23	0.09228351
255	0xbdab614a	-0.08368166

encoder.lstm.weight_hh_l0 f4 [128, 32]
0	0xbf5111be	-0.816677
1	0xbf065d91	-0.5248652
2	0xbf07e6f0	-0.5308676
3	0xbec764be	-0.38944048
4	0x3e614c50	0.22001767
5	0xbedc5920	-0.43036747
6	0x3fef2223	1.8682293
7	0xbf0118ed	-0.5042866
8	0xbdac55c8	-0.08414799
9	0x3f5b073e	0.85557926
10	0x3e124fe3	0.14288287
11	0xbe54958f	-0.20760177
12	0xbf1fa9ae	-0.62368286
13	0x3e996ad5	0.2996432
14	0xbf090391	-0.53521067
15	0xbee096bd	-0.43865004
16	0xbfcff409	-1.6246349
17	0xbd07ff70	-0.03320259
18	0xbd2f76f7	-0.042838063
19	0xbf88bbc4	-1.0682302
20	0xbed32e8e	-0.41246456
21	0xc00188f9	-2.0239851
22	0xbd8d84dc	-0.069101065
23	0xbe80f7c8	-0.25189042
24	0x3d3e9f1f	0.04653847
25	0xbe9f762a	-0.3114484
26	0x3ed7a145	0.42115226
27	0x3ed083f8	0.40725684
28	0x3f760edf	0.9611644
29	0xbf228642	-0.6348611
30	0x3dbdf139	0.09274525
31	0xbe90bae0	-0.28267574
32	0x3f3575c6	0.70882833
33	0x3e002a20	0.1251607
34	0xbfa7bd92	-1.3104727
35	0x3c93b5d4	0.018031038
36	0x3fd59264	1.66853
37	0xbfbdbec1	-1.4823838
38	0xbeda55cc	-0.42643583
39	0xbfdcefc3	-1.726067
40	0xbe34a357	-0.17640434
41	0x3f70b883	0.9403154
42	0x3d8aaa83	0.06770804
43	0x3fd96b27	1.6985825
44	0x3ef99a56	0.4875056
45	0x3ea7bf8a	0.3276332
46	0xbf2c1607	-0.6722111
47	0xbd732919	-0.059365366
48	0xbeae0ad0	-0.33992624
49	0xbf78aecf	-0.97141737
50	0xbea6a1cc	-0.32545316
51	0x3f418fd0	0.75610065
52	0x4004720a	2.0694604
53	0xbfa9fc36	-1.3280094
54	0xbf285409	-0.6575323
55	0x3ed142bb	0.40871224
56	0xbf2c96a4	-0.6741736
57	0x40117d1c	2.273261
58	0xbe06172c	-0.13094777
59	0x3ea07ab4	0.31343615
60	0xbe51c158	-0.20483911
61	0x3f0d5d29	0.55220276
62	0xbe7f3994	-0.24924308
63	0x3e03c5bc	0.12868398
64	0xbeb6194b	-0.35566172
65	0xbe93945c	-0.28824127
66	0x3e2df170	0.16986632
67	0x3f93930b	1.1529249
68	0xbc375583	-0.011189821
69	0x3de2a3c5	0.11066393
70	0x3f3d56df	0.7396068
71	0xbebf004e	-0.3730492
72	0x3f3ee090	0.74561405
73	0xbf238cca	-0.638867
74	0xbed3d081	-0.41370013
75	0xbf53afb5	-0.8268998
76	0x3f4d2c07	0.80145305
77	0x3ea759fe	0.32685846
78	0xbd48af32	-0.048995204
79	0x3de51d72	0.11187257
80	0x3e260bdf	0.16215466
81	0x3f9dee21	1.2338296
82	0xbf217511	-0.63069254
83	0x3f818d6c	1.0121284
84	0x3df0d498	0.11759299
85	0x3f3f01e7	0.7461228
86	0x3f94f7ed	1.1638161
87	0xbfd3b5f6	-1.6539905
88	0xbfa90e9b	-1.3207582
89	0xbd890768	-0.06690866
90	0x3f2fd0e2	0.68678105
91	0xbeb66e64	-0.35631096
92	0xbdd3085a	-0.10304327
93	0xbf25b856	-0.647344
94	0xbe6c5d64	-0.230825
95	0x3fa5f4bd	1.2965313
96	0x3d6793a2	0.056537278
97	0xbe4c4e7e	-0.19951817
98	0x3d62c99c	0.05536805
99	0xbf4bb34f	-0.7957048
100	0xbea1be23	-0.31590375
101	0x3f859b55	1.0438029
102	0x3e41c8f0	0.18924308
103	0x3d189fbd	0.037261713
104	0x3d827f3c	0.06371924
105	0xbefc5283	-0.492817
106	0xbdcf69db	-0.10127612
107	0x3d3af046	0.0456393
108	0xbf7e3b90	-0.99309635
109	0x3e6fd8f2	0.23422602
110	0x3f8c040c	1.0938735
111	0x3ef9584f	0.48700187
112	0x3ba5dde2	0.005061851
113	0xbea5da3b	-0.3239306
114	0xc015689c	-2.3345098
115	0xbf34c39f	-0.70610994
116	0x3eb3cf05	0.3511888
117	0x3e97529e	0.2955522
118	0x3e5c5cba	0.21519747
119	0xbc9a51a2	-0.018837754
120	0x3f8dd919	1.1081878
121	0x3ea114d4	0.31461203
122	0x3ee8e3b4	0.45486224
123	0xbe0b2295	-0.13587411
124	0xbf523512	-0.8211223
125	0x3f2e5533	0.68098754
126	0xbd5e833e	-0.05432438
127	0x3eabc279	0.33546808
128	0x3f7c56ac	0.9856975
129	0x3eeba1af	0.46021792
130	0x3ddf4b26	0.10903005
131	0xbe2e2562	-0.17006448
132	0xbe9d0529	-0.30668
133	0x3f811c1c	1.0086703
134	0x3f2ef438	0.683414
135	0x3fbdc951	1.4827062
136	0xbe9395e1	-0.28825286
137	0xbfb0d0b0	-1.3813686
138	0xbf835dcf	-1.0263003
139	0xbd639abe	-0.055567496
140	0x3f56a3c3	0.8384363
141	0xbed2ae4b	-0.411486
142	0x3f1c1e3a	0.6098362
143	0x3f17fb3b	0.5936772
144	0x3fb0a28f	1.3799609
145	0x3df7aaa5	0.12093095
146	0xbf4d772f	-0.80259985
147	0xbdec83f0	-0.115486026
148	0xbd7a0efd	-0.06104945
149	0xbf74f155	-0.95680743
150	0x3f9c02ba	1.2188332
151	0x3f11c093	0.5693447
152	0xbec90b21	-0.39266303
153	0xbe0de25f	-0.13855885
154	0xbf897318	-1.0738249
155	0x3dfe8746	0.12428145
156	0x3c7f837f	0.015595316
157	0x3febeaaf	1.8430995
158	0xbf29539d	-0.6614321
159	0xbf2a104e	-0.6643113
160	0xbee01817	-0.4376838
161	0x3c51ba5e	0.012800781
162	0xbd717377	-0.058948006
163	0xbf0e472b	-0.55577344
164	0xbf8eef3d	-1.116676
165	0x3c8ff6bc	0.017573707
166	0x3f67229d	0.9028719
167	0xbf8a79cb	-1.0818418
168	0x3e78752e	0.2426345
169	0xbe55c631	-0.20876385
170	0x3f24e87b	0.6441724
171	0x3e8d2930	0.27570486
172	0x3e7de5fc	0.24794763
173	0xbfe98790	-1.8244495
174	0x3fdb8171	1.7148877
175	0xbee7983b	-0.4523333
176	0x3f8566c0	1.0421982
177	0x3f51dd43	0.81978244
178	0xbe4dff8b	-0.20117013
179	0x3f188e3b	0.59592026
180	0xbeb9c6a5	-0.36284366
181	0x3f821009	1.0161144
182	0x3fea2475	1.8292376
183	0xbf6766b6	-0.903911
184	0x3e7ab734	0.24483949
185	0xbe3c7040	-0.18402195
186	0xbe9ddba2	-0.3083163
187	0xc01685c5	-2.3519146
188	0x3e4cf866	0.20016631
189	0xbff2bf4f	-1.8964633
190	0x3ee6a478	0.45047355
191	0x3ff4f9ef	1.9138774
192	0x3eb37a7c	0.35054386
193	0xbfc11ca0	-1.5086861
194	0x3e282904	0.16421896
195	0xbf4d3328	-0.80156183
196	0x3e573180	0.21014977
197	0xbd7d7c65	-0.06188621
198	0xbdbb06ce	-0.09132157
199	0x3f5744e9	0.84089524
200	0x3f3e0214	0.7422192
201	0x3e9e680c	0.30938756
202	0x3f5f8ca9	0.87324005
203	0xbfb3666b	-1.401563
204	0x3ee1bc9e	0.44089216
205	0xbd17854b	-0.036992352
206	0x3f1dcbef	0.616393
207	0xbeb86f7e	-0.36022562
208	0xbeda6c3d	-0.42660704
209	0x3ee75f7c	0.45190036
210	0xbf1c7cae	-0.61127746
211	0x3fd23a5c	1.642406
212	0x3ed65fc8	0.4186995
213	0x3fa416b4	1.2819428
214	0x3f469fb6	0.7758745
215	0xbe9addae	-0.30247253
216	0x3f2558e7	0.6458878
217	0xbeb294f5	-0.3487927
218	0x3f9e8d91	1.2386953
219	0x3f72fc00	0.9491577
220	0xbf009e7e	-0.5024184
221	0xbf082fb2	-0.5319778
222	0xbc1e49d9	-0.009661161
223	0x3eb1fded	0.34764042
224	0xbf610f0f	-0.879136
225	0x3ea8accf	0.32944342
226	0x3eb12437	0.34597942
227	0xbf8bd955	-1.09257
228	0x3dc3b197	0.09555357
229	0x40178a68	2.3678226
230	0xbf2dfb5c	-0.6796167
231	0x3eced277	0.40394947
232	0x3e1865ff	0.14882658
233	0xbe4041bf	-0.1877508
234	0xbe9ee69a	-0.3103531
235	0xbdd19bbf	-0.10234784
236	0xbf6092c0	-0.8772392
237	0xc00be50c	-2.185855
238	0xbea98a66	-0.33113402
239	0xbf9f5e83	-1.2450718
240	0x3e007393	0.12544088
241	0x3ce9299e	0.028462227
242	0xbe097087	-0.13421832
243	0x3f884418	1.064578
244	0xbd8cc8e4	-0.06874254
245	0x3dee2e35	0.11629907
246	0x3f87f4eb	1.0621618
247	0x3edff55b	0.4374188
248	0x3e85ccb6	0.26132745
249	0xbe34ab7a	-0.17643538
250	0xbd36790d	-0.044549037
251	0x3e4f25cf	0.20229267
252	0x3f133263	0.5749876
253	0x3f331190	0.69948673
254	0xbed9a4e2	-0.42508608
255	0xbe3a48e9	-0.18191876

encoder.lstm.bias_ih_l0 f4 [128]
0	0x3e5dbeb7	0.21654783
1	0xbdf39d14	-0.11895195
2	0xbdbca254	-0.09210649
3	0x3ece36ee	0.40276283
4	0x3e5bb974	0.21457464
5	0xbe0e5f36	-0.13903508
6	0x3f1558cd	0.58338624
7	0x3f1c1b32	0.60978997
8	0x3e8de5db	0.27714428
9	0xbd01e5ae	-0.03171318
10	0x3eb76f8f	0.358273
11	0x3f07392f	0.5282163
12	0xbe17489f	-0.14773796
13	0x3e4ac626	0.1980215
14	0x3ec97ef7	0.3935468
15	0x3de66482	0.11249639
16	0x3eac4383	0.33645257
17	0x3e72caf0	0.23710227
18	0x3dc884f8	0.09790987
19	0x3e731af6	0.23740754
20	0x3e18db6a	0.1492745
21	0x3ead17d6	0.33807248
22	0x3cd83839	0.026393997
23	0x3f1fac17	0.62371963
24	0xbd0c3c73	-0.034237336
25	0xbdfdbc34	-0.123894125
26	0x3ef6c1a9	0.48194626
27	0xbe829c42	-0.2550984
28	0xbda0755e	-0.07834886
29	0x3d82707b	0.0636911
30	0x3e0cb90f	0.13742469
31	0x3edeb4d0	0.43497324
32	0xbe8281c1	-0.2548962
33	0x3e42ba81	0.19016458
34	0x3e0f6e18	0.14006841
35	0x3e8d232b	0.27565894
36	0x3e846e27	0.2586529
37	0x3e6d4c46	0.23173627
38	0x3eef8db3	0.46787795
39	0xba7c7859	-0.00096309703
40	0x3ec00251	0.37501767
41	0xbe54fd30	-0.20799708
42	0xbe9fa9b4	-0.3118416
43	0xbc934b1f	-0.017980156
44	0xbec5a2a6	-0.38600653
45	0x3e353d15	0.17699082
46	0x3e3ab2f4	0.18232328
47	0xbbc815db	-0.006106121
48	0xbe9a7475	-0.30166975
49	0xbe193ac2	-0.1496382
50	0x3f0f059d	0.5586794
51	0xbd8c4be7	-0.06850415
52	0xbe87d966	-0.2653305
53	0x3e023460	0.12715292
54	0x3e064313	0.13111524
55	0xbe47c283	-0.19507794
56	0xbe9cba86	-0.30611056
57	0x3e0df813	0.13864164
58	0x3e71bcda	0.23607197
59	0xbf1c721d	-0.61111623
60	0xbd8bb013	-0.06820693
61	0xbd02303e	-0.03178429
62	0x3dc14ec3	0.09438851
63	0xbe4c6b21	-0.19962741
64	0xbc506d4c	-0.012721371
65	0x3e67688a	0.22598472
66	0xbe2cdff8	-0.16882312
67	0x3df18919	0.117937274
68	0xbc29d141	-0.010364831
69	0x3eb78007	0.35839865
70	0x3d84c1e6	0.06482296
71	0x3de13528	0.10996467
72	0xbd4d3561	-0.050099734
73	0xbdb344fe	-0.087533936
74	0x3da5413a	0.080690816
75	0xbe5ddeb6	-0.21666989
76	0xbe8c2f3c	-0.27379787
77	0xbed3853e	-0.41312593
78	0x3e07a9ee	0.13248417
79	0x3ea99767	0.33123323
80	0x3e4f5e77	0.20250879
81	0xbdc9eefb	-0.09860035
82	0xbecdf6fd	-0.402275
83	0x3dd44c65	0.103661336
84	0xbeddfae4	-0.43355477
85	0xbe8acd20	-0.27109623
86	0x3d27d9b3	0.0409791
87	0x3e74044e	0.23829767
88	0x3e0e5124	0.1389814
89	0x3e335880	0.17514229
90	0xbea9a569	-0.3313401
91	0x3cd11ea9	0.025527315
92	0x3d19fdf0	0.03759569
93	0xbe8187a2	-0.25298792
94	0xbcf83acf	-0.03030148
95	0x3d810d24	0.063013345
96	0x3e0b9980	0.13632774
97	0x3e73f05f	0.23822163
98	0x3e9d06b5	0.3066918
99	0x3e381067	0.17975007
100	0x3e5d9397	0.21638332
101	0xbdd72f58	-0.10507077
102	0x3ca12f14	0.019675769
103	0x3e58d86f	0.21176313
104	0x3e1d56e4	0.15365177
105	0xbd83655e	-0.06415819
106	0xbde647b4	-0.11244145
107	0x3d8be3c4	0.06830552
108	0x3eb69262	0.35658556
109	0x3e5d11ba	0.21588793
110	0x3e30de5e	0.17272326
111	0x3e5a6522	0.21327642
112	0x3ba8b089	0.0051479978
113	0x3e0df51b	0.13863032
114	0x3f10f7ec	0.566283
115	0xbc9793b1	-0.018503042
116	0x3e71d759	0.23617305
117	0x3e75ae1b	0.23992197
118	0xbd360be8	-0.04444495
119	0x3f2e848e	0.6817101
120	0x3eb58db6	0.3545968
121	0x3de6d7b9	0.112716146
122	0x3ebd08d1	0.3692079
123	0x3dd44450	0.10364592
124	0x3e944416	0.28958195
125	0x3ec13a57	0.37739822
126	0x3ee89f0d	0.45433846
127	0x3eaffd41	0.34372905

encoder.lstm.bias_hh_l0 f4 [128]
0	0x3e5dbeaf	0.21654771
1	0xbdf397fd	-0.11894224
2	0xbdbca734	-0.09211579
3	0x3ece369a	0.40276033
4	0x3e5bb71c	0.2145657
5	0xbe0e5f60	-0.1390357
6	0x3f1557e2	0.58337224
7	0x3f1c1a5d	0.6097773
8	0x3e8de6ff	0.277153
9	0xbd01ea9e	-0.03171789
10	0x3eb76e3a	0.35826284
11	0x3f073980	0.52822113
12	0xbe1742ed	-0.14771624
13	0x3e4ac8c0	0.19803143
14	0x3ec97f64	0.39355004
15	0x3de6656d	0.11249814
16	0x3eac4381	0.3364525
17	0x3e72cf30	0.23711848
18	0x3dc87f8c	0.09789953
19	0x3e7318ff	0.23740004
20	0x3e18df8e	0.1492903
21	0x3ead18a0	0.3380785
22	0x3cd8468b	0.026400825
23	0x3f1fab90	0.6237116
24	0xbd0c2f18	-0.0342246
25	0xbdfdbaee	-0.1238917
26	0x3ef6bfc9	0.48193195
27	0xbe829b74	-0.25509226
28	0xbda07777	-0.07835286
29	0x3d8266fa	0.063672975
30	0x3e0cb4bd	0.13740821
31	0x3edeb45a	0.43496972
32	0xbe828034	-0.25488436
33	0x3e42ba37	0.19016348
34	0x3e0f707d	0.14007755
35	0x3e8d2388	0.2756617
36	0x3e846e61	0.25865462
37	0x3e6d4c2c	0.23173589
38	0x3eef8b9c	0.467862
39	0xba7c26d5	-0.00096188235
40	0x3ec0027a	0.3750189
41	0xbe54fccc	-0.2079956
42	0xbe9fa91a	-0.31183702
43	0xbc935c95	-0.017988482
44	0xbec5a1ca	-0.38599998
45	0x3e3537b0	0.17697024
46	0x3e3ab348	0.18232453
47	0xbbc808b1	-0.0061045517
48	0xbe9a7397	-0.30166313
49	0xbe193971	-0.14963318
50	0x3f0f061e	0.5586871
51	0xbd8c509a	-0.06851311
52	0xbe87d873	-0.26532325
53	0x3e023627	0.1271597
54	0x3e063e05	0.13109596
55	0xbe47c3fd	-0.19508357
56	0xbe9cba21	-0.30610755
57	0x3e0df9cd	0.13864823
58	0x3e71bde2	0.23607591
59	0xbf1c728d	-0.6111229
60	0xbd8baa1c	-0.06819555
61	0xbd023355	-0.031787235
62	0x3dc152c1	0.09439612
63	0xbe4c6b91	-0.19962908
64	0xbc506b1c	-0.012720849
65	0x3e67656e	0.22597286
66	0xbe2cdca0	-0.16881037
67	0x3df1890c	0.11793718
68	0xbc29ceae	-0.010364218
69	0x3eb77e19	0.35838392
70	0x3d84c092	0.06482042
71	0x3de139be	0.109973416
72	0xbd4d2ace	-0.05008965
73	0xbdb3438a	-0.087531164
74	0x3da53945	0.08067564
75	0xbe5de2b6	-0.21668515
76	0xbe8c2e82	-0.27379233
77	0xbed38631	-0.41313317
78	0x3e07acea	0.13249555
79	0x3ea99662	0.33122545
80	0x3e4f5e79	0.20250882
81	0xbdc9eefb	-0.09860035
82	0xbecdf835	-0.4022843
83	0x3dd45191	0.1036712
84	0xbeddfd16	-0.43357152
85	0xbe8acdf3	-0.27110252
86	0x3d27d799	0.040977094
87	0x3e740498	0.23829877
88	0x3e0e4e85	0.1389714
89	0x3e33590d	0.17514439
90	0xbea9a45b	-0.33133206
91	0x3cd10d75	0.025519112
92	0x3d19fcc0	0.037594557
93	0xbe8186d6	-0.25298184
94	0xbcf84421	-0.030305924
95	0x3d81115f	0.063021414
96	0x3e0b9c92	0.13633946
97	0x3e73eec5	0.23821552
98	0x3e9d07b2	0.30669934
99	0x3e381267	0.1797577
100	0x3e5d96d7	0.21639572
101	0xbdd736c8	-0.105084956
102	0x3ca130cc	0.019676588
103	0x3e58d6c9	0.21175684
104	0x3e1d5406	0.15364084
105	0xbd836133	-0.06415024
106	0xbde6491b	-0.112444125
107	0x3d8bdd96	0.068293735
108	0x3eb6928f	0.3565869
109	0x3e5d12ec	0.2158925
110	0x3e30dd39	0.1727189
111	0x3e5a65c8	0.21327889
112	0x3ba8b219	0.005148184
113	0x3e0df73d	0.13863845
114	0x3f10f7ac	0.5662792
115	0xbc979626	-0.018504214
116	0x3e71d96a	0.23618093
117	0x3e75ab0e	0.23991033
118	0xbd360155	-0.044434864
119	0x3f2e84b6	0.6817125
120	0x3eb58cf5	0.35459104
121	0x3de6dc63	0.11272504
122	0x3ebd09e5	0.3692161
123	0x3dd448ac	0.103654236
124	0x3e944262	0.28956896
125	0x3ec13b9c	0.3774079
126	0x3ee89d27	0.45432398
127	0x3eaffbec	0.3437189

decoder.lstm.weight_ih_l0 f4 [128, 5]
0	0x4025a596	2.5882316
1	0xbec2468e	-0.37944454
2	0xbec07335	-0.37587896
3	0xbf1a2984	-0.602196
4	0xbf18deae	-0.5971478
5	0xbd4392d8	-0.047747463
6	0xbeeb63fb	-0.45974717
7	0xbed810b0	-0.42200232
8	0xbf3436b1	-0.7039595
9	0x3f7d1b71	0.9887
10	0x3f7ff27f	0.99979395
11	0xbe0e3709	-0.13888182
12	0x3dbd2d72	0.09237184
13	0xbee7a5ee	-0.45243782
14	0xbce68f69	-0.028144555
15	0xbd8264e0	-0.06366897
16	0xbe6b5b29	-0.22983994
17	0x3f56149a	0.83625185
18	0x408d3394	4.412546
19	0xbfbff238	-1.4995794
20	0xbde7c575	-0.11316959
21	0xbe9b82fb	-0.30373368
22	0x3f3e3104	0.7429354
23	0x3eda0341	0.42580608
24	0xbeda395f	-0.42621896
25	0xbcc98dd7	-0.024603767
26	0xbe128ed2	-0.14312294
27	0x3d6c1578	0.05763766
28	0xbe2cf917	-0.16891895
29	0x3f11baec	0.56925845
30	0xbd1f39c1	-0.038873438
31	0x3da3b157	0.07992809
32	0x3f0223b6	0.5083574
33	0xbfa4c787	-1.2873391
34	0xbc934d32	-0.017981146
35	0xbd6fe174	-0.05856462
36	0x3ea12e46	0.31480616
37	0xbf9bcb41	-1.2171403
38	0x3e6d0d5f	0.23149632
39	0xbf6f608d	-0.935067
40	0x3cb3bc29	0.021940308
41	0xbf4c2b2f	-0.7975339
42	0xbc895cdf	-0.016767917
43	0xbcd91f4a	-0.026504178
44	0xbe7df15e	-0.24799106
45	0xbc1f077c	-0.009706374
46	0xbea13563	-0.31486043
47	0x3e9e5c08	0.3092959
48	0x3eaaa31b	0.33327565
49	0x3e0ded42	0.13860038
50	0x3d5b7638	0.05357954
51	0xbe0805af	-0.13283418
52	0xbf49b8f9	-0.7879787
53	0x3f3bfc14	0.73431516
54	0xbe6a6599	-0.22890319
55	0x3d120474	0.035648778
56	0x40022a3f	2.0338285
57	0x3e96d8cc	0.29462278
58	0xbf7413fa	-0.9534298
59	0x3eb1afec	0.3470453
60	0x3d9bcfa7	0.07607966
61	0xbeef6b7a	-0.46761686
62	0x3e7c07aa	0.24612299
63	0x3d58fde5	0.052976508
64	0x3f0c937b	0.5491254
65	0x3dbf9186	0.09353928
66	0x3f705474	0.93878865
67	0xbf3da4b7	-0.7407946
68	0x3ee3f46e	0.44522423
69	0xbfee18b3	-1.8601288
70	0xbac8ae1a	-0.0015310675
71	0xbf81ecb4	-1.0150361
72	0xbebc7a48	-0.36812043
73	0x3eaa57c2	0.3327008
74	0x3db7a0db	0.089662276
75	0x3e2c2694	0.16811591
76	0x3ea36159	0.31910208
77	0x3d4decfd	0.050274838
78	0xbe8c33b3	-0.27383193
79	0x3f58bd9e	0.8466433
80	0xbcd7d156	-0.026344936
81	0x40009e2c	2.009654
82	0xbf7baf05	-0.98313934
83	0x3f1d951f	0.61555666
84	0xbf62f1b7	-0.8865008
85	0x3b7bedcb	0.0038441296
86	0x408223c8	4.066868
87	0x3eee8f0d	0.46593514
88	0x3d20ca05	0.03925516
89	0xbfbbbbd4	-1.4666696
90	0x3e93b1b2	0.28846508
91	0xbdf56e3c	-0.11983916
92	0xbe3428d2	-0.17593697
93	0x3ec1cb1c	0.37850273
94	0x3e4a1a27	0.19736539
95	0xbd922586	-0.07136063
96	0x3fc2f99d	1.5232426
97	0x3ff5cf9e	1.9203985
98	0xbf85354f	-1.0406893
99	0xbec338f7	-0.38129398
100	0x3ea79ea3	0.32738218
101	0xbec8035e	-0.3906507
102	0x3ea53461	0.32266524
103	0xbf52bd00	-0.8231964
104	0x3f8ddd23	1.108311
105	0xbbde7f7f	-0.006790101
106	0x3e99e7b9	0.30059603
107	0xbf5177a7	-0.818232
108	0xbf045da6	-0.51705396
109	0x3e75f14c	0.24017829
110	0x3eee368e	0.46525997
111	0x3ecff8f3	0.4061962
112	0x3f546438	0.8296542
113	0xbf280a2c	-0.6564052
114	0x3e73319a	0.2374939
115	0xbd874fa3	-0.066069864
116	0xbf9f26ec	-1.2433753
117	0xbf2a9dc8	-0.66647005
118	0xbea8a98f	-0.32941863
119	0x3f4ff77b	0.81237
120	0x3d9cc12f	0.07654034
121	0xbf9439a2	-1.1580088
122	0xbe943633	-0.289476
123	0x3efb452b	0.49076208
124	0xbe623aaa	-0.22092691
125	0x3cd038fb	0.025417795
126	0xbe47a8b7	-0.19497953
127	0x3f82c676	1.0216815
128	0xbd069f33	-0.032866668
129	0xbf3becfb	-0.7340848
130	0x3cf641a0	0.03006059
131	0x3e92c550	0.28666162
132	0x3e033447	0.12812911
133	0xbdd6ceb2	-0.10488643
134	0xbfa64a3e	-1.2991407
135	0xbd371c97	-0.044705
136	0x3f1059d1	0.5638705
137	0xbce8da60	-0.028424442
138	0xbdd6f600	-0.104961395
139	0xbc5b4ddd	-0.013385263
140	0xbd9f9847	-0.077927165
141	0x3ccf3a42	0.025296334
142	0xbfcc4b9b	-1.5960573
143	0x3e56ac77	0.20964228
144	0xbee7fb9c	-0.4530915
145	0x3dadee1d	0.08492682
146	0xbd99da83	-0.07512381
147	0x3f01879c	0.5059755
148	0xbfcaf991	-1.5857412
149	0xbe501e72	-0.20324114
150	0xbe2708fa	-0.16312018
151	0xbd716bd1	-0.058940712
152	0x3e06189e	0.13095328
153	0x3ab37a2f	0.001369303
154	0xbefb8bb7	-0.4913003
155	0xbbc1c59b	-0.005913449
156	0x4000a961	2.010338
157	0x3e9eea17	0.3103797
158	0x3f874d23	1.0570415
159	0xbf9568ed	-1.1672646
160	0xc0ac7189	-5.3888593
161	0xbecd2850	-0.40069818
162	0x3eb40ace	0.35164493
163	0x3efc6282	0.49293905
164	0x3f4d6935	0.8023866
165	0x3d9b2eb6	0.07577269
166	0xbf0696db	-0.5257394
167	0x3f3adbf6	0.72991884
168	0xbe8d62cf	-0.27614447
169	0x3fca5e11	1.5809957
170	0x3f7d3d02	0.98921216
171	0x3e0012b0	0.12507129
172	0x3da90f98	0.082549274
173	0xbee4bebb	-0.44676766
174	0xbf149bf1	-0.5805045
175	0x3c138e60	0.009006113
176	0xbe0edd55	-0.13951619
177	0xbf753e4e	-0.95798194
178	0x4005fb92	2.0934796
179	0xbda0456a	-0.0782574
180	0xbe20d0a7	-0.15704595
181	0x3b862322	0.0040935436
182	0x3f03bd30	0.5146055
183	0xbf37dbca	-0.71819746
184	0x3f1cfb04	0.6132052
185	0x3ccd750f	0.025080232
186	0xbfc31646	-1.5241172
187	0x3f6d7e60	0.9277096
188	0x3fdc506d	1.7212044
189	0xbef9906b	-0.48742995
190	0xbd4ee67a	-0.05051277
191	0x3faac712	1.3342001
192	0x40026cb5	2.037885
193	0xbd857938	-0.06517261
194	0xbe5fdea1	-0.2186227
195	0x3d0de908	0.034646064
196	0x3ec21c65	0.37912288
197	0x3fed0110	1.8515949
198	0x3f39fea5	0.7265418
199	0x3d9b523d	0.07584045
200	0x3dbe4dba	0.09292169
201	0x3f13ebce	0.57781684
202	0x3f9200d0	1.1406498
203	0x3ea1120e	0.31459087
204	0x3bfa86f6	0.007645483
205	0x3d1a8b97	0.03773078
206	0x3e1d8fd5	0.15386899
207	0x3e99efbf	0.30065724
208	0xbe3c94d2	-0.18416145
209	0x3f2b96a1	0.67026716
210	0x3ccf26ff	0.02528715
211	0xbf504da1	-0.8136845
212	0x3fa53c83	1.2909092
213	0x3f89abe4	1.0755582
214	0x3f2c968c	0.67417216
215	0x3c9717ac	0.018443905
216	0x3eac4ae2	0.3365088
217	0x3f109546	0.56477773
218	0xbf7e7b8d	-0.99407274
219	0x3f70de47	0.9408917
220	0x3cc1e5be	0.02366912
221	0xbdd583fc	-0.10425565
222	0x3e6c9d63	0.23106913
223	0xbe977a2a	-0.2958539
224	0xbded4bc8	-0.1158672
225	0x3d0ffe0b	0.035154384
226	0xbead8d54	-0.33896887
227	0xbf462f10	-0.7741556
228	0x4011fc8c	2.2810392
229	0x40517416	3.2727103
230	0x3d9e0b21	0.077169664
231	0xbe2b2d19	-0.16716422
232	0xbe9a0f45	-0.30089775
233	0x3f7813c7	0.9690518
234	0xbf058644	-0.52158
235	0x3e1621ac	0.14661282
236	0xbf925008	-1.1430674
237	0x3ebf80c6	0.37402934
238	0x3fa894ed	1.3170449
239	0xbdcc9ab4	-0.09990445
240	0x3d86946b	0.06571277
241	0x3fb5f819	1.4216338
242	0x3ec54c7a	0.3853491
243	0xbef4f265	-0.47841182
244	0x402f8463	2.7424552
245	0x3d610317	0.054934587
246	0x3f14f037	0.5817904
247	0x3f0e60f5	0.55616695
248	0xbf01f0ba	-0.50757945
249	0x3cb124f2	0.021624062
250	0xbcff3f81	-0.03115821
251	0xbee109a2	-0.43952662
252	0xbec3f0e4	-0.38269722
253	0xbed4cefe	-0.41564173
254	0xbec7c300	-0.3901596
255	0xbd393ab6	-0.045222007

decoder.lstm.weight_hh_l0 f4 [128, 32]
0	0xc03aef99	-2.9208739
1	0xbf69235f	-0.91069597
2	0x401ef355	2.4836018
3	0xbea0149c	-0.31265724
4	0x3e69542a	0.22786012
5	0xbfa7e202	-1.3115847
6	0xbee71a84	-0.45137417
7	0x3ece0359	0.4023693
8	0x3b874c6f	0.0041289846
9	0xc013fcc0	-2.3123016
10	0x3f8a269e	1.0793035
11	0xbf27222d	-0.65286523
12	0xbfa27160	-1.2690849
13	0xbcaf7625	-0.02141864
14	0xbf865d5c	-1.0497241
15	0x3e977375	0.29580274
16	0xbe3888ad	-0.18020888
17	0xbf32f266	-0.6990112
18	0x3e9b5e53	0.303454
19	0x3f94b7f9	1.1618644
20	0x3edddadb	0.43331036
21	0x3eb7d786	0.3590662
22	0x3f01e38a	0.5073782
23	0xbfdb6861	-1.7141229
24	0x3f3bb29e	0.73319423
25	0xbeae15fc	-0.34001148
26	0xbf01c78d	-0.50695115
27	0x3f20ffe9	0.6289049
28	0x3fae0e30	1.359808
29	0xbf3b7619	-0.7322708
30	0xbe4f9a85	-0.20273788
31	0x3ccc8ae1	0.024968566
32	0xbedc40c5	-0.43018165
33	0xbf1e3579	-0.6180034
34	0xbecc609f	-0.39917466
35	0x3f73da24	0.9525473
36	0xbdc3d21b	-0.09561559
37	0x3fbca2fe	1.4737241
38	0xbf4a8661	-0.79111296
39	0xbf387835	-0.7205842
40	0x3dd3b5b7	0.10337394
41	0xbe26c945	-0.16287716
42	0x3f5ae10a	0.8549963
43	0xbf2e3ae2	-0.680586
44	0xbd6b35ea	-0.057424463
45	0x3f1b2c9f	0.6061496
46	0xbf24addb	-0.6432778
47	0x3f022143	0.50832003
48	0xbeff245f	-0.49832436
49	0x3e33b7b1	0.17550541
50	0xbdfb604f	-0.12274229
51	0xbf9a0779	-1.203353
52	0x3ee4b723	0.44670972
53	0x3f0efbf1	0.5585318
54	0x3f44f0b3	0.7692978
55	0x3e7af9ed	0.24509402
56	0xbf15a24d	-0.58450776
57	0xbfa1612b	-1.2607778
58	0x3fe456a6	1.7838943
59	0x3f298c95	0.66230136
60	0xbeab77f3	-0.33489951
61	0xbf70fe95	-0.9413846
62	0x3ed587cd	0.4170517
63	0x3efba24e	0.49147266
64	0xbf8881a3	-1.0664562
65	0x3f1ab519	0.60432583
66	0xbea46555	-0.3210856
67	0xbf3b8695	-0.7325223
68	0xbf491517	-0.78547806
69	0x3f39c6e5	0.72569114
70	0xbe6ba214	-0.23011047
71	0xbf5c67b1	-0.8609572
72	0x3f20492a	0.6261164
73	0xbe997f8d	-0.29980126
74	0xbe427db5	-0.18993266
75	0xbf08d4b1	-0.5344954
76	0x3fbccbc0	1.474968
77	0xbfbac657	-1.4591779
78	0xbece2307	-0.402611
79	0xbf31399e	-0.6922854
80	0x3edcb2d4	0.43105185
81	0x3f165f1d	0.5873888
82	0xbe633162	-0.22186807
83	0xbee2f4b5	-0.44327322
84	0xbfa03fda	-1.2519486
85	0xbe1e7f1e	-0.15478179
86	0x3db77e75	0.08959667
87	0x3f92579c	1.1432986
88	0x3e0a0369	0.13477863
89	0x3dfb7c1f	0.122795336
90	0x3ee7427a	0.45167905
91	0x3fa60e98	1.2973204
92	0xc008ab33	-2.1354492
93	0xbd24af4a	-0.04020623
94	0x3ecf374d	0.4047188
95	0xbef36716	-0.47539586
96	0xbf3803f8	-0.71881056
97	0xbe9e4af4	-0.3091656
98	0x3f735b61	0.9506131
99	0xbf596569	-0.84920365
100	0x3f6d1e7e	0.9262465
101	0xbefcb777	-0.49358723
102	0x3f4e6f54	0.80638623
103	0xbcf4b287	-0.029870285
104	0x3fc3dd48	1.5301905
105	0xbf4f677a	-0.8101727
106	0xbfcff3f0	-1.6246319
107	0x3ebded8a	0.3709529
108	0xbf8a76c7	-1.0817498
109	0xbf7bd1db	-0.9836709
110	0xbdbfdd4a	-0.093683794
111	0x3f38fdbe	0.7226218
112	0xbf0538d2	-0.52039826
113	0xbfa7d8fd	-1.3113095
114	0xbdc3f535	-0.09568254
115	0xbdd35d2a	-0.10320504
116	0xbfa78326	-1.3086898
117	0xbf051146	-0.5197948
118	0xbdadef57	-0.08492916
119	0x3eaecd49	0.34140995
120	0xbe5f8cce	-0.21831056
121	0xc007c16d	-2.1211808
122	0xbf7e63bc	-0.9937093
123	0x3d954f77	0.07290547
124	0xbf9308a3	-1.1487011
125	0x3f3c444a	0.735417
126	0x3f1daf09	0.6159521
127	0xbe018c12	-0.12651089
128	0xbebee31f	-0.37282655
129	0xbf109fc0	-0.5649376
130	0xbf1b89e0	-0.60757256
131	0x3fb43b9d	1.4080693
132	0xbeb79452	-0.35855347
133	0xbe7149b3	-0.2356327
134	0xbe188129	-0.1489302
135	0x3e490e59	0.1963438
136	0xbe9d66cc	-0.3074249
137	0x3fcf1cb0	1.618063
138	0xbfdbe9c0	-1.718071
139	0x3f715d4a	0.9428297
140	0x3f5ddd75	0.8666604
141	0xbee9c06b	-0.45654616
142	0xbf2254d6	-0.634107
143	0x3f005183	0.50124377
144	0xbf81d2f2	-1.01425
145	0x3f24a679	0.6431652
146	0x3d1f9d08	0.038968116
147	0xbf47fe86	-0.78122747
148	0x3ed4730e	0.4149403
149	0xbfaaf6f9	-1.335662
150	0xbe560b4c	-0.20902747
151	0x3ded83ac	0.1159738
152	0xc008853b	-2.1331317
153	0xbf2e7271	-0.68143374
154	0xbecf9878	-0.40546012
155	0x3e7d57f8	0.24740589
156	0x3e635634	0.22200853
157	0x3ed031a7	0.40662882
158	0xbfbe7aa2	-1.4881175
159	0x3daf4192	0.085574284
160	0xbf51e029	-0.81982666
161	0x3d355751	0.044272725
162	0x3e98dd2f	0.2985625
163	0xbec3b5a6	-0.38224524
164	0xbefdde71	-0.49583772
165	0x4015f445	2.343034
166	0x3f36b0bd	0.7136343
167	0x3e51e7cc	0.2049858
168	0xbf2ca2a5	-0.67435676
169	0x3f75aa6b	0.9596316
170	0xbfa11997	-1.2585934
171	0x3f272ec9	0.65305763
172	0x3e2b90f4	0.16754514
173	0xbf94ae98	-1.1615782
174	0xbe51a9a9	-0.20474876
175	0xbf2880cc	-0.6582153
176	0xbf9e87e5	-1.2385222
177	0xbec9d5a1	-0.39420798
178	0xbd005516	-0.031331144
179	0x3ddc042d	0.10742984
180	0xbeabbbb6	-0.3354165
181	0x3cbf0820	0.023319304
182	0xbe4cf2cd	-0.20014496
183	0xbb5c4c9a	-0.0033614994
184	0xbe162c3b	-0.1466531
185	0x3f625c7f	0.8842239
186	0x3f61d7c1	0.8821984
187	0x3ef94b22	0.48690134
188	0x3e7e5ddb	0.2484049
189	0x3e604c05	0.21903999
190	0xbffff6b4	-1.9997163
191	0xbf1893a7	-0.596003
192	0xbe791abd	-0.24326606
193	0x3e0db3a2	0.13838056
194	0xbe9040b4	-0.28174365
195	0xbf1aa64c	-0.6041
196	0x3dc539bf	0.09630155
197	0xbce76cb8	-0.028250083
198	0xbba9758a	-0.0051714825
199	0xbf039acf	-0.51408094
200	0xbdfddf10	-0.123960614
201	0xbed2821d	-0.41114894
202	0x3ef9f455	0.48819223
203	0xbecfaac9	-0.40559986
204	0xbf00d90c	-0.5033119
205	0x3df34d04	0.11879924
206	0xbdba2a33	-0.0909008
207	0x3eac3881	0.3363686
208	0xbeeb2c18	-0.45932078
209	0xbf64de08	-0.8940129
210	0xbdea202b	-0.11431917
211	0x3f24e97d	0.64418775
212	0x3ea7695b	0.32697567
213	0xbe29ea67	-0.16593324
214	0x3e11903e	0.1421518
215	0xbe8d7005	-0.27624527
216	0x3ee7e6cf	0.4529328
217	0x3f4e03d2	0.8047458
218	0xbfb985d7	-1.449397
219	0x3e06acd9	0.13151874
220	0xbfa6a13b	-1.3017954
221	0x3f823ce2	1.017483
222	0x3fa742d0	1.3067265
223	0xbf50fbb4	-0.8163407
224	0x3f8982aa	1.0743
225	0xbed143b8	-0.40871978
226	0x3f7459ad	0.95449334
227	0x3fbbfba4	1.468617
228	0x3f406c29	0.7516504
229	0xbf14ee7f	-0.58176416
230	0x3ea5fbda	0.3241871
231	0xbf8c526d	-1.0962654
232	0x3f2dded6	0.67918146
233	0x3fd8b0a9	1.6928912
234	0x3f900729	1.1252185
235	0x3fbb59d5	1.463679
236	0xbe02cd34	-0.12773591
237	0xbe87520c	-0.26429784
238	0xbdbca74d	-0.092115976
239	0x3f22ded9	0.6362129
240	0xbdda81f7	-0.1066932
241	0x3eadc297	0.33937523
242	0xbe27703e	-0.16351411
243	0x3ee1e4fc	0.44120014
244	0x3e00109d	0.12506337
245	0xbeb7614f	-0.35816428
246	0xbe8b91da	-0.27259713
247	0xbf2ab536	-0.66682756
248	0xbf94fc0c	-1.1639419
249	0xbea87705	-0.32903305
250	0xbf8a07f5	-1.0783678
251	0x3f27c788	0.65538836
252	0x3f08e448	0.5347333
253	0xbf0c2137	-0.5473818
254	0x3ec61d40	0.3869419
255	0xbe4c2ff8	-0.19940174

decoder.lstm.bias_ih_l0 f4 [128]
0	0xbf07d36a	-0.5305697
1	0xbe6093b6	-0.21931347
2	0xbe21b911	-0.15793253
3	0xbedd4b08	-0.43221307
4	0x3d02495c	0.031808242
5	0x3d8312c8	0.064000666
6	0xbec64dcc	-0.3873123
7	0xbd900476	-0.07032101
8	0xbed42a88	-0.414387
9	0x3e62e5c8	0.22157967
10	0xbca716a7	-0.020396544
11	0x3e67ec49	0.2264873
12	0x3ce8a1a1	0.028397383
13	0xbe37cd79	-0.17949475
14	0xbe3a3c74	-0.18187124
15	0x3e6cbdf2	0.23119333
16	0xbce6aecd	-0.028159523
17	0xbe5c0965	-0.21487959
18	0x3dd83939	0.10557789
19	0x3e291f66	0.16515884
20	0xbe8a0acb	-0.2696136
21	0xbe9da2cb	-0.30788264
22	0x3e122df3	0.1427534
23	0xbc4b53c7	-0.012410111
24	0xbe799aa4	-0.24375397
25	0xbef8289e	-0.48468488
26	0xbda4783d	-0.08030746
27	0x3d7506ac	0.059820816
28	0xbf2f25b5	-0.6841691
29	0xbf142079	-0.5786205
30	0xbe408f37	-0.18804632
31	0x3e3bcac0	0.18339062
32	0x3ecd5aca	0.4010833
33	0x3e3597a4	0.17733628
34	0xbef0faf8	-0.47066474
35	0xbc98ab33	-0.018636322
36	0x3af2e8e0	0.0018532537
37	0x3df76757	0.120802574
38	0x3ebee7da	0.37286264
39	0x3f09e833	0.5386993
40	0x3eca7ed9	0.39549902
41	0x3e6fb883	0.2341023
42	0x3ef79ead	0.48363248
43	0x3cbe7a01	0.023251535
44	0xbdcf8d6f	-0.10134398
45	0x3d48d0be	0.049027197
46	0xbd80e18c	-0.0629302
47	0x3e49c028	0.19702208
48	0x3eec05d8	0.46098208
49	0xbe1ceb7d	-0.15324207
50	0xbed586db	-0.4170445
51	0x3f21d84c	0.6322067
52	0x3ea6455a	0.32474786
53	0x3ec2eddd	0.380721
54	0xbf266171	-0.64992434
55	0x3dff2dc8	0.12459904
56	0x3e915ebe	0.28392595
57	0x3e45be30	0.19310832
58	0x3f0f43e2	0.55962956
59	0xbee8071b	-0.4531792
60	0x3e5145f8	0.20436847
61	0xbe5d2f4a	-0.2160007
62	0x3e46cc5f	0.19413899
63	0x3ed14d79	0.4087942
64	0x3e2f41de	0.1711497
65	0x3df4048f	0.11914932
66	0xbc92ba4c	-0.017911099
67	0x3db4190f	0.08793842
68	0xbded6494	-0.115914494
69	0xbd45e4fb	-0.048314076
70	0x3d144585	0.03619911
71	0x3e07b2a6	0.13251743
72	0xbe08f11d	-0.13373227
73	0x3e25a98a	0.16177955
74	0xbc18d1f3	-0.0093274
75	0xbcb31967	-0.021862699
76	0xbd3a0280	-0.04541254
77	0x3e59c019	0.21264686
78	0x3dab65d2	0.0836903
79	0xbd773012	-0.060348578
80	0xbe0c3e2c	-0.13695592
81	0xbcd23b8b	-0.025663158
82	0x3df44408	0.119270384
83	0xbcbbe0a5	-0.022934267
84	0xbd90496f	-0.07045256
85	0xbd9bd854	-0.07609621
86	0xbcc36d72	-0.023855899
87	0xbd37d101	-0.044877056
88	0xbc17d8cb	-0.009267996
89	0xbe08e907	-0.13370143
90	0x3dadf4e1	0.084939726
91	0xbd87d934	-0.06633225
92	0xbcfab84c	-0.030605458
93	0xbd259b3b	-0.040431242
94	0xbdac596d	-0.08415494
95	0x3daae272	0.08343972
96	0xbf14503c	-0.5793493
97	0x3f097799	0.53698117
98	0x3ddb9d31	0.10723341
99	0x3e10838f	0.14112686
100	0x3ea8d162	0.32972246
101	0x3ed11199	0.40833738
102	0x3ed17f65	0.40917507
103	0x3ee0ea71	0.43928865
104	0x3e5bc581	0.2146206
105	0x3ed11f64	0.40844262
106	0xbd305c28	-0.043056637
107	0xbddb136a	-0.10697062
108	0x3f115f74	0.56786275
109	0x3e3c784d	0.18405266
110	0x3ecd2266	0.40065306
111	0x3cfaa094	0.030594148
112	0x3e71005f	0.23535298
113	0x3dc3e92b	0.09565958
114	0x3ea37476	0.3192479
115	0xbcc32a2c	-0.02382382
116	0x3ce2633f	0.027635215
117	0x3c975408	0.018472686
118	0x3f164318	0.58696127
119	0x3f1a12f1	0.6018515
120	0x3cf610ac	0.030037247
121	0x3e13162f	0.14363931
122	0xbe309c94	-0.1724723
123	0xbd9f3922	-0.07774569
124	0x3d977e78	0.07397169
125	0x3f04b992	0.5184566
126	0x3d32fbbd	0.043697108
127	0xbd9b2ff5	-0.075775065

decoder.lstm.bias_hh_l0 f4 [128]
0	0xbf07d21a	-0.53054965
1	0xbe609601	-0.21932222
2	0xbe21b891	-0.15793063
3	0xbedd4afc	-0.4322127
4	0x3d025291	0.031817023
5	0x3d831ae4	0.06401613
6	0xbec64ed1	-0.38732007
7	0xbd9002a2	-0.07031752
8	0xbed42b8e	-0.4143948
9	0x3e62e746	0.22158536
10	0xbca6f8d3	-0.02038232
11	0x3e67eac3	0.22648148
12	0x3ce89d65	0.028395364
13	0xbe37cd2d	-0.17949362
14	0xbe3a3d47	-0.18187438
15	0x3e6cbde1	0.23119308
16	0xbce68d51	-0.028143557
17	0xbe5c0be9	-0.21488918
18	0x3dd835c3	0.10557129
19	0x3e292459	0.16517772
20	0xbe8a0c9a	-0.2696274
21	0xbe9da1a3	-0.30787382
22	0x3e12309a	0.14276353
23	0xbc4b4ccb	-0.012408446
24	0xbe799b89	-0.24375738
25	0xbef8297f	-0.4846916
26	0xbda476af	-0.080304496
27	0x3d750284	0.059816852
28	0xbf2f261c	-0.68417525
29	0xbf14205c	-0.57861876
30	0xbe408f0c	-0.18804568
31	0x3e3bcc1e	0.18339583
32	0x3ecd5b1b	0.4010857
33	0x3e359838	0.17733848
34	0xbef0f92e	-0.4706511
35	0xbc98b84b	-0.018642565
36	0x3af30869	0.0018541935
37	0x3df767a5	0.120803155
38	0x3ebee6a3	0.37285337
39	0x3f09e7d4	0.53869367
40	0x3eca7dfd	0.39549246
41	0x3e6fbcc1	0.23411848
42	0x3ef79e5e	0.48363012
43	0x3cbe8e70	0.023261279
44	0xbdcf9920	-0.10136628
45	0x3d48c670	0.04901737
46	0xbd80e0f4	-0.062929064
47	0x3e49bf8e	0.19701979
48	0x3eec0519	0.4609764
49	0xbe1cea59	-0.15323772
50	0xbed587a0	-0.41705036
51	0x3f21d813	0.6322033
52	0x3ea64371	0.3247333
53	0x3ec2ef95	0.38073412
54	0xbf26628e	-0.6499413
55	0x3dff2e52	0.12460007
56	0x3e915cfb	0.2839125
57	0x3e45bfcf	0.1931145
58	0x3f0f42e1	0.55961424
59	0xbee80a27	-0.45320246
60	0x3e514857	0.20437752
61	0xbe5d2d44	-0.21599299
62	0x3e46ccdc	0.19414085
63	0x3ed14af9	0.40877512
64	0x3e2f429b	0.17115252
65	0x3df3fc36	0.1191334
66	0xbc92a648	-0.017901555
67	0x3db42131	0.08795393
68	0xbded6048	-0.1159063
69	0xbd45e1ba	-0.048310973
70	0x3d144cf9	0.03620622
71	0x3e07b0b4	0.13251
72	0xbe08f2d7	-0.13373886
73	0x3e25ada3	0.16179518
74	0xbc18c351	-0.009323911
75	0xbcb31e0a	-0.02186491
76	0xbd39fbd1	-0.045406166
77	0x3e59bcee	0.21263477
78	0x3dab6c3f	0.08370256
79	0xbd7734e0	-0.06035316
80	0xbe0c3d96	-0.13695368
81	0xbcd25b09	-0.025678175
82	0x3df44245	0.119267024
83	0xbcbbda54	-0.022931255
84	0xbd904446	-0.07044272
85	0xbd9bceb2	-0.076077834
86	0xbcc37742	-0.023860577
87	0xbd37cf57	-0.04487547
88	0xbc17cdc5	-0.009265368
89	0xbe08e5c3	-0.13368897
90	0x3dadf2c8	0.084935725
91	0xbd87d8ed	-0.06633172
92	0xbcfaa1d5	-0.030594746
93	0xbd25a85c	-0.040443763
94	0xbdac5473	-0.08414545
95	0x3daae381	0.08344174
96	0xbf1450ab	-0.5793559
97	0x3f0977a9	0.5369821
98	0x3ddba096	0.10723989
99	0x3e1081ea	0.14112058
100	0x3ea8d343	0.3297368
101	0x3ed11312	0.40834862
102	0x3ed17fee	0.40917915
103	0x3ee0e9ce	0.4392838
104	0x3e5bc55f	0.2146201
105	0x3ed1210c	0.40845525
106	0xbd3058ac	-0.043053314
107	0xbddb0a78	-0.10695356
108	0x3f116024	0.56787324
109	0x3e3c77e7	0.18405114
110	0x3ecd22df	0.40065667
111	0x3cfa8eae	0.030585613
112	0x3e7103ef	0.23536657
113	0x3dc3ecae	0.095666274
114	0x3ea373bd	0.3192424
115	0xbcc320b2	-0.023819301
116	0x3ce25805	0.027629862
117	0x3c976830	0.018482298
118	0x3f16433b	0.58696336
119	0x3f1a1305	0.6018527
120	0x3cf62ec9	0.030051606
121	0x3e131511	0.14363505
122	0xbe30a12f	-0.17248987
123	0xbd9f3a3c	-0.07774779
124	0x3d977d8d	0.07396994
125	0x3f04b8e4	0.5184462
126	0x3d3307f9	0.043708775
127	0xbd9b34a1	-0.075783975

decoder.linear.weight f4 [1, 32]
0	0xbff391d5	-1.902888
1	0x3d70f8fe	0.058831207
2	0xbd89926e	-0.06717382
3	0xbbcab71f	-0.0061863805
4	0xbcf94e44	-0.030432828
5	0x3cc7f453	0.024408495
6	0x3d5fcf35	0.054640967
7	0xbc8fb329	-0.017541485
8	0x3a449bfb	0.00075000495
9	0xbbf3b1bf	-0.0074369605
10	0xbc7efcd2	-0.015563207
11	0x3bc3367a	0.005957422
12	0x3d264996	0.04059752
13	0x3c2f9347	0.010716266
14	0x3ddee64d	0.1088377
15	0xbd929eda	-0.07159205
16	0x3ce974a0	0.028497994
17	0x3cbad6b9	0.022807466
18	0xbf379e75	-0.7172616
19	0xbd158c96	-0.036511026
20	0xbb70e007	-0.0036754624
21	0xbcf72dc9	-0.0301732
22	0xbdf60887	-0.12013345
23	0x3d82fe7e	0.06396197
24	0xbcfb8f43	-0.030707961
25	0xbbb168e7	-0.0054141167
26	0x3d2c7c5e	0.042110793
27	0xbe48785f	-0.19577168
28	0xbd4ec423	-0.05048002
29	0x3d64f125	0.055894036
30	0x3caafad2	0.020871554
31	0xbc4fe715	-0.012689372
