results/MSE_LSTM_enc_dec_output/955_model.pt (torch, 860225 bytes, 10 tensors)

output_zeros f4 [399, 512, 1]
00000000: 0000 0000 0000 0000 0000 0000 0000 0000
00000010: 0000 0000 0000 0000 0000 0000 0000 0000
00000020: 0000 0000 0000 0000 0000 0000 0000 0000
00000030: 0000 0000 0000 0000 0000 0000 0000 0000
00000040: 0000 0000 0000 0000 0000 0000 0000 0000
00000050: 0000 0000 0000 0000 0000 0000 0000 0000
00000060: 0000 0000 0000 0000 0000 0000 0000 0000
00000070: 0000 0000 0000 0000 0000 0000 0000 0000
00000080: 0000 0000 0000 0000 0000 0000 0000 0000
00000090: 0000 0000 0000 0000 0000 0000 0000 0000
000000a0: 0000 0000 0000 0000 0000 0000 0000 0000
000000b0: 0000 0000 0000 0000 0000 0000 0000 0000
000000c0: 0000 0000 0000 0000 0000 0000 0000 0000
000000d0: 0000 0000 0000 0000 0000 0000 0000 0000
000000e0: 0000 0000 0000 0000 0000 0000 0000 0000
000000f0: 0000 0000 0000 0000 0000 0000 0000 0000
00000100: 0000 0000 0000 0000 0000 0000 0000 0000
00000110: 0000 0000 0000 0000 0000 0000 0000 0000
00000120: 0000 0000 0000 0000 0000 0000 0000 0000
00000130: 0000 0000 0000 0000 0000 0000 0000 0000
00000140: 0000 0000 0000 0000 0000 0000 0000 0000
00000150: 0000 0000 0000 0000 0000 0000 0000 0000
00000160: 0000 0000 0000 0000 0000 0000 0000 0000
00000170: 0000 0000 0000 0000 0000 0000 0000 0000
00000180: 0000 0000 0000 0000 0000 0000 0000 0000
00000190: 0000 0000 0000 0000 0000 0000 0000 0000
000001a0: 0000 0000 0000 0000 0000 0000 0000 0000
000001b0: 0000 0000 0000 0000 0000 0000 0000 0000
000001c0: 0000 0000 0000 0000 0000 0000 0000 0000
000001d0: 0000 0000 0000 0000 0000 0000 0000 0000
000001e0: 0000 0000 0000 0000 0000 0000 0000 0000
000001f0: 0000 0000 0000 0000 0000 0000 0000 0000
00000200: 0000 0000 0000 0000 0000 0000 0000 0000
00000210: 0000 0000 0000 0000 0000 0000 0000 0000
00000220: 0000 0000 0000 0000 0000 0000 0000 0000
00000230: 0000 0000 0000 0000 0000 0000 0000 0000
00000240: 0000 0000 0000 0000 0000 0000 0000 0000
00000250: 0000 0000 0000 0000 0000 0000 0000 0000
00000260: 0000 0000 0000 0000 0000 0000 0000 0000
00000270: 0000 0000 0000 0000 0000 0000 0000 0000
00000280: 0000 0000 0000 0000 0000 0000 0000 0000
00000290: 0000 0000 0000 0000 0000 0000 0000 0000
000002a0: 0000 0000 0000 0000 0000 0000 0000 0000
000002b0: 0000 0000 0000 0000 0000 0000 0000 0000
000002c0: 0000 0000 0000 0000 0000 0000 0000 0000
000002d0: 0000 0000 0000 0000 0000 0000 0000 0000
000002e0: 0000 0000 0000 0000 0000 0000 0000 0000
000002f0: 0000 0000 0000 0000 0000 0000 0000 0000
00000300: 0000 0000 0000 0000 0000 0000 0000 0000
00000310: 0000 0000 0000 0000 0000 0000 0000 0000
00000320: 0000 0000 0000 0000 0000 0000 0000 0000
00000330: 0000 0000 0000 0000 0000 0000 0000 0000
00000340: 0000 0000 0000 0000 0000 0000 0000 0000
00000350: 0000 0000 0000 0000 0000 0000 0000 0000
00000360: 0000 0000 0000 0000 0000 0000 0000 0000
00000370: 0000 0000 0000 0000 0000 0000 0000 0000
00000380: 0000 0000 0000 0000 0000 0000 0000 0000
00000390: 0000 0000 0000 0000 0000 0000 0000 0000
000003a0: 0000 0000 0000 0000 0000 0000 0000 0000
000003b0: 0000 0000 0000 0000 0000 0000 0000 0000
000003c0: 0000 0000 0000 0000 0000 0000 0000 0000
000003d0: 0000 0000 0000 0000 0000 0000 0000 0000
000003e0: 0000 0000 0000 0000 0000 0000 0000 0000
000003f0: 0000 0000 0000 0000 0000 0000 0000 0000
0.0 0.0 0.0 0.0 0.0 0.0 0.0 0.0
0.0 0.0 0.0 0.0 0.0 0.0 0.0 0.0
0.0 0.0 0.0 0.0 0.0 0.0 0.0 0.0
0.0 0.0 0.0 0.0 0.0 0.0 0.0 0.0
0.0 0.0 0.0 0.0 0.0 0.0 0.0 0.0
0.0 0.0 0.0 0.0 0.0 0.0 0.0 0.0
0.0 0.0 0.0 0.0 0.0 0.0 0.0 0.0
0.0 0.0 0.0 0.0 0.0 0.0 0.0 0.0
0.0 0.0 0.0 0.0 0.0 0.0 0.0 0.0
0.0 0.0 0.0 0.0 0.0 0.0 0.0 0.0
0.0 0.0 0.0 0.0 0.0 0.0 0.0 0.0
0.0 0.0 0.0 0.0 0.0 0.0 0.0 0.0
0.0 0.0 0.0 0.0 0.0 0.0 0.0 0.0
0.0 0.0 0.0 0.0 0.0 0.0 0.0 0.0
0.0 0.0 0.0 0.0 0.0 0.0 0.0 0.0
0.0 0.0 0.0 0.0 0.0 0.0 0.0 0.0
0.0 0.0 0.0 0.0 0.0 0.0 0.0 0.0
0.0 0.0 0.0 0.0 0.0 0.0 0.0 0.0
0.0 0.0 0.0 0.0 0.0 0.0 0.0 0.0
0.0 0.0 0.0 0.0 0.0 0.0 0.0 0.0
0.0 0.0 0.0 0.0 0.0 0.0 0.0 0.0
0.0 0.0 0.0 0.0 0.0 0.0 0.0 0.0
0.0 0.0 0.0 0.0 0.0 0.0 0.0 0.0
0.0 0.0 0.0 0.0 0.0 0.0 0.0 0.0
0.0 0.0 0.0 0.0 0.0 0.0 0.0 0.0
0.0 0.0 0.0 0.0 0.0 0.0 0.0 0.0
0.0 0.0 0.0 0.0 0.0 0.0 0.0 0.0
0.0 0.0 0.0 0.0 0.0 0.0 0.0 0.0
0.0 0.0 0.0 0.0 0.0 0.0 0.0 0.0
0.0 0.0 0.0 0.0 0.0 0.0 0.0 0.0
0.0 0.0 0.0 0.0 0.0 0.0 0.0 0.0
0.0 0.0 0.0 0.0 0.0 0.0 0.0 0.0

encoder.lstm.weight_ih_l0 f4 [128, 4]
00000000: 1ebf ea3e e51e 86bc caef 103f f6da 02bf
00000010: e5e9 2f3f 3241 09bf 311d 503e 168b 55bf
00000020: a99a 4a3d f0e0 2e3f 8a55 77be 3168 e3be
00000030: 4200 b13e 5e6c 053f b3a0 fb3e 1316 06bf
00000040: cd68 da3c 9856 3cbe 68ba 5dbd 3196 c43e
00000050: 6419 0bbf a358 3a3e 5e0b da3c 3036 52bd
00000060: e2da 003f 41cd 733e 4534 22be c998 36be
00000070: d089 bc3d ed11 1cbf 0826 84bd 73a2 1bbe
00000080: 7a3b c53e d711 6bbe 4d40 513e 5067 af3d
00000090: bd9f 0f3c 9c18 94be 3396 8c3f 0ff1 88bd
000000a0: 8897 acbe 3eef 513f c194 8d3d 3396 b03e
000000b0: 739c c73d ea95 16bd ec38 293f 0869 523d
000000c0: 50c3 dd3e 6b77 10be 7458 0bbf 2e2a 0f40
000000d0: af94 253e 341d 15bf 15e2 6d3e 91f6 4c3e
000000e0: 2734 f43e 5409 8e3c cdd5 163b f111 a13e
000000f0: c722 473f 4327 84be 6fd0 393e 6f06 563f
00000100: fe60 4bbf 5de2 36be 9613 31bd f1bc 0d40
00000110: 2bee 733e 85f2 06bf 481c 863d c3df 5e3d
00000120: b3f2 e93e 05d0 30bf 13ab b73e 4a24 d43e
00000130: 01a9 ab3e c54c b1bd 56a1 be3e fed3 b93f
00000140: 96e9 cbbe cca2 92be 097f 2d3e 0a44 9e3e
00000150: 1150 033f cecf f73c 2f83 693f a69b acbe
00000160: 267e 833e b483 f1bd 3aff 883f 5111 c6be
00000170: 77a4 b63e 52e7 083f d99a 043d ba46 50be
00000180: 2d41 2e3f c17d 373e d0ec 59bf 1aaf 38be
00000190: 8c45 29bf d38f 1c3f 69c3 7b3e 7b4f 433e
000001a0: ff08 06be 460f 0cbf 292b 983e 9ce3 e43f
000001b0: 434a a83f 5c81 0d3f b70e ae3d 574a 053f
000001c0: b2d8 49be 20f2 833e 8467 48be 2517 603f
000001d0: f936 1d3e 25ff 2c3e 05c4 493e 4ca5 8ebe
000001e0: ca30 943e 3551 af3e 4426 13bf 3344 213e
000001f0: 0b06 713e 9eed c83e d977 9fbe 75a0 003f
00000200: bb04 f1be e650 703e 298d 26be faf9 7d3e
00000210: 8629 2dbf 24e6 e03b 77ee 18bf 4797 3740
00000220: d36e 223f f17e 8abf b9bb f53e 4384 1dbd
00000230: 7296 b33e ce8c 993e c2a7 093f 3887 88be
00000240: d2d5 c73e f577 c63e a817 2fbf 131e adbe
00000250: 72a6 5c3e 8375 893f 04ba af3f de27 1d3f
00000260: 4380 0ebf 924e 8dbe ca61 663e 1266 62bf
00000270: 95b9 56be a67e 173e d04e 373f ae7b 07bf
00000280: 7aa8 2bbf ef7c 06be 305c 753e 1276 63bf
00000290: e072 10bf a997 c9be 13f6 97be 54a0 69be
000002a0: 6280 9bbe 3e02 333e 572f 0a3f bbb8 a83e
000002b0: 74ac 033f 411a 01bf ae15 583f 27a5 cabe
000002c0: 675f 283e d424 1fbf ce17 823e 65e8 19bf
000002d0: c825 e3bc 3ecc f0bd 8354 5a3f 90e5 17be
000002e0: c3cc 06bf 763f 4d3e 88e1 d5be f2bd d33e
000002f0: 4c66 5d3f 662c 10be 23a7 ee3d 56fb 813e
00000300: b22a 87be e018 b0bb dad8 eebd a351 9bbe
00000310: 454c 493d 3558 0dbe fdb9 0bbe 2bd7 a43e
00000320: 428e 9e3f 5828 6d3f a65a 903f 368d 8b3c
00000330: 2719 debe cf84 f9be 14ca f73d d167 113f
00000340: 86a0 2bbf 3dcf 1abe 0576 d3be 22f6 a33e
00000350: e977 5ebe 7332 7f3e be85 3dbe 5233 f4bf
00000360: b088 dd3f 37ce 293e 61af 863f 9365 e53c
00000370: 6fec 3abf cc21 11bf f520 4fbe 514e 003f
00000380: b7d1 babe 255f cabe 3fdd 243f aff2 04bf
00000390: d7ae e1be 198c 043e 262d 573f bd91 dd3e
000003a0: 948b ce3e 521c 4d3e 07c6 7fbd ebb7 07bf
000003b0: e2b5 c53e 38da 2bbe ee14 8d3e b173 8fbe
000003c0: b157 21bf 475a 89be 036d afbe 266f b63e
000003d0: d7b1 47bf 35fa 32be bd0d 96bf 4e9c 4c3e
000003e0: 7976 903e cf92 b93f 0d00 883e 0170 fc3f
000003f0: 31b9 f13c 06b2 17bf 3cf8 26be 7718 023f
0.45848936 -0.016372154 0.5661589 -0.5111536 0.6871627 -0.53615105 0.20323636 -0.83415353
0.0494639 0.6831198 -0.24153724 -0.4441543 0.3457051 0.5211848 0.4914604 -0.5237743
0.026661301 -0.18392408 -0.05413285 0.38395837 -0.5433562 0.18197875 0.026616748 -0.05132121
0.5033399 0.23808767 -0.15840252 -0.1783172 0.09205973 -0.6096485 -0.064525664 -0.15198688
0.3852194 -0.22956024 0.20434685 0.08564627 0.008766112 -0.28925025 1.0983337 -0.06686603
-0.3370936 0.8200568 0.06913138 0.34489593 0.09746637 -0.036764063 0.6610248 0.051369697
0.43313074 -0.14108054 -0.54431844 2.2369494 0.1617 -0.58247685 0.23230775 0.20015933
0.4769604 0.017338432 0.0023015619 0.31459 0.7778744 -0.25811204 0.18145917 0.83603567
-0.79444873 -0.17859788 -0.04323157 2.214657 0.23821323 -0.52713805 0.06548363 0.054412615
0.45692977 -0.6906741 0.35872707 0.41433936 0.33527377 -0.08657221 0.37232465 1.451782
-0.3982665 -0.2863983 0.16942991 0.30911285 0.51294047 0.030250456 0.91215795 -0.337125
0.2568218 -0.117926985 1.0702889 -0.38685086 0.35672352 0.53477967 0.032374237 -0.2033948
0.680682 0.17919065 -0.8512697 -0.18035546 -0.66121745 0.6115696 0.24586262 0.19073288
-0.13089369 -0.54710805 0.2972043 1.7881961 1.3147663 0.5527551 0.084989004 0.5206656
-0.19711569 0.25770664 -0.19570738 0.87535316 0.15353002 0.16894205 0.19703682 -0.27860487
0.28943473 0.34241644 -0.57480264 0.15748672 0.23537461 0.39243788 -0.31146124 0.5024484
-0.47073922 0.2346836 -0.16264786 0.2480239 -0.67641485 0.0068633724 -0.5973887 2.8686082
0.63450354 -1.081999 0.47994784 -0.038456213 0.35075718 0.29990238 0.53771603 -0.26665664
0.3903032 0.38763395 -0.6839547 -0.33812007 0.21547869 1.0738987 1.3728642 0.6138896
-0.5566446 -0.27599007 0.22498241 -0.88436997 -0.20969231 0.14794406 0.71604633 -0.52923095
-0.6705395 -0.13133596 0.23960948 -0.88852036 -0.56425285 -0.3937352 -0.29679927 -0.22815067
-0.30371386 0.17481324 0.53978485 0.32953438 0.5143502 -0.50430685 0.8440808 -0.39579126
0.16442643 -0.6216557 0.25408787 -0.6012023 -0.027727976 -0.11757706 0.85285205 -0.14833665
-0.5265619 0.2004374 -0.4177363 0.41355854 0.8648422 -0.14079437 0.116529725 0.25387067
-0.2639976 -0.005374059 -0.11662455 -0.3033572 0.049145002 -0.1380318 -0.13645168 0.3219541
1.2387164 0.92639685 1.1277664 0.017035108 -0.43378565 -0.48734137 0.1209909 0.56799036
-0.67041814 -0.15118118 -0.4130098 0.32023722 -0.2172543 0.24921589 -0.1850805 -1.9078162
1.7307339 0.16582571 1.0522271 0.028002536 -0.7301702 -0.56692195 -0.20227416 0.501195
-0.36488125 -0.39525715 0.64400095 -0.51932806 -0.44078705 0.12944068 0.84053266 0.43275252
0.40340865 0.20030335 -0.062444713 -0.5301501 0.38615328 -0.16782463 0.2755503 -0.28017953
-0.6302443 -0.2682669 -0.34262857 0.35631675 -0.7800574 -0.17478259 -1.1722943 0.199815
0.28215387 1.4497927 0.2656254 1.9721681 0.029507251 -0.5925602 -0.16305631 0.5081858

encoder.lstm.weight_hh_l0 f4 [128, 32]
00000000: 695f 51bf 6175 6b3f 8dfa 9abe f808 eebe
00000010: d7e4 20be 2586 723c 0011 e43e 49cc 1cbf
00000020: cb65 553d 5258 213f 283c 4bbe 673b 223d
00000030: c0e2 1cbe aaee eb3e 5614 fb3d 6a34 b6be
00000040: dc1f 07bf 361b 0f3e 8be1 ec3e 4e6f 05bf
00000050: 2d05 26be 94b2 92bf c359 43be 7095 37bf
00000060: c757 c03d 4768 a1bd bc02 573e d4c6 563e
00000070: 30fb f83c c16e 16be 8698 f0be 9cfc 35be
00000080: 0a75 b03e 7e6b 8dbe 55bc e6be 7de6 b73e
00000090: 9d7b 4f3f 12d1 b5be 399d 5b3f 35b4 babd
000000a0: 8dad a63d e7fe fd3d f1d7 2e3e 9fcb 903e
000000b0: 8849 703e 736a 003d 9382 d3be eefc 743d
000000c0: 7a06 e7bd 8b03 7dbe bbc3 dbbe f1a0 4bbe
000000d0: 3f2f 973f 536e e43b 745a 5fbe 50b1 183f
000000e0: 3f0f 3fbe 1ee5 5e3f 244b d7bd 7028 14be
000000f0: 9b18 743e 5d3a 003f 8c11 b73c 4179 9c3b
00000100: ec37 07bf b73b 39bf a6c9 b23e c51b 993e
00000110: 9d4a 96be cfc6 053d 5c12 46be d320 b6be
00000120: 073a 123f 490f f3bd 01f6 ddbe fe32 dabe
00000130: 1cde cdbd 98e8 933d 3ff9 a1bd 2805 9fbd
00000140: e9e9 a83d bcc8 5b3f 91ea 65be 6f3a 343f
00000150: 5a16 a8be 21de bb3e 7e1b 003f 8322 1dbf
00000160: da9d bebd 7fd6 9e3e ed01 dfbc 54c6 f5be
00000170: 75bd 84be c551 e0be 0cb4 15be 7867 803f
00000180: 046d 2f3d 909b 25bf 7943 83bd 5251 10be
00000190: 7c3a 683d 05fa b73e b5b7 983e a098 543e
000001a0: 2101 a43d 27b2 9cbe b600 0ebe 3804 d5be
000001b0: e6dd e8be eb8f 8e3d 6e58 763e db86 963e
000001c0: acd0 aa3e 2702 bfbd b19c afbf 348b 6dbe
000001d0: e134 a43e d6c4 483f 9355 55bd d6d8 c23e
000001e0: b5b1 4f3d b02a 873e 6dc1 0b3e 4026 79be
000001f0: 7915 d23d 367a 593f 5512 483e b73c 623e
00000200: 7fb3 cd3e ca0d d43c 9c3b 2b3d 475c 3d3f
00000210: e128 c1bd cd36 863e 05a6 32be b4b7 d03d
00000220: e2b5 d6bd 6636 c1be f9ea ddbe e52a c0bb
00000230: eeaf 0b3f c098 85be 441f 0fbb 6f3b 323f
00000240: c218 d43e 508a 073f fc26 0ebf b69d 34be
00000250: fa82 04bf 5464 0c3e 63c2 083f 2e51 cb3e
00000260: 2290 9abe 2aa8 15bd b275 1ebf 2d06 f63c
00000270: 9ed9 0b3f acb8 ca3e 535a eb3d e45f 563c
00000280: 9936 49bc 9bd4 553d 3baa a7bd 8e1f 6fbe
00000290: e741 bfbe 802b c5be 6df1 4a3e 5146 60be
000002a0: e0d5 983e 667c ad3d 62de e73d 276c ed3c
000002b0: 05fe 083e a8f2 13bf 2b46 e73e 8961 1fbe
000002c0: 03d0 013f ad5e 033e 071e 043f 4757 553e
000002d0: c11c 853e 112c c03e 1149 483f 8667 89bf
000002e0: e0f9 ae3c 1e21 1dbf dc01 a7be 9008 6ebf
000002f0: 15a5 22be aec7 83bf 0478 cebd 2a15 e83e
00000300: ef69 e2bd 3ef3 2dbf d026 123e e4b3 3c3d
00000310: 13b9 dd3e c40b 033e 9ffc 923e e290 023f
00000320: abab 6abe 2101 993e 817d 0a3e 67f3 7cbf
00000330: a40a 943e 3c18 15be fed9 6bbe 5d64 203e
00000340: 399b acbd 06f2 c43d 378d 17bf 1f5d fd3d
00000350: 59b2 b33e 39de 6c3f e7d3 5abd 25e5 db3e
00000360: 53e8 f03e 82ef 9abe 820e 3b3f 64d4 d33e
00000370: 5bf0 41be c372 2c3f 4fd6 693e 40e6 0c3d
00000380: f9c8 57be 64ea 223e 919d 623d 6e8d 59bf
00000390: 17f3 7abe 765c a13e c3ab 54bf 5521 12bf
000003a0: aeca 543e e621 723e 1c50 99be 6da4 cb3e
000003b0: e6b6 fcbe f1ee debe 1954 203f b8c5 dcbe
000003c0: e396 343f 66b2 94be fce5 3d3e 22b3 2e3f
000003d0: c07f 24bd e1a8 b1be 640a 033f ddb4 d8be
000003e0: bec2 963e 123f b93e 0a20 35be dc7e e9be
000003f0: bfe9 07bd bac8 343e 1871 ddbe 270f d23d
-0.8178621 0.9197598 -0.3026928 -0.46491218 -0.15712295 0.01480249 0.4454422 -0.61249214
0.05209903 0.6302539 -0.19847167 0.03960743 -0.15320873 0.46080524 0.12259738 -0.35586864
-0.5278299 0.13975224 0.46265826 -0.5212296 -0.16212912 -1.1460748 -0.1907721 -0.717124
0.09391742 -0.078812174 0.20997137 0.20974284 0.030393213 -0.14690687 -0.46991366 -0.17772144
0.34464294 -0.27621073 -0.4506556 0.35918036 0.81047994 -0.3551107 0.8578678 -0.09116403
0.08138571 0.124021344 0.17074563 0.2828035 0.2346555 0.031351518 -0.41310558 0.059811525
-0.11280532 -0.24708383 -0.42922768 -0.19885613 1.1811293 0.0069711595 -0.21811849 0.5964556
-0.1865816 0.87068355 -0.10512379 -0.1446855 0.23837511 0.50089055 0.022347234 0.004775197
-0.52819705 -0.7235674 0.3491947 0.29904 -0.293538 0.0326603 -0.19342941 -0.35571918
0.5711979 -0.1186815 -0.4335175 -0.4261703 -0.100521296 0.07222098 -0.07908868 -0.07764655
0.0824774 0.8585317 -0.22452761 0.7040166 -0.32829553 0.36692908 0.5004195 -0.61380786
-0.093074515 0.31023023 -0.027222598 -0.48002875 -0.25925794 -0.43812385 -0.14619464 1.0031576
0.042828575 -0.64690495 -0.06409354 -0.14093521 0.0566964 0.35932937 0.29827657 0.20761347
0.08008028 -0.3060467 -0.13867459 -0.4160478 -0.45481795 0.06961044 0.24057171 0.29399762
0.3336233 -0.093265824 -1.3719693 -0.23197633 0.32071593 0.7842535 -0.052083563 0.38056058
0.050706584 0.26399755 0.13648005 -0.24330997 0.10258002 0.84952104 0.19538243 0.22093473
0.40176007 0.025885481 0.041804895 0.7396893 -0.09431625 0.26213685 -0.17446144 0.101912886
-0.1048391 -0.37736815 -0.43343332 -0.0058644884 0.5456532 -0.26093102 -0.0021838704 0.6962194
0.4142514 0.52945423 -0.55528235 -0.17638287 -0.51762354 0.13710147 0.5342161 0.39710373
-0.3018809 -0.036537327 -0.6189834 0.030032242 0.5462893 0.39594018 0.11491837 0.013084386
-0.0122810835 0.05220471 -0.08186766 -0.23351881 -0.37354967 -0.3850975 0.19818659 -0.21901824
0.29850674 0.08470993 0.11321713 0.028982235 0.13378151 -0.5779214 0.4517072 -0.1556455
0.50708026 0.12829085 0.5160832 0.20834075 0.259985 0.3753362 0.7823649 -1.0734718
0.021359384 -0.6137866 -0.32618606 -0.92981815 -0.15883286 -1.0295312 -0.10081485 0.45328647
-0.110553615 -0.67949283 0.14272618 0.046069995 0.43305263 0.12797457 0.2870836 0.51002324
-0.22917049 0.29883674 0.13524438 -0.988089 0.28914368 -0.14560026 -0.23032376 0.15663286
-0.08428044 0.09616475 -0.5919985 0.12371277 0.35097006 0.92526585 -0.053424742 0.4294826
0.4705225 -0.30260855 0.7306901 0.4137298 -0.18939345 0.6736261 0.22835658 0.03439927
-0.21072759 0.15909725 0.05532605 -0.8498143 -0.24506794 0.31515855 -0.8307459 -0.5708211
0.20780441 0.23645744 -0.2994393 0.39773884 -0.4935829 -0.43541673 0.6262832 -0.43119597
0.70542735 -0.29042357 0.18544763 0.68242085 -0.040160894 -0.34699157 0.5118773 -0.42325488
0.29445451 0.3618093 -0.17688003 -0.456046 -0.033181902 0.17654696 -0.43250346 0.10256796

encoder.lstm.bias_ih_l0 f4 [128]
00000000: 91cc 78be ad1a 903e 123b b938 1512 ef3e
00000010: 5c86 313e 031a 3fbe 4ce9 9f3e b627 a7bd
00000020: 9b28 78be c0bf af3e 5edb 16bf 67bc c33e
00000030: 93ab 1f3e 362d 60bc 4bd5 da3e 9fb4 c33e
00000040: bd30 6abe 6a34 813e 3f78 923e df29 053f
00000050: c89a 353d 849f 123f aecd e5bd 0684 e93e
00000060: e1a4 c7be 7916 d1be 0228 8d3e 6ef9 39bc
00000070: 8867 543d e2cc 1f3f f655 473f ba47 0b3f
00000080: ced4 8cbe 2eec 8bbd 9199 00bf a0ef 2c3f
00000090: 610f d4be 3e3b 943d d98f 6f3e 6ea2 b0be
000000a0: a614 f1bd 9f40 393d bbd7 68be f8ce 9dbe
000000b0: 1750 acbe 1b0e febd 1f82 d7be 21d2 63bd
000000c0: e57a 04bf 5d40 69be e172 103f b475 cf3c
000000d0: 8e50 89be 7d7f a1be 88f5 773c 752c a4be
000000e0: 4fda c3be 7fa9 1cbe f084 39bb 394f e4be
000000f0: d9b5 debe fc00 17be 5a0d 1c3e 8e22 c6be
00000100: 9c4c 87be e218 a3be 0471 353e 5bd0 db3d
00000110: 4331 323e b20e c13e 83f1 0f3e 555e 143e
00000120: f3a1 27bd c1f5 2dbe 8adb 01be 5578 a8be
00000130: 70fe 8d3e a22f bbbe 22a8 bebe 51a3 453e
00000140: be3f 833c 959e 3dbe 3ecd 86be 8778 45be
00000150: 698e ca3c 0abd 953e 73d0 be3e 86f6 ab3e
00000160: 87f7 233e d6e5 8abe 9f5d b63d 011f b13e
00000170: 54cc c33e a9cc 483e 1be1 ca3e 39d5 ea3d
00000180: 39b7 51be 9c4e 273f 93c1 e6be 2eac 9b3e
00000190: d646 18be 38ad 7ebe d857 a4be 6d5c 6e3e
000001a0: 1057 bfbe b2e6 19bf df67 63bd e6b4 be3a
000001b0: 27c4 633e 07f9 d5bc eb3b e53e d4f7 113f
000001c0: 3713 b0be d964 84be 274a 083f b74f 943e
000001d0: ea9f 003f 92c4 c93e 9930 51bd 473e 0d3f
000001e0: 6700 9cbd 402e aebe befd 88bd 23e0 1c3f
000001f0: 7808 0f3e e374 1a3f 14c1 043f 44a9 95bd
-0.24296786 0.28145352 8.83249e-05 0.46693483 0.1733641 -0.18662266 0.3123268 -0.08161871
-0.2423424 0.3432598 -0.5892848 0.38229677 0.15592794 -0.013682654 0.42740855 0.3822374
-0.22870155 0.252353 0.28607365 0.52017015 0.044337064 0.5727465 -0.11220871 0.45608538
-0.3899298 -0.40837458 0.27569586 -0.011350973 0.051856548 0.62422 0.7786554 0.5440632
-0.27506107 -0.06832157 -0.50234324 0.6755314 -0.41417983 0.07237862 0.23394717 -0.34498924
-0.117715165 0.045227643 -0.22738545 -0.30821967 -0.33654854 -0.12405034 -0.42091462 -0.055620316
-0.5175002 -0.22778459 0.5642529 0.02532468 -0.2681927 -0.31542578 0.015134223 -0.32065168
-0.38252494 -0.15299033 -0.0028307997 -0.44591692 -0.43498114 -0.1474647 0.15239468 -0.38698238
-0.26425636 -0.31854922 0.17718893 0.107331 0.17401604 0.37706524 0.14056973 0.1448911
-0.04092593 -0.16988279 -0.12681404 -0.32904306 0.27733183 -0.36559778 -0.3723765 0.19300582
0.016021606 -0.18517525 -0.26328462 -0.19284259 0.02472611 0.29245788 0.3726841 0.3358652
0.16012393 -0.27128476 0.089045756 0.34593967 0.38241827 0.19609322 0.39624867 0.1146645
-0.2048005 0.65354323 -0.4506956 0.304048 -0.14870772 -0.24870765 -0.3209827 0.23277445
-0.3737111 -0.6011764 -0.05551898 0.0014549762 0.22242795 -0.026119722 0.44772276 0.5701878
-0.3438966 -0.2585819 0.5323815 0.28967068 0.5024401 0.39407784 -0.051071737 0.5517315
-0.07617264 -0.3401966 -0.066890225 0.61279505 0.13968074 0.60334605 0.51857114 -0.073076755

encoder.lstm.bias_hh_l0 f4 [128]
00000000: 91cc 78be f01a 903e a7f8 b438 0612 ef3e
00000010: da85 313e 0b1a 3fbe efe8 9f3e fd28 a7bd
00000020: 2e28 78be 9bbf af3e 85db 16bf 7dbc c33e
00000030: d7ac 1f3e e423 60bc 6cd5 da3e aeb4 c33e
00000040: bd30 6abe dc34 813e f577 923e c429 053f
00000050: 769e 353d 959f 123f f2cc e5bd d283 e93e
00000060: 82a4 c7be 6816 d1be a027 8d3e 6ef4 39bc
00000070: 9966 543d 9fcc 1f3f b555 473f ac47 0b3f
00000080: 7fd4 8cbe 43ec 8bbd 6d99 00bf acef 2c3f
00000090: 560f d4be 323b 943d eb8e 6f3e 66a2 b0be
000000a0: 8414 f1bd fa40 393d 77d7 68be 33cf 9dbe
000000b0: e84f acbe 8210 febd 1482 d7be c4d1 63bd
000000c0: cb7a 04bf 0040 69be fe72 103f 3f71 cf3c
000000d0: 6350 89be 4e7f a1be bce4 773c 9c2c a4be
000000e0: 39da c3be 1ea9 1cbe 1277 39bb 6d4f e4be
000000f0: 81b5 debe 1d01 17be b60d 1c3e 9b22 c6be
00000100: 984c 87be 4219 a3be bc71 353e 57d0 db3d
00000110: 4731 323e 4f0e c13e 64f1 0f3e d45e 143e
00000120: 989f 27bd 9bf5 2dbe 67dc 01be cc78 a8be
00000130: 9afe 8d3e dc2f bbbe d5a7 bebe dea2 453e
00000140: c13f 833c 959e 3dbe 72cd 86be f277 45be
00000150: 8b86 ca3c dabc 953e 6bd0 be3e 8df6 ab3e
00000160: eaf6 233e cae5 8abe 865e b63d ca1e b13e
00000170: 4dcc c33e ffcc 483e fbe0 ca3e 48d6 ea3d
00000180: 8ab6 51be 884e 273f 5fc1 e6be 65ac 9b3e
00000190: 2446 18be 15ae 7ebe d257 a4be 0d5c 6e3e
000001a0: 6457 bfbe 97e6 19bf 8468 63bd 805d be3a
000001b0: 3cc4 633e d9f6 d5bc cd3b e53e dff7 113f
000001c0: 3713 b0be 9664 84be 1a4a 083f b24f 943e
000001d0: 0aa0 003f 41c4 c93e 5c2e 51bd 4d3e 0d3f
000001e0: 0e01 9cbd f72d aebe cbfc 88bd 3ee0 1c3f
000001f0: ba07 0f3e 0c75 1a3f e9c0 043f 7aaa 95bd
-0.24296786 0.28145552 8.629384e-05 0.46693438 0.17336217 -0.18662278 0.31232402 -0.08162115
-0.24234077 0.3432587 -0.5892871 0.38229743 0.15593277 -0.013680432 0.42740953 0.38223785
-0.22870155 0.2523564 0.28607145 0.52016854 0.044340573 0.5727475 -0.11220731 0.45608383
-0.38992697 -0.40837407 0.27569294 -0.0113497805 0.051855657 0.624216 0.77865154 0.5440624
-0.27505872 -0.06832173 -0.5023411 0.6755321 -0.4141795 0.07237853 0.23394363 -0.344989
-0.11771491 0.045227982 -0.22738443 -0.30822143 -0.33654714 -0.12405492 -0.4209143 -0.05561997
-0.5174987 -0.2277832 0.56425464 0.025322555 -0.26819143 -0.31542438 0.015130218 -0.32065284
-0.38252428 -0.15298888 -0.0028299731 -0.44591847 -0.43497851 -0.14746518 0.15239605 -0.38698277
-0.26425624 -0.31855208 0.17719167 0.10733097 0.1740161 0.3770623 0.14056927 0.14489299
-0.040923685 -0.16988222 -0.12681733 -0.3290466 0.27733308 -0.3655995 -0.3723742 0.1930041
0.016021611 -0.18517525 -0.26328617 -0.19284037 0.024722358 0.29245645 0.37268385 0.3358654
0.16012159 -0.2712844 0.08904748 0.34593803 0.38241807 0.1960945 0.3962477 0.11466652
-0.2047979 0.65354204 -0.45069405 0.30404964 -0.14870507 -0.24871095 -0.32098252 0.23277302
-0.3737136 -0.6011748 -0.055519596 0.0014523715 0.22242826 -0.026118683 0.44772187 0.57018846
-0.3438966 -0.2585799 0.5323807 0.28967053 0.502442 0.39407542 -0.051069602 0.5517319
-0.07617389 -0.34019443 -0.066888414 0.61279666 0.13967791 0.6033485 0.5185686 -0.073079064

decoder.lstm.weight_ih_l0 f4 [128, 5]
00000000: 539c 9f3e 2154 4f3f b798 333d 57e4 00bf
00000010: af71 b2be eae5 41be 8d9b ccbf 5cb7 dabe
00000020: f587 b93e 957c 6a3f f469 e8be cd6a 7e3f
00000030: 5c37 213e a2cf 28be b771 74be a6c8 8fbe
00000040: 6100 e1be 9f04 d83f 0ffa a840 a3b2 90bf
00000050: 7e3d b4be 4495 0dc0 1733 353f 0193 ad3e
00000060: 93bf 843e d615 5d3d ffec 3ebf 5ab3 b03f
00000070: 51eb 03bf c90b 453f 01b9 013d ab81 50bf
00000080: caee 293f 5d7e 94bf 7ebc 953e 1665 fbbd
00000090: f88d 183f 4282 fcbf e797 5a3e 3fc4 dcbf
000000a0: 17e4 a63e 2dd6 a9be 3d8c c73f 7862 62bf
000000b0: ed66 b4bd acd7 b7bd 9a0f 13c0 ca5e 22bf
000000c0: 5245 973f 3637 273f 4a16 fdbc 0a84 16bd
000000d0: d31f 12c0 3e92 5f3f de86 abbd 226b 46bd
000000e0: c70b 3340 88ec bebe 4ac3 12bf bdcd aebe
000000f0: b2d3 c23e 9393 85be ef47 ac3f 108c 903f
00000100: f095 29bf aeb3 573e 4c7b 9f3e 3515 123d
00000110: 7c2b 983e e8fb 81bf 6004 a0be 32d0 eebf
00000120: da90 1240 2e50 0f3f b6b5 713e 674f 083d
00000130: 21a4 a03e 4ced 663e 4521 2cbf cbd9 633f
00000140: c6b3 59be 81f4 d83f cdc4 06bf 1eec 03be
00000150: dd10 d1bf cd55 76be 3ea2 6440 c23f 18bf
00000160: b7fc b4bf 3672 afbf 6b45 103f 3d22 9bbf
00000170: 0760 05be b102 093f 44c9 5a3f d3d2 02bd
00000180: b981 393f 31f2 0d3f 143a 61bf df60 e7be
00000190: 4b7c 1a3f 78d0 afbe 1c2a 593f c744 3e3f
000001a0: a638 4abf 877a 683e b4cf 72be c7ee 18bf
000001b0: 2b0f 1ebf 7ee2 ef3e 25e6 a73e 6cc6 18bf
000001c0: 2bd1 a83f 80ed f6bf af77 863f 5c53 a9be
000001d0: 0d41 f8bf db06 bc3f cab4 15bf 73da c73e
000001e0: fc1f b43d bb4c 82bf 3804 913e d2a9 553f
000001f0: d5d9 f7be 8f02 123e c153 93be 3f53 8c3f
00000200: 8d2d fdbc 1b29 13bf 1f23 433e f8a4 a53f
00000210: 0f76 003f d5b1 563d 7104 8abf 74ac 92be
00000220: ac1d 6a3f 69b7 6b3f 3e12 9fbe 1f70 6ebf
00000230: 23d8 6f3c 0345 11bf b7c7 16c0 e452 57bd
00000240: c1b0 973e 24c8 cfbc c0f9 033f 09a7 833f
00000250: b6ab dbbf e0c7 c3be 5669 2fbd 525a 4bbf
00000260: 78d6 623f ab11 c9bd 36a0 d2bf b483 433e
00000270: e3cd be3e 3877 6fbc eed0 b13f 2080 4ebf
00000280: 3320 cebf 20a4 39c0 6b16 babf 4385 c0be
00000290: e8bf de3f 39bf a5bb 2f2e e8bf 13db 803f
000002a0: f7f8 07be 3a80 d33f 6463 0abe 8899 36be
000002b0: 89c0 afbe 4d00 87bf 8bd0 923f a818 45be
000002c0: f1e0 163f 0580 30bf 1017 d03f 0138 febe
000002d0: ed7d 67be ad29 b23f 04fe 9fbf 910d bf3e
000002e0: f426 f8be 627e 623e f844 13be 08e5 313f
000002f0: d2bb f73f 1434 5abf e443 323d 3396 0040
00000300: d431 d43f b943 80be 5fc3 c23d 887f 853e
00000310: 577e e3be 8d42 f03f d113 683f 4367 41bd
00000320: 944f f73d 8087 923e db99 753f ea65 8a3e
00000330: d6a9 90bf 5fd7 3fbc 6a31 b93e ea2e cc3f
00000340: b904 4fbf 21bf e93d bb16 4abe b280 eabf
00000350: 2bc9 9e3f efff 983f 78f5 193f f748 8a3d
00000360: 23d5 733e 6d9e 253d ccf8 f5be 3f9c b13f
00000370: 8d55 3fbe dccb 583e 7d32 bd3e 57dd 24bf
00000380: 65d8 6cbe 7caf 113e 724d 24bf bd9e 1abf
00000390: e652 443f 9df3 6340 9a27 4cbe c8be d0be
000003a0: cded 063f 6699 3b3f b778 1fbe 6053 593e
000003b0: ac3f 4fbf 15aa 923f 95f0 e33f 9858 4f3e
000003c0: 7160 a63e dac9 7abe 4880 96be 8806 fd3e
000003d0: 129a 5c40 2be7 5a3e 0598 533f 19b7 27bf
000003e0: 9113 44bf 8701 4b3e 34f1 35be 9afe 72bf
000003f0: 9fdd 16bf 7ac2 963d 5038 4abd 14f3 9a3e
0.31173953 0.80987746 0.043846812 -0.5034842 -0.3485236 -0.18935362 -1.598497 -0.42718017
0.3623654 0.9159635 -0.45393336 0.99381715 0.15743774 -0.16485456 -0.23871504 -0.2808277
-0.43945602 1.687641 5.2805247 -1.1304516 -0.35203165 -2.2122355 0.7078108 0.33901218
0.2592741 0.053975902 -0.7458038 1.3804734 -0.5153094 0.7697111 0.031670574 -0.8144786
0.6637999 -1.1601063 0.2924537 -0.1227514 0.5959163 -1.9727252 0.21347009 -1.724739
0.32595894 -0.33171216 1.5589672 -0.884315 -0.08808694 -0.08976683 -2.2978272 -0.63425887
1.181803 0.6531862 -0.030894417 -0.036747016 -2.2831924 0.8733252 -0.08375333 -0.048442014
2.7975938 -0.37289834 -0.5732924 -0.3414134 0.38052136 -0.26089153 1.3459452 1.1292744
-0.6624441 0.21064636 0.31148756 0.035664756 0.29720676 -1.0155001 -0.31253338 -1.8657286
2.290091 0.5598172 0.23604473 0.03327885 0.3137522 0.22551459 -0.67238265 0.890042
-0.21259984 1.6949617 -0.52644044 -0.1288304 -1.6333271 -0.24056168 3.5724025 -0.59472287
-1.4139622 -1.370673 0.56355923 -1.2119824 -0.13024913 0.5351973 0.85463357 -0.03193934
0.72463566 0.5544768 -0.87979245 -0.45191094 0.60345906 -0.34338737 0.8482988 0.74323696
-0.7899269 0.2270299 -0.23712045 -0.59739345 -0.61741894 0.46852487 0.32792774 -0.5967777
1.3188833 -1.9291229 1.0505275 -0.3307141 -1.9394852 1.4689592 -0.5847899 0.3903385
0.08795163 -1.0179666 0.2832353 0.8346225 -0.4840838 0.14258789 -0.28774837 1.0962905
-0.03090551 -0.57484597 0.19056366 1.294097 0.50180143 0.052415688 -1.0782605 -0.28647196
0.91451526 0.92076737 -0.31068605 -0.93139833 0.014638933 -0.5674593 -2.3559396 -0.052569285
0.2962704 -0.02536399 0.51552963 1.028535 -1.7161777 -0.3823843 -0.042825066 -0.7943469
0.88608503 -0.09817823 -1.6455142 0.1909321 0.37266454 -0.014615826 1.3891885 -0.80664253
-1.6103576 -2.9006424 -1.4538091 -0.3760167 1.7402315 -0.005058196 -1.8139094 1.0066856
-0.13278566 1.6523507 -0.13514477 -0.17832005 -0.3432658 -1.0546967 1.1469892 -0.19247687
0.58936983 -0.6894534 1.6257038 -0.49652103 -0.2260663 1.3918968 -1.2499394 0.37315038
-0.4846722 0.22118524 -0.14381778 0.694901 1.9354193 -0.85235715 0.043521777 2.0091674
1.6577706 -0.25051668 0.0950992 0.2607386 -0.44432327 1.877031 0.9065524 -0.04721762
0.12075725 0.28619003 0.9593789 0.2703088 -1.130183 -0.011709063 0.36170512 1.5951817
-0.8086658 0.11413408 -0.19735233 -1.8320525 1.2405142 1.1953105 0.6014018 0.06752198
0.23811774 0.04043429 -0.4804138 1.3875808 -0.18684979 0.21171516 0.36952582 -0.6440024
-0.23129423 0.14227098 -0.6418067 -0.60398465 0.7668899 3.561744 -0.19936982 -0.40770555
0.52706605 0.7328094 -0.15573393 0.21223211 -0.8095653 1.1458155 1.7807795 0.2024864
0.32495454 -0.24491063 -0.29394746 0.49419045 3.4469037 0.21377246 0.8265384 -0.6551376
-0.76592356 0.19824801 -0.17767793 -0.9491974 -0.58931917 0.07361312 -0.04937011 0.3026358

decoder.lstm.weight_hh_l0 f4 [128, 32]
00000000: e788 dcbd ff9f 93bf a5d6 fa3f 5321 e13e
00000010: 8309 8c3f 3565 12be 4e86 15bf 1bc5 83be
00000020: 5a48 e2be 696b 8abf b45c 483e a75e ef3d
00000030: 263d a5bf 8911 2c3f 4514 0ebf de11 dabe
00000040: d80b 173f 3877 5cbf 65e3 403f fff7 15bf
00000050: 046f a5bc cb7c f33e 2867 913f f194 1dbf
00000060: ced4 74bf 12d0 003f a305 c3bd 6db0 b03f
00000070: 8efa c33f 644f 09c0 37b3 ad3f edf8 a9bd
00000080: 1b38 c3bf f6ce 67bf d779 46bf 5014 923f
00000090: c596 b43e 82e7 4bbf 4a6a bf3e 08b9 a1be
000000a0: fdd3 193e cd73 fb3e 86f8 ec3e 5b21 ef3b
000000b0: e7b7 7c3d fc48 a9be 3c6c b1bf 8f32 933e
000000c0: d2b2 a1bf 05c2 2dbf ac5d df3d 8eef 84bf
000000d0: e34e 1b3d da1e 9bbe fe68 813f 407d 413e
000000e0: 036b 0c3f 8a96 e0bf cfae c93d 4301 ba3f
000000f0: d5f0 9dbf ea80 6b3f cd60 0abd 693c b33e
00000100: 4905 1140 0d75 02bf bb10 9ebe a686 78bf
00000110: d0a5 05c0 1e19 113f 3cac e43e f66b 983e
00000120: 1c39 883e 2113 1d3f ad57 f8be 927c 02bf
00000130: 19f1 403f b502 d2be a19d a53f 834a d03e
00000140: 9a0b 1d3f 5ca8 e03f 1ff3 cb3e 715f 14c0
00000150: bb6b 6abf c829 99bd d105 5abf e563 92be
00000160: dc8e e13f 816e bbbf 88e0 d4be 7172 dc3f
00000170: 7227 27c0 fe0a 84bf afb9 6f3f b59e 803f
00000180: 9104 b3bd 7684 eebf c83b c03e 6629 edbe
00000190: e6fc a63f 5be4 9fbf 4d30 813f 21cd 043f
000001a0: 2f26 9b3f 9be9 153f c60e 44bf d0fc 2a3f
000001b0: d8fb f5bd ceb5 9abf dbc2 953f 3be6 623e
000001c0: cea4 0e3f 961f cc3e ecb1 863e afd6 093e
000001d0: 17c5 1bbf 56ae 4bbe 59bf 9b3f 5309 c63e
000001e0: 4d5f 153f 1f3b 2cc0 ea3e ca3d 5764 353f
000001f0: 367c 24bf 95f9 6f3f 07fb 15bf ead0 f2be
00000200: 2813 eabf 14b8 8fbf fb11 b13e ea74 e73f
00000210: d490 1cbf c933 ff3e 08e2 973e dc63 a03d
00000220: ee16 ecbd afe4 093f 27a1 183f 5302 f2be
00000230: bbd2 92bf c3f9 21c0 7e22 02c0 88bd 163f
00000240: d051 09c0 8552 1b40 f9c4 a63e c27e ecbf
00000250: 6b03 33bf 5d11 8fbf 4621 6ebe 4bab cdbe
00000260: e4db 223f ceef 313f a8af d33f e546 633f
00000270: 530b e83e 62c7 973f 301e 4fbf 94db 42bf
00000280: 0d29 35bf da96 4abd 8a8c 98be 68e1 7ebf
00000290: c1c6 76bd 5045 b23f 9835 bd3f 015e 4bbf
000002a0: 6543 81bf 0be4 8c3d 1dba 05bf 9c9d e6bd
000002b0: babd c83e 5d5b 5ebf 9f5c e63e 4295 4cbf
000002c0: ce18 03bf e8bf f2be 70ad 2d3d d7f2 a2be
000002d0: 2cba 823e 1d54 e33d 21ba 61bf 55a6 7abf
000002e0: 3395 55bf 55a1 0dbe d97e 4e3f 122b 2dbe
000002f0: 258c 243f 5ac3 8b3f c3a3 a8be eef2 b3bd
00000300: 5c61 ccbe e7c2 c63d 7de6 a9be 32de 223e
00000310: 5d71 72bf 5425 cebe 2b05 b6bd 238c 10bf
00000320: 611c 25bf 91af 1fbf befa ab3f 3718 49bf
00000330: 3e38 55bf 38c2 433e 354b 7b3e 2340 a83e
00000340: 8337 49bf fd42 a4be 9915 213c d535 e43e
00000350: 10d2 3d3f 2b81 49be dd9e 1e3e 12be 093f
00000360: 56cd 97bf 7990 583f 656b d0bf 4b5e 1fbe
00000370: 1d48 e6bf 6f96 57bf 8c37 2b3f 7d86 1bbf
00000380: 8285 1bc0 403f f33c a628 833e 8966 af3d
00000390: 056c 0a3f 1859 86bd 5f93 93be d6cd 4bbf
000003a0: 296a edbd 6df4 ba3e 490d 483f 2489 9ebe
000003b0: 716d c5bf 9e75 26bf 1870 4cbf 2026 883f
000003c0: 8798 6cbf 4d76 4ebd 9ad0 c1bd 7445 f5be
000003d0: 26d2 f43d 1e3f b3be 1a98 1abe 4d04 15bf
000003e0: 6162 0ebf 6954 dbbe f8f8 35bf f056 283f
000003f0: 1d82 943f 31a3 acbe 2204 29bf 6bff ddbc
-0.107682995 -1.1533202 1.9596754 0.43970737 1.0940403 -0.1429642 -0.5840806 -0.25736317
-0.44195825 -1.0814029 0.19566613 0.116879754 -1.2909286 0.67214257 -0.5549968 -0.42591757
0.5900245 -0.86119413 0.75346977 -0.58581537 -0.020194538 0.47556147 1.1359606 -0.6155539
-0.95637214 0.5031749 -0.095225595 1.3803841 1.5310838 -2.1454706 1.3570317 -0.08299432
-1.5251497 -0.9055017 -0.7752966 1.1412449 0.35271278 -0.7965013 0.3738578 -0.3158648
0.15022273 0.49111786 0.46283358 0.0072976775 0.06169882 -0.33063495 -1.3861156 0.2874951
-1.2632697 -0.67874175 0.10906538 -1.0385606 0.03791703 -0.30296975 1.0110166 0.18895435
0.54850787 -1.7545941 0.09847795 1.4531635 -1.2339121 0.9199358 -0.033783723 0.35007027
2.2659476 -0.50959855 -0.3087214 -0.9708046 -2.0882454 0.5667895 0.44662654 0.29769868
0.2660607 0.61357313 -0.4850439 -0.5097133 0.75367886 -0.4101769 1.293873 0.40681848
0.6134583 1.7551379 0.39833924 -2.3183253 -0.91570634 -0.07478672 -0.85165125 -0.28591838
1.7621722 -1.4643098 -0.41577554 1.7222425 -2.6117826 -1.0315855 0.93642706 1.0048434
-0.08741105 -1.8634174 0.3754561 -0.46320647 1.3045928 -1.2491564 1.0092865 0.518755
1.2121028 0.5855958 -0.7658504 0.6679201 -0.12010926 -1.2086732 1.170009 0.22158138
0.5572022 0.39867848 0.2630762 0.13460802 -0.6084761 -0.19890723 1.216777 0.3867899
0.5834854 -2.6911085 0.09875281 0.7085623 -0.6425203 0.93740207 -0.5858616 -0.47425014
-1.8287096 -1.1228051 0.3458403 1.8082554 -0.6115849 0.49844196 0.29664636 0.07831547
-0.11527811 0.5386457 0.596209 -0.47267398 -1.147056 -2.5308692 -2.0333552 0.5888295
-2.1456184 2.4269116 0.32572153 -1.8476183 -0.6992709 -1.1177174 -0.2325488 -0.4016975
0.63616776 0.6950654 1.6537981 0.8878005 0.4532114 1.1857722 -0.8090544 -0.761163
-0.70765764 -0.04946027 -0.29794723 -0.9956269 -0.06024814 1.3927402 1.478198 -0.79440314
-1.0098692 0.06879433 -0.5223711 -0.1126053 0.3920725 -0.8685816 0.4499254 -0.7991525
-0.51209724 -0.47412038 0.04240173 -0.31825897 0.25532663 0.11100028 -0.88174635 -0.9791005
-0.83430785 -0.13831075 0.80662304 -0.16910961 0.64276344 1.0918992 -0.3293744 -0.087865695
-0.3991803 0.097051434 -0.3318366 0.15905073 -0.9470423 -0.40262854 -0.088877045 -0.5646383
-0.6449643 -0.6237727 1.3435895 -0.78552574 -0.83288944 0.19117057 0.24540408 0.32861432
-0.7860033 -0.32082358 0.009831809 0.4457232 0.74148655 -0.1967818 0.15490289 0.5380565
-1.1859539 0.8459545 -1.6282774 -0.15563314 -1.7990757 -0.8421392 0.6688163 -0.6075209
-2.4300237 0.029693246 0.2561695 0.08564479 0.54071075 -0.06559962 -0.28823373 -0.79610956
-0.11592514 0.36514607 0.7814527 -0.30964005 -1.5424024 -0.6502322 -0.7985854 1.0636635
-0.9242024 -0.05040579 -0.09463616 -0.4790455 0.11954145 -0.35009092 -0.15097085 -0.5820969
-0.55618864 -0.42837837 -0.7108302 0.65757656 1.1602207 -0.33718255 -0.6602193 -0.027099332

decoder.lstm.bias_ih_l0 f4 [128]
00000000: a851 7f3d 197f 11bd d445 b73d 3ade 82be
00000010: 876f 10be 727c 50bd 975b 60bd b180 96bd
00000020: 5f17 b0bb 321d 8e3c 3456 3ebd 18b5 7c3c
00000030: 9303 cc3e 5cd5 1b3d fb3a a73d 424d bf3d
00000040: efd4 a3be cec6 94be a773 3cbd 2718 64be
00000050: 04ec ca3e 4266 91be e5ec 313d d4ab 81be
00000060: 144d 24be 978e 00bd 4469 2b3e 9a8c 38bd
00000070: d530 39be 3ba7 a3bd bb8a 79be f573 5c3d
00000080: 5c8b b5be b6d1 9dbe acdd 51be 8632 0c3e
00000090: f6ae bfbd acd2 283e 86ac e13e 7470 853e
000000a0: d5af 0c3d 04f5 473d a81b 283e 9ad0 d33d
000000b0: e528 fcbd 20dd 37bd 9dc4 c23d cc94 8f3e
000000c0: 729d 9c3e e796 87be 69ec c4be 2e92 223f
000000d0: 7d14 3d3e c1e1 853e bec9 a1be 89f6 403e
000000e0: 8d41 e53e 8dc9 8c3b cc62 ea3e f810 8bbe
000000f0: 2d5a c23e ef44 3abe d06f 0d3f e464 233c
00000100: 1e83 103e 126c 3e3e be47 393d b2fa 793e
00000110: 7402 80be 79c0 50be 9fda 41bc 7b1d 983d
00000120: 3ac5 3abd e7c4 463e d776 0abe 6132 e93d
00000130: 9bf3 68bd 525a f43c c998 093e 9569 26be
00000140: 8e59 7abd 9ad0 04be f8ee 1f3e 5b5b 99be
00000150: b38a a8be a4e1 443d af78 9dbe f3eb 1d3d
00000160: 7e02 023c 45f4 4fbe 652b 5e3e c619 51bd
00000170: a662 8cbc ed88 813d 8a29 c9bd 2023 b83d
00000180: 672e 1bbe 47f6 2c3f 15bb 893d 5cb2 0d3e
00000190: 15e0 b63c 1a5b 463e c71f 203e c893 16be
000001a0: 7003 1d3e 9ac9 de3e e9c1 45be ecb4 30be
000001b0: 6a01 1d3f 4e92 cb3d f0fe 273e e025 38bd
000001c0: 7e28 a03e e777 793e 847a 35be 1360 4abc
000001d0: d44a 8b3e 490b 503e d33b a93e a89d 38be
000001e0: a348 63be 165f eebd 72a3 833c ae95 2abe
000001f0: 0f84 e13c 163f a83e ed51 8ebd 4f3b 9a3d
0.062333733 -0.0355216 0.089488655 -0.2556017 -0.14105044 -0.05089993 -0.054774847 -0.07348765
-0.00537388 0.017347906 -0.04646893 0.0154240355 0.39846477 0.038045272 0.081655465 0.09340908
-0.31998393 -0.29057926 -0.046008732 -0.22274838 0.3963319 -0.2839833 0.04343881 -0.25326407
-0.16045028 -0.031385984 0.16739374 -0.045055963 -0.18085034 -0.07990881 -0.24369328 0.053821523
-0.35457885 -0.3082406 -0.20494717 0.13691148 -0.09359543 0.16486615 0.44076937 0.26062357
0.034347374 0.04881765 0.164168 0.10342522 -0.123124875 -0.044888616 0.09510157 0.2804321
0.3058887 -0.26482317 -0.38461617 0.635043 0.18464847 0.261488 -0.3159923 0.18844046
0.44776574 0.0042964877 0.457785 -0.27161384 0.37959424 -0.18190359 0.5524874 0.009972785
0.14112517 0.18595913 0.045234434 0.24412039 -0.25001872 -0.20385922 -0.0118319085 0.07427498
-0.045598246 0.1941105 -0.13521896 0.11386562 -0.056872945 0.029828224 0.13437189 -0.16251214
-0.061120562 -0.129702 0.15618503 -0.2995251 -0.3291832 0.04806675 -0.30756137 0.038555097
0.0079351645 -0.20308025 0.21696241 -0.05104997 -0.017136883 0.06324945 -0.09822376 0.089910746
-0.1515442 0.6756329 0.06725136 0.1383757 0.022323648 0.1937069 0.15637122 -0.14704812
0.15333343 0.43513185 -0.19312252 -0.17256516 0.6133028 0.09940015 0.16405845 -0.044957995
0.31280893 0.24362145 -0.17722517 -0.012352007 0.27205527 0.20316805 0.33053455 -0.18028891
-0.22195677 -0.1163923 0.016069148 -0.16658661 0.02752879 0.3286063 -0.0694922 0.075308435

decoder.lstm.bias_hh_l0 f4 [128]
00000000: f855 7f3d 0181 11bd 0946 b73d 37de 82be
00000010: fb6e 10be 0879 50bd 4d5d 60bd 5080 96bd
00000020: 8525 b0bb 971f 8e3c 0453 3ebd 43af 7c3c
00000030: 8803 cc3e 9bd5 1b3d 9b3a a73d 3c4d bf3d
00000040: 88d4 a3be 1dc7 94be 3d75 3cbd 1917 64be
00000050: a8eb ca3e 0d66 91be 17ef 313d c4ab 81be
00000060: 484d 24be 3f90 00bd 6f69 2b3e 918d 38bd
00000070: 2931 39be fca6 a3bd b48a 79be 0175 5c3d
00000080: 4a8b b5be aad1 9dbe ffdc 51be 2832 0c3e
00000090: ddae bfbd b3d2 283e 48ac e13e 5070 853e
000000a0: 86ae 0c3d cff8 473d 861b 283e 91d1 d33d
000000b0: 892b fcbd 67df 37bd c4c4 c23d b494 8f3e
000000c0: 3a9d 9c3e cb96 87be 8fec c4be 2292 223f
000000d0: aa13 3d3e 31e2 853e 3eca a1be 95f6 403e
000000e0: 1e41 e53e 9dd5 8c3b 6362 ea3e a811 8bbe
000000f0: 765a c23e 7a44 3abe d76f 0d3f cb52 233c
00000100: 4983 103e 376b 3e3e ff49 393d 9afb 793e
00000110: 3202 80be 50c0 50be fbd3 41bc 971c 983d
00000120: a8c6 3abd d3c5 463e a076 0abe 2632 e93d
00000130: 12f2 68bd c054 f43c 7899 093e dd69 26be
00000140: fc58 7abd 6bd1 04be c7ee 1f3e 435b 99be
00000150: 708a a8be cae5 443d ce78 9dbe 50ec 1d3d
00000160: 0a05 023c 92f3 4fbe 302b 5e3e 9819 51bd
00000170: ff5d 8cbc 7387 813d 6f28 c9bd 5f23 b83d
00000180: c62e 1bbe 4bf6 2c3f d5bb 893d 03b2 0d3e
00000190: d0e6 b63c d05b 463e 0620 203e 1394 16be
000001a0: 6903 1d3e ecc9 de3e bbc1 45be fcb3 30be
000001b0: 8f01 1d3f 1892 cb3d 2fff 273e a527 38bd
000001c0: dd28 a03e 4b78 793e ce7a 35be 0b5c 4abc
000001d0: ac4a 8b3e c20b 503e de3b a93e 949d 38be
000001e0: d847 63be 905f eebd bd9b 833c c895 2abe
000001f0: 0d83 e13c c83e a83e 8e50 8ebd 533a 9a3d
0.062337846 -0.03552342 0.08948905 -0.2556016 -0.14104836 -0.050896674 -0.05477648 -0.073486924
-0.0053755664 0.017349048 -0.04646589 0.015422645 0.39846444 0.038045507 0.08165475 0.09340903
-0.31998086 -0.2905816 -0.046010245 -0.22274436 0.39632916 -0.2839817 0.043440904 -0.2532636
-0.16045105 -0.031387564 0.16739438 -0.045056883 -0.1808516 -0.07990834 -0.24369317 0.05382252
-0.35457832 -0.30824023 -0.2049446 0.13691008 -0.093595244 0.16486625 0.44076753 0.2606225
0.034346126 0.048821267 0.1641675 0.10342706 -0.12312991 -0.044890787 0.09510186 0.2804314
0.30588704 -0.26482233 -0.3846173 0.6350423 0.18464532 0.26149133 -0.3159961 0.18844064
0.44776243 0.0042979256 0.45778188 -0.27161908 0.3795964 -0.18190184 0.5524878 0.00996847
0.14112581 0.18595587 0.045236584 0.24412385 -0.25001675 -0.20385861 -0.011830325 0.07427328
-0.04559961 0.19411401 -0.13521814 0.11386518 -0.05687148 0.029825568 0.1343745 -0.16251321
-0.06112002 -0.12970512 0.1561843 -0.2995244 -0.3291812 0.048070706 -0.3075623 0.038555443
0.007935772 -0.20307758 0.21696162 -0.0510498 -0.017134665 0.06324663 -0.09822165 0.089911215
-0.15154561 0.67563313 0.06725279 0.13837437 0.022326857 0.19370961 0.15637216 -0.14704923
0.15333332 0.4351343 -0.19312184 -0.17256159 0.61330503 0.099399745 0.16405939 -0.044959683
0.31281176 0.24362294 -0.17722628 -0.012351046 0.27205408 0.20316985 0.33053488 -0.18028861
-0.22195375 -0.11639321 0.016065473 -0.166587 0.02752831 0.32860398 -0.06948958 0.07530656

decoder.linear.weight f4 [1, 32]
00000000: 2082 3ebe fc7f ab3c 18e5 21bd 1711 1cbd
00000010: ae88 0abd 1f33 87bc 3e23 06bd e027 eb3c
00000020: 7ce1 4fbd b5ba 0f3d f6ae 31bd e301 5e3a
00000030: f903 3fbd e4de c93c 827b 863d 9fbc f5bd
00000040: 1148 5d3c aebe 083d 2c57 0cbf 9494 bf3d
00000050: 02ee a63c 018f bbbc ca7d 6b3d 30ba 6f3d
00000060: d3ce 1b3d b1e4 013c fee1 203d bf0e 34be
00000070: fa9a 9dbc 3b18 81bd a6b0 4e3d 99d5 0bbd
-0.18604326 0.020935051 -0.03952512 -0.038102236 -0.033821754 -0.016503869 -0.032748453 0.028705537
-0.050752148 0.035090167 -0.043379746 0.0008468909 -0.046634648 0.024642415 0.06566526 -0.11998867
0.0135059515 0.03338497 -0.54820514 0.09354511 0.020377163 -0.022895338 0.05749301 0.05852717
0.03803904 0.007928059 0.039278023 -0.1758375 -0.019238938 -0.0630345 0.050461434 -0.03413925
