results/LSTM_single_layer/2101_model.pt (torch, 967425 bytes, 10 tensors)

output_zeros f4 [400, 512, 1]
000000 00 00 00 00 00 00 00 00 00 00 00 00 00 00 00 00
       0.0 0.0 0.0 0.0
000010 00 00 00 00 00 00 00 00 00 00 00 00 00 00 00 00
       0.0 0.0 0.0 0.0
000020 00 00 00 00 00 00 00 00 00 00 00 00 00 00 00 00
       0.0 0.0 0.0 0.0
000030 00 00 00 00 00 00 00 00 00 00 00 00 00 00 00 00
       0.0 0.0 0.0 0.0
000040 00 00 00 00 00 00 00 00 00 00 00 00 00 00 00 00
       0.0 0.0 0.0 0.0
000050 00 00 00 00 00 00 00 00 00 00 00 00 00 00 00 00
       0.0 0.0 0.0 0.0
000060 00 00 00 00 00 00 00 00 00 00 00 00 00 00 00 00
       0.0 0.0 0.0 0.0
000070 00 00 00 00 00 00 00 00 00 00 00 00 00 00 00 00
       0.0 0.0 0.0 0.0
000080 00 00 00 00 00 00 00 00 00 00 00 00 00 00 00 00
       0.0 0.0 0.0 0.0
000090 00 00 00 00 00 00 00 00 00 00 00 00 00 00 00 00
       0.0 0.0 0.0 0.0
0000a0 00 00 00 00 00 00 00 00 00 00 00 00 00 00 00 00
       0.0 0.0 0.0 0.0
0000b0 00 00 00 00 00 00 00 00 00 00 00 00 00 00 00 00
       0.0 0.0 0.0 0.0
0000c0 00 00 00 00 00 00 00 00 00 00 00 00 00 00 00 00
       0.0 0.0 0.0 0.0
0000d0 00 00 00 00 00 00 00 00 00 00 00 00 00 00 00 00
       0.0 0.0 0.0 0.0
0000e0 00 00 00 00 00 00 00 00 00 00 00 00 00 00 00 00
       0.0 0.0 0.0 0.0
0000f0 00 00 00 00 00 00 00 00 00 00 00 00 00 00 00 00
       0.0 0.0 0.0 0.0
000100 00 00 00 00 00 00 00 00 00 00 00 00 00 00 00 00
       0.0 0.0 0.0 0.0
000110 00 00 00 00 00 00 00 00 00 00 00 00 00 00 00 00
       0.0 0.0 0.0 0.0
000120 00 00 00 00 00 00 00 00 00 00 00 00 00 00 00 00
       0.0 0.0 0.0 0.0
000130 00 00 00 00 00 00 00 00 00 00 00 00 00 00 00 00
       0.0 0.0 0.0 0.0
000140 00 00 00 00 00 00 00 00 00 00 00 00 00 00 00 00
       0.0 0.0 0.0 0.0
000150 00 00 00 00 00 00 00 00 00 00 00 00 00 00 00 00
       0.0 0.0 0.0 0.0
000160 00 00 00 00 00 00 00 00 00 00 00 00 00 00 00 00
       0.0 0.0 0.0 0.0
000170 00 00 00 00 00 00 00 00 00 00 00 00 00 00 00 00
       0.0 0.0 0.0 0.0
000180 00 00 00 00 00 00 00 00 00 00 00 00 00 00 00 00
       0.0 0.0 0.0 0.0
000190 00 00 00 00 00 00 00 00 00 00 00 00 00 00 00 00
       0.0 0.0 0.0 0.0
0001a0 00 00 00 00 00 00 00 00 00 00 00 00 00 00 00 00
       0.0 0.0 0.0 0.0
0001b0 00 00 00 00 00 00 00 00 00 00 00 00 00 00 00 00
       0.0 0.0 0.0 0.0
0001c0 00 00 00 00 00 00 00 00 00 00 00 00 00 00 00 00
       0.0 0.0 0.0 0.0
0001d0 00 00 00 00 00 00 00 00 00 00 00 00 00 00 00 00
       0.0 0.0 0.0 0.0
0001e0 00 00 00 00 00 00 00 00 00 00 00 00 00 00 00 00
       0.0 0.0 0.0 0.0
0001f0 00 00 00 00 00 00 00 00 00 00 00 00 00 00 00 00
       0.0 0.0 0.0 0.0
000200 00 00 00 00 00 00 00 00 00 00 00 00 00 00 00 00
       0.0 0.0 0.0 0.0
000210 00 00 00 00 00 00 00 00 00 00 00 00 00 00 00 00
       0.0 0.0 0.0 0.0
000220 00 00 00 00 00 00 00 00 00 00 00 00 00 00 00 00
       0.0 0.0 0.0 0.0
000230 00 00 00 00 00 00 00 00 00 00 00 00 00 00 00 00
       0.0 0.0 0.0 0.0
000240 00 00 00 00 00 00 00 00 00 00 00 00 00 00 00 00
       0.0 0.0 0.0 0.0
000250 00 00 00 00 00 00 00 00 00 00 00 00 00 00 00 00
       0.0 0.0 0.0 0.0
000260 00 00 00 00 00 00 00 00 00 00 00 00 00 00 00 00
       0.0 0.0 0.0 0.0
000270 00 00 00 00 00 00 00 00 00 00 00 00 00 00 00 00
       0.0 0.0 0.0 0.0
000280 00 00 00 00 00 00 00 00 00 00 00 00 00 00 00 00
       0.0 0.0 0.0 0.0
000290 00 00 00 00 00 00 00 00 00 00 00 00 00 00 00 00
       0.0 0.0 0.0 0.0
0002a0 00 00 00 00 00 00 00 00 00 00 00 00 00 00 00 00
       0.0 0.0 0.0 0.0
0002b0 00 00 00 00 00 00 00 00 00 00 00 00 00 00 00 00
       0.0 0.0 0.0 0.0
0002c0 00 00 00 00 00 00 00 00 00 00 00 00 00 00 00 00
       0.0 0.0 0.0 0.0
0002d0 00 00 00 00 00 00 00 00 00 00 00 00 00 00 00 00
       0.0 0.0 0.0 0.0
0002e0 00 00 00 00 00 00 00 00 00 00 00 00 00 00 00 00
       0.0 0.0 0.0 0.0
0002f0 00 00 00 00 00 00 00 00 00 00 00 00 00 00 00 00
       0.0 0.0 0.0 0.0
000300 00 00 00 00 00 00 00 00 00 00 00 00 00 00 00 00
       0.0 0.0 0.0 0.0
000310 00 00 00 00 00 00 00 00 00 00 00 00 00 00 00 00
       0.0 0.0 0.0 0.0
000320 00 00 00 00 00 00 00 00 00 00 00 00 00 00 00 00
       0.0 0.0 0.0 0.0
000330 00 00 00 00 00 00 00 00 00 00 00 00 00 00 00 00
       0.0 0.0 0.0 0.0
000340 00 00 00 00 00 00 00 00 00 00 00 00 00 00 00 00
       0.0 0.0 0.0 0.0
000350 00 00 00 00 00 00 00 00 00 00 00 00 00 00 00 00
       0.0 0.0 0.0 0.0
000360 00 00 00 00 00 00 00 00 00 00 00 00 00 00 00 00
       0.0 0.0 0.0 0.0
000370 00 00 00 00 00 00 00 00 00 00 00 00 00 00 00 00
       0.0 0.0 0.0 0.0
000380 00 00 00 00 00 00 00 00 00 00 00 00 00 00 00 00
       0.0 0.0 0.0 0.0
000390 00 00 00 00 00 00 00 00 00 00 00 00 00 00 00 00
       0.0 0.0 0.0 0.0
0003a0 00 00 00 00 00 00 00 00 00 00 00 00 00 00 00 00
       0.0 0.0 0.0 0.0
0003b0 00 00 00 00 00 00 00 00 00 00 00 00 00 00 00 00
       0.0 0.0 0.0 0.0
0003c0 00 00 00 00 00 00 00 00 00 00 00 00 00 00 00 00
       0.0 0.0 0.0 0.0
0003d0 00 00 00 00 00 00 00 00 00 00 00 00 00 00 00 00
       0.0 0.0 0.0 0.0
0003e0 00 00 00 00 00 00 00 00 00 00 00 00 00 00 00 00
       0.0 0.0 0.0 0.0
0003f0 00 00 00 00 00 00 00 00 00 00 00 00 00 00 00 00
       0.0 0.0 0.0 0.0

encoder.lstm.weight_ih_l0 f4 [256, 4]
000000 83 26 3d be 01 2f ae bd 33 65 13 c0 3b dc 72 3e
       -0.18471722 -0.08505059 -2.3030517 0.23716824
000010 98 3e 38 3f 08 ce 95 3e 77 37 ad bf 9a f5 18 3f
       0.7197051 0.29258752 -1.3532552 0.5974976
000020 17 10 60 bd ef 1f 92 3e 06 b8 cb bd 65 96 a4 3f
       -0.054702844 0.28539988 -0.09947209 1.2858397
000030 35 cc 19 bf 00 08 fb 3e ee af 02 3f 54 10 0c 3f
       -0.6007722 0.4902954 0.510497 0.54712415
000040 e1 18 05 bf 3b 1b 40 3e 11 05 26 3f 73 7d 05 bf
       -0.5199109 0.18760388 0.6485148 -0.52144545
000050 a8 e8 b9 be c8 66 ce 3f 47 4e 05 bf 4a 71 d7 bf
       -0.36310315 1.6125116 -0.52072567 -1.6831448
000060 45 47 8b 3f 3e 62 51 3f b0 46 32 bf 41 c9 98 3f
       1.0881125 0.8179053 -0.6963911 1.1936418
000070 a4 57 9f 3f be 06 2f 3f 2e 85 a2 be 54 cc f9 be
       1.2448621 0.6836966 -0.31742233 -0.48788702
000080 cd 61 28 bf cd a3 93 3f 55 5f 38 be 37 ae c1 be
       -0.6577423 1.1534363 -0.18005116 -0.37828228
000090 db fe 13 40 83 ad b8 bd d2 00 05 40 cd bb a9 bf
       2.3124301 -0.0901747 2.078175 -1.3260437
0000a0 4e 36 9a 3f f1 f2 61 3e fc 0f 2c 3f 0a 8e b9 bc
       1.2047822 0.22065331 0.6721189 -0.022650737
0000b0 a5 ea b0 3e ca 14 75 bf cd da 75 3e ef ca ad 3f
       0.3455402 -0.95734847 0.24009247 1.3577555
0000c0 7d 43 28 bd fc 48 93 3f f1 b0 8b be 5c e5 e5 be
       -0.041079987 1.1506648 -0.27283433 -0.4490155
0000d0 ba 00 e1 be b8 bb c5 3f 68 82 f7 be a5 6e b9 bf
       -0.43945867 1.5447912 -0.4834168 -1.4486891
0000e0 88 21 b3 3f 0d da 9e bf e8 1c 9c 3d a1 da 18 3f
       1.3994608 -1.2410294 0.07622701 0.597086
0000f0 2c 7b 5d be 9c 89 c4 3e dd aa 10 3f c1 f7 3c be
       -0.21629018 0.38386238 0.56510717 -0.18453886
000100 b7 76 55 be 56 86 3e 3f b1 b7 0f 3e a7 bd 36 bf
       -0.20846067 0.7442373 0.14034916 -0.71383137
000110 a8 15 ad 3d b8 48 d8 3e 18 06 7d 3d 3a 43 e8 3e
       0.08451396 0.4224298 0.06177339 0.4536379
000120 ab 25 39 bf 17 ab 59 bc 0c ef ca 3e 38 8f 09 3f
       -0.723231 -0.01328542 0.39635503 0.5373416
000130 76 53 a6 3f 12 7f 9c 3d c3 fa 5e be 80 49 a2 3f
       1.299422 0.07641424 -0.21775346 1.267868
000140 d9 48 e5 3f d2 4e da be ed 90 23 3f 51 25 64 bf
       1.7912856 -0.4263826 0.63893014 -0.8911944
000150 9d 8a fe be 24 45 37 be ae bf 7a 3e a1 66 16 bf
       -0.4971513 -0.17897469 0.24487182 -0.5875035
000160 1b e2 06 3f 8a e5 0c bf e5 e4 55 be da 3e 08 3f
       0.5268876 -0.5503775 -0.20888098 0.53220904
000170 2e c4 d8 bf 78 e7 45 3f ed 24 5c 3e 9b 36 72 bf
       -1.6934869 0.7730632 0.21498461 -0.9461457
000180 98 f7 8e 3f 90 f2 c0 3e b4 6d 1c 3d bc ee 3a 3f
       1.116931 0.3768506 0.03819056 0.7302053
000190 c3 36 b4 3d 0a 9d d8 be 31 75 1b bf c6 18 1e c0
       0.087995075 -0.4230731 -0.60725695 -2.470262
0001a0 19 b0 8f be 41 47 e9 3d b2 4f a9 3e 6f 4e 62 bd
       -0.2806404 0.11390544 0.33068615 -0.05525058
0001b0 ed 89 00 40 ce 4c 15 bf 4f b0 b7 bd 72 ff 32 bd
       2.0084183 -0.5832032 -0.08969175 -0.043700643
0001c0 51 78 46 be 7a 75 f4 be ef ee 6b 3d fe d1 b8 3f
       -0.19381835 -0.47745878 0.05760091 1.4439085
0001d0 e4 2f b1 be fd 92 3a bf 58 94 c0 be bb d7 d2 be
       -0.3460685 -0.72880536 -0.37613177 -0.41180214
0001e0 1a 90 00 be be 7d 71 3f 1a 64 3c 3e 99 2d 5f bc
       -0.1255497 0.9433249 0.1839756 -0.013621711
0001f0 cf 7e a5 be 0f d6 c6 bf 34 0b 4f 3f b3 ad ae 3f
       -0.3232331 -1.5534075 0.8087647 1.3646759
000200 2c c1 a7 3d 32 8b 3b 3f fa c2 a9 bd 5d 98 a1 be
       0.081911415 0.7325927 -0.08289142 -0.31561556
000210 70 0f 19 bf aa 52 e1 3d e3 32 8d 3f c2 a8 05 3f
       -0.5978918 0.11002095 1.1031154 0.5221063
000220 15 ca bf 3f 1d 3a 33 bf 7d 1c 15 c0 2f 3b 43 3f
       1.4983546 -0.7001055 -2.3298638 0.7626218
000230 38 6a 3f 3f 6e c1 d8 3e 47 9c 64 3f ff 00 ad be
       0.7477145 0.42335075 0.8930096 -0.33789822
000240 73 59 82 3f 5b a4 7b bf fd 94 4e 3f f6 0a 50 bf
       1.0183548 -0.9829766 0.8069609 -0.81266725
000250 fa 43 94 3f d9 80 93 3e 44 f9 8d be 46 5a 66 bf
       1.1583245 0.2880924 -0.27729237 -0.89981496
000260 c9 cf 69 be fb 54 52 3f c9 7e e2 bd df 0c 2a 3f
       -0.2283317 0.8216092 -0.110593386 0.6642589
000270 49 b8 87 3f 34 4f 80 3e dd 3d f0 be 3a a6 a0 be
       1.0603114 0.25060427 -0.46922198 -0.3137682
000280 e4 46 ae 3f ea 7b 7a 3f c0 51 fa bf 31 07 f5 bf
       1.3615384 0.9784533 -1.9556198 -1.914282
000290 75 08 aa 3f 9b f8 75 3f c4 11 b0 3c d9 b8 3a 3f
       1.3283831 0.96082467 0.021492846 0.72938305
0002a0 d4 28 4a bf 4c df 04 bf 5c d9 42 3f 16 6c 10 3f
       -0.7896855 -0.51903224 0.76112914 0.56414926
0002b0 4a 24 5f be 06 ed 5b 3f f4 91 5a 3f 6f 06 6c 3f
       -0.21791187 0.85908544 0.85378957 0.92197317
0002c0 1f 75 4e 3f b1 61 90 3e 1f f5 64 3f 0b f7 06 bf
       0.8064746 0.28199533 0.89436525 -0.5272071
0002d0 ad 34 c3 3f d9 b2 30 3f 0c bb 95 3f d3 ae b0 bd
       1.525045 0.690229 1.1697707 -0.08627095
0002e0 86 82 93 bf 41 1d a4 be 04 62 ff 3e e7 00 a6 bd
       -1.1524208 -0.3205357 0.49879467 -0.08105641
0002f0 33 dc d0 be 0d 61 2c bf 58 d0 68 3f 31 91 c0 3f
       -0.40793 -0.6733559 0.9094291 1.5044309
000300 d2 bb 8c bf d2 18 85 3f 2c 7d 8f be ff 9b c1 be
       -1.0994818 1.03982 -0.28025186 -0.37814328
000310 f1 9c 00 3f 57 e7 14 3e 82 d8 e3 be f7 98 f0 3f
       0.50239474 0.14541374 -0.4450112 1.8796681
000320 4b a7 bf 3e a3 0d 6d bf 35 ac d0 3e 51 b1 48 3f
       0.37432322 -0.92598933 0.40756384 0.78395563
000330 35 da 17 40 3c e0 36 be 2f 01 f4 3e 9d 8e 38 40
       2.3726933 -0.17858976 0.47657153 2.8837044
000340 a5 67 29 3d 23 b3 9c 3d 5a b4 1b 3e 8d 1e 4b 3e
       0.04135861 0.07651355 0.15205517 0.19835873
000350 24 74 bd bf 97 04 e5 3f 3d 67 39 3d 85 65 6c bc
       -1.4801068 1.7892026 0.04526447 -0.014428501
000360 e7 5b c3 3e 20 65 66 3f 91 a3 1b 3e ab eb 52 bf
       0.38156053 0.89998055 0.15199114 -0.8239085
000370 6c 61 12 3f f4 2b 45 3f db 46 db 3e b5 26 b0 3f
       0.57179904 0.7702019 0.42827496 1.3761812
000380 07 0d 7e 3f ee e7 07 3f 91 3f 56 bf 19 58 15 bf
       0.9923863 0.5308827 -0.83690745 -0.5833755
000390 98 0d 95 3f a9 93 09 3f 4e 73 72 be 05 4e e1 3d
       1.1644773 0.53740937 -0.23676798 0.11001209
0003a0 b2 ec 36 bf af e6 69 be 12 d6 22 3f fe 7b d8 3f
       -0.7145492 -0.22841905 0.63607895 1.691284
0003b0 56 df 20 3f ed 38 5d be b6 d3 c7 3e 6d 15 95 3c
       0.62840784 -0.21603747 0.3902871 0.018198693
0003c0 b9 f0 cb bd d0 7f 07 3f 96 34 03 3f 63 23 c1 be
       -0.099580236 0.529294 0.51252115 -0.3772231
0003d0 eb dc 40 3f 4c ba 3e 3f a1 1e d8 be 12 e7 ed 3e
       0.75337094 0.74503016 -0.42210868 0.46465355
0003e0 f8 60 6e 3f d2 5c c8 3e b5 10 5b 3e 9f 2d 49 3f
       0.9311671 0.39133316 0.21393092 0.7858524
0003f0 bc 89 c8 bf a3 5c 8c bf e0 92 36 3f 05 4c 0d 3e
       -1.5667033 -1.096577 0.71317863 0.1379853

encoder.lstm.weight_hh_l0 f4 [256, 64]
000000 ef 59 69 bd 9f 37 3e bd 37 91 6b 3c 33 0d 06 bf
       -0.056970533 -0.046439763 0.014377884 -0.5236389
000010 67 a4 47 be 88 83 24 3f 40 65 58 3e 80 42 cc bc
       -0.19496308 0.642632 0.21132374 -0.024934053
000020 09 ca f9 be f3 77 b5 be ad bc 03 3f 1d a9 48 3f
       -0.48786953 -0.35443076 0.5145977 0.78383046
000030 9e 6b 48 be dd 39 13 bd 0d 77 d7 bd 59 91 13 3e
       -0.19572303 -0.035943855 -0.10520754 0.14410914
000040 dd 28 49 3e 49 b1 0e bf 28 91 99 be 33 30 0d 3d
       0.19644494 -0.55739266 -0.29993558 0.034469794
000050 5c b4 18 bf 00 d9 6f 3e f5 b6 55 bc 13 98 fc 3e
       -0.59650207 0.23422623 -0.013044109 0.49334773
000060 fb c7 3e bf 9e f0 07 be c7 bc 26 be 2c 69 92 3e
       -0.74523896 -0.13275382 -0.1628295 0.28595865
000070 f1 0f 1c bd 1e fd 1c 3e 7e c6 d9 3e ad f8 09 be
       -0.03810114 0.15330932 0.4253425 -0.13473769
000080 bf 9c d1 be e9 af b8 3d d0 04 63 3d d4 72 cb be
       -0.409399 0.09017927 0.05542451 -0.39736044
000090 e8 9b 7d 3f 92 af 6c be 55 a3 a9 3f 3b 86 3c 3e
       0.9906602 -0.2311385 1.325297 0.1841058
0000a0 d1 c9 c8 3e 03 f4 47 be 14 0e e4 3d ec 06 64 3d
       0.39216474 -0.19526677 0.11135498 0.055670664
0000b0 5b b1 c2 3e 2e 77 1d 3d 2a 89 40 3e 21 d3 cb bd
       0.38025936 0.038443737 0.18802324 -0.09952379
0000c0 56 b8 ae 3e 88 cc 2e be 46 d5 ad 3d 6b 4e d2 bd
       0.34125012 -0.1707021 0.08487944 -0.10268863
0000d0 95 09 dc be 0d 99 d3 bd a8 8e 36 3d 19 f5 0b bf
       -0.4297606 -0.103319265 0.04456964 -0.54670864
0000e0 d4 57 17 3f d2 4e a8 3e 2a 44 d9 be 73 96 99 be
       0.5911839 0.32872635 -0.42434818 -0.29997596
0000f0 bd 8e d8 3e 2f 54 d1 be 7b 33 c4 3e ef 71 a3 be
       0.422964 -0.4088454 0.38320526 -0.31922862
000100 0e e9 9c 3e b9 b0 48 be b2 de 2e 3e ce cb 11 3f
       0.30646557 -0.19598664 0.17077139 0.56951606
000110 2b 10 54 3f d3 8c 91 be d5 de 30 3d fe 65 4b bd
       0.8283717 -0.28427753 0.04318126 -0.049657814
000120 c3 a0 32 be 7a 2b b6 3e e7 d4 2a 3f fc 68 49 bf
       -0.17444138 0.35580045 0.66731113 -0.7867582
000130 6c 27 89 be a5 78 26 bf 0b fa 76 3e 98 5d 88 be
       -0.2678789 -0.6502784 0.24118821 -0.26633906
000140 32 cc 86 be ac 60 66 be e3 dd cd be b2 2a 25 bc
       -0.26327664 -0.22497815 -0.4020835 -0.01008098
000150 4a d5 20 bf 04 91 7d 3e 04 66 c6 bc 31 f8 83 bf
       -0.62825453 0.2476235 -0.024218567 -1.0310117
000160 41 33 cb be e7 33 0d bf 74 e5 9e 3e b6 48 ab 3c
       -0.3968754 -0.5515732 0.31034434 0.020908695
000170 bd a3 cc be f4 4a 32 3e 3f 59 e6 be d7 9d 8d 3d
       -0.39968672 0.17411405 -0.44989964 0.06914871
000180 5b 3b eb be 45 b4 a6 3e e1 6c 45 3f 69 6a 24 ba
       -0.45943722 0.3255941 0.7711926 -0.000627196
000190 94 1b ac 3e e9 01 82 ba b1 e3 e4 bd ca 9f 35 3e
       0.3361479 -0.0009918782 -0.11176241 0.17736736
0001a0 3f 13 98 be aa 50 0c 3e f9 cf 3d bf 71 9b 15 bd
       -0.29702184 0.13702646 -0.74145466 -0.036525194
0001b0 ee 8b 1e 3e b0 fe ed be 6d ac be 3e 38 25 1f 3e
       0.15483066 -0.46483374 0.37240925 0.15541542
0001c0 e5 31 37 bf 6c f3 a8 be 63 45 45 3e de db 40 be
       -0.7156051 -0.32998216 0.1926475 -0.18833873
0001d0 a2 2f 4c bf 83 36 10 bd 34 76 87 bd 1b c9 b1 bd
       -0.7976018 -0.035208236 -0.06614342 -0.08680936
0001e0 c8 3b f2 3d 31 0f a6 3e e2 4f a1 bf d1 8d a6 3e
       0.118278086 0.32433465 -1.2602503 0.32530072
0001f0 6f 3a 70 3f c3 ca 04 be 65 bc 19 bf 4e b7 07 be
       0.9383916 -0.12967972 -0.6005309 -0.13253519
000200 13 66 f0 3d 55 cc 28 bd ee 96 22 be cc 22 be 3d
       0.11738219 -0.04121049 -0.15877888 0.09283981
000210 fe 9c fc 3d f5 7f d2 bc bd 24 24 3e 22 34 97 bd
       0.123346314 -0.02569578 0.1602964 -0.073829904
000220 c3 0f 64 3e 58 7b a9 bd dd 73 ab be 38 8c 58 3f
       0.22271638 -0.08275479 -0.33486834 0.84588957
000230 b4 f5 7c 3e d7 49 40 bd ee a0 39 3f d0 ba c6 be
       0.24703103 -0.04694542 0.72511184 -0.38814402
000240 c9 5a ba be fc ae 7e bf 60 b8 d6 3e 77 d9 80 3d
       -0.3639739 -0.99485755 0.41937542 0.06291478
000250 11 05 b2 3e b9 88 3b bc 03 c4 23 bc 74 26 25 be
       0.3476949 -0.011446171 -0.009995463 -0.1612795
000260 21 a9 b0 bd 40 29 bf be 06 14 9b 3e d9 5f 4d 3e
       -0.08626009 -0.3733616 0.30288714 0.20056094
000270 e7 48 d9 3e 41 9f d0 bd 11 d3 9a be ec 31 51 3f
       0.42438433 -0.10186625 -0.30239156 0.817168
000280 82 4a 8a 3d 48 54 78 3e 18 aa 48 bf e3 5d 23 bf
       0.067524925 0.24250901 -0.7838454 -0.63815135
000290 2e 91 46 3d 04 e5 51 bf 8e 00 37 3e fc 08 b1 3e
       0.048478298 -0.81990075 0.17871305 0.34577167
0002a0 7b ce 1f 3e c8 c1 b7 3e a0 45 f7 be 87 5c 5f bf
       0.1560611 0.3589003 -0.48295307 -0.8725056
0002b0 a9 73 32 be b5 96 f3 3d e0 5d 1c bf 8d f8 5b bf
       -0.17426933 0.118939795 -0.6108074 -0.85926133
0002c0 54 b8 0e 3f 0a d0 70 be 67 ea 84 3e c1 e8 3d be
       0.5575001 -0.2351686 0.25960085 -0.1854582
0002d0 f5 d5 54 be 99 8e 8d 3e c9 f9 6c 3e 1f e5 d0 3e
       -0.20784743 0.27647856 0.2314216 0.40799806
0002e0 6f 97 ae be e5 e0 58 bd 2f b1 b7 be 60 b1 34 3e
       -0.3409991 -0.05294885 -0.35877368 0.17645788
0002f0 0c f1 c2 3e b1 a6 8e be 04 ae c4 be 1d 1f 80 3e
       0.3807453 -0.2786155 -0.38414013 0.25023738
000300 44 c7 4a be 80 d0 42 bf be 28 46 3d e2 91 7f bb
       -0.19802576 -0.76099396 0.0483787 -0.0038996865
000310 54 b6 4e 3d 6a a4 34 3f d2 50 eb be bf 88 d2 3e
       0.05046685 0.70563376 -0.45960099 0.41119954
000320 2e 93 3e bf 7c 81 a0 be 18 bc e3 bd d1 6e 2a 3e
       -0.7444333 -0.3134879 -0.111198604 0.16643836
000330 f8 10 14 bf 33 f8 01 3e 80 9e 77 bf f8 3e 60 3e
       -0.5783839 0.12692337 -0.96726227 0.2189902
000340 93 ca 7f bd 9e 81 a7 3b 8b 4e 59 3e e6 4a 17 3e
       -0.06244905 0.005111887 0.21221368 0.14774665
000350 25 aa bb 3e eb 0a 74 be c0 3d 5f 3e 97 9f 8d 3e
       0.36653247 -0.2383229 0.218009 0.2766082
000360 64 07 36 3e ad 63 72 3f a5 e6 08 bf c7 b1 15 3f
       0.17776257 0.94683343 -0.53476936 0.5847439
000370 db 2a 26 3e 79 39 da 3e e3 67 84 3d 73 f7 50 3e
       0.16227286 0.42621973 0.06465127 0.20406894
000380 26 3b a8 3c 31 68 41 bd 60 0d 81 bd fc 63 77 be
       0.020536017 -0.047218505 -0.06301379 -0.24159235
000390 1b b4 9a be 17 c1 bd bc 54 b0 ce 3d a1 bb 31 be
       -0.30215535 -0.023163361 0.10092226 -0.17356731
0003a0 f4 66 3d 3e 32 96 a4 be 3a d6 8c 3f 46 89 d7 3d
       0.18496305 -0.3214584 1.1002877 0.1052423
0003b0 9c 0d 08 3f 16 72 17 3e 52 9a a8 be 94 15 90 be
       0.53145766 0.14789614 -0.32930237 -0.28141463
0003c0 f4 25 07 3f 81 3c 13 bf 2d 5f 54 bc cf b7 c2 3e
       0.52792287 -0.57514197 -0.012962145 0.3803086
0003d0 45 2d 31 3d 89 ad 42 3f 73 7c 1a bf 0d 8f bb 3e
       0.043256063 0.76046044 -0.60346144 0.36632577
0003e0 c9 0d ab be 21 63 45 3e 2d a3 57 3e 3a d1 31 3f
       -0.33408955 0.19276096 0.2105834 0.6945988
0003f0 b5 05 a7 3e eb 02 ac be ad d6 2a bf d8 6a b3 3e
       0.32621542 -0.33595976 -0.6673382 0.35042453

encoder.lstm.bias_ih_l0 f4 [256]
000000 e0 ca 0a bd d6 b1 f3 3e 52 3b fc 3e 47 3f c3 3d
       -0.033884883 0.47596616 0.49264008 0.095335536
000010 91 0c a9 be 6c 92 24 3f d6 55 a6 3e a9 4d dd ba
       -0.330174 0.6428592 0.32487363 -0.0016884106
000020 da ce c7 3d c3 3e 8f bd 15 38 95 3e fb c5 15 be
       0.09756251 -0.06994393 0.2914435 -0.14626305
000030 72 d0 3c be da 09 be bd a1 26 bd be 29 c9 6f 3d
       -0.1843889 -0.09279223 -0.36943534 0.05854145
000040 3e 32 0a be 30 bc 7a bd 20 60 fc be af ce 74 be
       -0.13495728 -0.061214626 -0.49292088 -0.23906969
000050 55 3a f6 be 66 af 05 3d 94 f7 2e be c5 3d 70 be
       -0.4809138 0.032637976 -0.17086631 -0.23461063
000060 81 f6 8b 3e 24 1e 0e 3f 04 9d 1b b9 2b 2d 30 be
       0.27336505 0.5551474 -0.00014840445 -0.1720473
000070 ac 3d 64 3e 82 7e cc bd 68 f6 dc bc d0 3e 04 be
       0.22289151 -0.09985067 -0.026972964 -0.12914586
000080 fe cd 16 3f 94 76 d6 be 55 92 8b be 2c 1f 3f 3f
       0.5890807 -0.41887343 -0.2726008 0.7465694
000090 7a de c5 3c 0f df 17 be 0f e7 f5 be 84 cc 8c bd
       0.024153937 -0.14831184 -0.48027846 -0.06874946
0000a0 bb 83 87 bd ad 70 26 3f b4 bf a2 3e 42 ea a7 3e
       -0.066169225 0.6501568 0.31786883 0.32795912
0000b0 ca 54 81 be 57 61 8c be 5a ce 1b bf f0 e9 84 be
       -0.2526 -0.27418014 -0.6086174 -0.2595973
0000c0 11 6e 61 3e 43 93 d0 be 22 d5 d3 be ca c7 1d be
       0.22014643 -0.40737352 -0.41373545 -0.15408245
0000d0 e7 83 6c bc ad 7f c5 be 68 ea 9f 3e 40 46 c5 be
       -0.014435745 -0.3857397 0.31233525 -0.3853016
0000e0 ca d7 f8 be ae 3d 07 bf cb 2b cb 3e a4 d2 ec 3e
       -0.48602134 -0.5282849 0.3968185 0.46254456
0000f0 2f 50 1d 3e fa 24 40 be ef 4a 76 bd ec e2 b0 bd
       0.15362619 -0.18764105 -0.060130056 -0.08637032
000100 47 06 2c be 4c 88 32 bf 05 fd a5 bb f5 39 30 3d
       -0.1679927 -0.6973922 -0.0050655627 0.043024022
000110 f7 9a 64 bc 54 e0 4c bd b3 13 6b bf 80 f8 d4 bd
       -0.013952962 -0.050018623 -0.91826934 -0.1039896
000120 be 17 4e 3e cc 22 c5 be 45 e8 b0 be 6e e8 2d be
       0.20126244 -0.3850311 -0.34552208 -0.16983196
000130 59 9e 60 be a2 eb f1 be 5f ff 91 be 6d a0 f9 3b
       -0.21935405 -0.47250086 -0.28515145 0.007618001
000140 a9 d4 f0 be d6 3a c9 3d bd 14 28 bf 5f 41 79 be
       -0.47037247 0.09825675 -0.65656644 -0.24341343
000150 60 e1 0e bf 5e fb 10 be a2 39 82 3e b4 3c 7d be
       -0.55812645 -0.14158389 0.25434595 -0.24730188
000160 dc 2e ca 3c 8e a6 d5 3d 98 e7 69 be e3 26 36 bf
       0.024680547 0.104321584 -0.22842252 -0.71153086
000170 fa 36 b4 bd 7b c9 12 3f f6 22 00 3d 62 f0 fe 3d
       -0.087995484 0.57338685 0.03128334 0.12448193
000180 9b ff 84 be 3b f2 ac be 4d 2b b1 be 95 52 72 3e
       -0.25976261 -0.33778557 -0.34603348 0.23664315
000190 f9 04 48 3e c5 9b 0c 3e 9a 35 81 be f7 df 2d 3e
       0.19533147 0.13731296 -0.25236207 0.16979967
0001a0 e3 6c 82 be d5 01 a6 bd b6 77 06 bd b2 31 33 bf
       -0.254737 -0.08105818 -0.03282901 -0.69997704
0001b0 02 05 c1 3e 36 81 a5 be 5c 2e e9 be 32 b0 0e bf
       0.37699133 -0.32325143 -0.45543182 -0.557376
0001c0 3c f1 05 3d 98 c5 29 3e 4a d9 d3 be ad a5 d8 be
       0.032700762 0.16579282 -0.41376716 -0.423139
0001d0 b6 67 96 be 40 be 11 be 81 53 94 bd 9d 73 eb be
       -0.29376 -0.14232731 -0.072424896 -0.45986643
0001e0 48 3f 3a 3f 5f ca fd be 0d 9c 1e be 4e 21 f1 3e
       0.7275281 -0.4956846 -0.15489216 0.47095722
0001f0 fd cc d8 bd 45 b2 c7 bc b5 73 c0 3d bd 3a b3 3e
       -0.105859734 -0.024376998 0.09397069 0.3500575
000200 f6 41 bc 3c da 9f 0b 3e 90 cc 2e 3e 82 5c be 3e
       0.022980671 0.13635197 0.17070222 0.37179953
000210 88 d7 3c 3e 77 a1 4a be 16 6b 8a 3e 59 c0 3f bd
       0.18441594 -0.19788156 0.27034825 -0.046814296
000220 e7 13 75 be 3a 2e 81 bd 55 f7 d3 bd d3 d1 e6 3d
       -0.23933373 -0.06307645 -0.10349909 0.112704895
000230 af 25 5d be 17 d7 95 be 33 5f bb bd 5e 9e 53 be
       -0.21596406 -0.29265663 -0.09149017 -0.20665881
000240 82 0c 62 bd 6d fd 49 be 8a d3 97 3e 8d 97 75 3e
       -0.05518771 -0.1972558 0.2965358 0.23983593
000250 2d f4 77 be c1 db eb 3e 07 71 5a be 37 f0 25 3e
       -0.2421424 0.46066096 -0.21332179 0.16204916
000260 b3 fa 5b 3e d5 5b 56 be 1a fe c7 3c 52 16 4e bd
       0.21482353 -0.20933469 0.024413157 -0.050314255
000270 20 41 9c be f9 f7 d9 be 05 40 66 be d4 0c a9 3e
       -0.30518436 -0.42572 -0.22485359 0.330176
000280 51 6a d8 3e 74 aa 80 3e 09 64 d5 3c 54 12 dd be
       0.42268613 0.25130045 0.026048677 -0.43178046
000290 b9 2f d3 bd 18 a5 d3 3e e5 b4 8a 3d 30 54 4d 3e
       -0.10311837 0.41336894 0.06772784 0.20051646
0002a0 ff d0 c3 3e 43 ab a3 be f5 35 07 3e 7b 3d 4f 3e
       0.3824539 -0.319666 0.13204177 0.20238297
0002b0 5b 57 e0 be bb 9c 22 be 6f e6 7f 3d 79 8a 56 3d
       -0.43816647 -0.158801 0.062475618 0.05237815
0002c0 87 40 24 be 9b 52 7b bd a1 39 52 3e e9 c3 08 3e
       -0.1604024 -0.061358076 0.20529796 0.13355984
0002d0 ed 51 57 be 06 6e 33 3e 11 33 e8 bd ce 00 94 3e
       -0.21027346 0.1752244 -0.11337865 0.28906864
0002e0 7e 17 e2 be 13 33 83 3e 5c 12 fe bd 46 f1 1b 3e
       -0.44158548 0.25624904 -0.124058455 0.15228757
0002f0 f5 65 af 3e b6 7d ed be 1f 97 5f be 04 a7 03 be
       0.34257475 -0.46384972 -0.21834992 -0.1285668
000300 a7 95 c7 bd a7 d7 a8 3e 9d 5e db 3e c2 0e 8a bd
       -0.09745341 0.3297703 0.42845622 -0.06741096
000310 c4 17 03 bc 8c d5 99 3e 61 8f d2 3e 29 82 33 3e
       -0.008001272 0.30045736 0.41125014 0.17530121
000320 6e a0 5c 3e 08 72 08 3f c1 ea f3 3e 48 81 24 be
       0.21545574 0.53299 0.4764004 -0.16064942
000330 1b 73 97 3e 0e 46 f9 bd 41 c3 ab be 54 4c 69 be
       0.29580006 -0.12171565 -0.33547404 -0.22783023
000340 6c 7e c9 bd 10 6c 95 3e 6a cc e2 be 7e 0c 8f be
       -0.09838566 0.29184008 -0.4429658 -0.27939218
000350 98 fa 97 bd 20 89 a2 3d 8b c4 2b be 36 a4 56 3d
       -0.07420844 0.07936311 -0.16774194 0.052402698
000360 a2 08 8a 3e 82 98 c7 3e 97 01 af 3e d5 c7 88 be
       0.2695971 0.38983542 0.341809 -0.2671496
000370 56 79 d0 bd f9 4a c4 be 6e be f4 3d 1b 48 00 be
       -0.10179393 -0.3833845 0.11950384 -0.12527506
000380 04 70 9d 3e 1c 9e 16 be 27 aa 85 3d 9c 25 98 be
       0.30749524 -0.14708751 0.065265946 -0.29716194
000390 4f 5c 2e be b9 fd 46 3e 3e 8c 03 be 30 c9 af be
       -0.170274 0.19432725 -0.12846467 -0.3433318
0003a0 29 87 f8 3d 4e 65 9e bd 74 70 6d be 23 0a 2e 3e
       0.12135155 -0.07734166 -0.23187429 0.16996054
0003b0 c3 cc 9f 3d 5a 6f 23 3d 55 34 90 be e4 ac 8e be
       0.07802727 0.039901115 -0.28164926 -0.2786628
0003c0 33 30 68 3e 44 32 64 be ab 9e c6 be 47 b3 55 be
       0.22674637 -0.222848 -0.3879293 -0.2086917
0003d0 e4 73 26 be 6c 8d 13 be bb fd 1b bd 0a 85 9e bd
       -0.16255146 -0.14409417 -0.038083773 -0.07740219
0003e0 d7 4a 1f 3f f3 73 1f be 29 c9 20 3f 07 6f c7 3c
       0.6222357 -0.15571575 0.62806946 0.024344934
0003f0 c9 da e0 3d 8d bb 32 be a6 b3 d1 be 14 d2 43 3f
       0.1097923 -0.17454357 -0.40957373 0.7649243

encoder.lstm.bias_hh_l0 f4 [256]
000000 ee ca 0a bd d6 b1 f3 3e 4e 3b fc 3e 45 3f c3 3d
       -0.033884935 0.47596616 0.49263996 0.09533552
000010 95 0c a9 be 6c 92 24 3f da 55 a6 3e a7 4e dd ba
       -0.33017412 0.6428592 0.32487375 -0.0016884402
000020 ce ce c7 3d c3 3e 8f bd 17 38 95 3e 04 c6 15 be
       0.09756242 -0.06994393 0.29144356 -0.14626318
000030 72 d0 3c be d1 09 be bd a1 26 bd be 29 c9 6f 3d
       -0.1843889 -0.09279216 -0.36943534 0.05854145
000040 40 32 0a be 30 bc 7a bd 20 60 fc be b3 ce 74 be
       -0.13495731 -0.061214626 -0.49292088 -0.23906974
000050 55 3a f6 be 79 af 05 3d 96 f7 2e be c9 3d 70 be
       -0.4809138 0.032638047 -0.17086634 -0.23461069
000060 84 f6 8b 3e 24 1e 0e 3f a8 8c 1b b9 2b 2d 30 be
       0.27336514 0.5551474 -0.0001483435 -0.1720473
000070 aa 3d 64 3e 72 7e cc bd 75 f6 dc bc d4 3e 04 be
       0.22289148 -0.09985055 -0.026972989 -0.12914592
000080 fe cd 16 3f 92 76 d6 be 55 92 8b be 2c 1f 3f 3f
       0.5890807 -0.41887337 -0.2726008 0.7465694
000090 89 de c5 3c 11 df 17 be 0f e7 f5 be 88 cc 8c bd
       0.024153965 -0.14831187 -0.48027846 -0.06874949
0000a0 aa 83 87 bd ad 70 26 3f b4 bf a2 3e 42 ea a7 3e
       -0.0661691 0.6501568 0.31786883 0.32795912
0000b0 ca 54 81 be 57 61 8c be 59 ce 1b bf ec e9 84 be
       -0.2526 -0.27418014 -0.60861737 -0.25959718
0000c0 13 6e 61 3e 43 93 d0 be 22 d5 d3 be c5 c7 1d be
       0.22014646 -0.40737352 -0.41373545 -0.15408237
0000d0 e7 83 6c bc ad 7f c5 be 69 ea 9f 3e 40 46 c5 be
       -0.014435745 -0.3857397 0.31233528 -0.3853016
0000e0 ca d7 f8 be af 3d 07 bf cb 2b cb 3e a0 d2 ec 3e
       -0.48602134 -0.52828497 0.3968185 0.46254444
0000f0 2f 50 1d 3e fa 24 40 be fd 4a 76 bd e8 e2 b0 bd
       0.15362619 -0.18764105 -0.06013011 -0.08637029
000100 47 06 2c be 4b 88 32 bf 05 fd a5 bb f5 39 30 3d
       -0.1679927 -0.69739217 -0.0050655627 0.043024022
000110 f7 9a 64 bc 44 e0 4c bd b3 13 6b bf 7c f8 d4 bd
       -0.013952962 -0.050018564 -0.91826934 -0.10398957
000120 be 17 4e 3e c8 22 c5 be 45 e8 b0 be 69 e8 2d be
       0.20126244 -0.38503098 -0.34552208 -0.16983189
000130 60 9e 60 be a4 eb f1 be 5d ff 91 be 55 a0 f9 3b
       -0.21935415 -0.47250092 -0.2851514 0.00761799
000140 a7 d4 f0 be d4 3a c9 3d bd 14 28 bf 5f 41 79 be
       -0.4703724 0.09825674 -0.65656644 -0.24341343
000150 60 e1 0e bf 5c fb 10 be a2 39 82 3e b0 3c 7d be
       -0.55812645 -0.14158386 0.25434595 -0.24730182
000160 cc 2e ca 3c 8e a6 d5 3d 98 e7 69 be e3 26 36 bf
       0.024680518 0.104321584 -0.22842252 -0.71153086
000170 00 37 b4 bd 7b c9 12 3f f6 22 00 3d 62 f0 fe 3d
       -0.08799553 0.57338685 0.03128334 0.12448193
000180 9c ff 84 be 39 f2 ac be 4d 2b b1 be 99 52 72 3e
       -0.25976264 -0.3377855 -0.34603348 0.23664321
000190 f0 04 48 3e c5 9b 0c 3e 97 35 81 be f3 df 2d 3e
       0.19533134 0.13731296 -0.25236198 0.16979961
0001a0 e3 6c 82 be e3 01 a6 bd a6 77 06 bd b0 31 33 bf
       -0.254737 -0.081058286 -0.03282895 -0.6999769
0001b0 04 05 c1 3e 38 81 a5 be 5c 2e e9 be 33 b0 0e bf
       0.3769914 -0.3232515 -0.45543182 -0.5573761
0001c0 44 f1 05 3d 9c c5 29 3e 4a d9 d3 be af a5 d8 be
       0.032700792 0.16579288 -0.41376716 -0.42313907
0001d0 b6 67 96 be 40 be 11 be 81 53 94 bd 9f 73 eb be
       -0.29376 -0.14232731 -0.072424896 -0.4598665
0001e0 47 3f 3a 3f 5f ca fd be 0a 9c 1e be 4e 21 f1 3e
       0.72752804 -0.4956846 -0.15489212 0.47095722
0001f0 f9 cc d8 bd 45 b2 c7 bc b5 73 c0 3d bb 3a b3 3e
       -0.105859704 -0.024376998 0.09397069 0.35005745
000200 cc 41 bc 3c da 9f 0b 3e 91 cc 2e 3e 82 5c be 3e
       0.022980593 0.13635197 0.17070223 0.37179953
000210 8a d7 3c 3e 75 a1 4a be 13 6b 8a 3e 4b c0 3f bd
       0.18441597 -0.19788153 0.27034816 -0.046814244
000220 e5 13 75 be 30 2e 81 bd 58 f7 d3 bd c9 d1 e6 3d
       -0.2393337 -0.06307638 -0.103499115 0.11270482
000230 ad 25 5d be 1a d7 95 be 37 5f bb bd 61 9e 53 be
       -0.21596403 -0.29265672 -0.0914902 -0.20665886
000240 82 0c 62 bd 6d fd 49 be 8c d3 97 3e 8d 97 75 3e
       -0.05518771 -0.1972558 0.29653585 0.23983593
000250 2b f4 77 be c1 db eb 3e 07 71 5a be 37 f0 25 3e
       -0.24214236 0.46066096 -0.21332179 0.16204916
000260 b7 fa 5b 3e d9 5b 56 be 1a fe c7 3c 52 16 4e bd
       0.21482359 -0.20933475 0.024413157 -0.050314255
000270 22 41 9c be fa f7 d9 be 06 40 66 be d4 0c a9 3e
       -0.30518442 -0.42572004 -0.2248536 0.330176
000280 51 6a d8 3e 74 aa 80 3e 09 64 d5 3c 52 12 dd be
       0.42268613 0.25130045 0.026048677 -0.4317804
000290 b9 2f d3 bd 17 a5 d3 3e df b4 8a 3d 31 54 4d 3e
       -0.10311837 0.4133689 0.0677278 0.20051648
0002a0 ff d0 c3 3e 45 ab a3 be f5 35 07 3e 7b 3d 4f 3e
       0.3824539 -0.31966606 0.13204177 0.20238297
0002b0 5c 57 e0 be b6 9c 22 be 6f e6 7f 3d 79 8a 56 3d
       -0.4381665 -0.15880093 0.062475618 0.05237815
0002c0 88 40 24 be 9b 52 7b bd a1 39 52 3e ee c3 08 3e
       -0.16040242 -0.061358076 0.20529796 0.13355991
0002d0 ed 51 57 be 06 6e 33 3e 11 33 e8 bd cc 00 94 3e
       -0.21027346 0.1752244 -0.11337865 0.28906858
0002e0 7b 17 e2 be 11 33 83 3e 64 12 fe bd 46 f1 1b 3e
       -0.4415854 0.25624898 -0.124058515 0.15228757
0002f0 f5 65 af 3e b7 7d ed be 1d 97 5f be 04 a7 03 be
       0.34257475 -0.46384975 -0.21834989 -0.1285668
000300 a7 95 c7 bd a7 d7 a8 3e 9e 5e db 3e c6 0e 8a bd
       -0.09745341 0.3297703 0.42845625 -0.06741099
000310 e0 17 03 bc 8e d5 99 3e 63 8f d2 3e 26 82 33 3e
       -0.008001298 0.30045742 0.4112502 0.17530116
000320 6e a0 5c 3e 07 72 08 3f c1 ea f3 3e 48 81 24 be
       0.21545574 0.5329899 0.4764004 -0.16064942
000330 1b 73 97 3e 02 46 f9 bd 40 c3 ab be 52 4c 69 be
       0.29580006 -0.12171556 -0.335474 -0.2278302
000340 68 7e c9 bd 10 6c 95 3e 6a cc e2 be 7e 0c 8f be
       -0.09838563 0.29184008 -0.4429658 -0.27939218
000350 9c fa 97 bd 20 89 a2 3d 90 c4 2b be 2e a4 56 3d
       -0.07420847 0.07936311 -0.16774201 0.052402668
000360 a2 08 8a 3e 84 98 c7 3e 97 01 af 3e d7 c7 88 be
       0.2695971 0.38983548 0.341809 -0.26714966
000370 54 79 d0 bd f9 4a c4 be 6e be f4 3d 22 48 00 be
       -0.101793915 -0.3833845 0.11950384 -0.12527516
000380 04 70 9d 3e 1b 9e 16 be 1f aa 85 3d 9c 25 98 be
       0.30749524 -0.1470875 0.06526589 -0.29716194
000390 4f 5c 2e be b9 fd 46 3e 3e 8c 03 be 30 c9 af be
       -0.170274 0.19432725 -0.12846467 -0.3433318
0003a0 2d 87 f8 3d 4a 65 9e bd 74 70 6d be 23 0a 2e 3e
       0.12135158 -0.07734163 -0.23187429 0.16996054
0003b0 c3 cc 9f 3d 52 6f 23 3d 54 34 90 be e0 ac 8e be
       0.07802727 0.039901085 -0.28164923 -0.27866268
0003c0 3a 30 68 3e 40 32 64 be aa 9e c6 be 45 b3 55 be
       0.22674647 -0.22284794 -0.38792926 -0.20869167
0003d0 e9 73 26 be 6f 8d 13 be ad fd 1b bd 0a 85 9e bd
       -0.16255154 -0.14409421 -0.03808372 -0.07740219
0003e0 d6 4a 1f 3f f3 73 1f be 28 c9 20 3f 07 6f c7 3c
       0.62223566 -0.15571575 0.6280694 0.024344934
0003f0 cc da e0 3d 8f bb 32 be a4 b3 d1 be 14 d2 43 3f
       0.10979232 -0.1745436 -0.40957367 0.7649243

decoder.lstm.weight_ih_l0 f4 [256, 5]
000000 e8 60 4d be f0 4d b2 bd f2 4c 10 bf 66 39 9d 3d
       -0.20056498 -0.08706272 -0.5636741 0.076769635
000010 0e 9e 57 bd f8 ef 81 be 2c 47 06 3f a8 ea af 3e
       -0.052640967 -0.25378394 0.5245235 0.34358716
000020 58 31 28 bf c8 8b 28 bf ca eb 9a bf 1c cb 56 bd
       -0.6570029 -0.6583829 -1.2103207 -0.052439794
000030 7e c7 ce be f6 dd 2f 3d 6a 08 81 bc 54 59 1a bf
       -0.40386575 0.042936288 -0.015751082 -0.60292554
000040 d4 44 0f bf 40 40 6d bf 6a e7 1a bf 03 33 89 3d
       -0.559644 -0.9267616 -0.6050936 0.06699183
000050 f3 83 0d bf 7a 33 67 bf 2f bd 43 bf 5b 51 9b be
       -0.55279464 -0.9031292 -0.76460546 -0.30335507
000060 77 db ff 3d 6d a8 f3 3e a7 c4 82 be 23 09 f7 be
       0.124930315 0.47589436 -0.2554066 -0.48249158
000070 18 c6 58 3f b4 de 81 3e 85 8e 3a bd e9 b2 3c 3e
       0.8467727 0.25365222 -0.045546073 0.18427624
000080 ab cb ee bd 90 80 f5 3d b0 74 59 be ca 48 e0 be
       -0.1165994 0.11987412 -0.21235919 -0.43805534
000090 e5 37 69 be 54 72 da be 0f b1 29 bd f2 89 87 bf
       -0.22775228 -0.4266535 -0.04142862 -1.0588973
0000a0 a9 37 63 3e 31 9f cb 3f 78 c7 12 3f 02 26 42 3f
       0.22189201 1.5907956 0.57335615 0.75839245
0000b0 fe f0 4d 3f 24 7b a8 3e 53 75 01 3f 08 b8 01 3f
       0.8044585 0.3290645 0.5056965 0.50671434
0000c0 8e 12 99 bd ec 64 dd be 7b ea 7f bf 83 d3 0c bf
       -0.07474242 -0.4324106 -0.99967164 -0.5501024
0000d0 95 89 59 bf 1b da 65 be d2 05 16 be 62 e4 c5 bd
       -0.8497556 -0.22446482 -0.14650658 -0.09662701
0000e0 4d 29 97 bf 8b 17 f9 be 42 85 4a be 92 f6 b2 3e
       -1.1809479 -0.48650774 -0.19777396 0.34953743
0000f0 dd 76 a8 bb 99 3e 94 3e 3f a8 f4 3e 63 11 a9 be
       -0.0051411227 0.28954008 0.47784612 -0.33021078
000100 60 c9 6d be 16 d2 08 3f 27 40 5d 3e ba dc a4 3d
       -0.2322135 0.53445566 0.21606503 0.08049913
000110 d1 5a c3 be 46 80 14 c0 fd 39 9b be fb 4a 58 bf
       -0.38155225 -2.3203292 -0.3031768 -0.8448941
000120 99 9e 6b 3e b4 ef 31 be bf bf a7 be c3 5c 55 3f
       0.23009719 -0.17376596 -0.32763478 0.8334467
000130 f0 90 16 3f 73 f9 09 3e 90 1b 01 bf 09 fd 09 bf
       0.5881491 0.13474064 -0.5043268 -0.53901726
000140 7a bd 63 3d 47 e4 41 be ce 18 87 3e 51 89 f4 3c
       0.05560062 -0.18934737 0.26386112 0.029850634
000150 06 cc 31 bd 2f a5 bb be df c7 72 bf ec a0 3f bf
       -0.043407463 -0.36649463 -0.9483623 -0.7485492
000160 ca 70 46 bc ac 41 0b bf f8 52 5d be 78 20 86 bf
       -0.012111852 -0.5439708 -0.21613681 -1.0478659
000170 b4 28 69 bf 57 49 54 3d 52 fd 62 3c 77 0f 72 3c
       -0.91077733 0.051827755 0.013854342 0.014774195
000180 99 4c eb bd ab f1 9e bf 18 6c 1b 3d 49 e4 a5 3d
       -0.11489219 -1.2417501 0.037944883 0.081001826
000190 6c f5 75 3f 90 3d 8b 3f f0 e7 db 3e e3 88 5e 3d
       0.9607761 1.0878162 0.42950392 0.054329764
0001a0 4c 2f 5f 3f fe fc 8a 3d d8 71 8e 3c 08 23 0a 3f
       0.87181544 0.06786536 0.01738827 0.53959703
0001b0 0b 0b 86 be 04 3c 97 be 8e a6 06 bf a1 f8 e1 be
       -0.261803 -0.29537976 -0.5259789 -0.44135
0001c0 d8 c9 d5 3c 96 83 d5 be 4c 28 b8 3e ea 91 42 3f
       0.026097223 -0.41701955 0.35968244 0.760039
0001d0 ee 29 03 3f e2 39 e7 bd 43 85 0d bf 8a 6a 1e bf
       0.51235855 -0.11290337 -0.55281466 -0.61881316
0001e0 97 b7 e3 3c 2c 1f a1 3e 93 bd 33 3d d4 ee ca be
       0.027797503 0.31469095 0.043881964 -0.39635336
0001f0 06 54 68 3e 8b cf a4 bf b1 00 38 3e 44 38 28 3e
       0.22688302 -1.2875837 0.17969014 0.16427714
000200 2d 1d 72 3e a8 1f 44 3e 43 41 f6 3e 71 27 b6 bf
       0.23643942 0.19152701 0.48096666 -1.4230787
000210 7d 2f 89 bf 2d b5 50 3e ca d4 c4 3d b0 1d 76 3e
       -1.0717617 0.20381613 0.09610899 0.24034762
000220 70 96 81 3e 4f 7e 2b bf e8 a5 35 bf b0 f9 0b 3e
       0.25310087 -0.66989607 -0.7095628 0.13669467
000230 a0 32 0c 3e 91 19 3f bf 30 67 b5 be db e6 42 bd
       0.13691187 -0.74648386 -0.35430288 -0.047583442
000240 0d 18 c8 3d e3 cc 10 3e 82 85 d3 3e 23 a7 ca 3d
       0.09770212 0.14140658 0.41312796 0.0989516
000250 62 eb 92 be 57 3f 21 bd 47 89 e1 bf 0b a8 8b 3d
       -0.28695208 -0.039367046 -1.7620019 0.06819161
000260 02 41 c4 3d 2f 39 52 bf 7a 91 83 3e 55 45 b4 3c
       0.09582712 -0.82118505 0.25696927 0.022005716
000270 4f 7d be bf b4 4b 07 3f 7f 12 43 be c9 eb 1f be
       -1.4881991 0.5284989 -0.19050024 -0.15617289
000280 db 5f a7 be 79 b9 c9 bd 23 ae 10 bf 80 97 70 be
       -0.3269032 -0.09849829 -0.5651571 -0.23495293
000290 7d d8 39 bc 1e 7d dd be 4a ac 01 be e5 c1 30 bf
       -0.011343119 -0.4325952 -0.1266338 -0.6904586
0002a0 95 2f 93 bc 90 32 fa be 03 97 3d 3e ee 26 e8 be
       -0.017967025 -0.488667 0.18514638 -0.453422
0002b0 e5 20 69 3e eb 39 76 be 40 ec a5 be a9 d1 6b be
       0.22766455 -0.24045531 -0.32406807 -0.23029198
0002c0 2d 1f bf 3e 34 c9 48 bf c8 da 40 be 6f 46 9d be
       0.37328473 -0.7843201 -0.18833458 -0.307178
0002d0 37 f5 f0 3d ec 3f aa 3e 0e 68 4d be 4c 26 3e bd
       0.11765521 0.33251894 -0.20059225 -0.04642324
0002e0 79 06 47 be aa 4b 8b be e2 1d 12 3d 44 0f 75 3e
       -0.19436063 -0.27206165 0.03567303 0.23931605
0002f0 8d 95 3d be 2c 2e 71 3e 0d 0c 1e bf cb 57 c3 3e
       -0.1851408 0.2355277 -0.6173714 0.38152918
000300 07 8a 9d bd 83 fa 26 3f cf 4d 1d bf 5f 5c 8d bf
       -0.07692342 0.65226 -0.6144685 -1.1043814
000310 b3 df a3 3f 99 ae 23 bf 49 93 2d bf e6 cc 91 bf
       1.2802643 -0.6393829 -0.67802864 -1.1390655
000320 89 ad 7a be b3 42 89 bf e2 20 a2 3c c9 eb 0a bf
       -0.24480261 -1.072348 0.01979107 -0.5426603
000330 16 e8 cc be bd 89 1b 3d 0d 47 c4 3d 24 a0 b4 be
       -0.40020818 0.037973154 0.09583864 -0.35278428
000340 d7 4f d9 bd 38 61 17 3e 87 db 4c 3e 9b c0 f3 be
       -0.10610931 0.1478318 0.20005618 -0.47607884
000350 33 6b 32 3e 4e 96 65 be 55 24 3e 3e 31 5b 47 bf
       0.17423706 -0.22420618 0.18568547 -0.7787352
000360 0c fc ae bd 69 68 66 be 50 56 e3 3e b3 c3 b7 bf
       -0.08544168 -0.22500767 0.4440179 -1.4356598
000370 1a b3 a9 3d ba 94 8a 3e b3 92 24 bf 9a 05 d4 bd
       0.08286114 0.27066594 -0.64286345 -0.10352631
000380 2f 5a 47 bf b6 a6 ad 3e 1b 8e 60 3f 1b cd bf 3e
       -0.77871984 0.33916253 0.87716836 0.3746117
000390 fe 5f 94 be 2a 6c d0 bd c6 dc fb bc 99 58 85 be
       -0.28979486 -0.10176881 -0.030744921 -0.26044157
0003a0 db 95 1b 3e 75 46 1c be 15 e2 ea be 68 f8 cc be
       0.15193884 -0.15261252 -0.45875612 -0.4003327
0003b0 08 c3 63 bf 5c f0 13 bf 55 45 23 3e c3 19 95 bf
       -0.8896947 -0.57788634 0.15944417 -1.1648487
0003c0 d2 f5 51 bf 44 d6 cb bf 77 7f f4 be 7b c2 89 3e
       -0.8201572 -1.5924764 -0.47753498 0.2690619
0003d0 f2 98 17 be 02 7d e1 3e f7 d5 0a bc de b1 ba bd
       -0.14804438 0.44040686 -0.008473865 -0.09115957
0003e0 7e 20 d1 bd ae 25 b6 bd 59 43 46 be 3f a3 17 3e
       -0.102112755 -0.088939056 -0.19361629 0.14808367
0003f0 41 01 f8 3d 3c 21 fe be 23 e9 d2 be d0 d3 b5 3e
       0.12109614 -0.4963473 -0.41193494 0.35513163

decoder.lstm.weight_hh_l0 f4 [256, 64]
000000 b3 ac 8c be 61 20 d4 bf b7 0d 06 bf e6 83 c1 be
       -0.2747551 -1.6572381 -0.5236468 -0.37795943
000010 42 16 85 bc 06 29 0b 3e 6f 80 fc 3e d5 15 3d bf
       -0.016245965 0.13589868 0.49316737 -0.7386144
000020 b1 9a c0 be 80 72 50 be dd 0d 9b bf ad db 99 bf
       -0.3761802 -0.20356178 -1.2113606 -1.2020165
000030 59 52 2e bf f6 3c cc bd 8e 8c 49 3d 6d 3c e7 3d
       -0.680944 -0.09972565 0.04920631 0.11290822
000040 a0 ab bf bf 19 5c 27 3f 3a 3d 97 3e 72 ee 1b 3e
       -1.4974251 0.65374905 0.295389 0.15227678
000050 05 01 3f be 26 fe 24 3f b4 68 4c bf 6e f8 57 3e
       -0.18652733 0.644503 -0.79847264 0.21090862
000060 72 15 5f bf cf 6b 3f bf 66 b9 32 be 94 3f 75 3e
       -0.871421 -0.7477388 -0.17453536 0.23950034
000070 72 c1 cb be bb 67 b6 3f 76 cd f2 bd 91 4b bb bd
       -0.39796025 1.4250406 -0.11855595 -0.091452725
000080 16 57 4b be e3 c5 d3 be 70 be 25 3f b3 d6 ae be
       -0.1985744 -0.41361913 0.6474371 -0.34148178
000090 d4 52 2e be 01 ba 7d bf 23 7d 0d be 93 b1 18 3f
       -0.17023784 -0.99111944 -0.13817267 0.59645957
0000a0 9f c2 a9 3f cc b1 41 be 3d 6c 91 3e 7d ba 41 3f
       1.3262519 -0.1891548 0.28402892 0.75675184
0000b0 00 d2 de 3e 41 7c 44 3e ad f1 c3 be 34 c3 20 be
       0.43519592 0.19188024 -0.3827032 -0.15699464
0000c0 b3 a4 33 bf e5 ca b2 be 1a d3 6f bf be 9e b3 be
       -0.70173186 -0.3492042 -0.9368149 -0.35082048
0000d0 8b 4a 6c bd 8c e3 c7 be 7c 72 e3 be f7 8a 21 3f
       -0.057688277 -0.39040792 -0.44423282 0.6310267
0000e0 43 45 2b bf c2 a7 bf 3e 71 35 0c 3f d9 4e 2d 3d
       -0.6690256 0.37432677 0.54769045 0.042311523
0000f0 2f 39 12 3f a7 78 3e bf f0 9b 56 3f 89 bd 9e bd
       0.57118505 -0.7440285 0.8383169 -0.07750995
000100 ec 1e 16 bf 10 5d e6 be cf 05 cb 3e 1f 09 82 3e
       -0.58640933 -0.44992876 0.3965287 0.25397584
000110 00 e1 77 3e 1d b2 10 3f db f6 4b 3f 60 12 1b bf
       0.24206924 0.5652178 0.79673547 -0.60574913
000120 24 14 19 be 2a ab cd 3e b3 94 18 c0 ac 98 09 bf
       -0.1494909 0.4016965 -2.3840759 -0.53748584
000130 f0 47 95 bd 9e 64 5f 3e d4 7b 07 bf d1 ce 35 bf
       -0.072891116 0.21815726 -0.5292332 -0.710187
000140 e8 9d 76 bf 48 c2 f5 3e 0e d0 8d 3f cb af 20 be
       -0.96334696 0.47999787 1.1079118 -0.1569206
000150 e9 2f 75 be fd b2 81 3f 0d 29 9e be eb 68 37 bf
       -0.23944058 1.0132748 -0.30890694 -0.7164447
000160 84 28 5e bf 55 d2 7d bf 95 4d 53 3e e9 79 ff 3d
       -0.8678057 -0.99149066 0.20635064 0.124744244
000170 70 53 7c bf 3a a2 4b 3f a5 26 02 bd 9d 7d 06 3f
       -0.98564816 0.79544413 -0.031775136 0.5253542
000180 2e 1f 26 3f 05 da c5 3e ac 6d f8 be df d9 a0 3e
       0.64891326 0.38642898 -0.48521173 0.31416222
000190 60 ab dc be 9e 60 ce 3d 93 40 bd bd 23 8b 49 3f
       -0.430995 0.10077022 -0.09240832 0.7872793
0001a0 cb a7 a7 3f 39 28 e3 3e a5 b7 1e bf b0 88 b1 bb
       1.3098081 0.44366625 -0.6199897 -0.0054179057
0001b0 6b 03 41 bd cd 10 9a bd 45 8c 19 be 5b d5 d4 be
       -0.0471224 -0.07522736 -0.14994915 -0.41569027
0001c0 5a 87 42 bf fe df 15 bf 11 c2 53 be eb ae 14 bf
       -0.7598778 -0.5854491 -0.20679499 -0.58079404
0001d0 98 5c 7f 3e 9f 6c 99 3e 65 fd 9d bf f3 ff 09 3f
       0.24937665 0.29965684 -1.2342955 0.5390617
0001e0 7b 26 61 bf 3a cd f4 3f f6 21 6a 3f 4b d0 c6 3f
       -0.8794934 1.912513 0.9145807 1.5532316
0001f0 25 19 23 3f 1b 14 87 3e 97 70 57 3f 4d c6 b6 3f
       0.6371024 0.26382527 0.84156173 1.4279267
000200 43 83 99 be 7d d4 0c 3f 65 46 30 3e cb e7 30 3e
       -0.29982957 0.5501173 0.17214353 0.17275922
000210 22 ce bc 39 f0 13 29 3f ca 7e 59 3c 7f f2 a4 be
       0.00036011735 0.6604605 0.013274858 -0.3221626
000220 61 bb e2 3e 6c 99 3c be ce 1e a4 be a7 f4 09 3e
       0.44283584 -0.18417901 -0.32054752 0.13472234
000230 5a 93 07 bf 83 34 66 3e 09 3c e1 be bf 7e 15 3f
       -0.52959216 0.22480969 -0.43991116 0.58396524
000240 38 87 d9 3e 98 8b d1 be 28 53 94 3e 6d b1 81 3e
       0.42485976 -0.40926814 0.28969693 0.25330678
000250 95 66 85 bf aa b2 51 3e 5c 6a 06 3e c0 c1 a5 3f
       -1.042193 0.20478311 0.1312651 1.2949753
000260 d7 fe 7a be 6a f6 d4 3d fb 6d e9 3d a2 4b 22 3f
       -0.24511276 0.10398562 0.1139793 0.63396657
000270 6f ec 9c be 21 28 c4 be 60 ba ab 3e 4a 09 d3 3e
       -0.30649135 -0.38311866 0.3354063 0.41218024
000280 2f cb 8b bd ea e0 2f bf 62 c8 0a 3f 4b fe 10 bf
       -0.068258636 -0.68702567 0.5421201 -0.5663802
000290 41 fa ec be 0e e6 33 bf 29 84 e6 3e 65 9f d7 3d
       -0.4628468 -0.7027291 0.45022705 0.10528449
0002a0 6f 94 ce be 34 87 01 bf f1 a9 ba bd 40 11 39 3e
       -0.4034762 -0.5059693 -0.09114445 0.18072987
0002b0 cc a3 25 3f dc 06 11 3c 18 85 83 3f 77 7f c5 bd
       0.6470306 0.008851733 1.0274992 -0.096434526
0002c0 28 9e fb be 89 55 3f 3f a0 57 40 bf 53 7a a1 be
       -0.491441 0.7473989 -0.75133705 -0.31538638
0002d0 c4 b1 84 3d bd dd a1 bd f8 6c b0 be 6e 2c ae be
       0.064792186 -0.07903621 -0.34458137 -0.34018272
0002e0 33 c8 6c bf bb d4 27 3e 78 92 dc 3f 47 0e 21 3e
       -0.9249298 0.16389744 1.7232199 0.15728103
0002f0 b9 e3 25 bf c6 7c 24 3f 97 37 da be 85 44 03 bf
       -0.648006 0.6425289 -0.42620537 -0.5127643
000300 79 e1 16 bf aa 4a 40 bf 07 e5 69 3f b5 91 95 3e
       -0.58937794 -0.7511393 0.91365093 0.29212728
000310 cb 8e 34 3f a5 ae 36 3f a0 ba 69 3f 39 59 37 bf
       0.70530385 0.71360236 0.9130039 -0.7162052
000320 15 96 f2 3d 23 6e b4 3d 3d 2c 3e bd d1 5a e3 3e
       0.11845032 0.088100694 -0.046428908 0.44405225
000330 aa c5 06 bf cc 37 7b 3e ce 44 91 be dc 46 16 3f
       -0.5264536 0.24533004 -0.28372806 0.5870187
000340 99 5e 63 bf f3 2b 46 3f 2d 93 0b 3d 85 45 9c be
       -0.8881622 0.7741081 0.034075905 -0.3052179
000350 16 85 e2 bf b3 7d 1a 3f 55 e8 28 3e 23 c0 9f 3e
       -1.7696865 0.6034805 0.16494878 0.31201276
000360 72 d0 9d bf ee 9d 29 be 48 fd 54 be 32 1c 0a bd
       -1.2329237 -0.16564152 -0.20799744 -0.033718295
000370 1d 54 05 3f 5a 97 7e 3f 05 87 eb 3e ac c8 88 be
       0.5208147 0.99449694 0.4600145 -0.267156
000380 e0 c5 a2 bd d2 96 a5 3c de 2d 4e bf 42 a4 d5 3e
       -0.07947898 0.020213518 -0.8053874 0.4172688
000390 11 d3 49 3e f3 82 2b bf 55 59 ec 3e c3 db 1b 3f
       0.19709422 -0.6699669 0.46161905 0.60882205
0003a0 04 cb 94 3f 49 54 fe bd e9 f4 be 3d 01 70 64 3f
       1.1624455 -0.1241842 0.09324057 0.89233404
0003b0 b8 3a d7 3e 2d 85 66 bf 39 68 0e bf da a8 97 be
       0.42036986 -0.9004696 -0.5562778 -0.2962101
0003c0 fc 95 1c bf d6 3a e7 3e ec 0b 92 be 05 6e 24 be
       -0.6116636 0.45162076 -0.2852472 -0.16057594
0003d0 c3 0b 0e bf 8b 39 1c be 95 09 4a 3e 35 c3 a8 be
       -0.55486697 -0.15256326 0.19730218 -0.3296143
0003e0 41 8d 03 be 15 3e 32 3e a3 de 80 3e a9 2f b3 be
       -0.12846853 0.17406495 0.25169858 -0.349973
0003f0 32 2a a4 3e 16 00 0e bf 15 0a a3 3f a4 63 7f 3f
       0.32063442 -0.5546888 1.2737452 0.99761415
