results/LSTM_single_layer/2251_model.pt (torch, 967425 bytes, 10 tensors)

output_zeros f4 [400, 512, 1]
0.0 0.0 0.0 0.0 0.0 0.0 0.0 0.0
0.0 0.0 0.0 0.0 0.0 0.0 0.0 0.0
0.0 0.0 0.0 0.0 0.0 0.0 0.0 0.0
0.0 0.0 0.0 0.0 0.0 0.0 0.0 0.0
0.0 0.0 0.0 0.0 0.0 0.0 0.0 0.0
0.0 0.0 0.0 0.0 0.0 0.0 0.0 0.0
0.0 0.0 0.0 0.0 0.0 0.0 0.0 0.0
0.0 0.0 0.0 0.0 0.0 0.0 0.0 0.0
0.0 0.0 0.0 0.0 0.0 0.0 0.0 0.0
0.0 0.0 0.0 0.0 0.0 0.0 0.0 0.0
0.0 0.0 0.0 0.0 0.0 0.0 0.0 0.0
0.0 0.0 0.0 0.0 0.0 0.0 0.0 0.0
0.0 0.0 0.0 0.0 0.0 0.0 0.0 0.0
0.0 0.0 0.0 0.0 0.0 0.0 0.0 0.0
0.0 0.0 0.0 0.0 0.0 0.0 0.0 0.0
0.0 0.0 0.0 0.0 0.0 0.0 0.0 0.0
0.0 0.0 0.0 0.0 0.0 0.0 0.0 0.0
0.0 0.0 0.0 0.0 0.0 0.0 0.0 0.0
0.0 0.0 0.0 0.0 0.0 0.0 0.0 0.0
0.0 0.0 0.0 0.0 0.0 0.0 0.0 0.0
0.0 0.0 0.0 0.0 0.0 0.0 0.0 0.0
0.0 0.0 0.0 0.0 0.0 0.0 0.0 0.0
0.0 0.0 0.0 0.0 0.0 0.0 0.0 0.0
0.0 0.0 0.0 0.0 0.0 0.0 0.0 0.0
0.0 0.0 0.0 0.0 0.0 0.0 0.0 0.0
0.0 0.0 0.0 0.0 0.0 0.0 0.0 0.0
0.0 0.0 0.0 0.0 0.0 0.0 0.0 0.0
0.0 0.0 0.0 0.0 0.0 0.0 0.0 0.0
0.0 0.0 0.0 0.0 0.0 0.0 0.0 0.0
0.0 0.0 0.0 0.0 0.0 0.0 0.0 0.0
0.0 0.0 0.0 0.0 0.0 0.0 0.0 0.0
0.0 0.0 0.0 0.0 0.0 0.0 0.0 0.0
00000000: 0000 0000 0000 0000 0000 0000 0000 0000
00000010: 0000 0000 0000 0000 0000 0000 0000 0000
00000020: 0000 0000 0000 0000 0000 0000 0000 0000
00000030: 0000 0000 0000 0000 0000 0000 0000 0000
00000040: 0000 0000 0000 0000 0000 0000 0000 0000
00000050: 0000 0000 0000 0000 0000 0000 0000 0000
00000060: 0000 0000 0000 0000 0000 0000 0000 0000
00000070: 0000 0000 0000 0000 0000 0000 0000 0000
00000080: 0000 0000 0000 0000 0000 0000 0000 0000
00000090: 0000 0000 0000 0000 0000 0000 0000 0000
000000a0: 0000 0000 0000 0000 0000 0000 0000 0000
000000b0: 0000 0000 0000 0000 0000 0000 0000 0000
000000c0: 0000 0000 0000 0000 0000 0000 0000 0000
000000d0: 0000 0000 0000 0000 0000 0000 0000 0000
000000e0: 0000 0000 0000 0000 0000 0000 0000 0000
000000f0: 0000 0000 0000 0000 0000 0000 0000 0000
00000100: 0000 0000 0000 0000 0000 0000 0000 0000
00000110: 0000 0000 0000 0000 0000 0000 0000 0000
00000120: 0000 0000 0000 0000 0000 0000 0000 0000
00000130: 0000 0000 0000 0000 0000 0000 0000 0000
00000140: 0000 0000 0000 0000 0000 0000 0000 0000
00000150: 0000 0000 0000 0000 0000 0000 0000 0000
00000160: 0000 0000 0000 0000 0000 0000 0000 0000
00000170: 0000 0000 0000 0000 0000 0000 0000 0000
00000180: 0000 0000 0000 0000 0000 0000 0000 0000
00000190: 0000 0000 0000 0000 0000 0000 0000 0000
000001a0: 0000 0000 0000 0000 0000 0000 0000 0000
000001b0: 0000 0000 0000 0000 0000 0000 0000 0000
000001c0: 0000 0000 0000 0000 0000 0000 0000 0000
000001d0: 0000 0000 0000 0000 0000 0000 0000 0000
000001e0: 0000 0000 0000 0000 0000 0000 0000 0000
000001f0: 0000 0000 0000 0000 0000 0000 0000 0000
00000200: 0000 0000 0000 0000 0000 0000 0000 0000
00000210: 0000 0000 0000 0000 0000 0000 0000 0000
00000220: 0000 0000 0000 0000 0000 0000 0000 0000
00000230: 0000 0000 0000 0000 0000 0000 0000 0000
00000240: 0000 0000 0000 0000 0000 0000 0000 0000
00000250: 0000 0000 0000 0000 0000 0000 0000 0000
00000260: 0000 0000 0000 0000 0000 0000 0000 0000
00000270: 0000 0000 0000 0000 0000 0000 0000 0000
00000280: 0000 0000 0000 0000 0000 0000 0000 0000
00000290: 0000 0000 0000 0000 0000 0000 0000 0000
000002a0: 0000 0000 0000 0000 0000 0000 0000 0000
000002b0: 0000 0000 0000 0000 0000 0000 0000 0000
000002c0: 0000 0000 0000 0000 0000 0000 0000 0000
000002d0: 0000 0000 0000 0000 0000 0000 0000 0000
000002e0: 0000 0000 0000 0000 0000 0000 0000 0000
000002f0: 0000 0000 0000 0000 0000 0000 0000 0000
00000300: 0000 0000 0000 0000 0000 0000 0000 0000
00000310: 0000 0000 0000 0000 0000 0000 0000 0000
00000320: 0000 0000 0000 0000 0000 0000 0000 0000
00000330: 0000 0000 0000 0000 0000 0000 0000 0000
00000340: 0000 0000 0000 0000 0000 0000 0000 0000
00000350: 0000 0000 0000 0000 0000 0000 0000 0000
00000360: 0000 0000 0000 0000 0000 0000 0000 0000
00000370: 0000 0000 0000 0000 0000 0000 0000 0000
00000380: 0000 0000 0000 0000 0000 0000 0000 0000
00000390: 0000 0000 0000 0000 0000 0000 0000 0000
000003a0: 0000 0000 0000 0000 0000 0000 0000 0000
000003b0: 0000 0000 0000 0000 0000 0000 0000 0000
000003c0: 0000 0000 0000 0000 0000 0000 0000 0000
000003d0: 0000 0000 0000 0000 0000 0000 0000 0000
000003e0: 0000 0000 0000 0000 0000 0000 0000 0000
000003f0: 0000 0000 0000 0000 0000 0000 0000 0000

encoder.lstm.weight_ih_l0 f4 [256, 4]
-0.3090374 -0.13382366 -0.5963215 -0.15492237 0.21349616 0.06586923 -0.39342034 0.17187382
-0.014459603 0.11746281 0.15208618 0.21711616 0.70855004 0.2682225 0.02900492 0.30242226
1.4203601 1.2581958 -0.4840106 0.5852802 0.2923569 0.20225187 -0.3892024 -0.38635474
0.36998713 0.28413844 -0.31162986 0.13766573 0.3042621 0.30072978 -0.22234963 -0.15174194
-0.01893708 -0.11365626 -0.07206705 -0.29196543 0.5363185 -0.042421427 0.626129 -0.30301264
0.22208646 0.32901484 0.055380832 0.2274165 -0.006315886 0.058937695 0.045296144 0.38411462
0.08792166 -0.18211438 -0.8286985 -0.8923501 -1.0490277 0.59826523 -0.375271 -0.06360537
0.55079883 1.3306205 2.3265083 1.1535594 -0.3370875 0.5149586 0.06062392 -0.23458686
-0.20052783 0.09540208 -1.9775599 -1.0326926 -0.01657766 0.14541169 0.1423871 0.28726998
0.9444825 0.09393883 0.11350522 0.07678063 0.98680896 1.3368194 1.1584058 1.7893205
-0.06543771 -0.23859178 0.4404294 -2.786435 0.49019963 0.1604839 0.23043858 -0.05793973
-0.21267585 3.408454 0.30259743 1.125574 -0.58398366 0.12310898 -0.120395795 -0.092901364
-0.37381914 -0.02721905 -0.3888118 0.496715 -0.21552034 -0.018945234 -1.023461 -1.2214463
0.2762062 0.09196301 -0.42120075 -0.46210322 0.2257822 -0.41778037 0.196933 0.12186902
0.045155864 -0.33434463 -0.12731776 -0.15192755 -0.02223093 0.33829525 -0.08037489 -0.4564072
-1.3988203 0.029329697 -0.7400567 0.22471125 0.0581877 0.18843366 0.32282472 0.50445557
0.35974622 -0.061013535 -0.110071786 0.15333973 -0.78337526 0.61736125 0.20454034 -0.87384003
-0.29289344 0.758277 -1.8225436 -2.379556 -1.0280731 0.6619055 0.102239646 -2.8082843
0.37826535 -0.035196077 0.11074727 -0.33620134 0.47579026 0.01027767 2.5645225 -0.61034006
-0.3762249 0.13453527 -0.728475 0.31840113 0.6219306 0.1223443 -0.29151642 -0.22570133
-1.9425689 0.08036289 -0.19229369 -0.5792137 0.47252908 0.5194715 0.36936203 0.39690107
-0.1670556 0.4997797 2.0433521 0.65460366 -0.011175542 0.54729676 0.2373944 0.124123015
0.15014637 0.16759881 0.14644979 0.25033993 4.5538845 0.40192208 -0.089138284 0.05335143
1.5050677 0.21056181 1.1509007 -0.046440095 -0.1533065 -0.23082101 1.0110345 2.011961
-0.22448686 0.45573005 -0.12576194 0.042854156 0.1570378 -0.8144072 -1.1420707 0.4884381
0.27543902 -0.07758878 0.47604004 -0.27091092 0.7972382 0.10504337 -0.005024601 1.2937744
0.013290664 0.071393885 -0.123308696 -0.20237234 -0.7543294 0.2928354 -0.09539234 -0.028840372
2.7859285 0.9082329 0.2593063 2.0005987 0.16943802 0.35073182 0.4694574 0.48645863
0.3494975 0.6274977 0.3418843 0.35850295 0.30999276 0.24515799 0.12077803 0.3870187
-0.47384378 0.00799345 -0.23877981 1.0378041 0.49232817 -0.107353054 0.08652662 0.30196154
-0.100070916 0.37941167 0.14614363 -0.25324318 3.7012286 0.41932148 0.69864243 -0.5040198
-0.09661568 0.44240767 -0.022996007 0.06995656 -0.7434435 0.5343341 -0.7556008 -0.7181112
00000000: 263a 9ebe 1209 09be 87a8 18bf f8a3 1ebe
00000010: bd9e 5a3e 72e6 863d 646e c9be b1ff 2f3e
00000020: f8e7 6cbc 5790 f03d 7bbc 1b3e b353 5e3e
00000030: 8963 353f 7654 893e ba9b ed3c 17d7 9a3e
00000040: 5cce b53f 8f0c a13f 3dd0 f7be ecd4 153f
00000050: ceaf 953e 1d1b 4f3e 8945 c7be 4ad0 c5be
00000060: f46e bd3e 987a 913e f38d 9fbe 3ff8 0c3e
00000070: 3ec8 9b3e 41f9 993e 9faf 63be 3d62 1bbe
00000080: ef21 9bbc 9dc4 e8bd e497 93bd 7e7c 95be
00000090: 2b4c 093f 17c2 2dbd fd49 203f 7924 9bbe
000000a0: a26a 633e a274 a83e 03d7 623d dfdf 683e
000000b0: 7ef5 cebb a768 713d 7388 393d acaa c43e
000000c0: 4510 b43d 317c 3abe 9625 54bf 0e71 64bf
000000d0: 8a46 86bf e927 193f 8523 c0be 8843 82bd
000000e0: 2701 0d3f c651 aa3f 83e5 1440 d6a7 933f
000000f0: bc96 acbe 54d4 033f ca50 783d 8a37 70be
00000100: 2b57 4dbe 2a62 c33d af20 fdbf 452f 84bf
00000110: dfcd 87bc cde6 143e edcd 113e 0d15 933e
00000120: 9bc9 713f 0063 c03d 6d75 e83d 2a3f 9d3d
00000130: 839f 7c3f e61c ab3f a446 943f 7408 e53f
00000140: 3504 86bd 6751 74be f67f e13e f354 32c0
00000150: 72fb fa3e e455 243e 17f8 6b3e 3652 6dbd
00000160: b3c7 59be 1c24 5a40 0dee 9a3e cf12 903f
00000170: f47f 15bf 9020 fc3d 1292 f6bd 1243 bebd
00000180: 3965 bfbe 7cfa debc 5712 c7be 6e51 fe3e
00000190: 5db1 5cbe 0933 9bbc c500 83bf 5a58 9cbf
000001a0: e66a 8d3e 1a57 bc3d a0a7 d7be cb98 ecbe
000001b0: 7333 673e 4fe7 d5be cea8 493e 7796 f93d
000001c0: 5bf5 383d 382f abbe 965f 02be e592 1bbe
000001d0: a41d b6bc 0935 ad3e 979b a4bd 34ae e9be
000001e0: 8b0c b3bf d544 f03c 5b74 3dbf b51a 663e
000001f0: 3a56 6e3d c1f4 403e 4849 a53e 0024 013f
00000200: a830 b83e 54e9 79bd 516d e1bd 1705 1d3e
00000210: 488b 48bf 630b 1e3f 0673 513e fbb3 5fbf
00000220: 21f6 95be 711e 423f 1c49 e9bf a54a 18c0
00000230: e697 83bf a472 293f 0563 d13d eeba 33c0
00000240: ffab c13e c329 10bd 77cf e23d 9522 acbe
00000250: c89a f33e ac63 283c 2321 2440 3f3f 1cbf
00000260: 8da0 c0be 9dc3 093e 567d 3abf 7905 a33e
00000270: d836 1f3f a68f fa3d a441 95be 401e 67be
00000280: 19a6 f8bf 4d95 a43d a3e8 44be 5947 14bf
00000290: 55ef f13e 16fc 043f 051d bd3e 9e36 cb3e
000002a0: a010 2bbe 20e3 ff3e 48c6 0240 1b94 273f
000002b0: 9f19 37bc a41b 0c3f 8517 733e 3534 fe3d
000002c0: f8bf 193e 069f 2b3e eff6 153e 8e2c 803e
000002d0: 6cb9 9140 bbc8 cd3e 228e b6bd 0787 5a3d
000002e0: 0fa6 c03f 849d 573e b750 933f f837 3ebd
000002f0: 61fc 1cbe 585c 6cbe 9469 813f f8c3 0040
00000300: e2df 65be 7355 e93e bdc7 00be d787 2f3d
00000310: 84ce 203e fe7c 50bf 5f2f 92bf 8f14 fa3e
00000320: 5806 8d3e dee6 9ebd 85bb f33e d6b4 8abe
00000330: cd17 4c3f fa20 d73d 68a5 a4bb 669a a53f
00000340: 16c1 593c f536 923d 4589 fcbd b23a 4fbe
00000350: bb1b 41bf 86ee 953e 0f5d c3bd a542 ecbc
00000360: a74c 3240 f481 683f ccc3 843e cf09 0040
00000370: 2981 2d3e 1f93 b33e b85c f03e 1b11 f93e
00000380: 56f1 b23e b0a3 203f 750b af3e b38d b73e
00000390: 5fb7 9e3e b20a 7b3e 795a f73d 5127 c63e
000003a0: a79b f2be f6f6 023c b282 74be c4d6 843f
000003b0: 7012 fc3e ebdb dbbd de34 b13d b49a 9a3e
000003c0: fbf1 ccbd 3f42 c23e ada6 153e 17a9 81be
000003d0: eee0 6c40 4eb1 d63e 3bda 323f 7107 01bf
000003e0: 71de c5bd 4283 e23e 1f62 bcbc 6345 8f3d
000003f0: 5052 3ebf 1fca 083f 0e6f 41bf 23d6 37bf

encoder.lstm.weight_hh_l0 f4 [256, 64]
0.051579043 0.07243016 0.10252762 -0.3240158 -0.67000324 0.48115936 -0.22321714 -0.20523141
-0.07013183 -0.2988391 0.19016653 0.1805387 0.28838047 0.029994396 0.19933075 0.2338707
-0.0044159726 -0.035799954 0.09357583 -0.3064516 -0.13854527 -0.091966435 -0.29709876 0.23436277
0.15139559 0.08759085 -0.014254671 0.21023197 0.09806956 0.15364295 0.2837153 0.020051027
-0.10047331 -0.3380444 -0.3385609 -0.06309599 0.31398448 -0.58567005 0.54825 0.1260714
0.07601238 0.09435472 -0.028869353 0.113487735 -0.004769407 -0.25796816 0.16291112 -0.27744025
0.04722496 -0.2816542 -0.3805914 -0.14707072 -0.11452664 0.054066647 -0.11361935 -0.21371119
0.4147359 -0.011088596 -0.11260784 -0.004755484 -0.09168971 0.14215285 0.32698023 -0.27316257
0.13352978 -0.028788598 -0.44251576 -0.2747135 -0.58895004 0.01576048 -0.05340078 0.26213905
-0.27866018 0.34071854 0.027816206 -0.22322369 -0.110729866 0.08894015 0.043501507 -0.08116922
0.027209958 0.031785406 -0.2919604 -0.695531 0.42099294 -0.32753536 0.33617765 -0.23439878
0.06890774 0.20795427 0.08112993 -0.08791878 -0.19742653 0.52790695 -0.0040045655 -0.41165543
-0.32434717 0.013838079 0.04917241 0.10351953 0.25625157 -0.18236613 0.020912 -0.0064137154
-0.5248099 0.18764575 -0.24196225 -0.16746438 0.6222187 -0.14398567 0.031604074 -0.11746767
-0.32102776 0.15904717 -0.5938309 -0.35919183 -0.2360441 -0.19221133 0.20000347 -0.26367998
0.5412318 -0.07183639 -0.06511034 0.20079651 0.21556038 0.37776625 0.26295686 0.22282234
0.093485884 0.13844247 0.18255098 -0.35874116 0.23590492 0.050528932 0.0024373927 0.32342622
0.41873866 0.02851572 -0.15990369 0.5046281 0.1115282 -0.23463632 0.21666315 -0.19658129
-0.55853087 -0.053363774 0.33738068 0.28516743 -0.31878832 0.4471457 -0.031941317 -0.026373724
-0.1448169 -0.29709542 0.19611661 0.020679895 0.16757593 -0.27191085 -0.55268574 0.3675492
0.13707712 -0.18673427 -0.09902063 -0.7646449 -0.0555106 -0.42785203 0.3380335 -0.014409555
0.09502119 0.14664392 -0.83767396 -0.058205184 -0.48030478 0.5784567 0.1536507 0.2915487
0.06372942 -0.6719507 0.10485426 0.27659994 -0.08085873 0.34221715 -0.61711824 0.20557849
-0.20970184 -0.28799334 -0.28405827 -0.32256687 0.004261477 -0.03481589 -0.37605098 0.23493633
-0.02254147 -0.12760548 -0.19895262 -0.088777706 0.30535543 0.21040887 -0.22089407 0.07110312
-0.1345682 0.037250914 0.088114016 0.0022767896 -0.28739202 0.5490202 -0.31884512 0.12636943
0.27525422 0.012931246 -0.30748647 -0.21118842 0.17618358 -0.3325705 0.34854636 0.3410665
-0.051314585 0.27085036 -0.2562314 0.31589073 0.746483 0.2957352 0.07511354 -0.38137263
-0.110968485 0.124748714 -0.35309622 -0.6401384 -0.12379451 0.45304012 0.4822629 -0.09624907
-0.15854701 0.095742956 0.047428828 -0.5069931 0.39413857 -0.10847394 -0.9591623 -0.3413178
-0.14984795 -0.0520167 -0.22055762 0.04638961 0.11494561 0.038731366 0.09240515 -0.009345719
0.53837156 -0.09419064 0.6002008 0.6162553 -0.23869209 -0.1657303 0.2333102 -0.2810382
00000000: 8c44 533d 4456 943d 00fa d13d 66e5 a5be
00000010: 5585 2bbf 855a f63e 0993 64be 2f28 52be
00000020: 47a1 8fbd 7001 99be 04bb 423e 23df 383e
00000030: 9ba6 933e cfb6 f53c 5c1d 4c3e cd7b 6f3e
00000040: ddb3 90bb f9a2 12bd afa4 bf3d 39e7 9cbe
00000050: d0de 0dbe e658 bcbd 541d 98be cbfc 6f3e
00000060: 7207 1b3e d562 b33d 6c8c 69bc 0d47 573e
00000070: b2d8 c83d 9454 1d3e 2243 913e 0d42 a43c
00000080: f3c4 cdbd 2814 adbe db57 adbe 7838 81bd
00000090: 93c2 a03e 79ee 15bf 1d5a 0c3f dc18 013e
000000a0: 61ac 9b3d 0c3d c13d 6c7f ecbc 426c e83d
000000b0: b048 9cbb 6714 84be 2cd2 263e a60c 8ebe
000000c0: f66e 413d fb34 90be e0dc c2be b599 16be
000000d0: f18c eabd fd74 5d3d 43b1 e8bd 1bd7 5abe
000000e0: 4458 d43e f1ac 35bc f09e e6bd e4d3 9bbb
000000f0: d1c7 bbbd 8490 113e f469 a73e f7db 8bbe
00000100: 08bc 083e 11d6 ebbc 6d91 e2be 3fa7 8cbe
00000110: 6ec5 16bf 1f1c 813c c7ba 5abd 1737 863e
00000120: 8cac 8ebe a972 ae3e d0de e33c c094 64be
00000130: 57c6 e2bd 4126 b63d a32e 323d 0c3c a6bd
00000140: 6be7 de3c 6a31 023d d57b 95be 520e 32bf
00000150: 638c d73e b7b2 a7be 7a1f ac3e 3c06 70be
00000160: 801f 8d3d f7f1 543e 7327 a63d c30e b4bd
00000170: 2e2a 4abe e924 073f bb38 83bb 80c4 d2be
00000180: d510 a6be 1cb9 623c 0269 493d 0c02 d43d
00000190: 6833 833e 30be 3abe a54f ab3c 252a d2bb
000001a0: f159 06bf 3526 403e f4c4 77be c87b 2bbe
000001b0: ba49 1f3f fb70 13be 4673 013d e492 f0bd
000001c0: c05d a4be 43dd 223e 4d05 18bf fee7 b7be
000001d0: 8bb5 71be 0cd3 44be b6cd 4c3e 1001 87be
000001e0: 2b8e 0a3f f51e 93bd 9258 85bd 9a9d 4d3e
000001f0: dcbb 5c3e 946a c13e 48a2 863e 8a2b 643e
00000200: 8775 bf3d ddc3 0d3e a5ee 3a3e ecac b7be
00000210: 0f91 713e 6df7 4e3d aabc 1f3b 1f98 a53e
00000220: ea64 d63e cd99 e93c cbbd 23be 4f2f 013f
00000230: e668 e43d 8144 70be f2dc 5d3e 9b4c 49be
00000240: e1fb 0ebf f993 5abd 29bd ac3e 7701 923e
00000250: 3938 a3be 48f0 e43e e6d4 02bd b50d d8bc
00000260: e24a 14be e41c 98be cbd2 483e e268 a93c
00000270: 0699 2b3e e637 8bbe d07c 0dbf 692f bc3e
00000280: f25d 0c3e 4537 3fbe 54cb cabd c5bf 43bf
00000290: 155f 63bd 6c0f dbbe ba12 ad3e 0e16 6cbc
000002a0: 789a c23d d329 163e cd71 56bf 8f68 6ebd
000002b0: 82ea f5be bd15 143f 9c56 1d3e df45 953e
000002c0: 9284 823d f604 2cbf d5bd d63d 829e 8d3e
000002d0: 4399 a5bd 1637 af3e 76fb 1dbf 2b83 523e
000002e0: 14bc 56be dd73 93be 1670 91be 7c27 a5be
000002f0: dca3 8b3b 1b9b 0ebd c189 c0be 2693 703e
00000300: e4a8 b8bc 03ab 02be 3cba 4bbe 16d1 b5bd
00000310: 8c57 9c3e 6c75 573e 0e32 62be 839e 913d
00000320: 3fcc 09be 6a94 183d 1f75 b43d 3136 153b
00000330: 0c25 93be 968c 0c3f ab3f a3be fd66 013e
00000340: 1fee 8c3e 94dd 533c de6e 9dbe c741 58be
00000350: 7869 343e ae46 aabe ab74 b23e 45a0 ae3e
00000360: 3e2f 52bd e6ac 8a3e c330 83be 6ebc a13e
00000370: 8319 3f3f 9b6a 973e 21d5 993d 4643 c3be
00000380: 7243 e3bd 417c ff3d 07c9 b4be 1ce0 23bf
00000390: fa87 fdbd e0f4 e73e 2aeb f63e 3b1e c5bd
000003a0: 265a 22be e214 c43d bb44 423d 4dca 01bf
000003b0: 88cc c93e 9627 debd a98b 75bf 35c1 aebe
000003c0: be71 19be 770f 55bd dbd9 61be 0803 3e3d
000003d0: 9b68 eb3d c8a4 1e3d e93e bd3d c91e 19bc
000003e0: b8d2 093f 06e7 c0bd c2a6 193f e8c2 1d3f
000003f0: b36b 74be 34b5 29be dee8 6e3e 3de4 8fbe

encoder.lstm.bias_ih_l0 f4 [256]
-0.070450716 -0.28351027 0.5797331 -0.17142445 0.15519764 0.41262978 -0.09419317 -0.35036016
-0.13774425 -0.023091182 0.15035671 -0.38885513 0.0122037 0.3378148 -0.4620819 -0.13260736
-0.13399144 -0.22321165 0.1721489 0.07744943 0.5571796 0.4060162 -0.63429934 -0.2067486
0.063064955 0.42070043 -0.39861366 -0.34774894 -0.28985485 0.43431208 0.1459054 0.41418532
0.2834009 -0.145395 -0.21896099 -0.19871917 -0.07492517 0.057626914 -0.07843475 -0.28324166
-0.45293313 0.73684245 0.03221487 0.21649854 0.31157982 0.20595403 -0.31890267 0.2800767
0.27226016 0.2533595 0.12727481 0.245442 -0.5930935 -0.44244444 -0.22317852 -0.5441862
0.06144263 -0.25204918 0.3397409 0.19000185 -0.11579673 -0.41381392 0.41902873 -0.40834352
-0.2846073 -0.28685486 0.02203544 0.026772005 0.25205302 -0.30277023 -0.7089561 -0.20217219
0.054368813 -0.06395604 -0.22740573 -0.19432025 -0.20655468 -0.23565169 -0.30770162 -0.17541449
-0.19263929 0.12379655 -0.27148947 0.46552718 -0.43676305 0.15393601 0.22650352 -0.20725684
-0.24604376 0.31628373 -0.39494652 0.4175861 -0.527796 0.50058186 -0.56019616 0.28892902
-0.1854619 -0.2925062 -0.47556454 -0.32588136 -0.11093871 0.3049924 -0.09482468 -0.38662583
-0.4803856 -0.10021433 -0.119711675 -0.33096752 -0.12813188 -0.19939825 -0.30118102 -0.33734697
0.42352077 -0.29910097 -0.17660995 -0.3305936 -0.2923822 -0.20572191 -0.4628812 -0.37125438
-0.06178756 -0.35567892 0.013960568 0.5837684 0.040199745 -0.05302823 0.25798663 -0.23237203
0.024213275 0.38175064 0.49998897 -0.07796228 0.42223388 -0.24676085 0.10162825 0.09722446
0.2073251 -0.16137896 0.39884105 -0.22235948 0.04066311 -0.56468457 -0.20346062 0.07521802
-0.33974972 -0.29646528 -0.22186027 0.2543321 -0.37439528 0.46456385 -0.1194202 0.024912763
-0.09473679 -0.34720576 0.19481114 -0.28000078 -0.45412555 -0.5158362 -0.18404257 0.4110186
0.32291165 0.073049866 0.20321572 -0.35058817 -0.45332953 -0.20034799 -0.31171307 0.22529387
0.16766086 -0.46011338 0.058181897 0.07366916 -0.41299978 0.35325462 0.17364182 0.16687493
0.5686803 -0.41892475 0.35120997 0.47259355 -0.14980096 0.09221288 -0.17112817 -0.019180631
-0.411204 0.10900832 -0.24530576 -0.5292838 0.13709381 -0.02398628 -0.34501445 -0.04975468
-0.5700206 -0.03972504 0.10912302 -0.06826086 0.16889457 -0.31425434 0.03548587 -0.2107456
0.4040152 -0.090745814 -0.42640084 -0.4083075 -0.12374127 0.19754514 0.081764154 -0.12615147
0.44669712 -0.026320335 -0.64087266 0.1468311 0.2293299 0.24627891 -0.30970007 0.04178855
0.003912548 0.36817726 0.1425814 -0.52117664 -0.15578714 -0.14287506 0.28160876 0.23990764
-0.23651548 -0.07952049 -0.1712105 -0.14845543 -0.7186372 0.028950132 0.2938947 -0.26883265
-0.31189564 -0.07588473 -0.204442 0.12537372 0.33061412 0.34467375 0.0036871233 0.013505911
-0.38050976 0.0753601 0.24124649 0.5663045 -0.41812843 -0.21447629 -0.16281466 -0.20055579
-0.17468096 -0.21489733 0.18743505 0.3305848 -0.12614892 0.16482021 0.16647694 -0.32197815
00000000: 7748 90bd 4228 91be 6369 143f e489 2fbe
00000010: 21ec 1e3e 3644 d33e 59e8 c0bd 6862 b3be
00000020: d40c 0dbe b829 bdbc 1cf7 193e 0518 c7be
00000030: 07f2 473c 10f6 ac3e 0096 ecbe 39ca 07be
00000040: 0d35 09be 9891 64be cd47 303e cf9d 9e3d
00000050: 52a3 0e3f 5be1 cf3e 7161 22bf e8b5 53be
00000060: 3328 813d 0c66 d73e 1717 ccbe 260c b2be
00000070: db67 94be 275e de3e 3a68 153e 1910 d43e
00000080: ec19 913e 6de2 14be 4f37 60be 0a7d 4bbe
00000090: 5e72 99bd 330a 6c3d 66a2 a0bd 0d05 91be
000000a0: dae6 e7be b5a1 3c3f bdf3 033d cbb1 5d3e
000000b0: 6487 9f3e 9de5 523e 3647 a3be 3766 8f3e
000000c0: af65 8b3e 56b8 813e 5454 023e 2655 7b3e
000000d0: fad4 17bf 1488 e2be e988 64be c94f 0bbf
000000e0: 44ab 7b3d 970c 81be 85f2 ad3e d88f 423e
000000f0: d626 edbd 6bdf d3be ef8a d63e 6712 d1be
00000100: 0cb8 91be a4de 92be ab83 b43c f750 db3c
00000110: 180d 813e b304 9bbe 267e 35bf 3a06 4fbe
00000120: d5b1 5e3d 62fb 82bd 0cdd 68be e3fb 46be
00000130: 1283 53be ad4e 71be 118b 9dbe db9f 33be
00000140: 3c43 45be 0c89 fd3d ab00 8bbe 9459 ee3e
00000150: 689f dfbe 67a1 1d3e 8af0 673e 233b 54be
00000160: e5f2 7bbe f1ef a13e 6e36 cabe d8cd d53e
00000170: a31d 07bf 2226 003f 0469 0fbf 81ee 933e
00000180: b9e9 3dbe 5fc3 95be 327d f3be ecd9 a6be
00000190: d633 e3bd f727 9c3e 7133 c2bd d2f3 c5be
000001a0: 1af5 f5be 2c3d cdbd 652b f5bd 9374 a9be
000001b0: 0135 03be 0e2f 4cbe 6634 9abe beb8 acbe
000001c0: b7d7 d83e c323 99be 3dd9 34be 9043 a9be
000001d0: 1fb3 95be c4a8 52be c4fe ecbe 0e15 bebe
000001e0: f414 7dbd 8c1b b6be deba 643c d971 153f
000001f0: 7da8 243d 2134 59bd d316 843e eff2 6dbe
00000200: eb5a c63c d274 c33e 8efe ff3e b0aa 9fbd
00000210: 0a2f d83e e0ae 7cbe 7922 d03d 9e1d c73d
00000220: 084d 543e 8740 25be e534 cc3e 34b2 63be
00000230: 5c8e 263d 2b8f 10bf fb57 50be e80b 9a3d
00000240: adf3 adbe 4cca 97be 572f 63be d137 823e
00000250: bdb0 bfbe 50db ed3e 9492 f4bd da15 cc3c
00000260: 5d05 c2bd f4c4 b1be 927c 473e 435c 8fbe
00000270: 2583 e8be d70d 04bf a875 3cbe 0871 d23e
00000280: ad54 a53e 2b9b 953d c817 503e 4b80 b3be
00000290: cf1a e8be 0628 4dbe db98 9fbe 70b3 663e
000002a0: 4aaf 2b3e fb93 ebbe 2450 6e3d dbdf 963d
000002b0: b574 d3be cadd b43e 29cf 313e 43e1 2a3e
000002c0: 0895 113f 4e7d d6be cbd1 b33e c8f7 f13e
000002d0: 6c65 19be 1bda bc3d 393c 2fbe b320 9dbc
000002e0: 5589 d2be c13f df3d 6f31 7bbe 257f 07bf
000002f0: 5262 0c3e e07e c4bc bca5 b0be 90cb 4bbd
00000300: dfec 11bf b9b6 22bd e47b df3d 5acc 8bbd
00000310: b3f2 2c3e f2e5 a0be a259 113d b2cd 57be
00000320: 15db ce3e f1d8 b9bd 3651 dabe ae0d d1be
00000330: 106c fdbd 4649 4a3e f773 a73d da2d 01be
00000340: 7cb5 e43e be9d d7bc 3b10 24bf e45a 163e
00000350: 75d5 6a3e 8a30 7c3e 0291 9ebe 782a 2b3d
00000360: d534 803b bb81 bc3e dc00 123e d56b 05bf
00000370: aa86 1fbe d74d 12be 062f 903e 59aa 753e
00000380: 1d31 72be a3db a2bd ce51 2fbe b304 18be
00000390: 9cf8 37bf d428 ed3c 5e79 963e 6fa4 89be
000003a0: c9b0 9fbe 7469 9bbd 3e59 51be f861 003e
000003b0: 4146 a93e 1479 b03e aaa3 713b e647 5d3c
000003c0: 2dd2 c2be 6556 9a3d 5209 773e 55f9 103f
000003d0: ee14 d6be ac9f 5bbe e3b8 26be 7f5e 4dbe
000003e0: 91df 32be 0c0e 5cbe f9ee 3f3e 6942 a93e
000003f0: 2f2d 01be a1c6 283e ee78 2a3e 52da a4be

encoder.lstm.bias_hh_l0 f4 [256]
-0.070450716 -0.28351027 0.579733 -0.17142445 0.1551976 0.41262978 -0.094193146 -0.35036016
-0.13774426 -0.023091182 0.15035672 -0.38885513 0.0122037 0.33781484 -0.4620819 -0.13260736
-0.13399145 -0.22321165 0.1721489 0.07744943 0.5571796 0.4060162 -0.63429934 -0.20674862
0.06306501 0.42070043 -0.39861366 -0.34774894 -0.28985485 0.43431208 0.1459054 0.4141853
0.2834009 -0.14539498 -0.21896099 -0.19871917 -0.074925154 0.057626862 -0.07843475 -0.28324166
-0.45293307 0.73684245 0.03221487 0.21649854 0.31157982 0.20595403 -0.31890264 0.28007674
0.27226016 0.2533595 0.12727481 0.24544202 -0.5930935 -0.44244444 -0.22317852 -0.5441862
0.06144263 -0.25204918 0.3397409 0.1900018 -0.11579673 -0.41381392 0.4190287 -0.40834352
-0.2846073 -0.28685483 0.02203544 0.026772005 0.25205302 -0.3027702 -0.7089561 -0.20217218
0.054368813 -0.06395601 -0.22740573 -0.19432023 -0.20655468 -0.23565172 -0.30770162 -0.17541449
-0.19263926 0.12379655 -0.27148947 0.46552718 -0.43676305 0.15393601 0.22650352 -0.20725684
-0.24604376 0.31628373 -0.39494652 0.4175861 -0.527796 0.50058186 -0.56019616 0.28892902
-0.18546192 -0.29250616 -0.47556454 -0.32588136 -0.11093874 0.3049924 -0.094824664 -0.38662586
-0.4803856 -0.100214384 -0.11971167 -0.33096752 -0.12813188 -0.19939831 -0.30118102 -0.33734697
0.42352077 -0.29910097 -0.17660995 -0.33059362 -0.2923822 -0.20572191 -0.4628812 -0.37125438
-0.06178759 -0.35567892 0.013960568 0.5837684 0.040199753 -0.05302823 0.25798663 -0.23237203
0.024213275 0.38175064 0.49998903 -0.07796228 0.4222339 -0.24676085 0.101628244 0.09722449
0.2073251 -0.16137893 0.39884105 -0.22235948 0.04066312 -0.5646846 -0.20346062 0.07521801
-0.33974972 -0.29646528 -0.22186026 0.2543321 -0.37439528 0.46456385 -0.1194202 0.024912763
-0.094736785 -0.34720576 0.19481114 -0.28000078 -0.45412555 -0.5158362 -0.18404257 0.4110186
0.32291165 0.073049866 0.20321572 -0.3505881 -0.45332953 -0.20034799 -0.31171307 0.2252939
0.16766086 -0.46011344 0.058181897 0.07366916 -0.41299978 0.35325462 0.17364182 0.16687493
0.5686803 -0.41892475 0.35120997 0.47259358 -0.14980096 0.09221288 -0.17112817 -0.019180657
-0.411204 0.10900832 -0.24530579 -0.5292838 0.13709381 -0.02398628 -0.34501445 -0.04975468
-0.5700206 -0.03972504 0.10912302 -0.06826088 0.16889457 -0.3142543 0.03548587 -0.2107456
0.4040152 -0.090745814 -0.42640084 -0.4083075 -0.12374127 0.19754516 0.081764154 -0.12615146
0.44669715 -0.026320335 -0.64087266 0.1468311 0.2293299 0.24627891 -0.30970007 0.04178855
0.003912548 0.36817726 0.1425814 -0.5211767 -0.15578714 -0.14287506 0.28160876 0.23990764
-0.23651548 -0.07952049 -0.17121053 -0.14845543 -0.7186372 0.028950132 0.2938947 -0.26883265
-0.31189564 -0.07588473 -0.204442 0.12537372 0.33061412 0.34467375 0.003687152 0.013505926
-0.3805097 0.07536011 0.24124649 0.5663045 -0.41812846 -0.21447629 -0.16281466 -0.20055579
-0.174681 -0.21489733 0.18743505 0.3305848 -0.12614892 0.16482021 0.16647694 -0.32197815
00000000: 7748 90bd 4228 91be 6269 143f e489 2fbe
00000010: 1fec 1e3e 3644 d33e 56e8 c0bd 6862 b3be
00000020: d50c 0dbe b829 bdbc 1df7 193e 0518 c7be
00000030: 07f2 473c 11f6 ac3e 0096 ecbe 39ca 07be
00000040: 0e35 09be 9891 64be cd47 303e cf9d 9e3d
00000050: 52a3 0e3f 5be1 cf3e 7161 22bf e9b5 53be
00000060: 3a28 813d 0c66 d73e 1717 ccbe 260c b2be
00000070: db67 94be 275e de3e 3a68 153e 1810 d43e
00000080: ec19 913e 6ce2 14be 4f37 60be 0a7d 4bbe
00000090: 5c72 99bd 250a 6c3d 66a2 a0bd 0d05 91be
000000a0: d8e6 e7be b5a1 3c3f bdf3 033d cbb1 5d3e
000000b0: 6487 9f3e 9de5 523e 3547 a3be 3866 8f3e
000000c0: af65 8b3e 56b8 813e 5454 023e 2755 7b3e
000000d0: fad4 17bf 1488 e2be e988 64be c94f 0bbf
000000e0: 44ab 7b3d 970c 81be 85f2 ad3e d58f 423e
000000f0: d626 edbd 6bdf d3be ee8a d63e 6712 d1be
00000100: 0cb8 91be a3de 92be ab83 b43c f750 db3c
00000110: 180d 813e b204 9bbe 267e 35bf 3906 4fbe
00000120: d5b1 5e3d 5efb 82bd 0cdd 68be e2fb 46be
00000130: 1283 53be af4e 71be 118b 9dbe db9f 33be
00000140: 3a43 45be 0c89 fd3d ab00 8bbe 9459 ee3e
00000150: 689f dfbe 67a1 1d3e 8af0 673e 233b 54be
00000160: e5f2 7bbe f1ef a13e 6e36 cabe d8cd d53e
00000170: a31d 07bf 2226 003f 0469 0fbf 81ee 933e
00000180: bbe9 3dbe 5ec3 95be 327d f3be ecd9 a6be
00000190: da33 e3bd f727 9c3e 6f33 c2bd d3f3 c5be
000001a0: 1af5 f5be 333d cdbd 642b f5bd 9374 a9be
000001b0: 0135 03be 122f 4cbe 6634 9abe beb8 acbe
000001c0: b7d7 d83e c323 99be 3dd9 34be 9143 a9be
000001d0: 1fb3 95be c4a8 52be c4fe ecbe 0e15 bebe
000001e0: fc14 7dbd 8c1b b6be deba 643c d971 153f
000001f0: 7fa8 243d 2134 59bd d316 843e eff2 6dbe
00000200: eb5a c63c d274 c33e 90fe ff3e b0aa 9fbd
00000210: 0b2f d83e e0ae 7cbe 7822 d03d a21d c73d
00000220: 084d 543e 8540 25be e534 cc3e 34b2 63be
00000230: 5f8e 263d 2c8f 10bf fb57 50be e60b 9a3d
00000240: adf3 adbe 4cca 97be 562f 63be d137 823e
00000250: bdb0 bfbe 50db ed3e 9492 f4bd da15 cc3c
00000260: 5c05 c2bd f4c4 b1be 927c 473e 435c 8fbe
00000270: 2583 e8be d70d 04bf a875 3cbe 0871 d23e
00000280: ad54 a53e 2b9b 953d c817 503e 4980 b3be
00000290: cf1a e8be 0628 4dbe db98 9fbe 72b3 663e
000002a0: 4aaf 2b3e fd93 ebbe 2450 6e3d dbdf 963d
000002b0: b574 d3be cadd b43e 29cf 313e 43e1 2a3e
000002c0: 0895 113f 4e7d d6be cbd1 b33e c9f7 f13e
000002d0: 6c65 19be 1bda bc3d 393c 2fbe c120 9dbc
000002e0: 5589 d2be c13f df3d 7131 7bbe 257f 07bf
000002f0: 5262 0c3e e07e c4bc bca5 b0be 90cb 4bbd
00000300: dfec 11bf b9b6 22bd e47b df3d 5ccc 8bbd
00000310: b3f2 2c3e f1e5 a0be a259 113d b2cd 57be
00000320: 15db ce3e f1d8 b9bd 3651 dabe ae0d d1be
00000330: 106c fdbd 4749 4a3e f773 a73d d92d 01be
00000340: 7db5 e43e be9d d7bc 3b10 24bf e45a 163e
00000350: 75d5 6a3e 8a30 7c3e 0291 9ebe 782a 2b3d
00000360: d534 803b bb81 bc3e dc00 123e d66b 05bf
00000370: aa86 1fbe d74d 12be 062f 903e 59aa 753e
00000380: 1d31 72be a3db a2bd d051 2fbe b304 18be
00000390: 9cf8 37bf d428 ed3c 5e79 963e 6fa4 89be
000003a0: c9b0 9fbe 7469 9bbd 3e59 51be f861 003e
000003b0: 4146 a93e 1479 b03e 25a4 713b f647 5d3c
000003c0: 2bd2 c2be 6756 9a3d 5209 773e 55f9 103f
000003d0: ef14 d6be ac9f 5bbe e3b8 26be 7f5e 4dbe
000003e0: 93df 32be 0c0e 5cbe f9ee 3f3e 6942 a93e
000003f0: 2f2d 01be a1c6 283e ee78 2a3e 52da a4be

decoder.lstm.weight_ih_l0 f4 [256, 5]
-0.14532365 -0.94782996 -0.24969895 0.4729426 -0.3145889 -0.5308651 -0.20856439 -0.20944984
-0.35959405 -0.24917753 -0.7713185 0.11537427 0.09623524 -0.27519256 -0.27855292 -0.34446162
0.019746112 -0.6137204 -0.47525498 -0.09584853 -0.87247384 -0.9605146 -0.47580191 -0.0317638
0.3984918 0.7744373 -0.9791702 -0.8305314 1.9370687 0.37095487 -0.18167011 -0.13093579
-0.5821212 -0.17419662 0.1809114 -0.32150304 0.418545 -0.5622153 -0.27064866 -1.4862236
0.024442233 -0.6276586 -0.85478586 1.4418938 0.19819523 0.07617203 0.5243394 0.5610155
-0.3748033 -0.52902275 -0.0733276 -0.13421164 0.27645126 -0.23255067 0.19937323 0.057166945
-0.6093097 -0.0024749585 -0.2393101 0.4101649 -0.1598876 -0.08270816 0.015605672 -0.28127632
-0.36376032 0.69466203 0.18105152 0.4341254 -0.65000534 -1.8441302 0.53039986 -0.31426272
-0.3815328 0.13407795 0.06269632 0.95285314 -0.28385794 0.211936 -0.17487125 -0.39591447
0.07107499 -0.14262399 -0.6798452 0.42891443 0.056482587 -0.39798376 -0.6835694 -0.3800572
-0.16080627 0.12645102 -0.29963675 -0.55262005 0.39158505 -0.2347883 -0.44291022 -0.40564996
0.12737815 -0.4062803 -0.43939272 -0.2100045 0.9780596 0.85183823 0.66181064 -0.2858558
1.2960328 0.7532034 -0.2407528 0.23235142 -0.6690544 -0.090890355 -0.35904527 0.0055806586
-0.33699423 -0.54486793 -0.3196921 1.1545359 0.40258363 -0.031121016 -0.5617547 -0.33096144
0.08447454 0.10471891 0.0992536 -0.24084817 0.28185537 -0.8183227 0.30566043 0.14345872
-0.02999331 -0.3922018 0.40700677 -1.0318062 -0.7509121 0.27606213 0.056567445 0.60373974
0.32521546 -1.1965271 -0.3340105 -0.41737303 -0.09453847 -0.6822872 -0.09419191 -0.33591875
0.13013269 -0.10828862 -0.36964422 -0.4114883 0.08285224 -0.1856862 -1.0180154 0.17569432
0.3948792 -1.4829031 0.02859495 0.004728216 -0.51141495 0.3210241 -0.27551967 -0.6126194
-0.39106065 -0.25674903 1.2597748 -0.5505489 -0.29161602 -0.6697745 -0.78605974 -0.5539614
0.10600465 -0.36442962 0.67972076 -0.58523464 0.00076431874 0.054334827 -0.040190093 -0.5022187
0.8617216 -1.4721 -0.5111779 -0.8931593 -0.08125307 0.8631883 -0.30155307 -0.5673507
-0.12892534 -0.3193063 -0.2625307 -0.12976694 0.14097041 -0.3906407 0.34672192 0.7432054
0.03613637 1.396249 -0.5971732 -1.2172747 1.1042014 -0.7213736 -0.41247523 -1.3891475
-0.12435767 -0.80061334 -0.44040474 -0.8734378 0.01922507 -1.0032007 -0.0037348324 0.40438277
-0.35816297 -0.3446384 -0.1999319 -0.4527179 -0.30818477 0.11175726 -0.19935277 -0.49965167
-0.0057417853 0.13803801 -0.029027572 -1.2088225 -0.4008647 -0.010979523 -1.0653182 0.066085055
-0.84236777 0.21462621 -0.23356132 0.29012704 -0.15579756 -0.33057678 -0.4865933 -0.39557096
-0.024104089 -1.0102066 -0.028495837 -0.88357997 -0.65563977 -0.7623926 0.24489711 -1.7466003
-0.24151663 0.3365735 0.20293431 -0.1124914 -0.30548373 0.0035564436 -0.36890602 -0.23551059
0.2828793 -0.1428057 -0.0078109065 -0.4058967 0.65248805 -0.87988883 -0.6571747 0.07728571
00000000: b9cf 14be fca4 72bf 15b1 7fbe 8825 f23e
00000010: cc11 a1be c6e6 07bf e791 55be 057a 56be
00000020: b61c b8be 6528 7fbe 2175 45bf 5849 ec3d
00000030: fb16 c53d 0ae6 8cbe 7d9e 8ebe 465d b0be
00000040: 99c2 a13c c81c 1dbf 9f54 f3be 3c4c c4bd
00000050: 725a 5fbf 49e4 75bf 4f9c f3be c21a 02bd
00000060: 1e07 cc3e 8641 463f e6aa 7abf b59d 54bf
00000070: def1 f73f cced bd3e bb07 3abe 0814 06be
00000080: e505 15bf 9960 32be d740 393e 0c9c a4be
00000090: 884b d63e 58ed 0fbf 7692 8abe 933c bebf
000000a0: 143b c83c 3cae 20bf 3fd3 5abf fa8f b83f
000000b0: b1f3 4a3e 1500 9c3d 1b3b 063f b69e 0f3f
000000c0: 38e6 bfbe 096e 07bf c82c 96bd c76e 09be
000000d0: 058b 8d3e c321 6ebe 7f28 4c3e e327 6a3d
000000e0: b8fb 1bbf ea32 22bb b50d 75be 2201 d23e
000000f0: 93b9 23be e562 a9bd efae 7f3c 7303 90be
00000100: cb3e babe 5fd5 313f 9265 393e af45 de3e
00000110: c066 26bf 750c ecbf 49c8 073f 0be7 a0be
00000120: 4458 c3be bb4b 093e ee66 803d 2fee 733f
00000130: d455 91be c005 593e 7311 33be 4db5 cabe
00000140: c48f 913d 060c 12be 560a 2ebf ac9a db3e
00000150: 495a 673d 87c4 cbbe 67fe 2ebf db96 c2be
00000160: 66aa 24be 607c 013e fd69 99be 8278 0dbf
00000170: d67d c83e 586c 70be 21c5 e2be 5ab1 cfbe
00000180: 6b6f 023e f903 d0be 15f8 e0be 6b0b 57be
00000190: 1d62 7a3f 1212 5a3f 6c6c 293f b15b 92be
000001a0: 67e4 a53f f0d1 403f e787 76be 88ed 6d3e
000001b0: 2647 2bbf b924 babd c8d4 b7be f5dd b63b
000001c0: 828a acbe 777c 0bbf afae a3be d5c7 933f
000001d0: 711f ce3e 80f1 febc 28cf 0fbf c773 a9be
000001e0: fd00 ad3d de76 d63d 7945 cb3d e7a0 76be
000001f0: 594f 903e 997d 51bf 867f 9c3e d8e6 123e
00000200: 88b4 f5bc adce c8be 3163 d03e 3a12 84bf
00000210: c63b 40bf 0458 8d3e 44b3 673d b08e 1a3f
00000220: a482 a63e cd27 99bf 6d03 abbe ebb1 d5be
00000230: 639d c1bd 60aa 2ebf b0e7 c0bd 8bfd abbe
00000240: 8141 053e 6dc6 ddbd 0242 bdbe 98ae d2be
00000250: 6fae a93d 8624 3ebe 544e 82bf 36e9 333e
00000260: 9b2d ca3e c5cf bdbf f53f ea3c 27ef 9a3b
00000270: 17ec 02bf 455d a43e ea10 8dbe a0d4 1cbf
00000280: 1a39 c8be 9c74 83be 4d40 a13f c6f0 0cbf
00000290: b24e 95be 5776 2bbf 363b 49bf 6ad0 0dbf
000002a0: f718 d93d 8596 babe 2e02 2e3f f0d1 15bf
000002b0: 905c 483a 328e 5e3d 5e9e 24bd 6891 00bf
000002c0: c999 5c3f c66d bcbf 8edc 02bf 16a6 64bf
000002d0: 0268 a6bd e9f9 5c3f 2a65 9abe e53d 11bf
000002e0: 0105 04be 1e7c a3be 6d6a 86be a0e1 04be
000002f0: 8c5a 103e 0f02 c8be 8985 b13e b642 3e3f
00000300: bb03 143d 4ab8 b23f 58e0 18bf a8cf 9bbf
00000310: 7956 8d3f f1ab 38bf f42f d3be 96cf b1bf
00000320: 3caf febd fff4 4cbf bb7c e1be 9f99 5fbf
00000330: e57d 9d3c e168 80bf 17c4 74bb 420b cf3e
00000340: 2361 b7be 7274 b0be f3ba 4cbe a4ca e7be
00000350: 65ca 9dbe fee0 e43d 2223 4cbe 58d2 ffbe
00000360: 9625 bcbb d659 0d3e 3bcb edbc b2ba 9abf
00000370: 233e cdbe 75e3 33bc 595c 88bf 9a57 873d
00000380: 6aa5 57bf f9c6 5b3e b32a 6fbe 888b 943e
00000390: 6589 1fbe 5c41 a9be c222 f9be 4788 cabe
000003a0: f075 c5bc 734e 81bf 1a70 e9bc 4c32 62bf
000003b0: 02d8 27bf 292c 43bf 4fc6 7a3e 9990 dfbf
000003c0: 2350 77be 5d53 ac3e 03ce 4f3e e461 e6bd
000003d0: 5d68 9cbe 3913 693b 40e1 bcbe b029 71be
000003e0: 8ed5 903e a83b 12be a2f2 ffbb b1d1 cfbe
000003f0: 7509 273f 6540 61bf 9a3c 28bf f847 9e3d

decoder.lstm.weight_hh_l0 f4 [256, 64]
-0.40104634 -0.8028983 0.69149685 -0.6316145 -1.0835588 0.1398163 0.9430172 -0.5124483
0.13043548 -0.28960252 -0.43746305 -0.63088644 -0.4535029 0.12295996 -0.53092134 -0.23740731
-0.80622846 -0.41943753 -0.38631898 0.18726014 -0.6808976 -0.1304133 -0.23318194 0.038187485
-0.17214376 -0.78300864 0.6218903 1.0371472 0.15404561 0.04792951 -0.027643258 0.16065966
-0.16216822 0.22841908 0.45753753 -1.2734509 0.38688904 0.13001886 -1.0937746 -0.16488309
0.7405056 0.22657238 -0.32369906 0.2634977 0.13042639 -0.27496925 0.40856427 0.83466095
-0.6629161 -0.48689926 -0.48449317 0.10028519 -0.3462348 -0.3051302 0.25103456 0.52728796
0.35820487 0.061147694 0.28111142 -0.7437985 0.5229443 -0.36842978 0.1975036 -0.40598902
0.24437517 -0.057124868 -0.35547015 0.5244571 0.998316 0.5931084 0.42574805 -0.3006529
-0.44796672 -0.41620478 -0.56605995 -0.5363583 0.87682515 1.0469674 -0.67562735 -0.36099374
-1.0062956 -0.52187264 1.0544236 -0.6604349 -0.28523412 0.081339955 0.1691573 -0.25064328
0.11510777 -0.6817093 0.5063819 0.47896853 0.2784771 -0.17692158 -0.27332157 -0.21964495
-0.69690055 -0.06696458 0.0028562828 0.20548424 0.23628148 0.17815 -0.4004011 0.26930678
0.8036234 -0.36613673 -0.6537943 0.5521379 0.6291466 0.055328928 -0.14261372 -0.38338557
-0.72871506 0.0060365763 -0.4320258 -0.77966714 -0.6701541 0.8064321 -0.47172454 0.33805084
0.075955614 1.5278424 0.52420676 0.7302299 0.35909784 0.79960674 0.7306876 0.28366572
-0.7642473 0.6135356 0.20569043 0.75665545 -0.01654679 0.71962625 0.12508132 -0.5849316
0.22175236 -0.97667617 0.02667951 0.13477892 0.72122014 -0.27169695 0.1746477 -0.11787739
-0.29925367 0.3727019 0.09216165 0.6570648 -1.14771 0.29546052 -0.44907624 -0.08421316
0.4897712 -0.38598904 0.32009673 0.27279633 -0.03142794 -0.41935197 -0.4098564 0.041957177
0.033760164 0.37982625 0.06746552 0.77641666 0.770746 -0.44091526 1.9809442 0.16598105
0.66565335 1.3983432 0.005346186 1.0051353 0.288102 0.4931372 0.074799396 0.7275696
-0.77417254 -0.30046064 -0.55193174 -0.43104818 0.11717572 0.477778 -0.026083361 0.01798347
-1.5143255 -1.3421026 1.5434655 -0.17927465 -0.42425233 1.2641337 -0.23221867 0.07128536
-0.1352477 -0.080680534 0.19039263 0.7469292 -0.068889976 0.3326881 0.039257023 0.78071404
-0.38017163 0.54171276 0.08538159 -0.09960368 -0.19345692 0.15567583 0.19012895 0.23256162
-0.36603943 -0.15872733 0.17968264 -0.4111029 -0.4560332 0.21361428 -0.29598293 -0.107107
0.098970875 0.18950483 0.2680923 0.31419745 0.96272904 0.4163052 0.49791497 -0.45416367
0.9476844 -0.05955459 0.13576484 -0.085607834 -0.1476931 -0.02019019 -0.63158417 -0.34237957
1.2177039 -0.17008103 -0.7538537 0.2658867 0.90563995 0.074504726 0.26185137 1.1500115
-0.7837147 -0.003067978 -0.7871395 -0.39770496 -1.1158471 0.21374659 0.03151404 -0.6461192
-0.13943346 -0.34052515 0.3248846 0.40995046 0.82175046 -0.052373372 -0.22084592 -0.049653705
00000000: f255 cdbe be8a 4dbf f005 313f 7db1 21bf
00000010: 0eb2 8abf 012c 0f3e 9369 713f d02f 03bf
00000020: e190 053e c846 94be 28fb dfbe c681 21bf
00000030: 8831 e8be 6ed2 fb3d 76ea 07bf e71a 73be
00000040: fd64 4ebf 84c0 d6be 9acb c5be 1fc1 3f3e
00000050: 4e4f 2ebf 108b 05be 3fc7 6ebe 7b6a 1c3d
00000060: 7446 30be 4173 48bf 3434 1f3f 3dc1 843f
00000070: 22be 1d3e bc51 443d 1d74 e2bc f783 243e
00000080: 6d0f 26be b1e6 693e 5c42 ea3e 7000 a3bf
00000090: 5216 c63e aa23 053e ce00 8cbf 1dd7 28be
000000a0: c691 3d3f 9702 683e e2bb a5be 2ce9 863e
000000b0: 7f8e 053e c5c8 8cbe 562f d13e 57ac 553f
000000c0: dfb4 29bf dc4a f9be 7d0f f8be 5262 cd3d
000000d0: b045 b1be 073a 9cbe 9a87 803e 58fc 063f
000000e0: a166 b73e 0176 7a3d d6ed 8f3e 9469 3ebf
000000f0: addf 053f d4a2 bcbe 623e 4a3e cbdd cfbe
00000100: 7c3d 7a3e c4fb 69bd 2f00 b6be d242 063f
00000110: a391 7f3f f4d5 173f a6fb d93e 2def 99be
00000120: e55b e5be cb18 d5be 4ee9 10bf c74e 09bf
00000130: 9d77 603f 0703 863f eaf5 2cbf 2cd4 b8be
00000140: 4bce 80bf 7299 05bf 5af7 863f 4312 29bf
00000150: 350a 92be 9095 a63d 9237 2d3e 5154 80be
00000160: 9fbd eb3d 8084 2ebf 3fa2 013f 5d3b f53e
00000170: 8d94 8e3e ee2a 35be cef0 8bbe 9bea 60be
00000180: 1368 32bf ba24 89bd 7930 3b3b 766a 523e
00000190: c6f3 713e f46c 363e 5f01 cdbe 94e2 893e
000001a0: 43ba 4d3f 4676 bbbe 105f 27bf e958 0d3f
000001b0: c00f 213f 96a0 623d 5509 12be 1d4b c4be
000001c0: 128d 3abf 79ce c53b 7c32 ddbe 4498 47bf
000001d0: 388f 2bbf 5672 4e3f e185 f1be 0015 ad3e
000001e0: 9e8e 9b3d 5790 c33f 6a32 063f 59f0 3a3f
000001f0: acdb b73e 07b3 4c3f 580e 3b3f a23c 913e
00000200: b6a5 43bf ab10 1d3f 83a0 523e 2cb4 413f
00000210: 228d 87bc 6d39 383f 5115 003e 14be 15bf
00000220: 0d13 633e 7307 7abf fd8e da3c 7c03 0a3e
00000230: e2a1 383f dd1b 8bbe d9d6 323e b369 f1bd
00000240: c737 99be c9d2 be3e 3fbf bc3d 6635 283f
00000250: 29e8 92bf 9a46 973e 52ed e5be f377 acbd
00000260: 4ac3 fa3e 5ba0 c5be b8e3 a33e f6ab 8b3e
00000270: 95ba 00bd 4db5 d6be b3d8 d1be 4adb 2b3d
00000280: 1948 0a3d 9678 c23e 5d2b 8a3d 3ec3 463f
00000290: 9c4f 453f a5bf e1be 948f fd3f f0f6 293e
000002a0: 4268 2a3f e9fc b23f 0f2f af3b 46a8 803f
000002b0: 1b82 933e 7b7c fc3e 6d30 993d 0042 3a3f
000002c0: 2c30 46bf fad5 99be 664b 0dbf 59b2 dcbe
000002d0: d3f9 ef3d 519f f43e c6ac d5bc 1252 933c
000002e0: 6bd5 c1bf 05ca abbf 4790 c53f c693 37be
000002f0: 9a37 d9be 22cf a13f bbca 6dbe 0ffe 913d
00000300: 607e 0abe d63b a5bd 49f6 423e c136 3f3f
00000310: 3016 8dbd 1856 aa3e f9cb 203d e0dc 473f
00000320: dba5 c2be b0ad 0a3f 8bdc ae3d 04fd cbbd
00000330: 9219 46be 7c69 1f3e 2ab1 423e a224 6e3e
00000340: 8569 bbbe 6b89 22be bafe 373e 147c d2be
00000350: 2f7d e9be b4bd 5a3e 138b 97be ea5a dbbd
00000360: 3eb1 ca3d 8e0d 423e 6543 893e 7dde a03e
00000370: 6975 763f f525 d53e b6ee fe3e 2488 e8be
00000380: 729b 723f 84ef 73bd f005 0b3e 2953 afbd
00000390: dc3c 17be e665 a5bc 80af 21bf 604c afbe
000003a0: b9dd 9b3f b929 2ebe 8efc 40bf 4d22 883e
000003b0: 05d8 673f ef95 983d 6211 863e 9433 933f
000003c0: 87a1 48bf 2110 49bb f981 49bf fc9f cbbe
000003d0: 14d4 8ebf 63e0 5a3e de14 013d 1168 25bf
000003e0: a5c7 0ebe 5059 aebe 4657 a63e 07e5 d13e
000003f0: 3d5e 523f 7685 56bd 6f25 62be af61 4bbd

decoder.lstm.bias_ih_l0 f4 [256]
-0.3507838 -0.6259121 -0.33787388 -0.46698356 -0.35632166 -0.123901986 -0.4734486 -0.42775214
0.02078998 -0.33994058 -0.5546498 -0.43706506 -0.50617254 -0.5232622 -0.35766175 -0.158766
-0.47587475 -0.25985718 -0.49135327 -0.3634898 0.279591 -0.45069602 -0.44699278 -0.5748141
-0.23220772 -0.55711764 -0.5897521 -0.42464292 -0.47303748 -0.61492133 -0.28779387 -0.57424754
-0.5367999 -0.52560765 -0.5426993 -1.2156011 -0.5158842 -0.29005033 -0.009852982 -0.027334373
-0.55816853 -0.42303354 -0.38223335 -0.3116544 -0.4234526 -0.7219212 -0.6005798 -0.63147175
-0.48022005 -0.3978894 -0.6628015 -0.44676077 -0.52268857 -0.66934204 -0.6636282 -0.27870107
-0.5238958 -0.7196753 0.1956414 -0.8490588 -0.41294572 -0.22338633 -0.5353152 -0.64897716
-0.029367622 -0.17734167 -0.3043331 -0.2964364 -0.47266307 -0.2782956 -0.117904894 0.21713169
0.016274914 -0.32773456 -0.3771699 -0.5875557 0.014564432 0.5103005 -0.64998376 -0.33799604
0.16320848 -0.3134813 -0.2876207 0.88460296 -0.28960127 -0.21643977 -0.21056214 -0.81990457
0.084810115 -0.27057487 0.69706243 -0.5889965 0.058380533 -0.14247303 -0.39369205 -0.17391215
-0.0423559 -0.12668529 0.5351886 -0.38060576 -0.28368607 0.0057640783 -0.41840938 -0.93539983
0.22367227 -0.445501 -0.19609079 0.21494289 0.02016283 -0.4235542 0.24546269 -0.17575902
-0.10427535 0.03747575 -0.17504127 0.21178904 -0.9709762 -0.25648615 -0.3471641 -0.16957858
-0.36123794 -0.4217235 -0.35168928 0.6098187 -0.52509713 0.23920572 -0.17917606 -0.4443642
-0.13099355 -0.07586905 0.009847273 -0.2939201 0.045715436 -0.040417895 0.06774113 0.2125414
0.34094003 -0.11033511 0.08878588 0.14758071 -0.040339332 -0.13283847 0.17599869 -0.27237636
0.13303293 0.5582194 -0.22085756 -0.14737605 -0.34663796 0.09451417 0.14501241 0.34413025
-0.29377717 0.005490691 -0.037647996 -0.07174201 -0.33482444 0.031797923 0.19506116 -0.050789114
-0.07980091 -0.2392406 0.010310095 0.067460135 -0.16966175 0.15776841 0.30326623 0.027351683
0.0465906 0.29523653 0.51950705 0.0041611204 -0.14680724 0.006387267 -0.14044991 0.1297777
-0.09255901 -0.083386675 -0.088031426 0.09184572 0.10365117 0.006877767 0.15012762 -0.2796158
-0.16113874 -0.29248926 -0.12028181 -0.11853225 -0.39584947 -0.32397488 -0.15511452 0.021155428
-0.6629458 -0.7475866 -0.18963476 -0.49340767 -0.45036617 0.16328195 -0.54509467 -0.16893879
-0.6240719 -0.4109558 -0.7340616 -0.608848 -0.7451815 -0.60817105 -0.43698117 -0.2419561
-0.57439095 -0.27243653 -0.39260462 -0.70269436 0.17189826 -0.5266278 -0.58416826 -0.55083805
-0.023279954 -0.48679534 -0.14480913 -0.5285928 -0.51316905 -0.42505363 -0.26426458 -0.78502065
-0.56792676 -0.3208543 -0.19800644 -0.83012784 -0.91852605 -0.51762795 -0.37862763 0.017763026
-0.19396506 -0.70472133 -0.43306023 -0.5483938 -0.6822907 -0.7745265 -0.68855935 -0.5982715
-0.5907665 -0.38855192 -0.62218374 -0.31203452 -0.49464414 -0.64500475 -0.7628805 -0.30386665
-0.49018353 -0.7148037 0.87937284 -1.164861 -0.528401 0.1019876 -0.7974777 -0.6198691
00000000: ef99 b3be c63b 20bf cefd acbe 7818 efbe
00000010: cb6f b6be 53c0 fdbd db67 f2be 5402 dbbe
00000020: c04f aa3c b10c aebe 87fd 0dbf fec6 dfbe
00000030: 8694 01bf 83f4 05bf 711f b7be 8e93 22be
00000040: dba5 f3be 000c 85be a892 fbbe 561b babe
00000050: 8d26 8f3e a1c1 e6be 3ddc e4be 0427 13bf
00000060: dcc7 6dbe 439f 0ebf fef9 16bf cc6a d9be
00000070: f831 f2be 7c6b 1dbf b859 93be e301 13bf
00000080: b86b 09bf 398e 06bf 57ee 0abf d198 9bbf
00000090: fd10 04bf 7a81 94be 676e 21bc 56ec dfbc
000000a0: 22e4 0ebf da97 d8be 17b4 c3be 2a91 9fbe
000000b0: c7ce d8be d4cf 38bf 99bf 19bf 22a8 21bf
000000c0: 67df f5be 29b8 cbbe 5cad 29bf d4bd e4be
000000d0: ebce 05bf 005a 2bbf 8ae3 29bf e8b1 8ebe
000000e0: 091e 06bf a43c 38bf 3856 483e eb5b 59bf
000000f0: 9f6d d3be 63bf 64be 6b0a 09bf 5e23 26bf
00000100: 5e94 f0bc 0e99 35be 8cd1 9bbe 83c6 97be
00000110: e500 f2be c37c 8ebe 1f78 f1bd c557 5e3e
00000120: f852 853c d3cc a7be 6a1c c1be 0d6a 16bf
00000130: a89f 6e3c 0ea3 023f 5665 26bf d10d adbe
00000140: 2020 273e 9f80 a0be 0543 93be 5775 623f
00000150: 9e46 94be 63a2 5dbe 9a9d 57be 44e5 51bf
00000160: edb0 ad3d ca88 8abe af72 323f 7ac8 16bf
00000170: 6d20 6f3d 73e4 11be 0192 c9be 0716 32be
00000180: 617d 2dbd cab9 01be 1f02 093f c2de c2be
00000190: 4d3f 91be 98e0 bc3b c139 d6be 5d76 6fbf
000001a0: 580a 653e b518 e4be 06cc 48be fd19 5c3e
000001b0: 852c a53c 19dc d8be 925a 7b3e 2cfa 33be
000001c0: 518e d5bd 2c80 193d 053e 33be 3adf 583e
000001d0: e591 78bf 2752 83be 7ebf b1be 02a6 2dbe
000001e0: 2ef4 b8be 25ec d7be 9e10 b4be 141d 1c3f
000001f0: c46c 06bf 58f2 743e ee79 37be b483 e3be
00000200: 2c23 06be 3c61 9bbd 7556 213c b27c 96be
00000210: 1c40 3b3d 3c8d 25bd ddbb 8a3d 74a4 593e
00000220: b18f ae3e 60f7 e1bd 5fd5 b53d 661f 173e
00000230: db3a 25bd cf06 08be 0039 343e ea74 8bbe
00000240: c939 083e 77e7 0e3f 7c28 62be bfe9 16be
00000250: 887a b1be a590 c13d 227e 143e d731 b03e
00000260: f669 96be 41eb b33b c934 1abd 7aed 92bd
00000270: 1c6e abbe 8a3e 023d 1dbe 473e 3f08 50bd
00000280: a96e a3bd 7dfb 74be aceb 283c 8a28 8a3d
00000290: cfbb 2dbe 0b8e 213e b645 9b3e a310 e03c
000002a0: c9d5 3e3d 3e29 973e 6afe 043f 025a 883b
000002b0: a354 16be 474c d13b 1ad2 0fbe 72e4 043e
000002c0: 948f bdbd a2c6 aabd d249 b4bd 9c19 bc3d
000002d0: 1147 d43d e45e e13b 0ebb 193e cd29 8fbe
000002e0: 8e01 25be 27c1 95be 4f56 f6bd 09c1 f2bd
000002f0: c8ac cabe 09e0 a5be 57d6 1ebe 264e ad3c
00000300: d1b6 29bf d661 3fbf 9d2f 42be ee9f fcbe
00000310: 6596 e6be 6233 273e 538b 0bbf 4afe 2cbe
00000320: 2dc3 1fbf cc68 d2be 76eb 3bbf 76dd 1bbf
00000330: 37c4 3ebf 19b1 1bbf ffbb dfbe 57c3 77be
00000340: 490b 13bf cd7c 8bbe 7903 c9be c7e3 33bf
00000350: 1906 303e 14d1 06bf 0d8c 15bf b903 0dbf
00000360: 9ab5 bebc 3d3d f9be d848 14be dc51 07bf
00000370: 0c5f 03bf a1a0 d9be b04d 87be 1df7 48bf
00000380: a663 11bf 0447 a4be 33c2 4abe 4283 54bf
00000390: 8624 6bbf 4483 04bf 7bdb c1be c483 913c
000003a0: c79e 46be 9e68 34bf 12ba ddbe 8963 0cbf
000003b0: 9aaa 2ebf 5e47 46bf 6d45 30bf 5228 19bf
000003c0: 793c 17bf 47f0 c6be 6f47 1fbf fdc2 9fbe
000003d0: ff41 fdbe 081f 25bf 234c 43bf 6994 9bbe
000003e0: 56f9 fabe 60fd 36bf 941e 613f 2a1a 95bf
000003f0: 4a45 07bf e0de d03d 8027 4cbf beaf 1ebf
