results/LSTM_single_layer/2751_model.pt (torch, 967425 bytes, 10 tensors)

output_zeros f4 [400, 512, 1]
00000000: 0000 0000 0000 0000 0000 0000 0000 0000
00000010: 0000 0000 0000 0000 0000 0000 0000 0000
00000020: 0000 0000 0000 0000 0000 0000 0000 0000
00000030: 0000 0000 0000 0000 0000 0000 0000 0000
00000040: 0000 0000 0000 0000 0000 0000 0000 0000
00000050: 0000 0000 0000 0000 0000 0000 0000 0000
00000060: 0000 0000 0000 0000 0000 0000 0000 0000
00000070: 0000 0000 0000 0000 0000 0000 0000 0000
00000080: 0000 0000 0000 0000 0000 0000 0000 0000
00000090: 0000 0000 0000 0000 0000 0000 0000 0000
000000a0: 0000 0000 0000 0000 0000 0000 0000 0000
000000b0: 0000 0000 0000 0000 0000 0000 0000 0000
000000c0: 0000 0000 0000 0000 0000 0000 0000 0000
000000d0: 0000 0000 0000 0000 0000 0000 0000 0000
000000e0: 0000 0000 0000 0000 0000 0000 0000 0000
000000f0: 0000 0000 0000 0000 0000 0000 0000 0000
00000100: 0000 0000 0000 0000 0000 0000 0000 0000
00000110: 0000 0000 0000 0000 0000 0000 0000 0000
00000120: 0000 0000 0000 0000 0000 0000 0000 0000
00000130: 0000 0000 0000 0000 0000 0000 0000 0000
00000140: 0000 0000 0000 0000 0000 0000 0000 0000
00000150: 0000 0000 0000 0000 0000 0000 0000 0000
00000160: 0000 0000 0000 0000 0000 0000 0000 0000
00000170: 0000 0000 0000 0000 0000 0000 0000 0000
00000180: 0000 0000 0000 0000 0000 0000 0000 0000
00000190: 0000 0000 0000 0000 0000 0000 0000 0000
000001a0: 0000 0000 0000 0000 0000 0000 0000 0000
000001b0: 0000 0000 0000 0000 0000 0000 0000 0000
000001c0: 0000 0000 0000 0000 0000 0000 0000 0000
000001d0: 0000 0000 0000 0000 0000 0000 0000 0000
000001e0: 0000 0000 0000 0000 0000 0000 0000 0000
000001f0: 0000 0000 0000 0000 0000 0000 0000 0000
00000200: 0000 0000 0000 0000 0000 0000 0000 0000
00000210: 0000 0000 0000 0000 0000 0000 0000 0000
00000220: 0000 0000 0000 0000 0000 0000 0000 0000
00000230: 0000 0000 0000 0000 0000 0000 0000 0000
00000240: 0000 0000 0000 0000 0000 0000 0000 0000
00000250: 0000 0000 0000 0000 0000 0000 0000 0000
00000260: 0000 0000 0000 0000 0000 0000 0000 0000
00000270: 0000 0000 0000 0000 0000 0000 0000 0000
00000280: 0000 0000 0000 0000 0000 0000 0000 0000
00000290: 0000 0000 0000 0000 0000 0000 0000 0000
000002a0: 0000 0000 0000 0000 0000 0000 0000 0000
000002b0: 0000 0000 0000 0000 0000 0000 0000 0000
000002c0: 0000 0000 0000 0000 0000 0000 0000 0000
000002d0: 0000 0000 0000 0000 0000 0000 0000 0000
000002e0: 0000 0000 0000 0000 0000 0000 0000 0000
000002f0: 0000 0000 0000 0000 0000 0000 0000 0000
00000300: 0000 0000 0000 0000 0000 0000 0000 0000
00000310: 0000 0000 0000 0000 0000 0000 0000 0000
00000320: 0000 0000 0000 0000 0000 0000 0000 0000
00000330: 0000 0000 0000 0000 0000 0000 0000 0000
00000340: 0000 0000 0000 0000 0000 0000 0000 0000
00000350: 0000 0000 0000 0000 0000 0000 0000 0000
00000360: 0000 0000 0000 0000 0000 0000 0000 0000
00000370: 0000 0000 0000 0000 0000 0000 0000 0000
00000380: 0000 0000 0000 0000 0000 0000 0000 0000
00000390: 0000 0000 0000 0000 0000 0000 0000 0000
000003a0: 0000 0000 0000 0000 0000 0000 0000 0000
000003b0: 0000 0000 0000 0000 0000 0000 0000 0000
000003c0: 0000 0000 0000 0000 0000 0000 0000 0000
000003d0: 0000 0000 0000 0000 0000 0000 0000 0000
000003e0: 0000 0000 0000 0000 0000 0000 0000 0000
000003f0: 0000 0000 0000 0000 0000 0000 0000 0000
0.0 0.0 0.0 0.0 0.0 0.0 0.0 0.0
0.0 0.0 0.0 0.0 0.0 0.0 0.0 0.0
0.0 0.0 0.0 0.0 0.0 0.0 0.0 0.0
0.0 0.0 0.0 0.0 0.0 0.0 0.0 0.0
0.0 0.0 0.0 0.0 0.0 0.0 0.0 0.0
0.0 0.0 0.0 0.0 0.0 0.0 0.0 0.0
0.0 0.0 0.0 0.0 0.0 0.0 0.0 0.0
0.0 0.0 0.0 0.0 0.0 0.0 0.0 0.0
0.0 0.0 0.0 0.0 0.0 0.0 0.0 0.0
0.0 0.0 0.0 0.0 0.0 0.0 0.0 0.0
0.0 0.0 0.0 0.0 0.0 0.0 0.0 0.0
0.0 0.0 0.0 0.0 0.0 0.0 0.0 0.0
0.0 0.0 0.0 0.0 0.0 0.0 0.0 0.0
0.0 0.0 0.0 0.0 0.0 0.0 0.0 0.0
0.0 0.0 0.0 0.0 0.0 0.0 0.0 0.0
0.0 0.0 0.0 0.0 0.0 0.0 0.0 0.0
0.0 0.0 0.0 0.0 0.0 0.0 0.0 0.0
0.0 0.0 0.0 0.0 0.0 0.0 0.0 0.0
0.0 0.0 0.0 0.0 0.0 0.0 0.0 0.0
0.0 0.0 0.0 0.0 0.0 0.0 0.0 0.0
0.0 0.0 0.0 0.0 0.0 0.0 0.0 0.0
0.0 0.0 0.0 0.0 0.0 0.0 0.0 0.0
0.0 0.0 0.0 0.0 0.0 0.0 0.0 0.0
0.0 0.0 0.0 0.0 0.0 0.0 0.0 0.0
0.0 0.0 0.0 0.0 0.0 0.0 0.0 0.0
0.0 0.0 0.0 0.0 0.0 0.0 0.0 0.0
0.0 0.0 0.0 0.0 0.0 0.0 0.0 0.0
0.0 0.0 0.0 0.0 0.0 0.0 0.0 0.0
0.0 0.0 0.0 0.0 0.0 0.0 0.0 0.0
0.0 0.0 0.0 0.0 0.0 0.0 0.0 0.0
0.0 0.0 0.0 0.0 0.0 0.0 0.0 0.0
0.0 0.0 0.0 0.0 0.0 0.0 0.0 0.0

encoder.lstm.weight_ih_l0 f4 [256, 4]
00000000: fb46 15bd 676b 41be 7245 a23f 9729 b73e
00000010: a388 32be d77e de3e 3dba 0140 8e15 01bf
00000020: 9eb3 2bbe f455 8dbe 2a87 3fbd 1e0e 2abe
00000030: 8ecc bc3e 89b7 6d3d 40ad d43e 80b1 c1be
00000040: 4869 00bf 609d 4c3e 49ec 26be 7a50 bebe
00000050: ff44 09be b800 2bbe 71e5 483f 2a88 c0be
00000060: ac58 be3d b3d2 8c3f a36e 65bf f962 5c3f
00000070: e892 a33c aba3 3fbe a2d8 503f 7420 f1bd
00000080: 5787 08bf d053 673f 0e57 093d 408a 2fbf
00000090: 4696 423e 242e cc3d ccbd 33be 087d 7bbe
000000a0: 3778 433e 770c 613e 6f34 3e3f e3c2 1f3d
000000b0: 7f39 9f3e 3dff e0be 9b6f 8dbe 0b24 09be
000000c0: cfea 933e 5907 d53e 5fca 82be c8b8 e23e
000000d0: 08ce dc3d 74c9 343f 553a b03e e12c 493f
000000e0: 8669 cabe 1260 703e 8442 abbb c620 0abe
000000f0: 2b1a b2bd cd0a 1a3f f0d9 92be 327d 37be
00000100: 985f f53e 61db e03d c19f 813d badc 0c3e
00000110: 2fad 1dbe 798d d93e 8a3e c83e dce2 0c3d
00000120: dd29 0b3f 623e 3dbf a2f0 703c 0765 18bf
00000130: a4b2 2dc0 26e3 e6bf 5fd6 b040 df4e acbf
00000140: c9a0 c33e b7fb 13bf 2b3e 063e c19a e53d
00000150: 877e 263f 6138 a7bf c4b0 c5bf 2715 b7be
00000160: 24b4 ddbe bffb bd3d 36d8 db3e f2b9 a1be
00000170: 0b5c 0a3e 5bfc 183e 0a15 febd c18e 5b3e
00000180: 7b8b 27be b208 4b3d 9290 bf3e b6be 2f3e
00000190: 363e fa3d 72f8 963c 05c4 b13e eec0 ebbe
000001a0: a5d7 0bbe b2f2 e33e 92c1 913e fba0 343f
000001b0: 871c f7bd 9a96 bf3e 2768 05bf 5191 bb3c
000001c0: e5cd 263e 1c4b e5be 2b78 393f 2f4a b83d
000001d0: 4319 893e ca28 cd3d 8e3b de3d cd17 41be
000001e0: 009e 0140 7b57 4940 0ca0 ef3f 69a8 3cc0
000001f0: 20c5 ba3c 3f79 113e 6705 a53e 7776 33be
00000200: 3f3d af3e 413f bd3e 089c f53e 0629 8bbe
00000210: 3595 8b3e f622 4f3d 0680 c1be f78f 30bf
00000220: 8fe2 98bd 07ce 97be 7f7f cc3e 16c6 b73d
00000230: 8b8b c0bc 46b2 203f 259c 033e 31c7 28bf
00000240: 35ac b9be 3417 b23c cc5c 8c3e bf30 6fbd
00000250: 1beb b03e 248d 813d 7d34 f63d 323a 56be
00000260: 5d85 103e 4a4d 6f3e a057 703e 54ab 0e3f
00000270: 2023 ed3e 34ff 633f 4000 683f 943a 4f3e
00000280: c406 86ba 519b ce3c 2fc0 01bf 21f9 a9be
00000290: ecfe 97be c9ca 053f 6569 3b3e 8c16 c93d
000002a0: 614e f63c 5fec 133e a213 73be 4d55 403e
000002b0: 977d b0bf b994 623f 1a8d 43bf fa5a 0f3c
000002c0: 6726 af3e d713 44be ea23 2d3d 11a2 0b3f
000002d0: b6c8 d53f 7161 f83e 7e99 2ebe 1f98 193e
000002e0: 5fea 8a3e 590a 253e 5d63 f5be bd6f 783e
000002f0: d547 1c3f 8e95 d3bf d00b 16bf 5fcb a7bf
00000300: 2dbd 5abe bbd7 8d3e e158 0f3e f16d d4bc
00000310: 937f 8b3d 6f00 85bd d618 1c3f 15bf cebe
00000320: e42f f1bd 6311 aebd 9775 8c3e 499b 173d
00000330: 3b79 553f 3fed f4be 130e ed3c 27c3 ffbd
00000340: 54d3 563f 8a04 dcbf eaf8 3b40 5811 6b3f
00000350: f0f9 1f3e e5c3 393f f844 e6be 9fe1 04bf
00000360: f957 95bd 4bb0 343f ed38 a2be 0d9e 43bd
00000370: ba9c f03e 3927 cc3e cf0c 943e 26c0 90be
00000380: 05c2 4ebe 8c0a 873d debe edbd 9085 28bf
00000390: cdee 573f a171 ef3e f1a3 b93e 8e17 d13d
000003a0: f3f0 6a3e f154 fa3e 2522 463e 0eb4 843e
000003b0: 41af 11bd 7216 8c3e 2e2c ff3e 0a41 d43e
000003c0: 19d2 673f a90c 053f 34f5 c8be e74d 7dbe
000003d0: 6bda 223c 1243 943e cfe8 43bf dbfe f0be
000003e0: 3b51 d6be d6f5 073e 19b3 a2bd 21f3 9b3a
000003f0: bfe5 683e eda4 bb3e fc89 073f d63d 863f
-0.036444645 -0.18888627 1.2677443 0.35773918 -0.17434935 0.43456146 2.026992 -0.50423515
-0.16767737 -0.2760464 -0.046759762 -0.16606948 0.36874813 0.05803636 0.4153843 -0.37830734
-0.50160646 0.19981909 -0.16301073 -0.37170774 -0.13405226 -0.16699493 0.784751 -0.37603885
0.092942566 1.10018 -0.89621943 0.8608852 0.019967511 -0.18714778 0.81580555 -0.11773768
-0.5333151 0.9036226 0.033530287 -0.6857033 0.19002637 0.09969738 -0.1755287 -0.24559414
0.19088827 0.21977411 0.7429876 0.039004218 0.31098554 -0.4394473 -0.2762421 -0.13392656
0.28890082 0.41607168 -0.25545022 0.44281602 0.10781485 0.70619893 0.34419504 0.78584105
-0.39533633 0.23474148 -0.005226435 -0.13489065 -0.086963974 0.6017273 -0.28681898 -0.17918852
0.47924495 0.10979343 0.06329299 0.13756076 -0.15398096 0.42490748 0.39110214 0.034396037
0.54360753 -0.73923314 0.014705809 -0.59529155 -2.7140284 -1.803807 5.5261683 -1.346157
0.38208607 -0.5780596 0.13109653 0.112111576 0.65036815 -1.306408 -1.544457 -0.35758325
-0.433015 0.092765324 0.42938393 -0.31587178 0.13511674 0.14940016 -0.12406357 0.21441175
-0.16361801 0.04956884 0.37414986 0.17162594 0.12218897 0.018429015 0.34719864 -0.4604563
-0.1365648 0.445211 0.28467995 0.70558137 -0.12065988 0.37419587 -0.5211205 0.02289644
0.1628948 -0.44783866 0.72448987 0.089985244 0.26777086 0.100175455 0.10851203 -0.18856736
2.0252686 3.1459644 1.8720717 -2.947779 0.022799075 0.14206408 0.32230684 -0.1752566
0.34226415 0.3696232 0.47970605 -0.27179736 0.27262273 0.05057045 -0.37792987 -0.6896967
-0.074650876 -0.29649374 0.39941022 0.08973329 -0.02350404 0.62772024 0.12852533 -0.6592894
-0.36264196 0.02173958 0.27414548 -0.058396097 0.3455437 0.063257486 0.1202173 -0.20920637
0.14113374 0.23369327 0.23470926 0.55730176 0.4631586 0.89061284 0.9062538 0.2023719
-0.0010225405 0.025220545 -0.50683874 -0.33197883 -0.29686677 0.5226255 0.18301924 0.098187536
0.03006667 0.14445637 -0.23737958 0.1878254 -1.3788327 0.8850818 -0.7638718 0.008749718
0.34208986 -0.19148193 0.04227058 0.5454417 1.6701877 0.48511842 -0.1705074 0.14999436
0.27131936 0.16117229 -0.4792737 0.24261375 0.61047107 -1.6530015 -0.58611774 -1.3108939
-0.21361227 0.27703652 0.13998748 -0.02593133 0.06811442 -0.06494223 0.60975397 -0.4038016
-0.117767125 -0.0849941 0.27433464 0.037013326 0.8338811 -0.47837254 0.028937375 -0.12488394
0.8391621 -1.7188885 2.9370675 0.9182334 0.15622687 0.72564536 -0.44974494 -0.5190677
-0.0729217 0.705815 -0.31684056 -0.04775815 0.46994573 0.39873675 0.28916022 -0.28271598
-0.201912 0.065938085 -0.11608671 -0.658288 0.84348756 0.4676638 0.3625789 0.10209571
0.22943477 0.4889293 0.19348963 0.2591862 -0.035567526 0.27360874 0.49838394 0.4145587
0.9055496 0.5197244 -0.39249575 -0.24736749 0.00993977 0.2895742 -0.7652711 -0.4706944
-0.4185885 0.13277373 -0.079443164 0.001189802 0.22743891 0.36649266 0.5294492 1.0487621

encoder.lstm.weight_hh_l0 f4 [256, 64]
00000000: ea27 99be 3b4e d3be 8c5a 54bb ae8a 2ebe
00000010: a47d b63e a834 673e 6cfd 70bc cb12 39bf
00000020: 269c 813e caab 89bc 4bba 12be 82e4 e4bd
00000030: 507a d83e 62b4 773e 94e4 723e 7559 9e3d
00000040: 0d54 b0bc 1217 fe3e bc86 5b3f 6382 a8be
00000050: 556a a93d 314c 84bd 7cb0 dbbe 5e53 be3e
00000060: 54be b6bd d8c4 a63d 8125 cc3c 8a53 8c3e
00000070: 39b0 c43e cbbf 61bd 6f35 17be dd14 893e
00000080: 4d96 3abe 1d74 42be e71b 073e 090b 983e
00000090: 2840 b93e 049f 093d fed3 a8be c6e9 3dbc
000000a0: 25db 10bf 2b85 a8be 1ae7 5cbe de60 9c3e
000000b0: b86a f83c 5c92 d9be 60b8 46be bde7 b83e
000000c0: 9b7a 74be 4163 673f 3071 a23e 1044 fabc
000000d0: aa97 4c3e 5fa0 d23e d4e7 233e 7664 183e
000000e0: 56ab 8bbb 1519 1bbd 68bb 67be c6de 783d
000000f0: 386e bebc 7542 26bf e43f 95be 8ed7 393e
00000100: fe08 0fbf e9bb 5e3e f537 97be 41ca f53d
00000110: fc2a babe d122 20be d3fd 443e 3906 e73e
00000120: ee6d 14be 2691 103e 497e 3ebe 3f36 06bf
00000130: bf1c c23e 0fb2 2dbd 0a82 e1be 7f72 e8bd
00000140: fb87 0dbd 6ffd ae3d 884e ed3e 5a5a 5d3f
00000150: 0902 babe 691f a73d ca8d dd3e b511 be3e
00000160: 6251 bcbe bb36 0fbe 7682 e33e d452 0abe
00000170: 368f e6bd 837a dc3e 210c 823e 0d43 a3bd
00000180: 905d d13d 727f 3fbc 60b9 273f bb6c 8d3f
00000190: a20c 85be c9c0 253d 67ad 1cbf b980 413f
000001a0: 65c8 fdbc 488b 2b3e 8ad0 77be f9c5 013f
000001b0: 72f2 be3e 8de1 833d b7c1 513f fb7b 07bf
000001c0: e0a7 553e 879a 433d 598d 80be fc17 393e
000001d0: 3708 bc3e c31f ddbd e25e d2be e74a eabe
000001e0: 40e4 b8bb 4921 523e ccb7 7c3f bbcf 103f
000001f0: ccc3 c0be 5f07 773c 1a1d 5b3e 5e87 44be
00000200: f0ae 6a3e 01a9 1f3f 1729 453e 7919 04be
00000210: 25c8 60bd d11b b53d 1b0d 25bf 5804 193f
00000220: 4d09 12bf ff54 34be 282d 93be cc8d 1f3f
00000230: 30a4 f73e 9370 493f ba71 ac3c 035f cf3e
00000240: 833b a9be 6740 803c 0114 673e 5001 6cbf
00000250: dcdf 80be e95f 1b3f 8357 8d3c a647 653e
00000260: df78 ec3e a4a5 0a3e 78ff 563e a6f2 083f
00000270: 2a26 39be 9516 b3be 7e86 0b3f edb4 cfbc
00000280: 609f 0cbf 7be2 dc3e 6c4f d53e 50b2 143e
00000290: daac 79be 9ef6 fdbe 101e 2bbe b3c1 633b
000002a0: c5e2 d4bd 3ecf 643e 118a d03e b67c f0bb
000002b0: d6a8 253c efce 7dbe f49f 623e 4600 fb3e
000002c0: 1503 dabe c2c9 8dbe a667 1dbd 0ee5 893e
000002d0: a342 db3e 0725 4f3e 2f8d f1bd 0695 0ebf
000002e0: d16c 0abd 2ecc e4bd 917f c63e f780 a03e
000002f0: d94e 423e 9949 223e b024 683e 34c6 523e
00000300: d976 dabe 54f2 07bd 9b5c 173e c39c 093c
00000310: 4d0d aa3d b8c2 b6bc 6ff0 9b3e b1d1 6ebe
00000320: c619 c13c f172 d1bc 797d 773d 3039 223e
00000330: 2b0d 2cbe 3c28 3a3f 69a1 16be 9ea4 4d3e
00000340: 4a1b 523e c21c 753d a722 b3bc 58c2 67bf
00000350: 8775 8a3e 2494 c4be 2887 34bd 0bb4 293e
00000360: 9d6f 2ebe b7aa 463f 8e82 1a3e 6fc5 7f3d
00000370: 9ba4 b0be e1c0 9d3e 5db1 e2be 92b9 8abe
00000380: d53c 8bbd 4a38 89be 2b06 60bd 44ff 9a3e
00000390: 65f5 81be 8686 3cbe d8e9 d1bb 998e 573e
000003a0: 9a11 a73d 1cd9 78bd c896 043e 73cb 643d
000003b0: 4f4d 053e 5682 98bf adc1 263f 61b0 11bc
000003c0: b697 d1be 6206 fb3c cc52 b03d 970c 04bd
000003d0: c3ae c13c 643e 683e 7750 02bf 3e29 853a
000003e0: 3042 43be 79de 03bf 0473 423e 3851 b73e
000003f0: 359e 2cbe 5112 f83d 0bde f53d 11b6 ab3e
-0.29913265 -0.41270623 -0.0032402603 -0.1704509 0.3564273 0.2257868 -0.014708858 -0.722943
0.25314444 -0.016805548 -0.14328878 -0.11176397 0.42280817 0.24189904 0.23720008 0.07731906
-0.021524454 0.49626976 0.85752463 -0.32911977 0.08272234 -0.06459845 -0.42908084 0.3717298
-0.08923021 0.08143014 0.024920227 0.27407485 0.38415697 -0.05511455 -0.14766477 0.2677373
-0.18221398 -0.18989606 0.13194238 0.2969592 0.3618176 0.033598915 -0.32974237 -0.01159138
-0.5658439 -0.329141 -0.21572533 0.30542654 0.030324325 -0.42494476 -0.19406271 0.36114302
-0.23874895 0.90385824 0.3172698 -0.030550033 0.1997973 0.41137978 0.16006404 0.14882073
-0.004262368 -0.037865717 -0.22630084 0.06075933 -0.023245916 -0.64945155 -0.29150307 0.18148634
-0.55873096 0.2175137 -0.2953488 0.120014675 -0.3636092 -0.15638281 0.19237451 0.45121935
-0.1449506 0.1411787 -0.18602861 -0.5242652 0.37912557 -0.042406138 -0.44044524 -0.113499634
-0.03455351 0.08544432 0.46348977 0.8646599 -0.36329678 0.08160288 0.4327224 0.37122884
-0.3678084 -0.13985722 0.4443547 -0.13508159 -0.11257784 0.4306222 0.2539988 -0.07971773
0.10222924 -0.0116881 0.65517235 1.1048807 -0.259862 0.040467057 -0.6120209 0.7558704
-0.030979345 0.1675235 -0.24200645 0.5069271 0.37294346 0.06439505 0.8193621 -0.52923554
0.2086482 0.04775479 -0.2510784 0.18075556 0.36725017 -0.10797074 -0.41088015 -0.4576027
-0.005642444 0.2052051 0.9871795 0.5656697 -0.3764938 0.015077441 0.2139782 -0.19192263
0.22918296 0.62367254 0.19253956 -0.12900342 -0.054878373 0.08843196 -0.6447312 0.59772253
-0.5704544 -0.17610548 -0.2874539 0.6232574 0.48367453 0.786874 0.021050323 0.40502176
-0.33053216 0.01565571 0.22566225 -0.921895 -0.2517079 0.6069322 0.017253643 0.22390613
0.46185967 0.1353975 0.20995891 0.5349525 -0.18080965 -0.34978166 0.54502094 -0.025354827
-0.54930687 0.4314154 0.41662157 0.14521146 -0.24382344 -0.49602216 -0.16710687 0.0034752905
-0.10394815 0.22344682 0.40730336 -0.0073390855 0.010111054 -0.2478597 0.2213133 0.49023646
-0.42580476 -0.27692991 -0.038428925 0.26932567 0.42824277 0.20228969 -0.11794507 -0.5569614
-0.03379518 -0.11171757 0.387692 0.31348392 0.1897539 0.15848388 0.22670245 0.20583421
-0.426688 -0.033190086 0.1478142 0.008399191 0.08303318 -0.022309646 0.30456874 -0.23322178
0.02357186 -0.025567504 0.060422394 0.15842128 -0.16801898 0.7271764 -0.1471001 0.20082328
0.20518222 0.05984188 -0.02186711 -0.9053092 0.2704279 -0.38394272 -0.044074208 0.16572587
-0.17034765 0.7760424 0.15088865 0.062444147 -0.34500584 0.30811217 -0.44275942 -0.27094704
-0.06798712 -0.26800758 -0.054693382 0.30272877 -0.25382534 -0.18410692 -0.00640605 0.2105049
0.08157654 -0.060753927 0.12948143 0.055858087 0.13017772 -1.1914775 0.65139276 -0.00889215
-0.4093606 0.030642692 0.08609542 -0.03223857 0.023642903 0.2268005 -0.5090403 0.0010159386
-0.19068217 -0.5151134 0.18989187 0.35804152 -0.16857226 0.121128686 0.12005242 0.33537343

encoder.lstm.bias_ih_l0 f4 [256]
00000000: 523a df3d dfa2 8c3e 03ef 463e cde5 543e
00000010: 6d02 cbbe 45cf 3bbe 0a6e a0be 0654 b53e
00000020: a758 27be 2791 e6bc f7cb ac3e 4b69 19bf
00000030: a42f ce3e f5c9 3c3e 1885 9c3e e9d9 8f3d
00000040: b0bf b93d ce7d 8f3e 0834 9c3c 39f0 05bc
00000050: 248f 0ebe e125 723b fa94 20bf bbef b03e
00000060: 0645 82bb c269 993e 90dd 85bd dc4a d53e
00000070: f651 ee3e 8cf6 773d 3677 5cbe 9811 cebd
00000080: 1d9d a63e 789e 67be 0c45 afbd 11f3 47be
00000090: eeb6 843e de1d 96be e056 233e e187 0cbd
000000a0: e806 5fbe 6b36 8f3e ea40 3fbe 739d 46bd
000000b0: 26ba 683e d1a9 ff3c 3504 93be 5e5b fcbd
000000c0: 7dc9 773e 6b05 acbd 8be0 8d3e fab7 cabb
000000d0: eedf f73d 7682 6dbd 2a92 04be 1703 d83e
000000e0: c141 ffbe 82ed 803e 99bd bc3d 4f43 883e
000000f0: 4033 1dbf a22d 29bf 5ffe 6abe 0534 9e3e
00000100: 1a11 0c3f e898 c7be f63e 08be 3415 dcbe
00000110: ae2e 55be 3981 f5be 73d9 01bf 55e6 b2be
00000120: d8f7 443e 6695 4abe a548 a83e 0ebb 09bf
00000130: 4a98 a9be 9599 d6be dedc 0f3f 4b52 893e
00000140: d49e 0abf 4f98 bb3d 863a d63e 771c 7abf
00000150: 25ec 31be c07c 803e e3b7 cbbe cc2a 07be
00000160: 1916 863e 3158 823e d5e7 23bf 6af1 2bbc
00000170: 800c c13e a6cc b73d 1252 b8be 3729 2cbe
00000180: 3ff3 90be 6f5f 8fbd 5313 17be ee36 63bc
00000190: 53c6 04bf f506 3fbe 1b8e 99be 25dd 1bbf
000001a0: f15f 38be c607 e53e ed4c d0bd 1196 69bf
000001b0: e53d 3dba ec38 5bbd cd82 74be 4c6e 63be
000001c0: bf15 efbe eebc 9cbe 09a2 113f 4a32 0fbf
000001d0: 59fb b6be 00b0 93be d67f a8be e859 febe
000001e0: 74d1 82be 3b17 653e d08d 00bf 8105 6dbe
000001f0: b085 11bf 350e bebe c95b 8bbe df00 babe
00000200: 4c52 64be 06b1 e4be 55ab 1e3f 2e2b fcbe
00000210: 52e1 a9bd 5ea4 0e3e 1e71 8cbe 0db5 c6be
00000220: ba81 ba3e e3d0 e7bd f271 8bbe da5a 91be
00000230: 30ad 013e 16e4 b63e dab2 153e 3c13 bc3d
00000240: ad8f 383e 4089 a1bb 41f7 0b3d 0c39 bebd
00000250: 9d17 093d 1279 35bd f867 08bf 92c4 963e
00000260: a074 19be b242 3b3d 887a d33e b294 adbd
00000270: 1d26 893d 03ec 77be 9929 69be 587a 393a
00000280: 9ed6 cebe 1f7e 4dbe 39e1 09be ab19 4a3e
00000290: b5a0 b23e e19d 913e 1b1b eb3d 8db9 033f
000002a0: 4fcb 19be ba61 25bf e99e 7c3e 22b4 20be
000002b0: e383 7e3e a0f4 d7bc ccbf e93e 7ace 6d3e
000002c0: ea2a 5ebe 5f31 f93e ebe4 a23e 9403 4fbe
000002d0: 9651 d4be 1d63 153e 518a c4be 94db f9be
000002e0: d825 483e aa69 03bf 3d8d 973e aba1 dd3e
000002f0: f3aa ee3e d304 d9be 8e94 76be 878d 0a3c
00000300: e265 8cbe 4ef6 e13d ec55 0bbe e097 07bf
00000310: 974a 2dbe 6256 2cbf cef7 1c3d b75a f1be
00000320: 514f b9be 9957 2bbf f426 9a3e 60f6 bfbe
00000330: c7eb 5a3e 344b 1c3e 8935 933e 1244 3b3e
00000340: 537d f93e 07ce b0bd c2c1 093e be07 133f
00000350: e85d d3bd 81e4 71be 5f7e e1be 73a5 9fbe
00000360: 1a81 20be 5306 b83e 14a2 d5bd c049 133b
00000370: e064 b5be 66e9 943d f55c b3be 7421 2fbe
00000380: 486a 853e 2d3a a2bc 9b2f 593e e70b 0fbf
00000390: fda2 093e fc26 1ebe f16a ef3c b82a b8be
000003a0: ddc1 a43e a27e d33d fc20 14be b638 e3bc
000003b0: f93b 11bd 9048 6a3e 3c55 39be 51ea e5bc
000003c0: 6a06 fdbd 2c2b 0d3e 2664 743e 413e 0bbf
000003d0: 81fb c23e f8a2 663e 1e82 053e abea 033f
000003e0: 26a7 b6be 0dfb 8b3e e279 7a3d 9967 043f
000003f0: 758c 8cbd cc82 bebe e765 07bf 18ab a83d
0.108997956 0.2746801 0.19427113 0.20790787 -0.39650288 -0.18340786 -0.31333953 0.35415667
-0.16342412 -0.028145386 0.33749363 -0.5992629 0.40270722 0.18436415 0.30570292 0.07023985
0.090697646 0.2802567 0.01906778 -0.008174949 -0.13921791 0.0036948847 -0.6272732 0.345579
-0.0039755134 0.299635 -0.065364 0.41658676 0.46546906 0.06053786 -0.2152985 -0.100619495
0.32541743 -0.22619045 -0.085580915 -0.19526316 0.25920814 -0.29319662 0.15951109 -0.03430927
-0.21779978 0.27971205 -0.18677106 -0.04849 0.2272726 0.031208904 -0.28714147 -0.123221144
0.24197955 -0.08399471 0.27710375 -0.0061864825 0.12103258 -0.057985745 -0.12946382 0.42189857
-0.49854854 0.25181204 0.092158504 0.26613852 -0.61406326 -0.66085255 -0.22948597 0.30899063
0.54713595 -0.38983846 -0.13305268 -0.42984927 -0.20818588 -0.47950152 -0.50722426 -0.34941354
0.1923517 -0.19783553 0.32867923 -0.5380105 -0.33124 -0.4191405 0.5619639 0.26820597
-0.541486 0.0915991 0.41841525 -0.97699684 -0.17375238 0.25095177 -0.39788732 -0.1319992
0.26188734 0.2545791 -0.6402562 -0.010494569 0.3770485 0.089745805 -0.36000115 -0.16812597
-0.28310582 -0.070006244 -0.14753465 -0.013868077 -0.5186512 -0.18654998 -0.2999123 -0.60884315
-0.18005349 0.44732493 -0.101709224 -0.9124461 -0.0007219001 -0.05352108 -0.23878022 -0.22210044
-0.46696278 -0.30612892 0.5688787 -0.5593611 -0.35738638 -0.28845215 -0.3291003 -0.49677968
-0.25550425 0.22372143 -0.5021639 -0.23146631 -0.56844616 -0.37120214 -0.27218464 -0.3632879
-0.22297019 -0.44666308 0.6198018 -0.49251693 -0.082949296 0.13929889 -0.27430052 -0.38810006
0.364271 -0.11319139 -0.2723537 -0.28389627 0.12663722 0.3572089 0.14619008 0.09183356
0.18023558 -0.0049296916 0.034171347 -0.092882246 0.033469785 -0.044304915 -0.53283644 0.29446846
-0.14985895 0.045717902 0.4130442 -0.08475627 0.06696723 -0.24211125 -0.22769774 0.00070754206
-0.40398115 -0.20067643 -0.13464822 0.19736354 0.34888235 0.28440765 0.11479779 0.51455003
-0.15018962 -0.64602244 0.24669994 -0.15693715 0.24854998 -0.026361763 0.45654142 0.23223296
-0.21696058 0.4867048 0.31815276 -0.20216209 -0.41468495 0.1458859 -0.38386777 -0.48800337
0.19545686 -0.51333106 0.29599944 0.43287405 0.466148 -0.42386493 -0.24080107 0.008456594
-0.2742148 0.11033307 -0.13606995 -0.5296612 -0.16922985 -0.6731931 0.038322262 -0.47139522
-0.36193326 -0.6693054 0.30107844 -0.37492657 0.21379004 0.15263063 0.28751782 0.18287686
0.48728427 -0.086330466 0.13452819 0.5743369 -0.103206456 -0.23622324 -0.44041726 -0.31180915
-0.15674248 0.35942325 -0.104313046 0.0022474378 -0.35428524 0.0727108 -0.35031858 -0.17102605
0.2605765 -0.019803131 0.21209566 -0.55877537 0.13441081 -0.15444559 0.029225798 -0.35970092
0.32179156 0.10326888 -0.14465708 -0.027737003 -0.035457585 0.22879243 -0.1809892 -0.028065832
-0.12354739 0.13786 0.23866329 -0.54391867 0.38082507 0.22523105 0.13037917 0.5152995
-0.356744 0.27339974 0.061151393 0.5172058 -0.068627276 -0.37209165 -0.52889866 0.082357585

encoder.lstm.bias_hh_l0 f4 [256]
00000000: 523a df3d dfa2 8c3e 03ef 463e cde5 543e
00000010: 6d02 cbbe 45cf 3bbe 0a6e a0be 0654 b53e
00000020: a758 27be 2791 e6bc f7cb ac3e 4b69 19bf
00000030: a42f ce3e f5c9 3c3e 1885 9c3e e9d9 8f3d
00000040: b0bf b93d ce7d 8f3e 0834 9c3c 39f0 05bc
00000050: 248f 0ebe e125 723b fa94 20bf bbef b03e
00000060: 0645 82bb c269 993e 90dd 85bd dc4a d53e
00000070: f651 ee3e 8cf6 773d 3677 5cbe 9811 cebd
00000080: 1d9d a63e 789e 67be 0c45 afbd 11f3 47be
00000090: eeb6 843e de1d 96be e056 233e e187 0cbd
000000a0: e806 5fbe 6b36 8f3e ea40 3fbe 739d 46bd
000000b0: 26ba 683e d1a9 ff3c 3504 93be 5e5b fcbd
000000c0: 7dc9 773e 6b05 acbd 8be0 8d3e fab7 cabb
000000d0: eedf f73d 7682 6dbd 2a92 04be 1703 d83e
000000e0: c141 ffbe 82ed 803e 99bd bc3d 4f43 883e
000000f0: 4033 1dbf a22d 29bf 5ffe 6abe 0534 9e3e
00000100: 1a11 0c3f e898 c7be f63e 08be 3415 dcbe
00000110: ae2e 55be 3981 f5be 73d9 01bf 55e6 b2be
00000120: d8f7 443e 6695 4abe a548 a83e 0ebb 09bf
00000130: 4a98 a9be 9599 d6be dedc 0f3f 4b52 893e
00000140: d49e 0abf 4f98 bb3d 863a d63e 771c 7abf
00000150: 25ec 31be c07c 803e e3b7 cbbe cc2a 07be
00000160: 1916 863e 3158 823e d5e7 23bf 6af1 2bbc
00000170: 800c c13e a6cc b73d 1252 b8be 3729 2cbe
00000180: 3ff3 90be 6f5f 8fbd 5313 17be ee36 63bc
00000190: 53c6 04bf f506 3fbe 1b8e 99be 25dd 1bbf
000001a0: f15f 38be c607 e53e ed4c d0bd 1196 69bf
000001b0: e53d 3dba ec38 5bbd cd82 74be 4c6e 63be
000001c0: bf15 efbe eebc 9cbe 09a2 113f 4a32 0fbf
000001d0: 59fb b6be 00b0 93be d67f a8be e859 febe
000001e0: 74d1 82be 3b17 653e d08d 00bf 8105 6dbe
000001f0: b085 11bf 350e bebe c95b 8bbe df00 babe
00000200: 4c52 64be 06b1 e4be 55ab 1e3f 2e2b fcbe
00000210: 52e1 a9bd 5ea4 0e3e 1e71 8cbe 0db5 c6be
00000220: ba81 ba3e e3d0 e7bd f271 8bbe da5a 91be
00000230: 30ad 013e 16e4 b63e dab2 153e 3c13 bc3d
00000240: ad8f 383e 4089 a1bb 41f7 0b3d 0c39 bebd
00000250: 9d17 093d 1279 35bd f867 08bf 92c4 963e
00000260: a074 19be b242 3b3d 887a d33e b294 adbd
00000270: 1d26 893d 03ec 77be 9929 69be 587a 393a
00000280: 9ed6 cebe 1f7e 4dbe 39e1 09be ab19 4a3e
00000290: b5a0 b23e e19d 913e 1b1b eb3d 8db9 033f
000002a0: 4fcb 19be ba61 25bf e99e 7c3e 22b4 20be
000002b0: e383 7e3e a0f4 d7bc ccbf e93e 7ace 6d3e
000002c0: ea2a 5ebe 5f31 f93e ebe4 a23e 9403 4fbe
000002d0: 9651 d4be 1d63 153e 518a c4be 94db f9be
000002e0: d825 483e aa69 03bf 3d8d 973e aba1 dd3e
000002f0: f3aa ee3e d304 d9be 8e94 76be 878d 0a3c
00000300: e265 8cbe 4ef6 e13d ec55 0bbe e097 07bf
00000310: 974a 2dbe 6256 2cbf cef7 1c3d b75a f1be
00000320: 514f b9be 9957 2bbf f426 9a3e 60f6 bfbe
00000330: c7eb 5a3e 344b 1c3e 8935 933e 1244 3b3e
00000340: 537d f93e 07ce b0bd c2c1 093e be07 133f
00000350: e85d d3bd 81e4 71be 5f7e e1be 73a5 9fbe
00000360: 1a81 20be 5306 b83e 14a2 d5bd c049 133b
00000370: e064 b5be 66e9 943d f55c b3be 7421 2fbe
00000380: 486a 853e 2d3a a2bc 9b2f 593e e70b 0fbf
00000390: fda2 093e fc26 1ebe f16a ef3c b82a b8be
000003a0: ddc1 a43e a27e d33d fc20 14be b638 e3bc
000003b0: f93b 11bd 9048 6a3e 3c55 39be 51ea e5bc
000003c0: 6a06 fdbd 2c2b 0d3e 2664 743e 413e 0bbf
000003d0: 81fb c23e f8a2 663e 1e82 053e abea 033f
000003e0: 26a7 b6be 0dfb 8b3e e279 7a3d 9967 043f
000003f0: 758c 8cbd cc82 bebe e765 07bf 18ab a83d
0.108997956 0.2746801 0.19427113 0.20790787 -0.39650288 -0.18340786 -0.31333953 0.35415667
-0.16342412 -0.028145386 0.33749363 -0.5992629 0.40270722 0.18436415 0.30570292 0.07023985
0.090697646 0.2802567 0.01906778 -0.008174949 -0.13921791 0.0036948847 -0.6272732 0.345579
-0.0039755134 0.299635 -0.065364 0.41658676 0.46546906 0.06053786 -0.2152985 -0.100619495
0.32541743 -0.22619045 -0.085580915 -0.19526316 0.25920814 -0.29319662 0.15951109 -0.03430927
-0.21779978 0.27971205 -0.18677106 -0.04849 0.2272726 0.031208904 -0.28714147 -0.123221144
0.24197955 -0.08399471 0.27710375 -0.0061864825 0.12103258 -0.057985745 -0.12946382 0.42189857
-0.49854854 0.25181204 0.092158504 0.26613852 -0.61406326 -0.66085255 -0.22948597 0.30899063
0.54713595 -0.38983846 -0.13305268 -0.42984927 -0.20818588 -0.47950152 -0.50722426 -0.34941354
0.1923517 -0.19783553 0.32867923 -0.5380105 -0.33124 -0.4191405 0.5619639 0.26820597
-0.541486 0.0915991 0.41841525 -0.97699684 -0.17375238 0.25095177 -0.39788732 -0.1319992
0.26188734 0.2545791 -0.6402562 -0.010494569 0.3770485 0.089745805 -0.36000115 -0.16812597
-0.28310582 -0.070006244 -0.14753465 -0.013868077 -0.5186512 -0.18654998 -0.2999123 -0.60884315
-0.18005349 0.44732493 -0.101709224 -0.9124461 -0.0007219001 -0.05352108 -0.23878022 -0.22210044
-0.46696278 -0.30612892 0.5688787 -0.5593611 -0.35738638 -0.28845215 -0.3291003 -0.49677968
-0.25550425 0.22372143 -0.5021639 -0.23146631 -0.56844616 -0.37120214 -0.27218464 -0.3632879
-0.22297019 -0.44666308 0.6198018 -0.49251693 -0.082949296 0.13929889 -0.27430052 -0.38810006
0.364271 -0.11319139 -0.2723537 -0.28389627 0.12663722 0.3572089 0.14619008 0.09183356
0.18023558 -0.0049296916 0.034171347 -0.092882246 0.033469785 -0.044304915 -0.53283644 0.29446846
-0.14985895 0.045717902 0.4130442 -0.08475627 0.06696723 -0.24211125 -0.22769774 0.00070754206
-0.40398115 -0.20067643 -0.13464822 0.19736354 0.34888235 0.28440765 0.11479779 0.51455003
-0.15018962 -0.64602244 0.24669994 -0.15693715 0.24854998 -0.026361763 0.45654142 0.23223296
-0.21696058 0.4867048 0.31815276 -0.20216209 -0.41468495 0.1458859 -0.38386777 -0.48800337
0.19545686 -0.51333106 0.29599944 0.43287405 0.466148 -0.42386493 -0.24080107 0.008456594
-0.2742148 0.11033307 -0.13606995 -0.5296612 -0.16922985 -0.6731931 0.038322262 -0.47139522
-0.36193326 -0.6693054 0.30107844 -0.37492657 0.21379004 0.15263063 0.28751782 0.18287686
0.48728427 -0.086330466 0.13452819 0.5743369 -0.103206456 -0.23622324 -0.44041726 -0.31180915
-0.15674248 0.35942325 -0.104313046 0.0022474378 -0.35428524 0.0727108 -0.35031858 -0.17102605
0.2605765 -0.019803131 0.21209566 -0.55877537 0.13441081 -0.15444559 0.029225798 -0.35970092
0.32179156 0.10326888 -0.14465708 -0.027737003 -0.035457585 0.22879243 -0.1809892 -0.028065832
-0.12354739 0.13786 0.23866329 -0.54391867 0.38082507 0.22523105 0.13037917 0.5152995
-0.356744 0.27339974 0.061151393 0.5172058 -0.068627276 -0.37209165 -0.52889866 0.082357585

decoder.lstm.weight_ih_l0 f4 [256, 5]
00000000: 7487 b03d d389 7cbf fec5 c23e 6251 4b3f
00000010: 85ff ddbe fe62 bfbe 69db 873e 8988 a3be
00000020: c227 e5be ba1c 4d3c 8499 debe dd58 373e
00000030: 46d4 9dbf 189e d63d 9fae 25bf 6f70 52bd
00000040: ea58 5f3d aeba 7fbf b491 fe3e 4371 efbf
00000050: 0fe5 11bf 78fb ad3c 7e64 a0be 804e 833e
00000060: 330c 383e a690 333f ecce df3e e153 063f
00000070: 39da b03f d5e2 e0be afe9 9dbf 9a2e 14bf
00000080: 4791 56be de6f 06bf 13bd fbbe 98b2 1abf
00000090: aaa8 3fbf 9821 2cbe 0a4b 9f3f ef4f 15be
000000a0: 7be5 143e 58b7 dc3d f06b 343e ec2f b4bf
000000b0: 1c64 3abf 930e 49bf cfd4 e9be fa80 253e
000000c0: bd21 00bf 439d 21bf 6ed3 98bf 2259 3abf
000000d0: 2a81 6fbe af1c 3bbd a7a7 1c3e 9c70 dcbe
000000e0: 65a2 16bf bdc2 afbe 0176 4ebe 3aa0 7d3c
000000f0: 4793 b43f a84d d93e 7d24 3ebf f637 c33e
00000100: b00e 98be d0aa 11bf 5bd0 4cbf 66ed 60bf
00000110: 76fb 633e 0a55 f53d 79c7 e9bd ebab 30bf
00000120: 27cd e03e 25d3 22bf 1338 8b3f 4e7c 1cbf
00000130: b0fc 1abf 6693 8cbf 047e 34bf 5824 143f
00000140: ec36 bfbe 618d f0bd 6bea 203e 5c28 75bf
00000150: e634 22bf f9ac 6abe c7d4 0fbe 54c2 bbbd
00000160: 70f3 743e aede 18bd 1c9b 73bf f866 7cbe
00000170: 0f33 05bf 3b19 58bf a0ac dcbe 396d ef3d
00000180: bf09 28bf 6a27 4ebf 6fcd 363f 2436 e7be
00000190: 504a 893e f096 a4be ee7a 2fbd ba5c 1fbd
000001a0: 63e5 f23e 79ee 443e e0e1 04bf fe44 aebe
000001b0: 7550 36bf b5c1 a23e d93e 34be ad70 eebf
000001c0: 2209 443f 39e5 e3bd 8488 dfbd 609f 8dbe
000001d0: 87eb 7ebe 5a4c b03d a51f e3bd 0364 2abe
000001e0: ef21 48be 8b51 01bf fb58 d0bd c711 15bf
000001f0: 8008 4cbe 4c7c 7dbf 024d 07bf f099 66bf
00000200: 7ab8 233e 2695 14bf 33ff 18bf 34f4 cfbe
00000210: f1ab 32bc fcbf 9ebf 7556 26be b180 d2be
00000220: fe91 3abf bb62 80be b7d5 0a3d 06ef 40bf
00000230: c53c a0bd 2026 bbbe 7081 98be 02da 133e
00000240: 849e 8a3d 9a01 afbe 2b43 fa3e 61c8 b6bf
00000250: 938b 04bd 7ffd 56bf 6fd1 fabc 18fd aebd
00000260: 6c8f 15c0 a979 bebf 95d5 763f c083 d7be
00000270: 0aaa cdbe cf1e 5d3d 6b13 d3be 04f2 79bf
00000280: eb2b 063f 0372 113e 044d 0b40 486f 423e
00000290: f149 1abf 6f1e 073f ecf3 bebf 4f50 83be
000002a0: 5a85 d83e c72e c1bc 7576 8dbf d31a 87be
000002b0: af41 62bf ee16 d33e c9b0 01be 4517 82be
000002c0: 80c3 dbbe 7f1b 1ebf b99b 1abe 83e7 cabe
000002d0: cf5e 9dbe af1a cfbe 5f5f 8bbd 64e4 e6bd
000002e0: 35c7 abbd 9309 1abf da3f c6bf 70ad 4a3e
000002f0: f294 3bbe b1e4 203e f7ae 32bf 95f5 e3bf
00000300: bad7 21bf 6cde 283f 5d8a 7abd 25c4 c73a
00000310: 2fa5 1f3e 147f 26bf 104f f93e 0656 48be
00000320: 4dc4 02be 8765 29bd 4cd9 e43e 8ec8 19bf
00000330: d2f7 06bf fce3 a0be db31 8fbe abe1 073e
00000340: d41e 00bf f192 ddbd 3765 81bf 84fa 293f
00000350: a71f 63bd 35ee 1fc0 6bc4 f5be b8d7 0ebf
00000360: a802 e23e 7cd7 60be 1f1d 4fbe 8d1a 133e
00000370: e9d8 27bf 5d6d 3fbf c731 94bf 3d1f b4be
00000380: e72e e1be 500c 90be 16ed 0ebf 0110 2a3e
00000390: 13ad d83e 9d42 05bd 8a75 fc3e b345 f8be
000003a0: 3ef5 16bf 343e 403f ff66 91be 6cbc f4be
000003b0: 9430 3abf 83ea 1bbf 595c 3b3f 5050 aabe
000003c0: e5aa 043e 2373 973f b435 0dbf 1166 93bf
000003d0: c4ef b5bf be70 2ebf 9f04 b2bf 2645 2ebf
000003e0: cdba 2ebf 29e3 6b3e d4a4 83be 8793 83be
000003f0: 62f3 0abf 644b d5bd cf49 61bf 8c07 6bbe
0.08619586 -0.98647803 0.3804168 0.79421055 -0.43359008 -0.37380213 0.26534584 -0.31940106
-0.44756895 0.012519056 -0.43476498 0.17904992 -1.2330406 0.10479373 -0.64719576 -0.051376756
0.054528154 -0.99894226 0.49720538 -1.870644 -0.5699014 0.021238074 -0.3132667 0.25645828
0.17973404 0.7014259 0.43712556 0.5247174 1.3816596 -0.4392306 -1.233694 -0.5788361
-0.20953856 -0.52514446 -0.4916769 -0.6042876 -0.74866736 -0.1680969 1.2444775 -0.14581273
0.14540665 0.107771575 0.176193 -1.4077125 -0.72809005 -0.78537863 -0.45670173 0.16162482
-0.5005148 -0.6313059 -1.1939523 -0.72792256 -0.23389116 -0.04568165 0.1529833 -0.43054664
-0.58841544 -0.3432826 -0.20162202 0.0154800955 1.4107445 0.4244206 -0.74274427 0.38128632
-0.29698706 -0.56901264 -0.80005425 -0.8786224 0.22263893 0.119791105 -0.114149995 -0.69012326
0.4390652 -0.6360343 1.0876487 -0.61127174 -0.6054182 -1.0982482 -0.70504785 0.57867956
-0.3734659 -0.11745716 0.15714423 -0.9576471 -0.63361967 -0.22917546 -0.14046012 -0.091679245
0.23920989 -0.03732174 -0.95158553 -0.24648654 -0.52031034 -0.844135 -0.43100452 0.116907544
-0.6563987 -0.8052889 0.71407217 -0.45158494 0.26814508 -0.32146406 -0.042841844 -0.03890679
0.47440633 0.19231595 -0.5190716 -0.34037012 -0.7121652 0.31788412 -0.176021 -1.8628136
0.76576436 -0.11127705 -0.1091471 -0.27660656 -0.24894534 0.08608313 -0.1109002 -0.16639714
-0.19544195 -0.5051505 -0.10173222 -0.5823025 -0.19925117 -0.99017787 -0.5285188 -0.9007864
0.15988341 -0.5804008 -0.59764403 -0.40616 -0.010905252 -1.2402339 -0.16243918 -0.4111381
-0.72879016 -0.25075325 0.03389522 -0.7536472 -0.07824091 -0.36552525 -0.29786253 0.14438632
0.06768516 -0.3418091 0.4887937 -1.4279901 -0.03235967 -0.83980554 -0.030617444 -0.085443676
-2.3368788 -1.4880878 0.9641965 -0.42092705 -0.40168792 0.05398446 -0.41225752 -0.9763491
0.52410764 0.14203648 2.1765757 0.18987763 -0.60269076 0.5278081 -1.4918189 -0.25647208
0.4228924 -0.023581875 -1.1051775 -0.26387653 -0.88381475 0.4122843 -0.12665094 -0.25408378
-0.42922592 -0.61760706 -0.15098466 -0.39629754 -0.30736396 -0.40450045 -0.068053 -0.11274031
-0.08387605 -0.6017086 -1.5488236 0.19792724 -0.18318537 0.15712239 -0.69798225 -1.7809321
-0.632198 0.6596439 -0.06116711 0.0015240951 0.15590356 -0.65037656 0.48693132 -0.19564065
-0.12770195 -0.04135659 0.44697034 -0.6007165 -0.52721894 -0.31423938 -0.27967724 0.13269679
-0.5004704 -0.108190425 -1.0109013 0.6639788 -0.055450108 -2.498914 -0.48001418 -0.5579791
0.44142652 -0.21957201 -0.20225953 0.14365597 -0.65565354 -0.7477625 -1.1577691 -0.35180083
-0.43981096 -0.28134394 -0.55830514 0.16607668 0.42319545 -0.03253423 0.49308425 -0.48490676
-0.5896796 0.75094914 -0.28398892 -0.47800004 -0.72730374 -0.6090471 0.73187786 -0.332644
0.12955816 1.1832012 -0.5516007 -1.1515523 -1.4213796 -0.6814078 -1.390766 -0.6807426
-0.68253785 0.23035873 -0.2571169 -0.25698492 -0.5427762 -0.1041477 -0.8800325 -0.22952098

decoder.lstm.weight_hh_l0 f4 [256, 64]
00000000: 1b39 81be 520d 4f3e c110 a4be 338d 983e
00000010: 6eb2 bebd 6a77 803e c8f9 8f3f 54b4 5f3e
00000020: 4fef 523d 6471 4d3c 58db aebd 8eee 053f
00000030: 6e36 d43e ccde 86be 1a49 19be 5000 223e
00000040: 603b 183f b92d 38be 64ae 533e 4ed8 acbe
00000050: b0d3 36be 3a83 87be 5cec 053f a693 293f
00000060: f527 9dbe 7961 133f d231 06bf 4954 6dbe
00000070: 8d7f f6be 0cec 393f 0770 6fbd 4e04 d2be
00000080: 48df c5be 4eec 96be 7e3d 383f a9c1 a13e
00000090: 23f6 983e c460 13bf 0848 283f 2d74 91be
000000a0: f65f 9e3e ae20 9abe 105f 1b3f b52f c83f
000000b0: 0205 763d 7ec9 723e c5dc 403f 2fe7 fcbe
000000c0: 739c aebc 14ec f4ba 3314 7f3e 80da b03c
000000d0: 6f8a e53d 1d48 4bbf 1e25 bfbe bf29 e9bd
000000e0: 0d14 cc3e aa29 f2bd 8962 bcbd 90a1 01bf
000000f0: b2fc eebe dd1e aebe 23d1 aa3e 619b 4e3e
00000100: a526 163f 5a4a 8dbf c9d9 abbe a7a7 093f
00000110: dadf c9be b6f0 6dbe 8ecf db3d 1867 0f3e
00000120: e81c 653e 29f9 c3bd 44fc 6c3d df09 de3d
00000130: 4d06 8b3e 6968 79bf 7fda dcbe 994c f1be
00000140: 608f 0c40 0820 a63e 6328 9b3f 0f67 ce3d
00000150: a154 2bbf bd8f c53d f300 e9be fad3 e8be
00000160: f3b3 593d 1587 303f 309e 3d3f dfb2 213f
00000170: 4f37 31bd 204e f4be 67a5 f8bd 8186 593f
00000180: 28f6 fe3d 822f 20be ad43 febf fcf5 f63c
00000190: 4a93 353f 306c d3be 585b 89bf 9c66 91bf
000001a0: 3090 b13e 4367 21be bce5 81be dedf c93e
000001b0: 4bc6 9e3e 863b 083f ea1d 7abf 1fbd 8d3f
000001c0: 8f9a 0840 63a1 07bf 20d8 783f c105 01bc
000001d0: a9ac 3abf b7d8 4c3d 32d4 3fbf 759a 413d
000001e0: 60d2 83be ed69 023c 9126 803e 841d f03d
000001f0: fd37 663d e3d5 003f cf86 01bf f856 2a3f
00000200: d321 873e 34cf 44bd d43d c33e 9da5 7b3f
00000210: 96ab 7bbd 4e51 1bbf bb36 53be 6bdb bebe
00000220: 6163 41bf e1c2 afbe daa5 84be b4bf 36be
00000230: c50d d2be 77c9 e7be 1152 26bf 9e81 13bf
00000240: c4dc 2a3f a077 4bbe 6305 f23e 7524 e63e
00000250: e4ca 2fbf 93b6 05bf b456 55bf 7709 053e
00000260: 7083 e1be 73e2 83bd 5770 1f3e 294d 18bf
00000270: 12ff 23bf 8d13 073f e2d4 e9be 2095 a93e
00000280: 3156 25bf 9be0 66bf 0aae 99be c514 653d
00000290: 8bd4 543f 822e 45bf 830d 86be a567 793d
000002a0: 6ca3 9d3d 3779 e43c f006 6ebe e6c1 06bf
000002b0: 0ae7 ebbd 9f18 a13f d3e6 8bbd 7364 bbbe
000002c0: c194 973e 75b9 60be 59db a73d 0c70 24bc
000002d0: c1c1 60bf ad50 4cbe bdf4 2d3f dd8e bb3e
000002e0: 3c90 233f f5ab c03f 9d73 2c3f 652a 5f3f
000002f0: 2e9d 8abf f654 35bf 5ad6 34bf d857 5f3f
00000300: 14a4 a6bd 2025 74be 7c13 3bbf d277 e53e
00000310: 2b75 ebbe 2892 54bb aa2a d93c 4a67 19bf
00000320: ddfa a03d dc29 1bbf 0ba7 7a3d 1a72 c03e
00000330: 63eb ce3f b0bf a8be bba5 d7be 04bb 8bbc
00000340: 34db 1e3f cdbf a6bf c8e6 183e 91aa 90be
00000350: 58cf 98be af1d 8a3d 1cdc dcbe cf53 46bf
00000360: 11cc 81bf 0fcc e53e 9b57 04be 5627 b23d
00000370: 0bff a7bd 198f 93be 626c 6b3e c03d cb3e
00000380: e569 62bf ad40 1f3f c585 6bbe 4233 583f
00000390: 27ee 0cbe 217f 45be cb6f 243f d591 af3e
000003a0: e8e9 b8be f6ea 42bf a13e 013f ecd4 f7bc
000003b0: bd8d 973f f7fa 1b3f a2d7 623e 6f54 2abf
000003c0: 4abd 88bf 0611 423e bcae 50be 5ce1 953f
000003d0: 5a5f dabe 7c0c 08be 06ae e9bd 5869 e43d
000003e0: 7ac7 ae3e a309 473f 61f9 57be 8573 8f3d
000003f0: 9cc7 85bf c55f 0bbe 7ffd 02bf 4a76 183f
-0.2523888 0.20219925 -0.32044032 0.29795226 -0.093113765 0.25091106 1.1248102 0.21846133
0.051497754 0.012539241 -0.0853793 0.5231713 0.41447777 -0.26341856 -0.14969292 0.15820432
0.594656 -0.17986192 0.20671993 -0.33758777 -0.1785419 -0.26467305 0.5231378 0.6624092
-0.30694547 0.57570606 -0.5241977 -0.23176683 -0.4814419 0.72625804 -0.058456447 -0.4101891
-0.38646913 -0.2947716 0.7196883 0.31593063 0.29875287 -0.5756953 0.6573491 -0.28408948
0.30932587 -0.30103058 0.6069193 1.5639559 0.06006337 0.23709676 0.7533687 -0.4939513
-0.021314835 -0.001868608 0.24910049 0.021588564 0.11208045 -0.7940691 -0.37333006 -0.113849156
0.39859048 -0.11824353 -0.091984816 -0.5063715 -0.46677166 -0.34007922 0.33362684 0.2017646
0.58652717 -1.1038315 -0.33564594 0.5377144 -0.39428598 -0.23236355 0.10732947 0.14004171
0.22374308 -0.09569008 0.057857767 0.108417265 0.27153245 -0.9742494 -0.4313545 -0.47128752
2.196251 0.32446313 1.21217 0.100782506 -0.6692601 0.096465565 -0.45508537 -0.45474225
0.05315013 0.6895612 0.740695 0.6316356 -0.043265637 -0.47715855 -0.12140923 0.8497086
0.12449294 -0.15643123 -1.9864403 0.030146591 0.7092787 -0.41293478 -1.0731001 -1.1359439
0.3468032 -0.15762047 -0.25370586 0.3942861 0.3101066 0.53215826 -0.97701895 1.107334
2.1344335 -0.5298063 0.9720478 -0.007874907 -0.7291971 0.050011363 -0.7493316 0.047266442
-0.2574644 0.007959825 0.25029424 0.1172438 0.05620574 0.50326365 -0.50596327 0.66538954
0.26392993 -0.048049167 0.3813311 0.9829958 -0.061442934 -0.60670936 -0.20626347 -0.37276778
-0.75542265 -0.34328368 -0.25907785 -0.17846566 -0.4102613 -0.45270893 -0.64968973 -0.57619655
0.6674311 -0.19869852 0.47269735 0.4494969 -0.6866896 -0.5223171 -0.83335423 0.12991892
-0.4404559 -0.06439676 0.15570198 -0.5949274 -0.6406108 0.5276421 -0.4567023 0.33121586
-0.6458464 -0.9018647 -0.30015594 0.05592801 0.83136815 -0.7702409 -0.26182184 0.06088986
0.07697186 0.027889831 -0.23244834 -0.52639616 -0.115186766 1.2585639 -0.068311356 -0.36600074
0.29605678 -0.21945746 0.08196134 -0.01003648 -0.87795645 -0.1995265 0.67951566 0.36632434
0.6389196 1.5052477 0.6736391 0.87174064 -1.0829217 -0.70832765 -0.70639575 0.87243414
-0.08136764 -0.23842287 -0.73076606 0.44817978 -0.4598783 -0.0032435749 0.026509602 -0.5992323
0.078603484 -0.6061075 0.06119446 0.37587053 1.6165584 -0.32958746 -0.4211863 -0.01705695
0.6205323 -1.3027283 0.14931786 -0.28255132 -0.2984569 0.06743943 -0.4313668 -0.7747163
-1.0140401 0.44882247 -0.12924044 0.08698909 -0.082029425 -0.28820112 0.22990564 0.3969555
-0.8844283 0.6220806 -0.23000248 0.84453213 -0.13762723 -0.19286777 0.6423308 0.3429095
-0.36115956 -0.7613977 0.5048619 -0.030252896 1.184013 0.60929817 0.2215257 -0.66535085
-1.0682766 0.18951806 -0.20379156 1.1709399 -0.42650872 -0.13286012 -0.114101455 0.11152905
0.34136564 0.7774908 -0.21091224 0.070044555 -1.0451541 -0.13610752 -0.51168054 0.59555495

decoder.lstm.bias_ih_l0 f4 [256]
00000000: 201d 01bd dc25 11bf 9b60 14bf 8a3c 0dbf
00000010: 6df9 3bbe 44eb 683e 4c69 1dbf 9112 093e
00000020: 8b81 1cbf 42e8 ddbe a53a 20bf cd90 d5be
00000030: e596 cebe 69bb c1be a22a e63d 7e91 05bf
00000040: acf5 07bf aea3 20be 1977 12bf 8db8 eabe
00000050: 2e62 89be a37c 44bf 8777 42be e880 5fbe
00000060: b908 13bf 7576 5ebf 87ae c5be 371c 22bf
00000070: e8d1 4dbe a187 b9be 205c f2be cc13 2fbf
00000080: c44b a23e c19c 8bbe 6d40 17bf 6443 dbbe
00000090: ba85 edbe 8644 ddbe 40b0 4cbe bbc5 9ebd
000000a0: 9b31 8fbe a4a7 debe af87 e9be 9a39 08bf
000000b0: 63df 68bf 0e4b b03d bcf5 ab3d 1b48 20be
000000c0: f321 26bf 8687 13bf 86d5 eabe 7842 b0be
000000d0: 92fc d23a a8f3 39bf 5d95 713d ead5 3fbe
000000e0: 5ee5 0bbf a337 20bf 3e8f 5d3f de23 d7be
000000f0: 5c5c 19bf e549 51bf 5bf3 0fbe 4231 29bf
00000100: 0de4 c33e a592 debe b8cc cebe b741 d83e
00000110: e210 d83e b446 143f d3c2 69be 294c 7fbe
00000120: 7589 a63d 4b89 27bf a5b9 3ebf 909e 8e3e
00000130: 276d 03bf e175 363e 10b1 393f 29c7 18bd
00000140: cda7 aabe acf7 003d a849 5abe bb63 103f
00000150: 2a2f 3bbe a3c0 25bd 5d34 d43e 4b1f 90be
00000160: 8876 98be abe4 9ebe 996e 20bf fd40 9cbd
00000170: 8f08 f83c 9a0c 49be 01f0 983e 050c 5fbe
00000180: c6ce 80bd 34a3 123c c363 2d3e ff03 fbbe
00000190: c166 4abe 8495 78be 2df0 9c3e cac4 39bc
000001a0: a1d0 efbe eb76 c4bd 6e80 13bf c964 b43c
000001b0: 7e29 f4bd aa5f e83e b49e a43d 1088 d7bc
000001c0: bff7 10bf b682 f3be 7719 8dbe d916 a8be
000001d0: 50ec 953e 0753 41be 76a1 aabe bec4 143f
000001e0: bd30 d4be d272 6cbf be43 51bf 27ba e7be
000001f0: 998d 74be d9d8 a63d 0fe6 943d ad82 4bbf
00000200: 54aa f1be df1f 02bc e21a 4bbe 9924 74be
00000210: c63a e53e 215c 453f 2456 253e e8ce cd3e
00000220: e962 1a3b e0f5 56be 062a 69bd 4836 16be
00000230: 7472 5ebe 6cb2 c33e 1c76 133f c223 843e
00000240: 4010 2dbe 64fe 883e 8635 20bf 224d abbe
00000250: 344f 0e3e 9974 4abe 44c4 813e 2a3c 7e3e
00000260: 5d4b 863d c44c bf3e 2f3d 5ebd dec3 873d
00000270: a2ed 373e 8881 b4bd e839 2ebe 0955 b1bd
00000280: 8a5f 083d e6dd e3be e80c 9b3e 166c 673e
00000290: 9c38 dabc 5ba1 8f3d 35b7 413d 24d2 273f
000002a0: f61f fbbe 6a32 4bbd 8252 c73a 4db9 4bbd
000002b0: 325b c0be 90f0 abbe f302 bb3e 245d b8be
000002c0: 17c0 5cbe e39f ac3e 6835 093e 8a20 67bd
000002d0: f837 a83e da9f 48bd fb55 cebb a4f3 ffbd
000002e0: 0c17 00be 6a34 75be 22f5 de3d 252f 9a3e
000002f0: 29a7 973d b70d 293e 459e 073f c528 cdbc
00000300: f013 09bf 92f5 b3be 8939 09bf ab81 8fbe
00000310: 832b 2abf 7020 40be a1f4 2bbf 64a5 bcbd
00000320: ced4 c0bd 103c c5be 6d92 09bf 05cf 70be
00000330: 6380 05bf 8d76 0abe ff99 02be 1efb 06bf
00000340: 8f1b 2dbf 6631 26bf 1aa8 32bf 8320 04be
00000350: 7579 17bd 28c8 debe 42d8 4dbe c5d7 a8be
00000360: bbaa 31bf a68b 70bf 3298 15bf d1e6 b1be
00000370: 6bec 41bf 9c0c c1be e03e 96bd b46c 2dbf
00000380: ca9d eabe fe5c 7dbf 5fa4 0dbf c0c1 dcbe
00000390: 712b 2fbf 2cef 8ebe 886b b7be ba02 68be
000003a0: 25ea d7be e4ca 07bf 4719 dabe 3d0b 9abe
000003b0: 96c2 fdbe 9c09 f5be b102 d9be 4282 3cbe
000003c0: 6f7f bdbe 7149 8abe 7cbd c3be 2c8d b8be
000003d0: 03cb 33bf e930 38bf 59a4 613e 34c9 00bf
000003e0: 34ae b0be a166 08bf 704f 943e a2c1 afbe
000003f0: cfcc 0cbf 50c5 d0be bb9f 3abe 8b1c 33bf
-0.031521916 -0.56698394 -0.5795991 -0.551705 -0.18356867 0.22745997 -0.61488795 0.13385989
-0.61135167 -0.4334126 -0.62589484 -0.41712037 -0.40349498 -0.37838295 0.112386 -0.5217513
-0.5310924 -0.15687439 -0.5721298 -0.45843926 -0.26832718 -0.7675268 -0.18990909 -0.21826518
-0.57435185 -0.868995 -0.38609716 -0.633243 -0.20099604 -0.3623629 -0.4733591 -0.6838958
0.3169843 -0.2726803 -0.5908268 -0.42824852 -0.46391088 -0.43216342 -0.19989109 -0.07752558
-0.27967533 -0.43487275 -0.4561133 -0.53212893 -0.9096586 0.086080655 0.083964795 -0.15652506
-0.6489555 -0.5762867 -0.4586603 -0.34425712 0.0016097 -0.72637415 0.058980335 -0.18733945
-0.5464686 -0.62584895 0.86546695 -0.42019552 -0.59906554 -0.8175338 -0.14057676 -0.66090786
0.38259926 -0.43471256 -0.40390563 0.42237636 0.4220038 0.57920384 -0.22828226 -0.24931397
0.081316866 -0.6544387 -0.7450202 0.2785535 -0.5133843 0.17818405 0.725358 -0.03729931
-0.33331147 0.0314862 -0.2131716 0.56402177 -0.1827971 -0.040466916 0.414462 -0.28148875
-0.29777932 -0.31033835 -0.6266876 -0.07629583 0.030277519 -0.19633713 0.29870608 -0.21781929
-0.06289439 0.0089500435 0.16932587 -0.49026486 -0.1976576 -0.24275786 0.3065199 -0.011338422
-0.4683886 -0.09592994 -0.57617843 0.022020714 -0.119219765 0.45385486 0.08038083 -0.026309997
-0.5662803 -0.47560662 -0.2755849 -0.3282993 0.29281855 -0.18879329 -0.3332631 0.58112705
-0.41443434 -0.923627 -0.8174399 -0.4525921 -0.2388214 0.08146829 0.07270443 -0.7949627
-0.47200263 -0.007942169 -0.19834474 -0.23842086 0.44771403 0.770937 0.16146141 0.4019692
0.002355749 -0.20992231 -0.056924842 -0.14669144 -0.21723348 0.38222063 0.57602096 0.2580853
-0.1690073 0.26756585 -0.6258167 -0.33457285 0.13897401 -0.19771041 0.2534505 0.24827638
0.06557343 0.37363255 -0.054257568 0.066291556 0.17961743 -0.088137686 -0.17014277 -0.08658797
0.03329424 -0.44505233 0.30283284 0.22599825 -0.026638322 0.07013198 0.04729386 0.65555024
-0.49047822 -0.049608625 0.0015207084 -0.049737263 -0.37569577 -0.33581972 0.36525688 -0.3600856
-0.21557651 0.33715734 0.13399279 -0.056427516 0.328552 -0.04898057 -0.0062968708 -0.12497643
-0.12508792 -0.23945776 0.10886599 0.30114093 0.0740493 0.16509138 0.52975875 -0.025043854
-0.5354605 -0.35148293 -0.53603417 -0.28028616 -0.66472644 -0.18762374 -0.6717015 -0.09211233
-0.09415589 -0.38522387 -0.53739053 -0.23516472 -0.5214903 -0.13521786 -0.12754057 -0.52726924
-0.67620176 -0.64919126 -0.6978775 -0.12903027 -0.036981065 -0.43512082 -0.20102027 -0.3297712
-0.6940114 -0.93963087 -0.58435357 -0.3474641 -0.7575137 -0.37704933 -0.07336211 -0.6774399
-0.45823509 -0.9897002 -0.55328935 -0.4311657 -0.6842566 -0.2791685 -0.35824227 -0.2265729
-0.42170826 -0.5304396 -0.4259741 -0.300867 -0.4956252 -0.47858894 -0.42384866 -0.18409064
-0.37011287 -0.27009156 -0.38230503 -0.36045206 -0.70231646 -0.7194963 0.2203535 -0.5030701
-0.34507906 -0.532816 0.28966856 -0.34327418 -0.55000013 -0.40775537 -0.18224995 -0.6996543
