results/LSTM_single_layer/4027_model.pt (torch, 967425 bytes, 10 tensors)

output_zeros f4 [400, 512, 1]
0	0x00000000	0.0
1	0x00000000	0.0
2	0x00000000	0.0
3	0x00000000	0.0
4	0x00000000	0.0
5	0x00000000	0.0
6	0x00000000	0.0
7	0x00000000	0.0
8	0x00000000	0.0
9	0x00000000	0.0
10	0x00000000	0.0
11	0x00000000	0.0
12	0x00000000	0.0
13	0x00000000	0.0
14	0x00000000	0.0
15	0x00000000	0.0
16	0x00000000	0.0
17	0x00000000	0.0
18	0x00000000	0.0
19	0x00000000	0.0
20	0x00000000	0.0
21	0x00000000	0.0
22	0x00000000	0.0
23	0x00000000	0.0
24	0x00000000	0.0
25	0x00000000	0.0
26	0x00000000	0.0
27	0x00000000	0.0
28	0x00000000	0.0
29	0x00000000	0.0
30	0x00000000	0.0
31	0x00000000	0.0
32	0x00000000	0.0
33	0x00000000	0.0
34	0x00000000	0.0
35	0x00000000	0.0
36	0x00000000	0.0
37	0x00000000	0.0
38	0x00000000	0.0
39	0x00000000	0.0
40	0x00000000	0.0
41	0x00000000	0.0
42	0x00000000	0.0
43	0x00000000	0.0
44	0x00000000	0.0
45	0x00000000	0.0
46	0x00000000	0.0
47	0x00000000	0.0
48	0x00000000	0.0
49	0x00000000	0.0
50	0x00000000	0.0
51	0x00000000	0.0
52	0x00000000	0.0
53	0x00000000	0.0
54	0x00000000	0.0
55	0x00000000	0.0
56	0x00000000	0.0
57	0x00000000	0.0
58	0x00000000	0.0
59	0x00000000	0.0
60	0x00000000	0.0
61	0x00000000	0.0
62	0x00000000	0.0
63	0x00000000	0.0
64	0x00000000	0.0
65	0x00000000	0.0
66	0x00000000	0.0
67	0x00000000	0.0
68	0x00000000	0.0
69	0x00000000	0.0
70	0x00000000	0.0
71	0x00000000	0.0
72	0x00000000	0.0
73	0x00000000	0.0
74	0x00000000	0.0
75	0x00000000	0.0
76	0x00000000	0.0
77	0x00000000	0.0
78	0x00000000	0.0
79	0x00000000	0.0
80	0x00000000	0.0
81	0x00000000	0.0
82	0x00000000	0.0
83	0x00000000	0.0
84	0x00000000	0.0
85	0x00000000	0.0
86	0x00000000	0.0
87	0x00000000	0.0
88	0x00000000	0.0
89	0x00000000	0.0
90	0x00000000	0.0
91	0x00000000	0.0
92	0x00000000	0.0
93	0x00000000	0.0
94	0x00000000	0.0
95	0x00000000	0.0
96	0x00000000	0.0
97	0x00000000	0.0
98	0x00000000	0.0
99	0x00000000	0.0
100	0x00000000	0.0
101	0x00000000	0.0
102	0x00000000	0.0
103	0x00000000	0.0
104	0x00000000	0.0
105	0x00000000	0.0
106	0x00000000	0.0
107	0x00000000	0.0
108	0x00000000	0.0
109	0x00000000	0.0
110	0x00000000	0.0
111	0x00000000	0.0
112	0x00000000	0.0
113	0x00000000	0.0
114	0x00000000	0.0
115	0x00000000	0.0
116	0x00000000	0.0
117	0x00000000	0.0
118	0x00000000	0.0
119	0x00000000	0.0
120	0x00000000	0.0
121	0x00000000	0.0
122	0x00000000	0.0
123	0x00000000	0.0
124	0x00000000	0.0
125	0x00000000	0.0
126	0x00000000	0.0
127	0x00000000	0.0
128	0x00000000	0.0
129	0x00000000	0.0
130	0x00000000	0.0
131	0x00000000	0.0
132	0x00000000	0.0
133	0x00000000	0.0
134	0x00000000	0.0
135	0x00000000	0.0
136	0x00000000	0.0
137	0x00000000	0.0
138	0x00000000	0.0
139	0x00000000	0.0
140	0x00000000	0.0
141	0x00000000	0.0
142	0x00000000	0.0
143	0x00000000	0.0
144	0x00000000	0.0
145	0x00000000	0.0
146	0x00000000	0.0
147	0x00000000	0.0
148	0x00000000	0.0
149	0x00000000	0.0
150	0x00000000	0.0
151	0x00000000	0.0
152	0x00000000	0.0
153	0x00000000	0.0
154	0x00000000	0.0
155	0x00000000	0.0
156	0x00000000	0.0
157	0x00000000	0.0
158	0x00000000	0.0
159	0x00000000	0.0
160	0x00000000	0.0
161	0x00000000	0.0
162	0x00000000	0.0
163	0x00000000	0.0
164	0x00000000	0.0
165	0x00000000	0.0
166	0x00000000	0.0
167	0x00000000	0.0
168	0x00000000	0.0
169	0x00000000	0.0
170	0x00000000	0.0
171	0x00000000	0.0
172	0x00000000	0.0
173	0x00000000	0.0
174	0x00000000	0.0
175	0x00000000	0.0
176	0x00000000	0.0
177	0x00000000	0.0
178	0x00000000	0.0
179	0x00000000	0.0
180	0x00000000	0.0
181	0x00000000	0.0
182	0x00000000	0.0
183	0x00000000	0.0
184	0x00000000	0.0
185	0x00000000	0.0
186	0x00000000	0.0
187	0x00000000	0.0
188	0x00000000	0.0
189	0x00000000	0.0
190	0x00000000	0.0
191	0x00000000	0.0
192	0x00000000	0.0
193	0x00000000	0.0
194	0x00000000	0.0
195	0x00000000	0.0
196	0x00000000	0.0
197	0x00000000	0.0
198	0x00000000	0.0
199	0x00000000	0.0
200	0x00000000	0.0
201	0x00000000	0.0
202	0x00000000	0.0
203	0x00000000	0.0
204	0x00000000	0.0
205	0x00000000	0.0
206	0x00000000	0.0
207	0x00000000	0.0
208	0x00000000	0.0
209	0x00000000	0.0
210	0x00000000	0.0
211	0x00000000	0.0
212	0x00000000	0.0
213	0x00000000	0.0
214	0x00000000	0.0
215	0x00000000	0.0
216	0x00000000	0.0
217	0x00000000	0.0
218	0x00000000	0.0
219	0x00000000	0.0
220	0x00000000	0.0
221	0x00000000	0.0
222	0x00000000	0.0
223	0x00000000	0.0
224	0x00000000	0.0
225	0x00000000	0.0
226	0x00000000	0.0
227	0x00000000	0.0
228	0x00000000	0.0
229	0x00000000	0.0
230	0x00000000	0.0
231	0x00000000	0.0
232	0x00000000	0.0
233	0x00000000	0.0
234	0x00000000	0.0
235	0x00000000	0.0
236	0x00000000	0.0
237	0x00000000	0.0
238	0x00000000	0.0
239	0x00000000	0.0
240	0x00000000	0.0
241	0x00000000	0.0
242	0x00000000	0.0
243	0x00000000	0.0
244	0x00000000	0.0
245	0x00000000	0.0
246	0x00000000	0.0
247	0x00000000	0.0
248	0x00000000	0.0
249	0x00000000	0.0
250	0x00000000	0.0
251	0x00000000	0.0
252	0x00000000	0.0
253	0x00000000	0.0
254	0x00000000	0.0
255	0x00000000	0.0

encoder.lstm.weight_ih_l0 f4 [256, 4]
0	0x3d569272	0.052385755
1	0x3f3482d2	0.70512116
2	0x3fbbcd86	1.4672096
3	0xbf1b53da	-0.6067482
4	0xbe196881	-0.14981271
5	0xbeef79e8	-0.46772695
6	0xbea2b69b	-0.31779942
7	0x3efb7396	0.49111623
8	0x3f682283	0.9067766
9	0xbefca93b	-0.49347863
10	0x3ea0bd59	0.3139446
11	0x3e887ac2	0.26656157
12	0x3f997dd2	1.1991522
13	0x3ebc07e2	0.36724764
14	0x3f3d736e	0.74004257
15	0x3f8f1585	1.1178442
16	0x3f700ed9	0.93772656
17	0xbf3c47b8	-0.73546934
18	0x3f1dd792	0.6165706
19	0xbf35f13c	-0.7107122
20	0x3e1d9bb4	0.15391427
21	0x3c8693e1	0.016427936
22	0xbdd1062f	-0.102062576
23	0xbfa499d7	-1.2859448
24	0x3ec04272	0.37550694
25	0x3e9add75	0.30247083
26	0x3e29d388	0.16584599
27	0x3eec7534	0.4618317
28	0xbe843b59	-0.2582653
29	0xbf87c091	-1.0605642
30	0xbf541dac	-0.82857776
31	0x3d0677ff	0.03282928
32	0x3f870e21	1.0551187
33	0xbee01418	-0.4376533
34	0x3d6e66c7	0.058203485
35	0x3dbb8df9	0.091579385
36	0x3f2de2ce	0.679242
37	0xbe9c36e7	-0.30510637
38	0xbd75b8a4	-0.05999054
39	0xbec968aa	-0.39337665
40	0xbfbf3c37	-1.4940251
41	0xc02c9c72	-2.6970487
42	0xbe97a2d2	-0.2961641
43	0xbfdaba40	-1.7088089
44	0xbea256b4	-0.31706774
45	0x3f3bfe74	0.7343514
46	0x3e1ae746	0.15127286
47	0x3e9bf1f6	0.3045804
48	0xbfa3fb3f	-1.2811049
49	0xc04486d9	-3.0707304
50	0x3f488216	0.78323495
51	0x3e919fe0	0.28442287
52	0x3d6ab40b	0.05730061
53	0xbf2d2708	-0.6763768
54	0xbe1183c6	-0.14210424
55	0xbe39743c	-0.18110746
56	0x3e83f844	0.2577535
57	0x3ed0b736	0.4076478
58	0x3f7e05d2	0.9922763
59	0x3eb98e55	0.36241403
60	0xbe9f143a	-0.3107012
61	0x3ea1d8f8	0.31610847
62	0xbe08ec96	-0.133715
63	0x3e168743	0.14700036
64	0x3fb992a2	1.4497874
65	0xbe9ca37c	-0.3059348
66	0x3f48456c	0.7823093
67	0xbee06f8f	-0.43835112
68	0x3f2252c4	0.6340754
69	0xbec816cf	-0.39079902
70	0xbe408687	-0.18801318
71	0xbe3b64fd	-0.18300243
72	0xbddc662d	-0.10761676
73	0x3ddd0fb7	0.10794013
74	0x3c794bae	0.015215797
75	0x3e7aeb86	0.24503908
76	0xbd867b1a	-0.065664485
77	0x3e4c1160	0.19928503
78	0x3e1bc18b	0.1521055
79	0x3e8addd4	0.27122366
80	0xbde2aff2	-0.11068715
81	0x3ecf78df	0.40521905
82	0x3ee699ac	0.45039117
83	0x3db8f89d	0.09031794
84	0x3f429314	0.76005673
85	0xbee9396f	-0.4555163
86	0x3db5e3fa	0.08881374
87	0xbe7ec5f6	-0.24880204
88	0xbdfe8de5	-0.12429408
89	0x3de3b5e0	0.11118674
90	0xbec3bb6b	-0.38228926
91	0xbdf41157	-0.1191737
92	0x3dffcd0a	0.1249028
93	0x3eab1411	0.33413747
94	0x3f58b49a	0.84650576
95	0x3e143dc6	0.1447669
96	0x3eb12aa3	0.34602842
97	0x3fc15b96	1.5106075
98	0x3ed9bed1	0.42528394
99	0xbe9542a8	-0.29152417
100	0x403a1043	2.9072425
101	0x3edd2bd7	0.4319751
102	0xbec32a60	-0.38118267
103	0x3f91a124	1.1377301
104	0xbeb44d2c	-0.35215127
105	0x3e2e5ca2	0.17027524
106	0x3cd94ce6	0.026525926
107	0x3f2e16d5	0.6800359
108	0x3ee86b99	0.4539459
109	0x3ddc283c	0.107498616
110	0x3eb2c605	0.34916702
111	0x3e697479	0.22798337
112	0x3eb04b45	0.34432426
113	0x3e18abd3	0.14909296
114	0x3f0c463a	0.5479466
115	0xbe97beac	-0.2963766
116	0x3e25d396	0.16193995
117	0x3ee96088	0.4558146
118	0x3e552846	0.20816144
119	0x3e24bd97	0.16087948
120	0x3dadc95b	0.08485671
121	0xbeb55df7	-0.35423252
122	0xbe5a82b2	-0.21338919
123	0xbe73d466	-0.23811492
124	0x3eb93f42	0.36181074
125	0xbfa24eff	-1.2680358
126	0xbf5a381a	-0.85241854
127	0x3e8b8324	0.2724849
128	0x3cfa51f0	0.030556649
129	0xbe96b1f1	-0.29432634
130	0xbe625105	-0.22101219
131	0xbd243647	-0.040090825
132	0x3ea0aa43	0.313799
133	0xbfe22e17	-1.7670316
134	0x3eac7059	0.33679464
135	0xbf76fa6c	-0.96475863
136	0x3f490a90	0.7853174
137	0xbeb35f8f	-0.35033843
138	0x3f0945f3	0.5362236
139	0xbde5ce13	-0.11220946
140	0x3dfec5fc	0.12440106
141	0x3f3e3115	0.74293643
142	0xbf0ea887	-0.557259
143	0xbe44e57a	-0.19228163
144	0x3f7ca895	0.98694736
145	0x3f01d2f0	0.5071249
146	0x3e890b6a	0.2676652
147	0x3e960220	0.29298496
148	0x3f34f6a1	0.70688826
149	0xbf11d769	-0.56969315
150	0x3f4f7cd2	0.81049836
151	0x3f1ade11	0.60495096
152	0xbe5f684e	-0.21817133
153	0x3e94c044	0.29052937
154	0xbe652cdd	-0.22380395
155	0xbf3f3b3c	-0.7469976
156	0xbf84e9bb	-1.0383829
157	0x3faacd32	1.3343871
158	0xbfacbb6f	-1.34947
159	0xbf848887	-1.0354165
160	0x3e1102fe	0.14161298
161	0xbe8384ef	-0.25687358
162	0xbeb606d7	-0.35552093
163	0xbd95cd06	-0.07314496
164	0xbdea6083	-0.114441894
165	0x3d8457e2	0.06462075
166	0xbe82e584	-0.25565732
167	0x3f021386	0.5081104
168	0xbf1d54a8	-0.614573
169	0x3ec49174	0.38392222
170	0xbfd38ad2	-1.652674
171	0x3dc2608a	0.094910696
172	0xbe39722b	-0.18109958
173	0xbe9ae5d0	-0.30253458
174	0x3e6ce1c5	0.23132999
175	0x3eb9b37e	0.36269754
176	0x3fc81aa5	1.5633131
177	0x3d370c36	0.04468938
178	0x3f3a640f	0.7280893
179	0xbd905c75	-0.07048885
180	0xbecd79f3	-0.40132102
181	0xbccb75be	-0.024836417
182	0xbdeba5de	-0.11506246
183	0xbd229d73	-0.039700937
184	0x3fa00265	1.2500731
185	0x3e5fbf79	0.21850385
186	0xbf87f4ab	-1.0621542
187	0x3f2ba341	0.6704598
188	0xbe41b5f5	-0.18917067
189	0x3fa22986	1.2668922
190	0x3eaf3871	0.3422275
191	0xbfb6f1c7	-1.4292535
192	0x3f1a2ec1	0.6022759
193	0x3df58320	0.11987901
194	0x3d677a9d	0.056513418
195	0x3f399a9a	0.7250153
196	0xbf0f33cc	-0.5593841
197	0xc00807cb	-2.1254756
198	0xbd9334bc	-0.07187793
199	0x3f4dea1c	0.8043535
200	0x3f082fdc	0.5319803
201	0xbc9eac59	-0.019369291
202	0x3dd63fe7	0.10461407
203	0x3ca93257	0.020653887
204	0xbdb0889c	-0.08619806
205	0xbe55e68a	-0.20888725
206	0x3ec1f279	0.37880304
207	0x3e5faafb	0.21842568
208	0x401d4dc1	2.4578707
209	0xbf3dcb40	-0.7413826
210	0xbfcb6433	-1.5889953
211	0xbeb0c085	-0.3452188
212	0x401b4366	2.4259887
213	0x405ac6bb	3.4183795
214	0x3f0c249e	0.54743373
215	0x3fff871c	1.9963107
216	0x3eac86ee	0.33696693
217	0xbe69e914	-0.22842818
218	0x3e2c5c6e	0.16832134
219	0xbe2f2d32	-0.17107084
220	0xbfd3377e	-1.650131
221	0x3f7c2a5b	0.9850213
222	0xbe152fd4	-0.14569026
223	0x3f8e8e0d	1.11371
224	0xbf84abd8	-1.0364943
225	0x3c70ac56	0.014689526
226	0xbf1b6971	-0.60707766
227	0xbe519323	-0.20466284
228	0xbf130c58	-0.5744071
229	0xbd72143a	-0.05910132
230	0x3f3d4f5a	0.73949206
231	0xbb9c3339	-0.0047668484
232	0xbee81dd4	-0.45335257
233	0xbf03a065	-0.5141662
234	0x3c39c1d5	0.011337717
235	0xbd9ef385	-0.077612914
236	0xbf22d3a8	-0.6360421
237	0xc03680ef	-2.8516195
238	0x3c0f1835	0.008733799
239	0xbf56467d	-0.83701307
240	0x3eafd432	0.3434158
241	0x3e2b9f63	0.1676002
242	0xbe237388	-0.1596204
243	0x3ee6db8f	0.45089385
244	0xbf8406f4	-1.0314622
245	0x3e380db8	0.17973983
246	0x4083a448	4.113804
247	0xbfa31423	-1.274052
248	0x3df985ca	0.12183721
249	0xbe199be6	-0.15000877
250	0xbecad89d	-0.39618388
251	0x3cdead27	0.027182175
252	0x3e5371b7	0.20648848
253	0xbe8c2431	-0.27371362
254	0x3e2ae7dd	0.16690011
255	0xbe62d9cd	-0.22153397

encoder.lstm.weight_hh_l0 f4 [256, 64]
0	0xbedb46e6	-0.4282753
1	0x3e9f3cdc	0.3110112
2	0x3de7bc99	0.11315269
3	0xbe8908f2	-0.26764637
4	0xbf54844a	-0.8301436
5	0x3eae7c31	0.34079126
6	0xbeabdd27	-0.33567163
7	0x3e929d32	0.28635556
8	0xbf234902	-0.63783276
9	0x3e8bbe00	0.27293396
10	0xbf3c8212	-0.7363597
11	0xbd636a54	-0.055521324
12	0xbee2cc66	-0.4429657
13	0xbe4177a3	-0.18893294
14	0xbeb0a813	-0.3450323
15	0xbe280d3f	-0.16411303
16	0xbe6e93d9	-0.23298587
17	0xbd281bc5	-0.041042108
18	0x3f9b26b9	1.2121192
19	0x3e74dae1	0.2391162
20	0xbdff8339	-0.124762006
21	0x3f66ef49	0.9020887
22	0xbe9e7bac	-0.3095373
23	0x3fa761bd	1.3076702
24	0xbef36306	-0.47536486
25	0x3e36a0bd	0.17834754
26	0x3ed75fe8	0.42065358
27	0x3e7a5108	0.24444973
28	0x3f7a4f9b	0.9777772
29	0x3ceaab70	0.0286462
30	0x3e55520a	0.20832077
31	0xbe8ebb3a	-0.27877218
32	0xbea27eb2	-0.31737286
33	0xbe36fd43	-0.17870049
34	0xbea6a535	-0.32547918
35	0xbe72909e	-0.2368798
36	0xbe239197	-0.15973507
37	0xbee5e878	-0.44903922
38	0xbd8e3855	-0.06944338
39	0xbdcb3629	-0.099224396
40	0x3e4e812a	0.2016646
41	0xbed4d202	-0.41566473
42	0x3e93d765	0.2887527
43	0xbdb0d132	-0.08633651
44	0xba829574	-0.0009962753
45	0x3f12ceef	0.57347006
46	0xbf178037	-0.59180015
47	0x3baf4717	0.0053490507
48	0x3ee519f8	0.44746375
49	0x3ef2856d	0.4736742
50	0xbe92687a	-0.28595334
51	0xbeb99e80	-0.36253738
52	0xbe7a952b	-0.24470966
53	0x3e466fee	0.19378635
54	0xbe06982f	-0.13143991
55	0xbe9c3317	-0.30507728
56	0x3ed21566	0.4103195
57	0xbee56860	-0.44806194
58	0xbb62e49f	-0.0034621132
59	0x3f4729f9	0.7779842
60	0xbefb0797	-0.49029228
61	0x3f58bf80	0.84667206
62	0xbedc013b	-0.4296969
63	0x3e21a3ab	0.1578509
64	0xbbf89a7f	-0.0075867767
65	0x3de107cb	0.109878145
66	0x3e252d52	0.1613057
67	0x3e146691	0.14492251
68	0xbeab3990	-0.33442354
69	0x3e534d17	0.20634876
70	0x3eca81ce	0.39552158
71	0xbed3c38e	-0.41360134
72	0x3f5e2f11	0.8679057
73	0xbf212121	-0.62941176
74	0x3f2c67c7	0.6734585
75	0x3e6b5c3d	0.22984405
76	0x3e050eb2	0.12993887
77	0xbcc2d258	-0.02378194
78	0x3deab643	0.11460545
79	0xbd8fb5a4	-0.07017067
80	0x3ec3be7b	0.38231263
81	0x3d62d281	0.055376533
82	0xbe96eb6e	-0.29476494
83	0x3eba0f4b	0.36339793
84	0x3dc9b544	0.09849027
85	0x3ed58f5a	0.4171093
86	0xbef01443	-0.46890458
87	0x3e877a62	0.26460558
88	0xbea7fc8e	-0.3280987
89	0x3e33ab9f	0.17545937
90	0x3eed7eb2	0.46385723
91	0xbd25f068	-0.040512472
92	0x3dab9e7c	0.08379838
93	0xbee12772	-0.43975407
94	0xbe84faaf	-0.25972506
95	0xbcded64f	-0.0272018
96	0x3e48ba04	0.1960221
97	0x3e95c84b	0.29254374
98	0xbe8610e1	-0.26184753
99	0x3d4560c3	0.048187982
100	0x3eb3adf5	0.35093656
101	0xbd0ae351	-0.033908192
102	0xbf6e0d55	-0.92989093
103	0xbe888ea7	-0.26671335
104	0xbd12edaf	-0.035871204
105	0x3e4b0b5c	0.19828552
106	0xbc1e548b	-0.009663711
107	0x3f19b2ab	0.6003825
108	0xbe90d5af	-0.28288028
109	0xbf0c19c7	-0.54726833
110	0x3f195d90	0.5990839
111	0xbd1211ce	-0.03566151
112	0xbc288859	-0.010286414
113	0x3dcee2dc	0.10101864
114	0x3e88f6e4	0.26750863
115	0xbde58cff	-0.112085335
116	0xbe6d39c4	-0.23166567
117	0xbe5abc80	-0.2136097
118	0x3c600033	0.0136719225
119	0x3d929294	0.07156864
120	0xbe5a998c	-0.21347636
121	0xbe54012e	-0.20703575
122	0x3e16d33a	0.14729014
123	0xbef03dde	-0.469222
124	0x3e9f782d	0.31146374
125	0xbf076654	-0.52890515
126	0xbee6811e	-0.45020384
127	0x3e3159d5	0.17319424
128	0xbec30b1c	-0.38094413
129	0xbea8d8f9	-0.32978037
130	0xbdca017b	-0.098635636
131	0xbeb5d8de	-0.3551702
132	0xbf8ca3b2	-1.0987456
133	0x3db00fed	0.085967876
134	0x3cf331ec	0.02968689
135	0xbd522f95	-0.05131491
136	0xbdc47c9f	-0.09594082
137	0x3ded3019	0.115814395
138	0x3d835e36	0.06414454
139	0x3e2f68a9	0.17129768
140	0x3ec23b07	0.3793566
141	0xbeeac64b	-0.4585441
142	0xbeeaf9bd	-0.4589366
143	0xbee8a11b	-0.45435414
144	0x3ee60178	0.44922996
145	0x3cc7b916	0.024380248
146	0x3ef6dc43	0.4821492
147	0xbd5a1800	-0.053245544
148	0xbddd9abd	-0.108205296
149	0xbe8d3b93	-0.27584514
150	0xbdbcee0f	-0.092250936
151	0xbe32a2fe	-0.17444989
152	0x3dd17d77	0.10229009
153	0xbdee44d5	-0.116342224
154	0x3d4f10d9	0.050553177
155	0x3d48ef33	0.049056243
156	0x3f1ec034	0.6201203
157	0xbeba6852	-0.36407715
158	0x3d9a8865	0.075455464
159	0xbd4dfa01	-0.05028725
160	0xbea60ee2	-0.3243323
161	0x3e4c6860	0.19961691
162	0xbe97b5a0	-0.29630756
163	0xbe8d7b1d	-0.2763299
164	0x3c15621e	0.009117631
165	0x3e2133c5	0.15742405
166	0x3f3460e9	0.70460373
167	0xbcf4ad0a	-0.029867668
168	0xbbd2d7ca	-0.0064344155
169	0x3e2ad464	0.16682583
170	0xbe855a3e	-0.26045412
171	0xbea26985	-0.3172113
172	0x3ece60f1	0.40308335
173	0x3f1ac931	0.60463244
174	0xbda28e7b	-0.07937332
175	0xbd1ba0e1	-0.037995223
176	0x3c9ad82b	0.018901905
177	0x3ebcf31c	0.36904228
178	0xbea4cb5a	-0.32186395
179	0xbd42ae61	-0.047529582
180	0x3e163c92	0.14671543
181	0x3e3a45db	0.1819071
182	0x3e93dd4a	0.28879768
183	0x3f225a89	0.63419396
184	0x3ef6a5d0	0.4817338
185	0x3ed1c94e	0.40973896
186	0xbd8c35ab	-0.06846174
187	0xbe10309c	-0.14081043
188	0xbe9376d8	-0.28801608
189	0xbeecf6d9	-0.4628208
190	0x3e3dc892	0.18533543
191	0x3de56da7	0.11202555
192	0x3e9f8925	0.3115932
193	0xbd7318ce	-0.059349827
194	0xbe18d413	-0.1492465
195	0xbf5c968c	-0.86167216
196	0x3f550efc	0.8322599
197	0xbdfd4b47	-0.12367874
198	0x3e6461e2	0.22302964
199	0x3f1c6619	0.6109329
200	0xbfbd9031	-1.4809629
201	0xbf03cd7a	-0.5148541
202	0xbffbfa8e	-1.9685838
203	0xbdbeb5d2	-0.09312023
204	0xbf3e6100	-0.7436676
205	0xbdea769b	-0.114484034
206	0xbe9b080e	-0.30279583
207	0xbe4b917c	-0.19879717
208	0xbd1a4f8b	-0.037673514
209	0xbd638ea2	-0.055555947
210	0x3e67dd8f	0.22643112
211	0x3de54d4b	0.11196383
212	0x3dc33c27	0.095329575
213	0x3f0af933	0.542865
214	0x3f8ce5b6	1.1007602
215	0x3dcce48b	0.100045286
216	0x3dc5bc65	0.09655074
217	0xbecb2b1d	-0.3968133
218	0x3ea44ba9	0.32088974
219	0x3da2c5c6	0.079478785
220	0x3f23818b	0.6386954
221	0x3e16b102	0.1471596
222	0xbea37414	-0.31924498
223	0xbdf2772f	-0.11839139
224	0xbe88027d	-0.26564398
225	0x3a2de179	0.00066330243
226	0xbe4d9582	-0.20076564
227	0x3e8ec5f0	0.2788539
228	0x3eae70e6	0.3407051
229	0xbe733500	-0.23750687
230	0x3b5cb2f6	0.0033676005
231	0x3cddd8bd	0.027080888
232	0x3e01ebce	0.12687609
233	0x3e14884e	0.14505121
234	0x3d1f3371	0.038867418
235	0xbf47b78c	-0.78014445
236	0x3f0acd6b	0.5421969
237	0x3ee69a39	0.45039538
238	0x3f1ed131	0.6203795
239	0xbddedc34	-0.10881844
240	0xbd94409b	-0.07238885
241	0x3e4b56b6	0.19857296
242	0x3ebbb49e	0.36661237
243	0x3d03e93e	0.03220486
244	0xbfd2f0ac	-1.6479697
245	0xbee8362a	-0.45353824
246	0xbba45a99	-0.005015683
247	0xbe260918	-0.16214406
248	0x3e63764f	0.222131
249	0xbcf6ef7d	-0.030143494
250	0xbe047c19	-0.12937964
251	0x3ffc89e0	1.9729576
252	0x3fb7267c	1.430862
253	0x3cbc3b95	0.02297763
254	0x3e14dc98	0.14537275
255	0x3e798bea	0.24369779

encoder.lstm.bias_ih_l0 f4 [256]
0	0xbee55dad	-0.4479803
1	0x3d9d195e	0.07670854
2	0xbe0ca8f4	-0.13736326
3	0xbe9f97a3	-0.31170377
4	0xbdd77670	-0.10520637
5	0x3c7c29a9	0.015390792
6	0x3ddb685e	0.10713266
7	0x3f21b25b	0.63162774
8	0xbda525bb	-0.08063837
9	0x3d6b62f8	0.05746743
10	0xbed2a3a1	-0.41140464
11	0x3ddd92c9	0.10819013
12	0xbe918a9a	-0.28426057
13	0x3d2fe5fe	0.042943947
14	0xbe0bafc5	-0.1364127
15	0xbed50770	-0.41607237
16	0xbf163281	-0.5867081
17	0xbe72eb7d	-0.23722644
18	0x3ef84b34	0.48494875
19	0x3e94d706	0.290703
20	0x3db20c12	0.086937085
21	0xbd2574c2	-0.040394552
22	0xbead7cb9	-0.33884218
23	0x3e139a5d	0.14414354
24	0x3d6d93a0	0.058002114
25	0xbef12e1b	-0.47105488
26	0xbb2d9caa	-0.0026491084
27	0xbdad47c4	-0.08460954
28	0x3e994d36	0.2994172
29	0x3e7298b0	0.23691058
30	0x3e1c5243	0.15265755
31	0x3ef96bdf	0.48715112
32	0x3ece4e70	0.40294218
33	0xbdebe6d5	-0.11518637
34	0x3e8be82e	0.27325577
35	0xbf3cd624	-0.7376425
36	0xbe18df14	-0.14928848
37	0xbda521ad	-0.08063064
38	0xbd914f74	-0.070952326
39	0x3c56cc34	0.013110209
40	0xbd6a6f2b	-0.057234924
41	0xbdeb7ba4	-0.11498192
42	0xbe966922	-0.29377085
43	0xbe27eec9	-0.16399683
44	0xbe29ba80	-0.1657505
45	0x3ef9da34	0.48799288
46	0xbd80a1bb	-0.06280848
47	0x3e6ae72e	0.2293975
48	0x3f0757da	0.52868426
49	0xbf112dd6	-0.56710565
50	0x3eaa5b92	0.33272988
51	0xbe9cfb3c	-0.30660427
52	0xbe6129c4	-0.21988589
53	0x3f00405c	0.50098205
54	0x3e87c3e8	0.26516652
55	0xbe9d37b4	-0.3070656
56	0xbdfc41e5	-0.12317256
57	0xbea0df75	-0.31420484
58	0xbe2bf7ce	-0.16793749
59	0xbf0056d7	-0.5013251
60	0xbd6cf07b	-0.057846528
61	0xbec66245	-0.3874685
62	0x3f111b11	0.56681925
63	0xbef23e6a	-0.47313243
64	0xbdf0ab84	-0.11751464
65	0x3f4026c1	0.75059134
66	0xbe652824	-0.22378594
67	0xbe8913a3	-0.26772794
68	0xbc643c7c	-0.013930436
69	0x3e6ef2bd	0.23334785
70	0xbe62224a	-0.22083393
71	0xbe58c073	-0.21167164
72	0x3e18bae1	0.14915039
73	0x3ea2e818	0.31817698
74	0x3ef94b41	0.48690227
75	0x3d8bc292	0.06824221
76	0xbf311445	-0.69171554
77	0xbf3d1acd	-0.7386902
78	0x3ee9ff3d	0.45702544
79	0xbee2a22b	-0.4426435
80	0xbf2c840b	-0.6738898
81	0xbebbb5ba	-0.36662084
82	0xbe7f6ff0	-0.24945045
83	0xbedaded6	-0.42748135
84	0xbea40ecd	-0.32042542
85	0xbeefa5ab	-0.46806082
86	0xbb8fa308	-0.0043834485
87	0x3daeaed9	0.08529443
88	0xbb96a2da	-0.00459705
89	0x3e4ddf1a	0.20104638
90	0x3dfac425	0.12244443
91	0xbe814939	-0.25251177
92	0xbf33b13d	-0.7019232
93	0x3efde320	0.49587345
94	0xbe1191d0	-0.1421578
95	0x3ed08669	0.40727547
96	0x3eb754d7	0.35806915
97	0xbe5b5a49	-0.2142116
98	0x3aa4f365	0.0012584744
99	0xbf0019e8	-0.5003953
100	0x3e50fe28	0.20409453
101	0xbe43a6f6	-0.1910666
102	0x3ef27111	0.47351888
103	0xbd00d7fb	-0.031455975
104	0xbf1347da	-0.5753151
105	0xbe4e3a53	-0.20139436
106	0xbf194317	-0.59867996
107	0xbf5c227e	-0.8599013
108	0x3e0c27da	0.13687077
109	0xbdaf83eb	-0.08570083
110	0x3f481ad7	0.78165954
111	0xbe6f7744	-0.2338534
112	0xbeb72fed	-0.35778752
113	0xbf0a55fe	-0.54037464
114	0x3d0baa14	0.034097746
115	0xbeaf24d9	-0.342078
116	0xbe756705	-0.2396508
117	0x3ca2b6c3	0.019862538
118	0x3dbbbc4d	0.09166775
119	0xbf0a2e8d	-0.5397728
120	0xbede9f1a	-0.4348076
121	0x3e354cd8	0.17705095
122	0xbebaa689	-0.3645518
123	0xbe9265d8	-0.28593326
124	0xbf821d4a	-1.0165188
125	0xbeca594e	-0.3952126
126	0x3e01f037	0.12689291
127	0xbeb77465	-0.3583099
128	0xbe670f48	-0.22564423
129	0x3e99e038	0.30053878
130	0xbefed2d7	-0.49770233
131	0x3e533db4	0.20629007
132	0xbe1a86df	-0.15090512
133	0xbe73ad6e	-0.23796627
134	0xbe4853b2	-0.19563177
135	0xbd17895f	-0.03699624
136	0x3e401963	0.18759684
137	0x3e2f8fcd	0.171447
138	0x3ee0019c	0.43751228
139	0xbeaa5c78	-0.33273673
140	0xbe252721	-0.16128208
141	0x3e4a3026	0.1974493
142	0x3e5519af	0.20810579
143	0xbe68b09c	-0.22723621
144	0xbdf2cfd9	-0.1185605
145	0xbeec3c12	-0.4613958
146	0x3ead2138	0.33814406
147	0xbebf778c	-0.37395895
148	0xbe7d16fa	-0.24715796
149	0x3d453f79	0.048156235
150	0xbeb4ae57	-0.3528926
151	0x3eaa8f1e	0.33312315
152	0x3ea6d126	0.32581443
153	0x3eb8840e	0.3603825
154	0xbf1df9ec	-0.61709476
155	0x3e390e9c	0.1807198
156	0xbcdad89a	-0.026714612
157	0x3ec305ee	0.38090461
158	0x3e0b6d93	0.13616018
159	0x3f3d392b	0.73915356
160	0x3e9332c4	0.2874967
161	0xbd8997a2	-0.06718375
162	0x3ea30a52	0.3184381
163	0x3d20478e	0.03913074
164	0xbea00d61	-0.31260207
165	0xbd2c9a79	-0.042139504
166	0x3dfd3966	0.123644635
167	0x3cbad0d7	0.02280466
168	0x3e989a71	0.2980533
169	0x3eceb66f	0.4037356
170	0xbe46e9ff	-0.194252
171	0x3eb20de1	0.34776214
172	0x3e275ce2	0.16344026
173	0x3e0181db	0.12647192
174	0xbf3c73d3	-0.73614234
175	0xbe25c62e	-0.16188881
176	0x3e6f3ee0	0.23363829
177	0x3e1d3b39	0.15354623
178	0xbef92c1b	-0.48666462
179	0xbe0afa7a	-0.13572112
180	0x3e9896a4	0.2980243
181	0xbf0d5de6	-0.552214
182	0x3ed2fc7e	0.4120826
183	0x3f26dad5	0.6517766
184	0xbe9f71f7	-0.31141636
185	0x3e89557e	0.26823038
186	0x3d46b2a2	0.0485102
187	0xbed04102	-0.40674597
188	0xbed6ceac	-0.41954553
189	0x3da8a438	0.08234447
190	0xbf1552eb	-0.5832965
191	0x3ccbebf9	0.024892794
192	0xbf747e90	-0.9550562
193	0xbed338ee	-0.4125437
194	0x3dc84160	0.09778094
195	0x3d998aaf	0.07497155
196	0x3eefef4c	0.46862257
197	0xba8eefe4	-0.0010905233
198	0x3cb7d807	0.022441877
199	0x3f16e0ce	0.58936775
200	0xbf7b1ebc	-0.9809377
201	0xbe016b59	-0.12638606
202	0x3e61ead5	0.22062238
203	0x3e4decd8	0.2010988
204	0xbbb40df9	-0.0054948297
205	0xbd6a4010	-0.05719
206	0xbe37704d	-0.17913933
207	0xbf024737	-0.50889915
208	0xbe95cf92	-0.29259926
209	0xbefcec6d	-0.4939913
210	0x3f471737	0.777698
211	0x3d4e5378	0.05037257
212	0xbd97daef	-0.07414805
213	0x3c94ba43	0.018155223
214	0xbeb97975	-0.36225477
215	0xbc894a0e	-0.016758945
216	0xbd92f498	-0.07175559
217	0xbe8848bd	-0.26617995
218	0x3d04f2b5	0.032458026
219	0xbec8a809	-0.391907
220	0x3d9f5afe	0.07781027
221	0x3e0e05e9	0.13869442
222	0xbc30ec52	-0.010798531
223	0x3db7d48d	0.08976088
224	0x3d22ab39	0.039714072
225	0xbeee9c57	-0.46603653
226	0x3e577049	0.21038927
227	0xbeca8ba5	-0.39559665
228	0x3e4e89b0	0.20169711
229	0xbeba124a	-0.36342078
230	0x3eef10be	0.4669246
231	0xbf494464	-0.7861998
232	0xbd04c11e	-0.032410733
233	0xbd0a6a05	-0.033792514
234	0xbf06e6cb	-0.5269591
235	0xbea6b552	-0.3256021
236	0xbe7779b6	-0.24167523
237	0x3c92e140	0.017929673
238	0xbe132e2f	-0.14373086
239	0xbed086d9	-0.4072788
240	0x3e9e7734	0.3095032
241	0xbea66f81	-0.32506946
242	0x3db3a0b2	0.087708846
243	0xbb8e6e84	-0.0043466706
244	0xbdd6fa7b	-0.10496994
245	0x3dc74d0b	0.09731492
246	0x3ea3c46b	0.31985793
247	0xbec46507	-0.38358328
248	0xbe0126a1	-0.12612392
249	0xbecd7cea	-0.40134364
250	0xbee35625	-0.4440166
251	0xbee4b3e5	-0.446685
252	0x3ea03ab3	0.31294784
253	0xbe67b33e	-0.22626969
254	0xbe7e8530	-0.24855494
255	0xbed23ea8	-0.41063428

encoder.lstm.bias_hh_l0 f4 [256]
0	0xbee55dad	-0.4479803
1	0x3d9d195e	0.07670854
2	0xbe0ca8f4	-0.13736326
3	0xbe9f97a3	-0.31170377
4	0xbdd77670	-0.10520637
5	0x3c7c29a9	0.015390792
6	0x3ddb685e	0.10713266
7	0x3f21b25b	0.63162774
8	0xbda525bb	-0.08063837
9	0x3d6b62f8	0.05746743
10	0xbed2a3a1	-0.41140464
11	0x3ddd92c9	0.10819013
12	0xbe918a9a	-0.28426057
13	0x3d2fe5fe	0.042943947
14	0xbe0bafc5	-0.1364127
15	0xbed50770	-0.41607237
16	0xbf163281	-0.5867081
17	0xbe72eb7d	-0.23722644
18	0x3ef84b34	0.48494875
19	0x3e94d706	0.290703
20	0x3db20c12	0.086937085
21	0xbd2574c2	-0.040394552
22	0xbead7cb9	-0.33884218
23	0x3e139a5d	0.14414354
24	0x3d6d93a0	0.058002114
25	0xbef12e1b	-0.47105488
26	0xbb2d9caa	-0.0026491084
27	0xbdad47c4	-0.08460954
28	0x3e994d36	0.2994172
29	0x3e7298b0	0.23691058
30	0x3e1c5243	0.15265755
31	0x3ef96bdf	0.48715112
32	0x3ece4e70	0.40294218
33	0xbdebe6d5	-0.11518637
34	0x3e8be82e	0.27325577
35	0xbf3cd624	-0.7376425
36	0xbe18df14	-0.14928848
37	0xbda521ad	-0.08063064
38	0xbd914f74	-0.070952326
39	0x3c56cc34	0.013110209
40	0xbd6a6f2b	-0.057234924
41	0xbdeb7ba4	-0.11498192
42	0xbe966922	-0.29377085
43	0xbe27eec9	-0.16399683
44	0xbe29ba80	-0.1657505
45	0x3ef9da34	0.48799288
46	0xbd80a1bb	-0.06280848
47	0x3e6ae72e	0.2293975
48	0x3f0757da	0.52868426
49	0xbf112dd6	-0.56710565
50	0x3eaa5b92	0.33272988
51	0xbe9cfb3c	-0.30660427
52	0xbe6129c4	-0.21988589
53	0x3f00405c	0.50098205
54	0x3e87c3e8	0.26516652
55	0xbe9d37b4	-0.3070656
56	0xbdfc41e5	-0.12317256
57	0xbea0df75	-0.31420484
58	0xbe2bf7ce	-0.16793749
59	0xbf0056d7	-0.5013251
60	0xbd6cf07b	-0.057846528
61	0xbec66245	-0.3874685
62	0x3f111b11	0.56681925
63	0xbef23e6a	-0.47313243
64	0xbdf0ab84	-0.11751464
65	0x3f4026c1	0.75059134
66	0xbe652824	-0.22378594
67	0xbe8913a3	-0.26772794
68	0xbc643c7c	-0.013930436
69	0x3e6ef2bd	0.23334785
70	0xbe62224a	-0.22083393
71	0xbe58c073	-0.21167164
72	0x3e18bae1	0.14915039
73	0x3ea2e818	0.31817698
74	0x3ef94b41	0.48690227
75	0x3d8bc292	0.06824221
76	0xbf311445	-0.69171554
77	0xbf3d1acd	-0.7386902
78	0x3ee9ff3d	0.45702544
79	0xbee2a22b	-0.4426435
80	0xbf2c840b	-0.6738898
81	0xbebbb5ba	-0.36662084
82	0xbe7f6ff0	-0.24945045
83	0xbedaded6	-0.42748135
84	0xbea40ecd	-0.32042542
85	0xbeefa5ab	-0.46806082
86	0xbb8fa308	-0.0043834485
87	0x3daeaed9	0.08529443
88	0xbb96a2da	-0.00459705
89	0x3e4ddf1a	0.20104638
90	0x3dfac425	0.12244443
91	0xbe814939	-0.25251177
92	0xbf33b13d	-0.7019232
93	0x3efde320	0.49587345
94	0xbe1191d0	-0.1421578
95	0x3ed08669	0.40727547
96	0x3eb754d7	0.35806915
97	0xbe5b5a49	-0.2142116
98	0x3aa4f365	0.0012584744
99	0xbf0019e8	-0.5003953
100	0x3e50fe28	0.20409453
101	0xbe43a6f6	-0.1910666
102	0x3ef27111	0.47351888
103	0xbd00d7fb	-0.031455975
104	0xbf1347da	-0.5753151
105	0xbe4e3a53	-0.20139436
106	0xbf194317	-0.59867996
107	0xbf5c227e	-0.8599013
108	0x3e0c27da	0.13687077
109	0xbdaf83eb	-0.08570083
110	0x3f481ad7	0.78165954
111	0xbe6f7744	-0.2338534
112	0xbeb72fed	-0.35778752
113	0xbf0a55fe	-0.54037464
114	0x3d0baa14	0.034097746
115	0xbeaf24d9	-0.342078
116	0xbe756705	-0.2396508
117	0x3ca2b6c3	0.019862538
118	0x3dbbbc4d	0.09166775
119	0xbf0a2e8d	-0.5397728
120	0xbede9f1a	-0.4348076
121	0x3e354cd8	0.17705095
122	0xbebaa689	-0.3645518
123	0xbe9265d8	-0.28593326
124	0xbf821d4a	-1.0165188
125	0xbeca594e	-0.3952126
126	0x3e01f037	0.12689291
127	0xbeb77465	-0.3583099
128	0xbe670f48	-0.22564423
129	0x3e99e038	0.30053878
130	0xbefed2d7	-0.49770233
131	0x3e533db4	0.20629007
132	0xbe1a86df	-0.15090512
133	0xbe73ad6e	-0.23796627
134	0xbe4853b2	-0.19563177
135	0xbd17895f	-0.03699624
136	0x3e401963	0.18759684
137	0x3e2f8fcd	0.171447
138	0x3ee0019c	0.43751228
139	0xbeaa5c78	-0.33273673
140	0xbe252721	-0.16128208
141	0x3e4a3026	0.1974493
142	0x3e5519af	0.20810579
143	0xbe68b09c	-0.22723621
144	0xbdf2cfd9	-0.1185605
145	0xbeec3c12	-0.4613958
146	0x3ead2138	0.33814406
147	0xbebf778c	-0.37395895
148	0xbe7d16fa	-0.24715796
149	0x3d453f79	0.048156235
150	0xbeb4ae57	-0.3528926
151	0x3eaa8f1e	0.33312315
152	0x3ea6d126	0.32581443
153	0x3eb8840e	0.3603825
154	0xbf1df9ec	-0.61709476
155	0x3e390e9c	0.1807198
156	0xbcdad89a	-0.026714612
157	0x3ec305ee	0.38090461
158	0x3e0b6d93	0.13616018
159	0x3f3d392b	0.73915356
160	0x3e9332c4	0.2874967
161	0xbd8997a2	-0.06718375
162	0x3ea30a52	0.3184381
163	0x3d20478e	0.03913074
164	0xbea00d61	-0.31260207
165	0xbd2c9a79	-0.042139504
166	0x3dfd3966	0.123644635
167	0x3cbad0d7	0.02280466
168	0x3e989a71	0.2980533
169	0x3eceb66f	0.4037356
170	0xbe46e9ff	-0.194252
171	0x3eb20de1	0.34776214
172	0x3e275ce2	0.16344026
173	0x3e0181db	0.12647192
174	0xbf3c73d3	-0.73614234
175	0xbe25c62e	-0.16188881
176	0x3e6f3ee0	0.23363829
177	0x3e1d3b39	0.15354623
178	0xbef92c1b	-0.48666462
179	0xbe0afa7a	-0.13572112
180	0x3e9896a4	0.2980243
181	0xbf0d5de6	-0.552214
182	0x3ed2fc7e	0.4120826
183	0x3f26dad5	0.6517766
184	0xbe9f71f7	-0.31141636
185	0x3e89557e	0.26823038
186	0x3d46b2a2	0.0485102
187	0xbed04102	-0.40674597
188	0xbed6ceac	-0.41954553
189	0x3da8a438	0.08234447
190	0xbf1552eb	-0.5832965
191	0x3ccbebf9	0.024892794
192	0xbf747e90	-0.9550562
193	0xbed338ee	-0.4125437
194	0x3dc84160	0.09778094
195	0x3d998aaf	0.07497155
196	0x3eefef4c	0.46862257
197	0xba8eefe4	-0.0010905233
198	0x3cb7d807	0.022441877
199	0x3f16e0ce	0.58936775
200	0xbf7b1ebc	-0.9809377
201	0xbe016b59	-0.12638606
202	0x3e61ead5	0.22062238
203	0x3e4decd8	0.2010988
204	0xbbb40df9	-0.0054948297
205	0xbd6a4010	-0.05719
206	0xbe37704d	-0.17913933
207	0xbf024737	-0.50889915
208	0xbe95cf92	-0.29259926
209	0xbefcec6d	-0.4939913
210	0x3f471737	0.777698
211	0x3d4e5378	0.05037257
212	0xbd97daef	-0.07414805
213	0x3c94ba43	0.018155223
214	0xbeb97975	-0.36225477
215	0xbc894a0e	-0.016758945
216	0xbd92f498	-0.07175559
217	0xbe8848bd	-0.26617995
218	0x3d04f2b5	0.032458026
219	0xbec8a809	-0.391907
220	0x3d9f5afe	0.07781027
221	0x3e0e05e9	0.13869442
222	0xbc30ec52	-0.010798531
223	0x3db7d48d	0.08976088
224	0x3d22ab39	0.039714072
225	0xbeee9c57	-0.46603653
226	0x3e577049	0.21038927
227	0xbeca8ba5	-0.39559665
228	0x3e4e89b0	0.20169711
229	0xbeba124a	-0.36342078
230	0x3eef10be	0.4669246
231	0xbf494464	-0.7861998
232	0xbd04c11e	-0.032410733
233	0xbd0a6a05	-0.033792514
234	0xbf06e6cb	-0.5269591
235	0xbea6b552	-0.3256021
236	0xbe7779b6	-0.24167523
237	0x3c92e140	0.017929673
238	0xbe132e2f	-0.14373086
239	0xbed086d9	-0.4072788
240	0x3e9e7734	0.3095032
241	0xbea66f81	-0.32506946
242	0x3db3a0b2	0.087708846
243	0xbb8e6e84	-0.0043466706
244	0xbdd6fa7b	-0.10496994
245	0x3dc74d0b	0.09731492
246	0x3ea3c46b	0.31985793
247	0xbec46507	-0.38358328
248	0xbe0126a1	-0.12612392
249	0xbecd7cea	-0.40134364
250	0xbee35625	-0.4440166
251	0xbee4b3e5	-0.446685
252	0x3ea03ab3	0.31294784
253	0xbe67b33e	-0.22626969
254	0xbe7e8530	-0.24855494
255	0xbed23ea8	-0.41063428

decoder.lstm.weight_ih_l0 f4 [256, 5]
0	0x3e890d20	0.26767826
1	0xbf29abb1	-0.66277605
2	0xbf50a831	-0.8150664
3	0x3f0cec77	0.55048317
4	0xbde46da6	-0.11153726
5	0xbea695ac	-0.32536066
6	0xbd09a2db	-0.033602577
7	0xbe13a7df	-0.14419506
8	0xbf6e54af	-0.93097967
9	0xbe6cabba	-0.23112383
10	0xbf0a64f1	-0.54060274
11	0xbf340ab8	-0.70328856
12	0x3d8a60fe	0.06756781
13	0xbf2e23de	-0.6802348
14	0xbf09da4c	-0.5384872
15	0xbe02b9f6	-0.12766251
16	0xbf0e1299	-0.5549713
17	0x3e0d2431	0.13783337
18	0x3df4b2b0	0.119481444
19	0xbe5a90a8	-0.21344244
20	0xbf0ecc4c	-0.5578048
21	0x3e9934e7	0.29923174
22	0xbc94a06c	-0.018142901
23	0xbe9fde7e	-0.31224436
24	0xbfac3805	-1.3454596
25	0xbe91097e	-0.28327554
26	0xbfab1013	-1.336428
27	0xbf52cd62	-0.8234464
28	0x3e349164	0.17633587
29	0xbf2cce41	-0.6750222
30	0xbe6288d8	-0.22122514
31	0xbd88f6f3	-0.06687727
32	0xbcd6e481	-0.026232006
33	0x3ee6860b	0.45024142
34	0x3ed49e47	0.41527006
35	0xbf2c27ee	-0.6724843
36	0x3d6aec70	0.05735439
37	0x3e8ca61b	0.27470478
38	0x3e52be42	0.2058039
39	0xbf36b8e9	-0.713759
40	0xbf47c2be	-0.7803153
41	0xbf63eafd	-0.8903044
42	0xbf907bd7	-1.1287793
43	0x3f292193	0.66066855
44	0x3d5eaf6c	0.054366514
45	0x3efb15b3	0.49039993
46	0xbca37557	-0.019953413
47	0xbdf4797d	-0.119372346
48	0x3f23e2a7	0.6401772
49	0x3e6f09c1	0.23343565
50	0xbe663378	-0.22480571
51	0xbe6bac53	-0.23014955
52	0xbeb94875	-0.36188093
53	0xbeb831bc	-0.35975444
54	0xbeec0ab3	-0.46101913
55	0xbe4cd7b1	-0.20004155
56	0xbf334e82	-0.7004167
57	0x3e05e17b	0.13074295
58	0x3f6578dd	0.8963755
59	0xbff7d5d3	-1.9362129
60	0x3f046508	0.5171666
61	0xbe73b43e	-0.23799226
62	0xbec38ef8	-0.38195014
63	0xbf256d77	-0.64620155
64	0x3f000148	0.50001955
65	0x3eb832a3	0.35976133
66	0xbed404fc	-0.41410053
67	0x3e97ce21	0.2964945
68	0xbeb2f8f4	-0.3495556
69	0xbc86d302	-0.016458038
70	0xbe095d5f	-0.13414524
71	0xbf9ae2e8	-1.2100496
72	0xbf23dcec	-0.64008975
73	0x3e2c8026	0.1684576
74	0xbd14d6ec	-0.036337778
75	0x3f202a9a	0.62565005
76	0x3f52888f	0.8223962
77	0x3ea659cf	0.32490394
78	0xbf690238	-0.9101901
79	0xbf00aad5	-0.5026067
80	0xbe943b75	-0.28951612
81	0xbfbd9ce4	-1.4813504
82	0xbf1c82e2	-0.6113721
83	0x3ecdb9ab	0.40180716
84	0x3ccc2d34	0.024923898
85	0xbe8039b8	-0.25044036
86	0xbe688294	-0.22706062
87	0x3ed56a28	0.41682553
88	0xbf052080	-0.52002716
89	0x3de386ed	0.111097194
90	0xbd3bd83d	-0.045860518
91	0xbdb9357b	-0.09043404
92	0xbeef5034	-0.46740878
93	0x3d608230	0.054811656
94	0xbfdb8699	-1.7150451
95	0x3f1cd3c7	0.61260647
96	0xbf0365d3	-0.51327246
97	0x3b42db6c	0.0029732836
98	0x3ee92296	0.455342
99	0x3ed2cdec	0.4117273
100	0xbe6d5b72	-0.23179415
101	0x3ee7b637	0.45256206
102	0xbe687556	-0.2270101
103	0x3eb0163f	0.34391972
104	0xbe7f6992	-0.24942616
105	0xbe85c2df	-0.26125237
106	0xbde7267a	-0.11286636
107	0x3d76f7e0	0.060294986
108	0xbe983ab7	-0.29732296
109	0xbe93e6c5	-0.28887
110	0x3e317645	0.17330272
111	0x3e84d1fd	0.25941458
112	0xbea2ca2b	-0.31794867
113	0xbee15bb3	-0.44015273
114	0xbe5aa78b	-0.21352975
115	0xbda3ac9f	-0.07991909
116	0xbf4c82fb	-0.7988736
117	0x3eb7fffc	0.35937488
118	0xbfc83ad8	-1.5642958
119	0xbfbca501	-1.4737855
120	0xbea11c42	-0.31466872
121	0xbe840a81	-0.25789264
122	0x3e7be187	0.2459775
123	0xbf7dfb59	-0.9921165
124	0xbf874754	-1.0568643
125	0xbe3b3ede	-0.182857
126	0xbf0b3b04	-0.54386926
127	0xbbd19487	-0.0063958797
128	0xbe8f21e8	-0.27955556
129	0xbbc136cb	-0.0058964244
130	0xbf04db8a	-0.5189749
131	0x3de22526	0.11042242
132	0xbf03128a	-0.51200163
133	0xbe54cb02	-0.20780566
134	0xbd2a03c6	-0.041507505
135	0xbcb7b6eb	-0.02242609
136	0xbf17c71a	-0.5928818
137	0x3e2db18b	0.16962259
138	0x3f4f33eb	0.80938596
139	0xbbc158de	-0.0059004864
140	0x3fac918d	1.3481919
141	0xbfbdc6d2	-1.48263
142	0xbe5ae4ee	-0.21376392
143	0x3f47b2c6	0.7800716
144	0x3f82162d	1.0163018
145	0x3d66b7f3	0.05632777
146	0x3e43e4c9	0.19130243
147	0x3e79fd69	0.24413075
148	0x3e0c710d	0.13715
149	0x3f86dd57	1.0536298
150	0x3e074781	0.1321087
151	0x3e39f0d2	0.18158272
152	0xbe52f85f	-0.20602559
153	0x3e8d9772	0.27654606
154	0xbf3704fa	-0.7149197
155	0xbf15907f	-0.5842361
156	0xbedb5539	-0.42838457
157	0xbe0056d1	-0.12533118
158	0x3bdd1a7b	0.0067475415
159	0xbea5e45a	-0.3240078
160	0xbf04921d	-0.5178545
161	0x3c2a7636	0.01040416
162	0x3d9d1f21	0.07671953
163	0x3e8f8217	0.28028938
164	0x3cfafd97	0.0306385
165	0xbeb4771c	-0.35247123
166	0xbfc5b410	-1.5445576
167	0xbfd8ce95	-1.6938044
168	0x3ea1286b	0.3147615
169	0x3e019cf3	0.12657528
170	0xbf7e487c	-0.9932935
171	0xbf016593	-0.50545615
172	0xbe38f62a	-0.18062654
173	0xbf3f7d0c	-0.7480018
174	0xbe04ceb9	-0.12969483
175	0xbf407c4d	-0.7518967
176	0xbe6c1e5e	-0.23058459
177	0xbf23ed3c	-0.64033866
178	0x3e4d4a00	0.2004776
179	0xbf2c9f26	-0.6743034
180	0xbec7f95d	-0.39057437
181	0xbe79cd3e	-0.243947
182	0xbea82441	-0.3284016
183	0xbf1a78f8	-0.60340834
184	0xbe130faa	-0.14361444
185	0xbef26526	-0.47342795
186	0xbf752600	-0.9576111
187	0x3edd3466	0.4320404
188	0xbec4daef	-0.38448283
189	0x3dfff448	0.12497765
190	0xbf04bde5	-0.51852256
191	0xbe35c391	-0.17750384
192	0xbde6c9ce	-0.1126896
193	0xbe83201d	-0.25610438
194	0xbd47f2fd	-0.048815716
195	0xbe8eb28f	-0.27870604
196	0xbf12b2a0	-0.5730381
197	0xbf25f3c9	-0.6482511
198	0x3e6775f4	0.2260359
199	0xbe9de868	-0.30841374
200	0xbf14e95a	-0.58168566
201	0xbf671072	-0.9025947
202	0xbf43b6f3	-0.76451033
203	0x3ee04b9c	0.43807685
204	0xbf421c09	-0.7582403
205	0xbf215ef1	-0.63035494
206	0xbf830413	-1.0235618
207	0xbeeea1d3	-0.46607837
208	0x3ee4a7dd	0.4465932
209	0xbef614ba	-0.48062688
210	0xbebd4647	-0.3696768
211	0x3dedc651	0.116100915
212	0xbdc04ea6	-0.09390001
213	0xbfa17b3d	-1.2615734
214	0xbf92aa85	-1.1458288
215	0xbf2547cf	-0.64562696
216	0xbfa9c007	-1.3261727
217	0xbf9698ea	-1.1765416
218	0x3eb26c0c	0.34848058
219	0xbf396e61	-0.7243405
220	0xbddcf0ca	-0.10788114
221	0xbec3b0bb	-0.38220772
222	0xbe228390	-0.158705
223	0xbf06505f	-0.52466387
224	0x3e1c10e4	0.15240818
225	0xbe9333d4	-0.2875048
226	0x3ec4a9f4	0.38410914
227	0x3f5dfceb	0.8671405
228	0xbf59b202	-0.85037243
229	0x3a90810d	0.0011024788
230	0xbda7b65b	-0.081890784
231	0xbfb8d257	-1.4439191
232	0x3eb7d5e5	0.35905376
233	0x3f26eda1	0.6520634
234	0xbf76122b	-0.9612147
235	0x3ede6455	0.43435922
236	0x3e40645b	0.18788283
237	0xbe02ce1c	-0.12773937
238	0xbf9dd067	-1.2329224
239	0xbf98354b	-1.1891264
240	0xbc234742	-0.00996572
241	0xbfa1ce0c	-1.2641006
242	0x3e2431ae	0.16034576
243	0x400f31dc	2.2374182
244	0xc0184c05	-2.3796399
245	0xbe21b0dd	-0.15790124
246	0xbfbc7e62	-1.4726069
247	0xbfa512a7	-1.2896317
248	0x3d0e4e5d	0.0347427
249	0x3e42dcc8	0.19029534
250	0xbfa0fe2d	-1.2577568
251	0xbe96efc1	-0.29479793
252	0xbedacc00	-0.42733765
253	0xbef446ad	-0.4771017
254	0x3e289766	0.16464004
255	0xbf477da4	-0.7792609

decoder.lstm.weight_hh_l0 f4 [256, 64]
0	0x3ca392ea	0.019967515
1	0x3ee6f3b6	0.45107812
2	0xbed19ad2	-0.4093843
3	0x3dcfa74d	0.10139332
4	0xbed5b285	-0.41737762
5	0xbf730db1	-0.94942766
6	0x3d19a3c4	0.037509695
7	0x3edbcf98	0.4293182
8	0x3edd9062	0.43274218
9	0x3dd58e62	0.10427548
10	0x3facfe75	1.3515154
11	0xbddb69e1	-0.10713554
12	0x3da6201d	0.08111594
13	0x3db3373d	0.0875077
14	0xbd000d7d	-0.031262863
15	0xbf99b7bf	-1.20092
16	0x3e8e4e12	0.27793938
17	0xbea47a63	-0.32124624
18	0x3e9f8fa7	0.31164286
19	0xbc4f0bab	-0.012637059
20	0x3e87c3f4	0.26516688
21	0xbea83c7a	-0.3285864
22	0xbf64f644	-0.8943827
23	0x3f1a5981	0.6029282
24	0xbe5fc275	-0.21851523
25	0xbe1c9e84	-0.15294844
26	0xbece7c61	-0.4032927
27	0x3f5ba35b	0.85796136
28	0xbf4be02f	-0.7963895
29	0x3ea2e3f2	0.31814533
30	0x3d29c5d2	0.04144842
31	0x3d3b73d9	0.045764778
32	0x3f67a5b3	0.9048721
33	0xbe0e4358	-0.13892877
34	0x401d22fd	2.4552605
35	0xbf66d071	-0.90161806
36	0xbdbbd154	-0.091707855
37	0xbdeee9ac	-0.11665663
38	0x3d7f0128	0.062256962
39	0x3e3fb3fb	0.18721001
40	0xbebf8e13	-0.37413082
41	0xbf25ea86	-0.6481098
42	0x3d006ee4	0.031355754
43	0x3d5579ce	0.052118115
44	0x3eb6b4f9	0.35684946
45	0xbf2f4ace	-0.6847352
46	0xbec66602	-0.387497
47	0xbd554997	-0.052072134
48	0xbd0a950a	-0.03383354
49	0x3f364438	0.71197844
50	0xbe034fc7	-0.12823401
51	0x3d919c5a	0.071099
52	0x3f1d05a9	0.6133676
53	0xbefae25e	-0.4900083
54	0x3e9c9ca1	0.30588248
55	0xbf4cf4a9	-0.8006082
56	0x3d791ba0	0.06081736
57	0x3e04db27	0.12974225
58	0xbf154609	-0.5830999
59	0x3fdaf233	1.7105163
60	0x3efb4932	0.4907928
61	0xbed57148	-0.4168799
62	0x3f1880ff	0.5957183
63	0x3f11d4f0	0.5696554
64	0x3eced950	0.4040017
65	0x3f39a40f	0.7251596
66	0xbe13ea87	-0.14444934
67	0xbe7ca1bb	-0.2467107
68	0xbf1239db	-0.5711953
69	0xbf8b832f	-1.0899409
70	0x3e9d1578	0.30680442
71	0xbf04a20f	-0.5180978
72	0xbf365c81	-0.712349
73	0x3e6f566b	0.2337281
74	0xbf50a8df	-0.81507677
75	0x3eaf4bb1	0.34237435
76	0x3f6fbdc9	0.93648964
77	0xbeb41513	-0.35172328
78	0x3dfacc04	0.12245944
79	0xbf6d9beb	-0.92816037
80	0xbf372ac5	-0.71549636
81	0x3db4fbc2	0.088370815
82	0x3e679fed	0.226196
83	0x3e2cf617	0.16890751
84	0xbee5872a	-0.44829684
85	0x3e0a1bdd	0.13487191
86	0xbf66232a	-0.89897406
87	0xbe3f4370	-0.18678069
88	0x3e56e6bb	0.20986454
89	0xbf01e4e2	-0.5073987
90	0x3cd80364	0.026368804
91	0x3e8d8ca6	0.2764637
92	0x3db6e460	0.08930278
93	0xbde4009b	-0.11132928
94	0x3f101836	0.5628694
95	0x3ebbcc80	0.3667946
96	0xbe187f55	-0.14892323
97	0xbe225c58	-0.15855539
98	0x3e311834	0.17294389
99	0x3f52381b	0.8211686
100	0x3ebcb82c	0.36859262
101	0x3d942e75	0.072354235
102	0xbf46b5d5	-0.77621204
103	0xbec1272f	-0.37725207
104	0xbe747f7e	-0.2387676
105	0x3f5fb733	0.87388915
106	0x3f10a293	0.5649807
107	0xbefaf514	-0.49015105
108	0x3ecbd074	0.39807475
109	0x3e86ff5c	0.263667
110	0x3f375f95	0.7163022
111	0xbf9332b4	-1.1499848
112	0x3e453bab	0.19261043
113	0x3e1e25ec	0.15444154
114	0x3d425fc0	0.047454596
115	0x3bbaed40	0.005704552
116	0xbf2a32cc	-0.6648376
117	0xbec75559	-0.38932303
118	0x3f1640f9	0.5869289
119	0x3e4dc490	0.20094514
120	0x3eaa6edc	0.33287704
121	0x3eb24ddc	0.34825027
122	0x3e0b3ec4	0.13598162
123	0x3fb46c6b	1.4095587
124	0xbf726906	-0.94691503
125	0xbf334f8e	-0.70043266
126	0xbf0c2506	-0.54743993
127	0x400d1151	2.204182
128	0xbd6d8722	-0.0579902
129	0xbeb5089f	-0.3535814
130	0xbd332beb	-0.043743055
131	0xbe3698da	-0.17831746
132	0x3effeead	0.49986783
133	0x3da028d0	0.07820284
134	0x3ef4e0e5	0.4782783
135	0xbec497d7	-0.38397095
136	0xbe25a843	-0.16177468
137	0xbd5b0a15	-0.05347641
138	0xbe7cd42d	-0.24690314
139	0xbdc0e3d5	-0.094184555
140	0x3e106f55	0.1410497
141	0xbf12378c	-0.5711601
142	0xbebaa54b	-0.36454234
143	0xbe5062cb	-0.20350187
144	0xbea85520	-0.32877445
145	0xbe5689f3	-0.20951061
146	0xbe920543	-0.2851964
147	0xbe5c0cf8	-0.21489322
148	0x3d99496e	0.07484709
149	0x3e49a18c	0.19690531
150	0xbf09845a	-0.5371758
151	0xbcc69200	-0.02423954
152	0x3cd91b41	0.026502253
153	0x40272188	2.6114216
154	0xbe2a42ca	-0.1662704
155	0xbe3cff2f	-0.1845672
156	0xbe56811f	-0.20947693
157	0xbe8bfa72	-0.27339512
158	0x3e786e44	0.24260813
159	0x3d6938fc	0.05693911
160	0x3e2bf0fb	0.16791146
161	0xbefd0c07	-0.4942324
162	0xbeff14e6	-0.49820632
163	0xbf912e09	-1.1342174
164	0xbdff6a49	-0.12471444
165	0xbe2ba71c	-0.16762966
166	0x3e82fb3f	0.2558231
167	0xbdb5b344	-0.08872083
168	0x3e6ee522	0.23329595
169	0x3f59db03	0.8509981
170	0xbf291995	-0.6605466
171	0xbe7d87de	-0.2475886
172	0xbf2ec1f4	-0.682647
173	0x3ef536be	0.47893327
174	0xbe0b4279	-0.13599576
175	0xbe7e2b92	-0.24821308
176	0x3ee6d529	0.45084503
177	0x3ed84cee	0.42246193
178	0x3ef6be8e	0.48192257
179	0xbe185bf8	-0.14878833
180	0xbeb8ca61	-0.36091903
181	0xbf00b1b3	-0.5027115
182	0xbecc8ac8	-0.39949632
183	0x3e79f282	0.24408916
184	0x3f442a48	0.76627016
185	0x3e618889	0.2202474
186	0x3e7dbc16	0.2477878
187	0x3ec44475	0.3833348
188	0x3e63aa2d	0.22232886
189	0xbea83ca6	-0.3285877
190	0xbebcf77d	-0.3690757
191	0xbe7b1b76	-0.24522194
192	0xbf182b90	-0.5944147
193	0xbe860478	-0.26175284
194	0xbe9f19d8	-0.31074405
195	0xbe463e92	-0.19359806
196	0xbec5b6ca	-0.3861602
197	0xbf8106bd	-1.0080181
198	0x3e417ecf	0.1889603
199	0x3f2902a1	0.66019636
200	0xbf11c0d3	-0.5693485
201	0x3e07a069	0.13244785
202	0xbed4415a	-0.4145611
203	0xbe9a20db	-0.30103192
204	0x3e8588aa	0.2608083
205	0xbeab8c09	-0.33505276
206	0x3eafe3b2	0.34353405
207	0xbf4ae498	-0.79255056
208	0x3d73888b	0.05945639
209	0x3ee301fa	0.44337445
210	0x3e77db86	0.24204835
211	0x3e37e4d3	0.17958383
212	0xbc1b52e0	-0.009480208
213	0x3e63b751	0.22237898
214	0x3d0b60ca	0.034027852
215	0x3e60cc7b	0.21953003
216	0x3f5ca386	0.86187017
217	0x3f2fa5f8	0.68612623
218	0x3f30c38a	0.6904837
219	0x3ca247f8	0.019809708
220	0xbe1db366	-0.15400466
221	0xbe840d1b	-0.2579125
222	0xbcd13aea	-0.025540788
223	0xbd9c7cdb	-0.07641002
224	0x3d021da9	0.031766567
225	0x3e87c564	0.26517785
226	0x3ee2c954	0.44294226
227	0x3e888864	0.26666558
228	0xbf08afd1	-0.53393275
229	0x3c9f9cd7	0.019483967
230	0x3e25a251	0.161752
231	0xbf0d3bb6	-0.55169237
232	0x3f1ebdee	0.6200856
233	0xbe470e98	-0.19439161
234	0xbf03e668	-0.5152345
235	0xbf13fcae	-0.57807434
236	0x3efa269b	0.4885758
237	0xbda0a949	-0.078447886
238	0xba19128a	-0.00058392494
239	0xbe9ba796	-0.30401295
240	0x3ea12d01	0.31479648
241	0x3dcbaf8d	0.09945593
242	0xbe21b7bd	-0.15792747
243	0x3db086fd	0.08619497
244	0xbe885ac7	-0.26631758
245	0xbe7f31b1	-0.249213
246	0xbdbbeeda	-0.09176417
247	0xbea5fe74	-0.32420695
248	0x3f1a2656	0.60214746
249	0x3e9b9602	0.30387884
250	0x3e238c5f	0.15971516
251	0x3ea57c0a	0.32321197
252	0xbec3a500	-0.38211823
253	0xbe785305	-0.2425042
254	0xbe57b5a5	-0.21065386
255	0xbe2a7f91	-0.16650225
