results/LSTM_single_layer/75_model.pt (torch, 967425 bytes, 10 tensors)

output_zeros f4 [400, 512, 1]
0	0x00000000	0.0
1	0x00000000	0.0
2	0x00000000	0.0
3	0x00000000	0.0
4	0x00000000	0.0
5	0x00000000	0.0
6	0x00000000	0.0
7	0x00000000	0.0
8	0x00000000	0.0
9	0x00000000	0.0
10	0x00000000	0.0
11	0x00000000	0.0
12	0x00000000	0.0
13	0x00000000	0.0
14	0x00000000	0.0
15	0x00000000	0.0
16	0x00000000	0.0
17	0x00000000	0.0
18	0x00000000	0.0
19	0x00000000	0.0
20	0x00000000	0.0
21	0x00000000	0.0
22	0x00000000	0.0
23	0x00000000	0.0
24	0x00000000	0.0
25	0x00000000	0.0
26	0x00000000	0.0
27	0x00000000	0.0
28	0x00000000	0.0
29	0x00000000	0.0
30	0x00000000	0.0
31	0x00000000	0.0
32	0x00000000	0.0
33	0x00000000	0.0
34	0x00000000	0.0
35	0x00000000	0.0
36	0x00000000	0.0
37	0x00000000	0.0
38	0x00000000	0.0
39	0x00000000	0.0
40	0x00000000	0.0
41	0x00000000	0.0
42	0x00000000	0.0
43	0x00000000	0.0
44	0x00000000	0.0
45	0x00000000	0.0
46	0x00000000	0.0
47	0x00000000	0.0
48	0x00000000	0.0
49	0x00000000	0.0
50	0x00000000	0.0
51	0x00000000	0.0
52	0x00000000	0.0
53	0x00000000	0.0
54	0x00000000	0.0
55	0x00000000	0.0
56	0x00000000	0.0
57	0x00000000	0.0
58	0x00000000	0.0
59	0x00000000	0.0
60	0x00000000	0.0
61	0x00000000	0.0
62	0x00000000	0.0
63	0x00000000	0.0
64	0x00000000	0.0
65	0x00000000	0.0
66	0x00000000	0.0
67	0x00000000	0.0
68	0x00000000	0.0
69	0x00000000	0.0
70	0x00000000	0.0
71	0x00000000	0.0
72	0x00000000	0.0
73	0x00000000	0.0
74	0x00000000	0.0
75	0x00000000	0.0
76	0x00000000	0.0
77	0x00000000	0.0
78	0x00000000	0.0
79	0x00000000	0.0
80	0x00000000	0.0
81	0x00000000	0.0
82	0x00000000	0.0
83	0x00000000	0.0
84	0x00000000	0.0
85	0x00000000	0.0
86	0x00000000	0.0
87	0x00000000	0.0
88	0x00000000	0.0
89	0x00000000	0.0
90	0x00000000	0.0
91	0x00000000	0.0
92	0x00000000	0.0
93	0x00000000	0.0
94	0x00000000	0.0
95	0x00000000	0.0
96	0x00000000	0.0
97	0x00000000	0.0
98	0x00000000	0.0
99	0x00000000	0.0
100	0x00000000	0.0
101	0x00000000	0.0
102	0x00000000	0.0
103	0x00000000	0.0
104	0x00000000	0.0
105	0x00000000	0.0
106	0x00000000	0.0
107	0x00000000	0.0
108	0x00000000	0.0
109	0x00000000	0.0
110	0x00000000	0.0
111	0x00000000	0.0
112	0x00000000	0.0
113	0x00000000	0.0
114	0x00000000	0.0
115	0x00000000	0.0
116	0x00000000	0.0
117	0x00000000	0.0
118	0x00000000	0.0
119	0x00000000	0.0
120	0x00000000	0.0
121	0x00000000	0.0
122	0x00000000	0.0
123	0x00000000	0.0
124	0x00000000	0.0
125	0x00000000	0.0
126	0x00000000	0.0
127	0x00000000	0.0
128	0x00000000	0.0
129	0x00000000	0.0
130	0x00000000	0.0
131	0x00000000	0.0
132	0x00000000	0.0
133	0x00000000	0.0
134	0x00000000	0.0
135	0x00000000	0.0
136	0x00000000	0.0
137	0x00000000	0.0
138	0x00000000	0.0
139	0x00000000	0.0
140	0x00000000	0.0
141	0x00000000	0.0
142	0x00000000	0.0
143	0x00000000	0.0
144	0x00000000	0.0
145	0x00000000	0.0
146	0x00000000	0.0
147	0x00000000	0.0
148	0x00000000	0.0
149	0x00000000	0.0
150	0x00000000	0.0
151	0x00000000	0.0
152	0x00000000	0.0
153	0x00000000	0.0
154	0x00000000	0.0
155	0x00000000	0.0
156	0x00000000	0.0
157	0x00000000	0.0
158	0x00000000	0.0
159	0x00000000	0.0
160	0x00000000	0.0
161	0x00000000	0.0
162	0x00000000	0.0
163	0x00000000	0.0
164	0x00000000	0.0
165	0x00000000	0.0
166	0x00000000	0.0
167	0x00000000	0.0
168	0x00000000	0.0
169	0x00000000	0.0
170	0x00000000	0.0
171	0x00000000	0.0
172	0x00000000	0.0
173	0x00000000	0.0
174	0x00000000	0.0
175	0x00000000	0.0
176	0x00000000	0.0
177	0x00000000	0.0
178	0x00000000	0.0
179	0x00000000	0.0
180	0x00000000	0.0
181	0x00000000	0.0
182	0x00000000	0.0
183	0x00000000	0.0
184	0x00000000	0.0
185	0x00000000	0.0
186	0x00000000	0.0
187	0x00000000	0.0
188	0x00000000	0.0
189	0x00000000	0.0
190	0x00000000	0.0
191	0x00000000	0.0
192	0x00000000	0.0
193	0x00000000	0.0
194	0x00000000	0.0
195	0x00000000	0.0
196	0x00000000	0.0
197	0x00000000	0.0
198	0x00000000	0.0
199	0x00000000	0.0
200	0x00000000	0.0
201	0x00000000	0.0
202	0x00000000	0.0
203	0x00000000	0.0
204	0x00000000	0.0
205	0x00000000	0.0
206	0x00000000	0.0
207	0x00000000	0.0
208	0x00000000	0.0
209	0x00000000	0.0
210	0x00000000	0.0
211	0x00000000	0.0
212	0x00000000	0.0
213	0x00000000	0.0
214	0x00000000	0.0
215	0x00000000	0.0
216	0x00000000	0.0
217	0x00000000	0.0
218	0x00000000	0.0
219	0x00000000	0.0
220	0x00000000	0.0
221	0x00000000	0.0
222	0x00000000	0.0
223	0x00000000	0.0
224	0x00000000	0.0
225	0x00000000	0.0
226	0x00000000	0.0
227	0x00000000	0.0
228	0x00000000	0.0
229	0x00000000	0.0
230	0x00000000	0.0
231	0x00000000	0.0
232	0x00000000	0.0
233	0x00000000	0.0
234	0x00000000	0.0
235	0x00000000	0.0
236	0x00000000	0.0
237	0x00000000	0.0
238	0x00000000	0.0
239	0x00000000	0.0
240	0x00000000	0.0
241	0x00000000	0.0
242	0x00000000	0.0
243	0x00000000	0.0
244	0x00000000	0.0
245	0x00000000	0.0
246	0x00000000	0.0
247	0x00000000	0.0
248	0x00000000	0.0
249	0x00000000	0.0
250	0x00000000	0.0
251	0x00000000	0.0
252	0x00000000	0.0
253	0x00000000	0.0
254	0x00000000	0.0
255	0x00000000	0.0

encoder.lstm.weight_ih_l0 f4 [256, 4]
0	0xbf04e53a	-0.5191227
1	0xbedc4546	-0.430216
2	0x3ef88f91	0.48547032
3	0xbe1343d5	-0.14381345
4	0xbd7e8323	-0.06213678
5	0xbedb706e	-0.42859215
6	0x3f0f0c84	0.5587847
7	0xbe41b95a	-0.18918362
8	0xbe796a43	-0.24356942
9	0xbee625d5	-0.4495074
10	0x3eabf715	0.33586946
11	0xbcd7540d	-0.026285196
12	0x3e02549d	0.1272759
13	0x3e002e3d	0.12517639
14	0x3de12b25	0.10994557
15	0x3d9f163d	0.077679135
16	0x3d38b284	0.04509212
17	0x3e8748c9	0.26422718
18	0xbe823829	-0.25433472
19	0x3e90ec6f	0.28305385
20	0xbe58e1e6	-0.21179923
21	0xbea71418	-0.32632518
22	0x3e8bf089	0.2733195
23	0xbdeb4935	-0.114885725
24	0xbf47e2ce	-0.7808045
25	0xbf04b06d	-0.51831704
26	0x3f159d40	0.5844307
27	0xbd749b67	-0.059718516
28	0xbe15a3bc	-0.14613241
29	0x3f20b150	0.6277056
30	0x3f5ef713	0.87095755
31	0x3eeb8137	0.4599702
32	0xbef4b60e	-0.47795147
33	0xbd75fdfc	-0.06005667
34	0x3d3e712f	0.04649466
35	0xbe7bd657	-0.24593483
36	0xbed6e377	-0.41970417
37	0xbe9d7aad	-0.30757657
38	0x3ee0ebce	0.43929905
39	0xbd840702	-0.06446649
40	0xbee4d885	-0.4469644
41	0xbe4d43d4	-0.20045406
42	0x3e216100	0.15759659
43	0xbebda868	-0.37042546
44	0xbeab606b	-0.33472
45	0xbd93061b	-0.07178899
46	0xbd221876	-0.03957411
47	0xbe471223	-0.19440512
48	0xbf199147	-0.599873
49	0x3cc2442f	0.023714153
50	0xbec7d90f	-0.3903279
51	0xbe92da2c	-0.28682077
52	0xbde624af	-0.112374656
53	0xbb6977b6	-0.0035624332
54	0x3ed3f310	0.4139638
55	0x3e17284c	0.14761466
56	0xbf489454	-0.7835133
57	0x3bcbcaf0	0.0062192604
58	0x3e8b903b	0.27258477
59	0x3e9d9f6d	0.30785695
60	0xbd8ae3eb	-0.06781753
61	0x3e42ce15	0.19023927
62	0xbdcc9cc3	-0.099908374
63	0x3e511665	0.20418699
64	0xbdbfd88f	-0.09367477
65	0x3daa4f73	0.08315935
66	0x3ef18b67	0.47176668
67	0x3e95bf3d	0.29247466
68	0xbf2d0173	-0.67580336
69	0xbf1ed1ab	-0.6203868
70	0x3f1ec6b3	0.6202194
71	0xbda76bec	-0.08174881
72	0x3d377104	0.044785514
73	0xbc49ce50	-0.012317255
74	0x3dbec341	0.093145855
75	0x3ecd09eb	0.4004663
76	0xbdfa1793	-0.12211528
77	0xbead620f	-0.33863875
78	0x3e8f6cde	0.28012747
79	0x3d70a93f	0.058755156
80	0xbe5bdb46	-0.21470365
81	0x3dd9564d	0.10612164
82	0xbe3862da	-0.18006459
83	0xbe573892	-0.21017674
84	0x3f11f50d	0.5701454
85	0x3f03d8ce	0.5150269
86	0xbdf8eec8	-0.12154919
87	0x3f0e858f	0.55672544
88	0xbe258f10	-0.16167855
89	0xbd1ee839	-0.038795684
90	0xbef6bae7	-0.4818947
91	0xbe57243f	-0.2100992
92	0xbeb0e784	-0.34551632
93	0xbd92dcb1	-0.07171
94	0x3e71322f	0.235543
95	0xbe1e8249	-0.15479387
96	0xbf0a8c08	-0.5411992
97	0xbe5b8467	-0.21437226
98	0x3f5076d6	0.8143133
99	0x3cd75048	0.026283398
100	0x3c354309	0.011063346
101	0xbdd6bc4e	-0.10485135
102	0xbe3712e6	-0.17878303
103	0xbcd36606	-0.025805485
104	0xbdd49c44	-0.10381368
105	0xbea2b0e3	-0.3177558
106	0x3eb52aa4	0.35384095
107	0x3dfdf11d	0.12399504
108	0xbf0327f4	-0.5123284
109	0xbddf91d2	-0.10916485
110	0x3ec7ce5e	0.39024633
111	0xbdfb7912	-0.12278952
112	0xbe9d340e	-0.30703777
113	0xbe5aa8c2	-0.21353438
114	0x3da57788	0.080794394
115	0xbe19fe20	-0.15038347
116	0x3e4eedea	0.20207945
117	0x3ef16e46	0.47154444
118	0xbe84f0ec	-0.2596506
119	0x3de74859	0.11293096
120	0xbedb97ca	-0.42889243
121	0x3de79629	0.11307938
122	0x3e2ee953	0.17081194
123	0x3dca5eea	0.09881385
124	0xbd7e0327	-0.062014725
125	0x3cd9dc7c	0.026594393
126	0x3da1c138	0.07898182
127	0x3dcde27d	0.10052965
128	0x3e5f9ccb	0.21837156
129	0xbd9af5ba	-0.075664
130	0x3ef3f9f7	0.47651646
131	0x3e579974	0.21054631
132	0x3e958e54	0.2921015
133	0xbedc841d	-0.43069544
134	0x3ecdebd2	0.4021898
135	0x3e8c1167	0.27357027
136	0x3e1020a9	0.14074959
137	0x3ec6572d	0.38738385
138	0x3e8693ab	0.26284537
139	0x3e981aae	0.29707855
140	0x3eae0f0d	0.33995858
141	0x3c9c03b4	0.019044735
142	0x3eb9ae6d	0.3626589
143	0x3e543abd	0.20725532
144	0x3e7db6fe	0.24776837
145	0x3f0a4cd6	0.5402349
146	0x3cc2ef65	0.023795793
147	0x3dee71b3	0.1164278
148	0x3eb51eed	0.35375157
149	0x3edf6420	0.43631077
150	0xbe7dc8ff	-0.24783705
151	0x3e4f1a24	0.20224816
152	0xbe09cfb2	-0.13458136
153	0xbde4ae10	-0.11166012
154	0x3c899dda	0.016798902
155	0xbbdcaa19	-0.0067341444
156	0x3da777b0	0.081771255
157	0x3ecda017	0.401612
158	0xbe976439	-0.2956865
159	0x3e9d8dae	0.30772156
160	0x3e3ce52b	0.18446796
161	0x3c8f551c	0.017496638
162	0x3f016c7d	0.50556165
163	0xbca863c0	-0.020555377
164	0xbe1082f9	-0.14112462
165	0xbca269c7	-0.01982583
166	0x3e9967d5	0.2996203
167	0xbe9daf21	-0.30797675
168	0x3eda5dda	0.42649728
169	0x3ebcd93b	0.36884484
170	0xbd9f12f5	-0.07767288
171	0x3d03ab4e	0.03214579
172	0x3f9c267e	1.2199247
173	0x3e85f5bd	0.26164046
174	0x3f81ddbb	1.0145792
175	0xbe9c9a03	-0.30586252
176	0xbefafd08	-0.49021173
177	0x3e0186aa	0.12649027
178	0x3e1eef42	0.15520957
179	0xbdc85c60	-0.09783244
180	0x3d807239	0.06271786
181	0xbeeced9e	-0.46275038
182	0x3f214a31	0.6300383
183	0x3dafed7e	0.0859022
184	0x3ec1ace6	0.37827224
185	0xbd66b4a7	-0.056324627
186	0x3f61617c	0.88039374
187	0x3f64efe5	0.8942855
188	0x3e3f6b85	0.18693359
189	0xbe7458d9	-0.23862018
190	0x3dc89858	0.09794682
191	0x3f7ab867	0.97937626
192	0xbf06f1ca	-0.5271269
193	0xbef7a30a	-0.48366576
194	0x3fa96995	1.3235346
195	0x3f65a4c6	0.8970455
196	0x3e638e7f	0.22222327
197	0x3edc9525	0.43082538
198	0xbea3649d	-0.319127
199	0xbd108107	-0.0352793
200	0xbf5fc230	-0.8740568
201	0xbe85830f	-0.26076552
202	0x3e173130	0.14764857
203	0xbe598d06	-0.21245202
204	0x3f71370f	0.9422464
205	0x3eb64f1c	0.3560723
206	0xbdac967f	-0.08427142
207	0x3e9a31d5	0.30116144
208	0x3f031557	0.51204437
209	0x3ea0f98f	0.31440398
210	0x3f7e27ed	0.9927967
211	0x3f61bf08	0.88182116
212	0x3e6e1be7	0.23252831
213	0xbedb4013	-0.42822322
214	0x3f4cc317	0.79985183
215	0x3e95ddbe	0.29270738
216	0x3e14ee17	0.14543949
217	0x3f3b24b1	0.7310286
218	0x3dc381f6	0.095462725
219	0x3e9bf043	0.30456743
220	0x3fa91c52	1.3211768
221	0xbe505245	-0.20343883
222	0x3f116678	0.5679698
223	0x3c59b78c	0.01328839
224	0xbec905f4	-0.39262354
225	0xbe66b828	-0.22531188
226	0x3eebcb2a	0.4605344
227	0x3ea553e5	0.3229057
228	0xbf3d269b	-0.7388703
229	0xbf0f6a07	-0.5602116
230	0x3efea35f	0.49734017
231	0xbe75e02c	-0.24011296
232	0x3db751d7	0.089511566
233	0x3e8c3da4	0.27390778
234	0x3f1c3a18	0.61026144
235	0x3d183d33	0.03716774
236	0x3ebd59f2	0.36982685
237	0x3f1294e9	0.5725847
238	0xbeba28e5	-0.36359325
239	0x3e210081	0.15722848
240	0x3da2152e	0.07914196
241	0xbcf1c6f0	-0.029513806
242	0x3e5ce536	0.21571812
243	0xbc5ad60f	-0.0133567
244	0x3e2aa56e	0.16664669
245	0xbdf4404c	-0.11926326
246	0xbde04274	-0.10950175
247	0x3d6d6c29	0.057964478
248	0x3dae42a7	0.08508807
249	0x3dd71992	0.10502924
250	0xbedb50f3	-0.42835197
251	0xbba35fa6	-0.0049857674
252	0x3f04f8b8	0.51942015
253	0x3eb1bd97	0.34714958
254	0xbd05e531	-0.032689277
255	0xbeb123e0	-0.34597683

encoder.lstm.weight_hh_l0 f4 [256, 64]
0	0xbd91d793	-0.07121196
1	0xbe1c780a	-0.15280166
2	0x3d808028	0.06274444
3	0x3d2fcc67	0.042919543
4	0x3cf7ed0d	0.030264402
5	0xbcba615d	-0.022751505
6	0x3ddcc2a7	0.107793145
7	0xbd58a6d8	-0.05289349
8	0xbdad268c	-0.08454618
9	0x3d657b2b	0.056025665
10	0x3d69e934	0.057107165
11	0xbe0a4158	-0.13501489
12	0xbe074421	-0.13209583
13	0x3dc35621	0.09537912
14	0x3d7ea6d8	0.062170833
15	0x3d03d4b2	0.032185264
16	0x3b9f0ec2	0.004854054
17	0x3d44a605	0.04800989
18	0xbc24e140	-0.010063469
19	0x3d044be7	0.03229895
20	0xbc8ceb63	-0.017202085
21	0xbbde3f03	-0.006782414
22	0x3e1a5f3e	0.15075395
23	0xbe111006	-0.14166269
24	0xbdb32675	-0.087475695
25	0xbdc5d2a0	-0.09659314
26	0x3d6667d2	0.056251355
27	0xbda545ca	-0.08069952
28	0xbddd7a2f	-0.1081432
29	0x3d511a2c	0.05105035
30	0x3d33642a	0.043796696
31	0x3dcca2ef	0.099920146
32	0xbd1fe371	-0.039035264
33	0x3cb3e64d	0.021960402
34	0x3c3baf39	0.011455351
35	0xbdd6b069	-0.10482866
36	0x3d1f5010	0.038894713
37	0x3cd5af84	0.026084669
38	0x3c716edd	0.0147359045
39	0xbdd60e41	-0.104519375
40	0xbde7c5cc	-0.11317024
41	0xbd457a18	-0.04821214
42	0xbc56624d	-0.01308496
43	0xb998e8a2	-0.00029165024
44	0x3ce04db1	0.027380796
45	0xbddce666	-0.107861325
46	0xbd7e9d27	-0.06216159
47	0xbcc10257	-0.023560686
48	0x3d48e3fd	0.04904555
49	0xbd4ffeca	-0.050780095
50	0xbcc49a1a	-0.023999263
51	0x3dd83f8c	0.105589956
52	0xbe1e3f96	-0.15453944
53	0xbd71e725	-0.059058327
54	0x3c794efb	0.015216584
55	0xbe00c790	-0.12576127
56	0x3c161797	0.009160898
57	0xbc718a79	-0.014742487
58	0xbd1f8230	-0.038942516
59	0xbd893bd9	-0.06700868
60	0x3e10caba	0.14139834
61	0xbe225784	-0.15853697
62	0xbd23183f	-0.039818045
63	0x3cf0725d	0.029351408
64	0xbd4039b0	-0.046930015
65	0x3d9bfba7	0.07616358
66	0xbddb5cde	-0.107110724
67	0xbe4565b5	-0.1927708
68	0x3d24e844	0.04026057
69	0x3db3acd1	0.087731965
70	0xbe04128d	-0.12897702
71	0x3c0d095e	0.00860819
72	0x3d058825	0.03260054
73	0x3d456316	0.0481902
74	0xbd2f0c6a	-0.04273645
75	0x3d5f3666	0.054495238
76	0xbda0a2f0	-0.07843578
77	0x3e0a7f87	0.1352521
78	0xbe036000	-0.1282959
79	0xbca38488	-0.019960657
80	0x3dd294cd	0.10282288
81	0x3dd74f42	0.10513164
82	0xbdb803a2	-0.08985068
83	0xbc97ea68	-0.01854439
84	0xbcf10e96	-0.0294259
85	0x3c98cdcc	0.01865282
86	0x3d289452	0.041157074
87	0x3d4c854a	0.0499318
88	0x3d4948b8	0.049141616
89	0xbe02ddc3	-0.12779908
90	0xbce31a75	-0.027722577
91	0xbdfcef00	-0.12350273
92	0xbcf733e0	-0.030176103
93	0xbd32d9ff	-0.04366493
94	0xbcad0d09	-0.02112438
95	0x3c907057	0.017631693
96	0x3b9c9557	0.004778545
97	0xbd69737c	-0.0569949
98	0xbe032648	-0.12807572
99	0xbded567a	-0.1158876
100	0x3d3394c5	0.04384305
101	0xbd7dc37b	-0.061954003
102	0x3c1b608b	0.009483467
103	0xbe07dd0f	-0.13267921
104	0x3d5d4613	0.054021906
105	0xbcf96395	-0.030442992
106	0xbd5c496c	-0.053780958
107	0x3e6c2c87	0.23063861
108	0x3d12811d	0.035767663
109	0x3da5f193	0.08102717
110	0x3dc76b1a	0.09737225
111	0x3d1de0fa	0.038544632
112	0xbdfbe4d1	-0.12299503
113	0x3d792faf	0.06083649
114	0x3d21a0a2	0.039459832
115	0x3bd463dd	0.006481631
116	0xbe63118c	-0.22174662
117	0x3dacbe66	0.08434753
118	0x3dd40e0a	0.1035424
119	0x3d0b6bed	0.034038473
120	0xbc57167b	-0.013127918
121	0xbc861365	-0.01636667
122	0x3d95bd7a	0.073115304
123	0x3cd035dd	0.025416309
124	0x3d1d26d3	0.038367104
125	0xbd06a016	-0.032867514
126	0xbd51dea4	-0.051237717
127	0x3d81b58e	0.06333457
128	0xbdc7336c	-0.09726605
129	0xbda4d7ea	-0.08048995
130	0x3baf6e7c	0.005353747
131	0x3d54d736	0.051963054
132	0x3d9b7b20	0.075918436
133	0xbd8d76e2	-0.06907441
134	0xbddb45b4	-0.10706654
135	0xbc2ec033	-0.010665941
136	0x3d845db3	0.06463184
137	0xbe13cd31	-0.14433743
138	0xbd5959c5	-0.053064127
139	0xbe1b3dcf	-0.15160297
140	0xbdd7bd79	-0.10534186
141	0x3e2032bb	0.15644352
142	0xbe1541d5	-0.14575894
143	0x3d0059c4	0.031335607
144	0x3d16e73d	0.03684162
145	0xbd56ac6a	-0.05241052
146	0xbe017f71	-0.12646271
147	0xbdb97a4d	-0.0905653
148	0x3ce2e36d	0.027696336
149	0xbbebb7ea	-0.007193555
150	0x3d262c17	0.04056939
151	0xbe05726a	-0.13031927
152	0x3bf16b69	0.0073675406
153	0xbdc835ca	-0.097758844
154	0xbbf5f53c	-0.007506041
155	0x3e05614b	0.13025396
156	0x3b498712	0.0030750674
157	0xbe0028d7	-0.12515579
158	0xba0990d5	-0.0005247717
159	0x3e168bf3	0.14701824
160	0xbcb63310	-0.022241145
161	0x3df4f365	0.11960486
162	0xbb779017	-0.0037775093
163	0xbdfe4014	-0.12414566
164	0xbddf76ae	-0.10911308
165	0xbd943828	-0.072372735
166	0xbde1d7dc	-0.110275
167	0xbe05b5bd	-0.13057609
168	0xbc7c1c43	-0.0153875975
169	0xbdd1e18a	-0.10248096
170	0xbd3cb617	-0.046072092
171	0x3e5ac5e3	0.2136455
172	0xbe0bc107	-0.13647853
173	0xbd09544a	-0.03352765
174	0xbd76f7cc	-0.06029491
175	0x3d84ff86	0.0649405
176	0xbc1b9436	-0.009495785
177	0x3c0ba919	0.008524203
178	0xbcb58478	-0.022157893
179	0x3d113d78	0.03545901
180	0xbd76a538	-0.06021616
181	0xbe0caf0b	-0.13738649
182	0x3d567c48	0.052364618
183	0xbd93c893	-0.07215991
184	0xbdef29ca	-0.116778925
185	0x3c940274	0.018067576
186	0xbdea272a	-0.11433251
187	0xbced11e4	-0.028939195
188	0xbb8df842	-0.004332573
189	0x3d1cc919	0.03827772
190	0xbd9b4feb	-0.075836025
191	0x3c5cce3f	0.013476907
192	0xbd478045	-0.04870631
193	0x3c1db673	0.009626019
194	0xbe0675db	-0.13130896
195	0xbc662e08	-0.014049061
196	0xbc56e8e8	-0.013117053
197	0x3c2d6fa1	0.010585696
198	0x3e089285	0.13337143
199	0x3dce172c	0.100630134
200	0xbe307af7	-0.17234407
201	0xbdfbbed6	-0.122922584
202	0x3d4a4f54	0.04939206
203	0xbe185b8d	-0.14878674
204	0xbd3904a1	-0.04517043
205	0xbd7c80fe	-0.061646454
206	0xbdfa7da6	-0.12230997
207	0xbe0d247e	-0.13783452
208	0x3e0ecd99	0.13945617
209	0x3e00b5b2	0.12569311
210	0x3b67c9b0	0.0035368018
211	0x3c6524c3	0.013985815
212	0xbd9fc63f	-0.07801484
213	0x3dec7bba	0.115470365
214	0x3e29281b	0.16519205
215	0xbda470ea	-0.08029349
216	0xbe0638c5	-0.13107593
217	0xbd928746	-0.071547076
218	0x3b811198	0.003938865
219	0x3d71e913	0.059060168
220	0xbc9a179c	-0.018810086
221	0xbccdb3d8	-0.02511017
222	0xbc983a2b	-0.018582424
223	0xbda97615	-0.082744755
224	0x3d58edbe	0.052961104
225	0x3cfc1293	0.030770576
226	0xbdf701f0	-0.120609164
227	0x3d48dd07	0.049038913
228	0xbd31e7d4	-0.04343398
229	0x3e02d286	0.12775621
230	0x3db9d8d3	0.09074559
231	0x3dd9c166	0.10632591
232	0xbbe232b0	-0.006903015
233	0xbd5ce94b	-0.053933423
234	0xbc7e6807	-0.015527732
235	0x3ccfaf06	0.025352012
236	0xbc9c8474	-0.019106127
237	0xbdab176b	-0.08354076
238	0x3d788e89	0.060682807
239	0x3cdef329	0.027215557
240	0xbdbbf2a5	-0.0917714
241	0xbbf29b10	-0.007403739
242	0xbc223085	-0.009899263
243	0xbc8a8e9d	-0.016913706
244	0x3dbebae5	0.09312991
245	0xbd2cb13a	-0.042161204
246	0x3d56c08d	0.052429724
247	0xbd880b4a	-0.06642778
248	0x3c3e0a29	0.011599102
249	0x3cf81af8	0.030286297
250	0x3e230062	0.15918115
251	0x3baaff77	0.005218442
252	0xbd8c8dd7	-0.06862991
253	0x3dba0d84	0.09084609
254	0xbccbb567	-0.024866773
255	0xbd1f36f2	-0.03887076

encoder.lstm.bias_ih_l0 f4 [256]
0	0x3d402a4d	0.04691534
1	0xbd8df3cb	-0.069312654
2	0x3c259cec	0.010108214
3	0x3d9f1dbe	0.07769345
4	0x3e1b41d1	0.15161826
5	0xbdf814cf	-0.12113344
6	0xbd95681c	-0.07295248
7	0x3dbd5843	0.0924535
8	0x3d3c50c5	0.045975465
9	0x3d1af93d	0.03783535
10	0x3dbeb5b7	0.09312003
11	0x3dd21dd6	0.10259597
12	0xbcfdb7c3	-0.030971413
13	0xbde722e6	-0.11285953
14	0x3dd7aa95	0.10530583
15	0x3e0e8cdb	0.1392092
16	0x3dbea56a	0.09308894
17	0x3dcbec1d	0.099571444
18	0x3de07fd3	0.109618805
19	0x3ddd9cdf	0.108209364
20	0x3d169486	0.036762737
21	0xbe10a07b	-0.14123718
22	0xbd2a5917	-0.04158887
23	0x3d40770a	0.046988524
24	0xbd6981d0	-0.057008564
25	0x3dc9b584	0.098490745
26	0xbd99cf74	-0.07510272
27	0xbd8a7b58	-0.06761807
28	0x3dd1a82b	0.102371536
29	0xbe180c7f	-0.14848517
30	0x3e0a5202	0.13507846
31	0x3d9b285a	0.07576056
32	0x3d95cdc9	0.07314641
33	0xbe2674fa	-0.1625556
34	0xbda2c88a	-0.07948406
35	0x3c461281	0.012089373
36	0x3b64af59	0.0034894554
37	0x3e3280ba	0.17431918
38	0xbd9c3c90	-0.07628739
39	0x3d464a09	0.04841045
40	0xbd9eb215	-0.0774881
41	0xbc972274	-0.018449046
42	0xbdfcdf4d	-0.12347279
43	0xbdd5e33a	-0.10443731
44	0xbd79a530	-0.06094855
45	0xbe034686	-0.12819871
46	0xbda8abed	-0.08235917
47	0xbdcafb9b	-0.09911271
48	0xbd9f6005	-0.07781986
49	0x3d138d6e	0.03602355
50	0x3ce155bf	0.027506707
51	0xbde3325f	-0.11093592
52	0x3d34746d	0.044056345
53	0xbdf0947b	-0.117470704
54	0xbddad34f	-0.10684835
55	0xbd511500	-0.051045418
56	0x3c3d7651	0.011563853
57	0x3d7290c9	0.05922011
58	0x3df69970	0.12040985
59	0x3e4a534a	0.19758335
60	0xbdfb71d6	-0.12277572
61	0x3d7e368a	0.06206373
62	0x3e1e43c9	0.15455545
63	0x3d1fa09d	0.038971532
64	0xbd258edb	-0.04041944
65	0x3cf5571d	0.029948765
66	0xbd914120	-0.070925
67	0x3ba3bf25	0.0049971514
68	0xbd4bd112	-0.04975993
69	0x3b65a752	0.0035042358
70	0x3ca787b3	0.020450449
71	0x3d858efc	0.06521413
72	0xbd8094d2	-0.06278385
73	0xbe0c231a	-0.13685265
74	0x3cb3ca8c	0.021947168
75	0xbd9240b0	-0.071412444
76	0x3dec5a2a	0.11540635
77	0x3c4c2019	0.012458825
78	0xbd4d9283	-0.050188553
79	0x3e431896	0.19052348
80	0xbd0321c1	-0.032014612
81	0x3cfdbe07	0.030974401
82	0xbd3a1a93	-0.0454355
83	0xbdc444c8	-0.095834315
84	0x3e21a34e	0.15784952
85	0xbcaf6284	-0.02140928
86	0xbdf6ef6f	-0.12057387
87	0xbda98859	-0.082779594
88	0x3d4f6df4	0.05064197
89	0xbb2f138f	-0.0026714539
90	0xbe043aa4	-0.12912995
91	0x3db0fb28	0.08641654
92	0x3dae91f9	0.08523936
93	0xbdf9730c	-0.121801466
94	0x3d45476d	0.04816382
95	0x3dbf941b	0.09354421
96	0xbc669257	-0.014072976
97	0xbd6083a8	-0.054813057
98	0xbcd2cbdf	-0.025731979
99	0xbe447dea	-0.19188657
100	0x3e252143	0.1612597
101	0x3e02b86e	0.12765667
102	0xbdb003d7	-0.085944824
103	0x3db9228e	0.09039794
104	0x3d1f7ec6	0.03893926
105	0x3ce78993	0.028263843
106	0xbd22638f	-0.039645728
107	0xbd833d9c	-0.064082354
108	0xbce8a678	-0.028399691
109	0x3d6d76c1	0.05797458
110	0xbd6026f5	-0.054724652
111	0x3d78f951	0.06078464
112	0xbca657db	-0.020305565
113	0xbdbfdc26	-0.09368162
114	0xbddbcfb5	-0.10732976
115	0xbd38a6c2	-0.045080908
116	0x3d99d806	0.07511906
117	0xbd752cc3	-0.05985714
118	0x3da3a697	0.07990759
119	0xbd35135d	-0.04420792
120	0x3da844bb	0.08216234
121	0x3d1f8aba	0.03895066
122	0xbdf3b518	-0.11899775
123	0x3d9fd8e0	0.078050375
124	0xbe155ca9	-0.14586128
125	0xbb8f5cb4	-0.0043750647
126	0x3e336a25	0.1752096
127	0xbd43c10b	-0.047791522
128	0x3c30fc3e	0.010802327
129	0xbe1f62f6	-0.15565094
130	0xbdd742bf	-0.10510778
131	0xbda43ba4	-0.08019188
132	0x3c1525f8	0.009103291
133	0xbde261e5	-0.11053828
134	0x3dd548b4	0.10414258
135	0x3cc8cd7b	0.024512043
136	0xbe01045b	-0.12599318
137	0xbd85dae9	-0.065358944
138	0x3e1849dc	0.14871925
139	0xbd97eae8	-0.07417852
140	0xbd16aef7	-0.036787953
141	0x3d245726	0.040122174
142	0xbd9f5316	-0.07779519
143	0x3da3acc8	0.0799194
144	0x3e0c0078	0.13672054
145	0x3d7e8ec2	0.062147863
146	0xbe0702e4	-0.13184696
147	0xbe0477a5	-0.12936266
148	0x3e175997	0.1478027
149	0xbdad7af3	-0.08470716
150	0x3ddb5c2f	0.10710942
151	0xbdf5e31a	-0.12006207
152	0xbde0364b	-0.109478556
153	0xbd5024b5	-0.050816257
154	0x3dd79c61	0.10527874
155	0x3d9fb993	0.07799067
156	0x3b7230a6	0.0036955266
157	0x3d446185	0.047944564
158	0x3d818489	0.06324107
159	0xbda3d9ea	-0.08000548
160	0xbde0d971	-0.10978974
161	0x3cb0cfda	0.021583486
162	0x3d3494b0	0.044087112
163	0xbdd53cff	-0.10412025
164	0x3da634e0	0.08115554
165	0x3ddf05fb	0.108898126
166	0x3d887e09	0.06664664
167	0xbda08f7f	-0.0783987
168	0xbda3ce78	-0.07998365
169	0x3ce625e6	0.028094243
170	0x3b75b13a	0.0037489668
171	0x3d542177	0.051789727
172	0xbd94b93d	-0.07261894
173	0xbdb8995d	-0.09013627
174	0xbdb2d1e0	-0.08731437
175	0x3d9e6a6d	0.07735143
176	0x3d2f0293	0.042727064
177	0x3e2423e1	0.16029312
178	0xbdf08669	-0.11744387
179	0xbdc4db08	-0.096120894
180	0x3cacc36a	0.021089274
181	0xbe0005ab	-0.12502162
182	0x3db22c0c	0.086998075
183	0x3de27871	0.110581286
184	0xbdfd1f16	-0.12359445
185	0x3d03a0ad	0.032135654
186	0x3c9d6031	0.019210907
187	0xbd7b646a	-0.06137506
188	0xbc33202e	-0.010932965
189	0xbc62a2fa	-0.013832802
190	0xbdff739c	-0.124732226
191	0x3cfc4bb7	0.030797822
192	0x3d0504b7	0.0324752
193	0xbc34b5eb	-0.011029701
194	0xbdbf39bd	-0.093371846
195	0x3e533518	0.20625722
196	0x3dfeb4e6	0.124368474
197	0xbd4719f6	-0.048608743
198	0xbd0a67ef	-0.033790525
199	0xbd0e796a	-0.03478376
200	0x3dc55146	0.09634642
201	0x3d54634a	0.051852502
202	0x3c2e55db	0.010640587
203	0x3d865f36	0.06561129
204	0x3d0520c4	0.03250195
205	0xbda11448	-0.078651965
206	0xbdb3419a	-0.08752747
207	0xbc849600	-0.016184807
208	0xbd4bf7e4	-0.049796954
209	0x3da8f053	0.08248963
210	0x3e2ef49a	0.17085496
211	0xbc5549d6	-0.013018092
212	0x3db37765	0.08763007
213	0xbde30a66	-0.11085968
214	0x3def9c3c	0.11699721
215	0x3cfb0aee	0.03064486
216	0x3d4d15d6	0.050069652
217	0xbb7c096a	-0.003845776
218	0x3d89d4b2	0.067300215
219	0x3e183940	0.14865589
220	0x3e4913b2	0.1963642
221	0xbdc2026f	-0.094731204
222	0x3d42a558	0.047520965
223	0x3e157fd0	0.14599538
224	0xbd9efda1	-0.077632196
225	0x3db51b11	0.08843053
226	0x3daf3866	0.08555679
227	0x3dca98ae	0.098924026
228	0x3def91b3	0.11697712
229	0xbc53cd0f	-0.012927308
230	0x3d951df3	0.07281103
231	0xbceb4f4a	-0.028724331
232	0xbc848361	-0.016175928
233	0xbc7b100c	-0.01532365
234	0x3d161327	0.03663936
235	0x3d8bfd33	0.06835403
236	0xbdb6753a	-0.08909078
237	0x3c323c4a	0.010878632
238	0xbd9e33b5	-0.07724706
239	0x3cccc016	0.024993937
240	0xbdaaa88b	-0.08332928
241	0xbc744674	-0.014909375
242	0xbd96d6b8	-0.07365173
243	0xbd821be9	-0.0635298
244	0x3e14b187	0.14520846
245	0x37f7589e	2.948596e-05
246	0xbda60fca	-0.0810848
247	0x3e1101ee	0.14160892
248	0xbd19204f	-0.037384328
249	0x3cc4621e	0.023972567
250	0x3cb98d9c	0.022650532
251	0x3e413faa	0.18871942
252	0xbe34e035	-0.17663653
253	0x3ca7559c	0.020426564
254	0xbdb726db	-0.08942958
255	0x3da5c3c7	0.08093982

encoder.lstm.bias_hh_l0 f4 [256]
0	0xbcccc080	-0.024994135
1	0x3d89cd91	0.06728662
2	0xbd23d223	-0.039995324
3	0x3d35a8ba	0.044350363
4	0xbcae9fe7	-0.021316482
5	0xbd712487	-0.058872726
6	0x3d94af14	0.07259956
7	0xbcc72d43	-0.024313575
8	0xbdbefe16	-0.09325807
9	0x3da0f524	0.07859257
10	0x3ddce223	0.1078532
11	0xbd48e7cb	-0.04904918
12	0xbd7f4c7f	-0.06232881
13	0x3c574b0a	0.013140449
14	0x3d9f26a4	0.07771042
15	0x3e3c84fb	0.18410103
16	0xbdc0ea5d	-0.09419701
17	0x3dfe0ac6	0.124043986
18	0x3de90edd	0.11379788
19	0x3c41cbfa	0.011828417
20	0x3d8ab40e	0.06772624
21	0xbd043ac6	-0.032282613
22	0xbde679f6	-0.11253731
23	0xbdd62851	-0.104569085
24	0x3de19cb2	0.110162154
25	0x3dd8b380	0.10581112
26	0x3dc5d1f9	0.0965919
27	0xbc30818d	-0.010773075
28	0xbd76908e	-0.06019645
29	0xbcc7ec96	-0.024404805
30	0x3a8570d8	0.0010180725
31	0xbd2c4c2b	-0.042064827
32	0xbd9eff11	-0.07763494
33	0x3d59bfe5	0.05316152
34	0xbb655845	-0.003499524
35	0x3d932bec	0.07186112
36	0x3d94cec0	0.07265997
37	0x3dbf99d8	0.09355515
38	0x3de1b736	0.11021273
39	0xbbbd9168	-0.005785156
40	0x3da9e02e	0.08294712
41	0xbd2a8ca2	-0.041638024
42	0xbdb3ffcb	-0.08789023
43	0xbde16e9c	-0.11007425
44	0xbd82f665	-0.06394652
45	0x3cbdd303	0.023171907
46	0x3dd0729f	0.10178112
47	0x3d1f1cef	0.038845953
48	0x3d006c69	0.031353388
49	0x3d2ae04b	0.04171781
50	0xbcc28901	-0.02374697
51	0x3bc90ce4	0.00613557
52	0x3d19b3ef	0.037525114
53	0xbd558803	-0.052131664
54	0x3dc1f9fa	0.09471507
55	0x3daf8a4d	0.08571301
56	0xbd1e8668	-0.0387024
57	0xbd0f0293	-0.034914564
58	0x3d8be705	0.06831173
59	0x3c1d8f32	0.00961666
60	0xbcf404fb	-0.029787531
61	0x3d6e1c23	0.058132302
62	0x3d0db00d	0.034591723
63	0x3d8dd49e	0.06925319
64	0x3d157ffb	0.036499005
65	0x3d8d6483	0.06903937
66	0xbd8abdca	-0.06774481
67	0x3da6d7a6	0.081466004
68	0xbd2fa012	-0.042877264
69	0x3be88482	0.0070958743
70	0x3de5b557	0.112162285
71	0x3de860fb	0.113466226
72	0x3cf5aeb0	0.029990524
73	0x3caf7d70	0.021422118
74	0x3d455cab	0.04818408
75	0x3e00c05c	0.1257338
76	0xbc54d5b2	-0.012990402
77	0xbe1781cd	-0.14795609
78	0x3c83f2aa	0.016106922
79	0x3dcfda0a	0.101490095
80	0x3dbafa94	0.09129825
81	0xbaaef862	-0.001334917
82	0x3b3774a8	0.0027993117
83	0xbda6fae8	-0.08153325
84	0x3bc70f3f	0.0060748155
85	0x3c8d5e78	0.01725696
86	0xbd9d4aef	-0.07680308
87	0x3dbdd2ec	0.09268746
88	0xbdb93c72	-0.09044732
89	0xbcd94043	-0.0265199
90	0xbdc7c304	-0.09753993
91	0x3d878b92	0.06618418
92	0xbd8f7762	-0.07005192
93	0xbe349c0f	-0.17637657
94	0x3e0069c1	0.12540342
95	0x3dce13ac	0.10062346
96	0xbe06f6f8	-0.13180149
97	0x3c3626f6	0.011117687
98	0xbce4b303	-0.02791739
99	0xbd00a5c8	-0.0314081
100	0x3ce1c998	0.027561948
101	0x3dff58ba	0.12468095
102	0x3d4971fa	0.049180962
103	0xbd8afaef	-0.06786143
104	0xbd55867f	-0.05213022
105	0xbe067589	-0.13130774
106	0x3d87ccb3	0.0663084
107	0x3d7567e0	0.059913516
108	0x3dfbae0a	0.12289055
109	0xbdfcb529	-0.12339241
110	0xbd86f117	-0.06588953
111	0xbd2d7e44	-0.042356744
112	0x3ccda08e	0.025100973
113	0x3da48991	0.08034051
114	0xbc1b97b3	-0.009496617
115	0xbdaf27fb	-0.085525475
116	0x3d9018cb	0.07035979
117	0xbde5c4f8	-0.112192094
118	0x3da7d6a2	0.08195235
119	0xbd7029bb	-0.058633547
120	0xbd7e0195	-0.062013227
121	0xbde543c4	-0.11194566
122	0x3bc63808	0.00604916
123	0xbc2dd8e5	-0.010610794
124	0xbdcba3d8	-0.0994336
125	0x3c5aeefe	0.013362644
126	0x3d618654	0.055059746
127	0xbdce1517	-0.10062616
128	0xbe1766d3	-0.14785318
129	0xbe2b144e	-0.16706964
130	0xbd72b058	-0.059250206
131	0xbe017142	-0.1264086
132	0x3c91cab8	0.01779686
133	0xbb9674c5	-0.0045915567
134	0xbd38f04a	-0.045151033
135	0x3e162e1c	0.14666027
136	0xbdae0654	-0.08497301
137	0x3d86fdd4	0.065913826
138	0x3c263b4e	0.010145975
139	0xbe25bc87	-0.16185199
140	0x3c10c9b6	0.008837154
141	0xbd7e0b41	-0.06202245
142	0xbe01dd68	-0.12682116
143	0x3b8b409b	0.004249645
144	0x3d83fc3e	0.06444596
145	0x3d8448e8	0.06459218
146	0x3d4db257	0.050218906
147	0xbe01c3f5	-0.12672408
148	0x3e355572	0.17708376
149	0xbba942a9	-0.005165417
150	0x3deffa01	0.11717606
151	0xbda4f303	-0.08054163
152	0xbc194519	-0.009354853
153	0xbde189bf	-0.11012601
154	0xbcfe94fd	-0.031076903
155	0x3bd5f648	0.006529603
156	0xbdee2eb1	-0.116299994
157	0xbc3ee47d	-0.011651156
158	0xbce17b8c	-0.027524732
159	0x3cd18485	0.025575886
160	0xbdafbb09	-0.08580596
161	0x3d9b4ae4	0.07582644
162	0xbac7e282	-0.001525
163	0x3d19d468	0.037556082
164	0x3cabe4ee	0.020983186
165	0x3cacb7ae	0.021083679
166	0xbdaec316	-0.085333034
167	0x3d19cfc7	0.037551668
168	0xbd20712e	-0.039170437
169	0xbdbc90c1	-0.09207297
170	0xbd7612c0	-0.060076475
171	0x3d60c86c	0.054878637
172	0xbdefa34b	-0.117010675
173	0x3ca518f4	0.0201535
174	0xbd1ea757	-0.038733806
175	0x3dc9c1c0	0.09851408
176	0xbdb09cf1	-0.08623684
177	0x3df383b5	0.118903555
178	0xbdb8b81b	-0.0901949
179	0x3d918d85	0.07107071
180	0xbcab09d4	-0.02087871
181	0xbe021028	-0.12701476
182	0x3d0af84a	0.033928193
183	0xbdd9d588	-0.10636431
184	0x3d80dd10	0.06292164
185	0xbdace480	-0.084420204
186	0xbda09235	-0.07840387
187	0xbd7e47d9	-0.062080238
188	0x3dafe2d2	0.085881844
189	0xbdaa9420	-0.08329034
190	0xbd84705b	-0.064667426
191	0xbc131c59	-0.008978927
192	0x3da3ded5	0.08001486
193	0xbc4c92a6	-0.012486136
194	0x3b242e52	0.0025052023
195	0x3e151a46	0.14560804
196	0xbd550883	-0.05201007
197	0x3ca7cd02	0.020483498
198	0x3d86187d	0.065476395
199	0xbe4d1418	-0.20027196
200	0x3e148276	0.14502892
201	0xbccda9b8	-0.025105342
202	0x3c27533f	0.0102127185
203	0x3dc11146	0.09427123
204	0x3db31868	0.087448895
205	0x3cb9d92c	0.022686563
206	0x3cdd59d6	0.027020376
207	0x3d531baf	0.051540073
208	0x3dab3acc	0.08360824
209	0x3dadce4d	0.084866144
210	0x3e11a6c6	0.14223775
211	0xbd971e57	-0.07378834
212	0x3d714457	0.058903065
213	0xbda3ee12	-0.08004393
214	0xbd6c2a67	-0.057657626
215	0xbdbbb651	-0.091656335
216	0xbbc741fd	-0.0060808645
217	0x3e05e79e	0.13076636
218	0x3d1ab4d9	0.037770126
219	0x3c3c08f8	0.011476748
220	0x3e65810a	0.22412506
221	0xbda44590	-0.080210805
222	0xbb98783e	-0.004653006
223	0xbad57ec3	-0.0016288388
224	0xbd307cc8	-0.04308775
225	0x3e03c945	0.12869747
226	0x3c75f050	0.015010908
227	0xbcefdcac	-0.02928003
228	0x3de09461	0.10965801
229	0xbc9a75ba	-0.018854965
230	0x3d898403	0.06714632
231	0xbd051d43	-0.03249861
232	0x3d367c7b	0.044552308
233	0x3d36b468	0.044605643
234	0x3cd48590	0.025942594
235	0x3d4680ff	0.048462864
236	0xbd53b574	-0.05168672
237	0xbd75057f	-0.059819695
238	0x3d8584e6	0.06519489
239	0x3e0fc994	0.1404174
240	0x3da6a094	0.081360966
241	0x3de8d50f	0.11368763
242	0xbc3129d4	-0.010813195
243	0x3dc0fa1e	0.09422706
244	0x3d5c1c53	0.05373795
245	0xbdbf14af	-0.09330117
246	0x3be3553a	0.00693765
247	0x3dd7b81f	0.10533165
248	0xbd86d9ba	-0.06584497
249	0x3d49f754	0.049308136
250	0xbdb99446	-0.09061484
251	0x3e6cef58	0.23138177
252	0xbdcac786	-0.09901337
253	0xbe0403e2	-0.12892106
254	0x3df4ed2d	0.119593
255	0x3e07d076	0.13263115

decoder.lstm.weight_ih_l0 f4 [256, 5]
0	0x3d486989	0.04892877
1	0xbdab4066	-0.083618924
2	0x3dc724b5	0.09723798
3	0x3d97fcf7	0.07421296
4	0xbd9660d7	-0.073426895
5	0xbef8e9ab	-0.48615775
6	0xbe1cd66d	-0.15316172
7	0x3d8ef9f0	0.069812655
8	0x3df37a9a	0.11888619
9	0x3d4a57b3	0.049400043
10	0xbaf4117a	-0.0018620931
11	0xbc482771	-0.012216435
12	0xbdc8e5f3	-0.09809484
13	0xbd3a4120	-0.045472264
14	0x3cff0ab7	0.031133039
15	0x3e6e0095	0.2324241
16	0x3eb0d887	0.34540197
17	0x3ed1dfc8	0.40991044
18	0xbb8dc67a	-0.0043266388
19	0x3e6b033a	0.2295045
20	0xbe832781	-0.25616077
21	0x3e1581bc	0.14600271
22	0x3d08d751	0.033408467
23	0xbd201dfe	-0.039091103
24	0xba7b2008	-0.0009579663
25	0xbc815863	-0.015789216
26	0xbcfcf327	-0.030877663
27	0x3a51163f	0.0007976032
28	0x3bf24ff8	0.007394787
29	0x3d310de5	0.04322614
30	0x3d8b5fe4	0.06805399
31	0xbd025c98	-0.031826586
32	0x3dd91987	0.10600572
33	0x3d71153b	0.058858138
34	0x3daedfb3	0.08538761
35	0x3e654571	0.22389771
36	0x3fd2b345	1.6460959
37	0x3f18c68c	0.5967796
38	0xbf029b8f	-0.51018614
39	0x3d9de43f	0.0770955
40	0x3e2bac80	0.16765022
41	0x3d88c76b	0.06678661
42	0x3e3ae59b	0.1825165
43	0xbdb7ec2c	-0.08980593
44	0x3e4838ae	0.19552872
45	0xbe022dac	-0.12712735
46	0xbd569467	-0.05238762
47	0xbd87f844	-0.0663915
48	0xbe07320e	-0.13202688
49	0xbd916b0b	-0.07100495
50	0x3d97e96f	0.07417571
51	0xbd4cc533	-0.04999275
52	0xbcc01218	-0.023446128
53	0x3dd2f1b0	0.103000045
54	0x3de84287	0.11340814
55	0xbe91cb93	-0.28475627
56	0xbd9f3af8	-0.07774919
57	0x3d27ba7a	0.040949322
58	0x3c23d03b	0.0099983765
59	0x3e10605b	0.14099257
60	0x3dbef920	0.093248606
61	0x3b5e808f	0.0033951139
62	0x3de168e2	0.11006333
63	0x3da9292f	0.08259808
64	0xbc9501df	-0.018189369
65	0x3cb75579	0.022379624
66	0xbe557c48	-0.20848191
67	0xbd1365a5	-0.035985608
68	0x3e6efda4	0.23338944
69	0x3eb58d9a	0.35459596
70	0x3e87854a	0.2646888
71	0xbdd207db	-0.102554046
72	0xbd873142	-0.06601192
73	0x3dbd8f3e	0.09255837
74	0xbbc2f07a	-0.005949077
75	0xbe3d0117	-0.18457447
76	0x3c8f871b	0.017520478
77	0xbccdada4	-0.025107212
78	0xbd2f1589	-0.042745147
79	0xbdf71eac	-0.12066397
80	0xbe67fd95	-0.22655328
81	0xbdfec370	-0.124396205
82	0x3d8b3238	0.06796688
83	0x3dddad71	0.10824097
84	0x3dcf3b8e	0.10118781
85	0x3e6b4d74	0.22978765
86	0xbd7f5354	-0.062335327
87	0xbd20e1f4	-0.039277986
88	0xbd7bd63c	-0.061483607
89	0x3df5a451	0.119942315
90	0x3dce9014	0.100860745
91	0xbda848ff	-0.08217048
92	0x3e0eda82	0.13950542
93	0x3d4ff40a	0.050769843
94	0xbdca6bcf	-0.09883844
95	0x3e528df2	0.2056196
96	0x3d084ce1	0.033276442
97	0x3d4c8c62	0.049938567
98	0x3e0a4b6a	0.1350533
99	0x3db0ed0d	0.08638964
100	0x3ef1908e	0.471806
101	0xbec2ff36	-0.38085335
102	0x3d4bf111	0.049790446
103	0x3ecc27b4	0.3987404
104	0xbca2818e	-0.019837167
105	0x3ea0093b	0.31257042
106	0x3e133188	0.14374363
107	0x3da418eb	0.08012565
108	0x3e8f24fe	0.2795791
109	0x3dd5d185	0.10440353
110	0x3e973483	0.2953225
111	0x3e6abfc9	0.22924723
112	0x3e85554c	0.2604164
113	0x3dcb3554	0.09922281
114	0x3e176cf3	0.14787655
115	0x3e0c9a35	0.137307
116	0x3d9ba132	0.07599105
117	0x3dc0d3cb	0.09415396
118	0xbd6d956f	-0.05800384
119	0x3e14337d	0.14472766
120	0x3d7cce6b	0.061720293
121	0xbd9f4a43	-0.07777836
122	0xbd4f1f38	-0.050566882
123	0xbd06c75e	-0.032904975
124	0xbd303282	-0.043016918
125	0x3b11789f	0.002219714
126	0x3d263ead	0.040587116
127	0xbde895ce	-0.11356698
128	0x3d87edce	0.066371545
129	0x3dac8412	0.08423628
130	0x3e13fba3	0.1445146
131	0x3b901b6b	0.0043977997
132	0x3dfe9267	0.12430268
133	0x3d000d30	0.031262577
134	0x38228560	3.8748025e-05
135	0x3ddc4205	0.1075478
136	0x3f12efa6	0.57396924
137	0x3e9b742e	0.30362076
138	0xbd93d675	-0.07218639
139	0x3e4989cf	0.19681476
140	0x3d7cfcfb	0.0617647
141	0xbe2d64c3	-0.16932969
142	0x3d1d1018	0.038345426
143	0x3de47158	0.11154431
144	0x3dea6790	0.11445534
145	0x3e618edf	0.22027157
146	0xbd6016f0	-0.054709375
147	0x3dec48be	0.11537312
148	0x3d817c48	0.06322533
149	0x3e3842fe	0.17994305
150	0x3e03c03d	0.12866302
151	0xbd12a4a3	-0.03580154
152	0xbcc99964	-0.024609275
153	0xbde53607	-0.111919455
154	0xbe0a4e43	-0.13506417
155	0xbe80d453	-0.2516199
156	0x3d1fad07	0.03898337
157	0xbdf29b07	-0.11845975
158	0xbb581f45	-0.0032977622
159	0xbd51acb8	-0.051190108
160	0x3e958cd8	0.29209018
161	0xbd8f9668	-0.070111096
162	0x3d53636b	0.051608484
163	0x3ea3fd91	0.32029393
164	0x3d2d3462	0.042286284
165	0x3e1cd0b3	0.15313987
166	0xbcb1699a	-0.0216568
167	0x3d980783	0.07423308
168	0x3ceb9042	0.02875531
169	0x3dca5424	0.0987933
170	0x3e603f3b	0.2189912
171	0x3d89e41c	0.067329615
172	0xbbc2851c	-0.005936278
173	0xbd1611a2	-0.03663791
174	0x3c4d132a	0.012516776
175	0x3e3722fb	0.17884438
176	0x3ea9b689	0.33147076
177	0x3e0819d7	0.13291107
178	0xbe4973b3	-0.19673042
179	0x3e47253b	0.19447796
180	0x3eb4ce9a	0.35313874
181	0x3e977a4c	0.29585493
182	0x3f06edb1	0.5270644
183	0xbe280c5b	-0.16410963
184	0x3e8d0301	0.27541354
185	0xbdd5c2d7	-0.104375534
186	0x3df94b11	0.12172521
187	0x3e59b4b0	0.21260333
188	0xbd4c1740	-0.04982686
189	0x3d9ac855	0.075577416
190	0x3d68b9a4	0.056817666
191	0xbd6e1e20	-0.0581342
192	0x3ddb919e	0.10721134
193	0xbdfda50a	-0.12384994
194	0x3d9d17e6	0.07670574
195	0xbe1e50dd	-0.15460534
196	0xbe2f1d91	-0.17101122
197	0xbc030948	-0.007997818
198	0x3bdd7b63	0.0067590936
199	0x3a95f92f	0.001144206
200	0x3e0e278f	0.13882278
201	0xbe1954d3	-0.14973764
202	0x3cd89154	0.026436485
203	0xbd762d32	-0.060101695
204	0x3e2019c2	0.15634826
205	0x3ce487e7	0.027896835
206	0x3d853599	0.065043636
207	0xbc2e9477	-0.010655514
208	0x3be56b8d	0.0070013464
209	0x3de3d263	0.111241125
210	0x3e549c64	0.20762783
211	0x3e070d0e	0.13188574
212	0x3e614e2e	0.2200248
213	0x3d3bb526	0.045827053
214	0x3ce44c7c	0.027868502
215	0x3e22e6e7	0.15908395
216	0xbd89da01	-0.06731034
217	0xbcb13ada	-0.021634508
218	0xbdc73728	-0.09727317
219	0xbc87f65b	-0.016596964
220	0x3e7cb244	0.24677378
221	0x3e1ae317	0.1512569
222	0x3dece5fa	0.11567302
223	0xbdf41790	-0.11918557
224	0xbdb26b94	-0.08711925
225	0x3dbd03b5	0.09229223
226	0x3dab5a0a	0.08366783
227	0x3d96d2fe	0.07364462
228	0x3d99ec7b	0.07515808
229	0x3c996684	0.018725641
230	0x3e6306c5	0.22170551
231	0xbdd4e8a2	-0.10395934
232	0x3dffc0a3	0.124879144
233	0x3deb1db8	0.11480278
234	0xbd3e2cf8	-0.046429604
235	0x3cdf2d3c	0.02724325
236	0xbd60c990	-0.054879725
237	0xbd874d1a	-0.06606503
238	0x3d9b1381	0.075720794
239	0xbd4e78a7	-0.05040803
240	0x3e863c46	0.2621786
241	0x3e232281	0.15931131
242	0x3f058bfd	0.5216673
243	0x3cf3e8ec	0.029774152
244	0x3ec2e7a7	0.38067362
245	0x3e29f9f1	0.16599251
246	0x3cfb49fe	0.03067493
247	0x3e13f03b	0.1444711
248	0x3d17f716	0.037100874
249	0xbd0d3efa	-0.034483887
250	0x3c98670a	0.01860382
251	0x3c9d121c	0.019173674
252	0xbd852f85	-0.06503204
253	0xbdea42f4	-0.114385515
254	0xbc0db2ce	-0.008648587
255	0x3e3ccaff	0.18436812

decoder.lstm.weight_hh_l0 f4 [256, 64]
0	0xbd8d91f6	-0.069126055
1	0xbd09d76a	-0.0336527
2	0x3dbd3a8d	0.09239683
3	0x3d996ebc	0.07491824
4	0xbdfc68b5	-0.12324659
5	0xbbbd185d	-0.0057707266
6	0x3cc68891	0.024235042
7	0xbba396a7	-0.0049923244
8	0xbe0f2c6b	-0.13981788
9	0x3dbc28e7	0.09187489
10	0x3dd9ebc3	0.10640671
11	0xbd67d0d8	-0.056595653
12	0x3d091f4d	0.033477116
13	0x3bc52899	0.0060168025
14	0x3dc98319	0.09839458
15	0xbd1c8c3f	-0.038219687
16	0x3ca229e9	0.019795375
17	0xbe0f9a1c	-0.14023632
18	0xbd4482dc	-0.04797636
19	0x3d9f03fd	0.077644326
20	0xbd848479	-0.0647058
21	0xbc82db9e	-0.015973862
22	0x3da678a0	0.08128476
23	0xbd55c720	-0.052191854
24	0x3dacc273	0.08435526
25	0x3df871f4	0.1213111
26	0x3cd350c5	0.02579535
27	0x3d5f7189	0.054551635
28	0x3d73f8af	0.059563335
29	0x3cae7ef9	0.02130078
30	0x3b8f6a6b	0.0043766997
31	0x3cc06f66	0.023490619
32	0xbd8ee5d3	-0.06977429
33	0x3cb8eed9	0.022574829
34	0xbdad0439	-0.08448071
35	0x3b0a1421	0.0021069127
36	0xbdbc1200	-0.09183121
37	0xbdad2175	-0.08453647
38	0xbd1d2915	-0.038369257
39	0x3d6332c1	0.055468325
40	0xbba3e05e	-0.005001112
41	0xbdc6f9f7	-0.09715646
42	0xbdb1b39d	-0.08676837
43	0xbd5ced51	-0.05393726
44	0xbd808ebb	-0.06277224
45	0x3d02ffcd	0.031982232
46	0x3d6f8190	0.05847317
47	0x3d3cb75e	0.04607331
48	0x3cd3548f	0.025797157
49	0x3d2040b3	0.039124202
50	0x3cff1723	0.031138962
51	0xbdddcc86	-0.108300254
52	0xbcec0f4a	-0.028815884
53	0x3d2b8fea	0.041885294
54	0xbdad2e6d	-0.08456121
55	0xbca91fe2	-0.020645086
56	0xbc65cd2b	-0.014025967
57	0x3d72ee3a	0.05930922
58	0x3d06eef5	0.03294273
59	0x3d3c0a63	0.045908343
60	0x3dbca41f	0.09210991
61	0xbd64ad4b	-0.055829328
62	0xbcdb3e60	-0.026763141
63	0x3befd9ff	0.0073196883
64	0xbd817e45	-0.06322912
65	0x3ebfc83f	0.37457463
66	0x3e35dc4e	0.17759821
67	0xbed3e4b2	-0.41385418
68	0xbdc5d4c2	-0.09659721
69	0xbd839090	-0.064240575
70	0xbd1a51e7	-0.037675764
71	0xbd706d9e	-0.05869829
72	0x3e2c201b	0.16809122
73	0x3d95f981	0.0732298
74	0x3ca173a5	0.019708464
75	0x3d842404	0.06452182
76	0x3d7a7d13	0.061154436
77	0x3de282ed	0.11060128
78	0xbdfb2d60	-0.12264514
79	0xbcb3613d	-0.021896953
80	0xbdf28965	-0.11842612
81	0xbd0fc3d8	-0.03509888
82	0xbd19379b	-0.037406545
83	0x3e94ed6e	0.29087394
84	0xbbf797f6	-0.007555957
85	0x3ee4afc4	0.4466535
86	0x3f0f8f58	0.560781
87	0x3dd9c214	0.106327206
88	0xbbdd5b0b	-0.006755238
89	0xbe364962	-0.17801431
90	0xbe1c5436	-0.15266499
91	0x3ea3543d	0.31900206
92	0x3e09937d	0.13435169
93	0x3d88af03	0.06674006
94	0xbdcd0caa	-0.10012181
95	0x3e98a778	0.2981527
96	0xbe1d26de	-0.15346858
97	0xbd9dbf7f	-0.077025406
98	0x3e644a80	0.22294044
99	0xbe7ee6f8	-0.24892795
100	0x3ecfce65	0.40587154
101	0x3dae3534	0.085062414
102	0xbde59936	-0.11210863
103	0xbd12bb12	-0.035822935
104	0x3d1261ea	0.03573791
105	0x3de8af37	0.113615446
106	0xbee2d82c	-0.4430555
107	0xbd18fc5a	-0.037350036
108	0x3d5a23d3	0.05325682
109	0xbd899f50	-0.067198396
110	0x3e1760e7	0.14783059
111	0x3bfe35d1	0.0077578803
112	0x3ea29ffc	0.31762683
113	0x3e5601d9	0.20899142
114	0x3d4184a7	0.047245648
115	0x3eff11ef	0.4981837
116	0xbc324348	-0.010880299
117	0x3dbec95b	0.09315749
118	0xbe04937c	-0.12946886
119	0x3e33f66e	0.17574474
120	0xbe8c4d9e	-0.27402967
121	0xbe58447e	-0.21119878
122	0x3789aa0c	1.6410857e-05
123	0xbb00d5e1	-0.0019658732
124	0xbd7495ee	-0.059713297
125	0x3dc40ac6	0.09572367
126	0xbe5d5bb4	-0.21617013
127	0xbcb045c9	-0.021517651
128	0xbcdb2610	-0.026751548
129	0x3e8a6b3c	0.27034938
130	0x3e433580	0.19063377
131	0xbd5378f9	-0.05162904
132	0x3da0fc30	0.07860601
133	0x3dc0a2c2	0.094060436
134	0xbcf70fa1	-0.03015882
135	0xbc269096	-0.010166308
136	0x3d6c09df	0.0576266
137	0x3d490e0a	0.049085654
138	0xbda52c10	-0.08065045
139	0xbbab4a77	-0.0052273828
140	0xbdb9e5f5	-0.09077064
141	0xbe06a7e6	-0.13149986
142	0x3d3c9f19	0.046050165
143	0x3df1fcf4	0.11815825
144	0xbda091ed	-0.07840333
145	0xbd2bb140	-0.041917086
146	0x3db7ffa8	0.089843094
147	0x3d486fed	0.048934866
148	0x3d4a4970	0.04938644
149	0x3e15cbb0	0.14628482
150	0x3dc2a397	0.095038585
151	0x3e3b1f06	0.18273553
152	0x3d9b4e26	0.07583265
153	0x3d07ef87	0.033187415
154	0xbd8f552a	-0.06998666
155	0x3d28dee7	0.0412282
156	0x3db6c317	0.08923929
157	0x3b159011	0.0022821466
158	0xbe23895a	-0.15970364
159	0x3d86d947	0.06584411
160	0xbd58b150	-0.052903473
161	0xbda88c11	-0.082298405
162	0xbd877669	-0.06614382
163	0xbd81ac6e	-0.063317165
164	0x3ccc72e8	0.024957135
165	0xbd8cfce1	-0.0688417
166	0x3c5b5059	0.013385856
167	0xbdcdb84b	-0.10044917
168	0xbe313ef8	-0.17309177
169	0xbca1f749	-0.019771235
170	0xbda47635	-0.08030359
171	0xbaf2f012	-0.0018534681
172	0x3dad6e2c	0.08468279
173	0x3e07be4a	0.13256183
174	0x3e46005b	0.19336073
175	0xbe2772b0	-0.16352344
176	0x3cd19872	0.025585387
177	0xbdf9007f	-0.12158298
178	0x3e1c1ea2	0.1524606
179	0x3d57a013	0.052642893
180	0x3d844924	0.06459263
181	0x3d8b873f	0.068129055
182	0xbdcc6c11	-0.099815495
183	0x3ddc01ee	0.107425556
184	0x3df83ae9	0.12120611
185	0x3ca68d7b	0.020331135
186	0x3d0fc31a	0.035098173
187	0x3c84ff78	0.016235098
188	0xbe0adb0b	-0.13560121
189	0x3cf6d111	0.030128988
190	0xbca943c4	-0.020662196
191	0xbe3341a0	-0.17505503
192	0xbe86762d	-0.26262036
193	0x3e8f9c85	0.28049102
194	0xbd8665de	-0.065623984
195	0xbbd82085	-0.0065956735
196	0xbe7eabfc	-0.24870294
197	0xbd9da962	-0.07698323
198	0x3e817e76	0.25291795
199	0xbe4f6895	-0.20254739
200	0xbe28fe10	-0.16503167
201	0x3d5fdae8	0.054652125
202	0x3e4a8ed1	0.19781043
203	0x3ea6dfe5	0.32592693
204	0x3d878647	0.06617408
205	0xbe74aaef	-0.23893331
206	0xbe3cb122	-0.18426946
207	0xbeb9c872	-0.3628574
208	0xbdea5929	-0.11442787
209	0x3e5ee9a8	0.2176882
210	0xbd79ff4e	-0.061034493
211	0x3beccc72	0.00722652
212	0x3e7c60d6	0.24646315
213	0xbe530bfe	-0.20610043
214	0x3db38b7c	0.08766839
215	0xbe163edd	-0.14672418
216	0xbe7c9338	-0.24665534
217	0xbe2a74cd	-0.16646118
218	0xbe7b447a	-0.2453784
219	0xbe17f852	-0.1484082
220	0x3d3a82c2	0.045534857
221	0x3e01c6aa	0.1267344
222	0x3e12ca90	0.14335084
223	0xbcd67bfe	-0.026182171
224	0xbe9e2baf	-0.30892703
225	0x3e03d820	0.12875414
226	0x3e9fbd5a	0.3119915
227	0xbe3af293	-0.18256597
228	0xbd50c513	-0.050969195
229	0x3ea618e1	0.32440856
230	0xbe5094df	-0.2036929
231	0x3e089108	0.13336575
232	0x3e006663	0.12539057
233	0xbe858d81	-0.2608452
234	0xbe02ae37	-0.1276177
235	0x3d016987	0.03159478
236	0xbe374001	-0.1789551
237	0xbe1c0538	-0.15236366
238	0xbdc6cdd2	-0.09707226
239	0x3d9511a0	0.07278752
240	0xbb087c58	-0.0020826068
241	0x3e8c997e	0.27460855
242	0xbdadc005	-0.084838904
243	0x3c9a598d	0.01884153
244	0xbe61249a	-0.21986619
245	0xbe3c9d91	-0.18419482
246	0xbea407fa	-0.32037336
247	0xbe61f4ab	-0.2206599
248	0xbd1802c8	-0.037112027
249	0x3de4a5c4	0.1116443
250	0xbe11beab	-0.1423289
251	0xbe9a9928	-0.30194974
252	0x3dc1455b	0.09437057
253	0xbd8ddc5c	-0.06926796
254	0xbe776b31	-0.24161984
255	0x3e13a179	0.14417066
