results/decoder_not_recurrent_LSTM_enc_dec_2_layer_output/120_model.pt (torch, 930089 bytes, 18 tensors)

output_zeros f4 [399, 512, 1]
0.0 0.0 0.0 0.0 0.0 0.0 0.0 0.0
0.0 0.0 0.0 0.0 0.0 0.0 0.0 0.0
0.0 0.0 0.0 0.0 0.0 0.0 0.0 0.0
0.0 0.0 0.0 0.0 0.0 0.0 0.0 0.0
0.0 0.0 0.0 0.0 0.0 0.0 0.0 0.0
0.0 0.0 0.0 0.0 0.0 0.0 0.0 0.0
0.0 0.0 0.0 0.0 0.0 0.0 0.0 0.0
0.0 0.0 0.0 0.0 0.0 0.0 0.0 0.0
0.0 0.0 0.0 0.0 0.0 0.0 0.0 0.0
0.0 0.0 0.0 0.0 0.0 0.0 0.0 0.0
0.0 0.0 0.0 0.0 0.0 0.0 0.0 0.0
0.0 0.0 0.0 0.0 0.0 0.0 0.0 0.0
0.0 0.0 0.0 0.0 0.0 0.0 0.0 0.0
0.0 0.0 0.0 0.0 0.0 0.0 0.0 0.0
0.0 0.0 0.0 0.0 0.0 0.0 0.0 0.0
0.0 0.0 0.0 0.0 0.0 0.0 0.0 0.0
0.0 0.0 0.0 0.0 0.0 0.0 0.0 0.0
0.0 0.0 0.0 0.0 0.0 0.0 0.0 0.0
0.0 0.0 0.0 0.0 0.0 0.0 0.0 0.0
0.0 0.0 0.0 0.0 0.0 0.0 0.0 0.0
0.0 0.0 0.0 0.0 0.0 0.0 0.0 0.0
0.0 0.0 0.0 0.0 0.0 0.0 0.0 0.0
0.0 0.0 0.0 0.0 0.0 0.0 0.0 0.0
0.0 0.0 0.0 0.0 0.0 0.0 0.0 0.0
0.0 0.0 0.0 0.0 0.0 0.0 0.0 0.0
0.0 0.0 0.0 0.0 0.0 0.0 0.0 0.0
0.0 0.0 0.0 0.0 0.0 0.0 0.0 0.0
0.0 0.0 0.0 0.0 0.0 0.0 0.0 0.0
0.0 0.0 0.0 0.0 0.0 0.0 0.0 0.0
0.0 0.0 0.0 0.0 0.0 0.0 0.0 0.0
0.0 0.0 0.0 0.0 0.0 0.0 0.0 0.0
0.0 0.0 0.0 0.0 0.0 0.0 0.0 0.0
00000000: 0000 0000 0000 0000 0000 0000 0000 0000
00000010: 0000 0000 0000 0000 0000 0000 0000 0000
00000020: 0000 0000 0000 0000 0000 0000 0000 0000
00000030: 0000 0000 0000 0000 0000 0000 0000 0000
00000040: 0000 0000 0000 0000 0000 0000 0000 0000
00000050: 0000 0000 0000 0000 0000 0000 0000 0000
00000060: 0000 0000 0000 0000 0000 0000 0000 0000
00000070: 0000 0000 0000 0000 0000 0000 0000 0000
00000080: 0000 0000 0000 0000 0000 0000 0000 0000
00000090: 0000 0000 0000 0000 0000 0000 0000 0000
000000a0: 0000 0000 0000 0000 0000 0000 0000 0000
000000b0: 0000 0000 0000 0000 0000 0000 0000 0000
000000c0: 0000 0000 0000 0000 0000 0000 0000 0000
000000d0: 0000 0000 0000 0000 0000 0000 0000 0000
000000e0: 0000 0000 0000 0000 0000 0000 0000 0000
000000f0: 0000 0000 0000 0000 0000 0000 0000 0000
00000100: 0000 0000 0000 0000 0000 0000 0000 0000
00000110: 0000 0000 0000 0000 0000 0000 0000 0000
00000120: 0000 0000 0000 0000 0000 0000 0000 0000
00000130: 0000 0000 0000 0000 0000 0000 0000 0000
00000140: 0000 0000 0000 0000 0000 0000 0000 0000
00000150: 0000 0000 0000 0000 0000 0000 0000 0000
00000160: 0000 0000 0000 0000 0000 0000 0000 0000
00000170: 0000 0000 0000 0000 0000 0000 0000 0000
00000180: 0000 0000 0000 0000 0000 0000 0000 0000
00000190: 0000 0000 0000 0000 0000 0000 0000 0000
000001a0: 0000 0000 0000 0000 0000 0000 0000 0000
000001b0: 0000 0000 0000 0000 0000 0000 0000 0000
000001c0: 0000 0000 0000 0000 0000 0000 0000 0000
000001d0: 0000 0000 0000 0000 0000 0000 0000 0000
000001e0: 0000 0000 0000 0000 0000 0000 0000 0000
000001f0: 0000 0000 0000 0000 0000 0000 0000 0000
00000200: 0000 0000 0000 0000 0000 0000 0000 0000
00000210: 0000 0000 0000 0000 0000 0000 0000 0000
00000220: 0000 0000 0000 0000 0000 0000 0000 0000
00000230: 0000 0000 0000 0000 0000 0000 0000 0000
00000240: 0000 0000 0000 0000 0000 0000 0000 0000
00000250: 0000 0000 0000 0000 0000 0000 0000 0000
00000260: 0000 0000 0000 0000 0000 0000 0000 0000
00000270: 0000 0000 0000 0000 0000 0000 0000 0000
00000280: 0000 0000 0000 0000 0000 0000 0000 0000
00000290: 0000 0000 0000 0000 0000 0000 0000 0000
000002a0: 0000 0000 0000 0000 0000 0000 0000 0000
000002b0: 0000 0000 0000 0000 0000 0000 0000 0000
000002c0: 0000 0000 0000 0000 0000 0000 0000 0000
000002d0: 0000 0000 0000 0000 0000 0000 0000 0000
000002e0: 0000 0000 0000 0000 0000 0000 0000 0000
000002f0: 0000 0000 0000 0000 0000 0000 0000 0000
00000300: 0000 0000 0000 0000 0000 0000 0000 0000
00000310: 0000 0000 0000 0000 0000 0000 0000 0000
00000320: 0000 0000 0000 0000 0000 0000 0000 0000
00000330: 0000 0000 0000 0000 0000 0000 0000 0000
00000340: 0000 0000 0000 0000 0000 0000 0000 0000
00000350: 0000 0000 0000 0000 0000 0000 0000 0000
00000360: 0000 0000 0000 0000 0000 0000 0000 0000
00000370: 0000 0000 0000 0000 0000 0000 0000 0000
00000380: 0000 0000 0000 0000 0000 0000 0000 0000
00000390: 0000 0000 0000 0000 0000 0000 0000 0000
000003a0: 0000 0000 0000 0000 0000 0000 0000 0000
000003b0: 0000 0000 0000 0000 0000 0000 0000 0000
000003c0: 0000 0000 0000 0000 0000 0000 0000 0000
000003d0: 0000 0000 0000 0000 0000 0000 0000 0000
000003e0: 0000 0000 0000 0000 0000 0000 0000 0000
000003f0: 0000 0000 0000 0000 0000 0000 0000 0000

encoder.lstm.weight_ih_l0 f4 [128, 4]
0.65516144 7.5893426 1.5079737 -0.45523146 -0.3883436 0.25772166 -0.40088433 -0.79580134
1.8400542 0.3919179 2.1095011 0.5098203 0.06080004 0.9378297 0.28044996 1.537572
0.20990819 1.6495047 3.065467 2.4113238 0.57736605 0.37142625 0.8451732 0.20640653
0.91299003 0.4234079 -0.13979347 0.42970645 -2.9334543 -1.0486549 3.6348977 1.9753389
0.99936223 4.0498586 1.7052978 1.0143054 3.606961 1.7595836 -1.7269162 0.45952958
0.87779695 1.3896253 1.2523981 2.9920635 0.0235411 0.21910447 -0.060590833 -1.1734998
0.26479524 0.29621196 -1.2264977 1.1676054 1.5226979 4.445051 0.2034038 -3.020427
-2.726554 5.379158 -2.4251943 -1.8055731 0.12951186 -0.21873073 -0.35933328 0.089476824
-0.044785023 -0.08852879 -0.19859466 -0.1349383 4.8460407 1.1263804 2.3646805 1.5707228
4.4970436 0.49336994 3.3140013 2.0057182 8.9525 0.48679796 2.0496745 2.6754918
-0.2529581 1.1134993 -0.17329805 -0.26245737 -0.88047475 -1.5792125 3.660563 -0.8424058
1.6606581 1.6320897 -0.5524779 0.7647685 2.2650936 1.4499043 0.97584265 3.4976854
4.4937754 -1.2048419 6.3902507 1.9766877 2.0910594 0.5522265 0.29627833 -0.40698272
1.1684077 -0.38556862 -0.82446915 3.6778173 1.1228623 2.3293817 -1.1636031 1.1749928
1.0005369 1.6511444 0.44528365 2.1578777 3.4505365 1.8059131 -2.5538762 2.2580485
1.1238732 6.235253 2.5792768 0.12737481 -2.4025407 0.087307915 0.09821307 -0.33716357
7.9343915 0.23408301 1.5402359 5.3712783 -0.41810456 0.54397064 -0.45900276 -0.8042802
0.26977018 0.623316 1.2167894 -0.020801945 -0.64211524 -0.1165297 -0.54749334 0.8621649
-0.7133807 -0.7482225 -0.71460265 1.433624 -0.6694478 -0.6391988 -0.08694052 -0.4663931
-1.6722999 0.727721 -1.8804187 0.8136967 -1.6291447 -1.5248101 -1.8020118 0.6758827
0.5805693 1.7275286 -0.6369845 -0.56208193 1.6490241 5.4894176 3.398296 -1.0999599
-1.228014 -1.0624284 0.19076231 0.7313685 -0.7907774 -0.23670703 0.11730084 -0.75524414
-0.09803122 -0.28904733 0.44320843 -0.48563403 0.996909 -1.0463458 -4.8858147 -8.064314
-1.0615665 2.1341681 0.12500785 -3.6308584 0.04929984 0.081882276 -0.10520002 0.06479054
-0.046170976 0.2010554 -0.21361868 -0.35192606 -0.96864164 3.2009857 -0.9334712 1.1678754
-0.68479735 -1.4338175 -3.7131596 -1.782375 1.1316868 -5.1763983 -4.396774 -0.7700985
0.056420553 1.1390908 0.026293328 -0.8446512 3.9970312 -0.3265338 0.49301022 -0.8142197
1.1283133 -1.4296168 0.98290485 -0.09887981 4.47445 4.913972 -0.2463162 5.1534724
-0.7388886 1.329982 -5.7425504 -0.81660956 -0.49348035 1.6054122 -1.8704243 -0.39372158
-0.6697595 0.35605797 -0.7195004 -0.6696925 -1.9027416 3.9759562 0.29298463 -1.9802839
1.6106015 1.3596525 2.3833253 1.9751307 -2.526807 4.5560837 -2.628422 -3.5056436
-1.2097633 1.1623379 -0.55734885 -0.69193375 -1.9110702 -0.18902104 -1.1735984 -1.0559978
00000000: a9b8 273f e5db f240 4805 c13f 1914 e9be
00000010: f9d4 c6be 18f4 833e b640 cdbe a3b9 4bbf
00000020: e586 eb3f 77a9 c83e 1102 0740 9583 023f
00000030: 7609 793d 9b15 703f 2397 8f3e 29cf c43f
00000040: 2cf2 563e f822 d33f 9c30 4440 2153 1a40
00000050: 43ce 133f 952b be3e 455d 583f 3c5c 533e
00000060: b7b9 693f ecc8 d83e 0526 0fbe 7c02 dc3e
00000070: b7bd 3bc0 533a 86bf 2aa2 6840 e8d7 fc3f
00000080: 34d6 7f3f 7198 8140 3347 da3f c2d4 813f
00000090: 73d8 6640 093a e13f 970b ddbf 7647 eb3e
000000a0: 4db7 603f 3edf b13f 954e a03f f87d 3f40
000000b0: 44d9 c03c ec5c 603e 182e 78bd 3e35 96bf
000000c0: 3e93 873e 18a9 973e e0fd 9cbf 1874 953f
000000d0: c4e7 c23f dc3d 8e40 1649 503e ad4e 41c0
000000e0: dc7f 2ec0 1022 ac40 6236 1bc0 051d e7bf
000000f0: c29e 043e f3fa 5fbe 88fa b7be a03f b73d
00000100: 8070 37bd 954e b5bd 665c 4bbe 442d 0abe
00000110: c412 9b40 3c2d 903f ed56 1740 720d c93f
00000120: c8e7 8f40 fc9a fc3e 9918 5440 b05d 0040
00000130: 713d 0f41 953d f93e de2d 0340 423b 2b40
00000140: b983 81be 2587 8e3f 0b75 31be d060 86be
00000150: cb66 61bf a323 cabf aa46 6a40 e8a7 57bf
00000160: 7290 d43f 51e8 d03f 316f 0dbf dec7 433f
00000170: 4bf7 1040 7796 b93f d3d0 793f 14da 5f40
00000180: 02cd 8f40 4238 9abf ef7c cc40 1a04 fd3f
00000190: ebd3 0540 b75e 0d3f cbb1 973e 0a60 d0be
000001a0: 628e 953f 4069 c5be 6910 53bf 5c61 6b40
000001b0: f4b9 8f3f 9714 1540 f2f0 94bf 2a66 963f
000001c0: 9811 803f b358 d33f 38fc e33e ab1a 0a40
000001d0: 97d5 5c40 2928 e73f b572 23c0 de83 1040
000001e0: 14db 8f3f 3187 c740 df12 2540 8b6e 023e
000001f0: 3ac3 19c0 7ece b23d ef23 c93d b4a0 acbe
00000200: 89e6 fd40 75b3 6f3e 7326 c53f 83e1 ab40
00000210: cd11 d6be a941 0b3f 6902 ebbe 4fe5 4dbf
00000220: 511f 8a3e a391 1f3f c1bf 9b3f d768 aabc
00000230: aa61 24bf 20a7 eebd 8628 0cbf d7b6 5c3f
00000240: 1ea0 36bf 828b 3fbf 33f0 36bf fe80 b73f
00000250: ee60 2bbf 88a2 23bf df0d b2bd 14cb eebe
00000260: ec0d d6bf ec4b 3a3f 8fb1 f0bf 6d4e 503f
00000270: d087 d0bf fa2c c3bf 53a8 e6bf a606 2d3f
00000280: 31a0 143f a81f dd3f 6b11 23bf 9ae4 0fbf
00000290: 3913 d33f 4fa9 af40 af7d 5940 7ccb 8cbf
000002a0: 902f 9dbf a7fd 87bf 3257 433e f73a 3b3f
000002b0: 6370 4abf 5463 72be 6c3b f03d ae57 41bf
000002c0: 98c4 c8bd 03fe 93be 37ec e23e 06a5 f8be
000002d0: 6e35 7f3f a9ee 85bf 9858 9cc0 6e07 01c1
000002e0: 69e1 87bf 3696 0840 0f02 003e fc5f 68c0
000002f0: a1ee 493d e5b1 a73d 1c73 d7bd e7b0 843d
00000300: c71d 3dbd 77e1 4d3e dbbe 5abe a72f b4be
00000310: e6f8 77bf f3dc 4c40 f8f7 6ebf f17c 953f
00000320: e14e 2fbf 5587 b7bf 68a4 6dc0 dd24 e4bf
00000330: 1ddb 903f 0ea5 a5c0 5fb2 8cc0 2d25 45bf
00000340: 3d19 673d bacd 913f 1b65 d73c 103b 58bf
00000350: 5ccf 7f40 702f a7be d66b fc3e b470 50bf
00000360: 926c 903f affd b6bf a79f 7b3f 7f81 cabd
00000370: b22e 8f40 423f 9d40 503a 7cbe 3fe9 a440
00000380: ce27 3dbf da3c aa3f f9c2 b7c0 530d 51bf
00000390: 75a9 fcbe 267e cd3f 106a efbf e095 c9be
000003a0: 5c75 2bbf 3b4d b63e 2e31 38bf f870 2bbf
000003b0: 098d f3bf 1176 7e40 1502 963e f179 fdbf
000003c0: 3128 ce3f 1809 ae3f 6788 1840 15d1 fc3f
000003d0: 35b7 21c0 70cb 9140 1138 28c0 775c 60c0
000003e0: 86d9 9abf 7dc7 943f 6aae 0ebf 9222 31bf
000003f0: f39d f4bf bb8e 41be 7938 96bf f02a 87bf

encoder.lstm.weight_hh_l0 f4 [128, 32]
-1.5044335 0.2385689 0.6636028 -0.07674467 0.22301355 0.010556407 0.53721315 -0.6946964
0.65492004 -0.2089991 -1.2409071 -0.26174244 -0.3530201 1.1369545 -2.3816192 0.1444399
-0.24582957 1.1746643 0.9358691 -0.8850248 0.3688544 2.28468 -1.0063741 1.276348
0.5761317 0.14175735 0.6470665 -0.87869406 -0.0058772955 1.4610023 -0.52019984 -1.3183783
-0.21647099 0.10383378 0.2911399 0.19855307 -0.14555061 0.45338053 0.10761791 -0.35184062
-0.036518227 -0.4717165 -0.3284565 0.2974383 -0.40183175 -0.3092493 0.3658222 0.049322862
0.026444033 0.4288292 0.37219614 -0.94919926 -0.3920896 0.29173964 0.15271273 0.42861992
0.07427125 0.17209725 -0.24252467 -0.17159615 -0.68367857 -0.53617185 -0.1945463 -1.1415825
-1.6189889 0.036536995 0.14764668 0.17961182 -0.14221367 0.31250656 0.18179542 -0.14889763
-0.13712491 -0.0070139207 -0.34694138 -0.08327723 -0.30843917 0.6902069 -0.21216907 0.1643602
-0.24001084 0.581249 0.17456636 -1.3112689 -0.18142286 -0.031397402 -0.31789014 0.51065576
0.14054643 0.008396621 -0.10831217 -0.47872433 -0.3904554 -0.32905203 0.07403852 -1.5142597
0.021834103 -0.1095383 0.1080908 -0.026294421 0.18571112 -0.16810302 0.08880107 -0.14221993
0.028107276 0.12044381 -0.11157191 -0.11098664 -0.09195407 0.6777873 -1.2109321 0.009784042
-0.15808249 -0.14055681 -0.21570474 -0.39378166 -0.16271003 0.111703 0.5344714 0.11466638
0.055697467 -0.07790054 0.06253807 0.045139696 0.4474539 0.5867542 0.01979516 -0.92236584
-2.3099148 0.1325972 0.7160856 0.18571526 0.7193946 -0.078111716 0.3304802 -0.7550181
-0.15673926 0.5833825 -0.9706411 0.15538596 -0.97666 4.136299 -1.7277925 -0.14691424
0.09195122 1.9468442 -0.32169592 3.7119546 0.0325306 0.15188022 1.0367162 1.1813732
1.0772244 0.36519268 -0.20452043 -0.14805777 1.1488286 -2.3504674 1.5366076 -0.60976493
-0.031745747 0.008014644 0.16845582 0.175145 -0.24644114 0.2185199 0.35621393 -0.11766132
-0.12539873 -0.009577964 -0.2852161 0.123202875 -0.07854776 -0.046483587 -0.6037245 0.05718213
0.0024057592 0.10046895 -0.019048585 -0.2004321 -0.3132634 0.39151508 0.553825 0.4065795
-0.05125304 0.27238688 -0.3124554 0.11359392 0.39973158 -0.17026599 0.053315688 -1.1029707
0.0856752 -0.019073863 0.23042132 0.09098856 -0.5270565 0.17150477 0.3349522 0.07207193
-0.061469655 -0.114306234 0.11261517 0.21858591 0.012248871 -0.038695056 -0.80100524 -0.023132531
0.052251372 0.3403321 0.06171132 -1.5559491 -0.06152329 0.9075813 1.8633498 0.35132226
0.16712962 0.0027181504 -0.34554777 0.28906882 0.6756155 0.30876046 -0.09113354 -1.2506256
-2.3238692 0.19835557 0.5026783 0.19188072 0.16654861 0.10996153 -0.030854054 0.14418034
-0.8192176 1.9387895 -0.7335076 0.02432929 -0.119033255 -1.0580374 -0.20040257 -0.07187871
-0.08499489 1.3770676 0.08970747 0.36222062 -0.15032509 1.010919 -0.45829868 0.18095087
-0.4217238 0.29993176 0.22174774 -0.1484374 -1.7369707 -1.8267138 0.9669143 -1.0038961
00000000: 4791 c0bf 684b 743e e0e1 293f 4f2c 9dbd
00000010: aa5d 643e c8f4 2c3c cd86 093f a0d7 31bf
00000020: d7a8 273f dc03 56be 0bd6 9ebf 1b03 86be
00000030: 0dbf b4be ba87 913f 736c 18c0 0ee8 133e
00000040: bfba 7bbe 665b 963f 1e95 6f3f fc90 62bf
00000050: 7cda bc3e 3238 1240 ded0 80bf 5f5f a33f
00000060: 5e7d 133f d728 113e 26a6 253f 18f2 60bf
00000070: 5496 c0bb 2002 bb3f d12b 05bf 9fc0 a8bf
00000080: 92aa 5dbe cea6 d43d 4a10 953e 7f51 4b3e
00000090: 380b 15be 7e21 e83e c766 dc3d 7424 b4be
000000a0: 2394 15bd d384 f1be 732b a8be d549 983e
000000b0: e4bc cdbe ed55 9ebe 0c4d bb3e c506 4a3d
000000c0: 28a1 d83c 808f db3e 7e90 be3e b9fe 72bf
000000d0: f8bf c8be e65e 953e ba60 1c3e 1274 db3e
000000e0: 861b 983d 433a 303e 6358 78be e7b6 2fbe
000000f0: 8f05 2fbf 8f42 09bf 2537 47be 601f 92bf
00000100: 073b cfbf d1a7 153d b130 173e 29ec 373e
00000110: 76a0 11be dc00 a03e 9428 3a3e 9f78 18be
00000120: 796a 0cbe 08d5 e5bb 4da2 b1be 418d aabd
00000130: bdeb 9dbe 66b1 303f d942 59be 0a4e 283e
00000140: 67c5 75be bccc 143f 86c1 323e a9d7 a7bf
00000150: eac6 39be 909a 00bd 7fc2 a2be 56ba 023f
00000160: 67eb 0f3e fb91 093c c5d2 ddbd 5b1b f5be
00000170: c5e9 c7be 8279 a8be 82a1 973d 43d3 c1bf
00000180: 6fdd b23c 9e55 e0bd b65e dd3d 6667 d7bc
00000190: 0e2b 3e3e 3323 2cbe 56dd b53d 1aa2 11be
000001a0: 3b41 e63c 3fab f63d d07f e4bd f74c e3bd
000001b0: 6a52 bcbd 7883 2d3f d3ff 9abf 3f4d 203c
000001c0: 60e0 21be 20ee 0fbe b4e1 5cbe c09d c9be
000001d0: 759d 26be 8bc4 e43d 1ed3 083f 35d6 ea3d
000001e0: 0723 643d 518a 9fbd f613 803d 67e4 383d
000001f0: ad18 e53e 8635 163f 7629 a23c 2b20 6cbf
00000200: a5d5 13c0 8fc7 073e 6351 373f 242c 3e3e
00000210: 3f2a 383f 09f9 9fbd b334 a93e de48 41bf
00000220: 4280 20be 8e58 153f ef7b 78bf 7f1d 1f3e
00000230: 6406 7abf 905c 8440 4e28 ddbf b070 16be
00000240: ec50 bc3d 3132 f93f 54b5 a4be aa90 6d40
00000250: ce3e 053d 7d86 1b3e 1eb3 843f 3d37 973f
00000260: 7de2 893f 89fa ba3e ce6d 51be 759c 17be
00000270: d10c 933f 0f6e 16c0 8faf c43f 8e19 1cbf
00000280: d407 02bd da4f 033c af7f 2c3e 3659 333e
00000290: 115b 7cbe aec3 5f3e ac61 b63e 6bf8 f0bd
000002a0: 8668 00be e5ec 1cbc d807 92be ca51 fc3d
000002b0: a6dd a0bd 9365 3ebd b08d 1abf cf37 6a3d
000002c0: f1a9 1d3b aac2 cd3d c70b 9cbc 133e 4dbe
000002d0: 0f64 a0be aa74 c83e 7ac7 0d3f 302b d03e
000002e0: b5ee 51bd 4b76 8b3e 27fa 9fbe eea3 e83d
000002f0: 9ea9 cc3e 355a 2ebe 8d61 5a3d 252e 8dbf
00000300: 7b76 af3d ca40 9cbc 91f3 6b3e 3658 ba3d
00000310: 2ded 06bf f29e 2f3e db7e ab3e 739a 933d
00000320: 9bc7 7bbd 6319 eabd c8a2 e63d fcd4 5f3e
00000330: 7daf 483c b57e 1ebd ae0e 4dbf 6f80 bdbc
00000340: 8905 563d 0240 ae3e 02c5 7c3d 5729 c7bf
00000350: d8ff 7bbd 4057 683f 3f82 ee3f 83e0 b33e
00000360: 0724 2b3e ff22 323b a3eb b0be d400 943e
00000370: 23f5 2c3f da15 9e3e 39a4 babd 8014 a0bf
00000380: 46ba 14c0 b91d 4b3e 86af 003f 617c 443e
00000390: b88b 2a3e 8333 e13d a4c1 fcbc 03a4 133e
000003a0: 3fb8 51bf 412a f83f 27c7 3bbf 384e c73c
000003b0: b5c7 f3bd c56d 87bf 5536 4dbe 2535 93bd
000003c0: cd11 aebd c043 b03f 8db8 b73d fb74 b93e
000003d0: d2ee 19be cb65 813f 20a6 eabe 2f4b 393e
000003e0: 2fec d7be a890 993e d711 633e f9ff 17be
000003f0: 0e55 debf c2d1 e9bf b287 773f ab7f 80bf

encoder.lstm.bias_ih_l0 f4 [128]
-2.7505672 -2.5480793 -2.879689 -2.802893 -0.9791668 -2.2089803 -2.5578477 -2.8327696
-3.4310942 -3.4686992 -3.0969687 -2.52164 -2.398505 -3.1271532 -1.986503 -3.1844852
-2.8449726 -2.7037044 -2.880722 -1.9959391 -2.824022 -2.8518784 -2.9425821 -2.6698103
-3.0335977 -2.5386617 -2.399133 -3.1358075 -3.1977117 -3.3922453 -3.428418 -0.033460427
-0.07239781 -1.7358387 -1.7060639 -0.9889761 0.1322077 -1.1790361 -1.582014 -0.68698764
-0.9955959 -1.035527 -1.8849982 -1.5281755 -1.4515041 -0.31207973 -0.6322273 -1.7760864
-1.2873279 -1.9912102 -0.8820268 1.9339733 -1.3043878 0.28003573 -1.4253058 -0.99159956
-0.41322702 -1.6923094 -1.7385082 -1.4161496 0.275117 -0.27302665 0.60266465 -0.33223563
0.13412529 0.007880099 -0.033643335 -0.018370025 0.92057866 -0.07855222 -0.065113924 -0.000629857
0.033062033 0.19559398 0.04433323 -0.015023045 -0.24499063 0.26406056 0.099325016 0.00038289832
0.07460206 0.024991725 0.1297787 1.4440899 -0.06799519 -0.068766676 -0.3092547 0.047081515
0.022691954 0.29767567 0.2972293 -0.47280368 0.03350655 -0.25568485 -0.070415184 0.5988175
-1.5076082 -1.5884475 -1.0064535 -2.3939652 -2.3273535 -2.377857 -2.1271963 -1.8413805
-1.0021969 -1.2685437 -0.6699065 -2.3402102 -1.4062274 -1.3386565 -1.7626805 -1.6409069
-2.2780538 -1.4510258 -1.7098914 -0.2894822 -2.0307384 -1.4507384 -2.4369833 -2.1063461
-2.1132603 -2.0799305 -1.5693394 -2.2255054 -0.9454338 -0.9344217 -1.3874588 -3.5048795
00000000: 4b09 30c0 bb13 23c0 d34c 38c0 9962 33c0
00000010: adaa 7abf ef5f 0dc0 c7b3 23c0 194c 35c0
00000020: 0c97 5bc0 2bff 5dc0 bc34 46c0 8d62 21c0
00000030: 1b81 19c0 4723 48c0 bb45 febf 9bce 4bc0
00000040: 0814 36c0 7e09 2dc0 c05d 38c0 ef7a ffbf
00000050: c7bc 34c0 2d85 36c0 4453 3cc0 2cde 2ac0
00000060: 7726 42c0 6f79 22c0 658b 19c0 12b1 48c0
00000070: 4fa7 4cc0 8c1a 59c0 336b 5bc0 cd0d 09bd
00000080: 4e45 94bd f62f debf 4d60 dabf 8a2d 7dbf
00000090: 7561 073e a8ea 96bf 6f7f cabf 6cde 2fbf
000000a0: 5fdf 7ebf 268c 84bf 9f47 f1bf 419b c3bf
000000b0: e3ca b9bf eac8 9fbe a6d9 21bf cd56 e3bf
000000c0: 29c7 a4bf fadf febf 82cc 61bf 708c f73f
000000d0: 2ef6 a6bf d860 8f3e 6c70 b6bf 78d9 7dbf
000000e0: 7e92 d3be 989d d8bf 7087 debf 6444 b5bf
000000f0: 23dc 8c3e 26ca 8bbe 3b48 1a3f ca1a aabe
00000100: 2458 093e 881b 013c 98cd 09bd bc7c 96bc
00000110: 0bab 6b3f fcdf a0bd 735a 85bd fd1c 25ba
00000120: 0e6c 073d ca49 483e c396 353d 3823 76bc
00000130: d3de 7abe f232 873e ea6a cb3d bebf c839
00000140: f7c8 983d 72bb cc3c b5e4 043e f0d7 b83f
00000150: 1041 8bbd 8bd5 8cbd a256 9ebe 8cd8 403d
00000160: 7ae4 b93c f268 983e 702e 983e 5313 f2be
00000170: 2a3e 093d 20e9 82be d635 90bd 1b4c 193f
00000180: 4ef9 c0bf 3f52 cbbf 78d3 80bf ba36 19c0
00000190: 5cf3 14c0 cf2e 18c0 fc23 08c0 5bb2 ebbf
000001a0: fd47 80bf a45f a2bf fe7e 2bbf 01c6 15c0
000001b0: 42ff b3bf 1959 abbf 849f e1bf 3d09 d2bf
000001c0: a2cb 11c0 37bb b9bf b9dd dabf 0337 94be
000001d0: 9ef7 01c0 ccb1 b9bf 89f7 1bc0 60ce 06c0
000001e0: a83f 07c0 951d 05c0 1de0 c8bf ae6e 0ec0
000001f0: f307 72bf 4336 6fbf 4098 b1bf f24f 60c0

encoder.lstm.bias_hh_l0 f4 [128]
-2.726114 -2.6667132 -2.7048252 -2.8165233 -0.906734 -2.3151367 -2.3378677 -2.7624478
-3.7098339 -3.62074 -3.1410418 -2.7871008 -2.296273 -3.2620444 -1.9099984 -2.953402
-2.6003609 -2.7970572 -2.9543226 -2.16291 -2.7855299 -2.6891186 -2.678369 -2.3862765
-3.2147884 -2.536811 -2.514742 -3.0116315 -3.294478 -3.3827415 -3.3436522 0.066001445
-0.078425914 -1.390687 -1.8418871 -1.0499821 0.1608276 -1.2566522 -1.723732 -0.78021014
-0.9530225 -1.0399389 -1.5584872 -1.4808075 -1.2164512 -0.19622299 -0.64525574 -1.7493306
-1.2688457 -2.0414863 -0.7922841 2.1464055 -1.5791588 0.34992766 -1.414457 -1.1620508
-0.2841708 -1.4138118 -1.7488146 -1.4719326 0.36751103 -0.16660024 0.7285494 -0.31537008
0.25385773 -0.0029286847 0.014686807 -0.26114962 0.82417095 -0.14206229 0.26688612 -0.058681376
0.06986395 0.05526869 -0.05155164 -0.18139006 -0.36093858 0.4392062 0.15942232 -0.19944036
0.12483571 0.047080506 0.15368229 1.2999777 0.15991382 0.10318501 -0.51451725 0.033118464
-0.15168639 0.11309897 0.33678836 -0.329258 0.23429976 -0.11968893 -0.23703699 0.8584301
-1.3576329 -1.7998981 -1.0432956 -2.5747442 -2.2885222 -2.4466724 -1.8535571 -1.8350154
-0.9293686 -0.9675558 -0.65856713 -2.3648038 -1.4905871 -1.3085737 -1.4993422 -1.8300359
-2.5471087 -1.3491398 -1.8241795 -0.16821931 -1.8857131 -1.4346895 -2.634852 -2.156578
-1.9703182 -2.1127768 -1.4419634 -2.3114922 -0.9215831 -1.1786536 -1.4587892 -3.4844093
00000000: a778 2ec0 6eab 2ac0 db1b 2dc0 eb41 34c0
00000010: b81f 68bf 332b 14c0 a09f 15c0 f2cb 30c0
00000020: eb6d 6dc0 34ba 67c0 d406 49c0 dc5f 32c0
00000030: 23f6 12c0 56c5 50c0 d47a f4bf 8a04 3dc0
00000040: 506c 26c0 fc02 33c0 9f13 3dc0 1e6d 0ac0
00000050: 1f46 32c0 851a 2cc0 666a 2bc0 c1b8 18c0
00000060: 18bf 4dc0 1d5b 22c0 88f1 20c0 92be 40c0
00000070: bad8 52c0 d67e 58c0 66fe 55c0 c42b 873d
00000080: c49d a0bd 0802 b2bf f5c2 ebbf d065 86bf
00000090: feaf 243e fbd9 a0bf 40a3 dcbf dabb 47bf
000000a0: 48f9 73bf b81c 85bf 827c c7bf 1a8b bdbf
000000b0: acb4 9bbf aeee 48be 7b2f 25bf 11ea dfbf
000000c0: 8969 a2bf b6a7 02c0 21d3 4abf b55e 0940
000000d0: e021 cabf b829 b33e ed0c b5bf 15be 94bf
000000e0: d67e 91be c9f7 b4bf 28d9 dfbf 4a68 bcbf
000000f0: 682a bc3e 4199 2abe 3782 3a3f 3078 a1be
00000100: a4f9 813e 2def 3fbb efa0 703c 67b5 85be
00000110: defc 523f c778 11be 4ca5 883e e25b 70bd
00000120: d514 8f3d 6c61 623d d027 53bd 51be 39be
00000130: f1cc b8be a3df e03e 9b3f 233e 183a 4cbe
00000140: dda9 ff3d 7dd7 403d e45e 1d3e ab65 a63f
00000150: 73c0 233e aa52 d33d 67b7 03bf 3aa7 073d
00000160: ad53 1bbe 6fa0 e73d 866f ac3e 8194 a8be
00000170: 47ec 6f3e 781f f5bd d3b9 72be 13c2 5b3f
00000180: eac6 adbf 1063 e6bf b68a 85bf 9cc8 24c0
00000190: 2677 12c0 4896 1cc0 5c41 edbf c9e1 eabf
000001a0: 1aeb 6dbf bdb1 77bf db97 28bf f258 17c0
000001b0: 8fcb bebf 587f a7bf 72ea bfbf 9e3e eabf
000001c0: d403 23c0 9db0 acbf b77e e9bf af41 2cbe
000001d0: 0c5f f1bf e8a3 b7bf 6aa1 28c0 6005 0ac0
000001e0: 6333 fcbf bc37 07c0 4292 b8bf 7def 13c0
000001f0: dfec 6bbf 1fde 96bf 9bb9 babf 9000 5fc0

encoder.lstm.weight_ih_l1 f4 [128, 32]
0.20650806 -0.086206116 0.16702907 0.05354553 -0.28438783 0.13707004 -0.027063739 -0.32642594
-0.10959557 0.0942597 -0.30872285 0.0019656466 0.05665426 0.22254175 0.409915 0.0035912346
-0.09434592 -0.017275613 -0.13312112 -0.1681879 0.045077108 0.15246774 0.29833376 0.15365022
0.1331139 0.061390597 -0.17346829 0.15974379 -0.3705769 -0.40306473 0.0764191 -0.77374417
-0.09120091 0.24264573 0.060265098 0.08622701 -0.16700618 0.28164354 0.12671156 0.07471762
-0.010873941 -0.05372913 -0.3432256 0.121440336 0.15021785 -0.2455802 0.19801773 -0.026276765
-0.099227704 0.06384311 -0.04545907 -0.4683755 -0.3362884 0.22946739 -0.078852475 0.06069804
-0.06896432 0.020786095 0.020559374 0.08016393 -0.85147685 -0.57939065 -0.3163575 -1.2147362
0.046637148 0.183587 0.07558776 0.084715486 -0.42244524 0.26414275 0.022734823 -0.10168869
0.16463932 0.08604183 -0.07120957 -0.090602174 -0.12399089 -0.2399543 0.40206918 0.17466775
-0.20362422 0.24729581 -0.0731932 -0.3284395 -0.14238603 0.079492725 0.5385046 0.04530828
0.21822003 -0.07629994 -0.2417733 0.012524445 0.3326183 -0.5522532 0.090683796 -1.221813
0.2945712 -0.16603807 0.22087032 0.056116827 0.20481275 0.05099513 0.22084181 -0.037082978
0.28277814 0.052786395 -0.2654553 0.055555604 0.1316106 0.5071116 -0.42041188 0.2328227
-0.24535127 -0.013670305 -0.28035113 0.84829724 0.1891484 0.14015414 1.0916647 0.072265916
0.00783894 -0.011709838 0.23281026 0.12656565 1.4107072 0.27553266 -0.052990712 -0.72569567
-0.050783876 0.2727153 0.35545617 0.20757078 -0.43087417 0.46386322 0.10869652 -0.2545363
0.006432958 -0.030499145 0.11029057 0.24489142 0.011048133 -0.3802541 -0.331734 0.14938258
-0.36849385 0.24837509 0.045536976 -0.42483822 -0.23642547 0.60239995 -0.017877316 0.040917534
0.1808126 -0.24281801 0.19787444 0.082332075 -0.3391036 -0.5020211 0.4459641 -1.4785625
-0.92322147 0.1497701 0.70555305 0.13252889 0.103032336 -0.097206384 0.7622536 -0.13741682
0.34073672 1.6052958 -0.004070935 0.14437684 -0.22657077 0.8044941 -1.055345 -0.09481714
-0.019628871 0.30480942 -0.27102765 0.11771323 -0.21402265 0.46236056 0.676149 0.96922123
0.7104299 0.27596384 -0.3719236 -0.04615462 0.9337384 -0.87512 0.64711535 -1.1680703
-0.055015508 0.01176769 0.11377238 0.08564874 0.083979875 0.11617531 0.11463183 -0.1873056
0.05339927 -0.042834073 -0.09622736 -0.105096675 -0.096149005 0.11578653 0.34212422 0.15135798
-0.05158744 0.06239628 0.1673537 -0.13730448 -0.022555605 0.10321484 0.2933898 0.1499673
-0.10428439 -0.029720718 -0.037146427 0.03849877 -0.05435935 -0.3889658 -0.04478895 -0.57084256
-0.19297624 -0.0075417897 0.118065506 0.18439065 -0.0281218 0.20241222 -0.14778711 -0.21987131
0.027492778 0.06650096 -0.14909367 0.19874623 -0.01631491 0.05538807 0.053644013 -0.050151214
0.04483391 0.09064006 0.12372541 -0.22623771 0.068251625 0.10171026 0.20981194 0.29950106
0.0994232 0.027461208 0.04678878 -0.10403241 -0.40130037 -0.20877625 -0.10587517 -0.57435656
00000000: d976 533e d58c b0bd ab09 2b3e 8f52 5b3d
00000010: 489b 91be 175c 0c3e c6b4 ddbc 4d21 a7be
00000020: a473 e0bd 3b0b c13d ec10 9ebe 14d2 003b
00000030: 4c0e 683d fce1 633e 61e0 d13e eb5a 6b3b
00000040: 6f38 c1bd 9685 8dbc e750 08be 7339 2cbe
00000050: c6a2 383d 8120 1c3e 34bf 983e 7c56 1d3e
00000060: 034f 083e b574 7b3d aca1 31be e093 233e
00000070: 41bc bdbe 805e cebe 9e81 9c3d 1914 46bf
00000080: 8bc7 babd 1f78 783e 89d8 763d c997 b03d
00000090: ab03 2bbe 9533 903e adc0 013e 8d05 993d
000000a0: 9d28 32bc 1413 5cbd 44bb afbe b6b5 f83d
000000b0: b5d2 193e 6079 7bbe 29c5 4a3e 5f42 d7bc
000000c0: e537 cbbd 2dc0 823d 4a33 3abd eace efbe
000000d0: fe2d acbe 80f9 6a3e 687d a1bd 829e 783d
000000e0: 2a3d 8dbd 9a47 aa3c 226c a83c fd2c a43d
000000f0: 63fa 59bf f252 14bf 9cf9 a1be 7a7c 9bbf
00000100: 9806 3f3d 3bfe 3b3e c1cd 9a3d 507f ad3d
00000110: be4a d8be b83d 873e 613e ba3c 2942 d0bd
00000120: 3697 283e b336 b03d 53d6 91bd a28d b9bd
00000130: f0ee fdbd 94b6 75be 03dc cd3e 1adc 323e
00000140: de82 50be 1d3b 7d3e 51e6 95bd 3929 a8be
00000150: a5cd 11be 15cd a23d 70db 093f 2d95 393d
00000160: 1275 5f3e 2543 9cbd 6c93 77be 5433 4d3c
00000170: f24c aa3e 7760 0dbf 6db8 b93d 5e64 9cbf
00000180: 09d2 963e e205 2abe d42b 623e c2da 653d
00000190: 6fba 513e 45e0 503d 5b24 623e 52e4 17bd
000001a0: 4cc8 903e 8c36 583d c2e9 87be 468e 633d
000001b0: eec4 063e 11d2 013f 3a40 d7be 1369 6e3e
000001c0: 5d3d 7bbe 6af9 5fbc 2f8a 8fbe 022a 593f
000001d0: 1eb0 413e 9184 0f3e abbb 8b3f 2700 943d
000001e0: e66e 003c 9fda 3fbc d065 6e3e 6d9a 013e
000001f0: 0e92 b43f 9e12 8d3e ca0c 59bd 31c7 39bf
00000200: c102 50bd 57a1 8b3e 5afe b53e 6f8d 543e
00000210: 8a9b dcbe 7b7f ed3e 489c de3d 9552 82be
00000220: 90cb d23b 58d9 f9bc 06e0 e13d d1c4 7a3e
00000230: 3a03 353c aab0 c2be 0ad9 a9be bff7 183e
00000240: 3aab bcbe 0a56 7e3e fb84 3a3d 6584 d9be
00000250: 8519 72be e236 1a3f 7373 92bc 2599 273d
00000260: f026 393e 49a5 78be 999f 4a3e b89d a83d
00000270: fd9e adbe 7484 00bf 6855 e43e 8941 bdbf
00000280: 3e58 6cbf 555d 193e 209f 343f a7b5 073e
00000290: 9e02 d33d 2414 c7bd 0d23 433f ffb6 0cbe
000002a0: 0b75 ae3e 557a cd3f 7a65 85bb 86d7 133e
000002b0: 2b02 68be 53f3 4d3f 8c15 87bf 7d2f c2bd
000002c0: bacc a0bc fb0f 9c3e 23c4 8abe a213 f13d
000002d0: c128 5bbe 86ba ec3e 1a18 2d3f e21e 783f
000002e0: bcde 353f 224b 8d3e c56c bebe a00c 3dbd
000002f0: 7b09 6f3f dd07 60bf 5aa9 253f 5483 95bf
00000300: f157 61bd 45cd 403c 7e01 e93d 9b68 af3d
00000310: a4fd ab3d 52ed ed3d 18c4 ea3d 0acd 3fbe
00000320: 31b9 5a3d c872 2fbd da12 c5bd ed3c d7bd
00000330: c5e9 c4bd 7d21 ed3d e82a af3e 96fd 1a3e
00000340: 5a4d 53bd 3e93 7f3d c55e 2b3e 8c99 0cbe
00000350: 88c6 b8bc 4d62 d33d 3037 963e 0791 193e
00000360: 0e93 d5bd dd78 f3bc da26 18bd e3b0 1d3d
00000370: e9a7 5ebd 8626 c7be 9e74 37bd bd22 12bf
00000380: 909b 45be 1e21 f7bb 54cc f13d e7d0 3c3e
00000390: b05f e6bc 2645 4f3e 8155 17be f225 61be
000003a0: 8938 e13c a831 883d 03ac 18be 2284 4b3e
000003b0: d9a6 85bc 9ade 623d d3b9 5b3d 5c6b 4dbd
000003c0: c3a3 373d 7fa1 b93d bf63 fd3d dcaa 67be
000003d0: 82c7 8b3d 784d d03d f1d8 563e 3458 993e
000003e0: 649e cb3d 54f6 e03c 97a5 3f3d f20e d5bd
000003f0: 3e77 cdbe 71c9 55be 15d5 d8bd 0809 13bf

encoder.lstm.weight_hh_l1 f4 [128, 32]
-0.50391215 0.09627928 -0.23810066 0.14162943 0.10863161 -0.32172185 -0.0452588 0.1023716
0.04873762 -0.17337807 0.1540235 -0.32787102 0.056892954 -0.31240976 0.4902773 0.41608652
-0.6603084 -0.10526622 0.09282149 0.33639362 -0.123301215 0.18239927 0.10570103 -0.20099223
0.12069661 -0.062369376 0.51518834 0.013355669 0.18936703 0.06483372 -0.031681843 -0.32121566
-0.33159077 -0.16177616 -0.16810718 0.25796446 -0.08108566 0.04054054 -0.11845167 0.18612887
-0.23096134 -0.08605255 -0.2684543 0.27510387 0.14819285 -0.2434383 -0.08095416 -0.09369927
0.10822725 0.052471723 0.071164444 0.013552436 -0.04482801 -0.05702073 -0.10200552 0.40491843
0.25184882 0.27592725 0.00903786 0.041759737 -0.15538886 -0.25881526 -0.1654776 -0.10013179
0.26091048 -0.48378465 0.22577257 0.16985054 -0.46318337 0.22627051 -0.3844502 0.12735084
-0.2872424 0.25808483 -0.26583004 0.4268456 0.6140977 0.035698652 -0.24619465 -0.28425395
0.1590827 0.27029184 0.1988947 0.014425045 0.15055664 0.14011064 0.0047977916 0.3852527
0.31619808 0.1799363 -0.37688246 0.36651713 0.111951515 -0.21095882 -0.3177909 0.14645292
-0.21132074 0.07163693 -0.018335719 -0.100524195 -0.054421622 -0.021702807 -0.23661768 0.013161595
-0.016802372 0.096672036 -0.055242777 0.08517733 0.18234907 0.033450697 0.032999076 -0.039427232
0.18367477 -0.008957757 -0.13148853 -0.20529565 0.17729464 -0.038988166 -0.045201816 0.07624338
-0.04963203 -0.07252951 0.082702614 0.09895862 -0.18787229 -0.418051 0.18524349 -0.13189322
-0.33713835 -0.6272952 -0.26137698 0.22220361 -0.24900858 -0.088143274 -0.36500132 0.15425381
0.093703665 0.2743408 -0.30080345 0.3200118 0.28273845 -0.4616244 -0.014660224 -0.44463784
-0.09406875 -0.3457195 0.13902597 0.1826125 0.12173246 0.08086867 0.29227665 0.58627856
0.5677075 0.17571096 0.3785355 0.6057593 -0.22599044 -0.09162462 0.34622332 -0.029841993
-0.273879 -0.16964988 -0.5502209 0.057622418 -0.17078567 0.045152202 -0.42545006 -0.10397805
0.16472185 0.0336254 0.10757594 0.4182183 0.0031007344 -0.09271579 0.059568513 0.12542136
-0.17675486 0.11549191 -0.09115865 0.32665128 -0.051143162 -0.17215054 -0.08968682 0.3571743
0.45995086 0.1483589 0.5426602 0.17242275 0.0066093905 -0.5885399 0.14031972 -0.41624615
0.092881925 0.05782921 0.033768687 0.24245432 -0.109376185 -0.092202395 -0.216292 0.032243986
-0.020992141 0.119996026 0.09447249 0.094914556 0.11754882 0.072309084 0.16430274 -0.1316604
0.059502315 0.25729135 -0.040062524 -0.09111586 -0.024253268 -0.1795284 0.0190422 0.09403369
0.16355383 -0.023534361 -0.12025104 -0.067479715 -0.1316378 -0.07598975 0.057066 -0.15882415
-0.17238109 0.10332624 -0.23417746 0.085431695 0.21934724 -0.15955327 0.011313448 -0.11473929
-0.08625546 0.11569483 -0.028213967 0.24346477 0.044980694 -0.12766285 0.070009716 0.19056219
-0.26049542 0.297078 0.183729 0.055685695 -0.013878718 -0.31635615 0.13321596 0.04520002
0.12862684 -0.027775014 -0.14851288 -0.0038311193 -0.054427374 -0.042602867 -0.41099772 -0.060737796
00000000: 6300 01bf 122e c53d a9d0 73be 4e07 113e
00000010: 407a de3d bab8 a4be 4b61 39bd 34a8 d13d
00000020: 19a1 473d 058a 31be 56b8 1d3e b6de a7be
00000030: 9608 693d 2cf4 9fbe a005 fb3e 4b09 d53e
00000040: f909 29bf d195 d7bd 3119 be3d c93b ac3e
00000050: 5985 fcbd e0c6 3a3e c879 d83d e8d0 4dbe
00000060: c92f f73d 0877 7fbd 62e3 033f bcd1 5a3c
00000070: 6ee9 413e 8bc7 843d d2c4 01bd 6176 a4be
00000080: 44c6 a9be a6a8 25be 4a24 2cbe eb13 843e
00000090: 3d10 a6bd d60d 263d ca96 f2bd 9198 3e3e
000000a0: 2181 6cbe 523c b0bd d872 89be 6ada 8c3e
000000b0: debf 173e e447 79be 4bcb a5bd 67e5 bfbd
000000c0: 40a6 dd3d 97ec 563d aabe 913d 090b 5e3c
000000d0: 939d 37bd 928e 69bd 45e8 d0bd 7851 cf3e
000000e0: 54f2 803e 5646 8d3e 8813 143c 420c 2b3d
000000f0: 421e 1fbe 6f83 84be f672 29be e511 cdbd
00000100: 0f96 853e 9fb2 f7be ed30 673e 4ded 2d3e
00000110: 5f26 edbe 75b3 673e a8d6 c4be 4268 023e
00000120: 7011 93be b223 843e e01a 88be 828b da3e
00000130: 8235 1d3f c038 123d 731a 7cbe bc89 91be
00000140: 93e6 223e b163 8a3e 0dab 4b3e 0657 6c3c
00000150: 852b 1a3e 2a79 0f3e cb36 9d3b d83f c53e
00000160: b7e4 a13e 3941 383e bdf6 c0be 22a8 bb3e
00000170: d646 e53d 9705 58be 7db5 a2be c1f7 153e
00000180: 7764 58be 62b6 923d ca34 96bc a1df cdbd
00000190: 35e9 5ebd 16ca b1bc e84b 72be bba3 573c
000001a0: 21a5 89bc fdfb c53d 4046 62bd 7471 ae3d
000001b0: b7b9 3a3e 9903 093d 0a2a 073d 737e 21bd
000001c0: 3d15 3c3e 8ec3 12bc eea4 06be 0639 52be
000001d0: ba8c 353e 0eb2 1fbd 8a25 39bd 7d25 9c3d
000001e0: f54a 4bbd 5a8a 94bd fd5f a93d d1aa ca3d
000001f0: 9861 40be c80a d6be 78b0 3d3e 040f 07be
00000200: 669d acbe 6b96 20bf 34d3 85be 5889 633e
00000210: 1bfc 7ebe 7684 b4bd 74e1 babe b6f4 1d3e
00000220: b5e7 bf3d 6676 8c3e e902 9abe 96d8 a33e
00000230: 18c3 903e 095a ecbe 7031 70bc 92a7 e3be
00000240: 1ea7 c0bd 2502 b1be d35c 0e3e c5fe 3a3e
00000250: de4e f93d 799e a53d 49a5 953e 5a16 163f
00000260: 4755 113f 93ed 333e 68cf c13e 0b13 1b3f
00000270: 0a6a 67be b0a5 bbbd 2f44 b13e 3277 f4bc
00000280: de39 8cbe b3b8 2dbe 47db 0cbf 7c05 6c3d
00000290: 70e2 2ebe 84f1 383d 97d4 d9be 72f2 d4bd
000002a0: d8ac 283e caba 093d c650 dc3d b620 d63e
000002b0: b135 4b3b c7e1 bdbd 1dfe 733d 756e 003e
000002c0: 3aff 34be 0687 ec3d 63b1 babd d63e a73e
000002d0: 7e7b 51bd 3b48 30be b9ad b7bd 8ddf b63e
000002e0: ae7e eb3e 65eb 173e c7eb 0a3f 978f 303e
000002f0: 9693 d83b 8daa 16bf f9af 0f3e 371e d5be
00000300: e138 be3d 52de 6c3d 0951 0a3d f245 783e
00000310: 9f00 e0bd 9cd4 bcbd a67b 5dbe 4512 043d
00000320: b6f7 abbc 7ac0 f53d cb7a c13d 9062 c23d
00000330: 70bd f03d c916 943d fa3e 283e fcd1 06be
00000340: b3b8 733d b1bb 833e 9a18 24bd f49a babd
00000350: caae c6bc 4bd6 37be 63fe 9b3c bc94 c03d
00000360: a87a 273e 22cb c0bc 2d46 f6bd ce32 8abd
00000370: 0fcc 06be 84a0 9bbd 0abe 693d cca2 22be
00000380: ab84 30be b59c d33d 37cc 6fbe d0f6 ae3d
00000390: 909c 603e ef61 23be 0a5c 393c 6ffc eabd
000003a0: b4a6 b0bd 69f1 ec3d fa20 e7bc d44e 793e
000003b0: ad3d 383d 0dba 02be 4161 8f3d bc22 433e
000003c0: a85f 85be 9c1a 983e 7423 3c3e af16 643d
000003d0: 9063 63bc 6ff9 a1be c469 083e a823 393d
000003e0: c1b6 033e 6d88 e3bc c313 18be 8413 7bbb
000003f0: 3def 5ebd 5880 2ebd 4b6e d2be 32c8 78bd

encoder.lstm.bias_ih_l1 f4 [128]
-2.0851285 -1.9621719 -1.9927561 -3.5460505 -2.0779006 -2.9946926 -1.794418 -2.0084512
-2.0621521 -2.9212444 -2.8512917 -1.6737967 -1.7353152 -1.1448663 -3.657866 -1.8320806
-2.016122 -1.8725345 -2.8965883 -2.2597363 -3.1010642 -2.4875546 -2.7887127 -2.2350268
-1.9297745 -1.6975422 -1.7196912 -2.1304321 -1.8612888 -2.4081972 -1.9157456 -1.9024637
-1.5571593 -1.4036926 -1.3469198 -1.0159178 -1.8563253 -0.90130544 -0.95464075 -1.3219848
-1.2937368 -1.613158 -1.8477827 -1.3801129 -1.538102 -1.2769157 -1.8735306 -1.6211364
-1.4022272 -1.2575874 -1.718232 -1.4170288 -1.2017872 -1.3761803 -1.6421895 -1.4219908
-1.2234056 -1.1436162 -1.3090724 -1.1739966 -1.3443786 -1.8711188 -1.4560419 -1.4130707
-0.014903461 0.36213577 0.16932243 -0.020726588 0.55002904 0.33222228 -0.24638785 -0.10710378
-0.042566724 -0.07388202 -0.15620233 0.028395595 -0.27949855 0.2829182 0.0455117 0.15666692
-0.20799023 -0.10728436 -0.04526968 -0.016956529 -0.027973644 0.092218325 -0.08467303 -0.17661968
-0.076683186 -0.042416092 -0.07977449 0.09277826 0.017418591 0.07741539 -0.10816818 -0.13311434
-1.3665094 -2.1632411 -1.9981873 -1.2440224 -1.6753004 -1.0460804 -1.842388 -2.0533774
-1.4896561 -1.905745 -1.9580983 -1.6743399 -1.8026189 -3.3654904 -0.87129235 -1.6819886
-1.0960283 -1.7660098 -1.3778144 -1.3697008 -1.6751907 -1.1234776 -1.7597072 -1.3198936
-2.1872308 -1.6596663 -1.5737178 -1.7387972 -1.4302057 -1.1556731 -1.6187631 -1.5206851
00000000: bf72 05c0 7328 fbbf a212 ffbf 7ef2 62c0
00000010: 53fc 04c0 0ba9 3fc0 7daf e5bf 778a 00c0
00000020: 4dfa 03c0 abf5 3ac0 907b 36c0 f83e d6bf
00000030: cf1e debf fb8a 92bf 7a1a 6ac0 9e81 eabf
00000040: 2508 01c0 36af efbf b461 39c0 859f 10c0
00000050: d677 46c0 1834 1fc0 457a 32c0 ae0a 0fc0
00000060: da02 f7bf 1049 d9bf d71e dcbf 0059 08c0
00000070: b63e eebf e71f 1ac0 2737 f5bf ee83 f3bf
00000080: ff50 c7bf 33ac b3bf de67 acbf 9809 82bf
00000090: 119c edbf f4bb 66bf 5663 74bf cc36 a9bf
000000a0: 2b99 a5bf f67b cebf 2584 ecbf 8aa7 b0bf
000000b0: 87e0 c4bf f971 a3bf dacf efbf 6681 cfbf
000000c0: 2e7c b3bf a0f8 a0bf 07ef dbbf 3361 b5bf
000000d0: 2ad4 99bf ad26 b0bf 4433 d2bf cb03 b6bf
000000e0: 8e98 9cbf 0462 92bf af8f a7bf 8545 96bf
000000f0: 9914 acbf d280 efbf 955f babf 80df b4bf
00000100: a52d 74bc dc69 b93e dc62 2d3e ceca a9bc
00000110: b4ce 0c3f 0a19 aa3e 194d 7cbe 3a59 dbbd
00000120: 725a 2ebd 754f 97bd 81f3 1fbe e19d e83c
00000130: 6f1a 8fbe a8da 903e 7a6a 3a3d 4b6d 203e
00000140: 64fb 54be e7b7 dbbd b36c 39bd 6be8 8abc
00000150: fc28 e5bc f6dc bc3d 0e69 adbd cadb 34be
00000160: 130c 9dbd 7fbc 2dbd cf60 a3bd 8702 be3d
00000170: 6fb1 8e3c f68b 9e3d 4787 ddbd 204f 08be
00000180: c8e9 aebf 8b72 0ac0 9ac4 ffbf 203c 9fbf
00000190: 3e70 d6bf f6e5 85bf 5fd3 ebbf 896a 03c0
000001a0: 0dad bebf 74ef f3bf f7a2 fabf c550 d6bf
000001b0: 37bc e6bf 3264 57c0 040d 5fbf 674b d7bf
000001c0: a84a 8cbf 9c0c e2bf 395c b0bf 5b52 afbf
000001d0: a66c d6bf 1dce 8fbf 163e e1bf 46f2 a8bf
000001e0: 97fb 0bc0 f26f d4bf 966f c9bf e890 debf
000001f0: fb10 b7bf 19ed 93bf a133 cfbf cfa5 c2bf

encoder.lstm.bias_hh_l1 f4 [128]
-2.0862892 -1.8779582 -1.9260453 -3.497243 -1.8931009 -2.940639 -1.716111 -2.2628596
-2.0090303 -3.0177367 -2.9257822 -1.7357677 -1.6751527 -1.0240351 -3.6384747 -1.9130507
-2.172186 -2.086546 -2.6420999 -2.1314905 -3.0220816 -2.5630481 -2.5291038 -2.2379365
-1.9252077 -2.0365365 -1.5532445 -1.9054209 -1.9657387 -2.2046645 -1.8029891 -1.9710761
-1.297954 -1.5783552 -1.1790103 -1.1769999 -1.8236911 -0.88671887 -1.0666852 -1.2077228
-1.4174265 -1.6260687 -1.7497388 -1.3980348 -1.309591 -1.2215338 -1.9743614 -1.7221891
-1.5234807 -1.269464 -1.4915866 -1.2294526 -1.2027061 -1.5305115 -1.645567 -1.6593192
-1.1057577 -1.2850958 -1.2688569 -1.0414629 -1.2549896 -1.8157568 -1.5362211 -1.2917308
0.014284872 0.21409559 0.0019909297 0.11535109 0.71834785 0.07911454 0.015465154 -0.11620583
0.19519499 0.093856625 -0.079901226 -0.13069342 -0.032390684 0.47719523 -0.08625457 0.19682588
0.01679252 0.09083579 0.124971025 0.07610116 0.12796113 -0.1335904 -0.03690514 0.036791936
0.16652004 -0.10748136 0.0011003298 0.08245194 0.1612112 -0.064468816 0.02887991 0.06875278
-1.2081498 -2.0758545 -2.0508962 -1.2617911 -1.9144248 -1.0869541 -1.9035299 -1.7930175
-1.7955201 -1.6434911 -1.9531592 -1.6059308 -1.5642196 -3.3357022 -0.89168656 -1.8350979
-1.2330697 -1.5182627 -1.6028657 -1.2395436 -1.7077174 -1.3559264 -1.5921998 -1.142624
-2.1330135 -1.6741275 -1.4993218 -1.9128907 -1.6424689 -1.1546038 -1.7340803 -1.3305519
00000000: c385 05c0 ef60 f0bf a788 f6bf d4d2 5fc0
00000010: 2151 f2bf 6e33 3cc0 86a9 dbbf b1d2 10c0
00000020: f493 00c0 9922 41c0 0440 3bc0 a32d debf
00000030: 676b d6bf 9513 83bf c5dc 68c0 d8de f4bf
00000040: 1805 0bc0 f889 05c0 2a18 29c0 576a 08c0
00000050: c969 41c0 fb08 24c0 d6dc 21c0 5a3a 0fc0
00000060: 356d f6bf 9d56 02c0 b7d0 c6bf d5e4 f3bf
00000070: 539d fbbf 3919 0dc0 59c8 e6bf 394c fcbf
00000080: 5b23 a6bf 8b07 cabf cfe9 96bf efa7 96bf
00000090: b66e e9bf 0200 63bf 2489 88bf a996 9abf
000000a0: 3b6e b5bf 0523 d0bf 71f7 dfbf cef2 b2bf
000000b0: aea0 a7bf 385b 9cbf e0b7 fcbf b170 dcbf
000000c0: 6a01 c3bf cc7d a2bf 4fec bebf b45e 9dbf
000000d0: 46f2 99bf cde7 c3bf f1a1 d2bf 9264 d4bf
000000e0: 7889 8dbf 057e a4bf e769 a2bf a84e 85bf
000000f0: 80a3 a0bf b86a e8bf e5a2 c4bf 6f57 a5bf
00000100: 190b 6a3c e03b 5b3e 427a 023b 313d ec3d
00000110: a5e5 373f ce06 a23d 8f61 7d3c 52fd edbd
00000120: 32e1 473e e737 c03d 41a3 a3bd 7fd4 05be
00000130: 18ac 04bd ef52 f43e 3ca6 b0bd b98c 493e
00000140: 7890 893c 1d08 ba3d cff0 ff3d edda 9b3d
00000150: 3e08 033e eccb 08be d829 17bd 24b3 163d
00000160: 3b84 2a3e 301f dcbd f138 903a 90dc a83d
00000170: 8c14 253e 3a08 84bd 9095 ec3c 42ce 8c3d
00000180: a7a4 9abf cdda 04c0 e241 03c0 5f82 a1bf
00000190: df0b f5bf 5021 8bbf dea6 f3bf 9981 e5bf
000001a0: 9ad3 e5bf eb5d d2bf 1f01 fabf 248f cdbf
000001b0: 5938 c8bf 257c 55c0 9245 64bf 7de4 eabf
000001c0: 3ad5 9dbf 6f56 c2bf b42a cdbf 5da9 9ebf
000001d0: 7c96 dabf ff8e adbf 34cd cbbf 8141 92bf
000001e0: 4b83 08c0 cf49 d6bf c7e9 bfbf 9ad9 f4bf
000001f0: 6c3c d2bf 0fca 93bf 58f6 ddbf 864f aabf

decoder.lstm.weight_ih_l0 f4 [128, 5]
0.99487823 0.0031684355 -0.5662052 0.21099937 -0.09717346 0.84097093 -0.42518985 -0.53274524
-0.59191936 -0.29366162 0.9343162 -0.7159472 -0.703387 -0.21353786 -0.090222724 -0.35784557
-1.3052244 -1.0272331 -1.1746839 -1.0725012 -2.8080063 2.5291598 2.2513788 2.6629207
2.5425723 -0.3830855 -0.8739302 -1.3498658 -1.3713571 -0.9609243 2.1300352 0.36648974
0.3109271 0.1904695 0.21116929 -0.05459925 1.1378657 1.5471094 0.44609228 1.1937094
0.1813658 0.8882692 -0.7891317 -0.58601016 0.19710183 1.277264 2.4599636 2.0503905
1.0937737 2.3949885 1.27631 1.2776895 1.236495 2.3423474 1.707335 -0.2833916
-1.6682469 -1.2704242 -0.9028012 -1.0544165 1.3388848 0.08471194 -0.69317937 0.12548332
-0.12338831 1.4614102 0.94122374 0.5972331 1.055926 0.661186 -1.8324294 -0.9536746
-0.833386 0.4707257 0.2840782 1.432319 -1.1322982 -0.70597345 -0.8759835 -1.1449968
-0.9965699 -0.93510485 -1.4633442 -1.2861495 -0.8539508 -1.4297202 -0.24613065 -1.0300059
-0.8013698 0.25696084 -0.33242336 -0.033368155 0.20419955 -1.8306602 -0.8421082 1.0570507
-0.40181243 -0.7426252 -0.47415876 -0.4569815 -1.2702775 -0.29704857 0.44132817 0.034197465
0.35884798 0.13931306 -1.5021046 0.7177869 -1.271585 0.3276096 -2.4321005 -2.8626525
0.5616331 -2.216519 -1.131381 -2.8119862 1.7977831 -1.2788391 1.1285176 0.12540324
1.5252157 -1.2219316 -0.73791754 -2.052023 -1.6227447 -0.39689007 -0.97058845 -1.4530116
-0.9100535 -0.37378964 1.1283346 1.7715797 2.036336 0.8062552 0.94285595 1.1743106
-0.24852724 -0.47132015 -0.4813416 -0.43315685 1.6495155 -1.1619657 -0.14639965 -0.82796645
-1.0859159 0.9566968 -1.0569875 -0.3425372 -0.8627129 -0.96429396 1.019235 -0.39598295
-0.7275669 0.08489593 -0.11530594 1.7923188 2.458709 2.0997114 1.437867 2.4604993
-0.77872795 -0.6433146 -4.000066 1.4274848 -3.6618476 -0.785376 -1.127281 -0.48281962
-0.72864664 -0.7937374 0.60206586 -1.7429678 -1.0951649 -0.3895943 0.3661215 -0.100251
-0.25820518 0.63451594 -1.9301454 1.038759 0.81768066 -0.48088488 -0.20644225 2.336558
0.5132837 0.1747971 0.622585 -0.15082061 -0.40619045 0.32744646 -0.2837791 -0.8251711
-3.0946345 -0.2744815 0.99963135 3.2230086 0.19861598 -0.05383589 -1.5517744 -3.9787896
-0.23956862 -1.3462925 -0.74347514 -1.4905872 1.7067506 -0.83664256 -3.214917 -2.7968264
-1.7434554 0.9691171 1.3281859 1.8583955 0.029872 -2.1398346 -0.59702474 -0.8559842
0.09275883 -0.9634506 -0.7971294 0.4064353 -0.55776304 -2.0333383 -0.909994 -0.052729987
-0.9029881 -0.97417724 -0.98703367 1.8600281 1.0958195 -3.3958914 0.008124774 -0.35306758
-1.6937823 -3.2737005 1.8621134 -1.1977334 -0.7808224 0.41796434 -0.6522181 -0.71545285
-0.4477854 0.34621096 0.3099502 -0.15098475 -0.19017942 0.57964516 0.058563154 1.7052553
-2.230883 0.12734246 -0.9644743 -0.81335884 1.3680172 -1.6976953 -2.336021 2.072403
00000000: 57b0 7e3f 87a5 4f3b d3f2 10bf 3810 583e
00000010: e102 c7bd df49 573f 7cb2 d9be fe61 08bf
00000020: 0788 17bf d15a 96be 592f 6f3f 5148 37bf
00000030: 2c11 34bf aba9 5abe b1c6 b8bd 8937 b7be
00000040: 9811 a7bf 607c 83bf 0b5c 96bf b847 89bf
00000050: 60b6 33c0 c1dd 2140 9716 1040 4b6d 2a40
00000060: 81b9 2240 c823 c4be e4b9 5fbf 67c8 acbf
00000070: a188 afbf 23ff 75bf 7f52 0840 8ba4 bb3e
00000080: d631 9f3e 700a 433e c33c 583e 77a3 5fbd
00000090: 95a5 913f ae07 c63f 3566 e43e 78cb 983f
000000a0: f5b7 393e 9c65 633f 8904 4abf c304 16bf
000000b0: 10d5 493e 637d a33f 0b70 1d40 9939 0340
000000c0: c700 8c3f 7e47 1940 205e a33f 548b a33f
000000d0: 7845 9e3f 05e9 1540 f489 da3f b418 91be
000000e0: 1d89 d5bf 439d a2bf fb1d 67bf 1ff7 86bf
000000f0: 9460 ab3f 747d ad3d 3474 31bf b37e 003e
00000100: 03b3 fcbd 7d0f bb3f 0af4 703f 45e4 183f
00000110: 9528 873f 7c43 293f 0c8d eabf 0524 74bf
00000120: c958 55bf f502 f13e b372 913e 3b56 b73f
00000130: 26ef 90bf adba 34bf 7440 60bf 418f 92bf
00000140: 341f 7fbf 0863 6fbf dd4e bbbf 8ca0 a4bf
00000150: 859c 5abf 1201 b7bf ac09 7cbe 3cd7 83bf
00000160: 9226 4dbf 5f90 833e 6533 aabe 0cad 08bd
00000170: b019 513e 1353 eabf 6794 57bf 704d 873f
00000180: 5cba cdbe af1c 3ebf f0c4 f2be 7bf9 e9be
00000190: 7498 a2bf c016 98be c4f5 e13e a412 0c3d
000001a0: ecba b73e 15a8 0e3e f744 c0bf e2c0 373f
000001b0: 4cc3 a2bf 72bc a73e 89a7 1bc0 b335 37c0
000001c0: 30c7 0f3f 73db 0dc0 18d1 90bf 95f7 33c0
000001d0: c21d e63f 00b1 a3bf 4473 903f b569 003e
000001e0: 453a c33f 4168 9cbf 2ae8 3cbf 5854 03c0
000001f0: 19b6 cfbf 2d35 cbbe 7c78 78bf 49fc b9bf
00000200: 44f9 68bf 5b61 bfbe 456d 903f 20c3 e23f
00000210: 5453 0240 be66 4e3f 025f 713f cf4f 963f
00000220: ed7d 7ebe e050 f1be 6872 f6be bcc6 ddbe
00000230: 5323 d33f 4bbb 94bf cae9 15be 9cf5 53bf
00000240: 4bff 8abf 15ea 743f 5e4b 87bf 0961 afbe
00000250: c1da 5cbf f8db 76bf 4b76 823f 47be cabe
00000260: d341 3abf ebdd ad3d 8525 ecbd b46a e53f
00000270: 7d5b 1d40 ac61 0640 070c b83f d278 1d40
00000280: b75a 47bf 44b0 24bf 8a00 80c0 d2b7 b63f
00000290: b65b 6ac0 670e 49bf be4a 90bf 2234 f7be
000002a0: 9688 3abf 6032 4bbf fd20 1a3f 9219 dfbf
000002b0: 5d2e 8cbf e778 c7be 4774 bb3e 6550 cdbd
000002c0: 7833 84be a36f 223f 010f f7bf 0ef6 843f
000002d0: 8553 513f 8b36 f6be 9965 53be 2b8a 1540
000002e0: 9066 033f 03fe 323e bb61 1f3f b870 1abe
000002f0: 32f8 cfbe 10a7 a73e 7f4b 91be 6a3e 53bf
00000300: 7e0e 46c0 d788 8cbe d7e7 7f3f c645 4e40
00000310: fd61 4b3e 0683 5cbd 8ba0 c6bf 7da4 7ec0
00000320: 7a51 75be 5053 acbf 6354 3ebf 90cb bebf
00000330: ce76 da3f 352e 56bf 33c1 4dc0 34ff 32c0
00000340: 8c29 dfbf 0f18 783f ff01 aa3f e7df ed3f
00000350: 20b6 f43c 0df3 08c0 9dd6 18bf c821 5bbf
00000360: 57f8 bd3d b3a4 76bf ac10 4cbf 4a18 d03e
00000370: 8fc9 0ebf 3722 02c0 5ef5 68bf 66fb 57bd
00000380: 3a2a 67bf ae63 79bf 3dae 7cbf 6715 ee3f
00000390: d043 8c3f 4956 59c0 c61d 053c 46c5 b4be
000003a0: dccd d8bf 4f84 51c0 bb59 ee3f 544f 99bf
000003b0: fae3 47bf 6cff d53e c4f7 26bf eb27 37bf
000003c0: 2144 e5be 9042 b13e cbb1 9e3e bf9b 1abe
000003d0: 65be 42be a063 143f ebdf 6f3d ce45 da3f
000003e0: c9c6 0ec0 1066 023e cae7 76bf 4938 50bf
000003f0: 301b af3f 144e d9bf 5e81 15c0 40a2 0440
