results/decoder_not_recurrent_LSTM_enc_dec_2_layer_output/55_model.pt (torch, 930089 bytes, 18 tensors)

output_zeros f4 [399, 512, 1]
00000000: 0000 0000 0000 0000 0000 0000 0000 0000
00000010: 0000 0000 0000 0000 0000 0000 0000 0000
00000020: 0000 0000 0000 0000 0000 0000 0000 0000
00000030: 0000 0000 0000 0000 0000 0000 0000 0000
00000040: 0000 0000 0000 0000 0000 0000 0000 0000
00000050: 0000 0000 0000 0000 0000 0000 0000 0000
00000060: 0000 0000 0000 0000 0000 0000 0000 0000
00000070: 0000 0000 0000 0000 0000 0000 0000 0000
00000080: 0000 0000 0000 0000 0000 0000 0000 0000
00000090: 0000 0000 0000 0000 0000 0000 0000 0000
000000a0: 0000 0000 0000 0000 0000 0000 0000 0000
000000b0: 0000 0000 0000 0000 0000 0000 0000 0000
000000c0: 0000 0000 0000 0000 0000 0000 0000 0000
000000d0: 0000 0000 0000 0000 0000 0000 0000 0000
000000e0: 0000 0000 0000 0000 0000 0000 0000 0000
000000f0: 0000 0000 0000 0000 0000 0000 0000 0000
00000100: 0000 0000 0000 0000 0000 0000 0000 0000
00000110: 0000 0000 0000 0000 0000 0000 0000 0000
00000120: 0000 0000 0000 0000 0000 0000 0000 0000
00000130: 0000 0000 0000 0000 0000 0000 0000 0000
00000140: 0000 0000 0000 0000 0000 0000 0000 0000
00000150: 0000 0000 0000 0000 0000 0000 0000 0000
00000160: 0000 0000 0000 0000 0000 0000 0000 0000
00000170: 0000 0000 0000 0000 0000 0000 0000 0000
00000180: 0000 0000 0000 0000 0000 0000 0000 0000
00000190: 0000 0000 0000 0000 0000 0000 0000 0000
000001a0: 0000 0000 0000 0000 0000 0000 0000 0000
000001b0: 0000 0000 0000 0000 0000 0000 0000 0000
000001c0: 0000 0000 0000 0000 0000 0000 0000 0000
000001d0: 0000 0000 0000 0000 0000 0000 0000 0000
000001e0: 0000 0000 0000 0000 0000 0000 0000 0000
000001f0: 0000 0000 0000 0000 0000 0000 0000 0000
00000200: 0000 0000 0000 0000 0000 0000 0000 0000
00000210: 0000 0000 0000 0000 0000 0000 0000 0000
00000220: 0000 0000 0000 0000 0000 0000 0000 0000
00000230: 0000 0000 0000 0000 0000 0000 0000 0000
00000240: 0000 0000 0000 0000 0000 0000 0000 0000
00000250: 0000 0000 0000 0000 0000 0000 0000 0000
00000260: 0000 0000 0000 0000 0000 0000 0000 0000
00000270: 0000 0000 0000 0000 0000 0000 0000 0000
00000280: 0000 0000 0000 0000 0000 0000 0000 0000
00000290: 0000 0000 0000 0000 0000 0000 0000 0000
000002a0: 0000 0000 0000 0000 0000 0000 0000 0000
000002b0: 0000 0000 0000 0000 0000 0000 0000 0000
000002c0: 0000 0000 0000 0000 0000 0000 0000 0000
000002d0: 0000 0000 0000 0000 0000 0000 0000 0000
000002e0: 0000 0000 0000 0000 0000 0000 0000 0000
000002f0: 0000 0000 0000 0000 0000 0000 0000 0000
00000300: 0000 0000 0000 0000 0000 0000 0000 0000
00000310: 0000 0000 0000 0000 0000 0000 0000 0000
00000320: 0000 0000 0000 0000 0000 0000 0000 0000
00000330: 0000 0000 0000 0000 0000 0000 0000 0000
00000340: 0000 0000 0000 0000 0000 0000 0000 0000
00000350: 0000 0000 0000 0000 0000 0000 0000 0000
00000360: 0000 0000 0000 0000 0000 0000 0000 0000
00000370: 0000 0000 0000 0000 0000 0000 0000 0000
00000380: 0000 0000 0000 0000 0000 0000 0000 0000
00000390: 0000 0000 0000 0000 0000 0000 0000 0000
000003a0: 0000 0000 0000 0000 0000 0000 0000 0000
000003b0: 0000 0000 0000 0000 0000 0000 0000 0000
000003c0: 0000 0000 0000 0000 0000 0000 0000 0000
000003d0: 0000 0000 0000 0000 0000 0000 0000 0000
000003e0: 0000 0000 0000 0000 0000 0000 0000 0000
000003f0: 0000 0000 0000 0000 0000 0000 0000 0000
0.0 0.0 0.0 0.0 0.0 0.0 0.0 0.0
0.0 0.0 0.0 0.0 0.0 0.0 0.0 0.0
0.0 0.0 0.0 0.0 0.0 0.0 0.0 0.0
0.0 0.0 0.0 0.0 0.0 0.0 0.0 0.0
0.0 0.0 0.0 0.0 0.0 0.0 0.0 0.0
0.0 0.0 0.0 0.0 0.0 0.0 0.0 0.0
0.0 0.0 0.0 0.0 0.0 0.0 0.0 0.0
0.0 0.0 0.0 0.0 0.0 0.0 0.0 0.0
0.0 0.0 0.0 0.0 0.0 0.0 0.0 0.0
0.0 0.0 0.0 0.0 0.0 0.0 0.0 0.0
0.0 0.0 0.0 0.0 0.0 0.0 0.0 0.0
0.0 0.0 0.0 0.0 0.0 0.0 0.0 0.0
0.0 0.0 0.0 0.0 0.0 0.0 0.0 0.0
0.0 0.0 0.0 0.0 0.0 0.0 0.0 0.0
0.0 0.0 0.0 0.0 0.0 0.0 0.0 0.0
0.0 0.0 0.0 0.0 0.0 0.0 0.0 0.0
0.0 0.0 0.0 0.0 0.0 0.0 0.0 0.0
0.0 0.0 0.0 0.0 0.0 0.0 0.0 0.0
0.0 0.0 0.0 0.0 0.0 0.0 0.0 0.0
0.0 0.0 0.0 0.0 0.0 0.0 0.0 0.0
0.0 0.0 0.0 0.0 0.0 0.0 0.0 0.0
0.0 0.0 0.0 0.0 0.0 0.0 0.0 0.0
0.0 0.0 0.0 0.0 0.0 0.0 0.0 0.0
0.0 0.0 0.0 0.0 0.0 0.0 0.0 0.0
0.0 0.0 0.0 0.0 0.0 0.0 0.0 0.0
0.0 0.0 0.0 0.0 0.0 0.0 0.0 0.0
0.0 0.0 0.0 0.0 0.0 0.0 0.0 0.0
0.0 0.0 0.0 0.0 0.0 0.0 0.0 0.0
0.0 0.0 0.0 0.0 0.0 0.0 0.0 0.0
0.0 0.0 0.0 0.0 0.0 0.0 0.0 0.0
0.0 0.0 0.0 0.0 0.0 0.0 0.0 0.0
0.0 0.0 0.0 0.0 0.0 0.0 0.0 0.0

encoder.lstm.weight_ih_l0 f4 [128, 4]
00000000: 600e 03bd c9f9 9340 dc9b 993f 7e91 19c0
00000010: 642a 58be 747c de3e 18f6 89be afc4 d7be
00000020: 03df a53f 0184 433e 23d6 a53e 5692 8ebd
00000030: 9701 39be 67bb 743f 9fc7 1c3f 5da3 c93f
00000040: ad2d 88be 294b ab3f 6aa1 f73c d022 aa3f
00000050: 3ba6 8c3e 261e 103f 65e4 823f d693 21be
00000060: f54f 633f ddd1 ae3e 9435 d0bd 906e 3ebe
00000070: 0101 4abf 80da 79bd f246 dabd 499b dcbe
00000080: b58b 0b3e 1dd3 113f 3818 2a3f 30ce 0e3f
00000090: 187f 2a40 fb34 f43f e96b 7c3e a533 c53d
000000a0: 6fc9 f2be 0a71 7c3f fd21 77be 7a51 443e
000000b0: d10a 2fbd 00be 113e cec3 39bd a0cd 81bf
000000c0: ae1a bf3d 86ed 57bd 68da 97bf bb51 fcbd
000000d0: 6d33 1640 8ef0 8240 ad65 ac3e aae1 f8bf
000000e0: abda 10c0 cfba 5140 db7c bfbf 8077 56bf
000000f0: f5b0 3a3e ea9c 43be 036d 06bf 3080 603c
00000100: 3a49 d9bc a3b8 57be fb54 05ba a6f3 9a3e
00000110: 299d 323f 2346 153f d9d4 b13e 3091 f03e
00000120: b471 c33f 6c94 0d3f 4e6a 553f 96ed 123d
00000130: 57e6 8540 c239 f6bd 1c0e c2bc 961e 1bbf
00000140: 0acc d3bb 7134 8e3f 61b5 d7bd 7dc4 7abd
00000150: a4e8 41bf 7f85 e13e 7130 313f cc43 bbbf
00000160: a838 ac3f 9a9f a53f 42e3 a23e 7536 843f
00000170: 2c93 5540 2b41 813f c889 cc3f f633 1b40
00000180: afc6 6640 f4c5 7fbe 654e a93f 8e7e 863f
00000190: 07bd 633f fed1 203f 28fd 8c3e 33c3 05bf
000001a0: 2224 613e b64c a13c 7a3d 8fbe 0d8c 08bf
000001b0: 6128 03be 2772 cd3f 129b 39bf 7d18 ab3f
000001c0: 36aa 4e3d 9794 be3f 77ff 173f c240 1040
000001d0: b29d 0140 4388 2340 d50b fcbf 0611 acbd
000001e0: 296b 423f 19d2 db3f 2fc2 ec3f 73e2 ec3e
000001f0: 7f28 43bf 0ee0 523e a38d 6abc 069d 1cbf
00000200: 59f0 ce40 ff24 69bf 3192 be3f 8632 4940
00000210: e81d 5dbe d3cc 0c3f 2679 5cbd 01c1 2abf
00000220: 435b 1b3f 22a7 ae3e 3143 833f 1c69 3fb9
00000230: 3e65 65be d8dd 383e 53b6 933e 4f1d 633f
00000240: f364 37be 2c34 09be 8d76 a83e a92f 273f
00000250: 9779 04bf 0941 92be e716 a03e 7cc4 bbbe
00000260: 3489 bdbe c1a9 613f 0d7e 67bf f69a 5bbe
00000270: 9944 a4be c35e 51be 4128 053d 8b6e eebe
00000280: 06e3 033e fbe0 8fbe 6503 88be 46ce acbe
00000290: 994b 0a40 b575 7240 43b3 6d3f 0a16 6dbe
000002a0: 651c cc3e 9092 16bf d1b2 963e 0359 8ebe
000002b0: badc b8be dece 48be 5a25 2f3e def0 f8be
000002c0: 67cb 35be 7a3d 9abe fcad a23e 908f a4be
000002d0: d20d ed3e 321b e6bf a704 83c0 4268 e6c0
000002e0: da07 c2bf c797 1c40 899c 96be e841 4dc0
000002f0: f582 9a3d 8342 d53d ba0a 18be 029e 163c
00000300: 72d4 babd 85da ac3d 75de 3abe f764 33be
00000310: 79e9 b7be 42f0 e73e 16a6 023e 7f21 cf3e
00000320: 5c6f 993c e32f d93d 3796 d2bf e4a2 b6be
00000330: f835 ba3d 8302 a7bf af74 a6c0 6fc7 36bf
00000340: 0d33 b33d 9599 f93e 42f0 ca3e 33fb e2be
00000350: ffa5 c13e c43d 96bf d384 a2be cc62 15bf
00000360: 1dfa 7e3f 7c87 babe 4488 4d3f fedb f23e
00000370: a2fd 4640 f6e0 f13f 74f0 803f 7132 2940
00000380: ff4e ebbe a4bb eb3e 9d72 26c0 939b d63f
00000390: 9699 2bbd 2503 3b3f caaf babf 266f 59be
000003a0: 6e83 d83c 0b2d a53e 541e 8cbe f4c9 2cbf
000003b0: 23f0 acbf 969a 2640 1223 083f 3171 14c0
000003c0: 2cfe 903e 598a 693e dcf3 5c3f 1074 be3f
000003d0: d962 a9be c73a 2d40 e39a c7bf 7181 13c0
000003e0: c3fb abbf 41d3 71bf 7605 e5bf 5626 a93e
000003f0: 6fc0 9dbf 78c6 1a3d 8c49 6dbf 33fb 7abf
-0.03199613 4.6242414 1.200069 -2.3995051 -0.2110992 0.43454325 -0.26945567 -0.42142245
1.2958683 0.19093324 0.32389936 -0.06961505 -0.18067013 0.95598453 0.612421 1.575298
-0.26597348 1.3382312 0.030228335 1.3291874 0.27470574 0.56296 1.022595 -0.15779051
0.8879388 0.34144488 -0.10166469 -0.18596864 -0.7890778 -0.060999393 -0.10658063 -0.43087223
0.13627513 0.5696276 0.66443205 0.5578337 2.6640072 1.9078668 0.2465054 0.09628991
-0.47419307 0.98609984 -0.24134059 0.19171706 -0.042734925 0.14232635 -0.04535275 -1.0140877
0.093312606 -0.052716754 -1.1863527 -0.12320276 2.3468888 4.0918646 0.33671322 -1.9443867
-2.2633464 3.277027 -1.4959978 -0.8377609 0.18231566 -0.19102827 -0.5251009 0.013702437
-0.026524175 -0.21066527 -0.00050862104 0.30264014 0.6977106 0.58310145 0.34732702 0.4698577
1.5269074 0.553046 0.83365333 0.03587111 4.1843677 -0.12022735 -0.023688368 -0.60593545
-0.0064635323 1.1109754 -0.10532642 -0.061222542 -0.75745606 0.44047162 0.6921454 -1.4630065
1.345479 1.2939332 0.3181401 1.0329119 3.3371077 1.0098013 1.5979548 2.4250464
3.6058767 -0.24977857 1.3227049 1.0507371 0.8896031 0.6282042 0.27536893 -0.52250975
0.2198644 0.019689899 -0.2797659 -0.533387 -0.12808372 1.6050462 -0.72502244 1.3366848
0.050455295 1.4889096 0.59374183 2.2539525 2.02525 2.5551918 -1.9691111 -0.084016845
0.75944763 1.7173492 1.849676 0.46266517 -0.7623367 0.20593283 -0.014315995 -0.611771
6.4668393 -0.91072077 1.4888364 3.1437087 -0.2159344 0.55000037 -0.053826474 -0.6670075
0.6068613 0.34111887 1.025488 -0.00018254336 -0.22401902 0.18053377 0.2885004 0.88716596
-0.17909603 -0.13398808 0.32902947 0.653071 -0.5174803 -0.28565243 0.31267473 -0.36673343
-0.3701874 0.8814965 -0.90426713 -0.21445832 -0.32083586 -0.20446305 0.032509092 -0.46568713
0.12879571 -0.28101334 -0.2656509 -0.33751124 2.160864 3.7884343 0.92851657 -0.23152938
0.39865413 -0.58817387 0.294333 -0.27802286 -0.361059 -0.19610164 0.17104092 -0.48621267
-0.17753373 -0.30125028 0.31773365 -0.3214078 0.46299607 -1.7977049 -4.094318 -7.200227
-1.5158646 2.4467638 -0.29416302 -3.2071476 0.07544509 0.10413077 -0.14847842 0.009192945
-0.09122552 0.08440117 -0.18248923 -0.17518984 -0.35920313 0.4530049 0.1275867 0.40455243
0.018729858 0.10604837 -1.6452092 -0.3567115 0.09092325 -1.3047642 -5.2017436 -0.7139806
0.087499715 0.48749986 0.39636427 -0.44332275 0.37821957 -1.1737599 -0.31741962 -0.5835388
0.9960039 -0.3643149 0.8028605 0.47433466 3.1092305 1.8896778 1.007338 2.6437037
-0.45958707 0.46041596 -2.6007454 1.6766227 -0.041894518 0.73051673 -1.4584897 -0.21233806
0.026429858 0.32260928 -0.2736689 -0.67495656 -1.3510784 2.6031852 0.53178513 -2.3194087
0.28318918 0.22806682 0.863096 1.487917 -0.33083227 2.7067125 -1.5594143 -2.3047755
-1.3436207 -0.9446297 -1.7892292 0.3303706 -1.2324351 0.03778693 -0.9269035 -0.9803955

encoder.lstm.weight_hh_l0 f4 [128, 32]
00000000: a698 9fbe 11d4 71bd 6df8 073e c0b3 aebd
00000010: 1e1f 063e 08c3 d8bd 8f3a 843d 690b c3bc
00000020: d4af 0f3e 187b 793e f2ae 28be 4a9c c63c
00000030: c341 27bd d148 143f 75b4 49c0 73a7 f53d
00000040: bbc4 bcbd 7c03 d6bd b818 1e3e f61d b0bf
00000050: b467 013e bbd8 44bd 5097 7bbf 0386 bf3e
00000060: d29c 69be f67d 84be 0f20 a63d 265c 08bf
00000070: 6f14 4dbf afab b33f e1db 143e dd24 31bf
00000080: e12a ba3b 972f 3bbe d4da a83a 7cc2 13bd
00000090: c91b 613d 358f 023e 5f4b 3cbd 6a4d 11bd
000000a0: 107f 23bd d700 51be e4fc 57bd 1c32 703d
000000b0: 6b92 a6bd 73e2 963e f5f3 20be c739 ac3b
000000c0: 004f 183e 0fe4 3d3e 58a8 273e 702e adbd
000000d0: bbb0 dd39 9cee dbbb 6eb5 25be bb09 0d3e
000000e0: 0484 a23c 8f47 6bbd eea5 84bd d4a7 8e3b
000000f0: fe27 c03d 8339 063e 1cba 05be b63a e6be
00000100: 5a1b 8dbe 7fc2 3abe d26b 40bd eb9c ac3d
00000110: e8bd f83d 7eb8 103e 6cc1 1c3e 70b1 823d
00000120: ccaa f7bc 735e 9abd 2944 013e e33d 33be
00000130: 5fb7 d7bd 83b6 893f 7a6a 703b d11c 073e
00000140: 2ec7 13be f8bb cc3d 57a6 abbc f6cb 5bbe
00000150: 7201 8d3b 2271 93bc 7d73 99be 454a 1e3d
00000160: 363e 2a3e e941 1dbe db67 04bd 8384 083d
00000170: 5064 9e3e 4127 a4be 8d6e f23d a885 23bf
00000180: 9109 afbd 1857 13be 62f1 903d d1e5 35bd
00000190: fd17 543e 2947 5ebe 5625 bebb 3714 19be
000001a0: c7ba ff3c 368c c23c 7328 13be 522e 06be
000001b0: ff0c 51bd acce 573f 761c 90bf 6f9f 0e3c
000001c0: cfb1 15be badc 47bd ac40 3bbe 8d95 8cbc
000001d0: e8b6 bcbd ef6f fe3d 07e9 973e b7cd 9f3d
000001e0: 6080 f83c c41e debd 8475 003e 40a1 193d
000001f0: efaf 243f 898a fa3e 052f 093c e3cf e2be
00000200: f4de a2bd 0dc6 a23d c444 753e 0d62 4c3d
00000210: c056 473e 6cec 42be 3ccf f9ba 8640 dd3d
00000220: da54 cbbc 031f 05bc bd61 a0bd 82d3 9d3d
00000230: c14e e73d f40e ea3f ed29 8abd ff92 babd
00000240: a863 853d b4c4 0f3e 98a3 1abe 11be 9e3f
00000250: b560 81bc 9150 523b a00b 233f 9e01 e13c
00000260: 3edb 3c3e 9031 11be 430f aa3d a6ef 2c3e
00000270: 3fd2 793f 398b d3be e101 df3d 9eb5 d6be
00000280: d9d0 ce3d 6c14 3abe 0822 b1bc 1d84 a3bd
00000290: 9b7a 9fbd e0ef 44bd 7ef0 a73d d11e 093e
000002a0: ac33 d6bd 315e 8a3d bea3 d6bd a25c 47bd
000002b0: 0248 0c3e aa31 e0bd ac58 48bf 0e68 243d
000002c0: 021e a83d 9253 0ebe fad7 2fbe f2c6 d2bd
000002d0: 45dd f83b 2022 2b3e 001f 8d3d 850e fe3d
000002e0: a127 dbbd bbe3 f43d a58e 80bd 364a 003e
000002f0: 40be 0d3f a8b8 a33e 3190 8d3d 375f b2be
00000300: ac97 5a3c 2bd3 30be 4504 163e 9cc9 29be
00000310: 8098 343c 3924 e9bd 4dc4 ce3c d4a6 243e
00000320: 5d36 d6bc 912e 993e fcb7 213e ead9 423d
00000330: b73e 713e 5e40 3c3e 7ff1 acbe d9ae ccbc
00000340: b4b4 a53d 3b70 013e 92b9 f6bd 9470 f83e
00000350: 11b0 0a3e d96a 523e e0b2 433f 9057 6a3e
00000360: 9e40 0b3e f7f7 25be 2b14 863d fa80 eb3c
00000370: 334a 533f 6268 ad3e 24e2 913c 3101 96be
00000380: f359 073b 07af 12bd 3657 6fbc dcc7 613d
00000390: 55fc 113e 6fb6 8dbd fb8f 5cbd 9edd 49bc
000003a0: 7e6f 383e 15e1 bf3d b597 833d 319b 61bd
000003b0: 9a57 373e 0b1c 33be 54f0 583d f687 91bd
000003c0: 907d 3e3d 0d38 bdbd 3242 cabd 29b8 db3a
000003d0: 3f6f 9abd 0985 b8bd 42da 63be 6c51 c63c
000003e0: 241c a0bc fe87 dd3d aad9 153d 68fe 0dbb
000003f0: eb1a e3bd a4ac 03bd 9d6d 3b3e 55d0 c0be
-0.3117115 -0.059040133 0.1327836 -0.08530378 0.13097808 -0.10584074 0.06456482 -0.023809152
0.14031917 0.24363363 -0.16472986 0.024244446 -0.0408342 0.5792361 -3.1516392 0.11994829
-0.09217211 -0.10449883 0.15439117 -1.3759143 0.12637216 -0.048058253 -0.9827776 0.3740693
-0.22813728 -0.2587735 0.081115834 -0.5326561 -0.80109304 1.4036769 0.14537002 -0.69196874
0.005681381 -0.18279873 0.0012882599 -0.036074147 0.05495814 0.12749942 -0.045970317 -0.03547422
-0.039916098 -0.20410477 -0.05273141 0.058641538 -0.08133396 0.29469642 -0.15718062 0.005255911
0.14873886 0.18544029 0.16372812 -0.08456123 0.0004228408 -0.006711794 -0.16182491 0.13773243
0.01983834 -0.05744129 -0.06476961 0.0043535028 0.09382628 0.13107876 -0.13059276 -0.44966668
-0.2755993 -0.18238257 -0.046977825 0.08428367 0.12145597 0.14132878 0.1530816 0.063815
-0.03023281 -0.07537546 0.12623657 -0.17504077 -0.10533022 1.0758823 0.0036684559 0.13194586
-0.1443145 0.0999679 -0.02095334 -0.21464524 0.004303151 -0.017998282 -0.29970923 0.038645048
0.16625294 -0.15357174 -0.032325607 0.033329498 0.30935907 -0.32061198 0.11837492 -0.6387582
-0.085467465 -0.14388692 0.0707729 -0.044408623 0.20712276 -0.21706833 -0.0058027906 -0.14949118
0.031216992 0.023748498 -0.14370899 -0.13103607 -0.051037785 0.8429973 -1.1258686 0.008705004
-0.1461861 -0.048794486 -0.18286389 -0.017161155 -0.09214574 0.124236934 0.29669973 0.07802909
0.030334651 -0.10845712 0.12544829 0.037507296 0.64330953 0.4893382 0.008373027 -0.4429923
-0.07952681 0.079479314 0.23952013 0.049898196 0.19466686 -0.190355 -0.0019058953 0.108033225
-0.024820734 -0.00812507 -0.07831142 0.077063575 0.11294318 1.8285813 -0.06746278 -0.091100685
0.065131485 0.1403988 -0.15101469 1.2401754 -0.015793184 0.0032091478 0.63689613 0.027466591
0.1844301 -0.14179063 0.08303692 0.16888294 0.97586435 -0.41317156 0.1088903 -0.41935438
0.10098428 -0.18171853 -0.021622673 -0.07984183 -0.07787057 -0.048080325 0.08200167 0.13390662
-0.104590744 0.06756247 -0.1048045 -0.048672326 0.13699344 -0.10946973 -0.782603 0.040138297
0.082088485 -0.13899067 -0.17172232 -0.10291852 0.0075947368 0.16712236 0.068906784 0.12405113
-0.10700918 0.11957499 -0.06277207 0.12528309 0.55368423 0.3197682 0.06912268 -0.34838268
0.013341825 -0.17268054 0.14650066 -0.16580814 0.011022687 -0.11383862 0.025240088 0.16079265
-0.02614897 0.2991834 0.1579284 0.0475711 0.2355908 0.18383929 -0.33777997 -0.024985718
0.08091107 0.12640469 -0.120471135 0.4852339 0.13543727 0.20548572 0.76444817 0.22884965
0.13598868 -0.16207872 0.065468155 0.028748024 0.82535094 0.338687 0.017808028 -0.29297784
0.002065298 -0.03581145 -0.014608195 0.05512224 0.14256413 -0.06919562 -0.053848248 -0.012320904
0.18011281 0.09369103 0.0642542 -0.055079643 0.17904511 -0.17491166 0.05296357 -0.071060106
0.046506464 -0.092392065 -0.09875907 0.0016763258 -0.0754075 -0.090097494 -0.22251227 0.024208747
-0.019544668 0.10816954 0.036584534 -0.002166653 -0.110891186 -0.032147065 0.18303533 -0.37658945

encoder.lstm.bias_ih_l0 f4 [128]
00000000: a4c9 c8bf a8c6 6bbf 0556 73bf 5a24 f4be
00000010: c82b 71bf e807 1abf 7c46 62bf 6120 6bbf
00000020: c0a7 5abf da63 0bc0 4653 96bf f975 2dbf
00000030: 0c87 adbf d635 dfbf e377 93bf 89a5 8abf
00000040: a1bb 64bf b8f9 4ebf c611 8cbf 4ae5 04c0
00000050: 82fa 3ebf f540 6dbf 5797 aebf 0c96 84bf
00000060: d071 7cbf e77a 59bf c030 3ebf 38bd b0bf
00000070: 28a3 a2bf 97cf bfbf b19b 81bf 6406 7fbe
00000080: 22dd 72be 7734 21bf 7f90 c6be 7bd5 58be
00000090: 05c2 44be e255 51be 2328 95be 3cc4 c6be
000000a0: cd7c f9be 37dc 54bf 7eb0 22bf b57e febe
000000b0: ec16 50bf fec9 3dbf 0018 aebe 92f8 0abf
000000c0: 6d5e aabe 658d 01bf accf ebbe 8c02 47bf
000000d0: 521e 7dbe 4b41 8fbe af36 aabe 09cf 7abd
000000e0: 69f4 b1be 5181 f7be 9599 07bf b66d 13bf
000000f0: be7d 513d 4c1d 95be 00df 74be a57b 9fbe
00000100: e17d 60bd e402 b73a a1cd dbbc af2d 023e
00000110: 3d9e 1b3d 75db 173d fec1 2cbe 0138 0f3d
00000120: 59c8 d5bc 4068 393d acb4 633d b4b8 ab3d
00000130: 0f6f 743d a1e1 03be bf44 fabc 1d3f cb3d
00000140: e967 adbc 475f 95bc 1c9d bcbb 575f de3d
00000150: 2ad1 e9bd 9ebd b7bd aefb d83d ff1d d0bc
00000160: dae1 a53d 94ca bb3d 7a52 c4bc da88 97bd
00000170: f4db 14be 051c 91bd 670f 963d f05f 1e3e
00000180: 88ca 47bf 4ba8 ccbe 858b b9be 4bc7 fcbe
00000190: 3bc7 2cbf 637f 44bf 9168 5abf 0861 5dbf
000001a0: cf54 debe c0bc 5fbe a521 f3be 87b9 43bf
000001b0: 12eb 63bf ec2f 0fbf c3f4 8abf fa77 b1be
000001c0: a377 edbe 236f 0abf 7714 3fbf 0e6f 8fbf
000001d0: 5c0d 2cbf 406f bbbe 040f 67bf 4021 72bf
000001e0: 0cb0 57bf e683 1fbf 3616 b0be 2a00 55bf
000001f0: ce31 70bf ff1b 0dbe ed76 21bf a8fb 97bf
-1.5686536 -0.921 -0.9505313 -0.47683984 -0.9420743 -0.60168314 -0.883888 -0.9184628
-0.85412216 -2.1779695 -1.1744163 -0.67758137 -1.3556838 -1.7438304 -1.1520962 -1.0831767
-0.893488 -0.8084979 -1.0942924 -2.0764947 -0.74600995 -0.9267724 -1.3639935 -1.0358291
-0.98611164 -0.8495316 -0.74293137 -1.3807745 -1.2706041 -1.4985226 -1.0125638 -0.24904782
-0.23717168 -0.6297068 -0.38782117 -0.21175186 -0.19214638 -0.20442918 -0.29132184 -0.3882159
-0.48728028 -0.8314852 -0.63550556 -0.49706045 -0.81284976 -0.7413634 -0.34002686 -0.5428554
-0.33275166 -0.50606376 -0.4605688 -0.7773826 -0.24718598 -0.27979502 -0.33244845 -0.0612326
-0.34756783 -0.48340848 -0.5296872 -0.5758928 0.051145308 -0.29123914 -0.23913193 -0.3114902
-0.054807547 0.0013962653 -0.02683145 0.1271274 0.037992705 0.037074525 -0.16870877 0.03496552
-0.02609651 0.045265436 0.055592224 0.08384839 0.059676226 -0.1287904 -0.030550359 0.09924147
-0.021167712 -0.018233908 -0.0057560336 0.108580284 -0.11416848 -0.089717135 0.10594879 -0.025404928
0.080997184 0.09169498 -0.02396511 -0.07399149 -0.1453703 -0.070854224 0.073271565 0.15466285
-0.78043413 -0.39972147 -0.36239257 -0.49370798 -0.674915 -0.76756877 -0.85315806 -0.8647618
-0.4342408 -0.21849346 -0.47486606 -0.7645497 -0.89030564 -0.559325 -1.0855945 -0.34661847
-0.46380338 -0.5407583 -0.746406 -1.1205766 -0.67207885 -0.36608315 -0.9025729 -0.94581985
-0.84253 -0.62310636 -0.34391946 -0.83203375 -0.93825996 -0.13780211 -0.6307209 -1.1873674

encoder.lstm.bias_hh_l0 f4 [128]
00000000: 61a8 c5bf e512 85bf 3592 46bf e61e fbbe
00000010: c1a0 5ebf f834 35bf daf5 29bf dd1f 59bf
00000020: 9e01 91bf e31e 15c0 93f7 9bbf 7c6b 71bf
00000030: ea70 a0bf e679 f0bf 05ad 89bf de22 5abf
00000040: 231c 26bf c2df 66bf 947d 95bf f494 0fc0
00000050: d31f 35bf 8396 43bf bfc5 8cbf 3496 40bf
00000060: e769 95bf a301 59bf 54c9 5bbf 1bd8 a0bf
00000070: 0406 afbf 2b98 bebf 3184 6dbf 272d 19be
00000080: 5c09 79be b9b1 91be 740d 06bf d9a6 8bbe
00000090: 9773 27be 3768 90be 76b7 ddbe 187f f6be
000000a0: 80b0 e3be 5dfd 55bf 3434 9ebe 1d3e e6be
000000b0: 71ea 13bf 3121 20bf a2c3 b4be 1a1f 04bf
000000c0: eae7 a0be 506c 0ebf fadc bdbe 7ea0 10bf
000000d0: 559f 05bf cdf0 56be c0a8 a4be 2a3e 6dbe
000000e0: 79c1 5fbe 39d3 51be 003d 0abf 82b5 21bf
000000f0: 29fc 123e 4d3f 3dbe aaed e7bd 03d9 96be
00000100: b2f7 843d 1437 1abc 1a1e b03c 7cdb ecbd
00000110: 6a44 6fbd 748e d8bc 0836 273e b61e bdbc
00000120: e166 2f3c 08ae c2bd fa09 25bd 8dff a8bd
00000130: ff7b 66bd 0cdf 3d3d 700a f23c 55fe cdbd
00000140: 511b ee3c 7ca2 7c3b 0faa 943c f189 11bd
00000150: b7f0 e83d a46a a83d c664 cbbd 4740 21bd
00000160: c43e bfbd cd38 bebd bb7e 7f3c 4d72 8e3d
00000170: a702 633d ef68 853d 602e bfbd fc1b d43e
00000180: d065 21bf d475 1cbf 3c68 ccbe 68ab 2cbf
00000190: 4cd6 22bf 8a1d 56bf 705b 14bf e4bf 5bbf
000001a0: e90a b9be 44f5 a83d 6453 edbe 6105 4abf
000001b0: b483 79bf 7a7c 07bf 437f 52bf c026 09bf
000001c0: 009d 3bbf c8b3 e0be 6c56 5cbf 1fd3 7fbf
000001d0: 11ed 06bf b437 b3be 74db 8cbf 40fd 7ebf
000001e0: 0818 33bf 81ec 27bf e2bd 5dbe 6403 6bbf
000001f0: bb16 6abf 5c99 c3be b7b9 33bf ed5c 95bf
-1.544201 -1.0396391 -0.77566844 -0.4904701 -0.8696404 -0.7078395 -0.66390765 -0.84814245
-1.1328619 -2.3300102 -1.2184929 -0.94304633 -1.2534459 -1.87872 -1.0755926 -0.85209453
-0.64886683 -0.9018518 -1.1678948 -2.2434664 -0.70751685 -0.7640154 -1.0997847 -0.7522919
-1.1672944 -0.8476812 -0.8585408 -1.256595 -1.3673711 -1.4890188 -0.92779833 -0.1495863
-0.24319977 -0.28455904 -0.5236428 -0.27275732 -0.16352688 -0.2820451 -0.43304032 -0.4814384
-0.44470596 -0.83589727 -0.30899203 -0.44969264 -0.57779604 -0.62550646 -0.35305506 -0.5160996
-0.31426936 -0.5563402 -0.37082654 -0.5649489 -0.52196246 -0.20990296 -0.32159996 -0.23168245
-0.21851148 -0.20490731 -0.5399933 -0.63167584 0.14354004 -0.18481179 -0.11324628 -0.29462442
0.06492557 -0.009412546 0.021498729 -0.11565301 -0.058414854 -0.026435114 0.16329205 -0.023085933
0.010705681 -0.0950585 -0.040292718 -0.082518674 -0.056270596 0.046355292 0.029545993 -0.100582756
0.02906576 0.0038548997 0.018147497 -0.03553194 0.11374038 0.08223465 -0.099313304 -0.03936794
-0.093381435 -0.09288178 0.01559418 0.06955395 0.05542245 0.06514155 -0.09335017 0.414276
-0.6304598 -0.6111729 -0.39923275 -0.67449045 -0.6360824 -0.83638823 -0.5795202 -0.85839677
-0.36141136 0.08249906 -0.46352684 -0.7891446 -0.9746659 -0.5292431 -0.82225436 -0.5357475
-0.7328644 -0.43887162 -0.8606937 -0.9993152 -0.52705485 -0.35003436 -1.1004472 -0.9960518
-0.69958544 -0.6559525 -0.21654466 -0.9180205 -0.91440934 -0.3820294 -0.70205253 -1.1668984

encoder.lstm.weight_ih_l1 f4 [128, 32]
00000000: f205 5e3e ce9a d2bd 6a41 c83d 56b4 e33b
00000010: 96d7 b4bd 09b3 0a3e c2a2 10bc 35cd 30be
00000020: a58c 17be b76d c13d 2149 3cbe adfa 0d3c
00000030: cfe3 cf3d f668 353e a329 dcbd 6894 063c
00000040: 8414 afbd 5893 8abd 9882 11be f081 f53d
00000050: 1869 f53c 6714 0b3e 2e2a 2fbb e2dd c53d
00000060: 4657 0b3e 1fcc 1a3d e9e7 efbd 77c1 1e3e
00000070: b981 83bd cdd3 823d 4da1 d03d 6b03 bebd
00000080: acba 95bb 65c7 5e3d 7e87 d2bd bf17 0cbd
00000090: 5781 b73d 4e3e 833d 5da9 5d3d 0fd3 3b3e
000000a0: 83a6 e6bd 6b5a debd 6657 49be b763 c1bc
000000b0: 6dab 423e 5506 d4bb b61c 27be b27b 82bd
000000c0: dffd c1bc b1fe 163d b0a7 1fbe a4ee 13be
000000d0: d0be 7ebc b1ea 16be 8cd9 42be 91f9 0abd
000000e0: fce0 0bbe 9fa7 89bd ce8d 54bd 65c4 1c3e
000000f0: fdf0 0bbe 9d54 be3b 88dc 93bd 9566 d8be
00000100: 53cc 023d 2136 423d 43dc 95bd 64c3 adbc
00000110: c8ae 02be 11ce e53d fbd5 bdbc f79a 053e
00000120: 2225 203e 6971 553d 8dc8 5b3d f426 2ebe
00000130: 8f56 43bd 303d debd f9c1 d0bc 2869 1a3e
00000140: d670 15be 4960 c03b cc0f ffbd 79cb 6abc
00000150: a455 653b 4aba e7bd 53fa fabd b664 cabd
00000160: 15eb fa3d 5bec 11be 143d ffbd d75f 1d3d
00000170: 9047 853e 0702 51bd 1cd2 fbbd 87c9 d1be
00000180: f4eb 1b3e 8582 3dbe f2f7 3b3e 30ba 953d
00000190: 8bea 6c3e 27ec 5a3d c0c2 693e 2d2c 16bc
000001a0: af11 833e 98a2 78bd 331a 7abe 1d12 813d
000001b0: 5b7b 0e3e c78e 803e ed18 5f3d f2ba 703e
000001c0: 9584 74be 1435 19bd 6745 8abe 609f 773e
000001d0: 3513 493e 871a dd3d 966f 783d 3ebf 423c
000001e0: 9112 debc a336 eabc 58e1 523e 15cf fc3d
000001f0: 54c3 dd3e 30c3 5a3d d3bb abbd 4233 71be
00000200: 40d2 ce3d 0af3 fbbc 99d7 123e a9b9 113c
00000210: f36b fa3c 07e7 c83d c4de 293e 2fa9 debd
00000220: f873 9f3b c8e3 ebbd d089 2cbd 94f2 8dba
00000230: b5c7 12be b783 e0bd b377 60bc 4c30 0a3d
00000240: 7a30 58be f2b6 cc3d 2985 9c3d cc1b 593d
00000250: 7cc3 0e3e 6dbc 373e f2c6 d7bc 23c1 a2ba
00000260: 286e c5bd d441 3bbe 615c de3d 46f9 d73d
00000270: 5ef8 b63d 9507 60be 666b 633e 87be a2be
00000280: 8715 afbe a86d 98bc 9b83 c73e 04a6 4dbe
00000290: f245 8a3e 7aa8 aabe 7fcf 393e 91fb 98bd
000002a0: ea7f ad3e dd51 763f ef16 bbbd 850c 5ebe
000002b0: 56a2 b7bd 3f4d 443f 1af2 4fbf eac3 7abd
000002c0: 8d87 0b3c e339 1abd 4fed e5bd 4df7 373e
000002d0: a2cc 813e d2ed 3c3e 37b8 913e d6d7 e93e
000002e0: 1493 873e 05c4 5ebc ce77 2d3d d168 a13c
000002f0: 6985 363f d3ed a03e f2b9 a23e 8b7e 11bf
00000300: 752d 4dbd b13d 97bc b7ec 7e3d 247a 263d
00000310: 7d82 353e f31d a63d eceb 933d 2770 d5bd
00000320: f5c5 483d 6070 5cbd ca4d 11bd cef0 f7bd
00000330: 52d5 50bd e148 5a3e 6c99 e1bd 6dfb 183e
00000340: 4f61 17bd 2803 1ebb e636 163e 8562 86b9
00000350: dd9e 95bb 1471 9c3d 958c 193d b80e a43d
00000360: df02 e7bd b187 8fbd 1c13 0d3d 53fd 453d
00000370: d3bf ab3e dc75 f83c f927 11bd 805f 51be
00000380: c5d6 b2bd 403b bbbd 34b2 7a3c 91ef 0f3e
00000390: 84f4 693d aa23 013e 3393 24be afce 71bd
000003a0: 8d9e 313b 04fa 473d 7422 b6bc ea1d 253e
000003b0: c412 a93d 5a21 8d3d 062c 86bd 9712 68bd
000003c0: dc92 ae3d 71a3 32bd 43ba 993d 5959 293d
000003d0: 1852 103e 640a b2bb cc50 2a3e 3c24 393e
000003e0: 3b27 a53d e9da 35bd 5736 5c3d 7463 95bd
000003f0: e1f5 24be 3c41 8f3d 99ab c9bd c58e 9dbd
0.21681955 -0.10283433 0.09778102 0.006948988 -0.08830182 0.13544859 -0.008827867 -0.1726578
-0.14799745 0.094447546 -0.18387271 0.008665723 0.10150873 0.1771582 -0.10750129 0.008214094
-0.08548835 -0.06766385 -0.14209974 0.11987674 0.02995734 0.13582002 -0.0026728022 0.096614614
0.13607511 0.03779232 -0.11714155 0.15503488 -0.06421227 0.06388054 0.10187016 -0.09277996
-0.004569372 0.054389376 -0.10279749 -0.034202334 0.089602165 0.06408368 0.054116596 0.18342231
-0.11262228 -0.108570896 -0.19662246 -0.023607118 0.19010706 -0.0064704814 -0.16319546 -0.06371249
-0.023680625 0.036863986 -0.15591311 -0.14446503 -0.015548423 -0.14737965 -0.190283 -0.03392941
-0.13660043 -0.06721424 -0.051893048 0.15309294 -0.13666148 0.0058084265 -0.072197974 -0.42265764
0.03193314 0.047414903 -0.07317402 -0.021211334 -0.12761986 0.11220945 -0.023173323 0.13047396
0.15639165 0.05211011 0.053658057 -0.17007047 -0.04768997 -0.10851514 -0.025483118 0.15079176
-0.14593825 0.005870853 -0.12454185 -0.014330738 0.0034993673 -0.11314829 -0.12254777 -0.0988249
0.122518696 -0.14250319 -0.124628216 0.038421478 0.2603116 -0.051027324 -0.122959346 -0.40974066
0.15226728 -0.1850682 0.18356302 0.07310903 0.23136346 0.05344787 0.22828197 -0.009165806
0.2559943 -0.060701936 -0.24424057 0.06302283 0.13914244 0.2510893 0.05446713 0.23508814
-0.23878701 -0.037404135 -0.27006075 0.2418189 0.19636233 0.10796075 0.06065329 0.011886416
-0.027108463 -0.028590506 0.20593774 0.12344185 0.43313086 0.0534088 -0.08385434 -0.2355471
0.10098696 -0.030755538 0.14340056 0.0088943625 0.030569052 0.0980969 0.16588885 -0.10872113
0.0048661195 -0.11518055 -0.042123616 -0.001082974 -0.14333995 -0.109626226 -0.0137004135 0.033737466
-0.21112242 0.099958315 0.07642586 0.053005025 0.13941759 0.17942972 -0.026339982 -0.0012417178
-0.09640151 -0.1828683 0.10857464 0.10545592 0.08934091 -0.21877892 0.22208938 -0.31785986
-0.34196112 -0.018606976 0.38967595 -0.20082861 0.2700649 -0.33331662 0.1814556 -0.074698575
0.33886653 0.96218663 -0.091352336 -0.21684463 -0.0896651 0.7668037 -0.8122879 -0.061221994
0.008516205 -0.03765286 -0.11226904 0.17965432 0.25351435 0.18450096 0.28460857 0.45672482
0.264794 -0.013596539 0.042350583 0.0197033 0.7129732 0.31431445 0.3178249 -0.56833714
-0.05009218 -0.018462034 0.062237468 0.040643826 0.17725559 0.08111181 0.07222733 -0.10421782
0.04901691 -0.053818107 -0.035474576 -0.12106477 -0.050984688 0.21316864 -0.11015591 0.14939661
-0.036958035 -0.0024110768 0.1466938 -0.00025631874 -0.004566057 0.076387554 0.037487585 0.0801062
-0.112798445 -0.07008303 0.034442052 0.048337292 0.33544788 0.030329637 -0.03543851 -0.20446587
-0.0873237 -0.091421604 0.015301276 0.14056231 0.057117954 0.12611261 -0.16071777 -0.059035
0.002710256 0.048822418 -0.022233225 0.16124693 0.082555324 0.06891127 -0.065513656 -0.056658354
0.08524105 -0.0436129 0.0750623 0.041344974 0.14093816 -0.0054333676 0.16632384 0.18080229
0.08064123 -0.044398222 0.05376276 -0.0729436 -0.1610942 0.06994864 -0.09847183 -0.07693247

encoder.lstm.weight_hh_l1 f4 [128, 32]
00000000: 8f77 babc 5b5f 2fbe 7367 4cbe b8b9 bb3d
00000010: 588f 86be a97f 8dbe f181 8c3c 1fd9 6b3e
00000020: f6ad 39be 5984 d63c f578 5f3d 3910 ecbd
00000030: 8ea7 283e 9a57 c8bd 027c 923e 0117 91bc
00000040: b626 f3bd aa6e fb3d 02a8 08bd e7dc 18bd
00000050: 406c eabd 112a 0b3e f3cc 503c 38f9 01bd
00000060: 4f7d 083e 3e4d a83d afa3 4d3e 53c1 873d
00000070: 24a3 d9bd 7d9f 14be 5db7 57bc df68 25bd
00000080: 7c54 44be 6033 a23d d89d 8e3d 40d1 153e
00000090: e213 153d 0c41 73bd b543 2bbd 2839 613d
000000a0: c80d c6bb b7ff 15be 03d3 15be 7cc5 db3d
000000b0: 5ad2 da3c b61e 9fbd 8271 063e 2df6 debd
000000c0: 89bf 0f3e 3e5c f63b 803c 853d f23a 40bd
000000d0: ab70 9ebc 76d2 e03d 7e83 a7bd f541 513e
000000e0: 4244 003d ebb0 b3bb 9efa 123e 49a8 a7bc
000000f0: 143c d9bd 0835 e0bd 2829 04bd 6dad 42be
00000100: de04 0c3e 0f83 21bd 8752 a43d 2254 363e
00000110: f771 253d 7b4e 893d aba8 d7bd 0da1 99bc
00000120: 9b70 4dbe e681 e23d 4027 f8bd 181e 353e
00000130: 0890 293e f1c2 6d3d 2bac 3e3c 96a6 b3bd
00000140: b4f6 513e 1c3b 5f3d f9d2 043e c665 853b
00000150: 176c 3f3e 3e7b 103e 3524 013d e062 173e
00000160: 0558 243e e955 b53c bbe4 e2bd 377a 303e
00000170: 4e9f 033e e54d 67be 08d5 c5bd 5d71 45bd
00000180: a42a 4dbe 8e6f bf3d 467d 9c3c 0120 d1bd
00000190: a0a7 6cbd 02fc 693d 06ad 5ebe 0c83 24bc
000001a0: 889f 3b3b 703c 063e 3a94 35bd ace5 713d
000001b0: cd66 243e 1603 d43d 2f51 dd3c 0c69 57bd
000001c0: c36d 5c3e f76a a0bd 3d6b 24be 3d2b 60be
000001d0: 7000 3b3e fb2e 573c 6cc2 05bd 40aa 293d
000001e0: 06b6 9abd 608a e1bd 64f8 b63d 48e5 b23d
000001f0: 9573 40be e4d7 91be 03c6 643e 6fdc 13be
00000200: 87ee f63c 4a77 cfbd c31f 01be 66ba f53c
00000210: bdde 1e3d e0c7 a13d d51a afbc 7150 463e
00000220: 30b4 d63d 30d0 943d fb0a 7dbd dc07 b5bd
00000230: 4a31 3cbd d2ec 64be e98a 613e e6c6 31be
00000240: 5ec0 d4bc a14f 713c 239b 583c 7489 a13d
00000250: aa07 2b3d f1de 8b38 ee66 8a3c 2b02 213e
00000260: 4094 193e d5e5 0d3d 307f 003e efad 7e3e
00000270: fb27 f9bd 7b03 4bbe dd07 113e 2e3a dabd
00000280: 4dc7 54be 04b4 df3c db4c 0fbe b5b8 1c3d
00000290: 6e9c 71be 2771 85be 49c3 23be 0079 d3bd
000002a0: fadc bf3d cd8d 943d 8d5e 823d 3ab5 783e
000002b0: ca6d 3b3e 7cde a1bd 2393 9abb b877 d23b
000002c0: da87 84bc 75a9 c53d 3bb6 cfbd f62b f0bc
000002d0: df1f 13bd f48a b63b b08f c6bd f660 7a3e
000002e0: f22f 5b3e 2d8e ae3d a56d 773e e784 313e
000002f0: d8e1 19be 61e7 f3be 7503 3dbc 9b9b 5dbe
00000300: b3a9 5c3d 466e a73d dfd2 923d 5d4b 6d3e
00000310: 774f ddbd d8a6 22be 29f0 0cbe b14d e9ba
00000320: b63b 18bc 38fa 1c3e a112 f43d a757 b93d
00000330: 7506 e13d 6620 c13d 180f 3b3e 6427 27be
00000340: ff02 db3d c93c bc3d fcd5 85bd f315 ebbd
00000350: fd6f 19bc 394b d5bd c6e6 8f3d 193f a43d
00000360: b829 0c3e 6762 3dbd 5f0a 92bc 4262 a2bd
00000370: f493 25be e6e6 65bc 32cf 303e 484c 41be
00000380: e9ea 71bd 5ae0 c93d fea0 acbd ba0e 993c
00000390: a07b 8b3d 3d11 2dbe c5c2 093e ec52 22be
000003a0: d8a7 7cbd 8f4f 273e d51a ca3c ef35 533e
000003b0: dd42 913d c9e6 8dbd fa26 af3d a11a b03c
000003c0: 5444 a2bd 267d 083e de15 083e 241f 95bd
000003d0: 2964 d13c 5d92 11be 198e 2e3e 2ce8 a4bc
000003e0: 94b2 a83c 05b8 febd 7a73 05bd b6a7 81bc
000003f0: fb2e e4bd bd1b 8f3d 145a 3dbe bfc4 b5bd
-0.022762088 -0.17126219 -0.19961338 0.091662824 -0.26281238 -0.2763646 0.017151805 0.23032044
-0.18132767 0.026186155 0.054558713 -0.11526532 0.16470167 -0.09782334 0.28610235 -0.017711164
-0.11872618 0.12276967 -0.03336335 -0.037320044 -0.11446428 0.13590266 0.012744176 -0.031731814
0.13329051 0.08217858 0.20081972 0.066286705 -0.1062682 -0.14513965 -0.013166276 -0.040383216
-0.19172853 0.07919955 0.069637 0.14630604 0.036395915 -0.059388205 -0.041812617 0.05498615
-0.0060441233 -0.14648329 -0.14631276 0.107310265 0.026711632 -0.077695295 0.13129237 -0.10886798
0.14037909 0.0075183203 0.0650568 -0.046931215 -0.019340834 0.10977642 -0.08179377 0.20435317
0.031315096 -0.0054837367 0.14353415 -0.020465987 -0.10607162 -0.10947615 -0.032265812 -0.19011469
0.13673732 -0.039431628 0.08023553 0.17805532 0.04039189 0.06704422 -0.10530218 -0.018753553
-0.20062487 0.110599324 -0.12116861 0.17687261 0.1655885 0.05804724 0.011637728 -0.08772008
0.20504266 0.05449973 0.12971105 0.00407097 0.18693577 0.14109513 0.03152867 0.14783812
0.16049202 0.022135692 -0.11078783 0.17234121 0.12853739 -0.22588308 -0.09659773 -0.048203815
-0.20035797 0.09347449 0.019102704 -0.102111824 -0.057777047 0.0571251 -0.2174569 -0.01004101
0.0028629024 0.13108993 -0.044330813 0.059056923 0.1605484 0.10352151 0.02701625 -0.052590415
0.21526246 -0.07832902 -0.16056533 -0.21891494 0.18261886 0.01313376 -0.03265612 0.04142213
-0.075542495 -0.11012721 0.089340955 0.08735138 -0.18794091 -0.28485024 0.2234116 -0.14439557
0.030143036 -0.101301745 -0.12609772 0.029996108 0.03878664 0.07899451 -0.0213751 0.19366623
0.10483587 0.07266271 -0.06177805 -0.0883939 -0.045945443 -0.22355965 0.22025646 -0.1736103
-0.025970634 0.014728458 0.013220581 0.07887545 0.041755356 6.6695626e-05 0.016894784 0.15723483
0.14997959 0.034643013 0.12548518 0.24871038 -0.12165829 -0.19825546 0.14163156 -0.10655628
-0.20779152 0.027307518 -0.13994162 0.038262088 -0.2359483 -0.2606289 -0.15992464 -0.10325813
0.0936832 0.07253609 0.063656904 0.24287882 0.183036 -0.07903764 -0.004717247 0.006422963
-0.01617806 0.09651462 -0.101421796 -0.029317837 -0.035919067 0.0055707637 -0.09695375 0.2445105
0.21405008 0.08523212 0.2416292 0.17335854 -0.15027559 -0.47637466 -0.011536469 -0.2164139
0.053872775 0.0817533 0.07169127 0.2317328 -0.10806172 -0.15883958 -0.13763489 -0.0017799643
-0.00929158 0.15329826 0.11917616 0.090499215 0.1098756 0.09430008 0.18267477 -0.1632362
0.10693931 0.09191281 -0.06534955 -0.11478796 -0.009365079 -0.10414738 0.070264384 0.080198474
0.1368779 -0.046236422 -0.017827211 -0.079288974 -0.16169721 -0.014032101 0.17266539 -0.18876755
-0.05906192 0.09857245 -0.08429144 0.01868378 0.06810689 -0.16901107 0.13453205 -0.15851945
-0.061683506 0.16338943 0.024670998 0.20626043 0.07092831 -0.069287844 0.08552356 0.021497073
-0.07923189 0.1332899 0.13289592 -0.0728133 0.025560455 -0.1421599 0.17046393 -0.02013024
0.020592965 -0.12437443 -0.03258083 -0.015827041 -0.11141773 0.069877125 -0.18491393 -0.08875417

encoder.lstm.bias_ih_l1 f4 [128]
00000000: f8b3 edbe e4e4 2bbf a9ae 0bbf fb7f 39bf
00000010: c3e7 56bf fabe afbf fd41 fdbe 27d6 ecbe
00000020: 116b 39bf 48ae 77bf b8dc abbf ab36 bcbe
00000030: be7e f9be 3665 20bf 3230 93bf 7a93 d1be
00000040: 64b8 eabe d4a5 2ebf f2d2 a2bf 17cf e8be
00000050: 77f4 92bf 5c76 84bf f28d 96bf 8d5c 28bf
00000060: 87bb dabe b53c 8dbe a4a0 8bbe 11ec 19bf
00000070: 2121 e2be 15ee cabe 633e 2fbf 1311 1abe
00000080: c798 a1be c1b1 56be a473 8abe 5bee 90be
00000090: 1cfa 2abf 8c1c 00be 889f 3bbe ed08 b1be
000000a0: ed8d 87be ab28 21bf 6376 73bf cfc4 a5be
000000b0: d4c7 f4be 8f96 3cbf f7f9 0fbf 1613 88be
000000c0: f1e0 54be 9db8 babe 8daa 37bf 05c0 8ebe
000000d0: d2a1 09bf 24dd b5be f44a 3abf 3044 a3be
000000e0: e0ae e5be 33be 14be 5391 77be e10a 5ebe
000000f0: 8f48 a5be a6f8 d0be 0f87 cabe 64fe aabe
00000100: a75a 3fbc 8cb3 cd3d 1885 cb3d 5bcc 98bd
00000110: 5670 9cbd b43d 1c3e 8eb1 eabd 380f 06bc
00000120: 2b5e bbbd ac0e a4bd 3867 00bd 77f2 423d
00000130: 1ddb 04be 65bd 21bd dc5a 883d 1540 2f3c
00000140: f4e3 0cbe 5b56 aebd fca9 afbd a3bd 59bd
00000150: a11d 9dbd 10df d23d bf4d 00bd 9715 1dbe
00000160: 1da1 05be f453 df3a cdab 65bd bdaa fdbc
00000170: f7f6 20bd 4b7c db3d 58b3 88bd dd8f c5bd
00000180: b523 86be 6807 09bf ec54 d5be a40d 29be
00000190: ebfd 91be 5346 303b 5a35 02bf c5ba 0fbf
000001a0: 2483 95be 9c58 b0be caab 37bf f6a0 0fbf
000001b0: c938 4ebf 17c6 97bf 03bc 6ebc bd99 e9be
000001c0: b143 2dbe 4ed6 33bf abaa 10be e1bb 06be
000001d0: ff2f a0be fe7b 8cbd 8f88 45bf 88ab 8abe
000001e0: a9c6 33bf 55c5 b5be 7b71 14be 9643 9fbe
000001f0: 94bd 86be 06e5 80be caf1 3bbf c84a 71be
-0.46426368 -0.67146134 -0.54563385 -0.7246091 -0.8394739 -1.3730156 -0.49464408 -0.46257135
-0.72428995 -0.9675031 -1.3426733 -0.36760458 -0.4872951 -0.62654436 -1.1499083 -0.40932828
-0.45843804 -0.68221784 -1.2720625 -0.45470497 -1.1480855 -1.034862 -1.1762068 -0.6576622
-0.42721197 -0.27585378 -0.27270997 -0.60125834 -0.441659 -0.39634767 -0.6845457 -0.15045576
-0.31561872 -0.20966245 -0.27041352 -0.2830685 -0.66787887 -0.1251089 -0.18322575 -0.34577122
-0.26475468 -0.6295268 -0.9510252 -0.32376716 -0.47808707 -0.73667234 -0.5624079 -0.2657706
-0.20788933 -0.36468974 -0.71744615 -0.27880874 -0.53762543 -0.3552028 -0.7277062 -0.3188796
-0.44859982 -0.1452568 -0.2417653 -0.21683837 -0.3228192 -0.40814704 -0.39556167 -0.3339721
-0.011679328 0.100440115 0.09937495 -0.07460853 -0.07638614 0.15257913 -0.11459647 -0.008182339
-0.091488205 -0.08010611 -0.031348437 0.047594514 -0.1297421 -0.03948726 0.06657955 0.010696431
-0.13758832 -0.08512565 -0.08577344 -0.053159367 -0.07671667 0.10296452 -0.031324144 -0.15340267
-0.13049741 0.001703857 -0.056072045 -0.030965203 -0.039298024 0.107170664 -0.06674832 -0.0964658
-0.26199117 -0.53526926 -0.41666353 -0.1650911 -0.28514037 0.0026897385 -0.5086266 -0.5614436
-0.29201615 -0.34442604 -0.71746504 -0.5610498 -0.805554 -1.1857327 -0.014571193 -0.45625106
-0.16920353 -0.7024888 -0.14127605 -0.13157608 -0.31286618 -0.06859587 -0.77161497 -0.27083993
-0.70225006 -0.35502115 -0.14496414 -0.3110625 -0.26316512 -0.2517473 -0.73415816 -0.23563683

encoder.lstm.bias_hh_l1 f4 [128]
00000000: 184c eebe dd55 16bf 6435 f5be 6901 2dbf
00000010: 5498 27bf b9d3 a8bf 292a d5be 398c 37bf
00000020: 98d1 2bbf f930 88bf 9465 b5bf 3df1 dbbe
00000030: 14b1 dabe 6476 01bf c8b4 90bf 7d08 fbbe
00000040: f54f 1dbf 696f 65bf d33f 82bf 9825 a7be
00000050: 6ed8 88bf 0520 8ebf fca5 6abf 3b1b 29bf
00000060: f464 d8be 5367 1dbf 339f d9bd 88a3 c0be
00000070: c5cd 0bbf 1a71 45be ef60 12bf b853 60be
00000080: d915 67bd 3cc6 c4be 83ed d1bd c467 e3be
00000090: 659f 22bf 6859 e2bd 7a2d 97be c510 6dbe
000000a0: 2de2 c6be c976 24bf fc5c 5abf dcf1 aebe
000000b0: 6691 7fbe 0a69 2ebf 05ca 29bf 69d0 bbbe
000000c0: 8585 a8be 4ecd c0be 544a fbbe 9bd7 babd
000000d0: 08de 09bf cb70 02bf 4c28 3bbf bc63 0ebf
000000e0: d172 a9be 0fcf 92be 2e63 4ebe 1aa8 acbd
000000f0: 9f08 6fbe 41a0 b4be f493 f3be 69bc 59be
00000100: 1f6f 8f3c 92f7 42bd 4f2d 8bbd 01c7 7b3d
00000110: 4747 bc3d 0be2 cdbd 36ca 163e d297 8dbc
00000120: acc8 153e dc78 b33d f11f 383d 2d57 e4bd
00000130: e05d f03d d980 1e3e 2881 85bd 6e4d 503d
00000140: 8593 b23d 4f69 e73d 6dfd ac3d 7f6c 233d
00000150: e83c a23d e994 fbbd 4ab4 863c b2cb 753d
00000160: c6d2 e63d adc3 81bd 242e cb3c f920 29bd
00000170: 7201 d63d 922f 0ebd 5cf9 8f3d a7dc d73d
00000180: 633c d4bd c950 e5be 8151 f0be 853f 3bbe
00000190: 2136 06bf 2e66 1cbd 59dc 11bf 8527 9abe
000001a0: 920e 19bf 9148 a8bd 1a68 36bf 643b fcbe
000001b0: 0531 11bf fcf5 93bf f637 0fbd 0aff 1bbf
000001c0: e6cb 9cbe 2dd4 e8be 578f bbbe 3fe9 b9ba
000001d0: 6ed7 b0be 5322 9abe eea6 1abf 18a2 bfbd
000001e0: 5be5 25bf c02c bdbe c886 90bd 5266 f8be
000001f0: 586b f3be e158 80be 3477 59bf 9a5f 3abd
-0.4654243 -0.58724767 -0.47892296 -0.67580277 -0.6546681 -1.3189613 -0.41633728 -0.7169834
-0.6711669 -1.0639945 -1.4171624 -0.42957488 -0.42713225 -0.50571275 -1.130517 -0.49029914
-0.6145013 -0.89623123 -1.0175728 -0.3264587 -1.0691049 -1.1103522 -0.9165952 -0.66057175
-0.4226452 -0.61485785 -0.10626068 -0.37624764 -0.54610854 -0.19281426 -0.5717916 -0.21906936
-0.05641732 -0.3843249 -0.1025038 -0.44415104 -0.63524467 -0.11052209 -0.29526883 -0.23150928
-0.38844433 -0.6424375 -0.8529813 -0.341689 -0.24957809 -0.68129027 -0.6632388 -0.36682442
-0.32914367 -0.37656635 -0.49080145 -0.09123155 -0.5385442 -0.5095336 -0.73108363 -0.5562093
-0.3309541 -0.28673598 -0.20155022 -0.084305 -0.23343132 -0.35278514 -0.47573817 -0.21263279
0.017509041 -0.047599383 -0.06795751 0.06146908 0.091932826 -0.1005288 0.14725575 -0.017284308
0.14627331 0.087632865 0.044952337 -0.1114944 0.11736655 0.15478839 -0.06518775 0.050855093
0.08719543 0.11299383 0.08446775 0.03989839 0.07921773 -0.12284262 0.01644339 0.060008712
0.112706706 -0.0633615 0.024802275 -0.04129121 0.104494944 -0.034713335 0.070299834 0.10540133
-0.1036308 -0.44788197 -0.46937183 -0.1828595 -0.52426344 -0.038183384 -0.5697685 -0.30108276
-0.5978786 -0.08216966 -0.71252596 -0.4926406 -0.5671542 -1.1559443 -0.034965478 -0.60936034
-0.30624312 -0.45474377 -0.36632797 -0.0014183893 -0.3453936 -0.30104312 -0.60410964 -0.09357089
-0.64803094 -0.36948204 -0.070569575 -0.48515564 -0.47542834 -0.2506781 -0.84947515 -0.04550133

decoder.lstm.weight_ih_l0 f4 [128, 5]
00000000: 60fc 113f 338f 183f ff7d e33e 55a6 293f
00000010: de41 043f c5f0 333f 7f53 ccb9 5695 1fbe
00000020: e8fc 1ebd a9e2 8b3e c4db 043f de06 9fbd
00000030: 45b2 543d 7153 183f 02e2 023f 4e05 5d3e
00000040: fa2b afbe a9e7 e5be 8159 c7bd 9bfd 3abe
00000050: fc75 7bc0 1766 b13f 5a2c a23f 1b6d 973f
00000060: 8619 a43f 16d7 7bbd 7fbf 99be e336 1cbf
00000070: 859c 6bbe f4a6 bdbe 03e5 edbc 9daa a0be
00000080: 8e42 e5bd 2410 9d3e 23c9 a53d 75be bdbf
00000090: 1467 083f 4efd 503e ab54 d7bf df26 43bf
000000a0: 8b0d c23e ba37 003f d9f0 c5bd 6d02 ed3e
000000b0: 9bc3 0a3f 3d85 573f f93b b73f 7b70 913f
000000c0: fa80 893f 5d71 a13f f5b9 0e3f 1242 7f3f
000000d0: af20 603f e4cb 9b3f a016 853f 1475 4c3e
000000e0: 3a22 a7be 2281 86be 27e7 98be 8b95 d33d
000000f0: e927 3c3f 7f14 c6bd aae3 99be d358 423d
00000100: 67ff 7f3d 5ee9 013f 18b6 2c3f 19a1 263f
00000110: e5c4 0a3f e924 ff3e c45f b8bf a03e cfbe
00000120: 3af7 74be 3f7e 803e 9064 a3bd 1c84 013f
00000130: 5269 5abe 8a41 e4bd f1e3 a53e 48fe 34be
00000140: 7a65 f7bd 510a ebbe 0590 24bf 4154 24be
00000150: 0b92 a1be 08f0 67bf 31f0 383e 3707 00bc
00000160: 6415 d53d b004 d73e 80be adbd 23cc 173f
00000170: 48fd 1a3f 5dbd 0fbe 6a8a 373e f0f9 1b3f
00000180: 5dc2 18be ce23 14be 34a5 3f3b 23fb a63d
00000190: 8ae8 99bf 32c9 adbe f5d3 cfbd 047a e03d
000001a0: ff7e c9bd 5791 ea3e e716 bfbc 7d6a f63e
000001b0: e4c2 2c3e 7f2e 143f 0a4d 60bf 6b99 70bf
000001c0: 8b65 3fbf cbd4 073e 0dac 1c3d 3035 69be
000001d0: 6620 78bf b79a 85bf c245 03bf db05 dcbf
000001e0: 933b 933f 98c9 70bf 7610 13be f768 9bbf
000001f0: 98b4 80bf 5785 6ebd 38e3 9cbe 599a 8abe
00000200: 906e 853e 5149 f33d 6b0e 333f ca5b 703f
00000210: b1aa 8e3f be09 643f cbc4 c93e f572 d83e
00000220: 0795 2dbe f34d 0d3d 8e00 3f3b 8f77 353c
00000230: 7844 0e3f fbc3 7fbe 6e98 a5be eb65 2d3d
00000240: b0ae 97be 56df 123f 2de5 ce3b abee 533e
00000250: efda ba3e 3eb7 813e b8e7 073f d18f 8f3e
00000260: 5893 e13d 8ea4 273f 7f0a 903e 64ee 9d3f
00000270: b2a2 b73f f138 803f 9a72 843f 6f21 a33f
00000280: f546 84bc 01a2 b03f d77e b1bf ba2d 983d
00000290: 0ea0 7fbf a2b9 493e 3254 0ebe edd2 223e
000002a0: b2a7 acbe 067e 843d c121 473f 1ca7 76bf
000002b0: 2ec2 c7be 1f28 1c3d 3ed1 403e f9c6 9f3e
000002c0: 0cec c83e 3350 0e3f faa4 2abf 6528 e63d
000002d0: 308f 21be e6fe 2ac0 9e44 b23e 0cd2 623f
000002e0: d108 273e 718c aa3e d7be 833e 2fa6 3b3e
000002f0: 1eb4 4bbe cb96 d93e 5e21 593e aa4b e3be
00000300: f865 77bf a075 88be 303a 553f d8aa 0bbd
00000310: e7f4 fabe f51d 23be b7c5 c8bd d0ec 91be
00000320: d005 663e 09d2 86be 2dcc 633f c78a d2be
00000330: b5a5 3dbe d452 a1be 6d32 6bbf 1a9c 4dbf
00000340: 400e 71be 9d58 283e 5fb0 963f 95df 553d
00000350: eed2 4cbe 799d 60bf 7e86 aabe 41ad c5bd
00000360: ad3e 303d a092 4dbe 4c4d 8abe c45a bc3e
00000370: d61c 4abe 8707 67bf 1522 06bf fd71 27be
00000380: af96 9c3d 21fb 2dbf 30cc 92bf bb80 d03f
00000390: 198b 7fbe f911 a0bf eb17 a2be 1307 283f
000003a0: 18aa 7ebe 7200 55bf ad5c efbd ca16 1ebf
000003b0: 8e61 82be cc6b 6a3e ae8e 34be 175f 9abe
000003c0: ce5c afbe 5ade 5b3e fdd9 2d3e dc63 063c
000003d0: fdd6 80bd ade9 f93e dfd0 cbbd 37f9 853e
000003e0: 7237 fdbe 8f2f 0bbe 239b 3c3e 0c97 c8be
000003f0: a885 203f 9896 3bbf 038a ddbe 1ade 483f
0.5702572 0.59593505 0.44432065 0.6626943 0.51663005 0.7028926 -0.00038972122 -0.15584311
-0.03881541 0.27321365 0.51897836 -0.07764982 0.051927824 0.5950232 0.5112611 0.21584055
-0.3421324 -0.44903305 -0.097338684 -0.18260805 -3.9290762 1.385928 1.2669785 1.1830171
1.2820289 -0.06148442 -0.30028912 -0.6102125 -0.23008926 -0.37041438 -0.029039865 -0.31380168
-0.11194335 0.30676377 0.080950044 -1.4823748 0.53282285 0.20409128 -1.6822714 -0.7623119
0.37900957 0.5008503 -0.09665079 0.46290913 0.5420472 0.8418768 1.4315177 1.1362451
1.0742486 1.2612721 0.557525 0.9971019 0.8754987 1.2171597 1.039753 0.19966537
-0.326433 -0.26270396 -0.29863855 0.103312574 0.734984 -0.09671878 -0.30056506 0.04744799
0.06249943 0.50746715 0.67465353 0.65089566 0.5420669 0.49832848 -1.4404225 -0.40477467
-0.23922434 0.25096318 -0.07978165 0.5059221 -0.21329239 -0.11145313 0.32400468 -0.17675126
-0.12079902 -0.45906308 -0.64282256 -0.16047765 -0.31556734 -0.90600634 0.18060376 -0.00781422
0.104044706 0.41995764 -0.084836006 0.5929586 0.60542727 -0.1403708 0.17923895 0.6092825
-0.14917894 -0.14466783 0.0029242756 0.08153369 -1.202409 -0.33942562 -0.101478495 0.10960773
-0.09838676 0.4581401 -0.02332635 0.4812812 0.1687122 0.5788345 -0.8761755 -0.939841
-0.7476432 0.13264768 0.038250018 -0.22774196 -0.96924436 -1.043784 -0.51278317 -1.7189287
1.1502556 -0.9405761 -0.14361748 -1.2141408 -1.0055113 -0.05823263 -0.30642104 -0.27070883
0.26060915 0.11879218 0.69943875 0.9389006 1.1145841 0.89077365 0.39407954 0.42275205
-0.1695138 0.034498166 0.0029144618 0.011075868 0.55573225 -0.24977104 -0.32342857 0.042333525
-0.29625463 0.57372034 0.006313941 0.20696513 0.36495158 0.25335115 0.5308795 0.2803941
0.11014432 0.65485466 0.28133008 1.2338376 1.4346526 1.0017377 1.0347474 1.2744578
-0.016147116 1.379944 -1.3866833 0.07430597 -0.998536 0.1969972 -0.13899305 0.15900774
-0.3372169 0.064693496 0.7778588 -0.9634874 -0.39015335 0.0381242 0.1882982 0.31206492
0.3924259 0.55591124 -0.66657984 0.112381734 -0.15777278 -2.6718078 0.34817976 0.88601756
0.16311957 0.33310273 0.25731537 0.18325113 -0.19892928 0.42497858 0.21204135 -0.44393665
-0.96639967 -0.2665224 0.8329191 -0.034098476 -0.4901497 -0.15929396 -0.09803336 -0.28500986
0.22463155 -0.2633212 0.8898342 -0.41121504 -0.18520243 -0.31508505 -0.9187382 -0.8031632
-0.23540592 0.16440053 1.1772574 0.052215178 -0.20002338 -0.87740284 -0.33305734 -0.09652186
0.043028522 -0.20075464 -0.27012098 0.36788 -0.19737563 -0.9024586 -0.52395755 -0.16352077
0.07645928 -0.6796132 -1.1468563 1.6289285 -0.24955405 -1.2505485 -0.31658873 0.65635794
-0.24869573 -0.83203804 -0.116875984 -0.61753523 -0.25465053 0.22892684 -0.17632553 -0.30150673
-0.34250492 0.21471539 0.16977687 0.008202519 -0.06291006 0.48811093 -0.099519484 0.26166698
-0.49456364 -0.13592361 0.18418555 -0.3917774 0.62703943 -0.7327666 -0.43269357 0.784639
