results/decoder_not_recurrent_LSTM_enc_dec_output/0_model.pt (torch, 860225 bytes, 10 tensors)

output_zeros f4 [399, 512, 1]
0.0 0.0 0.0 0.0 0.0 0.0 0.0 0.0
0.0 0.0 0.0 0.0 0.0 0.0 0.0 0.0
0.0 0.0 0.0 0.0 0.0 0.0 0.0 0.0
0.0 0.0 0.0 0.0 0.0 0.0 0.0 0.0
0.0 0.0 0.0 0.0 0.0 0.0 0.0 0.0
0.0 0.0 0.0 0.0 0.0 0.0 0.0 0.0
0.0 0.0 0.0 0.0 0.0 0.0 0.0 0.0
0.0 0.0 0.0 0.0 0.0 0.0 0.0 0.0
0.0 0.0 0.0 0.0 0.0 0.0 0.0 0.0
0.0 0.0 0.0 0.0 0.0 0.0 0.0 0.0
0.0 0.0 0.0 0.0 0.0 0.0 0.0 0.0
0.0 0.0 0.0 0.0 0.0 0.0 0.0 0.0
0.0 0.0 0.0 0.0 0.0 0.0 0.0 0.0
0.0 0.0 0.0 0.0 0.0 0.0 0.0 0.0
0.0 0.0 0.0 0.0 0.0 0.0 0.0 0.0
0.0 0.0 0.0 0.0 0.0 0.0 0.0 0.0
0.0 0.0 0.0 0.0 0.0 0.0 0.0 0.0
0.0 0.0 0.0 0.0 0.0 0.0 0.0 0.0
0.0 0.0 0.0 0.0 0.0 0.0 0.0 0.0
0.0 0.0 0.0 0.0 0.0 0.0 0.0 0.0
0.0 0.0 0.0 0.0 0.0 0.0 0.0 0.0
0.0 0.0 0.0 0.0 0.0 0.0 0.0 0.0
0.0 0.0 0.0 0.0 0.0 0.0 0.0 0.0
0.0 0.0 0.0 0.0 0.0 0.0 0.0 0.0
0.0 0.0 0.0 0.0 0.0 0.0 0.0 0.0
0.0 0.0 0.0 0.0 0.0 0.0 0.0 0.0
0.0 0.0 0.0 0.0 0.0 0.0 0.0 0.0
0.0 0.0 0.0 0.0 0.0 0.0 0.0 0.0
0.0 0.0 0.0 0.0 0.0 0.0 0.0 0.0
0.0 0.0 0.0 0.0 0.0 0.0 0.0 0.0
0.0 0.0 0.0 0.0 0.0 0.0 0.0 0.0
0.0 0.0 0.0 0.0 0.0 0.0 0.0 0.0
00000000: 0000 0000 0000 0000 0000 0000 0000 0000
00000010: 0000 0000 0000 0000 0000 0000 0000 0000
00000020: 0000 0000 0000 0000 0000 0000 0000 0000
00000030: 0000 0000 0000 0000 0000 0000 0000 0000
00000040: 0000 0000 0000 0000 0000 0000 0000 0000
00000050: 0000 0000 0000 0000 0000 0000 0000 0000
00000060: 0000 0000 0000 0000 0000 0000 0000 0000
00000070: 0000 0000 0000 0000 0000 0000 0000 0000
00000080: 0000 0000 0000 0000 0000 0000 0000 0000
00000090: 0000 0000 0000 0000 0000 0000 0000 0000
000000a0: 0000 0000 0000 0000 0000 0000 0000 0000
000000b0: 0000 0000 0000 0000 0000 0000 0000 0000
000000c0: 0000 0000 0000 0000 0000 0000 0000 0000
000000d0: 0000 0000 0000 0000 0000 0000 0000 0000
000000e0: 0000 0000 0000 0000 0000 0000 0000 0000
000000f0: 0000 0000 0000 0000 0000 0000 0000 0000
00000100: 0000 0000 0000 0000 0000 0000 0000 0000
00000110: 0000 0000 0000 0000 0000 0000 0000 0000
00000120: 0000 0000 0000 0000 0000 0000 0000 0000
00000130: 0000 0000 0000 0000 0000 0000 0000 0000
00000140: 0000 0000 0000 0000 0000 0000 0000 0000
00000150: 0000 0000 0000 0000 0000 0000 0000 0000
00000160: 0000 0000 0000 0000 0000 0000 0000 0000
00000170: 0000 0000 0000 0000 0000 0000 0000 0000
00000180: 0000 0000 0000 0000 0000 0000 0000 0000
00000190: 0000 0000 0000 0000 0000 0000 0000 0000
000001a0: 0000 0000 0000 0000 0000 0000 0000 0000
000001b0: 0000 0000 0000 0000 0000 0000 0000 0000
000001c0: 0000 0000 0000 0000 0000 0000 0000 0000
000001d0: 0000 0000 0000 0000 0000 0000 0000 0000
000001e0: 0000 0000 0000 0000 0000 0000 0000 0000
000001f0: 0000 0000 0000 0000 0000 0000 0000 0000
00000200: 0000 0000 0000 0000 0000 0000 0000 0000
00000210: 0000 0000 0000 0000 0000 0000 0000 0000
00000220: 0000 0000 0000 0000 0000 0000 0000 0000
00000230: 0000 0000 0000 0000 0000 0000 0000 0000
00000240: 0000 0000 0000 0000 0000 0000 0000 0000
00000250: 0000 0000 0000 0000 0000 0000 0000 0000
00000260: 0000 0000 0000 0000 0000 0000 0000 0000
00000270: 0000 0000 0000 0000 0000 0000 0000 0000
00000280: 0000 0000 0000 0000 0000 0000 0000 0000
00000290: 0000 0000 0000 0000 0000 0000 0000 0000
000002a0: 0000 0000 0000 0000 0000 0000 0000 0000
000002b0: 0000 0000 0000 0000 0000 0000 0000 0000
000002c0: 0000 0000 0000 0000 0000 0000 0000 0000
000002d0: 0000 0000 0000 0000 0000 0000 0000 0000
000002e0: 0000 0000 0000 0000 0000 0000 0000 0000
000002f0: 0000 0000 0000 0000 0000 0000 0000 0000
00000300: 0000 0000 0000 0000 0000 0000 0000 0000
00000310: 0000 0000 0000 0000 0000 0000 0000 0000
00000320: 0000 0000 0000 0000 0000 0000 0000 0000
00000330: 0000 0000 0000 0000 0000 0000 0000 0000
00000340: 0000 0000 0000 0000 0000 0000 0000 0000
00000350: 0000 0000 0000 0000 0000 0000 0000 0000
00000360: 0000 0000 0000 0000 0000 0000 0000 0000
00000370: 0000 0000 0000 0000 0000 0000 0000 0000
00000380: 0000 0000 0000 0000 0000 0000 0000 0000
00000390: 0000 0000 0000 0000 0000 0000 0000 0000
000003a0: 0000 0000 0000 0000 0000 0000 0000 0000
000003b0: 0000 0000 0000 0000 0000 0000 0000 0000
000003c0: 0000 0000 0000 0000 0000 0000 0000 0000
000003d0: 0000 0000 0000 0000 0000 0000 0000 0000
000003e0: 0000 0000 0000 0000 0000 0000 0000 0000
000003f0: 0000 0000 0000 0000 0000 0000 0000 0000

encoder.lstm.weight_ih_l0 f4 [128, 4]
-0.022262668 0.12866455 0.1378663 0.10847146 -0.1553877 -0.16117927 -0.114190884 -0.10453441
-0.007971392 0.031230174 0.042439304 0.1413381 -0.061884783 -0.15556122 0.015873272 0.08875788
-0.070342734 0.10041465 -0.018014165 -0.047219913 -0.17970371 -0.1264272 -0.08136213 -0.14557679
-0.26232827 -0.008234673 -0.050040707 -0.04250986 -0.12679416 0.051579386 0.0677474 -0.24182324
0.13436586 -0.04305172 0.06811275 0.06066783 0.07855452 0.074207686 0.14789937 -0.016665546
0.08486175 0.14158732 0.029887209 -0.028922355 0.10228405 0.015824733 -0.07791241 0.05763016
-0.11192025 -0.09142777 -0.096379794 -0.07023672 0.119109705 0.13253823 -0.08193724 0.10212102
-0.12939334 -0.033050258 -0.15255688 -0.13605592 0.14528973 -0.080727875 -0.10693285 0.034339007
-0.13582438 -0.15089269 -0.0681162 -0.042658567 -0.020766271 0.035327848 -0.030747306 0.049782827
-0.10558831 -0.0914699 0.07158583 -0.08477028 -0.0015577032 -0.16486871 -0.005537416 -0.06851329
-0.075630754 -0.10969466 0.013091267 -0.14518043 0.015819753 -0.040725295 -0.14850307 -0.01507082
0.058882836 -0.033359036 -0.23832496 -0.07174069 -0.20080392 -0.012404407 0.014494245 -0.01910877
0.11703462 0.09141115 0.05620982 -0.08586748 -0.13382651 -0.26076734 -0.15878974 -0.115791745
0.10665217 0.029706638 -0.124070756 0.04206725 -0.18336694 -0.19030663 0.0090828715 0.17219818
-0.14678058 -0.20833826 -0.1553968 -0.21571992 0.026141692 -0.04901826 0.012166951 -0.26885682
-0.1006123 -0.027219502 -0.08865558 0.097500175 -0.06574298 0.103087634 0.039468814 0.083962224
0.13843799 0.017929025 0.018758923 -0.030564047 0.007505026 -0.07035439 -0.16628675 -0.056116287
0.103535235 0.05795123 0.11052968 0.039251555 -0.0793868 0.04515947 -0.011345685 0.05704709
-0.023556339 0.003656758 0.057632294 -0.01237658 -0.09947139 -0.17389244 -0.09603241 -0.007293727
0.036892913 -0.05504533 -0.08899402 -0.26188552 -0.1846809 0.07316782 0.017143575 -0.27092746
-0.06252589 0.10740317 -0.14119731 -0.22055398 -0.10652895 0.042546216 0.21894932 0.10222864
-0.00863734 -0.020180078 -0.091587186 0.08205069 -0.043480687 -0.17170157 -0.018392209 -0.027598253
-0.18804535 0.0056263716 0.02488388 -0.21863621 0.056281622 0.225894 -0.16503409 -0.24867055
-0.039905787 0.089305006 -0.1702937 0.060373656 -0.0058662742 0.1387909 0.04926151 0.008643412
-0.16667163 0.06136635 -0.1481066 -0.19717473 -0.26648012 -0.24565172 0.06606941 -0.023948679
0.03511943 -0.17096913 -0.1625863 0.012205245 0.012638228 0.07320294 -0.10396378 0.11972433
-0.19057217 -0.29600698 0.010489508 -0.25707823 -0.08568239 0.08816215 -0.23384142 -0.14733009
0.057695784 0.112752415 -0.11728145 -0.10152069 -0.03167066 -0.032972224 -0.20116992 -0.11999438
0.048983682 -0.063264884 -0.09503476 -0.037281267 -0.05473152 -0.011379453 -0.04642644 -0.10329494
0.06280763 -0.111906916 -0.055097073 0.092294686 -0.2853021 -0.19222477 -0.14295264 -0.044351883
0.02048884 0.010552191 -0.1757576 -0.01633807 -0.2701028 -0.03708766 -0.04106736 -0.09313362
-0.17958792 -0.11100699 -0.06230083 0.14264931 -0.17074096 -0.072553396 -0.036569264 -0.07795063
00000000: 3360 b6bc a4c0 033e d32c 0d3e 4926 de3d
00000010: f41d 1fbe 2e0c 25be e9dc e9bd 2316 d6bd
00000020: 719a 02bc 6cd6 ff3c d6d4 2d3d efba 103e
00000030: e67a 7dbd 714b 1fbe aa08 823c b1c6 b53d
00000040: da0f 90bd 32a6 cd3d 7192 93bc ab69 41bd
00000050: 4004 38be 2276 01be 30a1 a6bd 1512 15be
00000060: e44f 86be b9ea 06bc 7cf7 4cbd d21e 2ebd
00000070: 54d6 01be e844 533d 26bf 8a3d 83a0 77be
00000080: 3497 093e 0057 30bd b37e 8b3d d57e 783d
00000090: 31e1 a03d 33fa 973d ef72 173e 2f86 88bc
000000a0: ffcb ad3d 44fc 103e 05d6 f43c 93ee ecbc
000000b0: 4d7a d13d dfa2 813c 8b90 9fbd 9a0d 6c3d
000000c0: 7236 e5bd 7c3e bbbd c562 c5bd 45d8 8fbd
000000d0: caef f33d 1ab8 073e b6ce a7bd d324 d13d
000000e0: b07f 04be b55f 07bd df37 1cbe 3e52 0bbe
000000f0: d5c6 143e a854 a5bd 9cff dabd 0fa7 0c3d
00000100: 8c15 0bbe 9d83 1abe 8280 8bbd c0ba 2ebd
00000110: 071e aabc efb3 103d c6e1 fbbc 14e9 4b3d
00000120: af3e d8bd 9254 bbbd 979b 923d 0a9c adbd
00000130: d92b ccba 58d3 28be 3673 b5bb b250 8cbd
00000140: 4ce4 9abd 98a7 e0bd c17c 563c 2eaa 14be
00000150: 6d98 813c 91cf 26bd 3011 18be 9aeb 76bc
00000160: 212f 713d 7ca3 08bd 750b 74be c8ec 92bd
00000170: 8b9f 4dbe db3b 4bbc 4579 6d3c ff89 9cbc
00000180: d9af ef3d c535 bb3d 453c 663d 4adb afbd
00000190: d109 09be 4c83 85be c799 22be 3924 edbd
000001a0: 746c da3d 565b f33c cf18 febd b54e 2c3d
000001b0: 8bc4 3bbe bedf 42be 53d0 143c b854 303e
000001c0: a64d 16be a056 55be 5720 1fbe afe5 5cbe
000001d0: 1a27 d63c 5fc7 48bd e457 473c 9aa7 89be
000001e0: d20d cebd 6ffb debc 0f91 b5bd 2cae c73d
000001f0: 41a4 86bd 9c1f d33d 0daa 213d 63f4 ab3d
00000200: b0c2 0d3e e4df 923c 50ac 993c 7461 fabc
00000210: b9ec f53b f615 90bd 1347 2abe 31da 65bd
00000220: 480a d43d 455e 6d3d 635d e23d 3dc6 203d
00000230: 8c95 a2bd 23f9 383d 41e3 39bc 36aa 693d
00000240: 39f9 c0bc 38a6 6f3b d70f 6c3d 24c7 4abc
00000250: a8b7 cbbd dc10 32be a4ac c4bd 3700 efbb
00000260: 061d 173d 3677 61bd 7f42 b6bd dc15 86be
00000270: fd1c 3dbe 03d9 953d af70 8c3c 01b7 8abe
00000280: 930d 80bd 31f6 db3d 0796 10be e7d8 61be
00000290: da2b dabd f144 2e3d 4034 603e 405d d13d
000002a0: a183 0dbc b150 a5bc 1092 bbbd 310a a83d
000002b0: ce18 32bd 89d2 2fbe 42ab 96bc bb15 e2bc
000002c0: f68e 40be 6d5d b83b 47d9 cb3c 2ce2 5fbe
000002d0: 8f87 663d c250 673e b2fe 28be 7ea3 7ebe
000002e0: 4074 23bd 8be5 b63d 7961 2ebe 5e4a 773d
000002f0: e039 c0bb 341f 0e3e 70c6 493d 199d 0d3c
00000300: f8ab 2abe 485b 7b3d 42a9 17be 2ce8 49be
00000310: 1570 88be 208c 7bbe 664f 873d 0530 c4bc
00000320: 64d9 0f3d 8812 2fbe 067d 26be 82f8 473c
00000330: 9210 4f3c 6ceb 953d f6ea d4bd 0832 f53d
00000340: 5a25 43be 3a8e 97be 2fdc 2b3c c29f 83be
00000350: 407a afbd 5b8e b43d 2074 6fbe b3dd 16be
00000360: 6a52 6c3d bdea e63d 4231 f0bd 14ea cfbd
00000370: 18b9 01bd e20d 07bd 7dff 4dbe 9dbf f5bd
00000380: 1da3 483d 0591 81bd 96a1 c2bd 3eb4 18bd
00000390: 292e 60bd e370 3abc a729 3ebd 4c8c d3bd
000003a0: 49a1 803d 742f e5bd 78ad 61bd ff04 bd3d
000003b0: 1e13 92be 92d6 44be 2d62 12be 52aa 35bd
000003c0: 36d8 a73c 19e3 2c3c cdf9 33be 6bd7 85bc
000003d0: ea4a 8abe 3be9 17bd 4036 28bd d7bc bebd
000003e0: e5e5 37be a257 e3bd 282f 7fbd a912 123e
000003f0: b8d6 2ebe e096 94bd a7c9 15bd 94a4 9fbd

encoder.lstm.weight_hh_l0 f4 [128, 32]
0.11597253 -0.095245145 -0.07928827 0.2080318 -0.12689336 0.28792948 -0.14555101 0.16954891
-0.2926243 0.17252316 -0.07222097 -0.11054375 -0.06278846 0.1447356 0.15779632 0.17188905
-0.10397517 -0.044666443 -0.11775442 -0.040680725 -0.12321824 0.15918669 0.12603658 -0.01748138
0.061529115 -0.02213954 0.06590397 -0.20966159 0.077525586 0.02829824 -0.00782577 -0.032379422
-0.099532 -0.06904248 -0.06591414 0.087217085 0.21496499 -0.11466433 -0.18756841 0.020516366
-0.17305088 0.1562583 -0.12349214 -0.039099213 0.06666264 -0.083979 -0.042417843 0.054832842
-0.0725145 0.1573801 0.039315928 -0.08313978 -0.06359589 0.1776702 0.14398454 0.11176414
0.07213264 0.060811132 0.057102438 -0.025233265 0.094490625 0.11574563 0.06705657 -0.11055733
-0.030027777 0.0035725038 0.14299013 -0.014125807 -0.08377404 0.15933223 -0.06687318 0.21842459
-0.21134621 0.021507574 0.0718668 -0.02400556 -0.15115738 0.26301253 0.02354889 0.17944606
0.14059487 0.25921923 -0.08869172 0.2160412 0.058137763 0.0591389 0.07520804 0.08382955
0.16298996 0.14410827 -0.07553269 0.0704174 -0.15713301 0.18228957 0.06588036 0.041125383
-0.1017502 -0.09780326 -0.0063742064 0.070726834 0.0031186566 -0.052710846 -0.0025376305 0.0564824
-0.037638377 -0.017059477 0.08848217 -0.030251136 0.055721007 0.24422726 0.12447475 0.0026172495
-0.018601052 0.074315 0.08619861 0.13824435 -0.1612208 -0.031199876 0.17602737 -0.08665433
-0.047072224 0.28218237 0.0621657 0.042177673 0.065183066 0.063469455 0.24066398 -0.06511477
-0.063308775 0.1381476 -0.13010184 -0.0002352344 -0.0761137 0.039611865 0.040581655 0.017153114
0.03169997 -0.07846284 -0.042623293 -0.17082089 -0.057196576 -0.018673126 0.19359134 -0.059411865
0.09838869 0.1321021 -0.07577487 0.060284276 -0.14746667 -0.121440046 0.012374854 0.032312986
-0.16550484 -0.009497461 0.17123145 0.016047401 -0.067492865 0.045702383 -0.066376016 0.06662028
-0.0027569397 -0.075702384 -0.091976605 -0.023019047 0.059015494 -0.064351894 0.002971638 0.08977136
0.1053734 -0.036667187 0.03199763 -0.012428229 -0.07227766 0.05699553 0.10323027 0.082957014
-0.022006877 -0.10394339 -0.08154718 -0.16306874 -0.08118976 0.07080623 0.054937787 -0.019611973
-0.14311929 -0.16701278 -0.10477422 0.05290403 -0.06668977 0.013246339 -0.019249192 -0.0907005
-0.034710914 -0.07942452 -0.04385046 0.13800766 -0.14408076 -0.021107627 -0.07973125 0.26091132
-0.058048088 -0.08338742 -0.12421888 -0.112510145 -0.14721423 -0.04608541 -0.03141358 0.17791837
-0.008898314 0.11684136 -0.14530683 0.07911132 -0.2204628 0.11456018 0.16172545 0.00013435187
-0.124129824 0.23573624 -0.07937038 -0.07930226 -0.19945344 0.30478325 -0.056421418 0.26382688
-0.1253928 0.06515367 0.16698833 0.15288162 0.11286469 -0.16920328 -0.19713092 0.057655457
0.07954336 0.11777698 -0.2407829 -0.1106425 -0.028125029 -0.0966493 0.22782668 0.017138999
-0.09188319 0.20078152 -0.042180445 0.12561607 -0.07294123 0.08588342 -0.2240954 0.031120513
-0.048229557 0.20796646 0.085766464 -0.26738685 -0.08512187 0.16440907 0.044544727 -0.068775445
00000000: 0183 ed3d e30f c3bd e361 a2bd 4a06 553e
00000010: 55f0 01be 7e6b 933e 530b 15be 3b9e 2d3e
00000020: dad2 95be e9a9 303e 97e8 93bd c364 e2bd
00000030: 3c97 80bd 9235 143e 5c95 213e af03 303e
00000040: eff0 d4bd 29f4 36bd 3b29 f1bd d5a0 26bd
00000050: d859 fcbd d601 233e bc0f 013e 1c35 8fbc
00000060: f405 7c3d fb5d b5bc a9f8 863d 87b1 56be
00000070: bcc5 9e3d b6d1 e73c a937 00bc 49a0 04bd
00000080: 6fd7 cbbd 2566 8dbd fefd 86bd df9e b23d
00000090: c81f 5c3e 22d5 eabd ef11 40be f011 a83c
000000a0: 4034 31be 2d02 203e 72e9 fcbd 7f26 20bd
000000b0: 6c86 883d 2ffd abbd 55be 2dbd 6798 603d
000000c0: 7b82 94bd 4028 213e bd09 213d 3045 aabd
000000d0: 903e 82bd 2def 353e af70 133e 99e4 e43d
000000e0: 47ba 933d 1815 793d 3fe4 693d feb5 cebc
000000f0: 4d84 c13d 0b0c ed3d f454 893d e26b e2bd
00000100: d0fc f5bc ab20 6a3b 016c 123e ee6f 67bc
00000110: b991 abbd fd27 233e cef4 88bd b2aa 5f3e
00000120: 246b 58be a730 b03c e72e 933d 4fa7 c4bc
00000130: 00c9 1abe 94a9 863e 9ae9 c03c b5c0 373e
00000140: 1af8 0f3e 62b8 843e 01a4 b5bd e839 5d3e
00000150: dd21 6e3d a23b 723d ac06 9a3d d4ae ab3d
00000160: d7e6 263e 1e91 133e e2b0 9abd ff36 903d
00000170: 7ae7 20be 1eaa 3a3e 48ec 863d 1773 283d
00000180: 6962 d0bd 134d c8bd b8de d0bb 3bd9 903d
00000190: 6062 4c3b 54e7 57bd 604e 26bb 175a 673d
000001a0: b32a 1abd 51c0 8bbc 2436 b53d 3bd1 f7bc
000001b0: b63b 643d b616 7a3e 9eec fe3d 2986 2b3b
000001c0: 3c61 98bc 7632 983d e688 b03d ed8f 0d3e
000001d0: 1117 25be e296 ffbc 8540 343e d377 b1bd
000001e0: cece 40bd 357a 903e 76a1 7e3d 7fc2 2c3d
000001f0: b37e 853d 46fc 813d 9e70 763e e45a 85bd
00000200: 08a8 81bd 9176 0d3e 6b39 05be 41a9 76b9
00000210: 80e1 9bbd 0d40 223d f338 263d b084 8c3c
00000220: d4d7 013d 20b1 a0bd c395 2ebd aceb 2ebe
00000230: f546 6abd 62f8 98bc cf3c 463e db59 73bd
00000240: 0280 c93d c645 073e db2f 9bbd a5ec 763d
00000250: 8101 17be 8fb5 f8bd e6bf 4a3c 9f5a 043d
00000260: 1a7a 29be 3d9b 1bbc 4c57 2f3e d775 833c
00000270: b339 8abd 6c32 3b3d 26f0 87bd 3770 883d
00000280: c6ad 34bb da09 9bbd 3b5e bcbd 7192 bcbc
00000290: 3bba 713d edca 83bd d0bf 423b 0cda b73d
000002a0: 02ce d73d 5530 16bd f20f 033d c59f 4bbc
000002b0: 4f06 94bd 2574 693d 646a d33d 5ee5 a93d
000002c0: c447 b4bc 46e0 d4bd 3502 a7bd 7efb 26be
000002d0: d146 a6bd db02 913d 7206 613d 4aa9 a0bc
000002e0: dd8d 12be 6605 2bbe de93 d6bd e5b1 583d
000002f0: a594 88bd 2c07 593c 7bb0 9dbc 2fc1 b9bd
00000300: 082d 0ebd 53a9 a2bd 8a9c 33bd e151 0d3e
00000310: e889 13be e7e9 acbc 234a a3bd 2b96 853e
00000320: d5c3 6dbd 06c7 aabd 7866 febd b86b e6bd
00000330: 54bf 16be 0ec4 3cbd 87ab 00bd 3c30 363e
00000340: 3cca 11bc 864a ef3d 50cb 14be 1e05 a23d
00000350: 00c1 61be 879e ea3d 5b9b 253e cee0 0c39
00000360: c737 febd d764 713e f08c a2bd 3969 a2bd
00000370: 863d 4cbe 8d0c 9c3e 251a 67bd 5114 873e
00000380: f866 00be 4a6f 853d fdfe 2a3e 008d 1c3e
00000390: 9a25 e73d a043 2dbe b0dc 49be 2128 6c3d
000003a0: a1e7 a23d 0f35 f13d cb8f 76be 8998 e2bd
000003b0: 7666 e6bc 11f0 c5bd 664b 693e 1667 8c3c
000003c0: 412d bcbd ac99 4d3e 67c5 2cbd 80a1 003e
000003d0: 3662 95bd a6e3 af3d 4479 65be 72f0 fe3c
000003e0: 5b8c 45bd 29f5 543e 54a6 af3d eee6 88be
000003f0: 6054 aebd da5a 283e 8874 363d 24da 8cbd

encoder.lstm.bias_ih_l0 f4 [128]
0.061332203 -0.17374022 0.123346426 0.06443095 0.017187819 -0.13700774 -0.17670989 -0.25681737
0.04945006 0.030454503 -0.11361582 -0.11178636 -0.030873854 0.14045368 0.05484595 0.06846151
0.09249562 -0.23048067 -0.045514524 0.020246074 -0.2042144 -0.09958011 -0.15741038 0.0040696836
-0.17734258 -0.1334165 0.1139615 -0.024219647 -0.07659712 -0.20311609 0.031500746 -0.06084029
0.12169236 -0.03553378 0.047440212 0.01710359 -0.007512555 -0.14882529 -0.09749548 -0.17235895
0.019934477 0.065888174 0.14064977 -0.14917542 -0.022007164 0.005606047 0.03176782 0.15242973
0.14155252 -0.27227944 0.11801556 -0.062437445 0.02767135 0.024169223 -0.23534836 -0.24251764
0.13588247 0.067468844 0.001874422 -0.3360248 -0.036014766 -0.08782925 -0.16422157 -0.08202437
0.013146751 -0.06910098 -0.18780234 -0.16499624 0.052665245 0.00852784 0.076013386 -0.21380195
-0.02724591 -0.029680926 0.051783748 0.112618856 0.1399121 0.016102778 -0.0918847 -0.17270695
-0.032692205 -0.1894611 -0.01727686 -0.14820863 0.023365075 -0.21055935 -0.00526128 -0.09313001
0.17648375 -0.18495019 -0.16792387 0.13577677 -0.0118875755 -0.0587661 0.078830205 -0.10367146
0.06415089 -0.029070808 0.026717579 -0.22725512 -0.0855584 0.10581156 -0.10134253 0.05045225
-0.1256359 0.15643117 -0.15926766 -0.15711287 0.17385721 0.14518614 -0.08250147 -0.020764416
0.05585171 0.10194548 -0.13575901 0.041387103 0.08247487 -0.19406839 -0.047599934 -0.24110532
-0.2690081 0.15300916 -0.17969674 -0.28657973 -0.0126374075 -0.045901034 0.07048207 0.12955359
00000000: 7a37 7b3d f5e8 31be 0d9d fc3d 60f4 833d
00000010: 78cd 8c3c c24b 0cbe 70f3 34be 917d 83be
00000020: 258c 4a3d b97b f93c 69af e8bd 3ff0 e4bd
00000030: 2aeb fcbc 17d3 0f3e 26a6 603d 8c35 8c3d
00000040: 586e bd3d 2003 6cbe 706d 3abd 18db a53c
00000050: 941d 51be a8f0 cbbd 3030 21be fb5a 853b
00000060: 4b99 35be 569e 08be a664 e93d 4868 c6bc
00000070: f3de 9cbd aafd 4fbe ed06 013d ab33 79bd
00000080: d839 f93d de8b 11bd ab50 423d d41c 8c3c
00000090: e12b f6bb a865 18be b6ab c7bd dd7e 30be
000000a0: a14d a33c 61f0 863d 7e06 103e 71c1 18be
000000b0: 5e48 b4bc eeb2 b73b f91e 023d 8a16 1c3e
000000c0: 25f3 103e 3668 8bbe 24b2 f13d 68be 7fbd
000000d0: 07af e23c 89fe c53c 29ff 70be 8b56 78be
000000e0: c624 0b3e 1b2d 8a3d 2aaf f53a 710b acbe
000000f0: 3884 13bd d2df b3bd b329 28be 65fc a7bd
00000100: 7865 573c d184 8dbd 424f 40be c6f4 28be
00000110: 83b7 573d 5ab8 0b3c e8ac 9b3d e6ee 5abe
00000120: d132 dfbc 6a25 f3bc 321b 543d b7a4 e63d
00000130: 1e45 0f3e f9e9 833c 0c2e bcbd 17da 30be
00000140: 43e8 05bd 1702 42be 3488 8dbc 01c4 17be
00000150: 1d68 bf3c df9c 57be d166 acbb f2ba bebd
00000160: 28b8 343e 9563 3dbe 3cf4 2bbe 1109 0b3e
00000170: 1bc4 42bc b9b4 70bd bb71 a13d b451 d4bd
00000180: 8b61 833d e725 eebc d3de da3c 91b5 68be
00000190: 3e39 afbd bbb3 d83d ac8c cfbd 05a7 4e3d
000001a0: b3a6 00be 7e2f 203e 1017 23be 32e2 20be
000001b0: a007 323e adab 143e 88f6 a8bd 231a aabc
000001c0: c3c4 643d cbc8 d03d 6904 0bbe 8685 293d
000001d0: 96e8 a83d ddb9 46be 26f8 42bd 50e4 76be
000001e0: 6ebb 89be 6fae 1c3e 6c02 38be 94ba 92be
000001f0: 210d 4fbc b902 3cbd e758 903d b2a9 043e

encoder.lstm.bias_hh_l0 f4 [128]
-0.18021837 0.10253613 -0.0068253255 -0.032559685 -0.091343984 0.08122956 -0.1943519 -0.03157924
-0.03381616 -0.050187666 0.079256654 0.12501863 0.03268043 -0.00374972 -0.15692435 -0.17962518
0.01256528 -0.12296844 0.07879342 0.043640975 0.022583168 0.10228824 -0.06291432 -0.027002541
-0.14129072 -0.06622597 -0.0476199 -0.33941266 -0.117073946 -0.043158088 -0.087385625 0.07913766
-0.037414193 -0.22459318 -0.0013868711 0.10728035 -0.19013183 -0.17783794 -0.06430002 -0.2555236
-0.20847511 -0.1373439 -0.18298884 0.16873 -0.14763631 -0.10280981 -0.1471686 -0.10490376
-0.02710595 -0.1655828 -0.014060177 -0.19492157 0.010202197 -0.05028276 -0.18884154 -0.18694009
-0.16337593 -0.07419565 0.14067203 -0.029253952 -0.11824048 -0.2554166 -0.016996957 0.051426303
0.08807852 0.07754609 -0.062678486 0.050453883 -0.119673535 -0.04929753 0.02505052 0.07871604
0.17365928 -0.12814668 0.09893321 0.04784235 0.02108938 -0.066475034 -0.004914419 -0.08185729
0.17823493 0.053241048 0.15975414 0.069005616 0.11834154 0.019829772 0.036837302 -0.09832509
0.17484711 0.04330472 0.07678346 -0.0600916 0.14581773 -0.023617867 -0.084452465 -0.06099124
-0.115109675 -0.1374195 -0.048377555 -0.017758917 -0.10141948 0.17949875 -0.1573173 -0.115487896
-0.0014813741 0.012348313 0.03668839 -0.14578927 -0.089178234 0.16933058 0.078483604 -0.13716826
0.09096112 0.058847297 -0.06340412 -0.07535472 0.12463105 0.011084934 -0.11320922 -0.09902348
-0.054935105 0.064077154 0.1346405 -0.2029036 -0.034896303 0.040398337 -0.14930686 -0.026629735
00000000: 2a8b 38be 76fe d13d fba6 dfbb 4e5d 05bd
00000010: 8e12 bbbd af5b a63d 2f04 47be 3c59 01bd
00000020: d082 0abd 9591 4dbd 5051 a23d e204 003e
00000030: eadb 053d ddbd 75bb c7b0 20be aaef 37be
00000040: 9bde 4d3c e1d6 fbbd 725e a13d e1c0 323d
00000050: 5600 b93c 7f7c d13d 39d9 80bd 6f34 ddbc
00000060: 84ae 10be 7ba1 87bd 160d 43bd 7fc7 adbe
00000070: 77c4 efbd 89c6 30bd 3cf7 b2bd ed12 a23d
00000080: a03f 19bd c1fb 65be acc7 b5ba cdb5 db3d
00000090: ebb1 42be 261b 36be bbaf 83bd fdd3 82be
000000a0: 807a 55be e1a3 0cbe 6d61 3bbe 8fc7 2c3e
000000b0: f92d 17be f38d d2bd 5eb3 16be c8d7 d6bd
000000c0: 4c0d debc 8a8e 29be a85c 66bc 8599 47be
000000d0: 1e27 273c 4cf5 4dbd ad5f 41be 396d 3fbe
000000e0: 054c 27be e4f3 97bd 540c 103e fca5 efbc
000000f0: 1128 f2bd f7c5 82be 343d 8bbc 63a4 523d
00000100: 8362 b43d 7cd0 9e3d 945d 80bd bba8 4e3d
00000110: 6617 f5bd 35ec 49bd c036 cd3c e035 a13d
00000120: bdd3 313e e238 03be 7f9d ca3d 57f6 433d
00000130: a3c3 ac3c 1024 88bd 2209 a1bb cba4 a7bd
00000140: 3883 363e 4913 5a3d 9796 233e d152 8d3d
00000150: 0d5d f23d 0c72 a23c b6e2 163d aa5e c9bd
00000160: 1f0b 333e 4a60 313d a640 9d3d 9c22 76bd
00000170: 3e51 153e 427a c1bc 6af5 acbd f3d1 79bd
00000180: 9fbe ebbd b3b7 0cbe 8b27 46bd 267b 91bc
00000190: 04b5 cfbd 85ce 373e c917 21be eb84 ecbd
000001a0: ab2a c2ba 9450 4a3c 9146 163d c849 15be
000001b0: 14a3 b6bd ff64 2d3e 03bc a03d d675 0cbe
000001c0: d349 ba3d dd09 713d 05da 81bd 9353 9abd
000001d0: 903e ff3d 959d 353c 3cda e7bd d3cc cabd
000001e0: a203 61bd e23a 833d 33df 093e f6c5 4fbe
000001f0: 6def 0ebd ba78 253d e6e3 18be 9a26 dabc

decoder.lstm.weight_ih_l0 f4 [128, 5]
0.22334835 0.28776473 0.22309859 0.031581894 -0.029841922 -0.16294414 -0.17822665 0.0525282
-0.02522225 -0.011099244 0.28913292 0.16720776 0.054174725 0.30431375 0.16995628 0.27424732
0.079194985 0.015942905 0.22905356 0.03242412 0.4943586 -0.021973241 0.19732474 0.18895553
0.11002872 0.379604 0.022513798 0.07677756 0.18931626 -0.12688382 0.14793503 0.16094849
0.13500662 0.25250453 0.11618382 0.1716718 -0.11320246 -0.08142825 -0.124493375 0.14419834
-0.40817377 0.1975124 -0.10581592 0.06368555 0.12430084 0.09127587 0.040840022 0.15867643
-0.09115952 0.101722755 0.2611013 0.27409932 0.12384081 0.102065995 0.055045303 0.23621021
0.02509065 -0.11275385 0.024259781 -0.0048190597 -0.12240821 -0.002864823 -0.16272919 0.027497355
-0.0032698093 0.40570998 0.004117675 -0.087775744 -0.007956014 0.07125025 0.32147023 0.4658329
0.36104074 0.49573657 0.18698028 0.48562476 0.22337404 0.30366233 0.14443983 0.33452374
-0.085974276 0.046623133 -0.13068528 -0.019295147 -0.18897946 0.20454012 0.14223051 0.0067029414
0.082845606 -0.11637381 0.4501869 0.25729895 0.3468662 0.38541493 0.13872983 0.38703418
0.19598256 0.18603909 0.16622515 0.254535 0.5364651 0.14905982 0.07767885 0.12210309
0.17205542 0.2428717 -0.010305445 0.002940096 0.054333672 -0.013478496 -0.27297837 -0.061282758
-0.0981245 -0.010048338 -0.29242408 0.3162413 0.10847774 0.12929544 0.27398393 0.10571565
0.5357292 -0.06080035 -0.014148278 0.13590674 0.14135137 0.058359373 -0.22698948 -0.15632223
-0.14313109 -0.2552511 0.36561862 0.3558862 0.05491912 0.205591 0.3645116 -0.25734517
-0.05102808 -0.18780808 0.07683139 0.119128965 0.4139859 0.31282967 0.10583199 0.18410885
0.4222684 0.42948 0.31119388 0.25343874 0.29509026 0.31266633 -0.33174258 -0.068418406
0.2018963 -0.017541729 0.22102104 0.07195286 -0.024612918 -0.02948897 -0.21432766 0.08446011
0.31945068 -0.011032168 0.1218034 -0.17157869 0.12979403 -0.23939843 -0.13564853 -0.14278808
-0.11541947 0.017542573 0.2647329 -0.10688085 0.03231735 -0.117340416 -0.15115528 0.35983512
-0.18155557 0.1477021 -0.012196054 0.00367417 0.25653 0.13562928 -0.013335469 -0.15168294
0.08207223 0.08388625 -0.04315358 -0.07716898 -0.08769181 -0.066804506 0.33842888 0.07282593
0.08561721 -0.09340886 -0.16334048 0.1530548 -0.051151913 0.0010155487 -0.18413302 0.064481005
-0.2660928 -0.0048432797 -0.19755821 -0.14909476 0.007343757 0.36048454 -0.069785886 -0.19316502
0.008257756 -0.19424205 0.15413624 0.13539152 0.080769815 -0.043226756 0.013075623 0.3206395
-0.00046830936 -0.14077707 0.12453564 0.18397357 0.35908052 -0.048533406 -0.17356452 -0.16977343
-0.16091251 -0.112622105 -0.19802657 -0.06459584 0.059498142 0.0662394 0.064125866 0.027696608
-0.012971488 -0.058382962 -0.22192161 0.32285535 -0.08844415 0.13282104 0.06463391 -0.16024807
0.01680954 -0.04914003 0.20260629 0.12115814 0.24540585 0.015162504 -0.0041716555 -0.0015657388
0.016967088 -0.1292166 0.34653756 -0.1874848 -0.012021515 0.013405552 0.11364162 0.27439907
00000000: 6eb5 643e e655 933e f573 643e 045c 013d
00000010: 0c77 f4bc d4da 26be 0c81 36be cf27 573d
00000020: e49e cebc 9ad9 35bc 3b09 943e 8338 2b3e
00000030: 51e6 5d3d 03cf 9b3e 0509 2e3e 256a 8c3e
00000040: fb30 a23d b29a 823c 048d 6a3e 27cf 043d
00000050: 921c fd3e 3a01 b4bc 7f0f 4a3e 8f7d 413e
00000060: bd56 e13d 755b c23e db6e b83c 8e3d 9d3d
00000070: 1fdc 413e d5ed 01be 487c 173e aecf 243e
00000080: 2d3f 0a3e 4648 813e c8f1 ed3d bbca 2f3e
00000090: b1d6 e7bd dbc3 a6bd 62f6 febd bba8 133e
000000a0: 27fc d0be b140 4a3e 04b6 d8bd 926d 823d
000000b0: 7091 fe3d d8ee ba3d de47 273d 137c 223e
000000c0: d8b1 babd 0554 d03d 12af 853e bf56 8c3e
000000d0: 40a0 fd3d fa07 d13d 2f77 613d 17e1 713e
000000e0: e88a cd3c 7eeb e6bd 73bc c63c 34e9 9dbb
000000f0: 28b1 fabd c1bf 3bbb 7ba2 26be 2242 e13c
00000100: 4c4a 56bb 38b9 cf3e 90ed 863b c5c3 b3bd
00000110: f159 02bc a7eb 913d bf97 a43e a681 ee3e
00000120: 55da b83e 2fd1 fd3e c277 3f3e cfa3 f83e
00000130: 2abc 643e a179 9b3e 09e8 133e b246 ab3e
00000140: 4813 b0bd e6f7 3e3d 5dd2 05be db10 9ebc
00000150: d583 41be f772 513e e0a4 113e 59a4 db3b
00000160: f5aa a93d 6455 eebd e67e e63e b0bc 833e
00000170: 7298 b13e 1b55 c53e 310f 0e3e 5829 c63e
00000180: a7af 483e 0881 3e3e ed36 2a3e 6952 823e
00000190: c755 093f 23a3 183e 1716 9f3d 2f11 fa3d
000001a0: 4c2f 303e 5cb3 783e 2bd8 28bc a0ae 403b
000001b0: fc8c 5e3d e9d4 5cbc d2c3 8bbe a103 7bbd
000001c0: 7ff5 c8bd c9a1 24bc 9cb8 95be 61ea a13e
000001d0: 9429 de3d 0666 043e 9f47 8c3e 7281 d83d
000001e0: 8d25 093f ca09 79bd 2ece 67bc 232b 0b3e
000001f0: 6abe 103e 3d0a 6f3d ee6f 68be ef12 20be
00000200: f590 12be 46b0 82be 5d32 bb3e b736 b63e
00000210: dff2 603d 7286 523e 44a1 ba3e bfc2 83be
00000220: d202 51bd c350 40be c759 9d3d e3f9 f33d
00000230: f6f5 d33e 362b a03e 71be d83d 0887 3c3e
00000240: 9033 d83e cde4 db3e ce54 9f3e b9c2 813e
00000250: 1216 973e cd15 a03e 2ada a9be f31e 8cbd
00000260: e7bd 4e3e acb3 8fbc 5753 623e 055c 933d
00000270: 08a1 c9bc da92 f1bc b678 5bbe 6cf9 ac3d
00000280: 0a8f a33e 44c0 34bc 1074 f93d 53b2 2fbe
00000290: bae8 043e dd24 75be 73e7 0abe 0a37 12be
000002a0: 0b61 ecbd 71b5 8f3c 128b 873e 59e4 dabd
000002b0: 335f 043d 2c50 f0bd 73c8 1abe 4f3c b83e
000002c0: b4e9 39be 383f 173e f5d1 47bc 58ca 703b
000002d0: e657 833e 67e2 0a3e 037d 5abc c652 1bbe
000002e0: 7c15 a83d 8ecc ab3d cfc1 30bd c50a 9ebd
000002f0: c497 b3bd cdd0 88bd 8d46 ad3e c325 953d
00000300: 1358 af3d 254d bfbd ba42 27be 66ba 1c3e
00000310: ab84 51bd 291c 853a 5e8d 3cbe 9e0e 843d
00000320: 513d 88be 60b4 9ebb b34c 4abe 4cac 18be
00000330: e6a3 f03b 6e91 b83e e7eb 8ebd 0dcd 45be
00000340: 8a4b 073c 63e7 46be e4d5 1d3e 13a4 0a3e
00000350: a56a a53d 8a0e 31bd 233b 563c dc2a a43e
00000360: 6b87 f5b9 dd27 10be 8b0c ff3d 9163 3c3e
00000370: 67d9 b73e f7ca 46bd e6ba 31be 16d9 2dbe
00000380: 40c6 24be 6ba6 e6bd 7ac7 4abe d34a 84bd
00000390: 53b4 733d 86a8 873d 6c54 833d ffe3 e23c
000003a0: 5d86 54bc f922 6fbd 6b3f 63be 4c4d a53e
000003b0: 3522 b5bd 3d02 083e c95e 843d 1218 24be
000003c0: 29b4 893c 0e47 49bd 0678 4f3e c221 f83d
000003d0: ac4b 7b3e 276c 783c 62b2 88bb 7a39 cdba
000003e0: 90fe 8a3c 5b51 04be 5f6d b13e 04fc 3fbe
000003f0: e3f5 44bc f6a2 5b3c f0bc e83d 097e 8c3e

decoder.lstm.weight_hh_l0 f4 [128, 32]
0.20093894 -0.07522795 0.032917883 0.0090161115 0.12908937 0.053366236 0.14160964 0.02202808
-0.18823102 0.12129397 0.1736948 0.119762264 0.14931299 -0.05111574 0.08801959 0.015600627
0.2009368 -0.057936355 0.19137418 -0.15860057 0.12403664 0.019529901 0.1658492 -0.11184858
0.16403721 -0.03930013 -0.112245336 0.02401255 0.12163656 0.08544616 0.0023400993 0.11602875
0.009029897 -0.15529008 0.19110832 0.016097413 0.08444956 0.027571343 -0.24374893 0.016450206
-0.009925097 -0.17080835 -0.120860346 -0.026723297 0.10619226 -0.19586226 0.21946017 0.05104455
-0.11582754 0.090013415 -0.23870596 0.17618106 -0.09195585 0.086848006 -0.15718932 0.099871255
-0.27512425 -0.20868944 0.119261704 -0.013307416 -0.026972653 0.07667888 0.14241703 -0.02216047
-0.023447739 -0.045138348 -0.15554515 -0.02115293 -0.07723456 0.09620789 -0.12033207 -0.14118333
-0.1882473 -0.17991726 0.16406766 -0.07576323 0.025273494 0.06829818 -0.12295952 -0.11308403
-0.054605804 -0.030150207 -0.0020608439 -0.07696052 0.04532029 0.004182659 -0.03143776 -0.036269072
0.12881678 0.00031715952 -0.022710117 -0.07693318 0.05836474 0.08243619 -0.0028910968 0.10086411
0.15806694 -0.15880062 0.14707652 0.051016424 0.18728086 0.08089227 0.08229552 0.085692324
-0.18959251 0.14237121 0.14723437 0.069607474 -0.03378225 -0.14544137 0.08287762 0.082588784
-0.07134037 -0.11858611 0.073042914 0.0981039 0.009223587 0.15840311 0.13448738 -0.039572276
0.073349185 0.07822742 -0.023235893 -0.01599876 -0.11103767 0.09982206 -0.097622894 -0.16067092
-0.10637048 0.17823344 0.078127466 0.08119017 -0.070097856 -0.025786579 0.17199513 0.0425771
-0.08724931 0.10222151 0.054668855 0.024682164 -0.13393478 0.14170066 0.037615117 0.036738835
-0.046930928 0.1105437 -0.09817959 0.19729906 0.072670475 0.07045114 0.07475681 -0.009927966
0.12503362 -0.11305696 0.060598724 -0.060118426 -0.06694319 -0.076114416 0.09358544 0.016902456
-0.14950217 -0.1032005 0.017949097 -0.078112304 0.109425694 0.24860898 -0.026883608 0.09536971
0.05482479 0.16555113 0.03286439 -0.081187755 -0.12953886 0.007137653 0.009644478 0.13795087
-0.032991633 0.020768417 -0.06369227 0.19888313 -0.057148166 0.013892785 0.26314285 0.030957242
-0.1546144 0.017666133 0.0094683 -0.04922054 0.0007000719 0.018056775 -0.042866997 -0.014354242
-0.1266153 -0.11682967 -0.18440773 0.0009980232 0.097604305 -0.08300708 -0.005894841 -0.31192526
0.07362721 -0.27822155 0.15854923 0.20256683 0.23165685 -0.34209576 0.22711143 0.07288785
0.055646516 -0.14271887 -0.15312684 -0.08347773 -0.04156922 0.10791047 -0.2508503 -0.011449442
-0.012709147 -0.25689453 0.13905555 -0.10750591 -0.06997047 -0.21185218 0.05467233 -0.18730861
-0.1409033 -0.15355986 0.07361766 -0.084247485 0.12411352 0.05430552 0.041834738 0.034420528
-0.014028161 0.08404145 0.026647434 -0.16884664 -0.011131478 0.056774564 -0.09248454 0.0074879974
-0.072410345 -0.25287485 0.098896414 0.05957353 0.096416555 -0.07484676 0.021086833 -0.11233557
0.08677281 0.06732287 0.15760602 -0.12422771 -0.14358965 -0.18399097 0.04094884 -0.117492154
00000000: f0c2 4d3e 1d11 9abd e7d4 063d 50b8 133c
00000010: 0130 043e 8e96 5a3d 1e02 113e 3b74 b43c
00000020: a2bf 40be f968 f83d 0ddd 313e eb45 f53d
00000030: 81e5 183e bd5e 51bd 9d43 b43d c699 7f3c
00000040: 60c2 4d3e ac4e 6dbd 98f7 433e 3068 22be
00000050: ec06 fe3d 2cfd 9f3c 5fd4 293e de10 e5bd
00000060: 5ff9 273e 2cf9 20bd e2e0 e5bd f8b5 c43c
00000070: 971c f93d 65fe ae3d 5a5c 193b 7ba0 ed3d
00000080: 22f2 133c 5d04 1fbe e6b1 433e b9de 833c
00000090: e4f3 ac3d 4cdd e13c 5299 79be 95c2 863c
000000a0: e09c 22bc 62e8 2ebe a185 f7bd d1ea dabc
000000b0: 547b d93d 1e90 48be 2bba 603e 1714 513d
000000c0: fd36 edbd f458 b83d 566f 74be cf68 343e
000000d0: 5953 bcbd 5edd b13d 3df6 20be 4d89 cc3d
000000e0: 16dd 8cbe afb2 55be 7b3f f43d 5907 5abc
000000f0: c1f5 dcbc d109 9d3d c5d5 113e e089 b5bc
00000100: 7915 c0bc fde2 38bd 3a47 1fbe e948 adbc
00000110: 272d 9ebd a408 c53d a970 f6bd 5d92 10be
00000120: e6c3 40be 3b3c 38be 5a01 283e c129 9bbd
00000130: 5c0a cf3c ebdf 8b3d 33d2 fbbd 9a98 e7bd
00000140: 56aa 5fbd 91fd f6bc 390f 07bb 7a9d 9dbd
00000150: c5a1 393d b00e 893b e1c4 00bd e18e 14bd
00000160: 8ce8 033e 6e48 a639 910a babc 258f 9dbd
00000170: de0f 6f3d 4ed4 a83d 8e78 3dbb d891 ce3d
00000180: 4ddc 213e a19c 22be 3a9b 163e 99f6 503d
00000190: 8ec6 3f3e d9aa a53d 8e8a a83d 757f af3d
000001a0: 8a24 42be c2c9 113e 9bc4 163e 5d8e 8e3d
000001b0: 425f 0abd 95ee 14be bebb a93d 4f24 a93d
000001c0: e61a 92bd 46dd f2bd 8697 953d b3ea c83d
000001d0: 871e 173c 6d34 223e 0fb7 093e 8a16 22bd
000001e0: 1938 963d b335 a03d 3359 bebc d50f 83bc
000001f0: b867 e3bd 826f cc3d 83ee c7bd eb86 24be
00000200: c4d8 d9bd d482 363e 4b01 a03d 0847 a63d
00000210: 778f 8fbd 603e d3bc 7e1f 303e 5365 2e3d
00000220: c4af b2bd 8359 d13d 73ec 5f3d 4032 ca3c
00000230: 3326 09be fa19 113e 4f12 1a3d 767b 163d
00000240: a53a 40bd bc64 e23d 6212 c9bd c408 4a3e
00000250: 42d4 943d b048 903d 191a 993d e8a8 22bc
00000260: d008 003e 688a e7bd 5e36 783d bd3e 76bd
00000270: 8319 89bd e0e1 9bbd b9a9 bf3d 0577 8a3c
00000280: 1917 19be c95a d3bd fc09 933c 58f9 9fbd
00000290: 941a e03d 5a93 7e3e 033b dcbc 3251 c33d
000002a0: f68f 603d 3c86 293e d09c 063d c445 a6bd
000002b0: d6a5 04be f9e2 e93b df03 1e3c fe42 0d3e
000002c0: 3c22 07bd 8722 aa3c 1871 82bd 05a8 4b3e
000002d0: 3214 6abd 909e 633c a9ba 863e 0b9a fd3c
000002e0: 3d53 1ebe 91b8 903c ee20 1b3c 7a9b 49bd
000002f0: 0885 373a cdeb 933c 4e95 2fbd 0e2e 6bbc
00000300: 71a7 01be 6544 efbd 61d5 3cbe 1ad0 823a
00000310: c4e4 c73d 9eff a9bd 8329 c1bb abb4 9fbe
00000320: ddc9 963d 0e73 8ebe bb5a 223e ae6d 4f3e
00000330: 7437 6d3e 2d27 afbe e68f 683e 3a46 953d
00000340: 9aed 633d e524 12be 48cd 1cbe 5ff6 aabd
00000350: 7d44 2abd 2a00 dd3d 736f 80be 7196 3bbc
00000360: 073a 50bc ae87 83be 9464 0e3e 0f2c dcbd
00000370: ae4c 8fbd c7ef 58be 18f0 5f3d d4cd 3fbe
00000380: f448 10be cc3e 1dbe dbc4 963d f289 acbd
00000390: 3b2f fe3d 776f 5e3d e75a 2b3d 8afc 0c3d
000003a0: 5fd6 65bc ec1d ac3d b84b da3c 22e6 2cbe
000003b0: cd60 36bc 728c 683d 8968 bdbd e05d f53b
000003c0: e04b 94bd d078 81be 348a ca3d 6003 743d
000003d0: 0b76 c53d 4249 99bd 4bbe ac3c 3110 e6bd
000003e0: f1b5 b13d 93e0 893d 7963 213e 196b febd
000003f0: 2a09 13be 2168 3cbe f9b9 273d ba9f f0bd

decoder.lstm.bias_ih_l0 f4 [128]
0.22615635 -0.010743864 0.016109088 0.01522289 0.25654128 -0.02297923 0.08958809 0.056892566
0.06647976 -0.06247055 0.31213698 -0.033852268 -0.008517611 -0.13740356 0.41029584 0.13406587
-0.08234544 0.22216879 0.1074332 0.34396008 0.027934765 -0.044243645 -0.004101676 0.16863878
0.036376312 -0.1299387 0.33183786 -0.011510283 0.07718222 0.20137332 0.06969256 0.062929295
0.0073715434 -0.14280763 0.17274582 0.08679261 -0.07402487 -0.24769527 -0.03775042 -0.03551222
0.025016781 -0.06557455 -0.022611113 0.09178891 -0.16081825 0.04777369 -0.0063213 0.026897721
0.19740655 -0.035742685 -0.046623077 -0.09511671 0.07601231 0.16781701 0.023050597 0.004325939
0.15726314 0.047418293 0.10226994 0.17923658 0.15717286 -0.2638754 -0.033803727 -0.23173788
-0.013024692 0.03765775 -0.13915223 -0.20595266 -0.09892049 -0.18237379 -0.11110868 -0.062047854
-0.016966334 -0.12191182 0.13815042 0.13397561 -0.11244979 -0.22591035 -0.0011136789 0.037240792
-0.08472131 -0.16499913 -0.11875146 -0.17480354 -0.04283844 -0.14820878 0.050278667 0.06965431
0.09187795 0.076227255 -0.0716269 0.02863485 0.0027731105 0.11048152 0.14424321 -0.20140576
0.07043459 -0.19682513 -0.016310574 -0.09112567 0.26454827 -0.17432906 0.12014463 0.065298334
-0.05058339 -0.13115798 0.19637835 -0.0064038928 -0.013390843 -0.008530735 0.4369519 0.11404029
-0.23520194 -0.066304274 0.07005192 0.04798479 0.13872138 -0.047648106 0.078826904 0.03409729
-0.028400578 -0.16065967 0.1009496 -0.12402883 0.21925487 0.059208564 -0.02832151 -0.26418722
00000000: 8895 673e 0807 30bc 35f7 833c 6e69 793c
00000010: 6159 833e f03e bcbc f679 b73d 2e08 693d
00000020: 8a26 883d 1fe1 7fbd 6bd0 9f3e ada8 0abd
00000030: 738d 0bbc 85b3 0cbe 4c12 d23e 9048 093e
00000040: baa4 a8bd 3780 633e f005 dc3d 891b b03e
00000050: 73d7 e43c d338 35bd 5a67 86bb a5af 2c3e
00000060: 54ff 143d a70e 05be a7e6 a93e a095 3cbc
00000070: b611 9e3d cf34 4e3e f9ba 8e3d 13e1 803d
00000080: fd8c f13b 2a3c 12be 48e4 303e 53c0 b13d
00000090: 5a9a 97bd d4a3 7dbe 2fa0 1abd 4375 11bd
000000a0: feef cc3c f34b 86bd f13a b9bc d3fb bb3d
000000b0: 8aad 24be 58ae 433d e822 cfbb 9c58 dc3c
000000c0: f124 4a3e ec66 12bd d7f7 3ebd 8dcc c2bd
000000d0: 58ac 9b3d 39d8 2b3e 9bd4 bc3c 9bc0 8d3b
000000e0: 9709 213e af39 423d e772 d13d cb89 373e
000000f0: ecf1 203e ad1a 87be c775 0abd b24c 6dbe
00000100: 8565 55bc 033f 1a3d ec7d 0ebe 41e5 52be
00000110: d396 cabd 32c0 3abe f38c e3bd e425 7ebd
00000120: fbfc 8abc e7ac f9bd 4e77 0d3e e730 093e
00000130: 134c e6bd 0b55 67be ddf8 91ba cd89 183d
00000140: 5e82 adbd 88f5 28be f733 f3bd b3ff 32be
00000150: 5c77 2fbd 0bc4 17be 01f1 4d3d eba6 8e3d
00000160: 822a bc3d 091d 9c3d 20b1 92bd a293 ea3c
00000170: 13bd 353b 2344 e23d 7eb4 133e 503d 4ebe
00000180: 0340 903d 878c 49be c19d 85bc 18a0 babd
00000190: df72 873e 5183 32be 630e f63d 22bb 853d
000001a0: 8730 4fbd 474e 06be 6817 493e bfd7 d1bb
000001b0: 4465 5bbc 7fc4 0bbc 29b8 df3e f58d e93d
000001c0: c7d8 70be 89ca 87bd 6277 8f3d b38b 443d
000001d0: fa0c 0e3e a92a 43bd 0070 a13d 9aa9 0b3d
000001e0: 54a8 e8bc f883 24be aabe ce3d d402 febd
000001f0: 5984 603e ae84 723d 8302 e8bc 8c43 87be

decoder.lstm.bias_hh_l0 f4 [128]
0.2856099 -0.008796747 0.19304383 0.0127358055 0.057606388 0.15257761 0.26512447 0.10132344
0.09408166 -0.023302123 0.2546377 -0.0732055 0.11779605 0.051504325 0.2774857 0.31924418
-0.17613344 -0.052673835 0.3047131 0.20035577 -0.028592663 0.05083332 -0.2262139 0.074231245
0.18134253 -0.1514736 0.14815778 0.051158573 0.2425328 0.17946456 0.04706298 -0.13454443
-0.18335554 -0.15888683 0.16382752 0.16821735 0.0041313153 -0.219222 -0.13757384 0.047725495
-0.1832465 -0.05376934 0.021673106 0.014603219 -0.28023452 0.0069464026 0.104765594 -0.12105005
-0.025633402 -0.17948586 -0.11516447 0.0055027413 0.057949442 0.10572439 -0.031342942 -0.1466526
-0.079240195 -0.100435205 -0.16240911 0.02545219 0.04976932 -0.30206618 -0.0011380991 -0.19432166
0.10859429 0.042414173 -0.078959495 0.055099074 -0.073136665 0.07395204 -0.053366516 -0.007682268
0.20050876 -0.0955659 0.0559027 0.1696017 -0.080054685 0.008094481 -0.07183766 0.040656842
-0.07313125 0.028444508 -0.02788271 0.16175717 0.23608597 -0.037630204 -0.010563598 -0.02384098
0.052777324 -0.011472442 -0.041866075 0.039963238 0.1251623 -0.016298778 0.13313779 -0.12645577
0.16734801 -0.11090893 0.077815406 -0.039015204 0.12148766 -0.08526846 0.19103342 0.11396097
0.01700814 -0.076268405 -0.055609886 0.062652975 -0.14816591 0.07194276 0.2651804 0.3122042
-0.14463313 -0.052453436 0.20781554 0.062345084 0.0071050124 -0.08028651 -0.022617688 0.2553734
0.055352736 -0.094178624 0.292663 -0.13393976 0.19436151 0.35469952 -0.06845213 -0.14255095
00000000: 763b 923e 3b20 10bc 48ad 453e d7a9 503c
00000010: adf4 6b3d 4e3d 1c3e 65be 873e aa82 cf3d
00000020: e3ad c03d 18e4 bebc df5f 823e c4ec 95bd
00000030: 0e3f f13d 33f6 523d 9b12 8e3e f973 a33e
00000040: 535c 34be 85c0 57bd 5b03 9c3e 102a 4d3e
00000050: 293b eabc 9936 503d 9ea4 67be 8d06 983d
00000060: dbb1 393e e51b 1bbe acb6 173e a78b 513d
00000070: 855a 783e 8fc5 373e 1cc5 403d 04c6 09be
00000080: 8ec1 3bbe 3bb3 22be 67c2 273e 2b41 2c3e
00000090: fc5f 873b bb7b 60be 28e0 0cbe cf7b 433d
000000a0: f8a4 3bbe 3d3d 5cbd cc8b b13c 5742 6f3c
000000b0: e67a 8fbe a69e e33b 588f d63d 17e9 f7bd
000000c0: 24fd d1bc 24cb 37be 5adb ebbd 5750 b43b
000000d0: 655c 6d3d 0786 d83d 7561 00bd 192c 16be
000000e0: af48 a2bd f9b0 cdbd 934e 26be 1c81 d03c
000000f0: eada 4b3d 6ba8 9abe 452c 95ba 42fc 46be
00000100: af66 de3d 7cba 2d3d 84b5 a1bd 91af 613d
00000110: adc8 95bd 2b74 973d d996 5abd 89bb fbbb
00000120: 2b52 4d3e 0eb8 c3bd 3bfa 643d 11ac 2d3e
00000130: b6f3 a3bd b79e 043c a01f 93bd ca87 263d
00000140: d6c5 95bd 7504 e93c 486a e4bc aca3 253e
00000150: 85c0 713e 2122 1abd f112 2dbc 294e c3bc
00000160: 092d 583d e9f6 3bbc c37b 2bbd 7eb0 233d
00000170: 8c2a 003e 0485 85bc 4655 083e 9f7d 01be
00000180: 475d 2b3e 3924 e3bd af5d 9f3d 68ce 1fbd
00000190: 86ce f83d 3ba1 aebd 449e 433e 5e64 e93d
000001a0: a854 8b3c 9c32 9cbd 31c7 63bd 3450 803d
000001b0: ceb8 17be ba56 933d bac5 873e 3bd9 9f3e
000001c0: b51a 14be 6ad9 56bd 99cd 543e 8f5d 7f3d
000001d0: 2ad1 e83b 416d a4bd bb48 b9bc 4dc0 823e
000001e0: 8db9 623d b9e0 c0bd edd7 953e 8127 09be
000001f0: b406 473e 2d9b b53e a130 8cbd e0f8 11be

decoder.linear.weight f4 [1, 32]
0.23642616 -0.0045079207 -0.2648866 -0.10223564 -0.19542912 -0.06928138 0.21323039 -0.1518959
-0.08435688 -0.053879548 0.2540394 0.15127444 0.097027384 -0.053430624 0.33869806 -0.30473313
0.01263004 -0.18541716 0.28282562 -0.27054954 0.23298396 -0.15042646 -0.08386919 -0.13099723
0.20059253 0.020067789 0.21311674 -0.083446644 0.22836095 -0.31852537 -0.12886827 0.036039878
00000000: b319 723e 2eb7 93bb 379f 87be eb60 d1bd
00000010: 921e 48be 65e3 8dbd 1159 5a3e 998a 1bbe
00000020: 4dc3 acbd cdb0 5cbd 7411 823e b0e7 1a3e
00000030: 4bb6 c63d 12da 5abd d569 ad3e fb05 9cbe
00000040: 3aee 4e3c ffdd 3dbe 85ce 903e 7885 8abe
00000050: 5993 6e3e 6509 1abe 9cc3 abbd 2324 06be
00000060: 2168 4d3e 3465 a43c 463b 5a3e 13e6 aabd
00000070: 74d7 693e c215 a3be 0bf6 03be 8d9e 133d
