results/decoder_not_recurrent_LSTM_enc_dec_output/115_model.pt (torch, 860225 bytes, 10 tensors)

output_zeros f4 [399, 512, 1]
0	0x00000000	0.0
1	0x00000000	0.0
2	0x00000000	0.0
3	0x00000000	0.0
4	0x00000000	0.0
5	0x00000000	0.0
6	0x00000000	0.0
7	0x00000000	0.0
8	0x00000000	0.0
9	0x00000000	0.0
10	0x00000000	0.0
11	0x00000000	0.0
12	0x00000000	0.0
13	0x00000000	0.0
14	0x00000000	0.0
15	0x00000000	0.0
16	0x00000000	0.0
17	0x00000000	0.0
18	0x00000000	0.0
19	0x00000000	0.0
20	0x00000000	0.0
21	0x00000000	0.0
22	0x00000000	0.0
23	0x00000000	0.0
24	0x00000000	0.0
25	0x00000000	0.0
26	0x00000000	0.0
27	0x00000000	0.0
28	0x00000000	0.0
29	0x00000000	0.0
30	0x00000000	0.0
31	0x00000000	0.0
32	0x00000000	0.0
33	0x00000000	0.0
34	0x00000000	0.0
35	0x00000000	0.0
36	0x00000000	0.0
37	0x00000000	0.0
38	0x00000000	0.0
39	0x00000000	0.0
40	0x00000000	0.0
41	0x00000000	0.0
42	0x00000000	0.0
43	0x00000000	0.0
44	0x00000000	0.0
45	0x00000000	0.0
46	0x00000000	0.0
47	0x00000000	0.0
48	0x00000000	0.0
49	0x00000000	0.0
50	0x00000000	0.0
51	0x00000000	0.0
52	0x00000000	0.0
53	0x00000000	0.0
54	0x00000000	0.0
55	0x00000000	0.0
56	0x00000000	0.0
57	0x00000000	0.0
58	0x00000000	0.0
59	0x00000000	0.0
60	0x00000000	0.0
61	0x00000000	0.0
62	0x00000000	0.0
63	0x00000000	0.0
64	0x00000000	0.0
65	0x00000000	0.0
66	0x00000000	0.0
67	0x00000000	0.0
68	0x00000000	0.0
69	0x00000000	0.0
70	0x00000000	0.0
71	0x00000000	0.0
72	0x00000000	0.0
73	0x00000000	0.0
74	0x00000000	0.0
75	0x00000000	0.0
76	0x00000000	0.0
77	0x00000000	0.0
78	0x00000000	0.0
79	0x00000000	0.0
80	0x00000000	0.0
81	0x00000000	0.0
82	0x00000000	0.0
83	0x00000000	0.0
84	0x00000000	0.0
85	0x00000000	0.0
86	0x00000000	0.0
87	0x00000000	0.0
88	0x00000000	0.0
89	0x00000000	0.0
90	0x00000000	0.0
91	0x00000000	0.0
92	0x00000000	0.0
93	0x00000000	0.0
94	0x00000000	0.0
95	0x00000000	0.0
96	0x00000000	0.0
97	0x00000000	0.0
98	0x00000000	0.0
99	0x00000000	0.0
100	0x00000000	0.0
101	0x00000000	0.0
102	0x00000000	0.0
103	0x00000000	0.0
104	0x00000000	0.0
105	0x00000000	0.0
106	0x00000000	0.0
107	0x00000000	0.0
108	0x00000000	0.0
109	0x00000000	0.0
110	0x00000000	0.0
111	0x00000000	0.0
112	0x00000000	0.0
113	0x00000000	0.0
114	0x00000000	0.0
115	0x00000000	0.0
116	0x00000000	0.0
117	0x00000000	0.0
118	0x00000000	0.0
119	0x00000000	0.0
120	0x00000000	0.0
121	0x00000000	0.0
122	0x00000000	0.0
123	0x00000000	0.0
124	0x00000000	0.0
125	0x00000000	0.0
126	0x00000000	0.0
127	0x00000000	0.0
128	0x00000000	0.0
129	0x00000000	0.0
130	0x00000000	0.0
131	0x00000000	0.0
132	0x00000000	0.0
133	0x00000000	0.0
134	0x00000000	0.0
135	0x00000000	0.0
136	0x00000000	0.0
137	0x00000000	0.0
138	0x00000000	0.0
139	0x00000000	0.0
140	0x00000000	0.0
141	0x00000000	0.0
142	0x00000000	0.0
143	0x00000000	0.0
144	0x00000000	0.0
145	0x00000000	0.0
146	0x00000000	0.0
147	0x00000000	0.0
148	0x00000000	0.0
149	0x00000000	0.0
150	0x00000000	0.0
151	0x00000000	0.0
152	0x00000000	0.0
153	0x00000000	0.0
154	0x00000000	0.0
155	0x00000000	0.0
156	0x00000000	0.0
157	0x00000000	0.0
158	0x00000000	0.0
159	0x00000000	0.0
160	0x00000000	0.0
161	0x00000000	0.0
162	0x00000000	0.0
163	0x00000000	0.0
164	0x00000000	0.0
165	0x00000000	0.0
166	0x00000000	0.0
167	0x00000000	0.0
168	0x00000000	0.0
169	0x00000000	0.0
170	0x00000000	0.0
171	0x00000000	0.0
172	0x00000000	0.0
173	0x00000000	0.0
174	0x00000000	0.0
175	0x00000000	0.0
176	0x00000000	0.0
177	0x00000000	0.0
178	0x00000000	0.0
179	0x00000000	0.0
180	0x00000000	0.0
181	0x00000000	0.0
182	0x00000000	0.0
183	0x00000000	0.0
184	0x00000000	0.0
185	0x00000000	0.0
186	0x00000000	0.0
187	0x00000000	0.0
188	0x00000000	0.0
189	0x00000000	0.0
190	0x00000000	0.0
191	0x00000000	0.0
192	0x00000000	0.0
193	0x00000000	0.0
194	0x00000000	0.0
195	0x00000000	0.0
196	0x00000000	0.0
197	0x00000000	0.0
198	0x00000000	0.0
199	0x00000000	0.0
200	0x00000000	0.0
201	0x00000000	0.0
202	0x00000000	0.0
203	0x00000000	0.0
204	0x00000000	0.0
205	0x00000000	0.0
206	0x00000000	0.0
207	0x00000000	0.0
208	0x00000000	0.0
209	0x00000000	0.0
210	0x00000000	0.0
211	0x00000000	0.0
212	0x00000000	0.0
213	0x00000000	0.0
214	0x00000000	0.0
215	0x00000000	0.0
216	0x00000000	0.0
217	0x00000000	0.0
218	0x00000000	0.0
219	0x00000000	0.0
220	0x00000000	0.0
221	0x00000000	0.0
222	0x00000000	0.0
223	0x00000000	0.0
224	0x00000000	0.0
225	0x00000000	0.0
226	0x00000000	0.0
227	0x00000000	0.0
228	0x00000000	0.0
229	0x00000000	0.0
230	0x00000000	0.0
231	0x00000000	0.0
232	0x00000000	0.0
233	0x00000000	0.0
234	0x00000000	0.0
235	0x00000000	0.0
236	0x00000000	0.0
237	0x00000000	0.0
238	0x00000000	0.0
239	0x00000000	0.0
240	0x00000000	0.0
241	0x00000000	0.0
242	0x00000000	0.0
243	0x00000000	0.0
244	0x00000000	0.0
245	0x00000000	0.0
246	0x00000000	0.0
247	0x00000000	0.0
248	0x00000000	0.0
249	0x00000000	0.0
250	0x00000000	0.0
251	0x00000000	0.0
252	0x00000000	0.0
253	0x00000000	0.0
254	0x00000000	0.0
255	0x00000000	0.0

encoder.lstm.weight_ih_l0 f4 [128, 4]
0	0x4032225c	2.7833471
1	0x3fe03b7c	1.7518153
2	0xbf390704	-0.7227633
3	0x3eb49682	0.35271078
4	0xbf9479e8	-1.1599703
5	0xc018ce1a	-2.3875794
6	0xbc429e51	-0.011878566
7	0x3fb02732	1.3761961
8	0x40bf23f9	5.973141
9	0xbf8d53eb	-1.1041235
10	0xbe9ef358	-0.31045032
11	0xc01d2d52	-2.4558911
12	0x3fa6f390	1.3043079
13	0x3ed65fa6	0.4186985
14	0x40763c5b	3.8474338
15	0x3e4afe8c	0.19823664
16	0x4046a8cf	3.1040533
17	0xc00ceb91	-2.2018778
18	0x3e371319	0.17878379
19	0x40238a80	2.5553284
20	0x3da700a8	0.08154422
21	0xc0935597	-4.604198
22	0x402ec2d0	2.7306404
23	0x3dda3dab	0.106562935
24	0x3fe1f519	1.7652923
25	0x40104733	2.2543457
26	0xbfbdaeae	-1.4818933
27	0xbff3f0b3	-1.905783
28	0x4085639e	4.1684103
29	0xbd672741	-0.05643392
30	0xc0958b04	-4.6732197
31	0x3f004de7	0.5011887
32	0x40802359	4.004315
33	0x3ebbf686	0.3671152
34	0xc0236caf	-2.5535085
35	0x3e8fc5e0	0.28080654
36	0x3ec8b053	0.39197025
37	0x4098fe28	4.781025
38	0x3f748743	0.95518893
39	0xbfe21e84	-1.7665563
40	0x408498ca	4.143651
41	0x402ce209	2.701296
42	0x407aa0f1	3.916073
43	0x3eb7588f	0.35809752
44	0x407021e1	3.7520678
45	0xbfc3495f	-1.5256766
46	0x3ec4393b	0.38324913
47	0xbe57e100	-0.21081924
48	0x4037fe44	2.8748941
49	0x3f3a2bfa	0.7272335
50	0x40138fe2	2.305657
51	0x3f705dd9	0.938932
52	0x3fe8437e	1.8145597
53	0x404dea6e	3.2174335
54	0x3f89d158	1.0767012
55	0x3f200c03	0.6251833
56	0x3e2c366a	0.16817632
57	0xbfaf90c2	-1.3716052
58	0xbd9d31b8	-0.07675499
59	0x3f1ab4ae	0.60431945
60	0x3e41982a	0.18905702
61	0xbef114e6	-0.47086257
62	0xbd9c71cd	-0.07638893
63	0x3fb56571	1.4171582
64	0x3e9f8135	0.31153265
65	0x3fb30dcf	1.3988589
66	0x3fb8f40f	1.4449481
67	0x3f352e23	0.70773524
68	0xbe8f650d	-0.28006783
69	0x401b16cb	2.4232662
70	0x409571b3	4.6701293
71	0x3f0047b6	0.5010942
72	0xbd489b13	-0.048976015
73	0x3ee840dd	0.45361987
74	0x3f00de49	0.5033918
75	0x4013f8c1	2.3120577
76	0xbf4b8a9e	-0.7950839
77	0x3fd655e9	1.6744968
78	0xbc3e01a6	-0.011597073
79	0xbefefbab	-0.49801382
80	0x3ffe7c43	1.9881672
81	0xbf882e86	-1.0639198
82	0xbf98995c	-1.1921802
83	0xbe8c78bd	-0.27435866
84	0x3fd0ac4d	1.6302582
85	0xbe90b292	-0.28261238
86	0xbfa7ff7a	-1.312484
87	0xbfde3db2	-1.7362578
88	0xbf9f07b7	-1.2424229
89	0x409c2617	4.8796496
90	0xc0398a79	-2.8990767
91	0x408e7cd4	4.452738
92	0x3fa42ab4	1.2825532
93	0x401aaba4	2.416726
94	0x3e2e46a0	0.17019129
95	0x3f935551	1.1510412
96	0x408f55a3	4.4792037
97	0x40467fea	3.1015573
98	0xbfbe751a	-1.4879487
99	0xbf9330ea	-1.1499302
100	0x40bad05c	5.8379345
101	0x402127b5	2.5180485
102	0x400b9c48	2.1814137
103	0xc03a4429	-2.9104102
104	0x3eb6411b	0.35596547
105	0x4007e10e	2.1231112
106	0x3fb1e83d	1.3898998
107	0x3e585327	0.2112547
108	0xbf9f76e9	-1.2458163
109	0x40b4a420	5.645035
110	0xc00ff544	-2.2493448
111	0xc00ad83b	-2.1694477
112	0xbfb7dfe3	-1.43652
113	0x40126c98	2.287878
114	0xbf93d8aa	-1.1550496
115	0xc0307c47	-2.7575853
116	0x401c3c33	2.4411743
117	0xc016b8a7	-2.3550203
118	0xbf25b164	-0.647238
119	0x3fa553f3	1.2916244
120	0x40745aed	3.8180497
121	0xc0019a1a	-2.0250306
122	0xbf03c509	-0.51472527
123	0x405be30e	3.4357333
124	0xbf7e8a12	-0.9942943
125	0x3fe8d522	1.8190043
126	0x404b4008	3.1757832
127	0xbf8f3ebe	-1.1191022
128	0x402db8ed	2.714412
129	0xbff74ab8	-1.9319677
130	0xbeaef71b	-0.34172902
131	0xbf08c6e4	-0.53428483
132	0xbe682b9f	-0.2267289
133	0xbdd2bf8c	-0.10290441
134	0xbe6fb8fb	-0.23410408
135	0xbf41b2db	-0.75663537
136	0xc0133d4b	-2.300616
137	0x3f190983	0.5978014
138	0xbffa0969	-1.9534122
139	0xbe23d8d7	-0.16000687
140	0xbf67358b	-0.90316075
141	0x3fce92e5	1.6138579
142	0xc0080297	-2.125158
143	0xc00e8ea6	-2.2274566
144	0xbd9dfb39	-0.077139325
145	0xbffeaa50	-1.9895725
146	0xbfc0fe93	-1.507769
147	0xbd527ed9	-0.051390503
148	0xbf31dabc	-0.6947439
149	0x3f7a979a	0.97887576
150	0xbf0aad18	-0.5417037
151	0x3fbceb90	1.4759388
152	0x40906727	4.512592
153	0x3fd17057	1.6362408
154	0xbf82f3a8	-1.0230608
155	0xbeac3d81	-0.33640674
156	0xbff6f4ca	-1.9293454
157	0x40a33723	5.1004806
158	0x3f02fc21	0.5116597
159	0xc06016dc	-3.5013952
160	0xbe8c76f7	-0.27434513
161	0x3e5e7dff	0.21727751
162	0xbfbc0352	-1.4688513
163	0xc0305079	-2.7549117
164	0x3f0777ae	0.5291699
165	0xbe0a7147	-0.13519774
166	0x403793bd	2.8683922
167	0x3ff878d9	1.941188
168	0xbf519dc1	-0.8188134
169	0xc0111194	-2.266698
170	0xc0b4f236	-5.654567
171	0x405d4abf	3.4576871
172	0x3f1cb357	0.6121115
173	0x400249ef	2.0357625
174	0x4023e4a0	2.5608292
175	0xbe8ed8bb	-0.27899727
176	0x3f3192e7	0.6936478
177	0x40131635	2.2982304
178	0xbfb2a85c	-1.3957629
179	0xc098c6f4	-4.7742863
180	0xc078ce2b	-3.8875835
181	0x407e599b	3.974219
182	0xbeeec4a5	-0.46634403
183	0xbed2f3be	-0.41201586
184	0xbf98ce4b	-1.1937956
185	0x3f1b0d43	0.6056711
186	0xbfd2798c	-1.6443343
187	0xbfe85c2a	-1.8153126
188	0xc03b9e35	-2.9315312
189	0x3fcb89c4	1.5901418
190	0x3d099f55	0.033599216
191	0xbf6a093e	-0.9142035
192	0x3fb1f2c4	1.3902211
193	0xbfcbcb47	-1.592141
194	0xbe73f044	-0.23822123
195	0xbfb376db	-1.4020647
196	0x401831d1	2.3780406
197	0xc070f3cd	-3.7648804
198	0xc0216056	-2.5215049
199	0x3fcab67b	1.5836939
200	0xc0430013	-3.0468795
201	0x3e9ea2f6	0.30983704
202	0xc004c00b	-2.0742214
203	0x3f59e0a5	0.85108405
204	0xbf37bf7e	-0.7177657
205	0x3fc069e5	1.5032316
206	0x3f44a84b	0.76819295
207	0xbfb0134c	-1.3755889
208	0x401cda09	2.4508078
209	0x4036b4a0	2.8547745
210	0xbdfe6ce6	-0.124231145
211	0xbf6259cf	-0.8841829
212	0xbffce4b9	-1.9757301
213	0xbb559f1f	-0.0032596064
214	0xbfd14a1d	-1.6350743
215	0xbe0ee439	-0.13954248
216	0xc044e409	-3.0764182
217	0x40365456	2.8488975
218	0x401a3838	2.4096813
219	0xbe3b8528	-0.18312514
220	0x40191329	2.3917944
221	0xbf8771e0	-1.0581627
222	0xbf53d3ed	-0.8274525
223	0xbf6e2cb5	-0.9303697
224	0xbf15c841	-0.5850869
225	0xc0682a09	-3.6275656
226	0xc02ea77c	-2.7289724
227	0xbe0d1594	-0.13777763
228	0xbf80bd6e	-1.0057809
229	0x4042a312	3.041203
230	0xc079d166	-3.9034057
231	0x3ef3a707	0.4758837
232	0xbf64e92b	-0.89418286
233	0xbe01e57a	-0.12685195
234	0xbfc86beb	-1.5657934
235	0xbf9ad3c4	-1.2095876
236	0xbfbf599a	-1.4949219
237	0x3f8a01cb	1.0781797
238	0x3ec90d20	0.39267826
239	0xc06609c0	-3.594345
240	0xbff7724b	-1.9331754
241	0x400dd38e	2.2160373
242	0xbfd8f317	-1.6949185
243	0xbe18c708	-0.14919674
244	0x400c0b81	2.1882021
245	0x3ff7b450	1.9351902
246	0x401d79c3	2.4605567
247	0xbffe199b	-1.9851564
248	0x40bc03cb	5.875463
249	0x40b82cdb	5.7554755
250	0xc04ec6ee	-3.2308917
251	0xc03a60b1	-2.9121516
252	0xbff4cb27	-1.9124497
253	0x3f8e3663	1.1110348
254	0xc004fabd	-2.0778039
255	0xbf53c0f4	-0.827163

encoder.lstm.weight_hh_l0 f4 [128, 32]
0	0x3df80301	0.12109948
1	0xbedca719	-0.43096235
2	0xbf0483dd	-0.5176371
3	0x3eb9f0dc	0.36316574
4	0x3d90d606	0.07072072
5	0xbec95f6e	-0.3933062
6	0x3fd79735	1.684302
7	0x40370cbc	2.8601522
8	0x3f514b32	0.81755364
9	0xbf88f3ae	-1.0699365
10	0x3bfee709	0.0077790064
11	0xbf8c4fa6	-1.0961807
12	0x3f904a9b	1.1272768
13	0xbf07c628	-0.5303674
14	0x3eb2350f	0.34806105
15	0x3e479bb6	0.19492993
16	0x3f7ec535	0.99519664
17	0xbff2047c	-1.8907619
18	0xbd1f0aa0	-0.038828492
19	0xc0357f79	-2.8359053
20	0x3fbf1f1b	1.4931368
21	0xbf07f8ea	-0.5311419
22	0xbf288c60	-0.65839195
23	0x3f913942	1.1345599
24	0x3ec80b9c	0.39071357
25	0xc051e055	-3.2793171
26	0xbedd8bde	-0.43270773
27	0x3f02bd21	0.5106984
28	0xbd9363be	-0.07196759
29	0xbe8e61c9	-0.2780898
30	0x3ff143ef	1.8848857
31	0x3f25b799	0.6473327
32	0x3f75eb57	0.96062225
33	0xbf0674fc	-0.52522254
34	0xbf381d97	-0.7192015
35	0xbec8560d	-0.39128152
36	0xbf8002ac	-1.0000815
37	0x3f26bc97	0.65131515
38	0xbfc49310	-1.535738
39	0xc02c90ed	-2.6963456
40	0xbf8055b8	-1.0026159
41	0xbfa0e09d	-1.2568547
42	0x3ca939cf	0.020657448
43	0x3f88a345	1.0674826
44	0xbdf6265b	-0.120190345
45	0x3eadc7bb	0.33941445
46	0xbe51a0b5	-0.20471461
47	0x3fb7798e	1.433397
48	0xbef4f18b	-0.47840533
49	0xbebd5a57	-0.36982986
50	0xbfc7b2ab	-1.56014
51	0x3f413b51	0.75481135
52	0x3f29e696	0.6636747
53	0xbfe17d88	-1.7616434
54	0x3fd120d1	1.633814
55	0xbefa03b7	-0.4883096
56	0x3f250d49	0.64473397
57	0xbe5fd300	-0.21857834
58	0xbf18aea8	-0.59641504
59	0x3fb57cda	1.4178727
60	0xbea8e916	-0.3299033
61	0x3ff400d5	1.9062754
62	0x3f080f20	0.5314808
63	0x3e7ec883	0.24881177
64	0xbef7f079	-0.48425654
65	0x3e3b910e	0.18317053
66	0x3f1e3417	0.6179823
67	0xbf234168	-0.63771677
68	0x3fd3c519	1.6544524
69	0xbfbf1515	-1.4928309
70	0x3fbbc2e3	1.466885
71	0xbf0cfe13	-0.55075186
72	0xbfb39f18	-1.4032927
73	0xbff1a51d	-1.8878514
74	0x3f96618d	1.174852
75	0x3e3ec46d	0.18629618
76	0x3df70943	0.120623134
77	0xbe63e04f	-0.22253536
78	0xbfbf8fe3	-1.4965786
79	0x3e8dc10d	0.2768635
80	0xbe1ff8fd	-0.15622325
81	0xbfae1f68	-1.3603334
82	0xbed46974	-0.41486704
83	0xbea7c612	-0.32768303
84	0x3f7a1d93	0.97701377
85	0x3ead4dde	0.3384847
86	0xbe6a1306	-0.2285882
87	0x3eac930a	0.33705932
88	0xbf075861	-0.5286923
89	0xbed9d85d	-0.42547885
90	0x3ec2d4b4	0.38052905
91	0x3f8dca73	1.1077408
92	0xbf230d84	-0.636925
93	0xbe12c222	-0.14331868
94	0x3f439bde	0.7640971
95	0xbe7758ca	-0.24154964
96	0x3f9997e9	1.1999484
97	0x3e889522	0.2667628
98	0x3f4d16f1	0.8011313
99	0x3f596f52	0.84935486
100	0x3e50c23c	0.20386595
101	0xbfd3f73a	-1.6559823
102	0xbe0abad2	-0.13547829
103	0xc013c686	-2.308992
104	0xbf5b264f	-0.8560533
105	0xbfce1cc1	-1.6102525
106	0xbf839152	-1.0278723
107	0xbd006558	-0.03134665
108	0xbf88a38f	-1.0674914
109	0xbf32c4f2	-0.69831765
110	0x3de81521	0.11332155
111	0x3fcb8ba8	1.5901995
112	0x3f30d370	0.6907263
113	0xc0105f60	-2.2558212
114	0xbe8722dc	-0.26393783
115	0xbf83d178	-1.02983
116	0x3f9e70c3	1.2378162
117	0xbe426405	-0.18983467
118	0xbf87d22e	-1.0611017
119	0xbfbb8668	-1.4650393
120	0x3fd59b39	1.6687995
121	0xbd9a741f	-0.075416796
122	0xc01e6543	-2.4749305
123	0x3f899977	1.0749959
124	0xbf758ccb	-0.9591796
125	0x3ff83313	1.9390587
126	0x405416ed	3.3138993
127	0x3f7bdc8c	0.983834
128	0xbf77ac50	-0.96747303
129	0xc036a863	-2.8540275
130	0xbf8cc744	-1.0998311
131	0x3ee7fb56	0.45308942
132	0xbfa43beb	-1.2830786
133	0x3f269979	0.6507793
134	0x3e978d76	0.29600114
135	0xbf8d6e3c	-1.1049266
136	0x3ea2d28d	0.31801262
137	0xc0221fda	-2.533194
138	0x3ea9028c	0.33009756
139	0xbe8d5824	-0.27606308
140	0xbdde26ef	-0.1084727
141	0xc0700088	-3.7500324
142	0x3f53348b	0.8250205
143	0xbf9d6620	-1.2296791
144	0x3f817c03	1.011597
145	0xbff123ad	-1.8839012
146	0x4006ffda	2.109366
147	0x3bdf4e0d	0.0068147243
148	0xc00076c6	-2.0072494
149	0xbd079ca4	-0.03310837
150	0xbf87f776	-1.0622394
151	0x3fbeb341	1.4898454
152	0x40005c5c	2.0056372
153	0xbf26a9c5	-0.651028
154	0xbe1d2ea2	-0.1534982
155	0x3f3af135	0.730243
156	0xbf46ff68	-0.7773347
157	0xbe302c65	-0.17204435
158	0xbf9a20e8	-1.2041292
159	0x3d9eb8d4	0.07750097
160	0xbf91ebde	-1.1400106
161	0x3f8c166f	1.0944346
162	0x3dfd106a	0.12356646
163	0x3f59b4b8	0.8504138
164	0xbf8f7872	-1.1208632
165	0x3fa2a15f	1.2705497
166	0x4047a3bd	3.1193688
167	0xc017e143	-2.373124
168	0xbfaf88b0	-1.3713589
169	0xbfeefcfe	-1.8670957
170	0xbeffbbf2	-0.49948078
171	0xc0014e43	-2.0204017
172	0xbf3781b4	-0.71682286
173	0x3eb46acb	0.35237727
174	0xbe8423ca	-0.25808555
175	0x3f9d3778	1.2282553
176	0x3eefa293	0.46803722
177	0x3e251c01	0.16123964
178	0x3e8f650a	0.28006774
179	0x3fc4f16e	1.5386178
180	0xbd1c45c6	-0.03815248
181	0xbdb2f44c	-0.08738002
182	0x3fe8a549	1.8175441
183	0xbf93be4e	-1.1542451
184	0xbeef2776	-0.46709794
185	0x3fa71465	1.3053099
186	0xbecd3e75	-0.40086713
187	0x3fccba24	1.5994306
188	0xbcc891fe	-0.024483677
189	0xbfaff39e	-1.3746221
190	0x3d869a3b	0.06572386
191	0xbf119eee	-0.5688313
192	0xbf973923	-1.1814312
193	0x3f97caf5	1.1858813
194	0x3fb04bd1	1.3773137
195	0xbfcfe01b	-1.6240267
196	0x3fbf09a4	1.4924817
197	0xbf959957	-1.1687421
198	0xbeeaa98c	-0.4583248
199	0x4027517d	2.6143486
200	0xbfa2803d	-1.2695385
201	0xbf9f5e2e	-1.2450616
202	0xbf296b18	-0.6617904
203	0xbe7dae00	-0.24773407
204	0xbf73776c	-0.951041
205	0xc00687bf	-2.1020353
206	0xc03e0da5	-2.9695828
207	0xbe813fa7	-0.25243875
208	0x3fc61a72	1.547682
209	0x40274824	2.613778
210	0xbf57f9a2	-0.84365284
211	0x3ed30545	0.41214958
212	0x3ef79c08	0.4836123
213	0x3f38f68c	0.722512
214	0xc024ad78	-2.5730877
215	0x406f228f	3.7364843
216	0xc050a354	-3.2599688
217	0x40170a84	2.3600168
218	0x3eb7dd7d	0.3591117
219	0xc08ea31a	-4.45741
220	0xc00046f3	-2.0043304
221	0x3f49e4fb	0.7886502
222	0x3f9cd66a	1.2252934
223	0xbf37d956	-0.71816003
224	0x401e6539	2.4749281
225	0xbe6a330f	-0.2287104
226	0x3f266b19	0.6500717
227	0xbd51a100	-0.051178932
228	0xbf9865d9	-1.1906081
229	0x3e22b170	0.15888
230	0x3f297c92	0.66205704
231	0x3f4b8849	0.7950483
232	0xbf0aab8f	-0.5416803
233	0x3f827643	1.0192341
234	0x3ee57aeb	0.4482034
235	0xc044e878	-3.0766888
236	0xbfe61f47	-1.7978295
237	0xbffb356f	-1.9625682
238	0x3e7c34bb	0.2462949
239	0x40140484	2.3127756
240	0x4056ba75	3.3551304
241	0x3f94f8c8	1.1638422
242	0x403e2302	2.9708867
243	0x403fa10e	2.994205
244	0xbff4b382	-1.9117281
245	0x4009a99a	2.1509767
246	0xbf825920	-1.0183449
247	0xbf199abb	-0.60001725
248	0x3f618a9f	0.88102144
249	0x40159026	2.3369231
250	0x3d3b8780	0.04578352
251	0x401b219a	2.4239259
252	0xbebc83c0	-0.36819267
253	0xbf0be8c7	-0.54652065
254	0xbe803e5d	-0.2504758
255	0x3f987440	1.1910477

encoder.lstm.bias_ih_l0 f4 [128]
0	0xc00b4ea2	-2.1766744
1	0xc015c031	-2.3398554
2	0xc0229926	-2.5405974
3	0xc0264271	-2.5978053
4	0xc003d950	-2.0601387
5	0xc0062db7	-2.0965402
6	0xc03dc5e7	-2.965204
7	0xc00a5e6f	-2.1620138
8	0xc015e5c5	-2.342149
9	0xbfc12859	-1.5090438
10	0xc024b827	-2.5737398
11	0xbff24296	-1.892657
12	0xc01d6658	-2.4593716
13	0xc03c3811	-2.940922
14	0xc046d24c	-3.1065855
15	0xbfc9c528	-1.5763292
16	0xc01ef83e	-2.4839015
17	0xc002969f	-2.0404432
18	0xbfcca157	-1.5986737
19	0xc015b6a8	-2.3392735
20	0xc01954e6	-2.3958068
21	0xc0334dc5	-2.8016217
22	0xbfa5a597	-1.2941159
23	0xbfe3f6bc	-1.7809672
24	0xc01ea42f	-2.478771
25	0xbfd5bb6a	-1.6697819
26	0xc0007ed3	-2.0077407
27	0xc001f79a	-2.0307374
28	0xc027e370	-2.6232567
29	0xc00e98ce	-2.2280765
30	0xbf25b02b	-0.64721936
31	0xbffa949e	-1.9576604
32	0xbf512f19	-0.8171249
33	0xbf45dd79	-0.77291065
34	0xbfbf3a4d	-1.4939667
35	0xbf4b436e	-0.79399765
36	0xbfbc10a9	-1.4692584
37	0x3e030e95	0.12798531
38	0x3e84d754	0.25945532
39	0xbf67f6e0	-0.90611076
40	0x3ff81b96	1.9383419
41	0x3eb55e6d	0.35423604
42	0xbf29e6a6	-0.66367567
43	0x3ebb7708	0.3661425
44	0xbf432511	-0.76228434
45	0x4085a3d3	4.176248
46	0xbfe016ec	-1.7506995
47	0xbfb7c2b3	-1.4356292
48	0xbf979259	-1.1841537
49	0xbff66035	-1.924811
50	0xbeec2ac3	-0.46126375
51	0xbf69906c	-0.91235995
52	0xbe773079	-0.24139585
53	0xbfd8e283	-1.6944126
54	0xbe0bb684	-0.13643843
55	0xbf0c6e90	-0.54856205
56	0xbfda7f17	-1.7070035
57	0x3f16ad26	0.58857954
58	0xc0120526	-2.2815642
59	0xbf3aa622	-0.7290975
60	0x3ed1d7e4	0.40985024
61	0xbe5a8b45	-0.2134219
62	0xbf8d47e3	-1.1037563
63	0xbfb4c132	-1.4121459
64	0x3eca1959	0.39472464
65	0x3e64fa0e	0.22361013
66	0xbf094e80	-0.53635406
67	0xbf0ce300	-0.55033875
68	0x3da0faaa	0.078603104
69	0x3f9a6864	1.2063107
70	0x3e1018f2	0.14072016
71	0xbecd8d76	-0.4014699
72	0x3ef2cb10	0.4742055
73	0x3ef02fc2	0.46911436
74	0x3eb5c482	0.35501486
75	0xbe8152a5	-0.25258365
76	0x3ebb0b04	0.36531842
77	0x3e127d96	0.1430572
78	0x3e6dce05	0.23223121
79	0x3e92f097	0.2869918
80	0xbfa6cb43	-1.303078
81	0x3ec93370	0.39297056
82	0xbf89c16d	-1.0762154
83	0xbf428c4a	-0.75995314
84	0x3e55ce63	0.20879512
85	0x3f0c0d70	0.54708004
86	0x3fc4d1ad	1.5376488
87	0x3db129ee	0.086505756
88	0xbdbd718f	-0.09250175
89	0x3ea13da7	0.3149235
90	0xbf51813b	-0.81837815
91	0xbf308a49	-0.68961006
92	0x3e30da40	0.17270756
93	0xbd1df7b6	-0.038566314
94	0xbf7d754c	-0.99007106
95	0xbe0230bb	-0.12713902
96	0xbeeb9ab1	-0.46016458
97	0xbfb617b9	-1.422599
98	0xbf88f0d3	-1.0698494
99	0xbfbda74a	-1.4816678
100	0xbef2b695	-0.47404924
101	0xbf55d98a	-0.83535063
102	0xbd232e82	-0.039839275
103	0xbf81f30a	-1.0152295
104	0xbfdb5cb7	-1.7137669
105	0xbf8e641d	-1.1124302
106	0x3f8a7e50	1.0819798
107	0xbf1d9953	-0.6156208
108	0x3e41edb3	0.18938331
109	0xbfcc29d9	-1.5950271
110	0xbfce7a3a	-1.613105
111	0xbd92bd76	-0.07165043
112	0xc01ea1d3	-2.478627
113	0xbf486b1a	-0.78288424
114	0xbf227a64	-0.63468003
115	0xbf57c31c	-0.8428209
116	0x3e364d20	0.17802858
117	0xbf94ac80	-1.1615143
118	0xbed254bc	-0.41080272
119	0xbee647b1	-0.4497657
120	0xbf94c83b	-1.1623605
121	0x3e0cd556	0.13753256
122	0xbf428f6e	-0.76000106
123	0xbe461709	-0.19344725
124	0xbfdf7896	-1.7458675
125	0xbfcb906f	-1.5903453
126	0xc01e4ffa	-2.4736314
127	0xc01d2c27	-2.4558198

encoder.lstm.bias_hh_l0 f4 [128]
0	0xc01ac43a	-2.4182267
1	0xc00411a6	-2.0635772
2	0xc02aedf2	-2.670773
3	0xc02c7788	-2.6947956
4	0xc00acb84	-2.1686716
5	0xbff06c6d	-1.8783089
6	0xc03ee6ea	-2.9828439
7	0xbff7e858	-1.9367781
8	0xc01b3a02	-2.4254155
9	0xbfcb7ad8	-1.5896864
10	0xc018602c	-2.3808699
11	0xbfd3f2b0	-1.6558437
12	0xc019550b	-2.3958156
13	0xc04572b8	-3.0851269
14	0xc0545fe8	-3.3183537
15	0xbfe98697	-1.8244199
16	0xc02415d1	-2.5638316
17	0xbff76a36	-1.9329288
18	0xbfbcb80e	-1.4743669
19	0xc0143750	-2.315876
20	0xc00ad10c	-2.1690092
21	0xc0266261	-2.5997546
22	0xbf998d43	-1.1996235
23	0xbfe7f0da	-1.8120377
24	0xc01c557c	-2.4427176
25	0xbfcd21c4	-1.602593
26	0xc00ad636	-2.1693244
27	0xc01623b5	-2.3459294
28	0xc02a7a9b	-2.6637332
29	0xc0045c0a	-2.0681176
30	0xbf441f90	-0.7661066
31	0xbfe8a9da	-1.8176835
32	0xbf79ea4c	-0.97623134
33	0xbf7643d0	-0.96197224
34	0xbfc57a3f	-1.5427932
35	0xbf342d79	-0.70381886
36	0xbfd370ae	-1.6518762
37	0x3dcab291	0.0989734
38	0x3e95d664	0.2926513
39	0xbf7d4126	-0.98927534
40	0x3fdadf0f	1.7099322
41	0x3e1aa072	0.15100268
42	0xbf7cc088	-0.9873128
43	0x3f2f1dc9	0.68404824
44	0xbf634e58	-0.8879142
45	0x40822baf	4.0678325
46	0xbff6fe33	-1.9296325
47	0xbfd8b2ff	-1.6929625
48	0xbfad28e1	-1.35281
49	0xbfe8b7fb	-1.8181146
50	0xbf17e51d	-0.59333974
51	0xbf85bd63	-1.0448421
52	0xbe8489d0	-0.25886393
53	0xbfe26a23	-1.768864
54	0xbdb82f0a	-0.08993347
55	0xbefc6872	-0.49298435
56	0xc00066b9	-2.0062697
57	0x3ee4d20c	0.44691503
58	0xc0092316	-2.1427665
59	0xbed83bc1	-0.4223309
60	0x3ea7be74	0.32762492
61	0xbec31394	-0.38100874
62	0xbf74deec	-0.9565265
63	0xbfa3ac38	-1.2786932
64	0x3ef076bf	0.46965596
65	0x3ebd9252	0.37025696
66	0xbed28ce8	-0.41123128
67	0xbeab7632	-0.33488613
68	0xbdbff874	-0.093735605
69	0x3f930192	1.1484854
70	0x3db7d277	0.0897569
71	0xbddf21f2	-0.108951464
72	0x3f2cd40e	0.6751107
73	0x3ebdc5a6	0.37064856
74	0x3ecde88c	0.40216482
75	0xbea27cfc	-0.3173598
76	0x3e7c6957	0.24649559
77	0x3d77b8fe	0.060479157
78	0x3ea36e44	0.31920063
79	0x3ec1745f	0.37784097
80	0xbf8bcb92	-1.09215
81	0x3f22bb3f	0.63566965
82	0xbf6630de	-0.89918315
83	0xbf0af0f1	-0.542739
84	0x3e9b87e6	0.3037712
85	0x3f470834	0.7774689
86	0x3fca3523	1.5797466
87	0x3da68630	0.08131063
88	0xbdc0cba3	-0.094138406
89	0x3f0b0db1	0.54317766
90	0xbf12dc18	-0.57367086
91	0xbf62aec4	-0.8854792
92	0x3ea92bc7	0.33041212
93	0xbb6002da	-0.0034181387
94	0xbf93a12a	-1.1533558
95	0xbdacf896	-0.084458515
96	0xbf23b1ac	-0.6394298
97	0xbfc3f619	-1.5309478
98	0xbf928d75	-1.1449419
99	0xbfa2d67f	-1.2721709
100	0xbefad5a7	-0.4899113
101	0xbf42fc76	-0.76166475
102	0xbdc43a0c	-0.09581384
103	0xbf97308f	-1.1811694
104	0xbfcb7881	-1.589615
105	0xbfa0d56b	-1.256513
106	0x3fa39366	1.2779357
107	0xbf1ab338	-0.60429716
108	0xbd96d6e1	-0.07365204
109	0xbfc912b6	-1.5708835
110	0xbfb9df1e	-1.4521215
111	0xbe409176	-0.18805489
112	0xc01c629f	-2.4435194
113	0xbf53738b	-0.8259818
114	0xbf0ff48c	-0.56232524
115	0xbf75a5e5	-0.9595626
116	0x3e61780d	0.22018452
117	0xbf74d43f	-0.9563636
118	0xbef3ec5d	-0.47641268
119	0xbe9d8907	-0.30768606
120	0xbf72c2d4	-0.94828534
121	0x3d470fd3	0.048599076
122	0xbee42d6d	-0.44565907
123	0xbde0d09c	-0.10977289
124	0xbfe251f7	-1.7681264
125	0xbfc0848e	-1.5040452
126	0xc02c60ee	-2.693416
127	0xc0272b03	-2.6120002

decoder.lstm.weight_ih_l0 f4 [128, 5]
0	0x3f0d2d76	0.5514749
1	0xbf048d7d	-0.51778394
2	0xbf935bff	-1.151245
3	0xbf43b85a	-0.76453173
4	0xbf53b4c0	-0.8269768
5	0xbf325657	-0.69662994
6	0xbfce0396	-1.6094844
7	0xbf9bd884	-1.217545
8	0xbfa4bbc8	-1.2869806
9	0xbf990cdb	-1.1957048
10	0x3f475741	0.77867514
11	0xbf454886	-0.77063787
12	0xbf0e2a4d	-0.55533296
13	0xbecc2e3d	-0.39879027
14	0xbeb5f29b	-0.35536656
15	0x3fa15e12	1.2606833
16	0xbf3a2f8b	-0.72728795
17	0xbf3e003f	-0.74219126
18	0xbea3df94	-0.32006514
19	0xbf0d9c07	-0.55316204
20	0x3f790298	0.9726958
21	0xbf7b1cd3	-0.9809086
22	0xbf01d27f	-0.50711817
23	0xbf5ac239	-0.8545261
24	0xbf5a56e3	-0.8528883
25	0x3fb7c418	1.4356718
26	0xbf5ccb25	-0.86247474
27	0xbf4c246d	-0.7974308
28	0xbf5f1f31	-0.8715697
29	0xbf972741	-1.1808854
30	0x3faa4c82	1.3304598
31	0xbf3c351f	-0.73518556
32	0xbf30167b	-0.687843
33	0xbf308c07	-0.68963665
34	0xbf39693e	-0.7242621
35	0x3f8b5e1c	1.0888095
36	0xbf517a0f	-0.8182687
37	0xbf75dc73	-0.96039504
38	0xbf4bf558	-0.7967124
39	0xbf1a558c	-0.60286784
40	0xc11cac2c	-9.792034
41	0xbf11476b	-0.567496
42	0xbed3c6e8	-0.4136269
43	0x3d733931	0.059380714
44	0x3e9cc96d	0.30622426
45	0x3f88e5fa	1.0695183
46	0xbf916c61	-1.13612
47	0xbf0f8ac2	-0.560711
48	0xbfc89472	-1.5670302
49	0xbf74ff7f	-0.95702356
50	0x3f32d2ae	0.6985272
51	0xbf08dc3c	-0.5346105
52	0xbf44bccb	-0.76850575
53	0xbecbf345	-0.39834037
54	0xbf4afcba	-0.7929188
55	0x3f4716dd	0.7776926
56	0xbf2a9f1d	-0.6664904
57	0xbf3f06c5	-0.74619704
58	0xbf3a8d20	-0.7287159
59	0xbf53b43e	-0.826969
60	0xbec6dc78	-0.3884008
61	0xbf89d57c	-1.0768275
62	0xbf869d88	-1.0516825
63	0xbf80979f	-1.0046271
64	0xbf8419f4	-1.032042
65	0x3fe760a8	1.8076372
66	0xbf7d469f	-0.98935884
67	0xbf49a388	-0.78765154
68	0xbf8b2b97	-1.0872678
69	0xbf822c7b	-1.0169824
70	0x3ff0b811	1.8806173
71	0xbf56328b	-0.8367087
72	0xbf4dabe5	-0.80340415
73	0xbf398fc3	-0.7248499
74	0xbf605b30	-0.8763914
75	0x3f82c8a4	1.0217481
76	0xbf1075c7	-0.56429714
77	0xbf386604	-0.72030663
78	0xbf238179	-0.63869435
79	0xbf411fec	-0.75439334
80	0xbef5270d	-0.47881356
81	0xbf538e8b	-0.8263938
82	0xbf5e2470	-0.8677435
83	0xbf4eaad5	-0.8072942
84	0xbf6d73e2	-0.9275495
85	0x3f657213	0.8962719
86	0xbf03a88d	-0.51429063
87	0xbf2aad0a	-0.66670287
88	0xbeeef719	-0.46672896
89	0xbf429e3d	-0.760227
90	0x3f86b063	1.0522579
91	0xbf545361	-0.82939726
92	0xbf36f240	-0.71463394
93	0xbeff5c0e	-0.4987492
94	0xbeb67caa	-0.35641986
95	0x3f63f567	0.8904633
96	0xbf29b673	-0.6629402
97	0xbef12346	-0.47097224
98	0xbeef432e	-0.46730942
99	0xbf46ba25	-0.77627784
100	0x3f8dfade	1.1092184
101	0xbea7ba77	-0.3275945
102	0xbeecf888	-0.46283364
103	0xbe8bd07b	-0.27307495
104	0xbea63962	-0.32465655
105	0x3f8ada4d	1.084787
106	0xbeede611	-0.4646459
107	0xbf2b3ddf	-0.6689128
108	0xbf1f623d	-0.62259275
109	0xbed50c3d	-0.416109
110	0xbf2c3654	-0.672704
111	0xbf7ce95c	-0.9879358
112	0xbf95c925	-1.170201
113	0xbf7be78a	-0.98400176
114	0xbf9ded04	-1.2337956
115	0x3ffdc5a6	1.9825943
116	0xbf48b6a6	-0.784037
117	0xbf54db39	-0.8314701
118	0xbf4f2db8	-0.80929136
119	0xbf6e36ac	-0.9305217
120	0x3f725c8c	0.94672465
121	0xbf3d8386	-0.74028814
122	0xbf581d3d	-0.84419614
123	0xbf056051	-0.5210009
124	0xbf1ac7ed	-0.6046131
125	0xbee35176	-0.44398087
126	0xbfaa8f71	-1.3325025
127	0xbfc11cd1	-1.5086919
128	0xbf989c59	-1.1922714
129	0xbf9b6d4a	-1.2142727
130	0x3fd275cc	1.6442199
131	0xbf3d2c1d	-0.73895437
132	0xbf34fb86	-0.70696294
133	0xbf3deef1	-0.7419272
134	0xbf2e350d	-0.680497
135	0xbfd4961b	-1.6608309
136	0xbebaba1d	-0.36470118
137	0xbe88a8b9	-0.26691225
138	0xbe49af29	-0.19695725
139	0xbe8428d2	-0.25812393
140	0x3f6b39ac	0.91884875
141	0xbde5d0b0	-0.112214446
142	0xbf2b576b	-0.66930264
143	0xbf60d638	-0.8782687
144	0xbf2d5ad8	-0.6771674
145	0x3f8e7582	1.112961
146	0xbf3a5a3c	-0.72793937
147	0xbf1c073e	-0.6094855
148	0xbea80d17	-0.32822487
149	0xbf1af67c	-0.60532355
150	0xbf3f55a4	-0.7474005
151	0xbf852629	-1.040227
152	0xbf4d60f0	-0.8022604
153	0xbf7b83fd	-0.98248273
154	0xbf53fe73	-0.82810134
155	0xbf3c15a6	-0.7347053
156	0xbf91bad1	-1.1385137
157	0xbf92b284	-1.1460729
158	0xbfb22321	-1.391697
159	0xbf971ec4	-1.1806264
160	0x3d03a108	0.032135993
161	0xbf6d6494	-0.92731595
162	0x3f5f0c90	0.87128544
163	0x3c849dd5	0.016188541
164	0xbec15ae8	-0.37764668
165	0xbeb08152	-0.34473664
166	0xbebbd046	-0.36682338
167	0xbf00bf22	-0.50291646
168	0xbebe63d5	-0.3718554
169	0xbe83be94	-0.25731337
170	0x3e07e9a8	0.13272727
171	0xbff59737	-1.9186772
172	0x3fbe8962	1.4885676
173	0xbe11dbf2	-0.14244059
174	0xbeeaafc5	-0.45837227
175	0x3ce0578a	0.027385492
176	0xbfb1ac3b	-1.3880686
177	0x3f6ed9d5	0.93301135
178	0xbf4372b8	-0.7634692
179	0xbf954eaa	-1.1664631
180	0xbf4289e2	-0.7599164
181	0xbf9abda1	-1.208912
182	0xc03b9d3b	-2.9314716
183	0xbe1dfcef	-0.15428518
184	0x3f4af7d7	0.79284424
185	0x3ea02077	0.3127477
186	0x3fb86049	1.4404384
187	0xbf8c43b3	-1.095816
188	0xbf7bb524	-0.98323274
189	0x3ed96a4b	0.42463908
190	0x3d585648	0.05281666
191	0xbf85aff8	-1.0444326
192	0xbf878c27	-1.0589646
193	0xc018f424	-2.3899012
194	0xbdf6b300	-0.1204586
195	0x3eaebbde	0.34127706
196	0xbfc0bcb6	-1.505759
197	0xc0b590eb	-5.67394
198	0xbe87dd1e	-0.26535887
199	0x3fad7d4b	1.3553861
200	0xbff780a6	-1.9336135
201	0xbf0b4132	-0.54396355
202	0xc02401bf	-2.5626066
203	0xbfbb6521	-1.4640237
204	0xc089403d	-4.2890916
205	0x3eacfd93	0.33787212
206	0x3fd6267c	1.6730494
207	0x3fbc345e	1.4703481
208	0xbf87c3b5	-1.06066
209	0xbfcb827c	-1.5899196
210	0xbea8e7a3	-0.32989225
211	0x3eb51b20	0.35372257
212	0xbeb1a7eb	-0.34698424
213	0xbfd15141	-1.6352922
214	0xbf94fb8a	-1.1639264
215	0xbe1f7682	-0.15572551
216	0xbf4777d1	-0.779172
217	0x3f05732f	0.5212888
218	0x3cd8486e	0.026401725
219	0xbcbdaba7	-0.02315314
220	0x3db3f57f	0.08787059
221	0x3eea0967	0.45710298
222	0xbf568843	-0.8380167
223	0xbf1fde4e	-0.62448585
224	0xbf1e7bd5	-0.619077
225	0xc007280d	-2.1118195
226	0xbd432585	-0.047643203
227	0x3f5e4df0	0.86837673
228	0x3ee0efe0	0.4393301
229	0xc03d02a5	-2.9532864
230	0xbf811618	-1.0084867
231	0xbf1245ff	-0.57138056
232	0xbf058167	-0.5215058
233	0xbf3a7387	-0.7283253
234	0xbf2426ce	-0.6412171
235	0x3dda6cd6	0.1066529
236	0xbfffe939	-1.9993049
237	0x3f635c34	0.88812566
238	0xbe56f994	-0.20993644
239	0xbe021028	-0.12701476
240	0xbe14158f	-0.14461349
241	0xbef0ec9e	-0.47055525
242	0xbe8a04ad	-0.26956692
243	0xbe68b707	-0.2272607
244	0xbd6eebf3	-0.058330487
245	0xbeb2cb4b	-0.34920725
246	0xbf962038	-1.1728582
247	0xbfb5f8c6	-1.4216545
248	0xbd63dd06	-0.055630706
249	0xbe0750b6	-0.13214383
250	0xbd60f3db	-0.05492006
251	0xbe6665ee	-0.2249982
252	0xbf283aca	-0.65714705
253	0xbee54ce5	-0.44785228
254	0x3da031cc	0.07821998
255	0x3d844d2d	0.064600326

decoder.lstm.weight_hh_l0 f4 [128, 32]
0	0xbe71b2a1	-0.23603298
1	0xbd632bd8	-0.055461735
2	0x3f457ba4	0.77141786
3	0x3f572b2b	0.84050244
4	0x3f3e54e7	0.743483
5	0x3e80f452	0.25186402
6	0x3df38b42	0.11891796
7	0x3e1a8e80	0.15093422
8	0xbfebd28d	-1.842363
9	0x3fb28f6f	1.3950022
10	0x3e9decef	0.30844828
11	0x3e95dd62	0.29270464
12	0x3ea5cb28	0.32381558
13	0xbf7076e4	-0.9393141
14	0x3e92fb2d	0.28707257
15	0xbe94da64	-0.2907287
16	0x3ed8e276	0.42360276
17	0xbe1f706f	-0.15570234
18	0xbd069b2e	-0.032862835
19	0xbdb6c9c8	-0.089252055
20	0x3ea18c41	0.31552318
21	0x3d47d851	0.04879028
22	0xbefc287c	-0.49249637
23	0x3e7c8617	0.24660526
24	0x3e85e48c	0.2615093
25	0xbf8a6e99	-1.0815002
26	0x3d467a37	0.048456397
27	0x3f5e8ff8	0.8693843
28	0x3d551067	0.052017596
29	0x3f8f648c	1.120256
30	0x3c5d5737	0.013509563
31	0x3e92788b	0.28607592
32	0xbc574105	-0.01313806
33	0xbe2f75df	-0.17134808
34	0x3e4a527c	0.19758028
35	0x3cf1d102	0.029518608
36	0x3da30e59	0.07961721
37	0x3d421c4f	0.04739028
38	0xbe891c85	-0.2677957
39	0x3cf65b6f	0.030072896
40	0xbcf8623a	-0.030320276
41	0xbe27ad93	-0.16374807
42	0xbe04f613	-0.12984495
43	0xbc98f8b0	-0.018673271
44	0x3dbd6303	0.092474006
45	0xbe8ea330	-0.27858877
46	0x3e5bf937	0.21481787
47	0x3d906290	0.07050049
48	0xbdf5b4b1	-0.11997355
49	0x3d8f6b86	0.0700293
50	0xbe6d880b	-0.23196428
51	0x3e2165ec	0.15761536
52	0xbdbadaaf	-0.09123742
53	0x3dbff1bb	0.09372278
54	0xbe13e41b	-0.14442484
55	0x3db03f0f	0.086057775
56	0xbe9071b5	-0.28211752
57	0xbe46bddd	-0.19408365
58	0x3defb6c7	0.11704784
59	0x3e2b7193	0.16742544
60	0xbcfd405c	-0.030914478
61	0x3dbc2e4d	0.09188519
62	0x3dfd0787	0.12354951
63	0x3c6a7724	0.014310632
64	0xbdc0eb04	-0.09419826
65	0x3ef06a38	0.46956038
66	0xbece8b89	-0.40340832
67	0xbe1253ff	-0.14289854
68	0xbcdc4697	-0.026889129
69	0xbdac05a9	-0.08399517
70	0x3d281ab1	0.04104108
71	0xbee91f39	-0.45531633
72	0x3deb20ae	0.114808425
73	0xbf42968d	-0.7601097
74	0xbdcc96cc	-0.099897
75	0xbe5ca2b1	-0.21546437
76	0xbf665b20	-0.89982796
77	0x3e483679	0.1955203
78	0xbf0cef57	-0.55052704
79	0xbecdcfb7	-0.40197536
80	0x3eb5e12d	0.35523358
81	0xbe20525d	-0.15656419
82	0x3e01f800	0.1269226
83	0x3d8623a4	0.06549767
84	0xbdd60cbd	-0.104516484
85	0xbde391e6	-0.11111812
86	0xbe54de15	-0.20787843
87	0x3d9b3d13	0.07580008
88	0x3c88539a	0.016641427
89	0x3f02f5cc	0.51156306
90	0x3d99de1d	0.07513068
91	0x3e8ffae0	0.2812109
92	0x3ebcda13	0.36885127
93	0xbedb92b1	-0.42885354
94	0x3e8227d0	0.25421
95	0xbc8b517c	-0.017006628
96	0xbef2a09a	-0.47388154
97	0x3d6f8675	0.058477838
98	0x3edd2a6c	0.43196428
99	0x3efae091	0.48999456
100	0x3d811c70	0.06304252
101	0x3e15863e	0.1460199
102	0xbf038df5	-0.51388484
103	0x3e4881fa	0.19580832
104	0xbfbbb3ff	-1.4664305
105	0x3da590b8	0.080842435
106	0xbec2c747	-0.38042662
107	0xbe0f1949	-0.1397449
108	0xbea3a15d	-0.31959048
109	0xbf7c6831	-0.98596483
110	0x3e9fbd1f	0.31198975
111	0x3de63028	0.11239654
112	0x3e4148d4	0.18875438
113	0xbf0ec780	-0.5577316
114	0xbe896b4e	-0.2683968
115	0x3e4faef9	0.2028159
116	0xbe9dbcdb	-0.30808148
117	0x3ea067c1	0.31329158
118	0xbf095d49	-0.53657967
119	0x3ddaee29	0.10689957
120	0xbe749d81	-0.23888208
121	0x3ed032cb	0.40663752
122	0xbe28575b	-0.16439573
123	0x3f6106eb	0.8790118
124	0x3e8cc717	0.27495643
125	0x3fa610d9	1.2973891
126	0xbed4e23c	-0.41578853
127	0xbe21ee1d	-0.1581349
128	0xbdfb5422	-0.122719064
129	0x3f17c58d	0.59285814
130	0xbe98e2f2	-0.29860646
131	0x3dfc060f	0.12305843
132	0x3f425975	0.7591775
133	0x3d7d1a42	0.06179262
134	0xbc27943b	-0.010228212
135	0xbea1fa17	-0.31636116
136	0x3f5b65bd	0.85702115
137	0xbcbae044	-0.022812016
138	0x3e3a8428	0.18214476
139	0xbe3686b7	-0.17824827
140	0xbf9b5ca1	-1.2137643
141	0xbf2927f1	-0.6607657
142	0xbd0f327b	-0.03496025
143	0xbcc1001a	-0.023559619
144	0x3e21b8a8	0.15793097
145	0x3e9912a7	0.29897043
146	0x3e25c0d7	0.16186844
147	0x3d6b96e2	0.05751694
148	0xbd953c09	-0.072868414
149	0x3c84eeab	0.016227087
150	0xbe83915a	-0.25696832
151	0x3e8f5639	0.2799547
152	0xbe008282	-0.12549785
153	0x3f5169ab	0.8180186
154	0x3eb38467	0.35061952
155	0x3f0ce589	0.5503774
156	0x3db64d63	0.08901479
157	0xbeeefde7	-0.46678087
158	0x3e78b417	0.24287449
159	0x3defb9aa	0.117053345
160	0xbf10a328	-0.56498957
161	0xbd137e80	-0.03600931
162	0x3f0a9e34	0.5414765
163	0x3e5e3a90	0.21702027
164	0x3f31c043	0.69433993
165	0x3f021218	0.5080886
166	0xbf96b1db	-1.1773027
167	0x3d1a08e6	0.037606142
168	0xbeee691e	-0.46564573
169	0x3f870633	1.0548767
170	0x3f684fb7	0.90746635
171	0xbf6ca33d	-0.9243658
172	0x3d95a30a	0.07306488
173	0xbfcd6a69	-1.6048099
174	0x3b004a4b	0.0019575532
175	0x3d4bbe51	0.049742047
176	0x3efda388	0.49538827
177	0x3c6799f2	0.0141358245
178	0x3d102474	0.035191014
179	0x3e74637b	0.23866074
180	0x3f6e5bde	0.9310893
181	0x3d37e69b	0.044897657
182	0xbe5e1e4d	-0.21691246
183	0x406c1cd1	3.6892588
184	0xbcd43420	-0.025903761
185	0xbf2a3787	-0.6649098
186	0x3db43540	0.08799219
187	0x3f66e0b5	0.90186626
188	0x3e81e60e	0.2537083
189	0x3ebfcf5a	0.37462884
190	0x3e2b9b92	0.16758564
191	0xbc9c4d62	-0.019079868
192	0xbf2679ec	-0.6502979
193	0xbda3bf89	-0.07995517
194	0x3ec27dfa	0.37986737
195	0x3ea7a24b	0.32741007
196	0x3f77d4db	0.96809167
197	0xbe85d023	-0.26135358
198	0x3e456b98	0.19279325
199	0x3ed090fc	0.40735614
200	0x3dea0c19	0.11428089
201	0xbed170fa	-0.40906507
202	0x3f19bb58	0.6005149
203	0xbd071fb0	-0.032989204
204	0x3e601e66	0.21886596
205	0xbe579b9e	-0.21055457
206	0x3ec9c0e7	0.39404985
207	0x3ed5a40c	0.4172672
208	0xbe37e6d8	-0.17959154
209	0xbeb08c68	-0.3448212
210	0xbefbe35c	-0.491969
211	0xbdb88665	-0.09010009
212	0xbd258bf3	-0.04041667
213	0x3eedfe93	0.46483287
214	0xbe13dbeb	-0.14439361
215	0x3ddf34e6	0.108987615
216	0xbec93243	-0.3929616
217	0xbe160424	-0.14650017
218	0xbd88f61e	-0.06687568
219	0xbc1f7207	-0.009731776
220	0xbe1517f1	-0.14559914
221	0x3f97567f	1.1823272
222	0xbe0db223	-0.13837485
223	0xbebdb9ee	-0.37055916
224	0xbf5062d3	-0.81400794
225	0x3dcabfd3	0.09899869
226	0x3f130244	0.5742533
227	0x3f117f21	0.5683461
228	0x3f14d254	0.58133435
229	0x3c8fafac	0.017539822
230	0x3eee3cf5	0.46530882
231	0x3db88d22	0.09011294
232	0xbf88a2cb	-1.067468
233	0x3ed8ed40	0.42368507
234	0x3e117364	0.14204174
235	0xbe9cdd05	-0.30637375
236	0x3c0810f5	0.008304824
237	0xbeda3c0c	-0.42623937
238	0x3d138d38	0.03602335
239	0xbe847f9e	-0.25878614
240	0x3dd89229	0.10574753
241	0xbf1b1bf8	-0.6058955
242	0xbc34e675	-0.011041273
243	0x3e4c3a2a	0.19944063
244	0x3de92e43	0.11385777
245	0x3c8fe1c9	0.017563717
246	0xbe8053cf	-0.2506394
247	0x3e52f72d	0.20602103
248	0xbd5d04d0	-0.053959668
249	0xbde3071e	-0.11085342
250	0x3e0b7d6e	0.13622066
251	0x3f0439e3	0.5165083
252	0xbbc40068	-0.0059814937
253	0x3f397965	0.7245086
254	0xbd94d4da	-0.07267161
255	0xbe2114f8	-0.15730655

decoder.lstm.bias_ih_l0 f4 [128]
0	0xbf2cf8e8	-0.675673
1	0xbfbccec6	-1.4750602
2	0xbf248e05	-0.64279205
3	0xbf1ef0a9	-0.6208597
4	0xbf2cb4ea	-0.6746355
5	0xbf868457	-1.0509137
6	0xbf4bdd5c	-0.7963464
7	0xbf309d34	-0.6898987
8	0xbf8053ce	-1.0025575
9	0xbf8ceb81	-1.100937
10	0xbed37bfd	-0.41305533
11	0xbf448f57	-0.7678122
12	0xbfa27855	-1.2692972
13	0xbf894ddb	-1.0726885
14	0xbf4c227d	-0.79740125
15	0xbf4afc23	-0.7929098
16	0xbf88ba17	-1.068179
17	0xbecfaa0e	-0.4055943
18	0xbf342c5a	-0.70380175
19	0xbedd1fcf	-0.4318833
20	0xbee5594c	-0.4479469
21	0xbf147ca5	-0.5800269
22	0xbfa87e25	-1.3163496
23	0xbf6335b1	-0.887538
24	0xbf309eca	-0.6899229
25	0xbfc68dd7	-1.5512036
26	0xbf2a56d3	-0.66538733
27	0xbea3d0b6	-0.3199517
28	0xbf42c004	-0.7607424
29	0xbf2489af	-0.6427259
30	0xbf927699	-1.1442443
31	0xbfc62a87	-1.5481728
32	0xbdba811d	-0.09106658
33	0xbf0e2179	-0.55519825
34	0xbc68e464	-0.014214609
35	0xbf37b656	-0.717626
36	0xbf107c6d	-0.5643986
37	0xbe785102	-0.24249652
38	0xbf99eac7	-1.2024773
39	0xbef49210	-0.47767687
40	0xc0099be4	-2.1501398
41	0xbda91159	-0.08255262
42	0xbf668082	-0.9003984
43	0xbd974655	-0.07386462
44	0xbf28d684	-0.65952325
45	0xbfab9732	-1.3405516
46	0xbf203e5b	-0.62595147
47	0xbd81eeeb	-0.06344398
48	0xbe95185b	-0.29120144
49	0xbf0c58d1	-0.54823023
50	0xbebbda4a	-0.3668998
51	0xbf207428	-0.6267724
52	0xbeea1fe7	-0.45727465
53	0xbdf72348	-0.12067276
54	0xbf8c6d4a	-1.0970852
55	0xbf8c9980	-1.0984344
56	0xbd29f4c3	-0.04149319
57	0xbf922b1a	-1.1419404
58	0xbefe9b21	-0.4972773
59	0xbeb93fc6	-0.36181468
60	0xbef11ff7	-0.470947
61	0xbf07b116	-0.53004587
62	0xbf95e4fe	-1.1710508
63	0xbf4847af	-0.7823438
64	0xbe484cb3	-0.19560508
65	0xbce44e8d	-0.027869487
66	0xb9bedcf2	-0.0003640424
67	0xbe0e0ebb	-0.13872807
68	0x3db94903	0.09047129
69	0x3ce0d89a	0.027447034
70	0xbe029d61	-0.12755348
71	0x3d845d3b	0.06463095
72	0x3f4dbb0b	0.8036353
73	0x3d43d901	0.047814373
74	0x3c01b777	0.007917277
75	0xbd87fa52	-0.06639542
76	0xbd6a441c	-0.05719386
77	0xbd45b584	-0.04826881
78	0xbd3bec55	-0.04587968
79	0x3df1271a	0.11775036
80	0xbd3a5fe9	-0.045501623
81	0xbd543de0	-0.05181682
82	0xbe2c8968	-0.16849291
83	0xbdc9882e	-0.09840427
84	0x3d805b78	0.06267446
85	0xbe03f70f	-0.12887214
86	0xbcb7fc77	-0.022459252
87	0x3da5e4f4	0.0810031
88	0xbd3636eb	-0.044485968
89	0xbca707ce	-0.020389464
90	0xbcb9c4a6	-0.022676777
91	0x3da9a4f8	0.082834184
92	0xbde231a8	-0.110446274
93	0x3dfd88ea	0.1237963
94	0x3db00955	0.0859553
95	0xbdafee81	-0.08590413
96	0xbf492985	-0.7857898
97	0xbfc451aa	-1.5337422
98	0xbf20b5df	-0.62777513
99	0xbf3481d5	-0.7051061
100	0xbf064e33	-0.5246307
101	0xbf953144	-1.165566
102	0xbf2f0142	-0.68361294
103	0xbf2a608a	-0.66553557
104	0xbec7942a	-0.38980228
105	0xbfbe1c74	-1.4852433
106	0xbf082ca8	-0.5319314
107	0xbf5734d5	-0.8406499
108	0xbfaac308	-1.3340769
109	0xbf45e7ce	-0.7730683
110	0xbf0e113a	-0.55495036
111	0xbf11252f	-0.5669736
112	0xbfe398a9	-1.7780963
113	0xbf351eb6	-0.70749986
114	0xbf2089a5	-0.6271003
115	0xbf30c531	-0.6905089
116	0xbea80533	-0.32816467
117	0xbf1bbfa8	-0.6083932
118	0xbfcfc5aa	-1.6232197
119	0xbf4a7860	-0.7908993
120	0xbf1e1452	-0.61749756
121	0xbfe0497a	-1.7522423
122	0xbf394fe7	-0.72387546
123	0x3fee134d	1.859964
124	0xbf1505aa	-0.5821177
125	0xbf190550	-0.5977373
126	0xbfd64de9	-1.6742526
127	0xbfd5003d	-1.6640698

decoder.lstm.bias_hh_l0 f4 [128]
0	0xbf1dc087	-0.616219
1	0xbfbc8ef7	-1.473113
2	0xbeee84d0	-0.46585703
3	0xbf1f93a8	-0.6233468
4	0xbf5fa27c	-0.87357306
5	0xbf601710	-0.8753519
6	0xbf1eed65	-0.62080985
7	0xbf253d72	-0.64546883
8	0xbf7996a0	-0.9749546
9	0xbf87e7f9	-1.0617667
10	0xbef0ec9c	-0.4705552
11	0xbf4ea269	-0.8071657
12	0xbf924d60	-1.1429863
13	0xbf623faa	-0.88378394
14	0xbf6e2243	-0.9302103
15	0xbf1b941b	-0.60772866
16	0xbf94bb5b	-1.1619676
17	0xbf2e3121	-0.68043715
18	0xbf01ab76	-0.50652254
19	0xbf13534a	-0.57548964
20	0xbf01253f	-0.5044746
21	0xbef84b42	-0.48494917
22	0xbfc4ec4b	-1.5384611
23	0xbf7b60c7	-0.98194546
24	0xbf0b8249	-0.54495674
25	0xbfc94f80	-1.5727386
26	0xbf595c67	-0.8490662
27	0xbe83baa7	-0.25728342
28	0xbf186bb7	-0.5953936
29	0xbf2a2585	-0.664635
30	0xbf955c20	-1.1668739
31	0xbfdf7185	-1.7456518
32	0xbe90471e	-0.28179258
33	0xbf123f3c	-0.5712774
34	0xbcbd81be	-0.023133155
35	0xbf22de10	-0.6362009
36	0xbef8f4f7	-0.48624393
37	0xbe5b28fc	-0.21402353
38	0xbfa6b1eb	-1.3023046
39	0xbec9f3e4	-0.39443886
40	0xc016f027	-2.3584077
41	0xbd90e40b	-0.07074746
42	0xbf5b2a52	-0.8561145
43	0xbe1aad22	-0.15105107
44	0xbf4768a0	-0.7789402
45	0xbfb0d107	-1.381379
46	0xbf03ce32	-0.51486504
47	0xbe5876fd	-0.2113914
48	0xbf03a57f	-0.514244
49	0xbf312515	-0.6919721
50	0xbedef210	-0.43544054
51	0xbf06b200	-0.52615356
52	0xbef35f6e	-0.47533745
53	0xbe3b26cb	-0.18276517
54	0xbf9363a2	-1.151478
55	0xbf9fece4	-1.2494168
56	0xbe8e557f	-0.27799603
57	0xbfa5180b	-1.2897962
58	0xbf430fb4	-0.76195836
59	0xbf03fe63	-0.5156004
60	0xbf140ede	-0.57835186
61	0xbf1177f8	-0.5682368
62	0xbf91b699	-1.1383849
63	0xbf3eb3a3	-0.74492854
64	0xbd9785c4	-0.07398561
65	0xbcbd57aa	-0.02311309
66	0x3d750ea6	0.059828423
67	0x3dfa846f	0.12232291
68	0x3dee1726	0.11625509
69	0x3e914a97	0.2837722
70	0xbd8ef925	-0.06981114
71	0x3df3b41b	0.11899587
72	0x3f82b3d1	1.0211126
73	0x3d97e157	0.07416027
74	0xbd983a7b	-0.07433029
75	0xbcfc0fff	-0.030769346
76	0xbccb2676	-0.024798613
77	0x3e3e31ad	0.18573637
78	0xbdeecddc	-0.11660358
79	0x3df82617	0.1211664
80	0xbd0ae693	-0.0339113
81	0x3e1106d2	0.14162758
82	0xbd9ef8fc	-0.07762334
83	0x3e73df30	0.23815608
84	0x3eaee5f3	0.34159812
85	0xbc95dd29	-0.018293934
86	0xbdaa9a0e	-0.08330165
87	0xbc4caaca	-0.012491891
88	0xbdab2f87	-0.083586745
89	0xbddd5e0d	-0.108089544
90	0x3be820ce	0.0070839887
91	0x3dc0d847	0.09416252
92	0x3c43adab	0.011943261
93	0xbb438b96	-0.0029837838
94	0x3d994af2	0.07484998
95	0xbc337a0d	-0.010954392
96	0xbf305a23	-0.6888754
97	0xbfb95255	-1.4478251
98	0xbf089d42	-0.53364956
99	0xbf272ab9	-0.65299565
100	0xbf2aeddf	-0.6676921
101	0xbf89caee	-1.0765054
102	0xbf1cdb9a	-0.61272585
103	0xbf1deb60	-0.6168728
104	0xbea4f883	-0.3222085
105	0xbfb715bd	-1.4303509
106	0xbf48aef3	-0.7839195
107	0xbf45872f	-0.771594
108	0xbfbc0351	-1.4688512
109	0xbf314de3	-0.6925947
110	0xbf3a0a91	-0.72672373
111	0xbebcd494	-0.36880934
112	0xbfd800ed	-1.6875283
113	0xbf3192ff	-0.69364923
114	0xbefa8a64	-0.4893371
115	0xbf2d181f	-0.6761493
116	0xbeeb68a2	-0.45978266
117	0xbf241aab	-0.6410319
118	0xbfdcc1cd	-1.7246643
119	0xbf11d2a8	-0.5696206
120	0xbf08a34d	-0.5337418
121	0xbfd7c6fd	-1.6857601
122	0xbf083bac	-0.5321605
123	0x3fecce82	1.8500521
124	0xbf1b6510	-0.60701084
125	0xbe9ac041	-0.30224803
126	0xbfdb70ea	-1.7143834
127	0xbfc56e63	-1.5424312

decoder.linear.weight f4 [1, 32]
0	0x3dbe3f62	0.09289433
1	0xbaab897e	-0.001308724
2	0xbe823728	-0.25432706
3	0xbef33a53	-0.47505435
4	0xbe5adb0d	-0.21372624
5	0xbe578209	-0.21045698
6	0x3f03c182	0.51467144
7	0xbeac0eab	-0.3360494
8	0xbf95f60a	-1.171571
9	0xbdc302bc	-0.09522006
10	0x3e588e19	0.21147956
11	0x3dde8ba3	0.10866477
12	0xba1b88ef	-0.00059331855
13	0xbf06488e	-0.5245446
14	0x3f82734e	1.0191438
15	0xbea7c330	-0.32766104
16	0xba6805a1	-0.00088509364
17	0xbe9cfecf	-0.30663154
18	0x3ebb5a7c	0.36592472
19	0xbea67820	-0.32513523
20	0x3efb60a1	0.4909716
21	0xbed17f69	-0.4091752
22	0x3b988a2f	0.0046551446
23	0xbf799a57	-0.9750113
24	0x3e8a7da0	0.2704897
25	0x3b6dca36	0.0036283857
26	0x3f599c19	0.8500381
27	0xbfd25111	-1.643099
28	0x3e8a95bd	0.27067366
29	0xbee70d51	-0.45127347
30	0xbac07de2	-0.0014685954
31	0xba3e03aa	-0.0007248471
