results/decoder_not_recurrent_LSTM_enc_dec_output/140_model.pt (torch, 860225 bytes, 10 tensors)

output_zeros f4 [399, 512, 1]
000000 00 00 00 00 00 00 00 00 00 00 00 00 00 00 00 00
       0.0 0.0 0.0 0.0
000010 00 00 00 00 00 00 00 00 00 00 00 00 00 00 00 00
       0.0 0.0 0.0 0.0
000020 00 00 00 00 00 00 00 00 00 00 00 00 00 00 00 00
       0.0 0.0 0.0 0.0
000030 00 00 00 00 00 00 00 00 00 00 00 00 00 00 00 00
       0.0 0.0 0.0 0.0
000040 00 00 00 00 00 00 00 00 00 00 00 00 00 00 00 00
       0.0 0.0 0.0 0.0
000050 00 00 00 00 00 00 00 00 00 00 00 00 00 00 00 00
       0.0 0.0 0.0 0.0
000060 00 00 00 00 00 00 00 00 00 00 00 00 00 00 00 00
       0.0 0.0 0.0 0.0
000070 00 00 00 00 00 00 00 00 00 00 00 00 00 00 00 00
       0.0 0.0 0.0 0.0
000080 00 00 00 00 00 00 00 00 00 00 00 00 00 00 00 00
       0.0 0.0 0.0 0.0
000090 00 00 00 00 00 00 00 00 00 00 00 00 00 00 00 00
       0.0 0.0 0.0 0.0
0000a0 00 00 00 00 00 00 00 00 00 00 00 00 00 00 00 00
       0.0 0.0 0.0 0.0
0000b0 00 00 00 00 00 00 00 00 00 00 00 00 00 00 00 00
       0.0 0.0 0.0 0.0
0000c0 00 00 00 00 00 00 00 00 00 00 00 00 00 00 00 00
       0.0 0.0 0.0 0.0
0000d0 00 00 00 00 00 00 00 00 00 00 00 00 00 00 00 00
       0.0 0.0 0.0 0.0
0000e0 00 00 00 00 00 00 00 00 00 00 00 00 00 00 00 00
       0.0 0.0 0.0 0.0
0000f0 00 00 00 00 00 00 00 00 00 00 00 00 00 00 00 00
       0.0 0.0 0.0 0.0
000100 00 00 00 00 00 00 00 00 00 00 00 00 00 00 00 00
       0.0 0.0 0.0 0.0
000110 00 00 00 00 00 00 00 00 00 00 00 00 00 00 00 00
       0.0 0.0 0.0 0.0
000120 00 00 00 00 00 00 00 00 00 00 00 00 00 00 00 00
       0.0 0.0 0.0 0.0
000130 00 00 00 00 00 00 00 00 00 00 00 00 00 00 00 00
       0.0 0.0 0.0 0.0
000140 00 00 00 00 00 00 00 00 00 00 00 00 00 00 00 00
       0.0 0.0 0.0 0.0
000150 00 00 00 00 00 00 00 00 00 00 00 00 00 00 00 00
       0.0 0.0 0.0 0.0
000160 00 00 00 00 00 00 00 00 00 00 00 00 00 00 00 00
       0.0 0.0 0.0 0.0
000170 00 00 00 00 00 00 00 00 00 00 00 00 00 00 00 00
       0.0 0.0 0.0 0.0
000180 00 00 00 00 00 00 00 00 00 00 00 00 00 00 00 00
       0.0 0.0 0.0 0.0
000190 00 00 00 00 00 00 00 00 00 00 00 00 00 00 00 00
       0.0 0.0 0.0 0.0
0001a0 00 00 00 00 00 00 00 00 00 00 00 00 00 00 00 00
       0.0 0.0 0.0 0.0
0001b0 00 00 00 00 00 00 00 00 00 00 00 00 00 00 00 00
       0.0 0.0 0.0 0.0
0001c0 00 00 00 00 00 00 00 00 00 00 00 00 00 00 00 00
       0.0 0.0 0.0 0.0
0001d0 00 00 00 00 00 00 00 00 00 00 00 00 00 00 00 00
       0.0 0.0 0.0 0.0
0001e0 00 00 00 00 00 00 00 00 00 00 00 00 00 00 00 00
       0.0 0.0 0.0 0.0
0001f0 00 00 00 00 00 00 00 00 00 00 00 00 00 00 00 00
       0.0 0.0 0.0 0.0
000200 00 00 00 00 00 00 00 00 00 00 00 00 00 00 00 00
       0.0 0.0 0.0 0.0
000210 00 00 00 00 00 00 00 00 00 00 00 00 00 00 00 00
       0.0 0.0 0.0 0.0
000220 00 00 00 00 00 00 00 00 00 00 00 00 00 00 00 00
       0.0 0.0 0.0 0.0
000230 00 00 00 00 00 00 00 00 00 00 00 00 00 00 00 00
       0.0 0.0 0.0 0.0
000240 00 00 00 00 00 00 00 00 00 00 00 00 00 00 00 00
       0.0 0.0 0.0 0.0
000250 00 00 00 00 00 00 00 00 00 00 00 00 00 00 00 00
       0.0 0.0 0.0 0.0
000260 00 00 00 00 00 00 00 00 00 00 00 00 00 00 00 00
       0.0 0.0 0.0 0.0
000270 00 00 00 00 00 00 00 00 00 00 00 00 00 00 00 00
       0.0 0.0 0.0 0.0
000280 00 00 00 00 00 00 00 00 00 00 00 00 00 00 00 00
       0.0 0.0 0.0 0.0
000290 00 00 00 00 00 00 00 00 00 00 00 00 00 00 00 00
       0.0 0.0 0.0 0.0
0002a0 00 00 00 00 00 00 00 00 00 00 00 00 00 00 00 00
       0.0 0.0 0.0 0.0
0002b0 00 00 00 00 00 00 00 00 00 00 00 00 00 00 00 00
       0.0 0.0 0.0 0.0
0002c0 00 00 00 00 00 00 00 00 00 00 00 00 00 00 00 00
       0.0 0.0 0.0 0.0
0002d0 00 00 00 00 00 00 00 00 00 00 00 00 00 00 00 00
       0.0 0.0 0.0 0.0
0002e0 00 00 00 00 00 00 00 00 00 00 00 00 00 00 00 00
       0.0 0.0 0.0 0.0
0002f0 00 00 00 00 00 00 00 00 00 00 00 00 00 00 00 00
       0.0 0.0 0.0 0.0
000300 00 00 00 00 00 00 00 00 00 00 00 00 00 00 00 00
       0.0 0.0 0.0 0.0
000310 00 00 00 00 00 00 00 00 00 00 00 00 00 00 00 00
       0.0 0.0 0.0 0.0
000320 00 00 00 00 00 00 00 00 00 00 00 00 00 00 00 00
       0.0 0.0 0.0 0.0
000330 00 00 00 00 00 00 00 00 00 00 00 00 00 00 00 00
       0.0 0.0 0.0 0.0
000340 00 00 00 00 00 00 00 00 00 00 00 00 00 00 00 00
       0.0 0.0 0.0 0.0
000350 00 00 00 00 00 00 00 00 00 00 00 00 00 00 00 00
       0.0 0.0 0.0 0.0
000360 00 00 00 00 00 00 00 00 00 00 00 00 00 00 00 00
       0.0 0.0 0.0 0.0
000370 00 00 00 00 00 00 00 00 00 00 00 00 00 00 00 00
       0.0 0.0 0.0 0.0
000380 00 00 00 00 00 00 00 00 00 00 00 00 00 00 00 00
       0.0 0.0 0.0 0.0
000390 00 00 00 00 00 00 00 00 00 00 00 00 00 00 00 00
       0.0 0.0 0.0 0.0
0003a0 00 00 00 00 00 00 00 00 00 00 00 00 00 00 00 00
       0.0 0.0 0.0 0.0
0003b0 00 00 00 00 00 00 00 00 00 00 00 00 00 00 00 00
       0.0 0.0 0.0 0.0
0003c0 00 00 00 00 00 00 00 00 00 00 00 00 00 00 00 00
       0.0 0.0 0.0 0.0
0003d0 00 00 00 00 00 00 00 00 00 00 00 00 00 00 00 00
       0.0 0.0 0.0 0.0
0003e0 00 00 00 00 00 00 00 00 00 00 00 00 00 00 00 00
       0.0 0.0 0.0 0.0
0003f0 00 00 00 00 00 00 00 00 00 00 00 00 00 00 00 00
       0.0 0.0 0.0 0.0

encoder.lstm.weight_ih_l0 f4 [128, 4]
000000 b0 37 2d 40 0a 96 05 40 f6 e7 64 bf d5 8e d5 bf
       2.706524 2.0872827 -0.89416444 -1.6684214
000010 2f 79 81 3f 9c 35 0f c0 a1 9f 46 bc 21 c2 0e 40
       1.0115107 -2.237647 -0.012123019 2.2305987
000020 9a 99 c2 40 d7 dd 8e bf ba 56 9d be d3 88 22 c0
       6.08125 -1.116145 -0.3073023 -2.539601
000030 d6 2a a7 3f ef 76 d6 3e 6f 94 75 40 9f 88 50 3e
       1.3059947 0.41887614 3.8371847 0.20364617
000040 c1 7d 5d 40 62 ea 0c c0 53 4b 37 3e 58 f7 22 40
       3.4608004 -2.2018056 0.17899828 2.5463467
000050 70 64 ae 3d 3c 91 93 c0 0f 9c 2a 40 fa 5a 35 3d
       0.08515251 -4.611479 2.665775 0.044276215
000060 b1 32 e1 3f 04 8e 0c 40 70 2e bd bf a1 e0 f3 bf
       1.7593595 2.196168 -1.4779797 -1.9052926
000070 ed 89 85 40 c0 97 68 bd a2 8a 95 c0 50 4f f9 3e
       4.1730866 -0.056785345 -4.673173 0.48693323
000080 2c a2 7c 40 99 d6 14 3f 93 37 19 c0 95 da 8c 3e
       3.9473982 0.5813995 -2.394017 0.27510515
000090 af c9 cc 3e 14 46 91 40 84 65 74 3f a8 7f e1 bf
       0.39997622 4.5398045 0.954674 -1.7617083
0000a0 5a 94 84 40 21 15 2d 40 f3 d1 79 40 d6 5d b7 3e
       4.1431093 2.7044146 3.9034393 0.3581378
0000b0 d5 af 70 40 81 27 c6 bf 7d a2 c9 3e 39 19 85 be
       3.760732 -1.5480806 0.3938178 -0.25995806
0000c0 2c cf 38 40 47 76 87 3f 7e 07 13 40 2c 1e 6e 3f
       2.8876448 1.058297 2.2973323 0.9301479
0000d0 24 20 95 3f 90 d0 58 40 1c 09 73 3f bd 2e 09 3f
       1.1650434 3.3877296 0.94935775 0.5358694
0000e0 fd ca 2f 3e 78 89 af bf 37 5b 9c bd d2 c6 1a 3f
       0.17167278 -1.3713827 -0.07634585 0.60459626
0000f0 25 ce 33 3e a7 ec c9 be 02 35 62 bd 16 81 ae 3f
       0.17559107 -0.39438364 -0.055226333 1.3633144
000100 bd 1c 9f 3e 1b 74 b3 3f ce 05 b9 3f 2f fd 34 3f
       0.31076613 1.4019808 1.4454896 0.7069883
000110 e0 55 8d be 88 11 1b 40 40 82 95 40 8c 3c 00 3f
       -0.2760458 2.422945 4.6721497 0.5009239
000120 ce ba ae bd 5c 0e f2 3e 5a 59 02 3f 16 7d 12 40
       -0.08531724 0.4727658 0.5091759 2.2888846
000130 b6 87 4b bf 13 47 d6 3f ee 36 50 bc 1e 99 fd be
       -0.79503953 1.674044 -0.012708409 -0.49530882
000140 51 1a 01 40 36 4d 88 bf c0 d7 97 bf cd 3c 90 be
       2.0172312 -1.0648563 -1.1862717 -0.28171387
000150 a8 0f d1 3f 7c d9 91 be c4 02 a8 bf 39 4d de bf
       1.6332903 -0.2848624 -1.3125844 -1.7367316
000160 84 39 a2 bf 93 28 9c 40 b7 17 3a c0 36 86 8e 40
       -1.2673802 4.879953 -2.9076974 4.453883
000170 39 3f 9e 3f d2 1c 20 40 80 18 ea 3c 84 33 90 3f
       1.2363044 2.501759 0.028576136 1.1265721
000180 67 45 8f 40 9b 7f 46 40 26 75 be bf 7b 32 93 bf
       4.477222 3.1015384 -1.4879501 -1.149978
000190 a5 41 bc 40 af 17 23 40 e4 3f 0b 40 b8 e4 39 c0
       5.8830132 2.5483205 2.1757746 -2.904585
0001a0 52 5a ce 3f 3a 6a 29 40 4c 24 c2 3f ad 8c 31 3e
       1.6121314 2.6471086 1.5167327 0.1733882
0001b0 5a 28 7d bf 39 56 b6 40 4b 26 0e c0 f7 cc 0b c0
       -0.98889697 5.698025 -2.2210872 -2.184385
0001c0 64 ca 9a bf c8 64 1e 40 e0 2e 92 bf da 76 1e c0
       -1.2093015 2.4749012 -1.1420555 -2.4760041
0001d0 67 97 1c 40 1c cb 16 c0 a0 d3 25 bf 91 34 a5 3f
       2.4467409 -2.3561468 -0.6477604 1.2906667
0001e0 1e 72 79 40 76 85 eb bf 16 f6 27 bf 30 65 3e 40
       3.8975902 -1.8400104 -0.6560987 2.974926
0001f0 98 61 7f bf 34 ec e8 3f 2d 46 4b 40 bb b2 8f bf
       -0.9975829 1.8197083 3.1761582 -1.1226419
000200 7a 07 9c 40 e5 60 e8 3f c0 41 87 40 f3 eb 50 c0
       4.8759127 1.815457 4.226776 -3.2644012
000210 9b e4 a8 bf ac 6b a3 be 95 19 8a be f9 d8 6c bf
       -1.3194765 -0.31918085 -0.26972643 -0.92518574
000220 89 ef 13 c0 1e f2 18 3f ee 0a fa bf b8 4a 33 be
       -2.311495 0.5974444 -1.9534585 -0.17508972
000230 76 e9 67 bf b9 21 ce 3f 30 f9 07 c0 c7 f8 0d c0
       -0.9059061 1.6104041 -2.1245842 -2.2183092
000240 46 bc a4 bd 4a a7 fe bf c0 ff c0 bf 7e a0 52 bd
       -0.08043723 -1.9894803 -1.5078049 -0.05142259
000250 a6 d7 3b bf 73 25 09 3f 3c d1 10 bf cc f1 b3 3f
       -0.7337593 0.5357277 -0.56569266 1.4058166
000260 df b4 8d 40 e8 df d8 3f b1 17 85 bf 72 3f af be
       4.428329 1.6943331 -1.0397855 -0.34228092
000270 dd a3 f2 bf c9 3a a4 40 11 96 01 3f ff 32 60 c0
       -1.8956257 5.132176 0.5061961 -3.5031126
000280 67 1a 4f be a8 64 37 3f dd 1a c1 bf ae 33 2f c0
       -0.20224915 0.71637964 -1.5086323 -2.7375293
000290 8a 9b 09 3f eb d9 17 be 15 78 37 40 3a 51 f3 3f
       0.5375296 -0.14829223 2.8667042 1.9009163
0002a0 5c ab 56 bf 5c 11 11 c0 0e fa b4 c0 0d 10 5d 40
       -0.83855224 -2.2666845 -5.6555243 3.4541047
0002b0 c8 de 1a 3f 84 88 03 40 1d 5d 24 40 d0 39 6f be
       0.6049619 2.0552073 2.5681832 -0.23361897
0002c0 d9 85 64 3f b8 65 1f 40 49 80 ad bf 08 e2 91 c0
       0.89266735 2.4905834 -1.3554775 -4.5588417
0002d0 16 cc 72 c0 30 7a 7e 40 42 f8 7c bf 27 a1 9d be
       -3.7937064 3.9762077 -0.9881631 -0.30787012
0002e0 92 cd 98 bf 8d e5 1a 3f e5 7d d2 bf 7e 66 e8 bf
       -1.1937735 0.60506517 -1.644467 -1.8156278
0002f0 7a 4a 3b c0 66 36 cc 3f 0f ee eb 3c 82 6b 67 bf
       -2.9264207 1.5954101 0.028800039 -0.9039842
000300 37 f9 b1 3f 47 cb cb bf be e8 73 be db 76 b3 bf
       1.3904179 -1.592141 -0.23819253 -1.4020647
000310 80 8b 18 40 ae bb 70 c0 e7 5f 21 c0 b8 cd ca 3f
       2.3835144 -3.761455 -2.5214784 1.584403
000320 7d 5c 51 c0 ce a5 9d 3e 76 4e 02 c0 2c 10 59 3f
       -3.27127 0.3079056 -2.0360389 0.847903
000330 15 a7 34 bf e9 60 c1 3f b8 b5 44 3f 48 44 b0 bf
       -0.70567447 1.51077 0.7683978 -1.3770838
000340 1a 05 1d 40 1c 59 37 40 18 be ff bd e9 97 60 bf
       2.4534364 2.8648138 -0.124874294 -0.87731797
000350 1d 05 fe bf d8 7b 4b bb a6 b2 ce bf b7 f6 0d be
       -1.984531 -0.0031049158 -1.6148269 -0.13863645
000360 79 11 3c c0 32 61 36 40 c2 3f 1a 40 de 69 cf bd
       -2.9385664 2.8496823 2.4101415 -0.101276144
000370 dd 92 19 40 46 a0 72 bf fd 8f 45 bf 5d c6 5c bf
       2.3995888 -0.9477581 -0.77172834 -0.8624018
000380 1b a4 15 bf 44 29 68 c0 95 a8 2e c0 b1 15 0d be
       -0.5845353 -3.6275187 -2.7290394 -0.13777806
000390 a4 67 1f bf f4 32 36 40 61 6f 80 c0 28 b5 0b 3f
       -0.6226752 2.84686 -4.013596 0.545733
0003a0 c4 f9 18 3f 61 b8 d1 3d 67 0d 38 c0 ae 4c b5 bf
       0.5975611 0.102402456 -2.875818 -1.4164026
0003b0 4f a9 c7 bf 90 9e 86 3f 6e 21 d1 3e 72 8c 65 c0
       -1.5598544 1.051714 0.40845817 -3.586697
0003c0 41 d5 e8 bf 7d 78 04 40 fc 76 0c c0 ae 48 3a be
       -1.819008 2.069854 -2.1947622 -0.18191788
0003d0 03 dd 0b 40 62 89 f7 3f b5 5c 1d 40 14 61 fe bf
       2.1853645 1.9338801 2.4587834 -1.9873376
0003e0 ac 75 c3 40 81 55 b7 40 79 31 4f c0 27 d7 39 c0
       6.1081142 5.7291875 -3.2373946 -2.9037569
0003f0 9b 29 f5 bf 5f 21 8e 3f 2a 96 05 c0 49 27 55 bf
       -1.9153322 1.1103934 -2.0872903 -0.8326307

encoder.lstm.weight_hh_l0 f4 [128, 32]
000000 0f 09 c1 c0 d5 cd ca bf ab 31 9b be fb 84 b7 3e
       -6.032356 -1.5844065 -0.3031133 0.35843644
000010 e2 2e 38 3e 40 f5 fb be 38 17 f6 3f bc 36 3f 40
       0.17986634 -0.49210548 1.9225836 2.9877157
000020 43 44 83 3f 83 55 8f bf 6a fc bc bc 8a 5d d1 bf
       1.0255207 -1.1197971 -0.02306958 -1.6356671
000030 d9 bd aa 3d 1a ff 0e bf c3 0e a9 3e 3f f5 1f bb
       0.08336992 -0.55858004 0.33019075 -0.0024407653
000040 a8 20 7f 3f 69 89 f1 bf f7 66 1f bf 1e b8 34 c0
       0.99659204 -1.8870059 -0.62266487 -2.8237376
000050 72 bd a8 3f da c0 08 bf b7 8c 80 be 2d 00 c1 3f
       1.3182814 -0.5341927 -0.25107357 1.5078179
000060 ab e3 d6 3e 6e 6a 79 c0 57 36 86 be d5 10 25 bf
       0.41970572 -3.897121 -0.26213333 -0.6447881
000070 d1 b7 13 3f e7 b7 8d be 5c 2c 71 3f 94 00 39 3f
       0.57702357 -0.2767937 0.9420831 0.7226651
000080 ce ba 64 bf 2d 0c 32 bf 57 50 1d bf b1 8c b7 be
       -0.8934754 -0.6954983 -0.61450714 -0.35849527
000090 71 ff 7f bf 08 9c 65 3f 67 ed 07 c0 24 e6 2e c0
       -0.9999915 0.8969121 -2.123865 -2.7327967
0000a0 28 ee 91 bf 49 8d a1 bf c5 bf 63 be a7 c8 56 3f
       -1.1400805 -1.2621242 -0.22241123 0.8389992
0000b0 29 1d 0b 3f bd d3 82 3e 70 ad 52 be af 69 ab 3f
       0.5434137 0.25552168 -0.20573974 1.3391627
0000c0 60 1e 0b bf f7 bf 08 be f5 1d c9 bf b9 25 42 3f
       -0.54343224 -0.13354479 -1.5712267 0.7583881
0000d0 39 6a 31 3f 1c 09 e0 bf 2a 50 d7 3f 9a 85 80 be
       0.6930271 -1.750278 1.6821339 -0.2510193
0000e0 0e 31 25 3f 34 0c e6 3e 09 14 14 bf da e9 da 3f
       0.64527977 0.44931185 -0.5784307 1.7102616
0000f0 e4 79 a3 be e1 33 4c 3f b1 9e 0a 3f 6a 0a e0 3e
       -0.31928933 0.7976666 0.54148394 0.43757945
000100 20 52 3e bf e2 09 ce bf 4b 5e 23 3f 63 aa 2c bf
       -0.7434406 -1.6096766 0.63815755 -0.6744749
000110 32 5e d3 3f 18 51 9f bf 9b 8c b9 3f ab 2e 0c bf
       1.6513121 -1.2446623 1.4496034 -0.5475871
000120 01 6b b2 bf 38 f7 f1 bf 32 fb 96 3f 7b b2 e8 bc
       -1.3938905 -1.890357 1.1795409 -0.028405419
000130 ae 27 1b 3e e2 e0 5f be 83 92 bf bf 7f 26 8a 3e
       0.15151855 -0.2186313 -1.4966587 0.26982495
000140 80 50 21 be 83 1d ae bf 34 aa 94 be 91 c8 a5 be
       -0.15753365 -1.3602756 -0.29036105 -0.32379583
000150 1b 3c 72 3f d2 27 aa 3e 83 ed ba 3f b5 6b df 3e
       0.94622964 0.33233505 1.4603733 0.4363686
000160 86 89 09 bf 33 ee c8 be b0 59 97 3e 9a 35 83 3f
       -0.5372547 -0.39244232 0.29560614 1.0250733
000170 38 24 e5 be a7 98 19 be 8f 63 64 3f 4e 9d 81 be
       -0.44754195 -0.14999638 0.89214414 -0.25315326
000180 5f 81 9a 3f 89 27 8c 3e 7e 0c 4d 3f b0 5e 59 3f
       1.2070731 0.27373913 0.80097187 0.84910107
000190 8f ee 4f 3e 7a 3d d5 bf e8 34 0b be 25 d5 13 c0
       0.20305847 -1.6659386 -0.13594401 -2.3098843
0001a0 2f 65 5b bf 71 1c ce bf d6 9a 83 bf 3f 47 bf bc
       -0.8570127 -1.610243 -1.0281627 -0.023349402
0001b0 a6 75 88 bf da 3b 32 bf ee 8c e4 3d c6 d2 cb 3f
       -1.0660903 -0.69622576 0.11159693 1.5923698
0001c0 d1 d1 30 3f 94 64 10 c0 6b 60 86 be 62 d7 83 bf
       0.69070154 -2.2561388 -0.26245436 -1.0300105
0001d0 a1 32 9e 3f 5c 76 42 be 3b 85 89 bf 6a f7 bb bf
       1.2359201 -0.18990463 -1.0743784 -1.468488
0001e0 83 9b d5 3f 00 17 9e bd 83 a7 1b c0 f1 46 8b 3f
       1.6688083 -0.07719231 -2.432099 1.0881025
0001f0 6b 59 7a bf 87 35 f8 3f 05 2a 54 40 08 dd 7b 3f
       -0.9779269 1.9391335 3.3150647 0.9838414
000200 b6 34 10 bf 0f e7 37 c0 b5 1a 70 bf 97 1b e8 3e
       -0.5633043 -2.8734777 -0.9379075 0.4533355
000210 79 03 a4 bf 65 33 28 3f df 01 8f 3e 61 0a 8e bf
       -1.281356 0.6570342 0.27931115 -1.1096917
000220 c1 9b 9f 3e d6 3d 22 c0 ba a4 a6 3e a1 82 8b be
       0.31173518 -2.5350242 0.3254755 -0.272481
000230 49 2e 1d be 8b 0c 70 c0 27 35 53 3f cd 4b 9d bf
       -0.15349688 -3.7507656 0.8250298 -1.2288758
000240 5f 88 81 3f 7d 20 f1 bf da 4b 06 40 d6 c0 86 3c
       1.0119742 -1.883804 2.0983796 0.016449373
000250 16 94 00 c0 2d df 09 bd ce df 87 bf a4 76 bf 3f
       -2.0090384 -0.033660103 -1.0615175 1.4958081
000260 3c 74 00 40 54 54 25 bf df cd 22 be b7 37 3e 3f
       2.0070944 -0.645818 -0.15898846 0.74303764
000270 0f 89 4b bf 00 d1 36 be 87 da 9b bf 8b a7 a3 3d
       -0.7950601 -0.17853165 -1.2176064 0.07990941
000280 ad 96 56 bf 23 3e 8a 3f bf b4 0b 3e 04 02 5a 3f
       -0.83823663 1.0800213 0.13643168 0.85159326
000290 d4 0a 90 bf 4d be a4 3f 0d 03 48 40 0f c6 17 c0
       -1.1253304 1.2870575 3.1251862 -2.3714635
0002a0 85 da ae bf 33 cf f0 bf 3f fa fe be c8 1a 02 c0
       -1.3660437 -1.8813232 -0.49800298 -2.0328846
0002b0 44 1c 38 bf 2a 6e b7 3e 79 57 84 be b5 3c 9d 3f
       -0.7191813 0.35826236 -0.25847986 1.2284151
0002c0 0a b1 ef 3e 51 de 24 3e e3 98 92 3e bd 23 c5 3f
       0.46814758 0.16100432 0.28632268 1.5401531
0002d0 bf 41 1c bd 92 fd b5 bd e9 ed f8 3f 52 2f 7c bf
       -0.038148638 -0.08886255 1.9447604 -0.98509705
0002e0 93 21 ee be 4d 6f a6 3f e1 0f ce be cf bd d7 3f
       -0.4650999 1.3002716 -0.4024649 1.68548
0002f0 d3 5d 1a bd 95 4f b0 bf 21 c5 95 3d c5 2d 0a bf
       -0.037687134 -1.3774287 0.0731299 -0.5397609
000300 df 62 81 bf 03 0f 9a 3f 7e ad b0 3f e6 d4 cf bf
       -1.0108298 1.2035831 1.3802946 -1.6236846
000310 53 9e bf 3f 74 c7 98 bf f9 c1 e9 be c7 a5 27 40
       1.4970192 -1.1935868 -0.45655802 2.6194932
000320 a8 e1 a1 bf ca a2 9e bf c9 02 2a bf d1 b8 6e be
       -1.264699 -1.2393429 -0.664105 -0.2331269
000330 13 a7 74 bf 2a ad 06 c0 b5 5a 3e c0 19 6c 83 be
       -0.95567435 -2.104319 -2.9742863 -0.2566841
000340 9c 1d c6 3f e1 2f 27 40 2f 92 59 bf c2 0c d3 3e
       1.5477786 2.6122973 -0.84988683 0.4122067
000350 cc 3c f5 3e 6b f1 38 3f 48 5c 26 c0 5d 63 71 40
       0.47897947 0.72243375 -2.5993824 3.7716897
000360 69 b3 50 c0 34 ca 16 40 d1 3f 15 3f 8d a1 8d c0
       -3.2609503 2.3560915 0.583005 -4.4259706
000370 df 23 fe bf 89 63 49 3f eb 68 9d 3f 4c d3 37 bf
       -1.9854697 0.78667504 1.2297643 -0.7180679
000380 ba 6f 1d 40 ae 92 54 be 7d 53 2a 3f 84 fe 54 bd
       2.4599442 -0.20759079 0.66533643 -0.052000538
000390 a8 6c 98 bf 21 4b 2a 3e 84 c5 28 3f 0c 02 4a 3f
       -1.1908159 0.16630222 0.65926385 0.78909373
0003a0 af a4 0a bf d7 86 82 3f 46 5e e5 3e 09 a3 44 c0
       -0.5415754 1.01974 0.44798487 -3.0724509
0003b0 24 a0 e6 bf 2d e9 fa bf 16 27 7c 3e d6 1f 14 40
       -1.8017621 -1.960241 0.24624285 2.314443
0003c0 95 ba 56 40 e1 0f 95 3f cc 1f 3e 40 a2 a1 3f 40
       3.355138 1.1645471 2.9706907 2.9942403
0003d0 f8 c4 f4 bf 73 a9 09 40 6d 72 84 bf af 34 1a bf
       -1.912261 2.1509674 -1.034742 -0.6023664
0003e0 ee 85 61 3f 2c 84 15 40 34 f0 45 bd 4c 42 1b 40
       0.88094985 2.3361921 -0.04832478 2.4259214
0003f0 8a cc bd be 5c 12 0c bf a4 3a 7d be 7d 45 98 3f
       -0.37070113 -0.54715514 -0.24729401 1.1896206

encoder.lstm.bias_ih_l0 f4 [128]
000000 bb 8c 09 c0 59 37 13 c0 65 87 1e c0 d6 4a 29 c0
       -2.1492145 -2.3002532 -2.4770138 -2.6451926
000010 51 df 03 c0 54 69 05 c0 3d 79 3e c0 dc d1 0a c0
       -2.0605052 -2.0845537 -2.9761498 -2.1690588
000020 c6 91 19 c0 82 78 c4 bf 6b 65 25 c0 58 9d f3 bf
       -2.3995223 -1.5349276 -2.584315 -1.9032393
000030 7e 30 1c c0 c5 dd 40 c0 6b 14 47 c0 69 9d d1 bf
       -2.4404597 -3.0135357 -3.1106212 -1.6376163
000040 87 fc 1e c0 b0 95 02 c0 da b2 d2 bf 28 ec 15 c0
       -2.484163 -2.0403862 -1.6460831 -2.3425388
000050 70 69 19 c0 30 5b 33 c0 64 25 ad bf b8 e5 e5 bf
       -2.3970604 -2.8024406 -1.3527036 -1.796073
000060 47 d0 1e c0 22 85 ee bf 8c b3 ef bf f2 02 f3 bf
       -2.4814622 -1.8634379 -1.8726668 -1.8985274
000070 b3 a3 11 c0 2c 90 0e c0 bf 93 6b bf 06 84 fa bf
       -2.2756164 -2.2275496 -0.9202232 -1.957154
000080 57 23 53 bf 63 13 54 bf a4 a3 c3 bf 94 78 4d bf
       -0.824758 -0.8284208 -1.5284314 -0.8026211
000090 d2 13 bc bf 6b e8 9c bb 49 cb 80 3e 2f b6 67 bf
       -1.4693549 -0.0047884486 0.25155094 -0.90512365
0000a0 de 9a 12 40 b4 7b 9f 3e 86 65 2b bf ad 12 b7 3e
       2.2907023 0.31149065 -0.6695179 0.35756436
0000b0 e7 9a 2d bf 30 60 8b 40 62 b0 e2 bf 68 39 ba bf
       -0.6781449 4.3554916 -1.7710078 -1.4548769
0000c0 81 92 97 bf 84 4c f5 bf 5c 7d f2 be 64 f7 6b bf
       -1.1841584 -1.9163976 -0.47361267 -0.92174363
0000d0 44 ac 7c be d7 4a d9 bf 89 2d 31 be a0 99 02 bf
       -0.24675089 -1.6975964 -0.17302527 -0.51015663
0000e0 4b 77 da bf 89 5d 01 3f 24 7e 10 c0 de 6b 29 bf
       -1.7067655 0.5053335 -2.257699 -0.6618022
0000f0 ce 07 d7 3e 9d 75 68 be a2 3e 85 bf 1b d8 b4 bf
       0.41998142 -0.22701116 -1.0409739 -1.412845
000100 b0 26 1d 3f fc 47 d7 3d 45 09 10 bf 2b 68 04 bf
       0.6138716 0.10511777 -0.56264144 -0.5172145
000110 5f 44 90 3d f4 5f 9a 3f 71 26 18 3e 10 32 c2 be
       0.07044291 1.2060533 0.14858414 -0.3792882
000120 a4 3c 14 3f 41 42 e2 3e 7f c5 b1 3e 65 22 97 bb
       0.5790503 0.44191173 0.3472099 -0.0046122544
000130 7e 0e c6 3e e0 08 4f 3e 09 25 69 3e 53 03 0b 3e
       0.38682932 0.2021823 0.22768034 0.13575487
000140 d8 ad a6 bf fc 2a cd 3e 99 24 8a bf a2 eb 44 bf
       -1.3021803 0.40071857 -1.0792419 -0.7692205
000150 f2 bf 57 3e 5f 39 2f 3f ed 1b c4 3f 10 ff d9 3d
       0.21069315 0.68446916 1.5321022 0.106443524
000160 5d 9f b4 bd 21 dc 98 3e 31 1e 4e bf ea 21 32 bf
       -0.08819459 0.29855445 -0.8051482 -0.69583
000170 dd 22 f2 3d 7c d2 44 bd 4b 7c 83 bf 6d 3f a9 bd
       0.11823056 -0.048052296 -1.0272306 -0.08264051
000180 72 05 bb be d6 dd b9 bf b4 1d 86 bf cc 12 be bf
       -0.36527592 -1.4520824 -1.0477815 -1.4849486
000190 0d 23 f1 be 56 b8 55 bf b7 d7 d7 3c 6f 42 81 bf
       -0.47097054 -0.834844 0.026347978 -1.0098399
0001a0 1c 9c cc bf ee fb 8e bf 1e 00 88 3f a0 fd 1f bf
       -1.5985141 -1.1170633 1.0625036 -0.62496376
0001b0 23 ab 08 3e 82 25 c2 bf e4 b9 ce bf 99 5d e5 bd
       0.13346533 -1.5167696 -1.6150479 -0.11199493
0001c0 db a1 1e c0 d4 26 48 bf d9 27 26 bf ff e5 59 bf
       -2.4786289 -0.78184247 -0.6490455 -0.8511657
0001d0 c5 a2 0a 3e de fa 94 bf 42 93 d9 be 88 a7 e1 be
       0.13538654 -1.1639059 -0.4249516 -0.4407313
0001e0 33 d1 94 bf bd 1c 03 3e 80 70 60 bf eb 4f 17 be
       -1.1626343 0.12803932 -0.8767166 -0.1477658
0001f0 7e aa d9 bf ae 9d cb bf ac b8 1b c0 68 22 1d c0
       -1.7005155 -1.5907495 -2.4331465 -2.455225

encoder.lstm.bias_hh_l0 f4 [128]
000000 53 02 19 c0 ce 88 01 c0 31 dc 26 c0 ed 7f 2f c0
       -2.3907669 -2.023975 -2.6071894 -2.742183
000010 85 d1 0a c0 cf e3 ee bf 40 9a 3f c0 6c cf f8 bf
       -2.169038 -1.8663272 -2.9937897 -1.94383
000020 03 e6 1e c0 01 cb ce bf 70 0d 19 c0 72 4d d5 bf
       -2.4827888 -1.6155702 -2.3914452 -1.666426
000030 31 1f 18 c0 6c 18 4a c0 07 a2 54 c0 d8 5e f1 bf
       -2.3769038 -3.1577406 -3.3223894 -1.8857069
000040 1a 1a 24 c0 6e 68 f7 bf 91 c9 c2 bf d0 6c 14 c0
       -2.564093 -1.9328744 -1.5217763 -2.3191414
000050 96 e5 0a c0 cc 6f 26 c0 10 0d a1 bf d6 df e9 bf
       -2.1702628 -2.6005735 -1.2582111 -1.8271434
000060 94 81 1c c0 7c eb e5 bf 27 31 02 c0 9a ad 0d c0
       -2.4454088 -1.7962489 -2.03425 -2.2137208
000070 de 3a 14 c0 68 53 04 c0 88 01 85 bf 42 99 e8 bf
       -2.316093 -2.0675907 -1.0391092 -1.817177
000080 69 de 7b bf dc 3c 82 bf 96 e3 c9 bf 9f 62 36 bf
       -0.98386246 -1.0174823 -1.5772579 -0.71244234
000090 d7 73 d3 bf a8 72 0a bd 51 ca 91 3e 75 00 7d bf
       -1.6519727 -0.03380075 0.28474668 -0.9882882
0000a0 7a fc 03 40 7e b6 dd 3d 68 3f 7e bf 8d eb 2c 3f
       2.062285 0.10825823 -0.993155 0.6754692
0000b0 2e c4 4d bf 0c e8 87 40 a9 97 f9 bf b4 29 db bf
       -0.8037747 4.247076 -1.9499408 -1.7122102
0000c0 09 29 ad bf 4a a4 e7 bf 7a 0e 1b bf fa f0 86 bf
       -1.3528148 -1.8097012 -0.60568964 -1.054229
0000d0 8f 47 87 be 77 d2 e2 bf 7a 8e 01 be 68 be e8 be
       -0.26421782 -1.7720479 -0.12652007 -0.45457768
0000e0 d9 62 00 c0 cf 32 ba 3e 11 9c 07 c0 01 c7 b5 be
       -2.0060332 0.3636689 -2.1189005 -0.3550339
0000f0 5e ee ac 3e eb 08 ca be 61 cc 64 bf 21 c3 a3 bf
       0.3377561 -0.3945993 -0.8937436 -1.2793924
000100 50 55 30 3f 43 e7 80 3e b2 02 e0 be b0 80 9a be
       0.68880177 0.2517644 -0.43752056 -0.30176306
000110 bf ae d0 bd 22 f9 92 3f 4b ed c7 3d 98 b3 b1 bd
       -0.1018958 1.1482279 0.09762057 -0.08676833
000120 21 ab 47 3f 25 d8 af 3e 89 e9 c9 3e 8b 1b 8e bd
       0.77995497 0.34344593 0.39435986 -0.06938847
000130 22 38 89 3e 06 f3 f4 3d cc 19 a1 3e de 0a 68 3e
       0.26800638 0.119604155 0.31464994 0.22660396
000140 27 ae 8b bf 00 b7 24 3f f4 f6 66 bf 49 50 0d bf
       -1.0912522 0.64341736 -0.9022057 -0.5520063
000150 94 80 9c 3e 23 34 6a 3f 63 7f c9 3f 52 5b cf 3d
       0.30566847 0.91485804 1.5742 0.1012484
000160 71 f9 b7 bd eb dc 06 3f 0e 79 0f bf 65 46 64 bf
       -0.08983124 0.52680844 -0.5604409 -0.89169914
000170 74 47 8d 3e 7a 6c 53 bc bb 62 98 bf ff ac 23 bd
       0.27593577 -0.012904281 -1.190513 -0.039959904
000180 41 67 0b bf 36 bc c7 bf 56 ba 8f bf 01 42 a3 bf
       -0.5445443 -1.5604312 -1.122874 -1.2754518
000190 1f 42 f9 be 42 db 42 bf 1e b3 f2 bc f4 7f 96 bf
       -0.4868326 -0.7611581 -0.029626425 -1.1757798
0001a0 e6 b7 bc bf 3c 6d a1 bf 34 15 a1 3f 85 17 1d bf
       -1.4743621 -1.2611461 1.2584596 -0.6136401
0001b0 1a ae 04 be 5f 0e bf bf c8 1e ba bf af e1 69 be
       -0.1295704 -1.4926261 -1.4540644 -0.22839998
0001c0 a7 62 1c c0 45 2f 53 bf 01 a2 13 bf c8 c8 77 bf
       -2.4435213 -0.82494 -0.57669073 -0.9679074
0001d0 bf cd 35 3e 1f 71 75 bf e3 2a fb be de e8 98 be
       0.17754267 -0.95875734 -0.49056157 -0.29865164
0001e0 bc d5 72 bf da 2c 20 3d e8 f7 0f bf 5c 42 83 bd
       -0.9485738 0.039105274 -0.5623765 -0.064091414
0001f0 df 83 dc bf cd 91 c0 bf a0 c9 29 c0 44 21 27 c0
       -1.7227744 -1.5044495 -2.6529312 -2.6114054

decoder.lstm.weight_ih_l0 f4 [128, 5]
000000 e4 50 1d 3f d1 27 3e bf 03 50 a3 bf 5f 8f 86 bf
       0.61451554 -0.74279505 -1.2758793 -1.0512503
000010 de 18 8c bf f4 27 34 bf 72 bf cf bf bb 21 a1 bf
       -1.0945089 -0.70373464 -1.62303 -1.2588419
000020 6b ec a8 bf 51 07 9e bf db 84 54 3f 7a 34 62 bf
       -1.3197149 -1.2345983 0.8301522 -0.8836132
000030 a1 bc 34 bf 30 b1 1c bf 79 42 05 bf d9 ce b0 3f
       -0.70600325 -0.61207867 -0.52054554 1.3813125
000040 c9 b4 4a bf c9 e4 57 bf f1 88 cf be 47 d8 25 bf
       -0.79182106 -0.84333473 -0.40534166 -0.6478314
000050 ca 63 96 3f e6 24 8d bf f3 e2 2c bf 83 6c 84 bf
       1.1749203 -1.1026886 -0.675338 -1.0345615
000060 57 4f 8d bf b1 f0 00 40 3c 07 5b bf 7a 0b 26 bf
       -1.1039838 2.0146906 -0.85557914 -0.6486126
000070 d4 31 92 bf b3 f5 89 bf 0d fc bf 3f 73 cc 4d bf
       -1.1421456 -1.0778106 1.4998795 -0.8039009
000080 53 5a 4c bf 25 9f 4c bf ca 1c 56 bf 81 d9 a8 3f
       -0.79825324 -0.79930335 -0.8363768 1.3191377
000090 95 b5 68 bf fe 8b 8a bf 41 84 74 bf 6e a1 3e bf
       -0.9090207 -1.0823972 -0.95514303 -0.7446507
0000a0 97 36 07 c1 d9 41 10 bf af ab 72 3e 6d 56 37 3e
       -8.450828 -0.56350476 0.23698305 0.17904063
0000b0 ef 15 f6 3e a0 e2 de 3f 80 62 6b bf 31 d6 1d bf
       0.4806361 1.741291 -0.91947174 -0.61654955
0000c0 a3 aa e6 bf 13 86 8b bf b7 46 40 3f bd 17 37 bf
       -1.8020824 -1.0900291 0.751079 -0.71520597
0000d0 14 01 5b bf c4 4c 15 bf 4c 45 8b bf 21 62 3d 3f
       -0.8554852 -0.5832026 -1.0880523 0.7397786
0000e0 60 bd 8b bf 1f 93 73 bf ae a5 84 bf c1 52 b6 bf
       -1.0917168 -0.95146364 -1.0363061 -1.4244004
0000f0 40 4e d9 be fc b3 9b bf bd dc 92 bf 52 ff 92 bf
       -0.42442513 -1.2164302 -1.1473614 -1.1484168
000100 4a 1d 95 bf 4d 17 0f 40 eb ef 6a bf e1 0f 76 bf
       -1.1649563 2.2357972 -0.91772336 -0.9611798
000110 69 58 92 bf d1 46 85 bf 26 87 07 40 38 fb 64 bf
       -1.1433231 -1.0412236 2.1176238 -0.8944583
000120 6a be 68 bf b0 4d 55 bf d7 c6 77 bf 99 d7 93 3f
       -0.9091555 -0.83321667 -0.9678778 1.155017
000130 51 41 33 bf 24 2e 55 bf 65 89 4a bf a4 49 6f bf
       -0.7002154 -0.8327353 -0.791159 -0.9347174
000140 e2 93 01 bf 3f cb 66 bf d4 30 72 bf 4e 05 64 bf
       -0.50616276 -0.9015388 -0.94605756 -0.89070594
000150 d3 8a 82 bf da 0b 7d 3f 0f ee 2d bf c9 cd 4f bf
       -1.0198616 0.9884621 -0.67941374 -0.8117338
000160 f8 d7 1b bf 0d 64 69 bf bc 8a 97 3f 7a 09 5f bf
       -0.6087642 -0.9116829 1.1839213 -0.87123835
000170 f9 ac 38 bf ee e7 2e bf 6a 6d fb be 97 44 74 3f
       -0.72138935 -0.68322647 -0.49106914 0.9541716
000180 29 87 47 bf 05 e0 1b bf af c2 18 bf 0e 9e 81 bf
       -0.77940613 -0.608887 -0.59672064 -1.012636
000190 ff 8d 90 3f 33 c0 dd be b3 8e 15 bf 77 67 b0 be
       1.1293334 -0.433107 -0.58420867 -0.34453937
0001a0 a9 f7 da be 70 4d 94 3f 56 81 11 bf b2 66 48 bf
       -0.42767075 1.1586132 -0.56837976 -0.782817
0001b0 92 ec 3e bf 54 e9 05 bf 1e 6d 41 bf 5f 2f 99 bf
       -0.7457973 -0.52309155 -0.75557125 -1.1967582
0001c0 cd cc ba bf 77 b8 6d bf 38 31 8b bf 85 ac 0c 40
       -1.459375 -0.92859596 -1.0874395 2.1980298
0001d0 fc 02 6a bf 20 b5 63 bf b6 6a 62 bf aa 48 81 bf
       -0.91410804 -0.8894825 -0.8844408 -1.01003
0001e0 c4 0c 83 3f 41 98 61 bf dc f7 75 bf 8a ea 2e bf
       1.0238271 -0.88122946 -0.9608133 -0.6832663
0001f0 bd 01 48 bf 7d 06 f3 be f8 e1 ab bf ff 46 c2 bf
       -0.7812765 -0.47465888 -1.3428335 -1.5177916
000200 80 b9 9c bf 06 6d 9f bf 6d 2c e5 3f 0d 7c 4d bf
       -1.224411 -1.2455146 1.7904183 -0.8026741
000210 e2 00 57 bf 0b ca 4b bf 08 e5 45 bf f2 6f 46 bf
       -0.8398572 -0.7960517 -0.773026 -0.77514565
000220 5a bd 91 be 1a cd 92 be 1a 5c c2 be bb 09 c0 be
       -0.28464776 -0.28672105 -0.37960893 -0.37507424
000230 64 2d 84 3f e9 24 87 be 65 ad 2b bf 01 76 95 bf
       1.0326352 -0.26395348 -0.67061454 -1.1676637
000240 b6 8f 7f bf 39 a6 98 3f a3 bb 4a bf 8f b4 3a bf
       -0.9982866 1.1925727 -0.7919256 -0.7293176
000250 b5 18 ea be de 35 3c bf 82 15 41 bf 42 70 87 bf
       -0.45721975 -0.73519695 -0.75423443 -1.0581133
000260 56 1e 5c bf 34 e0 84 bf 63 19 60 bf 5a 5a 3e bf
       -0.8598379 -1.0380921 -0.8753874 -0.74356616
000270 b2 41 93 bf 2f 78 94 bf 42 d6 b3 bf e1 ee 98 bf
       -1.1504424 -1.1599177 -1.4049761 -1.19479
000280 c0 11 43 be 17 58 0c bf 5a f1 7f 3f a5 6f 2d 3e
       -0.1904974 -0.54821914 0.9997765 0.1693712
000290 91 1f eb be 50 37 be be 4f ac c9 be ea 39 02 bf
       -0.4592252 -0.37151575 -0.39389274 -0.5086962
0002a0 0f 41 cc be ea 7b 8e be 51 70 10 3e a1 1d 03 c0
       -0.39893386 -0.27828914 0.14105345 -2.0486834
0002b0 a8 72 bd 3f 4e 94 3c be aa 9a 08 bf 2c cb 0b 3d
       1.4800615 -0.18415949 -0.53361 0.034129307
0002c0 13 71 cd bf 14 64 58 3f b8 6d 5c bf 2d a4 a9 bf
       -1.6050133 0.8452771 -0.8610492 -1.3253227
0002d0 6e e8 14 bf 32 81 64 3f 55 6a 90 c0 26 93 e0 3e
       -0.5816716 0.89259636 -4.51298 0.43862265
0002e0 2d 80 84 3e 4f 37 18 bd 3a 83 17 3f 4f 0f e9 3d
       0.2587904 -0.03716212 0.5918461 0.11379873
0002f0 6a ff 8d bf 15 2a 2c be aa 59 93 bc ac 2d 21 c0
       -1.1093571 -0.16812928 -0.017987091 -2.5184126
000300 e8 0a 9f bf 10 3e 17 c0 ff 17 fb 3e 69 a4 31 3f
       -1.2425203 -2.363163 0.49041745 0.69391495
000310 3b 9a 3c c0 68 38 eb c0 a7 b1 b8 be c0 e7 24 40
       -2.9469135 -7.3506355 -0.36073038 2.576645
000320 67 38 af c0 c3 f6 8e be d4 7a a6 c0 62 59 f6 3e
       -5.475635 -0.2792264 -5.2024937 0.4811507
000330 80 06 b6 c0 d2 7e 81 3d f4 f3 db 3f b5 0e e0 3f
       -5.6882935 0.06323017 1.7183824 1.7504488
000340 df 7f ad bf 24 8a e7 bf 08 a9 d4 be 5c 83 2a 3e
       -1.3554648 -1.8089032 -0.4153521 0.16651672
000350 2a 2b e8 be b7 ee d5 bf 4b cc 9a bf 78 86 64 bf
       -0.45345432 -1.6713475 -1.2093595 -0.89267683
000360 30 be 0a c0 21 59 05 40 f9 bf 08 3f b2 12 01 bf
       -2.1678581 2.083565 0.5341793 -0.5041915
000370 75 f5 a2 3d f8 46 e5 3e 30 1c 56 bf db d8 20 bf
       0.079569735 0.44780707 -0.8363676 -0.62830895
000380 a1 fd 1e bf 59 4b c4 bf 51 a6 27 c0 4d 7c 94 3f
       -0.62105757 -1.5335494 -2.6195261 1.1600434
000390 65 33 d2 be 4d 73 a9 c0 81 14 93 bf 85 ac 2f bf
       -0.41054836 -5.295325 -1.1490632 -0.6862262
0003a0 3f 8d 62 bf 04 de 37 bf cb 8c 63 bf 92 0f 02 3d
       -0.88496774 -0.71823144 -0.8888671 0.03175313
0003b0 6f 60 08 c0 e0 40 7f 3f b9 28 88 be 97 11 3b be
       -2.1308858 0.99708366 -0.2659357 -0.18268429
0003c0 1c a7 16 be 98 83 f0 be 12 97 8a be 92 1d 6a be
       -0.14712185 -0.46975398 -0.27068383 -0.22862843
0003d0 53 2e 6d bd 8e a1 c8 be ed fc 87 bf a8 f5 ba bf
       -0.057905506 -0.39185756 -1.0624062 -1.4606218
0003e0 f4 ed cd bd 5f 2b 3a be 4f 29 13 be e0 8d d0 be
       -0.100551516 -0.18180607 -0.14371227 -0.40733242
0003f0 44 e0 f1 be 6a c6 4b bf 51 17 5f 3e db c0 9c 3c
       -0.47241414 -0.7959963 0.21786238 0.01913493

decoder.lstm.weight_hh_l0 f4 [128, 32]
000000 ab f0 03 bf 30 a8 f9 bd e8 06 52 3f 31 20 5f 3f
       -0.51539105 -0.12190282 0.8204179 0.87158495
000010 25 56 40 3f bd 88 2b 3e 66 71 15 3e 0f 9c 7e 3e
       0.75131446 0.1675138 0.1459404 0.24864219
000020 a7 73 0e c0 4f e8 97 3f 27 de fc 3d b2 36 6d 3e
       -2.2258089 1.186777 0.1234706 0.23165396
000030 14 43 6b 3e 1a 29 7f bf 89 00 90 3e e0 3e fa be
       0.22974807 -0.9967209 0.28125408 -0.48876095
000040 2f b4 db 3e 69 6e 95 be 2e cd c3 3d 35 10 00 3d
       0.42910907 -0.291858 0.09560619 0.031265456
000050 b6 84 60 3d 21 bb 0f bc a6 c2 1f bf b4 20 45 bd
       0.054814063 -0.008772642 -0.62406385 -0.04812689
000060 4b 2f 87 3e 36 b4 bf bf 47 d3 04 3e 7e e8 82 3f
       0.2640327 -1.4976871 0.12971221 1.0227201
000070 94 5f 8d 3c d0 67 8f 3f 37 58 a5 3d bf 07 93 3e
       0.01725749 1.1203556 0.08073466 0.28716847
000080 1e a5 6c bc 1d 48 2f be 59 68 4a 3e 1c 26 f2 3c
       -0.014443664 -0.17117353 0.19766368 0.029559188
000090 8e 05 a3 3d 2d d8 ac 3d 0d 2d 89 be 7e d9 f7 3c
       0.07960044 0.0843967 -0.26792184 0.030255076
0000a0 c4 13 05 bd 74 a6 28 be 41 c7 05 be 02 42 79 bd
       -0.032489553 -0.16469747 -0.1306429 -0.060853966
0000b0 40 e1 bc 3d 7e 0e 8f be c8 f7 5b 3e c6 08 8f 3d
       0.092226505 -0.27940744 0.2148124 0.06984095
0000c0 13 b0 f5 bd 8e a4 8e 3d 11 56 6b be f8 9a 21 3e
       -0.11996474 0.0696498 -0.2298205 0.15781772
0000d0 b9 17 b9 bd 7b c3 bf 3d 78 94 ca bd 13 66 43 3d
       -0.09037728 0.09363457 -0.098915994 0.047704767
0000e0 2c 70 90 be d3 3a 4f be 98 3c eb 3d 0f 97 2c 3e
       -0.2821058 -0.20237283 0.11486167 0.168545
0000f0 80 a1 fd bc 7f 2c bc 3d b9 27 fd 3d 94 7a 6a 3c
       -0.030960798 0.091881745 0.12361092 0.014311451
000100 6a 68 d5 bc 2f ee 7c 3e 85 d4 88 be 2e 3f 13 bd
       -0.026050765 0.24700235 -0.2672464 -0.035948925
000110 a4 86 bb 3c 87 87 78 bd a3 42 c4 3e ca 07 b1 be
       0.02289135 -0.060676124 0.3833209 -0.34576255
000120 ea 8e 1b 3e 92 55 72 bf cd d7 8e be a9 8b 56 be
       0.15191236 -0.9466182 -0.27899018 -0.20951714
000130 7f 23 82 bf cf de e5 3e 74 e6 1a bf dd 9c 09 bf
       -1.0167083 0.44896552 -0.60507894 -0.5375498
000140 49 8f c0 3e 04 02 ac be b7 b2 77 3e 16 d8 7c 3e
       0.37609318 -0.33595288 0.24189268 0.24691805
000150 de 50 09 3a d7 44 6c be 78 26 b9 be 06 9b 97 3e
       0.00052381854 -0.23073135 -0.36162162 0.2961046
000160 4a e1 ac 3c 01 bb ca 3e 83 1f 79 3e f9 b1 d3 3e
       0.02110352 0.39595798 0.24328427 0.4134672
000170 a1 bb 9e 3e 4d fc d6 be 69 0e bb 3e 1a b5 16 bc
       0.31002524 -0.41989365 0.36534432 -0.009198451
000180 40 a2 e6 be 90 bc d9 bd f8 bc 08 3f 82 79 14 3f
       -0.45045662 -0.106316686 0.53413343 0.57997906
000190 0a 60 bb 3d 66 e5 63 3e fd 43 0d be 96 f8 5c 3e
       0.09149177 0.22255477 -0.13795467 0.21579203
0001a0 06 87 be bf d0 e4 bb bb b1 be fa be dc b8 34 be
       -1.4884956 -0.0057340637 -0.4897361 -0.17648643
0001b0 4b 16 9d be b0 6b cd bf 80 f9 81 3e 2b 8f 96 3d
       -0.3068107 -1.6048489 0.25385666 0.07351526
0001c0 77 2f 5a 3e 8e 38 2d bf 5d 6d 74 be 49 67 a8 3e
       0.21307169 -0.6766442 -0.23869844 0.328913
0001d0 cc 10 c3 be 06 1e 73 3e e7 dc 13 bf d8 b8 0b 3e
       -0.38098752 0.23741922 -0.57758945 0.13644731
0001e0 10 34 6f be 8c 6b cf 3e d9 e2 55 be 55 a3 7a 3f
       -0.23359704 0.4051174 -0.20887317 0.97905475
0001f0 18 4a 35 3e 45 5b a7 3f 6a e9 b7 be c0 fb f3 bd
       0.17704046 1.3074728 -0.35920268 -0.11913252
000200 4f 02 2a 3f 07 05 cb 3e 36 5b 40 be 37 1f 63 3e
       0.6640977 0.39652273 -0.18784794 0.22179876
000210 1d 79 5b 3f 95 fc 8d 3e f1 78 2e 3f 87 03 5a be
       0.8573168 0.27731767 0.6815329 -0.21290408
000220 dc c4 8c 3f 02 97 7e be dd f1 12 bd 57 bf 88 be
       1.0997577 -0.24862292 -0.03587519 -0.2670848
000230 46 f5 a8 bf 7b e5 eb bd 1c 91 91 bd fe e2 57 be
       -1.3199852 -0.11518379 -0.071077555 -0.21082684
000240 b3 de 35 3e 0c c5 d8 3d d0 ae c0 3e b5 af 79 3e
       0.17760734 0.10584459 0.3763337 0.24383433
000250 38 75 02 3f 06 cc ce bd b1 04 a0 be d8 bc 0b 3f
       0.5096011 -0.10097508 -0.3125358 0.5458503
000260 fd df f9 bd 7b ce 3b 3f ac a6 2a 3f ec da 2f 3f
       -0.122009255 0.7336194 0.6666057 0.68693423
000270 35 3d 82 3d 8a 74 e9 be b0 09 ae 3e 12 68 f9 3d
       0.063593306 -0.45596725 0.33991766 0.12178053
000280 bb 93 fd be d8 94 f0 3c cb 89 1a 3f 66 f9 8b 3e
       -0.49526772 0.02936785 0.60366505 0.27338713
000290 22 6b 4d 3f 32 3e 41 3e 5d ae 08 c0 e8 29 10 3e
       0.80241597 0.18871382 -2.1356423 0.14078486
0002a0 88 f3 a7 be ae 6c 6c 3f 6f f2 41 3f 74 cd dd bf
       -0.32802987 0.9235333 0.7576055 -1.7328324
0002b0 79 65 5f 3d 5a cb a2 bf 76 6e 0b bc 16 cc ac 3d
       0.05454013 -1.2718308 -0.008510223 0.08437364
0002c0 47 3d fe 3e 07 35 f9 bd 54 34 6d bc c4 79 b8 3e
       0.49656126 -0.12168317 -0.014477808 0.360304
0002d0 24 80 87 3f a8 d5 c5 3b 1f be 9d 3e 11 19 ad 40
       1.058598 0.0060374327 0.30809113 5.40931
0002e0 ef 82 5e bc 2a 63 3d bf 69 a9 02 3e 40 a1 73 3f
       -0.013581022 -0.7397944 0.12759937 0.9516792
0002f0 78 fc 8d 3e bc 76 ce 3e 41 a7 45 3e 92 d6 0f bc
       0.2773168 0.40324962 0.19302084 -0.008779185
000300 a8 8d 10 bf 5c 43 9f be fa c3 f5 3e 89 c2 dc 3e
       -0.5646615 -0.3110608 0.4800108 0.4311717
000310 88 54 81 3f 2f 68 93 be e8 ab 93 3e b6 b0 eb 3e
       1.0103922 -0.28790423 0.28842092 0.46033257
000320 e5 11 71 3e c7 ac 08 bf e8 3b ee 3e 6d 62 5b 3d
       0.23541982 -0.5338864 0.4653008 0.053560663
000330 aa 94 5c 3e db 9e 3d be 07 b2 a5 3e 86 00 bb 3e
       0.21541086 -0.1851763 0.32362387 0.36523837
000340 93 b9 1f be 65 7f f8 be 6c a8 e6 be 7d ab 4e 3d
       -0.15598135 -0.48534694 -0.4505037 0.050456513
000350 5c 4a 4a be c3 c7 c4 3e 90 4b 84 be c1 a4 19 3e
       -0.19754928 0.38433656 -0.258389 0.15004255
000360 b8 f2 c5 be 7a 51 5a be 10 12 17 bd 21 38 ca 3d
       -0.38661742 -0.21320143 -0.03688246 0.09873987
000370 9f ab 64 be 2e aa 9a 3f aa 72 80 bd 02 7d a8 be
       -0.22331093 1.2083185 -0.062718704 -0.32907873
000380 7a 43 c5 bf 1c 3a 5f bd 63 28 38 3f ab c7 31 3f
       -1.5411217 -0.054498777 0.71936625 0.69445294
000390 ba c4 2e 3f 53 c2 cc 3d 58 5a 8f 3f 83 6a 25 3e
       0.6826893 0.09998002 1.1199446 0.16153912
0003a0 46 06 94 bf 06 59 85 3e 2e cb 28 bd 53 8e db be
       -1.1564415 0.26044482 -0.041209392 -0.42882022
0003b0 eb 2a 2f 3c 48 cf b4 bf 52 c9 06 bc 36 84 b2 be
       0.010691385 -1.4125757 -0.008226709 -0.34866494
0003c0 9f 40 03 3e b6 ed 4b bf 71 cc b8 3d e5 83 c9 3e
       0.1281762 -0.79659593 0.09023369 0.3935844
0003d0 62 f1 75 3d 43 bd ed bd 34 f4 80 be 47 26 4f be
       0.060044654 -0.116083644 -0.25186312 -0.20229445
0003e0 a0 0b 3d bd 71 49 83 be 0f 6e 14 bd 5d 26 2a 3f
       -0.046153665 -0.2564197 -0.036237773 0.6646479
0003f0 aa bd 3c be 2d 1a 3b 3f a2 9d c4 3c 5e e2 0c be
       -0.18431726 0.73086816 0.024000946 -0.13758227

decoder.lstm.bias_ih_l0 f4 [128]
000000 dc 78 75 bf 3a dc ca bf 75 aa 50 bf 9f d5 35 bf
       -0.9588754 -1.5848458 -0.81510097 -0.71029085
000010 c2 13 5d bf 0b d0 8d bf a5 7c 66 bf cb b0 54 bf
       -0.86358273 -1.1079115 -0.9003394 -0.83082265
000020 f5 35 47 bf 97 09 93 bf ea 3d 1a bf ee 2c 8f bf
       -0.77816707 -1.1487302 -0.60250723 -1.1185586
000030 0f 5d cc bf 3c 6f 92 bf a5 bd 64 bf 2b f5 70 bf
       -1.5965899 -1.1440196 -0.89351875 -0.94124097
000040 99 6a a8 bf 57 c6 0e bf e3 50 55 bf 29 18 14 bf
       -1.3157531 -0.5577139 -0.8332655 -0.57849365
000050 b8 ed 0b bf bc 7d 31 bf 80 b1 a5 bf d7 e8 79 bf
       -0.54659605 -0.6933248 -1.2944794 -0.9762091
000060 8b db 58 bf 40 ba cf bf 11 ff 40 bf 3f e6 cc be
       -0.84709996 -1.6228714 -0.753892 -0.40019414
000070 c1 59 6f bf e5 8f 43 bf 65 2b a4 bf e5 0c cc bf
       -0.9349633 -0.7639144 -1.2825743 -1.5941435
000080 57 44 b4 3c fd b5 20 bf ac 16 99 bd 9b 15 57 bf
       0.022005243 -0.6277769 -0.074750274 -0.8401734
000090 b2 80 ee be ad 4c 88 be 7a 71 9b bf 7e 84 cf be
       -0.46582562 -0.26621 -1.2144005 -0.4053077
0000a0 0e 5a c3 bf 67 a7 1e be f0 63 84 bf 22 d7 b6 3d
       -1.5261858 -0.15493546 -1.0342999 0.08927752
0000b0 bb ea 2b bf c6 44 e4 bf e8 7a 4d bf 57 a7 b0 bd
       -0.67155045 -1.7833488 -0.80265665 -0.086256675
0000c0 5c ce 95 be 3d c3 13 bf 45 3f ce be e5 67 45 bf
       -0.29259002 -0.57719785 -0.40282646 -0.77111655
0000d0 f2 32 1c bf f9 00 01 be 75 8d 80 bf bb ec 88 bf
       -0.61015236 -0.12598027 -1.0043169 -1.0697244
0000e0 bf 0e 03 bd 11 12 95 bf 11 25 00 bf 7d 8b 02 bd
       -0.031996485 -1.1646138 -0.5005656 -0.031871308
0000f0 8c bb 05 bf a3 7d 17 bf 5c 35 9b bf 7b b0 47 bf
       -0.522393 -0.5917608 -1.2125659 -0.7800366
000100 11 31 67 be 06 cb 99 bc 81 88 83 3d 90 e8 fb bd
       -0.22577311 -0.018773567 0.064225204 -0.12300217
000110 d0 1d 12 3e 0d fc 7f 3d eb c2 17 be 2d 2b ff 3d
       0.14269185 0.062496234 -0.14820449 0.12459407
000120 14 3d e8 3e e1 45 54 3c 51 8d 6f bd f2 13 b1 bd
       0.453591 0.012956114 -0.05848438 -0.086463824
000130 d9 05 93 bd 65 89 af bc 53 64 8e bd fa 88 32 3e
       -0.0717885 -0.02142782 -0.06952729 0.17435065
000140 66 13 04 bd a9 c5 46 3b e8 e6 5e be 94 4b 35 bd
       -0.032245062 0.0030330217 -0.21767771 -0.04426153
000150 74 27 02 3e 3b a9 e8 bd c2 82 2c bf 11 06 b9 3d
       0.12710363 -0.11360403 -0.6738702 0.0903436
000160 20 68 dd bd 9d ad 56 3a 65 02 eb bb e5 46 17 3e
       -0.10810876 0.00081893225 -0.0071719163 0.14773138
000170 72 94 34 be af c4 19 3e 2c 4c 6b 3d eb ab cb bd
       -0.17634752 0.15016435 0.05744569 -0.099449
000180 81 f7 86 bf 83 e3 dd bf 17 4f 4c bf 3e 65 4a bf
       -1.0544282 -1.7335056 -0.7980818 -0.79060733
000190 53 e5 38 bf 59 c4 a7 bf 0d 4e 49 bf 90 ce 4b bf
       -0.7222492 -1.3106796 -0.7863472 -0.79612064
0001a0 c6 97 68 bd 4d ba d6 bf cd f6 36 bf 03 eb 27 bf
       -0.056785367 -1.6775604 -0.7147034 -0.65592974
0001b0 6e 30 d3 bf fc d5 5a bf 7a e5 27 bf 77 a8 3b bf
       -1.6499155 -0.85482764 -0.6558453 -0.7330393
0001c0 dc 2e 03 c0 e6 65 5b bf bd d5 45 bf 81 89 55 bf
       -2.049735 -0.8570236 -0.77279264 -0.8341294
0001d0 c6 c5 dc be fb 31 38 bf 5e c1 b3 bf 0e fd 5e bf
       -0.4311964 -0.71951264 -1.4043386 -0.8710488
0001e0 a0 9c 45 bf c6 f4 ed bf 5b 4f 4f bf 31 2e 02 40
       -0.77192116 -1.8590324 -0.8098046 2.0340693
0001f0 c3 20 3d bf 22 62 38 bf 29 0d f3 bf 50 b6 da bf
       -0.73878115 -0.7202474 -1.8988391 -1.7086887

decoder.lstm.bias_hh_l0 f4 [128]
000000 7b 40 66 bf 6b 9c ca bf cc 5e 23 bf 9e 78 36 bf
       -0.8994214 -1.5828985 -0.63816524 -0.712778
000010 a4 00 88 bf d0 ae 6e bf ae 8c 39 bf 09 51 49 bf
       -1.0625196 -0.9323549 -0.72480285 -0.78639275
000020 f9 24 40 bf 0f 06 8e bf 2c f6 28 bf 6e 36 94 bf
       -0.75056416 -1.1095599 -0.6600063 -1.1579111
000030 1a 32 bc bf b9 82 74 bf a4 5e 83 bf 23 8d 41 bf
       -1.470279 -0.95511967 -1.0263257 -0.7560598
000040 dd 6b b4 bf 79 22 55 bf ff cf 22 bf 89 db 38 bf
       -1.4095417 -0.83255726 -0.63598627 -0.72209984
000050 3e 66 1a bf b2 26 19 bf a6 1f c2 bf 0c 0a 89 bf
       -0.6031226 -0.5982467 -1.5165908 -1.0706191
000060 0a bf 33 bf e9 7b d2 bf a5 04 70 bf 2c d0 ac be
       -0.7021338 -1.6444064 -0.93757087 -0.33752573
000070 74 05 45 bf bb 2b 49 bf ec 10 a7 bf e3 53 e5 bf
       -0.76961446 -0.7858235 -1.3052039 -1.7916225
000080 45 c5 2c be c0 d3 24 bf 8d 5a ab bd 55 3d 42 bf
       -0.16872127 -0.64385605 -0.083668806 -0.75874835
000090 b7 7c c6 be 4d 71 73 be 9e 38 a8 bf 52 e6 a4 be
       -0.38767025 -0.2377369 -1.3142278 -0.3220697
0000a0 9b 02 de bf d9 90 12 be ad 71 7d bf bb 19 46 3c
       -1.7344545 -0.14313067 -0.9900158 0.012091096
0000b0 d7 7c 4a bf 9b 7e e9 bf bf 0a 31 bf 34 d3 6f be
       -0.7909674 -1.8241762 -0.6915702 -0.23420411
0000c0 8a 00 04 bf 81 8f 38 bf 0b 57 f1 be bd a5 2b bf
       -0.5156332 -0.7209397 -0.4713672 -0.6704977
0000d0 bc d2 20 bf 25 96 40 be c8 83 87 bf 1e 40 9c bf
       -0.62821555 -0.18807276 -1.0587091 -1.2207067
0000e0 aa 78 89 be 02 ff a7 bf 3a e7 43 bf e8 1c 3e be
       -0.26849872 -1.3124697 -0.765247 -0.18565714
0000f0 70 3a 21 bf 85 44 21 bf f7 06 97 bf 6f 1c 3e bf
       -0.62979794 -0.6299518 -1.1799 -0.74262136
000100 b1 4e d5 bd 5a a8 65 bc b2 ce fe 3d b9 5c 0d 3e
       -0.104154 -0.014017189 0.12441768 0.13804902
000110 d6 84 2c 3e 90 3c a3 3e 4d 44 b9 bd 11 41 37 3e
       0.16847548 0.31882143 -0.090462305 0.17895915
000120 14 cb 2b 3f 0f fb 20 3d 0f 1c 10 be 24 3b 50 bd
       0.6710675 0.039301928 -0.14073204 -0.05083765
000130 07 5b 21 bd c8 ad 59 3e fa 9d 0f be 77 08 36 3e
       -0.03939345 0.21257699 -0.14025107 0.17776667
000140 12 34 a9 bc 69 31 49 3e 00 da 01 be 4c a8 95 3e
       -0.020654712 0.19647755 -0.12680817 0.29229963
000150 bb e2 cf 3e 74 42 46 bb 29 16 3c bf ce 83 4e bb
       0.4060267 -0.0030252011 -0.73471314 -0.0031511667
000160 12 be 16 be d4 ee b1 bd 46 0c b9 3c 99 e0 22 3e
       -0.14720944 -0.08688131 0.02258886 0.1590599
000170 fc 02 5d bd 08 92 bf 3c 88 cf 3d 3d bd b2 c8 bc
       -0.053957924 0.023385063 0.046340495 -0.024499292
000180 7d 1f 75 bf 2e e4 d2 bf 7a 36 34 bf 22 0e 3d bf
       -0.9575117 -1.6475885 -0.70395625 -0.7384969
000190 ff 84 5d bf 03 5e 9c bf 65 28 37 bf 66 59 3f bf
       -0.8653106 -1.221619 -0.7154601 -0.74745786
0001a0 09 18 31 3c 96 b3 cf bf 18 79 77 bf 5d 3d 16 bf
       0.010808953 -1.622668 -0.9666915 -0.5868738
0001b0 b7 70 e4 bf 11 3c 46 bf d1 de 53 bf 7f ed 08 bf
       -1.7846898 -0.77435404 -0.82761866 -0.5348739
0001c0 ca c5 fa bf 2f da 57 bf 51 91 22 bf 6f dc 51 bf
       -1.959161 -0.84317297 -0.63502985 -0.8197698
0001d0 80 14 10 bf fe 8c 40 bf 81 bd c0 bf 56 57 26 bf
       -0.5628128 -0.75215137 -1.5057832 -0.64977014
0001e0 9b 2b 30 bf 49 72 e5 bf 20 3b 1e bf d0 8b 01 40
       -0.68816537 -1.7925502 -0.6180897 2.0241585
0001f0 29 80 43 bf d7 79 d9 be 2a 30 f8 bf 76 24 cb bf
       -0.7636743 -0.4247577 -1.9389699 -1.5870502

decoder.linear.weight f4 [1, 32]
000000 89 8f 43 3d a8 87 bf bc a3 88 4f be ed ad 07 bf
       0.047744308 -0.023380116 -0.20266967 -0.52999765
000010 34 4c 5d be 21 dc 03 bf 37 72 15 3f cb 16 c8 be
       -0.216111 -0.51507765 0.58377403 -0.3907989
000020 30 76 85 bf 6d ae 0e bf 51 08 1a 3e 02 f2 d8 3e
       -1.0426693 -0.557349 0.15042235 0.42372137
000030 0c 18 d6 bc cb 4b 4e bf a3 cb 9a 3f fe 08 9c be
       -0.026134513 -0.805844 1.2093395 -0.3047561
000040 75 5f d0 ba b2 d5 92 be 7d 58 bb 3e c6 4a 9e be
       -0.0015897589 -0.28678662 0.3659095 -0.30916423
000050 30 97 f6 3e a0 9e d6 be 57 ab 27 bf d2 8f 97 bf
       0.48162222 -0.41917896 -0.6549582 -1.1840765
000060 8b d1 77 3e 74 5c 85 bc 06 82 76 3f 02 27 b9 bf
       0.24201028 -0.016279437 0.9629215 -1.4465029
000070 48 22 84 3e 81 2b e1 be 11 e4 d4 3b f6 86 56 3b
       0.25807405 -0.43978503 0.006496914 0.0032734252
