results/decoder_not_recurrent_LSTM_enc_dec_output/215_model.pt (torch, 860225 bytes, 10 tensors)

output_zeros f4 [399, 512, 1]
000000 00 00 00 00 00 00 00 00 00 00 00 00 00 00 00 00
       0.0 0.0 0.0 0.0
000010 00 00 00 00 00 00 00 00 00 00 00 00 00 00 00 00
       0.0 0.0 0.0 0.0
000020 00 00 00 00 00 00 00 00 00 00 00 00 00 00 00 00
       0.0 0.0 0.0 0.0
000030 00 00 00 00 00 00 00 00 00 00 00 00 00 00 00 00
       0.0 0.0 0.0 0.0
000040 00 00 00 00 00 00 00 00 00 00 00 00 00 00 00 00
       0.0 0.0 0.0 0.0
000050 00 00 00 00 00 00 00 00 00 00 00 00 00 00 00 00
       0.0 0.0 0.0 0.0
000060 00 00 00 00 00 00 00 00 00 00 00 00 00 00 00 00
       0.0 0.0 0.0 0.0
000070 00 00 00 00 00 00 00 00 00 00 00 00 00 00 00 00
       0.0 0.0 0.0 0.0
000080 00 00 00 00 00 00 00 00 00 00 00 00 00 00 00 00
       0.0 0.0 0.0 0.0
000090 00 00 00 00 00 00 00 00 00 00 00 00 00 00 00 00
       0.0 0.0 0.0 0.0
0000a0 00 00 00 00 00 00 00 00 00 00 00 00 00 00 00 00
       0.0 0.0 0.0 0.0
0000b0 00 00 00 00 00 00 00 00 00 00 00 00 00 00 00 00
       0.0 0.0 0.0 0.0
0000c0 00 00 00 00 00 00 00 00 00 00 00 00 00 00 00 00
       0.0 0.0 0.0 0.0
0000d0 00 00 00 00 00 00 00 00 00 00 00 00 00 00 00 00
       0.0 0.0 0.0 0.0
0000e0 00 00 00 00 00 00 00 00 00 00 00 00 00 00 00 00
       0.0 0.0 0.0 0.0
0000f0 00 00 00 00 00 00 00 00 00 00 00 00 00 00 00 00
       0.0 0.0 0.0 0.0
000100 00 00 00 00 00 00 00 00 00 00 00 00 00 00 00 00
       0.0 0.0 0.0 0.0
000110 00 00 00 00 00 00 00 00 00 00 00 00 00 00 00 00
       0.0 0.0 0.0 0.0
000120 00 00 00 00 00 00 00 00 00 00 00 00 00 00 00 00
       0.0 0.0 0.0 0.0
000130 00 00 00 00 00 00 00 00 00 00 00 00 00 00 00 00
       0.0 0.0 0.0 0.0
000140 00 00 00 00 00 00 00 00 00 00 00 00 00 00 00 00
       0.0 0.0 0.0 0.0
000150 00 00 00 00 00 00 00 00 00 00 00 00 00 00 00 00
       0.0 0.0 0.0 0.0
000160 00 00 00 00 00 00 00 00 00 00 00 00 00 00 00 00
       0.0 0.0 0.0 0.0
000170 00 00 00 00 00 00 00 00 00 00 00 00 00 00 00 00
       0.0 0.0 0.0 0.0
000180 00 00 00 00 00 00 00 00 00 00 00 00 00 00 00 00
       0.0 0.0 0.0 0.0
000190 00 00 00 00 00 00 00 00 00 00 00 00 00 00 00 00
       0.0 0.0 0.0 0.0
0001a0 00 00 00 00 00 00 00 00 00 00 00 00 00 00 00 00
       0.0 0.0 0.0 0.0
0001b0 00 00 00 00 00 00 00 00 00 00 00 00 00 00 00 00
       0.0 0.0 0.0 0.0
0001c0 00 00 00 00 00 00 00 00 00 00 00 00 00 00 00 00
       0.0 0.0 0.0 0.0
0001d0 00 00 00 00 00 00 00 00 00 00 00 00 00 00 00 00
       0.0 0.0 0.0 0.0
0001e0 00 00 00 00 00 00 00 00 00 00 00 00 00 00 00 00
       0.0 0.0 0.0 0.0
0001f0 00 00 00 00 00 00 00 00 00 00 00 00 00 00 00 00
       0.0 0.0 0.0 0.0
000200 00 00 00 00 00 00 00 00 00 00 00 00 00 00 00 00
       0.0 0.0 0.0 0.0
000210 00 00 00 00 00 00 00 00 00 00 00 00 00 00 00 00
       0.0 0.0 0.0 0.0
000220 00 00 00 00 00 00 00 00 00 00 00 00 00 00 00 00
       0.0 0.0 0.0 0.0
000230 00 00 00 00 00 00 00 00 00 00 00 00 00 00 00 00
       0.0 0.0 0.0 0.0
000240 00 00 00 00 00 00 00 00 00 00 00 00 00 00 00 00
       0.0 0.0 0.0 0.0
000250 00 00 00 00 00 00 00 00 00 00 00 00 00 00 00 00
       0.0 0.0 0.0 0.0
000260 00 00 00 00 00 00 00 00 00 00 00 00 00 00 00 00
       0.0 0.0 0.0 0.0
000270 00 00 00 00 00 00 00 00 00 00 00 00 00 00 00 00
       0.0 0.0 0.0 0.0
000280 00 00 00 00 00 00 00 00 00 00 00 00 00 00 00 00
       0.0 0.0 0.0 0.0
000290 00 00 00 00 00 00 00 00 00 00 00 00 00 00 00 00
       0.0 0.0 0.0 0.0
0002a0 00 00 00 00 00 00 00 00 00 00 00 00 00 00 00 00
       0.0 0.0 0.0 0.0
0002b0 00 00 00 00 00 00 00 00 00 00 00 00 00 00 00 00
       0.0 0.0 0.0 0.0
0002c0 00 00 00 00 00 00 00 00 00 00 00 00 00 00 00 00
       0.0 0.0 0.0 0.0
0002d0 00 00 00 00 00 00 00 00 00 00 00 00 00 00 00 00
       0.0 0.0 0.0 0.0
0002e0 00 00 00 00 00 00 00 00 00 00 00 00 00 00 00 00
       0.0 0.0 0.0 0.0
0002f0 00 00 00 00 00 00 00 00 00 00 00 00 00 00 00 00
       0.0 0.0 0.0 0.0
000300 00 00 00 00 00 00 00 00 00 00 00 00 00 00 00 00
       0.0 0.0 0.0 0.0
000310 00 00 00 00 00 00 00 00 00 00 00 00 00 00 00 00
       0.0 0.0 0.0 0.0
000320 00 00 00 00 00 00 00 00 00 00 00 00 00 00 00 00
       0.0 0.0 0.0 0.0
000330 00 00 00 00 00 00 00 00 00 00 00 00 00 00 00 00
       0.0 0.0 0.0 0.0
000340 00 00 00 00 00 00 00 00 00 00 00 00 00 00 00 00
       0.0 0.0 0.0 0.0
000350 00 00 00 00 00 00 00 00 00 00 00 00 00 00 00 00
       0.0 0.0 0.0 0.0
000360 00 00 00 00 00 00 00 00 00 00 00 00 00 00 00 00
       0.0 0.0 0.0 0.0
000370 00 00 00 00 00 00 00 00 00 00 00 00 00 00 00 00
       0.0 0.0 0.0 0.0
000380 00 00 00 00 00 00 00 00 00 00 00 00 00 00 00 00
       0.0 0.0 0.0 0.0
000390 00 00 00 00 00 00 00 00 00 00 00 00 00 00 00 00
       0.0 0.0 0.0 0.0
0003a0 00 00 00 00 00 00 00 00 00 00 00 00 00 00 00 00
       0.0 0.0 0.0 0.0
0003b0 00 00 00 00 00 00 00 00 00 00 00 00 00 00 00 00
       0.0 0.0 0.0 0.0
0003c0 00 00 00 00 00 00 00 00 00 00 00 00 00 00 00 00
       0.0 0.0 0.0 0.0
0003d0 00 00 00 00 00 00 00 00 00 00 00 00 00 00 00 00
       0.0 0.0 0.0 0.0
0003e0 00 00 00 00 00 00 00 00 00 00 00 00 00 00 00 00
       0.0 0.0 0.0 0.0
0003f0 00 00 00 00 00 00 00 00 00 00 00 00 00 00 00 00
       0.0 0.0 0.0 0.0

encoder.lstm.weight_ih_l0 f4 [128, 4]
000000 b5 72 09 40 ef d0 0c 40 72 f1 68 bf 16 08 92 bf
       2.1476262 2.2002523 -0.90993416 -1.1408718
000010 2f ca dc 3f af d5 61 c0 b0 fd b1 be b5 23 6c 40
       1.7249202 -3.5286672 -0.3476386 3.6896794
000020 e5 d7 d5 40 91 88 07 3f a5 4f 33 3f aa e9 83 c0
       6.6826043 0.5294276 0.700434 -4.1222734
000030 35 34 15 40 72 a6 06 40 54 a1 89 40 4b c8 84 bf
       2.3313115 2.103909 4.3009434 -1.0373625
000040 5c cf 44 40 06 10 f4 bf 8f 5f 09 3f 06 85 0f 40
       3.0751562 -1.906739 0.53661436 2.242494
000050 03 58 1f 3f 1a fb 36 c0 99 e0 12 40 f9 4f bb bd
       0.6224367 -2.859076 2.2949584 -0.09146113
000060 76 52 01 40 45 3c 25 40 d7 f5 16 c0 40 59 b7 bf
       2.020658 2.5818036 -2.3587549 -1.4324112
000070 84 ec 90 40 e6 f2 a8 3f 80 c7 90 c0 40 44 fa 3e
       4.5288715 1.3199127 -4.524353 0.48880196
000080 be 06 7d 40 2d 7c 2a 3f ed 5e f5 bf b2 57 b3 3e
       3.9535365 0.6659573 -1.9169594 0.35027844
000090 3f 36 54 be a6 96 83 40 f5 7f d1 be 3b f8 40 c0
       -0.20723818 4.1121397 -0.40917936 -3.0151508
0000a0 27 37 87 40 eb b6 ed 3f e9 80 61 40 c8 a6 d6 3f
       4.2254825 1.8571447 3.523493 1.6769648
0000b0 f0 88 9d 40 f9 af 47 bf aa 00 6c bf 98 fe 0e bf
       4.922966 -0.7800289 -0.92188513 -0.5585723
0000c0 88 48 f9 3f b2 59 c8 3f 78 7e 52 40 32 c2 07 3e
       1.947526 1.5652373 3.288969 0.13257673
0000d0 e2 52 60 40 40 22 69 40 ef d7 ee bd af fd a5 3e
       3.5050588 3.6427155 -0.1166228 0.32420108
0000e0 a1 df a6 3e 73 bd 65 c0 8d 4f 29 3f 18 df ce 3f
       0.3259249 -3.589688 0.6613701 1.6161833
0000f0 7b 39 0c 3e c3 f2 a6 bf db 28 97 be 43 77 4c 40
       0.13693802 -1.3042835 -0.29523358 3.1947792
000100 b8 7e 37 c0 4b 00 97 40 99 04 a3 40 d8 28 1b 3f
       -2.8671093 4.718786 5.094311 0.606092
000110 7b f1 24 bf 1b 73 d8 3f a4 d9 8f 40 af 59 a9 3f
       -0.6443097 1.6910127 4.4953175 1.3230494
000120 95 5d 80 3e 5f b0 7e 3e c2 8f 01 bf a5 58 1e 40
       0.25071397 0.24871968 -0.5060998 2.4741604
000130 4c 76 44 3f 3f 49 11 40 ac fe 62 bf 6d b6 35 3d
       0.76743007 2.2700956 -0.8866985 0.044363428
000140 08 83 c1 3f 4b 1f 84 bd 38 7a d1 bf 29 e9 d6 3f
       1.5118113 -0.06451281 -1.6365423 1.6789905
000150 4f b8 cd 3f 3f fb 91 be 4c be 83 bf 3c 07 b2 bf
       1.6071872 -0.28511998 -1.0292449 -1.3908458
000160 b1 f3 8b bf fa 9f a5 40 5f c8 25 bf f7 ea 6f 40
       -1.0933744 5.1757784 -0.6475887 3.748716
000170 68 3a 28 3f 2e ab 36 40 c1 c4 aa bf 4a 51 8b 3f
       0.6571412 2.854198 -1.3341295 1.0884182
000180 6c 5e 9e 40 0e 20 69 40 13 4e e5 bf 22 e0 47 c0
       4.949026 3.6425815 -1.7914451 -3.123055
000190 59 d0 b7 40 ad 88 af 3f d0 04 25 40 52 e0 25 c0
       5.744183 1.3713585 2.5784187 -2.5918164
0001a0 4e 87 b1 3e 91 49 9a 3f 65 41 2f 40 9c 35 f5 3f
       0.34673542 1.2053701 2.7383664 1.9156985
0001b0 51 76 94 3e b6 1c b9 40 bb 0e 67 c0 b2 bc 28 c0
       0.28996518 5.7847548 -3.610274 -2.636517
0001c0 04 6a 11 c0 06 43 82 40 18 cc a4 bf 24 29 5b c0
       -2.2720957 4.0706816 -1.2874784 -3.424386
0001d0 0c 5d 4b 40 6e 3a 5c c0 3f e7 e2 be 08 bf 13 be
       3.1775541 -3.4410663 -0.44317052 -0.14428341
0001e0 b6 6b 78 40 b5 4c 95 3e fd 5c 12 3f b0 c5 22 40
       3.8815742 0.29160085 0.5717314 2.543316
0001f0 66 f7 d0 bf 00 a6 e5 3f 0f b4 63 40 d1 ab 25 bf
       -1.63255 1.7941284 3.557865 -0.64715296
000200 2e 1e a9 40 16 75 21 40 f7 19 3a 40 f4 01 65 c0
       5.284934 2.5227714 2.9078348 -3.5782442
000210 5f ea cb bf a8 46 dd 3f 09 fb ca bf 94 73 5f c0
       -1.5930899 1.7287188 -1.585786 -3.4914293
000220 35 2f 95 c0 b6 93 0a 40 ae 54 1a c0 b7 ea aa be
       -4.6620126 2.1652656 -2.4114184 -0.33382198
000230 42 39 f3 bf af 50 00 40 7d 71 7f c0 65 c4 4c 3f
       -1.9001849 2.0049245 -3.9913018 0.79987174
000240 c3 68 17 c0 9d 55 e3 bf 93 51 a0 bf 69 73 79 3f
       -2.3657691 -1.7760502 -1.2524894 0.97441727
000250 93 0a ca bf 93 a1 4a 3d 9d 9b 47 bf 26 32 86 3f
       -1.5784477 0.049470495 -0.7797182 1.0484054
000260 3c d9 94 40 7f ee 24 3f be a1 5d bf d3 8a 90 be
       4.651518 0.64426416 -0.86574924 -0.28230914
000270 fa 5c 9c bf 48 bf de 40 d8 5e 3d bf 7f 6f 5e c0
       -1.2215874 6.96085 -0.73972845 -3.4755552
000280 3d 05 ce bf 52 f8 e9 3f 56 34 50 c0 b7 a3 6d c0
       -1.6095349 1.8278906 -3.2531943 -3.7131174
000290 62 0c 64 3e d3 09 65 bf bb 4d 24 40 ac 80 d7 3f
       0.22270349 -0.89468116 2.5672443 1.6836143
0002a0 6f 41 21 bf 7d 1a 07 c0 7a 47 a4 c0 3a 43 42 40
       -0.6299047 -2.1109917 -5.133725 3.0353532
0002b0 20 56 6d 3f 1b 25 07 40 12 c6 08 40 e8 0a 36 bf
       0.9270954 2.1116397 2.1370893 -0.7111039
0002c0 5e f6 a8 bf e0 4c 22 40 79 02 2a c0 9a d7 88 c0
       -1.3200185 2.535942 -2.656401 -4.2763186
0002d0 55 19 79 c0 06 5d 19 40 37 5f b0 bf 9c b1 67 bf
       -3.8921711 2.3963027 -1.3779057 -0.90505385
0002e0 d9 fb a3 bf 6e d7 03 40 7b 1c d8 bf a6 c4 c5 bf
       -1.2811233 2.0600238 -1.6883692 -1.5450637
0002f0 9e d1 34 c0 17 1c 03 40 22 aa 2e bf 0e d3 e6 bf
       -2.825294 2.0485895 -0.6822835 -1.8033159
000300 7e 77 60 3f 09 19 b0 bf 8e a2 8a 40 5f 96 e8 bf
       0.8768233 -1.375764 4.332343 -1.817089
000310 7d 01 35 40 96 3c 33 c0 c8 b4 b2 c0 28 4b 79 3f
       2.8282158 -2.8005729 -5.584568 0.97380304
000320 e9 0d 64 c0 da e2 21 3e eb 84 05 c0 73 25 26 3d
       -3.563349 0.15809193 -2.0862377 0.040563058
000330 3b e6 35 c0 c5 31 52 40 47 90 31 3f 1b ea 04 c0
       -2.8421772 3.2842877 0.69360775 -2.0767887
000340 d1 2d 30 40 81 da 2f 40 ea db 4b be 56 b8 4c 3e
       2.7527964 2.7477114 -0.1990811 0.19992194
000350 99 1f 9c be 7e 32 ee be 1c 73 19 c0 e7 21 39 bf
       -0.30492857 -0.46522897 -2.3976507 -0.72317356
000360 5c 3d 3a c0 a4 cb 33 40 62 37 2a 40 05 42 b0 bd
       -2.909995 2.8093042 2.6596303 -0.08606342
000370 8a 5d 76 40 9f 90 f5 3e e1 e1 0a c0 41 c5 37 bf
       3.8494592 0.479619 -2.1700366 -0.7178536
000380 08 1f 9e be 01 76 55 c0 b8 cc bb bf e4 a5 73 bf
       -0.3088305 -3.3353274 -1.467185 -0.95175004
000390 0d 2f 50 3f f0 0b 11 40 c1 1b 81 c0 79 22 32 3f
       0.81321794 2.2663536 -4.034638 0.6958385
0003a0 0e 47 f3 3f 5a f7 0f be 68 9e 9a c0 44 37 d2 bf
       1.9006059 -0.14059201 -4.8318367 -1.6423116
0003b0 73 a2 12 c0 ff e6 90 3f 9e 83 8f bf 3f 87 46 c0
       -2.291165 1.1320494 -1.1212041 -3.1020048
0003c0 f4 f5 58 bf 56 49 d0 3f cb fc b8 c0 c1 b4 19 3d
       -0.84750295 1.627238 -5.7808585 0.037525896
0003d0 57 cb 04 40 c6 46 ec 3f 4c 4b 7d 40 5e 95 c5 bf
       2.0749109 1.8459098 3.9577208 -1.5436208
0003e0 c2 98 b5 40 89 06 b6 40 5e e5 12 c0 66 aa 9a be
       5.674897 5.6882977 -2.2952495 -0.3020813
0003f0 e8 73 0c c0 9c 2c f2 3f 52 56 32 bf 26 38 80 bf
       -2.1945744 1.8919864 -0.69662964 -1.0017135

encoder.lstm.weight_hh_l0 f4 [128, 32]
000000 66 f2 c0 c0 b0 e1 51 bf 56 30 57 bf 58 87 c2 3e
       -6.0295897 -0.81984997 -0.8405813 0.37993884
000010 9c 57 c9 3e fe db 58 bf 69 bf 19 40 fe 1c 7b 40
       0.39324653 -0.8471068 2.4023077 3.9236445
000020 30 cf ee 3e 32 8a 8d bf 11 76 2f 3e 81 57 c9 bf
       0.46642447 -1.1057799 0.17134883 -1.5729829
000030 0f 69 0c bf 9d ee 9f bf be da 03 be 86 4d 08 bf
       -0.54847807 -1.2494694 -0.12876412 -0.5324329
000040 24 a1 a7 3e b5 b5 0f c0 19 93 b1 3e fc 68 15 c0
       0.32740128 -2.2454655 0.3468254 -2.3345327
000050 ca 4f dd 3f 27 2e a6 bf 77 00 ab bf b0 03 10 40
       1.7289975 -1.2982835 -1.3359517 2.250225
000060 f3 ca 08 bf 3d 77 ab c0 c2 62 a7 be 5b 8c a7 3e
       -0.53434676 -5.3583055 -0.32692534 0.3272427
000070 c6 ca c5 bf 37 42 2c 3e f6 f1 c5 3f 0c c0 a0 40
       -1.5452507 0.16822134 1.5464466 5.023443
000080 62 0a ee bf 2d 78 b0 be 63 b3 68 c0 41 5b ad c0
       -1.8596919 -0.34466687 -3.635949 -5.4173894
000090 81 4b 01 bf d6 fa 6b 3f 72 8f da bf 53 c3 20 c0
       -0.50505835 0.9217962 -1.7075026 -2.5119216
0000a0 18 3c 84 c0 06 2e 9a bf e8 01 2f c0 d1 cd 3f bf
       -4.1323357 -1.2045295 -2.7344913 -0.74923426
0000b0 da c1 e9 3d cc f4 53 3f ad f3 51 3f e5 84 f7 bd
       0.114139274 0.82795405 0.82012445 -0.120858945
0000c0 dc c8 3a be 50 0b 9c 3e 89 94 c2 bf f1 c4 17 40
       -0.18240684 0.3047738 -1.5201579 2.3713953
0000d0 6b e6 84 3f f3 92 6c c0 9d 32 5f 40 70 b0 91 3e
       1.0382818 -3.696469 3.4874642 0.28454924
0000e0 e5 8b 6b 3f e7 bd 6f 3f ca 2a 89 bf ce f2 0a 40
       0.9201034 0.93649143 -1.0716183 2.1710696
0000f0 6c b3 ad be e6 76 7e be e9 e3 b3 3f 90 56 f1 bf
       -0.3392595 -0.24850044 1.4053928 -1.8854542
000100 07 f6 91 bf 4c 84 d7 bf dc 9e 20 be ca 52 c1 bc
       -1.1403207 -1.6837249 -0.156856 -0.023599047
000110 ea 51 b1 3f 63 6f 2b c0 c2 6c 44 3f 22 7e df bf
       1.3853123 -2.6786735 0.7672845 -1.7460368
000120 b9 59 4c bf d1 a1 07 c0 a4 a1 05 40 43 30 22 bf
       -0.79824406 -2.1192515 2.0879908 -0.6335489
000130 2a f4 9f bd 55 0c 04 3f 47 ff fb 3e 78 6d 77 bf
       -0.078102425 0.5158132 0.492182 -0.9665141
000140 a2 3d 2f 40 27 93 a9 bf ca f5 a0 bf de bc 7f 3f
       2.7381368 -1.3248032 -1.2575009 0.99897563
000150 bb 0e 8a bd 67 29 64 3f c6 5c 72 40 c4 e7 d4 3e
       -0.06741091 0.89125675 3.7869124 0.41583073
000160 71 2a d1 3e 65 98 9b 3e 48 6e 6b be 62 37 44 3f
       0.40852693 0.30389705 -0.22991288 0.7664701
000170 26 7d 93 bf a9 cf 7c 3e d9 98 b2 3f c9 20 88 3f
       -1.1522567 0.24688591 1.3952895 1.0635005
000180 bd a6 fe 3f db 63 3d be 1f 68 1b 40 fd 57 50 c0
       1.9894634 -0.18495123 2.42823 -3.2553704
000190 81 0e 24 3e db 3f 12 be 8c 8a 84 bf da 30 17 c0
       0.16021158 -0.14282171 -1.0354781 -2.3623567
0001a0 2e 84 97 bf f7 ec 06 c0 e1 1c 10 bf 5b 03 6b bf
       -1.1837213 -2.1082132 -0.56294066 -0.91801995
0001b0 eb d2 03 c0 12 3e 6d 3f 61 94 5c 3d b8 bf 6d 40
       -2.0597484 0.92672837 0.053852443 3.7148266
0001c0 ec 7c 6a c0 78 50 54 c0 99 02 28 bf 15 63 28 c0
       -3.6638746 -3.3174114 -0.65628964 -2.6310475
0001d0 7d 97 22 40 aa 98 04 3f d3 71 00 c0 24 8f 02 3f
       2.540496 0.51795447 -2.0069473 0.50999665
0001e0 74 5f f6 3c d4 8b 8b bf 03 92 44 c0 2d 4e e5 3d
       0.030074812 -1.0902047 -3.0714118 0.111965515
0001f0 67 e0 0e 40 dd 7d 0f 40 52 9f 31 bf 77 7f 2d 40
       2.2324464 2.242057 -0.6938373 2.7109048
000200 cf ba 3d bf e0 67 28 c0 77 d9 22 c0 ff 30 db 3e
       -0.7411317 -2.63134 -2.544523 0.4281082
000210 8e 14 b2 bf 41 d4 80 bf f8 5c 5d 3e f4 50 36 bf
       -1.3912523 -1.0064775 0.21617496 -0.71217275
000220 a9 31 14 3e e3 df 21 c0 47 28 84 3d d8 a4 7a bf
       0.14472069 -2.52929 0.06452995 -0.9790778
000230 1d fe f4 b9 48 f5 4f c0 16 74 b5 3f 76 63 a4 bf
       -0.00046728636 -3.2493458 1.4176052 -1.2842853
000240 70 a8 e4 3f 4a 52 a3 bf 9e 2a ec 3f da b4 74 be
       1.7863903 -1.2759488 1.8450506 -0.23897114
000250 cf 9a e4 bf 12 9c 7c 3f dd ac 4d bf d0 70 bc 3e
       -1.7859744 0.98675644 -0.80341893 0.3680482
000260 0f c3 f8 3f fe 5c 33 bf a8 db cf bf 73 f2 bd 3e
       1.9434527 -0.7006377 -1.6238909 0.37099037
000270 85 d2 58 3f 09 26 57 bf 85 b9 7c bf 75 93 6b 3f
       0.8469623 -0.8404241 -0.9872058 0.92021877
000280 00 b3 a3 3e b1 98 c9 3f db ee 8d 3e 32 8b 67 3f
       0.31972504 1.5749723 0.27721295 0.9044677
000290 87 82 9f bf 45 b4 03 40 52 66 5e 40 25 4d 3a c0
       -1.2461709 2.0578778 3.4749951 -2.9109585
0002a0 c3 e5 bf bf d0 de d4 bf c9 90 6e bf 45 c1 20 c0
       -1.4991993 -1.6630497 -0.93189675 -2.5117962
0002b0 38 54 f6 be 64 43 8a 3e 11 cb bf bf 63 17 af 3f
       -0.4811113 0.2700454 -1.4983846 1.3679012
0002c0 dc 4b b8 3f cc 3b 9b 3e 21 7c 14 bf 36 98 0f 40
       1.439815 0.3031906 -0.58001906 2.2436652
0002d0 d5 80 d5 bf bd 5b 4f 3f 4f 78 00 40 8a b2 cc bf
       -1.6679941 0.80999357 2.007343 -1.5991986
0002e0 8f 2e 72 3e 5d 94 a1 3f a2 ee 0b bf ef d4 ce 3f
       0.23650573 1.2623402 -0.54661 1.6158732
0002f0 43 b8 5f 3f 67 95 a0 bf b4 ce d8 3f f1 dd 01 bf
       0.87390536 -1.2545594 1.6938081 -0.5072928
000300 0e 87 0b bf cb 07 10 40 7f 36 3b 3f 9d 0b 9d bf
       -0.5450295 2.2504756 0.7313003 -1.2269169
000310 4b 87 69 3f 63 18 ea bf 56 78 8b bf 6e c6 3a 3f
       0.91222066 -1.8288692 -1.0896099 0.7295903
000320 98 77 01 c0 1a f9 15 c0 0d b7 33 bf f3 0c eb 3e
       -2.0229244 -2.343329 -0.7020119 0.45908317
000330 d7 e0 c0 bf 5a 34 76 bf 3d 44 46 c0 31 26 6d 3f
       -1.5068616 -0.9617363 -3.097915 0.926364
000340 c6 0f db 3e 0e f0 0c 40 9e c0 28 bf 03 4c 26 3f
       0.42785472 2.2021518 -0.6591891 0.64959735
000350 f5 87 93 3e 5f 0f 5b be b8 fc 2e c0 4e b3 81 40
       0.28814664 -0.21392582 -2.7341747 4.053138
000360 6b c1 89 c0 a0 37 44 40 ca 5b 91 3f a6 da aa c0
       -4.3048606 3.065895 1.1356137 -5.3391905
000370 b8 17 2f c0 8c 46 30 3f 45 aa 71 3f b6 7b 80 bf
       -2.7358227 0.68857646 0.94400436 -1.0037754
000380 80 a0 8f 3f 5c 5b 54 bf fc c2 a1 3f 64 c5 96 bf
       1.1220856 -0.82951903 1.263763 -1.1778989
000390 cc b7 a7 bf 12 ba 1e be be f1 06 be 49 3d c3 3f
       -1.3102965 -0.15500668 -0.13178155 1.5253078
0003a0 3f db a9 be 4b b8 25 c0 09 67 01 3f d4 a5 20 c0
       -0.33175084 -2.5893734 0.50547844 -2.5101213
0003b0 e1 33 00 bf 65 9e 84 c0 bb 03 71 3e c8 a4 80 40
       -0.5007916 -4.1443353 0.2353658 4.020115
0003c0 79 91 61 40 45 e4 3e bf c5 a3 30 40 62 ce 7f 40
       3.524504 -0.7456706 2.7599957 3.9969716
0003d0 af 17 41 c0 b9 85 3d 40 52 54 c4 bf 27 9c 1b bd
       -3.0170705 2.9612868 -1.5338233 -0.037990715
0003e0 b4 1c a6 3f af 7c 16 40 ca 12 df 3f fa c1 13 40
       1.297751 2.35136 1.7427609 2.3087144
0003f0 56 3e cf 3f 00 7c 65 bf 98 ac 70 bf 1a 04 e2 3e
       1.6190898 -0.89642334 -0.9401336 0.44143754

encoder.lstm.bias_ih_l0 f4 [128]
000000 71 7c 45 c0 9e b4 31 c0 06 05 e4 bf 37 2e 13 c0
       -3.0857203 -2.776649 -1.7814033 -2.2996957
000010 0c f7 30 c0 74 99 15 c0 5c 78 35 c0 a3 a0 fd bf
       -2.7650785 -2.337491 -2.8354712 -1.9814647
000020 2f 1e 1e c0 cf f0 43 c0 c1 55 23 c0 17 4a 2f c0
       -2.4705923 -3.0615728 -2.552109 -2.738897
000030 86 02 3b c0 64 ce 74 c0 34 be 02 c0 36 e8 9f bf
       -2.922029 -3.825097 -2.042859 -1.249274
000040 59 f3 bf bf bc 9f 02 c0 a9 5d 2e c0 39 dd dd bf
       -1.4996139 -2.0409994 -2.7244666 -1.7333137
000050 8d 18 e9 bf 4f 70 32 c0 10 cb 85 bf cf 19 d2 bf
       -1.8210617 -2.7881048 -1.0452595 -1.6414126
000060 53 09 f4 bf c8 a7 f1 bf a9 42 19 c0 bc 45 e9 bf
       -1.9065346 -1.8879328 -2.3946936 -1.8224406
000070 20 a4 34 c0 f6 83 0c c0 d5 08 7b bf dc f6 fb bf
       -2.8225174 -2.1955543 -0.9806035 -1.968471
000080 08 13 7a bf 63 7c f4 bf bf f6 aa bf 70 44 8c bf
       -0.9768529 -1.910046 -1.3356551 -1.0958385
000090 cd 5f 9f bf c4 d4 6e bf 5f 42 bc 3d 1d 07 04 c0
       -1.2451111 -0.93293405 0.09192347 -2.0629342
0000a0 63 d5 25 40 25 7e 3a be b5 4f 8f bf 4c ad 98 bd
       2.591149 -0.18212183 -1.11962 -0.07454929
0000b0 c9 0a dc bf 5c c2 9d 40 23 7f 18 c0 6f db d6 bf
       -1.7190791 4.9299755 -2.3827598 -1.6785716
0000c0 03 e4 a0 3e 10 da e4 bf 9a 35 6c bf da 96 70 bf
       0.3142396 -1.7879047 -0.9226929 -0.9398018
0000d0 d0 ad c9 bd 60 5d 0d c0 e7 69 95 bf 59 7f 09 bf
       -0.09847605 -2.2088242 -1.1672944 -0.5370994
0000e0 cd 44 fb bf 1c ff 80 3e 46 02 36 c0 15 85 ae bf
       -1.9630371 0.25194633 -2.8438888 -1.3634363
0000f0 58 6c 47 3f 89 f9 c6 3e df 6c 69 bf 39 c4 13 bf
       0.77899694 0.38862255 -0.9118175 -0.57721287
000100 f6 2a d9 3e 02 25 04 3f 9a b3 c1 be 2f a3 37 3f
       0.4241559 0.5161897 -0.37832338 0.71733373
000110 30 99 a0 3f 71 52 b0 3f 67 7a 66 3d c8 0a ad bf
       1.2546749 1.3775159 0.056269076 -1.3518915
000120 27 d7 2f 3f 70 ef 95 3f 40 a1 9b 3f cb d3 b3 3f
       0.6868767 1.1713696 1.2158585 1.4049009
000130 ba eb 4a 3f 0d 28 6c 3d 55 a4 b4 3e 95 88 07 bf
       0.7926594 0.057655383 0.35281625 -0.5294278
000140 3d 05 9d bf 00 28 0a 3e 03 e1 49 bf 15 d1 ec be
       -1.2267224 0.13491821 -0.78858966 -0.46253267
000150 82 8b 5f 3f 81 91 a6 bc f0 c4 16 40 a1 c4 7a bf
       0.8732225 -0.020333054 2.35577 -0.9795628
000160 8b 0d 07 bf f7 f6 ef bd 4e 2e 5a bf 96 0b 5f bc
       -0.5275504 -0.11717027 -0.85226905 -0.013613602
000170 29 41 c0 be 52 d8 66 3d b5 30 90 bf 7f 48 c4 3f
       -0.37549713 0.056358643 -1.1264864 1.5334624
000180 85 0d b1 bf f8 13 50 3d fc a5 04 c0 40 ef fd be
       -1.3832251 0.050800294 -2.072631 -0.49596596
000190 2a 5e ca bf a4 10 8a bf 1b 19 b4 be e9 29 c1 be
       -1.5809987 -1.0786328 -0.35175404 -0.37727287
0001a0 b2 98 b7 bf e0 76 00 c0 bd 6c 3e bf e0 1e 44 bf
       -1.4343474 -2.0072556 -0.7438467 -0.7660961
0001b0 25 0b a8 3e ed 11 99 bf ed cf 16 c0 6b 73 61 be
       0.32821003 -1.1958596 -2.3564408 -0.22016685
0001c0 bb 64 f9 bf 6a 02 a9 be bb 17 f9 bf 12 c7 7f bf
       -1.9483865 -0.33009654 -1.9460367 -0.9991313
0001d0 84 cf 3b 3f 2e 6b be bf ac a6 55 bf 16 e2 66 bf
       0.7336352 -1.4876459 -0.83457446 -0.9018873
0001e0 5a d0 31 bf 31 f8 97 3f 5a b2 36 bf 36 80 ee bd
       -0.69458544 1.1872617 -0.7136589 -0.11645548
0001f0 56 d2 2c c0 3e d1 f0 bf a7 b8 da bf 4d a4 2f c0
       -2.700338 -1.8813856 -1.7087601 -2.7444031

encoder.lstm.bias_hh_l0 f4 [128]
000000 09 f2 54 c0 f7 05 20 c0 8f ae f4 bf 4c 63 19 c0
       -3.3272727 -2.500364 -1.9115771 -2.3966856
000010 40 e9 37 c0 0f a2 07 c0 5f 99 36 c0 61 cc e0 bf
       -2.8736115 -2.1192663 -2.853111 -1.7562371
000020 6c 72 23 c0 00 1a 49 c0 c6 fd 16 c0 31 22 20 c0
       -2.5538588 -3.142212 -2.359239 -2.5020869
000030 39 f1 36 c0 20 09 7e c0 db 4b 10 c0 d5 a9 bf bf
       -2.858473 -3.969307 -2.2546299 -1.4973704
000040 8d 2e ca bf 6d 7c f7 bf 04 69 26 c0 83 de da bf
       -1.5795456 -1.9334847 -2.6001596 -1.7099155
000050 ce 10 cc bf eb 84 25 c0 98 65 73 bf ed 13 d6 bf
       -1.5942628 -2.5862377 -0.95076895 -1.6724831
000060 eb 6b ef bf 1e 0e e9 bf 07 9a 23 c0 ea ce 08 c0
       -1.8704809 -1.8207433 -2.556276 -2.137629
000070 4c 3b 37 c0 57 47 02 c0 f9 bb 8c bf 0d 0c ea bf
       -2.8629942 -2.0356042 -1.0994865 -1.8284928
000080 06 67 91 bf ab 57 06 c0 b1 36 b1 bf 73 b9 80 bf
       -1.1359565 -2.0991008 -1.3844815 -1.0056595
000090 d2 bf b6 bf 23 42 76 bf 84 1f 00 3e b0 59 09 c0
       -1.4277289 -0.96194667 0.12512022 -2.146099
0000a0 f6 36 17 40 ea 4c c5 be 8d bc b8 bf 62 32 79 3e
       2.3627295 -0.38535243 -1.4432541 0.24335626
0000b0 3d 1f ec bf 2e 4a 9a 40 99 f2 23 c0 ca cb f7 bf
       -1.8447033 4.821555 -2.561682 -1.9359066
0000c0 f6 13 15 3e d8 31 d7 bf a3 02 87 bf be 40 89 bf
       0.14558396 -1.6812086 -1.054768 -1.0722883
0000d0 ac 73 ed bd 30 21 12 c0 08 76 8f bf fe 89 f6 be
       -0.11594328 -2.2832756 -1.1207895 -0.48152155
0000e0 7f c9 10 c0 99 da e1 3d 33 20 2d c0 c5 40 87 bf
       -2.2622983 0.11028022 -2.7050903 -1.0566641
0000f0 b7 5f 32 3f d4 56 62 3e ff bb 43 bf 17 34 e3 be
       0.696773 0.22103435 -0.76458734 -0.4437568
000100 04 88 ff 3e a6 af 29 3f c9 a3 81 be d1 ca 6e 3f
       0.4990846 0.66283643 -0.2532027 0.93278223
000110 f2 89 8a 3f 92 eb a8 3f d6 d6 ad 3b 8b 99 87 bf
       1.0823348 1.319689 0.0053051515 -1.0593733
000120 90 45 63 3f ec 54 89 3f 3e aa a1 3f 2e 89 ab 3f
       0.8877802 1.0729041 1.2630079 1.3401239
000130 84 80 2c 3f cf 2b cc bc 80 2b e1 3e 7c 8d e0 be
       0.673836 -0.024923233 0.439785 -0.43857944
000140 9e 05 82 bf 00 57 c1 3e e2 8e 1c bf 80 34 7b be
       -1.0157964 0.37761688 -0.6115552 -0.24531746
000150 e0 db 77 3f 87 18 57 3e a5 76 19 40 18 19 7c bf
       0.9681988 0.2100545 2.3978665 -0.9847579
000160 cc 78 07 bf 51 7f e3 3d 3e 89 1b bf aa 82 56 be
       -0.52918696 0.11108268 -0.6075629 -0.20948282
000170 33 05 5f be bc 67 bb 3d 27 17 a5 bf 0b bf c9 3f
       -0.21779327 0.09150645 -1.289769 1.5761427
000180 c3 ff c7 bf f5 b6 6b bd 4d 74 09 c0 29 ac 92 be
       -1.5624927 -0.05754753 -2.1477234 -0.28646973
000190 f5 65 cc bf 23 a2 80 bf a7 c1 d0 be c6 0f 0b bf
       -1.5968615 -1.004948 -0.40772745 -0.54320943
0001a0 7c b4 a7 bf bd af 09 c0 97 42 0c bf c3 38 41 bf
       -1.3101954 -2.1513512 -0.5478911 -0.75477237
0001b0 f5 7a 85 3d ca fa 95 bf 67 82 0c c0 1e 53 ac be
       0.06517593 -1.171716 -2.1954591 -0.33657163
0001c0 5d e6 f4 bf 46 13 bf be d0 d4 ef bf e3 d4 8e bf
       -1.9132801 -0.37319392 -1.873682 -1.1158718
0001d0 47 9a 46 3f b7 28 a4 bf 86 72 66 bf dc 82 42 bf
       0.7757916 -1.2824925 -0.900185 -0.75980926
0001e0 f9 07 f6 be 05 96 8c 3f 25 73 cc be 45 45 06 bd
       -0.48052958 1.0983282 -0.39931598 -0.032780904
0001f0 04 3f 2e c0 77 c5 e5 bf af da f6 bf 19 a3 39 c0
       -2.7225962 -1.7950886 -1.9285487 -2.9005797

decoder.lstm.weight_ih_l0 f4 [128, 5]
000000 63 9b 8d 3d 85 20 a7 bf 08 59 e7 bf f3 32 d3 bf
       0.06914403 -1.3056799 -1.8074045 -1.6499923
000010 39 66 e4 bf 0b 12 8d bf fd f1 e2 bf 61 24 ce bf
       -1.7843696 -1.1021131 -1.7730099 -1.6104852
000020 98 f1 d7 bf c7 cd bf bf d5 b3 d6 3e b7 2f 95 bf
       -1.6870604 -1.4984673 0.41934076 -1.1655186
000030 7c 41 7e bf e7 50 b0 bf ac a6 7c bf 6e 33 c0 3f
       -0.9931867 -1.377469 -0.9869182 1.5015695
000040 f5 6e 98 bf aa a2 78 bf 10 aa 06 bf 97 3e 64 bf
       -1.1908861 -0.97123206 -0.52603245 -0.89158005
000050 ea 4c 01 3f c3 be d0 bf c2 25 83 bf 26 bf 07 c0
       0.50507987 -1.6308216 -1.0245898 -2.1210418
000060 38 64 f4 bf 38 af 27 40 42 fd 95 bf 93 89 41 bf
       -1.9093084 2.6200695 -1.1717913 -0.75600547
000070 5f e8 9f bf 0d ea 5c bf 84 70 d6 3f 98 b6 89 bf
       -1.2492789 -0.86294633 1.6753087 -1.0758848
000080 91 56 7f bf 9e b6 86 bf 43 39 8c bf c9 66 b9 3f
       -0.99741465 -1.052448 -1.0954975 1.4484493
000090 c2 63 a4 bf 23 34 88 bf f8 47 b8 bf be 9c 92 bf
       -1.2842944 -1.0640911 -1.4396963 -1.1454084
0000a0 93 ed 98 be 2a 34 c6 be 57 b8 62 3f e5 d6 67 be
       -0.29868755 -0.38711673 0.8856253 -0.2264057
0000b0 48 7d d0 3f b0 8b 20 40 b1 4a 32 bf d7 ab 3e bf
       1.6288233 2.5085258 -0.6964522 -0.74480957
0000c0 4b 53 bc bf 40 c4 65 bf 4d 5a ce 3e d8 5b be bf
       -1.4712919 -0.8975258 0.4030327 -1.4871778
0000d0 59 93 e1 bf bd c6 9c bf f8 18 fd bf 45 e3 b9 3e
       -1.7623092 -1.224815 -1.9773245 0.36306205
0000e0 04 00 c3 bf 0b 65 c3 bf 8f e8 be bf 72 4b 07 c0
       -1.523438 -1.5265211 -1.4914721 -2.1139798
0000f0 97 be 05 bf 9f 32 a4 bf 2e 9e 99 bf 5b c7 9e bf
       -0.5224394 -1.2827948 -1.2001398 -1.2404588
000100 4c 32 a2 bf a5 4c 28 40 42 bd 8a bf 4b e6 a3 bf
       -1.2671599 2.629678 -1.0839007 -1.2804655
000110 87 e7 a4 bf 00 49 98 bf 54 85 18 40 f8 b6 90 bf
       -1.2883157 -1.1897278 2.3831377 -1.1305838
000120 dc fb 8a bf dd 41 7e bf bd a2 8b bf f4 9a 10 3f
       -1.0858111 -0.9931925 -1.0909039 0.5648644
000130 9d dd 9a bf 1a 6c a2 bf 16 2d bd bf 07 0f e8 bf
       -1.2098881 -1.268924 -1.4779384 -1.8129586
000140 e4 8e 15 bf 13 3b 88 bf a0 78 77 bf 90 6d 87 bf
       -0.5842116 -1.0643028 -0.96668434 -1.0580311
000150 68 71 94 bf 68 2c 55 3f c6 5b 88 bf 61 32 aa bf
       -1.1597109 0.83270884 -1.0653007 -1.3296624
000160 80 fb 88 bf 4b 2a ce bf d9 85 ab 3f 48 c8 99 bf
       -1.0701752 -1.6106657 1.3400222 -1.2014246
000170 bd ab 89 bf fa 71 bb bf 13 af 34 bf 60 d7 3c 3f
       -1.0755535 -1.4644158 -0.7057964 0.73766136
000180 98 7a b0 bf d9 66 64 bf 11 a1 95 bf b9 e6 bf bf
       -1.3787413 -0.89219433 -1.1689779 -1.4992286
000190 f0 30 94 3f b3 5d 5b bf 5e 1f 61 bf 92 40 e2 be
       1.1577435 -0.8568985 -0.8793849 -0.44189888
0001a0 69 8e 3b bf e7 72 95 3f 61 8d 6d bf f6 1c 82 bf
       -0.73264176 1.167569 -0.9279385 -1.0165088
0001b0 4c 09 86 bf 65 73 56 bf 20 dd 25 c0 e1 73 9c 3f
       -1.0471587 -0.8376983 -2.5916214 1.2222863
0001c0 32 2b 90 3f 6d 9a 29 bf fe 12 25 40 1a 94 1d 40
       1.1263182 -0.6625126 2.5792842 2.4621644
0001d0 cc 3d 88 bf 85 cc 92 bf 5a 97 83 bf d1 2c 8c bf
       -1.0643859 -1.1468664 -1.0280564 -1.0951177
0001e0 19 90 5c 3f 2e e1 a2 bf 71 6c dd bf 57 34 9d bf
       0.86157376 -1.2724969 -1.7298719 -1.2281598
0001f0 73 7c cd bf 96 78 10 bf 55 c5 c0 bf 8d cd 14 c0
       -1.6053604 -0.56434 -1.5060221 -2.3250458
000200 fb 79 1c c0 c3 c6 23 c0 a3 2a fe 3f 57 c2 7a bf
       -2.444945 -2.5590065 1.9856762 -0.9795279
000210 8f e3 8d bf f9 b7 58 bf 06 a0 6d bf 80 73 db 3e
       -1.108507 -0.8465572 -0.928223 0.42861557
000220 e6 39 1a bf 22 23 f9 be d5 05 f7 be 3f 76 00 bf
       -0.60244596 -0.48659617 -0.48246637 -0.5018043
000230 3d dd 0d 3f fc 8d 34 bf 36 6b 6c bf 13 75 32 c0
       0.5541571 -0.7052915 -0.9235109 -2.7883956
000240 6b 66 fb bf a4 9d 91 3f 99 50 b0 bf 20 95 74 bf
       -1.964063 1.1376233 -1.3774596 -0.95540047
000250 cd 19 51 bf 2a 2e 83 bf a8 2f 3c bf 4e ee 91 bf
       -0.81679994 -1.0248463 -0.7351022 -1.140085
000260 5e 88 73 bf 06 0b 95 bf bd cb 73 bf 50 b3 29 bf
       -0.95129955 -1.1643989 -0.95232755 -0.66289234
000270 dd 70 a1 bf 7b 71 99 bf f4 c7 c1 bf 6e ee a7 bf
       -1.2612568 -1.1987756 -1.5139146 -1.3119638
000280 28 4d 26 bf 2b 02 2c bf 9c 73 8a 3f 92 bb 3c be
       -0.6496148 -0.6719081 1.0816531 -0.18430927
000290 1f 8b e3 be 17 42 30 c0 20 b9 64 3f 53 d9 ab bf
       -0.44442078 -2.7540338 0.8934498 -1.3425697
0002a0 2b fb e6 3e a7 0b d2 bf 00 22 11 be 7f 55 65 c0
       0.451135 -1.6409806 -0.14173126 -3.5833433
0002b0 8f 2b e1 3f 3f 60 4b bf 3b 44 23 bf d5 31 df be
       1.7591418 -0.79443735 -0.63775986 -0.43592706
0002c0 26 2e 4a c0 b1 2c 24 3f 1a db f2 be d3 31 3a c0
       -3.1590667 0.64130694 -0.47432786 -2.909291
0002d0 c3 c9 4d be f5 1e c3 3f 57 70 95 c0 a6 02 c2 be
       -0.20096497 1.5243822 -4.6699634 -0.37892646
0002e0 db e6 bb 3f 5c 0e 27 bf 5d cc cf 3e 47 03 90 be
       1.4679826 -0.65256286 0.40585604 -0.281275
0002f0 40 63 84 bf 4d 85 86 bf 53 51 a2 bf 89 97 59 c0
       -1.0342789 -1.050943 -1.2681068 -3.399874
000300 8d 46 62 c0 da a1 d3 bf f2 98 17 3e d6 6b 4f 3f
       -3.535556 -1.6533768 0.14804438 0.8102392
000310 19 95 83 c0 5b c1 ee c0 c8 e2 99 bd 2c 16 06 40
       -4.1119504 -7.461103 -0.07513958 2.0951033
000320 cf 4a 98 c0 5b 93 27 bf b3 8d df c0 50 d3 76 bd
       -4.759132 -0.6545922 -6.9860473 -0.060260117
000330 cd 37 04 c1 e7 99 66 bf 7a b8 a1 3f eb 01 6f 3f
       -8.263623 -0.90078586 1.2634423 0.933623
000340 41 8f 01 c0 d2 83 20 c0 22 4d 5e bf e9 f6 57 be
       -2.0243685 -2.5080457 -0.86836445 -0.21090282
000350 7e 84 53 bf 76 26 01 c0 46 31 c8 bf 5d 25 90 bf
       -0.8262404 -2.0179725 -1.5640037 -1.1261402
000360 0f ff 14 c0 46 55 a6 3f 16 7e 8e 3e 43 32 11 be
       -2.3280675 1.2994773 0.2783057 -0.1417933
000370 2b 51 9e 3d eb 82 e6 3e c2 fd 55 bf 9a 4b 20 bf
       0.07730325 0.45021757 -0.8359033 -0.6261536
000380 31 3a 20 bf 4a 66 61 c0 e0 2c 13 c0 ab 00 ce bf
       -0.62588793 -3.5218682 -2.299614 -1.6093954
000390 a1 42 f9 3f a3 a2 e1 3d 34 fe 8d bf 80 89 4e bf
       1.9473459 0.110173486 -1.1093202 -0.8067856
0003a0 28 9c 69 be c7 22 84 be 28 86 6c c0 55 49 a9 be
       -0.22813475 -0.25807783 -3.6956882 -0.3306376
0003b0 28 97 7f bf 9e c1 28 40 a5 3f e2 bf 25 a1 46 bf
       -0.9984002 2.6368175 -1.7675673 -0.7758964
0003c0 79 e9 04 bf 3f 77 f8 be b8 80 00 bf 98 77 b9 be
       -0.5191875 -0.48528478 -0.5019641 -0.36224055
0003d0 e8 58 af be 81 df 67 bf 4b be b8 bf a0 e5 f8 bf
       -0.34247518 -0.90575415 -1.4433073 -1.9445076
0003e0 fc e2 12 be bd a7 59 bf 2b 06 cc bd bc bd 87 be
       -0.143444 -0.85021573 -0.09962114 -0.26511943
0003f0 2d 1a 1a 3e 51 e4 1e c0 ab 86 3e 3f 5a 08 5d bf
       0.15049048 -2.4826853 0.74424237 -0.8634087

decoder.lstm.weight_hh_l0 f4 [128, 32]
000000 08 d6 3c bf 2f 1c b8 be 35 f1 68 3f 69 56 60 3f
       -0.73764086 -0.35959002 0.9099305 0.8763185
000010 7f e0 2c 3f 59 48 1e 3c a3 5d 3d 3e bc 44 98 3e
       0.67530054 0.009660804 0.18492751 0.2973994
000020 e6 d2 1e c0 3e 6a 99 3f 96 68 5d be 6a ac 22 3e
       -2.4816222 1.1985548 -0.21621928 0.15886083
000030 16 ab 2b 3e 73 10 aa bf b3 54 91 3e 02 a1 14 bf
       0.16764483 -1.328627 0.28384933 -0.5805818
000040 91 4b de 3e 50 df b4 be 66 89 9c 3e e9 0e a4 bd
       0.43417028 -0.35326624 0.30573577 -0.080106564
000050 4b 05 d6 3d 97 9a d7 bc 82 51 74 bf 72 3e 4c bd
       0.10450228 -0.026318831 -0.9543687 -0.04986424
000060 a6 3b 80 3e f7 31 dc bf d9 af 44 3e e5 41 97 3f
       0.25045508 -1.7202748 0.19207706 1.1816984
000070 03 10 36 3d cd 1b 92 3f 79 b6 c4 3d 70 19 93 3e
       0.044448864 1.1414734 0.096051164 0.28730345
000080 4d 4a 16 bc a8 b9 1b be 65 26 49 3e a3 0b 9b bb
       -0.009172988 -0.15207541 0.19643553 -0.004731612
000090 93 d3 a1 3d 55 34 b8 3d 29 7b 88 be 20 7e cf 3c
       0.07901683 0.089943565 -0.26656464 0.025328696
0000a0 8d a8 ac bd f0 62 2a be 67 33 0e be b5 3f 5a bd
       -0.08430586 -0.16639304 -0.13886796 -0.053283412
0000b0 42 f7 ba 3d ff a9 a5 be 3b 4e 5c 3e 49 01 8b 3d
       0.09129192 -0.3235626 0.21514218 0.067873545
0000c0 73 86 2f 3d af fc ca 3d b5 e2 7a be fc f4 1c 3e
       0.04285283 0.09911477 -0.24500544 0.15327829
0000d0 d4 2a 08 bf c9 59 c1 3d dc 37 a0 bd e8 d3 ef 3c
       -0.5319035 0.09440953 -0.07823154 0.02927585
0000e0 84 e4 90 be 54 57 5c be 85 07 e6 3d b2 88 1d 3e
       -0.28299344 -0.21517688 0.11231903 0.15384176
0000f0 d7 f3 10 bd 94 11 bf 3d ca 3b 1c 3e fc e5 8e 3c
       -0.035388794 0.09329525 0.15257183 0.01744365
000100 56 80 41 be fe 3c 2f 3f 5e 52 dc bc d1 83 6a 3f
       -0.18896613 0.6845244 -0.026894744 0.91607386
000110 66 4c 0b bf 30 c2 85 be 82 f5 0a 3d 88 01 95 3e
       -0.5441345 -0.26124716 0.03392554 0.2910273
000120 7e 9c 29 be 05 1e 45 bf ce 30 85 be aa cc ed be
       -0.16563603 -0.7699893 -0.26013798 -0.4644521
000130 72 bb 9a bf bb 20 ac bc 8e 54 1c bf e1 d8 9c bd
       -1.2088454 -0.0210117 -0.6106652 -0.07658554
000140 15 65 fe 3e 0a 42 14 bf 37 79 24 3f 92 a4 83 3f
       0.49686494 -0.5791327 0.6424746 1.0284598
000150 17 25 64 bf a8 c3 31 bf bd 0f 43 bf a6 84 8f 3f
       -0.89119095 -0.6943917 -0.7619589 1.1212356
000160 24 9e 00 bf a9 38 80 3e a9 04 0d 3f fe 1a fb 3e
       -0.50241303 0.25043228 0.55085236 0.4904403
000170 ec 17 07 bf 6b 45 17 bf dc 77 e7 3e dc d4 00 bf
       -0.52770877 -0.590903 0.45208633 -0.503248
000180 a4 70 e9 be 01 40 86 bf 59 6e ff 3e 20 48 93 3e
       -0.4559375 -1.0488282 0.49888876 0.28765965
000190 68 fb de be 41 70 d4 bd a1 0b 64 3e 5c ed 95 3e
       -0.43551183 -0.10372973 0.22270061 0.29282653
0001a0 ab be be bf 5e bc f8 3e 7c e2 56 bf 8c fd 5e be
       -1.4901937 0.48581213 -0.8393934 -0.21776408
0001b0 71 81 cd be e4 a4 f0 bf 73 6c 3b 3e 69 5d 26 3e
       -0.40137818 -1.8800321 0.18303089 0.1624657
0001c0 55 29 7f 3e 6e f4 3a bf c9 34 2b be 13 d1 8a 3e
       0.2491811 -0.7302922 -0.16719355 0.27112636
0001d0 e9 fa f2 be 91 b1 f3 3e eb ff 25 bf 5e e6 b8 3e
       -0.47457054 0.4759641 -0.64843625 0.36113256
0001e0 42 8e bb 3e e6 d9 09 3f 06 7b 11 be 31 67 a2 3f
       0.36631972 0.5384811 -0.14207086 1.2687742
0001f0 a1 99 d2 3f 63 b3 5b 3f 29 3c 79 be 2e b1 2b 3f
       1.6453134 0.858206 -0.24339356 0.6706723
000200 4d 40 9a 3e 0c fa 8b 3e ff 57 d0 3e 19 85 86 3f
       0.30127183 0.27339208 0.40692136 1.0509368
000210 e8 d2 50 3d 6a 4f 8b bd e6 69 a8 3e 40 28 e4 3e
       0.050982386 -0.068022564 0.32893294 0.44561958
000220 b6 c5 38 3f b8 23 bf 3d 28 c3 f8 be bd 94 36 bf
       0.7217668 0.09332985 -0.48586392 -0.71320707
000230 0c 46 b8 bf fb ed 06 3e b1 26 73 3d 91 2d 11 3f
       -1.4396377 0.1317672 0.05936307 0.56710154
000240 44 ef 9b 3e ea 83 15 3e 2f bb 6e 3f 5c 15 c4 3e
       0.30455983 0.14601102 0.9325437 0.38297546
000250 7a 80 8f bf 60 1e 09 bf c3 8c 84 bf e4 19 96 3f
       -1.1211083 -0.53561974 -1.0355457 1.1726651
000260 ce 4f 84 bf 22 ed 61 3f 1d 7f 89 3f 60 59 ef 3e
       -1.0336854 0.8825246 1.0741917 0.46747875
000270 bf 23 1f bf b5 67 25 3e cd 42 a4 3e dd 0e f9 be
       -0.6216392 0.16152842 0.32082215 -0.48644152
000280 65 73 25 bf d4 6a 80 3f 7b 57 d4 3f 4e 2d 42 bf
       -0.64629203 1.0032601 1.6589197 -0.7585038
000290 02 cd 02 3f 23 2d 90 3d 32 00 00 c0 ad 2a 28 3e
       0.5109407 0.07039859 -2.000012 0.1642253
0002a0 6c a3 bf be 10 90 bb 3f f6 fb 86 bd 9c 69 02 c0
       -0.37429368 1.4653339 -0.065910265 -2.037696
0002b0 b8 1a 7b be c6 ab 64 bf 01 0e 98 3d b7 88 63 3e
       -0.24521911 -0.89324605 0.07424546 0.22220121
0002c0 27 6e 3f 40 5c d3 06 be 7c 5a 37 bc f5 87 88 3f
       2.9910982 -0.13166565 -0.011191007 1.0666491
0002d0 6f e9 98 3f 60 29 36 be c6 76 3d 3f 6b 8c 8c 40
       1.1946238 -0.17789221 0.7400936 4.392141
0002e0 74 50 3c be bf a9 24 bf a9 f6 4e 3e fb 0f 60 3f
       -0.18390065 -0.6432151 0.20211281 0.87524384
0002f0 d7 f4 c9 3f 07 4f 43 bf 28 ac e8 be fd a1 64 bc
       1.5777844 -0.7629246 -0.45443845 -0.013954637
000300 c6 8e 07 bf f5 80 a8 bd ff 9a ac 3e 63 d5 74 3f
       -0.5295223 -0.082277216 0.33712003 0.956381
000310 81 c1 ce 3e b7 86 24 bf 44 d7 79 3e c1 fc 1b 3f
       0.40382007 -0.6426806 0.24398524 0.60932547
000320 34 48 b0 bd 84 fe ae be e0 bd 86 3d b1 da 0f bd
       -0.08607522 -0.34178555 0.065791845 -0.03512067
000330 55 48 0c bc 03 bc 55 be 8f a7 c7 3d d8 44 24 3e
       -0.008562167 -0.20872502 0.09748756 0.16041887
000340 99 d6 09 bd 6b e2 00 bf d9 b3 d1 3d d8 0e db 3e
       -0.033651922 -0.50345486 0.10239381 0.42784762
000350 b6 7e 16 bf cc bf be 3e 72 28 f8 be 92 b6 d3 3e
       -0.58787096 0.37255704 -0.48468357 0.41350228
000360 c3 de f9 be a7 38 6e be 9f 3a 00 3e a3 37 93 3e
       -0.48802766 -0.23263799 0.12522362 0.28753385
000370 59 ac f8 be 1d 7d 39 3f 8b 49 bc bc 16 ab df be
       -0.4856899 0.7245653 -0.022984287 -0.43685216
000380 84 00 07 c0 8d 5b 4a be 3b d4 75 3f 66 bb 7d 3f
       -2.1094065 -0.19761486 0.96026963 0.9911407
000390 00 eb 3e 3f 9c 96 b5 be ce 09 5a 3f ac 01 d1 3e
       0.7457733 -0.35466468 0.8517121 0.40821588
0003a0 0e b2 40 bf 9e 35 30 3f a4 ff 4e be 67 da 51 bf
       -0.7527169 0.68831813 -0.20214707 -0.8197388
0003b0 2c 13 29 be c3 58 dd bf 04 d2 cd 3d 80 56 47 bf
       -0.1651122 -1.7292713 0.10049823 -0.77866364
0003c0 64 45 d5 3e 5d a9 22 bf 56 c1 43 3f 69 01 57 3f
       0.41654503 -0.6353968 0.7646688 0.83986527
0003d0 34 b1 79 bd 6d 9c 91 bc ff ee 47 bf d5 f1 be bd
       -0.06096001 -0.017774785 -0.78099054 -0.093234695
0003e0 c1 43 b8 3e 70 80 1b be 48 97 65 3e f6 16 35 3f
       0.35989192 -0.15185714 0.2242099 0.7073816
0003f0 10 71 7b bf 19 ef 25 3f ba 05 bb 3f 52 23 1e 3d
       -0.98219395 0.6481796 1.4611123 0.038607903

decoder.lstm.bias_ih_l0 f4 [128]
000000 51 c3 f5 bf 72 95 17 c0 ca 26 ba bf 6c 21 68 bf
       -1.9200231 -2.3684964 -1.4543087 -0.90676
000010 b2 0a d3 bf e5 e6 9e bf ad 8e 93 bf 12 4e 9d bf
       -1.6487639 -1.2414213 -1.1527916 -1.228945
000020 26 b9 f3 be b5 63 84 bf 23 93 ca bf d0 5f d9 bf
       -0.47602195 -1.0342928 -1.5826153 -1.6982365
000030 86 35 ed bf ef 5e ad bf d8 8d 87 bf 31 ba c3 bf
       -1.8531959 -1.3544596 -1.0590162 -1.5291196
000040 1b fb d0 bf 4c e9 87 bf 08 03 99 bf a8 47 8a bf
       -1.6326631 -1.0618072 -1.195405 -1.0803118
000050 07 c2 4d bf 77 69 81 bf ad a4 66 bf df 42 90 bf
       -0.8037419 -1.011031 -0.90095025 -1.1270407
000060 d8 b5 be bf 00 9a 4c c0 69 ab 68 bf 81 01 17 bf
       -1.4899244 -3.1968994 -0.9088655 -0.5898667
000070 7a e4 e0 bf 74 f2 8d bf 06 d0 cc bf bd aa ed bf
       -1.7569726 -1.1089616 -1.6000984 -1.856773
000080 37 aa 12 be 48 8e 1c be 37 f9 f1 be a3 3f 9b bf
       -0.14322744 -0.15288651 -0.47260448 -1.2128795
000090 72 01 dc 3d 20 66 07 bf d4 de e7 bf 82 2c 01 bf
       0.10742463 -0.52890205 -1.8114877 -0.5045854
0000a0 29 56 09 c0 3f 6c 6c bf a3 a0 b5 bf 40 ea 02 be
       -2.1458838 -0.9235267 -1.4189647 -0.12784672
0000b0 88 ce 2b bf a9 03 e0 bf bc 4e 82 bf bd 3b b5 be
       -0.67112017 -1.7501117 -1.0180278 -0.3539714
0000c0 cd 97 43 bf a6 32 80 bf 5b e1 92 be 6e 44 c8 bf
       -0.76403505 -1.0015457 -0.28687558 -1.5645883
0000d0 72 1b 2e bf 43 35 ca be 84 45 9f 3e dc e5 b9 bf
       -0.6801063 -0.3949376 0.31107724 -1.4523273
0000e0 3c df 14 be 5f 33 6a 3f fc 9a 50 be 4b 23 0e bf
       -0.14538282 0.91484636 -0.20371622 -0.555226
0000f0 81 c7 fe 3e 38 63 a1 bf 85 6d a7 bf 04 9b 69 bf
       0.49761584 -1.2608404 -1.3080298 -0.9125216
000100 86 4c 0d be 8e c3 89 3e 7b a9 53 3e 89 4e 93 bd
       -0.13798723 0.2690701 0.2067012 -0.07192714
000110 f5 a4 43 3e cc 9e 8e 3c 20 c6 3c be a6 03 63 3e
       0.19105895 0.017409705 -0.18434954 0.2216936
000120 d0 6d 6a 3f 67 f8 38 be ba ed ad bd f2 9b 3f be
       0.9157381 -0.18063508 -0.08492608 -0.18711832
000130 27 d9 5d bd 03 90 15 bc 76 2e 4e 3b 14 76 a2 3e
       -0.05416217 -0.009128573 0.0031460798 0.3173071
000140 92 4b 55 3e bc fe 08 3e c2 aa b7 be b1 94 8e 3d
       0.20829609 0.13378423 -0.35872465 0.069619544
000150 9e 1d 2e 3e 3c 0d c3 bc 38 3a ef bf bb c5 4f 3a
       0.17003486 -0.023810022 -1.8689642 0.00079258875
000160 0e a6 55 be 0a a4 ae be fc ab c8 3d 78 c7 9e 3e
       -0.20864126 -0.34109527 0.097984284 0.31011558
000170 8b fa 62 be ca 8b 89 3e 7e aa bb 3d c3 29 87 be
       -0.22165887 0.26864463 0.09163378 -0.2639905
000180 1c 52 02 c0 74 08 c1 bf ab a2 d3 bf 03 58 80 bf
       -2.0362616 -1.5080705 -1.6534017 -1.0026859
000190 7c 6e a3 bf 19 5b ad bf 86 f5 85 bf b5 77 98 bf
       -1.2768092 -1.3543426 -1.0465553 -1.1911532
0001a0 c0 11 96 bd e9 d8 d5 bf 5f bc d2 bf 4f d0 ad bf
       -0.07327604 -1.6706821 -1.6463736 -1.3579196
0001b0 64 b7 f2 bf 90 e3 85 bf e6 f4 4e bf 7d e8 99 bf
       -1.8962216 -1.0460072 -0.80842435 -1.2024075
0001c0 ca 6d 3e c0 3c 8c b0 bf 82 cf 98 bf 6e c5 ac bf
       -2.975451 -1.3792796 -1.1938326 -1.3497751
0001d0 15 80 3f bf 5c ed 85 bf 69 ac a0 3d 7a 0a 83 bf
       -0.7480481 -1.0463061 0.07845385 -1.0237572
0001e0 52 31 ba bf 17 82 86 bf c7 3e 76 bf 0c 22 1b 40
       -1.4546301 -1.050845 -0.9618954 2.423953
0001f0 28 87 ad bf 5e 40 8d bf 1a 99 19 c0 a6 67 0e c0
       -1.3556871 -1.1035268 -2.3999696 -2.2250762

decoder.lstm.bias_hh_l0 f4 [128]
000000 2e 27 ee bf 8b 75 17 c0 13 81 a3 bf 6b c4 68 bf
       -1.8605707 -2.3665493 -1.2773765 -0.9092471
000010 4f 81 ec bf 4f 6e 88 bf a2 2d 7a bf 2f 9e 97 bf
       -1.8476962 -1.0658664 -0.9772588 -1.1845149
000020 47 97 e5 be cc c0 7e bf 36 ef d1 bf 50 69 de bf
       -0.44841978 -0.99512935 -1.6401126 -1.7375889
000030 91 0a dd bf 06 31 95 bf d3 8d 98 bf 48 06 ac bf
       -1.726885 -1.1655586 -1.1918281 -1.3439417
000040 5f fc dc bf 2c 17 ab bf 4d 85 7f bf 44 a9 9c bf
       -1.7264518 -1.3366446 -0.99812776 -1.2239156
000050 8d 3a 5c bf e4 7b 6a bf 85 c0 8f bf 81 58 9c bf
       -0.8602684 -0.9159529 -1.1230627 -1.2214509
000060 99 27 ac bf d3 fa 4d c0 60 d8 8b bf 6d f6 06 bf
       -1.3449584 -3.218434 -1.0925407 -0.52719766
000070 5c ba cb bf 49 c0 90 bf 8d b5 cf bf f3 78 03 c0
       -1.5916247 -1.1308681 -1.622728 -2.0542572
000080 0b fc aa be e4 04 2d be 33 8a f6 be 80 d3 90 bf
       -0.3339542 -0.16896397 -0.48152313 -1.1314545
000090 ba 08 3e 3e 28 1c 00 bf f6 a5 f4 bf 7f ba d7 be
       0.18558016 -0.50042963 -1.9113147 -0.42134473
0000a0 73 aa 16 c0 96 66 69 bf 88 f5 af bf 15 f4 51 be
       -2.3541534 -0.9117216 -1.3746805 -0.20503266
0000b0 a4 60 4a bf 7d 3d e5 bf 59 2d 68 bf bc 7d 00 bf
       -0.7905371 -1.790939 -0.90694195 -0.50191855
0000c0 34 b1 7c bf b1 98 92 bf 41 f9 b5 be 53 63 bb bf
       -0.9870789 -1.1452848 -0.35541728 -1.4639686
0000d0 3e bb 32 bf e4 ff e9 be 25 6c 83 3e 3f 39 cd bf
       -0.6981696 -0.45703042 0.25668445 -1.6033095
0000e0 69 86 c3 be 6a 59 44 3f cb d1 ef be db 81 35 bf
       -0.38188484 0.76698935 -0.46839747 -0.7090127
0000f0 b1 c9 c7 3e a6 46 a6 bf 20 3f a3 bf f8 06 60 bf
       0.39021066 -1.299031 -1.2753639 -0.87510633
000100 a7 16 86 bc fd 32 8c 3e 69 a6 88 3e bc a9 41 3e
       -0.016368223 0.2738265 0.2668946 0.18912405
000110 fb 0b 5e 3e 11 27 8c 3e 2d a5 01 be 7f 57 8d 3e
       0.21684258 0.27373555 -0.12660666 0.27605817
000120 3a 0d 91 3f e3 fd 1d be b3 2f 2b be c5 20 1b be
       1.1332161 -0.15428881 -0.16717415 -0.1514922
000130 ca 4f b2 bc db 45 66 3e 01 66 8a bd d2 35 a4 3e
       -0.021766562 0.22487585 -0.06757737 0.32072312
000140 ec 29 61 3e ac 8a a7 3e 30 24 89 be 01 f7 cf 3e
       0.21988648 0.32722986 -0.2678542 0.40618137
000150 ef dd e5 3e b3 b3 b1 3d ee 03 f7 bf 8f da bd bd
       0.44895884 0.08676853 -1.9298074 -0.09270202
000160 22 b0 7d be 26 8b db be a1 cf 02 3e 56 94 a4 3e
       -0.2477422 -0.428796 0.12774517 0.3214442
000170 7d 4d cb bd e6 44 11 3e 32 ec a4 3d 67 94 41 be
       -0.09926889 0.14186439 0.08052863 -0.18904267
000180 66 3c f8 bf 36 09 b6 bf 75 96 c7 bf e4 58 73 bf
       -1.9393432 -1.4221561 -1.5592791 -0.9505751
000190 59 be b5 bf c3 f4 a1 bf 6e c5 79 bf 06 3d 92 bf
       -1.4198714 -1.265282 -0.9756688 -1.1424873
0001a0 22 28 ba bb 32 d2 ce bf 88 fd f2 bf 82 f9 a4 bf
       -0.0056810537 -1.6157897 -1.8983622 -1.2888644
0001b0 e5 fb 01 c0 19 2d 77 bf 3d ee 7a bf f8 8a 80 bf
       -2.0309994 -0.9655319 -0.9801977 -1.004241
0001c0 b8 a1 38 c0 63 c6 ae bf 66 2d 87 bf e6 ee aa bf
       -2.8848705 -1.3654293 -1.056073 -1.3354156
0001d0 bf 31 61 bf e7 1a 8a bf 6d 5b bc bc e3 6e 4d bf
       -0.8796653 -1.078946 -0.022992814 -0.80247325
0001e0 d0 78 af bf 68 ff 7b bf 8c 2a 45 bf ab 7f 1a 40
       -1.3708744 -0.98436594 -0.77018046 2.4140422
0001f0 e1 b6 b0 bf ad db 4e bf 95 2a 1c c0 9d 9e 06 c0
       -1.380581 -0.8080395 -2.440099 -2.103431

decoder.linear.weight f4 [1, 32]
000000 4b bd 87 bd f7 cf a2 3f df 16 ed bd 4b 13 05 bf
       -0.06627902 1.2719716 -0.11576628 -0.51982564
000010 3c 4a 9d bc f3 d6 87 bf b0 47 12 3f bc 94 62 be
       -0.019200437 -1.0612472 0.57140636 -0.2212705
000020 a8 b3 c1 be 68 82 82 bf b7 be fd bc 38 26 84 bd
       -0.3783238 -1.0196047 -0.030974729 -0.06452602
000030 8f de cf 3b 82 65 85 bf ce bb b3 3f 37 65 24 be
       0.0063436697 -1.0421603 1.4041688 -0.16054235
000040 d6 a2 95 bd d7 17 10 bc 18 8c 9c 3e b2 68 4e bd
       -0.07306449 -0.008794746 0.30575633 -0.050392814
000050 cf 75 b1 3e ce 59 9c be a1 9b b5 bf 45 f8 b3 bf
       0.34660193 -0.30537266 -1.4188119 -1.4060141
000060 35 34 a9 bc 3b 05 ed 3f 66 d6 86 3f b3 30 93 bf
       -0.020654777 1.8517221 1.0534179 -1.1499237
000070 fe 8b f7 3d d5 31 7c be 2d f0 0f bd 05 59 a5 3d
       0.12087248 -0.24628384 -0.03514116 0.0807362
