results/decoder_not_recurrent_LSTM_enc_dec_output/40_model.pt (torch, 860225 bytes, 10 tensors)

output_zeros f4 [399, 512, 1]
0.0 0.0 0.0 0.0 0.0 0.0 0.0 0.0
0.0 0.0 0.0 0.0 0.0 0.0 0.0 0.0
0.0 0.0 0.0 0.0 0.0 0.0 0.0 0.0
0.0 0.0 0.0 0.0 0.0 0.0 0.0 0.0
0.0 0.0 0.0 0.0 0.0 0.0 0.0 0.0
0.0 0.0 0.0 0.0 0.0 0.0 0.0 0.0
0.0 0.0 0.0 0.0 0.0 0.0 0.0 0.0
0.0 0.0 0.0 0.0 0.0 0.0 0.0 0.0
0.0 0.0 0.0 0.0 0.0 0.0 0.0 0.0
0.0 0.0 0.0 0.0 0.0 0.0 0.0 0.0
0.0 0.0 0.0 0.0 0.0 0.0 0.0 0.0
0.0 0.0 0.0 0.0 0.0 0.0 0.0 0.0
0.0 0.0 0.0 0.0 0.0 0.0 0.0 0.0
0.0 0.0 0.0 0.0 0.0 0.0 0.0 0.0
0.0 0.0 0.0 0.0 0.0 0.0 0.0 0.0
0.0 0.0 0.0 0.0 0.0 0.0 0.0 0.0
0.0 0.0 0.0 0.0 0.0 0.0 0.0 0.0
0.0 0.0 0.0 0.0 0.0 0.0 0.0 0.0
0.0 0.0 0.0 0.0 0.0 0.0 0.0 0.0
0.0 0.0 0.0 0.0 0.0 0.0 0.0 0.0
0.0 0.0 0.0 0.0 0.0 0.0 0.0 0.0
0.0 0.0 0.0 0.0 0.0 0.0 0.0 0.0
0.0 0.0 0.0 0.0 0.0 0.0 0.0 0.0
0.0 0.0 0.0 0.0 0.0 0.0 0.0 0.0
0.0 0.0 0.0 0.0 0.0 0.0 0.0 0.0
0.0 0.0 0.0 0.0 0.0 0.0 0.0 0.0
0.0 0.0 0.0 0.0 0.0 0.0 0.0 0.0
0.0 0.0 0.0 0.0 0.0 0.0 0.0 0.0
0.0 0.0 0.0 0.0 0.0 0.0 0.0 0.0
0.0 0.0 0.0 0.0 0.0 0.0 0.0 0.0
0.0 0.0 0.0 0.0 0.0 0.0 0.0 0.0
0.0 0.0 0.0 0.0 0.0 0.0 0.0 0.0
00000000: 0000 0000 0000 0000 0000 0000 0000 0000
00000010: 0000 0000 0000 0000 0000 0000 0000 0000
00000020: 0000 0000 0000 0000 0000 0000 0000 0000
00000030: 0000 0000 0000 0000 0000 0000 0000 0000
00000040: 0000 0000 0000 0000 0000 0000 0000 0000
00000050: 0000 0000 0000 0000 0000 0000 0000 0000
00000060: 0000 0000 0000 0000 0000 0000 0000 0000
00000070: 0000 0000 0000 0000 0000 0000 0000 0000
00000080: 0000 0000 0000 0000 0000 0000 0000 0000
00000090: 0000 0000 0000 0000 0000 0000 0000 0000
000000a0: 0000 0000 0000 0000 0000 0000 0000 0000
000000b0: 0000 0000 0000 0000 0000 0000 0000 0000
000000c0: 0000 0000 0000 0000 0000 0000 0000 0000
000000d0: 0000 0000 0000 0000 0000 0000 0000 0000
000000e0: 0000 0000 0000 0000 0000 0000 0000 0000
000000f0: 0000 0000 0000 0000 0000 0000 0000 0000
00000100: 0000 0000 0000 0000 0000 0000 0000 0000
00000110: 0000 0000 0000 0000 0000 0000 0000 0000
00000120: 0000 0000 0000 0000 0000 0000 0000 0000
00000130: 0000 0000 0000 0000 0000 0000 0000 0000
00000140: 0000 0000 0000 0000 0000 0000 0000 0000
00000150: 0000 0000 0000 0000 0000 0000 0000 0000
00000160: 0000 0000 0000 0000 0000 0000 0000 0000
00000170: 0000 0000 0000 0000 0000 0000 0000 0000
00000180: 0000 0000 0000 0000 0000 0000 0000 0000
00000190: 0000 0000 0000 0000 0000 0000 0000 0000
000001a0: 0000 0000 0000 0000 0000 0000 0000 0000
000001b0: 0000 0000 0000 0000 0000 0000 0000 0000
000001c0: 0000 0000 0000 0000 0000 0000 0000 0000
000001d0: 0000 0000 0000 0000 0000 0000 0000 0000
000001e0: 0000 0000 0000 0000 0000 0000 0000 0000
000001f0: 0000 0000 0000 0000 0000 0000 0000 0000
00000200: 0000 0000 0000 0000 0000 0000 0000 0000
00000210: 0000 0000 0000 0000 0000 0000 0000 0000
00000220: 0000 0000 0000 0000 0000 0000 0000 0000
00000230: 0000 0000 0000 0000 0000 0000 0000 0000
00000240: 0000 0000 0000 0000 0000 0000 0000 0000
00000250: 0000 0000 0000 0000 0000 0000 0000 0000
00000260: 0000 0000 0000 0000 0000 0000 0000 0000
00000270: 0000 0000 0000 0000 0000 0000 0000 0000
00000280: 0000 0000 0000 0000 0000 0000 0000 0000
00000290: 0000 0000 0000 0000 0000 0000 0000 0000
000002a0: 0000 0000 0000 0000 0000 0000 0000 0000
000002b0: 0000 0000 0000 0000 0000 0000 0000 0000
000002c0: 0000 0000 0000 0000 0000 0000 0000 0000
000002d0: 0000 0000 0000 0000 0000 0000 0000 0000
000002e0: 0000 0000 0000 0000 0000 0000 0000 0000
000002f0: 0000 0000 0000 0000 0000 0000 0000 0000
00000300: 0000 0000 0000 0000 0000 0000 0000 0000
00000310: 0000 0000 0000 0000 0000 0000 0000 0000
00000320: 0000 0000 0000 0000 0000 0000 0000 0000
00000330: 0000 0000 0000 0000 0000 0000 0000 0000
00000340: 0000 0000 0000 0000 0000 0000 0000 0000
00000350: 0000 0000 0000 0000 0000 0000 0000 0000
00000360: 0000 0000 0000 0000 0000 0000 0000 0000
00000370: 0000 0000 0000 0000 0000 0000 0000 0000
00000380: 0000 0000 0000 0000 0000 0000 0000 0000
00000390: 0000 0000 0000 0000 0000 0000 0000 0000
000003a0: 0000 0000 0000 0000 0000 0000 0000 0000
000003b0: 0000 0000 0000 0000 0000 0000 0000 0000
000003c0: 0000 0000 0000 0000 0000 0000 0000 0000
000003d0: 0000 0000 0000 0000 0000 0000 0000 0000
000003e0: 0000 0000 0000 0000 0000 0000 0000 0000
000003f0: 0000 0000 0000 0000 0000 0000 0000 0000

encoder.lstm.weight_ih_l0 f4 [128, 4]
0.79418105 1.1162761 0.2538791 -0.36368018 0.53111506 -1.0801072 0.07718724 0.008390077
1.3105443 -0.51659286 0.039686088 -0.2651582 0.17467156 -0.6484682 0.6848492 -0.066266984
1.0003257 0.27546823 0.37758547 -0.32261568 -0.2491544 -0.4709208 0.36484712 -0.10774123
2.3974223 1.2090999 -1.2781528 -0.51022136 1.045879 1.3104688 -2.0168965 -0.69751096
1.3944013 0.58497286 0.106292166 -0.11105696 0.27020767 0.44258332 0.93754697 -0.5887669
2.0102334 0.08287523 1.1632557 -0.007618736 0.7810649 -0.14175475 0.06554655 0.19923897
0.6183627 0.6638171 1.2255765 -0.6209283 1.3957705 2.6767042 1.0289944 0.47622198
0.08667773 -0.7351857 0.25436887 -0.74997556 -0.16473709 -0.08888549 -0.2748703 -0.32284498
0.5690372 -0.11082617 0.1765534 -0.039048925 0.7363166 1.6369002 2.3190947 0.060562745
-0.55954653 -0.13515526 -0.46312138 -0.77403814 -0.5119434 0.33767855 -0.11201987 -0.62716484
-0.015963076 0.48489058 -0.46536884 -0.3350335 0.74490434 0.87842125 -0.6148939 -0.0778425
-1.1211122 2.3447454 -1.8576584 1.3615373 0.2384938 0.5835527 0.16595265 -0.116862215
2.2056046 1.7151644 0.15175013 -0.44593114 1.7122173 1.5398239 0.67359036 -0.7311194
0.08862302 0.8424968 -0.07221372 -0.32431227 -0.17051272 1.1820208 0.41230434 -0.37370703
-0.50609314 0.33531734 -0.2696944 -1.1777247 1.8051934 -0.54445404 -1.1238523 -0.5050452
0.9735212 -0.7295678 -0.5999846 0.31774184 -0.48157966 0.20907082 0.6899118 -0.061701156
1.058346 -0.42511198 -0.8019727 -0.34686786 -0.00043060954 -0.18041296 0.06714977 -0.6089119
-0.66505694 0.24454255 -0.5019554 -0.5726401 -0.39506322 0.34945107 -0.28808245 -0.28012678
-0.7172318 -0.015418497 -0.4556587 -0.25618264 -0.27294722 -0.7448376 0.020238934 -0.056568287
2.7579231 2.0375593 -1.8896211 -0.51496565 -2.8053584 1.3872881 -0.17551494 -2.1708567
0.8057211 0.42802757 -0.7461609 -0.64149356 -0.678235 0.09998849 0.5454411 0.7803637
-1.0185407 -0.4267246 -1.4973662 -0.50669456 -0.31530786 0.10207089 -0.03853378 -0.43983394
0.2006673 2.133175 0.45534238 -1.5538669 -2.4943366 3.1148267 0.7358629 0.013205964
-0.67486376 0.04782282 -0.4922961 -0.47758532 -0.77394474 0.4707929 -0.13847671 -0.32002375
-0.4619937 0.17923328 -0.3946586 -0.38661462 3.1022415 -1.9692831 -0.83706534 0.22339192
-0.23396511 -0.50130045 -0.4958576 -0.13370936 -0.28512055 0.3409664 -0.40338123 0.2386396
-0.0005886303 0.010013719 -0.34120062 -0.614382 -1.1546935 0.47954768 -0.8632943 -0.27127331
-1.4989314 2.4788852 0.4342936 -0.75024664 -0.12837037 0.08772193 -0.38784274 -0.5096163
-0.44376245 -0.9496101 -0.9285546 -0.31381628 0.18031928 1.7303727 -1.4487443 -1.168445
-0.36830917 0.87201136 0.334629 -0.2709916 -1.9637425 0.4555628 0.058560286 -1.5090594
-0.3536818 -0.44395173 -0.782262 -0.47097722 3.0863588 1.1742201 2.0146985 -0.79809016
1.5701985 1.7498467 -0.38137192 -1.3801033 -0.31483608 0.82682616 0.05237268 0.052812774
00000000: 734f 4b3f 23e2 8e3f 71fc 813e 4a34 babe
00000010: 28f7 073f f440 8abf 5814 9e3d 8976 093c
00000020: eabf a73f 6e3f 04bf e18d 223d d1c2 87be
00000030: 1add 323e 0302 26bf 4752 2f3f fcb6 87bd
00000040: ac0a 803f 2c0a 8d3e e252 c13e e22d a5be
00000050: 5522 7fbe 881c f1be 3ecd ba3e 6fa7 dcbd
00000060: 5e6f 1940 c9c3 9a3f 839a a3bf de9d 02bf
00000070: 5ddf 853f 71bd a73f d514 01c0 1490 32bf
00000080: be7b b23f c8c0 153f b5af d93d d571 e3bd
00000090: a958 8a3e 489a e23e 1403 703f 6db9 16bf
000000a0: aaa7 0040 7dba a93d 90e5 943f 97a6 f9bb
000000b0: dff3 473f 2828 11be 453d 863d 4d05 4c3e
000000c0: 054d 1e3f ebef 293f b1df 9c3f 28f5 1ebf
000000d0: 9ca8 b23f 1f4f 2b40 17b6 833f 5ed3 f33e
000000e0: 1884 b13d 2135 3cbf a33c 823e 66fe 3fbf
000000f0: d7b0 28be 9909 b6bd cdbb 8cbe f04b a5be
00000100: 6cac 113f d5f8 e2bd 6aca 343e c4f1 1fbd
00000110: 3f7f 3c3f f285 d13f 0c6c 1440 a410 783d
00000120: 713e 0fbf 2466 0abe 3f1e edbe 5d27 46bf
00000130: b90e 03bf 34e4 ac3e ac6a e5bd e08d 20bf
00000140: ffc4 82bc 9443 f83e d344 eebe 8389 abbe
00000150: 0db2 3e3f 37e0 603f b069 1dbf e36b 9fbd
00000160: 9b80 8fbf 4f10 1640 c0c7 edbf db46 ae3f
00000170: b837 743e b663 153f 7eef 293e 7555 efbd
00000180: a028 0d40 828a db3f 6364 1b3e 1651 e4be
00000190: f029 db3f f318 c53f 6b70 2c3f a42a 3bbf
000001a0: fc7f b53d dfad 573f c9e4 93bd 420c a6be
000001b0: e39a 2ebe 754c 973f 8e19 d33e 8756 bfbe
000001c0: 528f 01bf b7ae ab3e 6215 8abe afbf 96bf
000001d0: 9410 e73f 5761 0bbf 64da 8fbf a44a 01bf
000001e0: af38 793f f5c4 3abf 9798 19bf 0faf a23e
000001f0: 9c91 f6be a916 563e 0f9e 303f 5aba 7cbd
00000200: e277 873f 47a8 d9be 154e 4dbf aa98 b1be
00000210: 6fc3 e1b9 2dbe 38be d285 893d a6e1 1bbf
00000220: 2c41 2abf 5d69 7a3e 2680 00bf 8b98 12bf
00000230: ba45 cabe 40eb b23e 8b7f 93be c76c 8fbe
00000240: 819c 37bf dd9d 7cbc 194c e9be 5f2a 83be
00000250: bdbf 8bbe adad 3ebf 1fcc a53c 26b4 67bd
00000260: d081 3040 5f67 0240 1bdf f1bf cad4 03bf
00000270: fe8a 33c0 a892 b13f 30ba 33be 51ef 0ac0
00000280: bd43 4e3f 6e26 db3e 6704 3fbf ec38 24bf
00000290: cfa0 2dbf c4c6 cc3d 07a2 0b3f eac5 473f
000002a0: 8b5f 82bf a67b dabe b2a9 bfbf bcb6 01bf
000002b0: 0870 a1be 8b0a d13d 99d5 1dbd ea31 e1be
000002c0: bb7b 4d3e f085 0840 a322 e93e 1ce5 c6bf
000002d0: 36a3 1fc0 5259 4740 8361 3c3f d45d 583c
000002e0: dfc3 2cbf dce1 433d 3c0e fcbe 1086 f4be
000002f0: 3e21 46bf c40b f13e d7cc 0dbe 27da a3be
00000300: 708a ecbe ee88 373e b110 cabe 5af2 c5be
00000310: 208b 4640 7811 fcbf ea49 56bf dac0 643e
00000320: 8d94 6fbe 3a55 00bf 0ce1 fdbe 1beb 08be
00000330: 52fb 91be 2693 ae3e fc87 cebe f05d 743e
00000340: 504e 1aba 9510 243c d9b1 aebe 2448 1dbf
00000350: ffcc 93bf 4687 f53e db00 5dbf 56e4 8abe
00000360: fcdc bfbf 0ea6 1e40 bb5b de3e 2a10 40bf
00000370: 8673 03be 8ea7 b33d 5393 c6be 3776 02bf
00000380: d534 e3be a619 73bf c1b5 6dbf 87ac a0be
00000390: 9ea5 383e da7c dd3f 7470 b9bf 9b8f 95bf
000003a0: 0593 bcbe 233c 5f3f 7e54 ab3e 69bf 8abe
000003b0: ea5b fbbf 873f e93e e9dc 6f3d dc28 c1bf
000003c0: c815 b5be a44d e3be 5342 48bf ed23 f1be
000003d0: e786 4540 d84c 963f d2f0 0040 a34f 4cbf
000003e0: 44fc c83f fafa df3f 2e43 c3be 3aa7 b0bf
000003f0: 3232 a1be e1aa 533f bc84 563d 3552 583d

encoder.lstm.weight_hh_l0 f4 [128, 32]
0.12607056 -0.10425408 -0.075030886 0.20786615 -0.13582282 0.25456375 -0.08147204 0.2469251
-0.24851942 0.17005901 -0.06965136 -0.11913866 -0.07057793 0.13340205 0.16058475 0.17868686
-0.11457511 -0.49615026 -0.120904446 -0.03542722 -0.12094678 0.17319883 0.12837556 -0.010289335
0.07703676 -0.13923292 0.070514955 -0.26255062 0.07262791 -0.15189731 -0.05960276 -0.041698527
-0.111165404 -0.05742312 -0.06340933 0.08072886 0.217562 -0.13074295 -0.19078079 -0.005368444
-0.2279161 0.06986868 -0.14163063 -0.04335246 -0.17511842 -0.40693364 -0.046563335 0.0441186
-0.06968395 -0.064646825 0.04026936 -0.07995355 -0.10516181 0.17133512 0.23048687 0.11135743
0.05782176 0.25350067 0.05232147 0.17010821 0.116326705 0.24185695 0.056498505 -0.102987744
-0.027279226 0.005919345 0.14507605 -0.0071623228 -0.08471895 0.13243039 -0.0051097325 0.2469376
-0.21114783 -0.030982072 0.068337016 -0.027931485 -0.29980138 0.07842598 0.021360131 0.17812414
0.13500255 0.15346059 -0.09230373 0.21885024 0.03206388 0.06084123 0.057310928 0.0858628
0.16495487 0.19788292 -0.07961379 0.1253498 -0.1564732 0.17023478 0.074998476 0.053808313
-0.10180183 -0.08370241 0.0003323075 0.08551825 0.010337873 -0.08344955 -0.024458842 0.06016513
-0.060542256 -0.031281155 0.08482647 -0.03760337 -0.06441483 0.2422039 0.12848142 0.0040999
-0.021430269 0.1451036 0.072912924 0.14091806 -0.1744569 -0.03593269 0.24794263 -0.09619828
-0.052781925 0.4085652 0.059113376 0.13341455 0.0760776 0.06885661 0.29427043 -0.040936433
-0.06413799 0.13644259 -0.12075974 0.0031023528 -0.055408202 -0.03746285 0.09555574 0.03716261
0.04114413 -0.17274725 -0.067270964 -0.18148184 -0.2944454 -0.3839802 0.19504432 -0.06201925
0.09099722 -0.49250054 -0.07577157 0.061223447 -0.18006584 -0.1267404 0.013123321 0.03773475
-0.16873187 0.0073357853 0.17346631 0.08191806 -0.06287812 -0.041471176 -0.07439914 0.046428666
-0.004297398 -0.03444524 -0.09005433 0.043949217 0.057170305 -0.059936207 0.5559927 -0.14162399
0.012138176 -0.1300082 0.037196264 -0.04444253 -0.26200816 0.009703257 0.13240923 0.075034276
-0.034446727 0.010932248 -0.12199849 -0.1282423 -0.1850387 0.05603623 0.059439 -0.024019426
-0.14661342 -0.032299917 -0.13673517 0.40241802 -0.04280214 0.018958105 0.171012 -0.021202134
-0.03005994 -0.057147536 -0.044983864 0.0779148 -0.1777132 0.07307157 0.46903834 0.8717723
-0.008188303 0.12489648 -0.048847444 -0.15698248 0.17913911 -0.454857 -0.049305867 0.22675681
-0.0035223064 1.2976377 -0.15802695 0.12275341 -0.17930049 0.21187076 -0.6365981 0.028357899
-0.16888703 0.59594566 -0.08952033 -0.39109492 -0.21792066 -0.2526646 -0.08693599 0.21413177
-0.12325431 0.14615472 0.1503797 0.094041064 -0.14810343 -0.016548652 0.05565204 0.4043023
-0.01570506 0.30493018 -0.20206335 -0.10903118 -0.18244049 -0.6960562 0.15222909 0.003700099
-0.01397289 0.22333756 -0.031799864 0.19157802 -0.12987952 0.15472378 -0.69995385 0.014981044
-0.04571952 0.47001895 -0.027834203 -0.022343865 0.095794246 0.29043204 -0.17999376 0.09095513
00000000: a418 013e 2a83 d5bd cba9 99bd ddda 543e
00000010: 2315 0bbe 2e56 823e d0da a6bd efd9 7c3e
00000020: e07b 7ebe f323 2e3e 5fa5 8ebd f8fe f3bd
00000030: 298b 90bd 8c9a 083e 5470 243e b0f9 363e
00000040: 5ba6 eabd 6807 febe c09c f7bd 221c 11bd
00000050: f2b2 f7bd 095b 313e e274 033e 9994 28bc
00000060: 73c5 9d3d 1393 0ebe 256a 903d 096d 86be
00000070: f1bd 943d f88a 1bbe 0622 74bd 13cc 2abd
00000080: b0aa e3bd 8134 6bbd c0dc 81bd 2c55 a53d
00000090: 93c8 5e3e 7be1 05be 0a5c 43be c6e9 afbb
000000a0: d762 69be 4f17 8f3d 9f07 11be 5992 31bd
000000b0: 3e52 33be 9b59 d0be 32b9 3ebd b5b5 343d
000000c0: 75b6 8ebd 8e65 84bd 7cf1 243d b0be a3bd
000000d0: 135f d7bd 7972 2f3e c004 6c3e 5d0f e43d
000000e0: 83d6 6c3d d7ca 813e 0a4f 563d d930 2e3e
000000f0: b23c ee3d 59a9 773e fa6a 673d 3deb d2bd
00000100: af78 dfbc 11f7 c13b d18e 143e ebb1 eabb
00000110: 2181 adbd d59b 073e 8b6f a7bb 36dd 7c3e
00000120: 2337 58be 1dce fdbc 47f4 8b3d 92d0 e4bc
00000130: 917f 99be cd9d a03d 71fb ae3c 2d66 363e
00000140: 1c3e 0a3e c624 1d3e bd09 bdbd 471a 603e
00000150: 6a55 033d a734 793d ddbe 6a3d d6d8 af3d
00000160: eee9 283e d2a1 4a3e 8e0c a3bd b35b 003e
00000170: 833a 20be 0752 2e3e cd98 993d 1b66 5c3d
00000180: 7a7d d0bd 2b6c abbd 8f39 ae39 3124 af3d
00000190: 2f60 293c 99e7 aabd e95d c8bc b66f 763d
000001a0: 28fb 77bd ab20 00bd 80b9 ad3d fe05 1abd
000001b0: eceb 83bd 4d04 783e a290 033e 7458 863b
000001c0: 888e afbc 0a96 143e 5f53 953d d34c 103e
000001d0: d4a4 32be 282e 13bd ace4 7d3e 9b03 c5bd
000001e0: dc31 58bd 752f d13e de20 723d d39d 083e
000001f0: 93ce 9b3d b204 8d3d 9daa 963e f6ac 27bd
00000200: c75a 83bd 9bb7 0b3e e250 f7bd d850 4b3b
00000210: b6f3 62bd a572 19bd bab2 c33d d237 183d
00000220: bf86 283d a8e4 30be 5cc5 89bd 60d6 39be
00000230: 8cc1 96be 0e99 c4be b3b9 473e e607 7ebd
00000240: c05c ba3d 0829 fcbe 202e 9bbd 70c5 7a3d
00000250: 2e63 38be 3cc8 01be 3303 573c c18f 1a3d
00000260: 0cc8 2cbe 0761 f03b 27a1 313e a8c4 a73d
00000270: 3ec6 80bd aedd 29bd 945e 98bd fc2b 3e3d
00000280: 30d1 8cbb 7416 0dbd 686e b8bd 1804 343d
00000290: 692b 6a3d ab7f 75bd 8a55 0e3f e105 11be
000002a0: 33df 463c df20 05be 1c5b 183d 5f09 36bd
000002b0: ef25 86be 69fa 1e3c 4996 073e 92ab 993d
000002c0: 0318 0dbd 2c1d 333c 58da f9bd f351 03be
000002d0: c97a 3dbe 3f86 653d 4f76 733d 63c4 c4bc
000002e0: d421 16be eb4c 04bd 4e04 0cbe bc09 ce3e
000002f0: 4c51 2fbd 074e 9b3c c51d 2f3e 19b0 adbc
00000300: 4340 f6bc 8913 6abd 0041 38bd cb91 9f3d
00000310: 73fa 35be 8ca6 953d cb25 f03e 782c 5f3f
00000320: 3b28 06bc bac9 ff3d 4214 48bd 04c0 20be
00000330: 3e70 373e 04e3 e8be f3f4 49bd f032 683e
00000340: 7fd6 66bb fe18 a63f d1d1 21be 2466 fb3d
00000350: 8c9a 37be a6f4 583e 18f8 22bf d34e e83c
00000360: b9f0 2cbe e58f 183f 6f56 b7bd 983d c8be
00000370: 9826 5fbe 415d 81be 7f0b b2bd 5c45 5b3e
00000380: c16c fcbd 95a9 153e 23fd 193e 9a98 c03d
00000390: 6da8 17be 0a91 87bc 65f3 633d b600 cf3e
000003a0: e6a7 80bc cf1f 9c3e b2e9 4ebe bd4b dfbd
000003b0: aed1 3abe bd30 32bf f1e1 1b3e 5c7d 723b
000003c0: 8cee 64bc 9ab2 643e 9340 02bd 072d 443e
000003d0: 23ff 04be e96f 1e3e 2d30 33bf 0e73 753c
000003e0: 6444 3bbd 53a6 f03e 8e04 e4bc 7b0a b7bc
000003f0: c62f c43d 82b3 943e 4950 38be af46 ba3d

encoder.lstm.bias_ih_l0 f4 [128]
-0.08871033 -0.49183503 -0.031142779 -0.1844089 -0.2503006 -0.4185387 -0.7295157 -0.7615151
-0.1701851 -0.42129275 -0.35381487 -0.24723558 -0.16542149 -1.0834099 -0.4146317 -0.0807816
-0.24587756 -0.48394403 -0.20339297 -0.49658108 -0.5977095 -0.24476285 -0.28278705 -0.2031361
-0.3483927 -0.28834578 -0.29664344 -0.68202204 -0.34745723 -0.7776934 -0.7950691 -0.18983112
0.011660455 -0.24526592 -0.07214628 -0.13183363 -0.20955414 -0.30266264 -0.2429145 -0.48979178
-0.11923644 -0.1484168 0.026660848 -0.2541423 -0.044169053 -0.1485196 -0.2500627 0.051537503
-0.07220845 -0.42023385 -0.016046716 -0.34251398 -0.22074321 -0.08146593 -0.23007369 -0.36957857
0.024957346 -0.027606165 -0.24160606 -1.0411738 -0.19999985 -0.3210009 -0.59423876 -0.17303346
-0.04188445 -0.075282544 -0.063345835 -0.10671854 0.08498818 0.024080306 0.030909315 -0.14707401
-0.103286535 0.050727256 -0.025889715 0.031691488 0.061275978 0.07958305 -0.04222434 -0.043949336
-0.10709211 -0.1210135 -0.08856307 -0.10943731 -0.050236285 -0.118697934 -0.020925991 0.005537814
-0.00018056434 -0.107458524 -0.121621 0.06836806 -0.07900786 -0.0178605 0.07804622 -0.021063713
-0.09244615 -0.3017328 -0.06465693 -0.38405013 -0.25881872 -0.23239024 -0.18072762 -0.13368271
-0.3602256 -0.1805574 -0.30337173 -0.30820477 0.039053444 -0.29115325 -0.15597473 -0.073844574
-0.24919778 -0.02017994 -0.22962773 -0.18483655 -0.045053683 -0.2926091 -0.5138043 -0.33152762
-0.37657312 0.011210146 -0.3603056 -0.06073539 -0.18924062 -0.2767282 -0.35723856 0.010505705
00000000: c3ad b5bd cdd1 fbbe 241f ffbc b0d5 3cbe
00000010: 6627 80be b44a d6be 8ac1 3abf a7f2 42bf
00000020: 0145 2ebe afb3 d7be 3927 b5be 532b 7dbe
00000030: 4064 29be 2dad 8abf 9b4a d4be d370 a5bd
00000040: 54c7 7bbe 83c7 f7be 3f46 50be e03f febe
00000050: 7d03 19bf 1da3 7abe 77c9 90be e902 50be
00000060: 8760 b2be 0fa2 93be a6e1 97be ff98 2ebf
00000070: eae5 b1be ea16 47bf a689 4bbf 1763 42be
00000080: 7e0b 3f3c fd26 7bbe 6ec1 93bd 65ff 06be
00000090: 5c95 56be 99f6 9abe 94be 78be fdc5 fabe
000000a0: 3c32 f4bd 93fa 17be da67 da3c f11e 82be
000000b0: 9cea 34bd 8615 18be 3808 80be fd18 533d
000000c0: 06e2 93bd e428 d7be 6774 83bc fe5d afbe
000000d0: 820a 62be 9cd7 a6bd 7098 6bbe 6739 bdbe
000000e0: 5973 cc3c 5326 e2bc 9467 77be 2f45 85bf
000000f0: c3cc 4cbe 3b5a a4be 0820 18bf af2f 31be
00000100: 078f 2bbd bc2d 9abd 76bb 81bd 408f dabd
00000110: 480e ae3d 1044 c53c 8835 fd3c 929a 16be
00000120: e487 d3bd 62c7 4f3d ab16 d4bc efce 013d
00000130: 85fc 7a3d 70fc a23d 6ef3 2cbd 3804 34bd
00000140: 1c53 dbbd edd5 f7bd 8e60 b5bd ab20 e0bd
00000150: 90c4 4dbd e717 f3bd fc6c abbc 8d76 b53b
00000160: df55 3db9 3713 dcbd 6e14 f9bd 8e04 8c3d
00000170: dfce a1bd 2f50 92bc b2d6 9f3d cf8d acbc
00000180: 6854 bdbd b97c 9abe da6a 84bd 38a2 c4be
00000190: e383 84be b5f7 6dbe a910 39be 1fe4 08be
000001a0: 7d6f b8be 0ae4 38be 8a53 9bbe 04cd 9dbe
000001b0: 81f6 1f3d 0a12 95be d7b7 1fbe d33b 97bd
000001c0: b42d 7fbe 6750 a5bc 8823 6bbe cb45 3dbe
000001d0: 368a 38bd dcd0 95be ae88 03bf fdbd a9be
000001e0: 31ce c0be c3aa 373c fa79 b8be acc5 78bd
000001f0: 4bc8 41be 52af 8dbe f9e7 b6be 1f20 2c3c

encoder.lstm.bias_hh_l0 f4 [128]
-0.33026132 -0.2155592 -0.16131483 -0.28139955 -0.35883167 -0.20030022 -0.74715763 -0.5362783
-0.2534515 -0.50193465 -0.16094306 -0.010430801 -0.10186731 -1.2276145 -0.62640107 -0.32886776
-0.32580787 -0.37643075 -0.079085305 -0.4731862 -0.37091252 -0.042894706 -0.18829094 -0.23420821
-0.31234053 -0.22115542 -0.4582256 -0.9972157 -0.38793364 -0.61773556 -0.91395617 -0.049852848
-0.14744584 -0.43432575 -0.120973155 -0.041656658 -0.39217377 -0.33167526 -0.20971926 -0.5729569
-0.3476469 -0.35164964 -0.29697773 0.06376327 -0.16979863 -0.25693485 -0.42899868 -0.20579612
-0.24086721 -0.31353962 -0.14812264 -0.47499856 -0.2382126 -0.15591796 -0.18356687 -0.31400123
-0.27430072 -0.16927084 -0.102807894 -0.7344066 -0.2822255 -0.48858804 -0.44701234 -0.039582785
0.03304728 0.071364485 0.06177824 0.10873151 -0.08735055 -0.033745244 -0.020053657 0.14544389
0.09761828 -0.047738582 0.021259502 -0.033084925 -0.057546757 -0.0029947998 0.044745754 0.046900388
0.103835285 0.121688336 0.08846803 0.10777675 0.044740256 0.11169147 0.021172576 0.0003427328
-0.00181721 0.12079637 0.12308622 -0.12750016 0.07869747 0.017287707 -0.08523645 0.021616265
-0.271707 -0.4100821 -0.13975191 -0.17455325 -0.2746798 -0.15870337 -0.23670262 -0.2996231
-0.23607206 -0.32464117 -0.10741593 -0.29688117 -0.22398163 -0.26700896 0.0050103334 -0.19024858
-0.2140883 -0.063278265 -0.1572727 -0.3015787 -0.00289747 -0.087455966 -0.57941353 -0.18944634
-0.16249953 -0.07772183 -0.04596801 0.022939352 -0.2114995 -0.19042863 -0.57702833 -0.14567763
00000000: 0318 a9be 8dbb 5cbe b72f 25be 9a13 90be
00000010: c9b8 b7be 801b 4dbe b945 3fbf 8949 09bf
00000020: 65c4 81be ca7e 00bf 42ce 24be f3e5 2abc
00000030: cf9f d0bd 7922 9dbf d25b 20bf 5b61 a8be
00000040: 4ad0 a6be 88bb c0be 7af7 a1bd 7645 f2be
00000050: 3fe8 bdbe 5cb2 2fbd 57cf 40be 47d4 6fbe
00000060: 19eb 9fbe 9176 62be 8c9c eabe 8749 7fbf
00000070: 3d9f c6be eb23 1ebf 08f9 69bf 8032 4cbd
00000080: 0bfc 16be f25f debe c6c0 f7bd 2ca0 2abd
00000090: 00cb c8be 57d1 a9be a5c0 56be 4ead 12bf
000000a0: c6fe b1be 6c0b b4be 770d 98be 5196 823d
000000b0: b1df 2dbe f78c 83be b7a5 dbbe 38bc 52be
000000c0: e5a5 76be 4488 a0be 76ad 17be 0333 f3be
000000d0: 01ee 73be f5a8 1fbe f4f8 3bbe c5c4 a0be
000000e0: 2571 8cbe 5655 2dbe f28c d2bd 1202 3cbf
000000f0: dc7f 90be 3628 fabe cdde e4be 8f21 22bd
00000100: 965c 073d 8b27 923d 2e0b 7d3d a0ae de3d
00000110: d8e4 b2bd 7438 0abd 9147 a4bc 3eef 143e
00000120: 18ec c73d 8889 43bd 6828 ae3c 0f84 07bd
00000130: 26b6 6bbd 6744 44bb 5347 373d 9f1a 403d
00000140: 98a7 d43d bc37 f93d ba2e b53d 0fba dc3d
00000150: 8f41 373d 7fbe e43d 1c72 ad3c d1b0 b339
00000160: 732f eeba 1664 f73d a114 fc3d 678f 02be
00000170: 242c a13d f39e 8d3c 7390 aebd 9814 b13c
00000180: 2e1d 8bbe 48f6 d1be 201b 0fbe 16be 32be
00000190: d5a2 8cbe 2383 22be 2c62 72be 3368 99be
000001a0: e0bc 71be 5e37 a6be e2fc dbbd cf00 98be
000001b0: 715b 65be 66b5 88be b92d a43b 86d0 42be
000001c0: f739 5bbe 0998 81bd 180c 21be 8668 9abe
000001d0: 7be3 3dbb 1d1c b3bd 7254 14bf 39fe 41be
000001e0: 4766 26be 9f2c 9fbd f448 3cbd 4feb bb3c
000001f0: 5393 58be b9ff 42be 21b8 13bf 842c 15be

decoder.lstm.weight_ih_l0 f4 [128, 5]
0.54571664 0.011082839 -0.24151227 -0.2355985 -0.29648107 -0.20062219 -0.57941264 -0.10484055
-0.20522363 -0.14934683 0.6342226 -0.1721947 -0.1472937 0.009869942 -0.031847253 0.8787089
-0.37590605 -0.3363876 -0.07774747 -0.2661394 0.7344546 -0.45807728 -0.06408312 -0.26471952
-0.32201344 0.7163676 -0.40081918 -0.45480186 -0.21407744 -0.5499769 0.9093853 -0.33953667
-0.31055668 -0.29758602 -0.3371856 0.7590235 -0.4448299 -0.4757427 -0.40457657 -0.16573907
-0.5300596 -0.032090142 -0.46425635 -0.29776815 -0.093454145 0.55145186 -0.3589865 -0.15278943
-0.5296308 -0.2778966 0.59299695 -0.01937763 -0.1973403 -0.09097022 -0.26182896 0.63471043
-0.2356174 -0.35015595 -0.23086177 -0.26226047 -0.017716877 -0.4820807 -0.5536683 -0.42162648
-0.46736503 0.8955696 -0.5799806 -0.44266018 -0.5814616 -0.49764636 1.2446496 -0.2328715
-0.42725733 -0.1541038 -0.56234825 0.8028866 -0.16170825 -0.20906675 -0.27102846 -0.21799117
-0.09299193 -0.114576794 -0.22159907 -0.09296947 -0.25916716 0.6735642 -0.1323593 -0.22019002
-0.13667388 -0.36702093 0.7975046 -0.25838247 -0.18155944 -0.08896475 -0.10807095 0.70181036
-0.20055175 -0.09147718 -0.16512096 -0.2379643 0.8616813 -0.13819322 -0.20450218 -0.11920756
-0.11607261 0.80039537 -0.2473452 -0.26642692 -0.26034334 -0.20366001 -0.2901461 -0.19863653
-0.26651162 -0.12901908 -0.4910658 1.3301536 -0.3813218 -0.4659938 -0.45806235 -0.5653987
0.7797844 -0.36552617 -0.3554219 -0.1506772 -0.18143553 0.025667252 -0.2727759 -0.3329114
-0.17838433 -0.28680563 1.1804906 -0.36113286 -0.3814797 -0.4258764 -0.3269864 -2.5642211
-0.015555421 -0.056384668 0.022106707 0.010618398 0.718912 0.14717062 -0.2796291 -0.26516354
-0.060500268 0.86358297 -0.21559788 -0.21962374 -0.082376674 -0.19967242 -0.5193887 -0.42092386
-0.11801538 -0.36919245 -0.18640253 -0.07519354 -0.13466863 -0.17130171 -0.3306996 -0.07962486
0.2120552 -0.44081327 0.35780177 -0.080423586 -0.048418913 -0.24509121 -0.2070108 -0.20159301
-0.16645081 -0.029379679 0.25665694 -0.4105351 0.18854643 -0.18815431 -0.22163653 0.30943662
-0.41413617 0.13694042 0.030179419 -0.16433531 0.14100115 -0.5150584 -0.08082311 0.03269752
0.119699605 0.12105788 0.036930196 -0.044995937 -0.17143933 -0.07414221 0.22090155 0.13170691
-0.1489896 -0.82074267 0.065626785 0.17699718 -0.5867007 -0.25470433 0.1319349 0.25803706
-0.4079988 -0.0897594 -0.3083734 -0.30970615 -0.13730073 0.3908693 -0.47375572 -0.31394494
-0.002323441 0.13944106 0.11214468 0.07250231 0.12339171 -0.2060074 -0.078567095 0.28953257
-0.21236502 -0.10050878 0.12374173 0.13158406 0.5448089 0.1628732 -0.06668907 -0.09372247
-0.06633713 -0.17529061 0.832271 0.19596371 -0.545124 -0.7079071 -0.23041044 -0.06109661
-0.27907717 -0.34901124 -0.2654254 0.28297973 -0.45558298 0.19263478 -0.04584281 -0.16109285
0.0021637077 -0.17997672 0.08748391 0.06146473 0.16263193 0.16894403 -0.24166042 -0.21884677
0.10644663 0.11270484 0.29130742 -0.37970018 -0.111154325 0.10375315 0.010706939 0.26964432
00000000: 16b4 0b3f cc94 353c fe4e 77be bc40 71be
00000010: 5ecc 97be e76f 4dbe 6354 14bf a4b6 d6bd
00000020: 2526 52be 60ee 18be 6a5c 223f cf53 30be
00000030: 29d4 16be 8ab5 213c 4472 02bd 11f3 603f
00000040: c276 c0be ff3a acbe 113a 9fbd 6c43 88be
00000050: 3705 3c3f 1b89 eabe 033e 83bd 5189 87be
00000060: f2de a4be de63 373f 2c38 cdbe cadb e8be
00000070: 1e37 5bbe 49cb 0cbf 7acd 683f c0d7 adbe
00000080: 4901 9fbe 325d 98be 97a3 acbe 5d4f 423f
00000090: bfc0 e3be 8c94 f3be a924 cfbe 81b7 29be
000000a0: fcb1 07bf f470 03bd 02b3 edbe 1175 98be
000000b0: e364 bfbd f32b 0d3f 14cd b7be d574 1cbe
000000c0: e295 07bf 7748 8ebe a6ce 173f d6bd 9ebc
000000d0: 9313 4abe 984e babd 720e 86be 627c 223f
000000e0: b045 71be a447 b3be 0767 6cbe 0147 86be
000000f0: fc22 91bc 48d3 f6be 35bd 0dbf 6ddf d7be
00000100: 784a efbe 0d44 653f 9c79 14bf 5ba4 e2be
00000110: abda 14bf 81cb febe ae50 9f3f de75 6ebe
00000120: 79c1 dabe 63cd 1dbe 0ef6 0fbf fa89 4d3f
00000130: d996 25be 9815 56be 3ec4 8abe 1439 5fbe
00000140: 8e72 bebd 3da7 eabd deea 62be c766 bebd
00000150: 8fb1 84be b46e 2c3f 3289 07be 7e79 61be
00000160: 3df4 0bbe 2bea bbbe 4329 4c3f b54a 84be
00000170: b8ea 39be 2733 b6bd 4d54 ddbd d8a9 333f
00000180: 705d 4dbe 6358 bbbd 7815 29be eaac 73be
00000190: 2597 5c3f 8682 0dbe 0569 51be 1823 f4bd
000001a0: 7ab7 edbd b6e6 4c3f 0f48 7dbe 1c69 88be
000001b0: b94b 85be 408c 50be 088e 94be 6067 4bbe
000001c0: 3674 88be 941d 04be fa6c fbbe 7942 aa3f
000001d0: 9c3c c3be bd96 eebe 2687 eabe f8bd 10bf
000001e0: f39f 473f 3f26 bbbe dcf9 b5be 204b 1abe
000001f0: 3cca 39be 2144 d23c 48a9 8bbe 5d73 aabe
00000200: 62aa 36be 30d8 92be 511a 973f 68e6 b8be
00000210: 4f51 c3be 790c dabe c36a a7be 331c 24c0
00000220: 2adc 7ebc 9cf3 66bd 2019 b53c caf8 2d3c
00000230: 9e0a 383f e5b3 163e 8c2b 8fbe 84c3 87be
00000240: 21cf 77bd c613 5d3f b1c5 5cbe 0ce5 60be
00000250: 1ab5 a8bd ed76 4cbe a8f6 04bf 5583 d7be
00000260: 0cb2 f1bd cb06 bdbe 4ee0 3ebe 12ff 99bd
00000270: 93e6 09be b769 2fbe 7551 a9be 5c12 a3bd
00000280: 0025 593e 47b2 e1be cb31 b73e 1fb5 a4bd
00000290: e952 46bd 31f9 7abe a4fa 53be 666e 4ebe
000002a0: 1572 2abe a7ad f0bc 8a68 833e a831 d2be
000002b0: 5112 413e 86ab 40be b0f4 62be 7a6e 9e3e
000002c0: a809 d4be 1c3a 0c3e d43a f73c 8447 28be
000002d0: 9b62 103e deda 03bf 9686 a5bd d6ed 053d
000002e0: 1125 f53d 32ed f73d 1e44 173d a94d 38bd
000002f0: cb8d 2fbe dfd7 97bd 0434 623e 2dde 063e
00000300: bb90 18be 311c 52bf 5667 863d c03e 353e
00000310: 0432 16bf 9b68 82be f119 073e 6f1d 843e
00000320: 38e5 d0be c7d3 b7bd 1ee3 9dbe ce91 9ebe
00000330: 9098 0cbe 0520 c83e 1c90 f2be 64bd a0be
00000340: df44 18bb a3c9 0e3e 1cac e53d 177c 943d
00000350: cbb4 fc3d 9bf3 52be c9e7 a0bd 9d3d 943e
00000360: 3776 59be 8cd7 cdbd 4e6c fd3d f9bd 063e
00000370: 9978 0b3f 3bc8 263e 4794 88bd 91f1 bfbd
00000380: c3db 87bd 627f 33be b60f 553f b6aa 483e
00000390: 3f8d 0bbf 6639 35bf b7f0 6bbe 7040 7abd
000003a0: 34e3 8ebe 9ab1 b2be d7e5 87be b8e2 903e
000003b0: 2c42 e9be 0d42 453e acc5 3bbd 86f5 24be
000003c0: fecc 0d3b d14b 38be c42a b33d 71c2 7b3d
000003d0: fc88 263e aaff 2c3e d475 77be 5e19 60be
000003e0: b100 da3d ccd1 e63d 3f26 953e 1068 c2be
000003f0: e1a4 e3bd 887c d43d 286c 2f3c d20e 8a3e

decoder.lstm.weight_hh_l0 f4 [128, 32]
0.048414204 -0.21842766 0.13059478 0.08725046 0.2036127 0.03528803 -0.07418737 0.11382382
-0.25999725 0.18860279 0.11326178 0.040767618 0.2370358 -0.112844855 0.06886957 0.15067124
0.17966352 -0.0961456 0.08037727 -0.13325177 0.07727412 0.12526977 -0.0013549543 -0.01667752
0.056685343 -0.046193425 -0.11762656 0.10605405 -0.022002803 0.40912214 -0.068124644 0.04841008
0.00398727 -0.1612439 0.19210921 0.029340435 0.08288423 0.027449481 -0.2541299 0.022953032
-0.018111952 -0.16454922 -0.12275963 -0.024541369 0.08066352 -0.19986053 0.21970911 0.055751927
-0.11446385 0.0968174 -0.24553071 0.16923882 -0.098428495 0.08547726 -0.16029228 0.10022658
-0.27615955 -0.2021618 0.11624851 0.11781498 -0.028755266 0.08324749 0.1345471 -0.016417269
-0.03267375 -0.0051612784 -0.1304164 0.029140467 -0.077218354 0.032603063 -0.1214588 -0.20817013
-0.16908954 -0.33745694 0.094267815 -0.11630075 -0.02353799 0.10079877 -0.19785877 -0.06792534
-0.031964745 -0.075121865 -0.054870438 -0.016300986 -0.001364779 0.056143984 -0.04067923 0.029002683
0.061601095 0.019123925 -0.061405182 0.058890425 0.08052156 0.044100918 -0.0097054895 0.052195746
-0.088598765 -0.26459354 0.23883635 0.124592744 0.17285465 -0.028228337 -0.30154333 0.013831147
-0.41172606 -0.12086928 -0.02343923 0.013390981 -0.042478714 -0.38045293 -0.023837281 0.22762181
0.006934075 -0.21579967 -0.08209881 0.16380787 -0.122085415 0.24663912 -0.3090504 0.15075332
-0.13683514 0.2123607 -0.109952725 0.09949061 -0.19357702 0.6174867 -0.21880025 -0.2575719
-0.12056182 0.17164157 0.08201542 0.1709694 -0.030332185 -0.10000047 0.12186852 0.0020448163
-0.1574234 0.067832105 -0.02622573 1.2601315e-05 -0.2250267 -0.1408993 -0.016253527 0.07739435
-0.019373145 0.21562725 -0.1900843 0.2539301 -0.0049690725 0.08933029 0.0083827935 0.032191433
0.036985558 -0.01780175 0.019936262 0.13874646 -0.040560268 -0.16745785 0.08425159 0.06537366
-0.24731052 -0.22714207 0.07592941 -0.030366072 0.12076692 0.19424789 -0.26662624 0.09400418
-0.065877154 0.20531331 -0.024265062 -0.12515461 -0.097349815 -0.14986984 -0.040251836 0.26002955
-0.018567456 0.005459911 -0.12885281 0.22922792 -0.12483649 0.06936977 -0.006543876 0.11029965
-0.26907417 0.070808135 -0.010806522 0.20287003 -0.07353303 0.26098716 -0.092725724 -0.040906463
-0.21124916 -0.26426405 -0.06167189 0.09933738 0.22680686 -0.14391796 -0.020924896 0.017772673
0.08191328 -0.26440197 0.15513934 0.061636623 0.14196292 0.014910553 0.14959662 0.32922447
0.007286073 -0.13850248 -0.35798794 0.011749769 -0.08557254 0.30690596 -0.2803321 0.13535878
-0.15022348 -0.31611222 0.15604028 -0.26526785 -0.22193496 0.19137867 0.047952887 -0.22975717
-0.27191538 -0.29223076 0.15538304 -0.025121473 0.1559697 -0.07764562 -0.12740505 0.06411483
-0.079566464 0.013974526 -0.0504031 -0.23555236 0.028859619 -0.037369184 -0.16219193 0.13595772
-0.060379382 -0.38595977 0.007364535 0.10631117 0.017017087 0.010952561 -0.2172779 0.008589152
-0.039255176 0.071242236 0.13265106 -0.049938247 -0.22906454 0.17691615 -0.06462801 -0.21674463
00000000: f94d 463d 80ab 5fbe a3ba 053e 5fb0 b23d
00000010: d97f 503e 2e8a 103d 8cef 97bd 771c e93d
00000020: 5c1e 85be 1721 413e cbf5 e73d f2fb 263d
00000030: 83b9 723e 341b e7bd 7d0b 8d3d 9049 1a3e
00000040: b7f9 373e fce7 c4bd d79c a43d 2773 08be
00000050: e541 9e3d b846 003e b998 b1ba 4b9f 88bc
00000060: e42e 683d 5135 3dbd 32e6 f0bd de32 d93d
00000070: 393f b4bc 7578 d13e ef84 8bbd a649 463d
00000080: a5a7 823b 1f1d 25be 47b8 443e 5a5b f03c
00000090: 35bf a93d bcdd e03c 501d 82be ff07 bc3c
000000a0: 845f 94bc 977f 28be 6769 fbbd fb0a c9bc
000000b0: ea32 a53d 3da8 4cbe 6dfb 603e 225c 643d
000000c0: 066c eabd 3348 c63d 676c 7bbe f14c 2d3e
000000d0: e194 c9bd b40e af3d a923 24be 9843 cd3d
000000e0: c964 8dbe 8103 4fbe b313 ee3d fb48 f13d
000000f0: 2a90 ebbc a97d aa3d b7c6 093e 827d 86bc
00000100: e9d4 05bd f11f a9bb e08b 05be fdb7 ee3c
00000110: a824 9ebd ca8a 053d 64bf f8bd 8d2a 55be
00000120: cf25 2dbe 28c7 acbe 7c0f c13d 162f eebd
00000130: bed2 c0bc 966f ce3d 7d9b 4abe 711c 8bbd
00000140: 77ed 02bd 7ed9 99bd d3bf 60bd a589 85bc
00000150: 62e2 b2ba 3cf7 653d 449f 26bd 0997 ed3c
00000160: 6e51 7c3d c7a9 9c3c 0084 7bbd 1637 713d
00000170: 7de8 a43d 2aa3 343d c603 1fbc 35cb 553d
00000180: 4573 b5bd ce78 87be 8491 743e 7b2a ff3d
00000190: cf00 313e 1d3f e7bc e363 9abe 099c 623c
000001a0: c2cd d2be 508a f7bd a103 c0bc d865 5b3c
000001b0: 29fe 2dbd baca c2be 6746 c3bc b115 693e
000001c0: 3d37 e33b 97fa 5cbe 6c23 a8bd 40bd 273e
000001d0: eb07 fabd f78e 7c3e db3b 9ebe 145f 1a3e
000001e0: 831e 0cbe 1575 593e e52e e1bd bcc1 cb3d
000001f0: 0e39 46be 9c13 1e3f 2c0d 60be 77e0 83be
00000200: 1ee9 f6bd cfc2 2f3e b3f7 a73d 9a12 2f3e
00000210: 347b f8bc 0ccd ccbd 3496 f93d 5302 063b
00000220: 9a33 21be 8feb 8a3d 58d7 d6bc 3c6a 5337
00000230: 666d 66be e847 10be 1e26 85bc ee80 9e3d
00000240: 6eb4 9ebc 64cd 5c3e 75a5 42be 2003 823e
00000250: 9ad3 a2bb cdf2 b63d fc57 093c 2adb 033d
00000260: 2b7e 173d fad4 91bc 5f51 a33c 8d13 0e3e
00000270: 8622 26bd 127a 2bbe 198c ac3d a0e2 853d
00000280: f83e 7dbe ee97 68be e180 9b3d 45c2 f8bc
00000290: a654 f73d ebe8 463e 3c83 88be 4385 c03d
000002a0: 9aea 86bd a73d 523e 86c7 c6bc 8828 00be
000002b0: 575f c7bd 7b77 19be 1cdf 24bd 9822 853e
000002c0: c71a 98bc 0ee9 b23b fef1 03be b9ba 6a3e
000002d0: 46aa ffbd bd11 8e3d 036e d6bb c8e4 e13d
000002e0: 17c4 89be db03 913d d70d 31bc 29bd 4f3e
000002f0: 7c98 96bd 1ca0 853e fce6 bdbd 898d 27bd
00000300: b351 58be 9e4d 87be aa9b 7cbd 6571 cb3d
00000310: 0f40 683e 3b5f 13be b06a abbc ff97 913c
00000320: 26c2 a73d b25f 87be d9dc 1e3e af76 7c3d
00000330: ba5e 113e 644b 743c db2f 193e 1c90 a83e
00000340: 03c0 ee3b 98d3 0dbe 324a b7be 1a82 403c
00000350: a840 afbd c722 9d3e b087 8fbe 7e9b 0a3e
00000360: 2fd4 19be 76d9 a1be 06c9 1f3e 30d1 87be
00000370: eb42 63be c5f8 433e 3f6a 443d 7745 6bbe
00000380: 7e38 8bbe 459f 95be bb1c 1f3e 8ccb cdbc
00000390: 85b6 1f3e ab04 9fbd 7876 02be a34e 833d
000003a0: bef3 a2bd 69f5 643c 7b73 4ebd a334 71be
000003b0: 026b ec3c 6e10 19bd a415 26be 8038 0b3e
000003c0: 5f50 77bd 859c c5be 3252 f13b acb9 d93d
000003d0: 6b67 8b3c 5f72 333c 197e 5ebe 84b9 0c3c
000003e0: 09ca 20bd 73e7 913d aed5 073e 0c8c 4cbd
000003f0: e58f 6abe 8229 353e b15b 84bd 4ef2 5dbe

decoder.lstm.bias_ih_l0 f4 [128]
-0.07724996 -0.20205776 -0.2344917 -0.32156745 -0.14042346 -0.46507612 -0.40536645 -0.26736146
-0.23350404 -0.44961837 0.039196506 -0.29084173 -0.4794315 -0.6509368 -0.3383199 -0.34230247
-0.17234989 -0.022342464 -0.32126662 -0.03027558 -0.24750566 -0.29219818 -0.17423432 -0.5121264
-0.27877876 -0.1814021 -0.32394898 -0.055634025 -0.29984894 -0.28565553 -0.30365387 -0.07888552
-0.04061739 -0.20010239 0.09781233 -0.00906871 -0.16244125 -0.25561163 -0.20596215 -0.049212214
-0.10823897 -0.069989935 -0.09967472 0.043506503 -0.04616835 -0.13469258 -0.19057633 -0.061152488
0.10328764 -0.024635544 -0.11168746 -0.18553461 0.03877374 0.088061154 0.00774042 -0.2091332
0.074594624 0.0010796002 -0.07648704 -0.13390368 0.008969494 -0.33867446 0.0101745175 -0.31711495
-0.08996074 0.011764399 -0.073411725 -0.1104471 -0.012103785 -0.057229172 -0.15479362 0.0045898072
-0.1207117 0.0047801333 0.08530079 0.044424586 -0.08668855 -0.10974059 -0.08267618 0.09317495
-0.059864856 -0.09439746 -0.15067725 -0.12720166 -0.085051075 -0.09425877 0.033286147 0.13493457
0.022741653 0.066382304 -0.11382736 0.06651413 -0.05297613 0.15279606 0.0015421653 -0.10048061
-0.19419064 -0.33706486 -0.22637187 -0.4125371 -0.017982943 -0.48385313 -0.3108505 -0.2596563
-0.28154606 -0.5275313 -0.06598922 -0.2606988 -0.35333148 -0.3758731 -0.12852311 -0.15633194
-0.4259986 -0.31782618 -0.23661053 -0.2828156 -0.109628044 -0.30953127 -0.029876525 -0.46710223
-0.2361563 -0.207601 -0.4199095 1.2915543 -0.12822455 -0.271297 -0.3920121 -0.38936767
00000000: 3a35 9ebd 3be8 4ebe 981e 70be 7da4 a4be
00000010: 2bcb 0fbe 751e eebe 318c cfbe 9ae3 88be
00000020: af1b 6fbe 6134 e6be 848c 203d 35e9 94be
00000030: 0c78 f5be cba3 26bf 4438 adbe 4542 afbe
00000040: 7d7c 30be 8b07 b7bc 0f7d a4be 7e04 f8bc
00000050: 2072 7dbe 009b 95be 7b6a 32be b71a 03bf
00000060: 17bc 8ebe 79c1 39be a4dc a5be 81e0 63bd
00000070: cd85 99be 7141 92be 8578 9bbe bb8e a1bd
00000080: 6c5e 26bd a4e7 4cbe d551 c83d ed94 14bc
00000090: 0057 26be 87df 82be bee7 52be bf92 49bd
000000a0: 65ac ddbd e256 8fbd 4222 ccbd e033 323d
000000b0: 061b 3dbd daec 09be 7126 43be 087b 7abd
000000c0: 7888 d33d 7bd0 c9bc 65bc e4bd c9fc 3dbe
000000d0: 37d1 1e3d 6859 b43d 59a3 fd3b 0327 56be
000000e0: 11c5 983d 5f81 8d3a 3da5 9cbd 0c1e 09be
000000f0: c9f4 123c bd66 adbe 05b3 263c e45c a2be
00000100: 563d b8bd 77bf 403c e358 96bd 1732 e2bd
00000110: f44e 46bc 2369 6abd 3882 1ebe 1866 963b
00000120: b237 f7bd aaa2 9c3b 2eb2 ae3d 8ef6 353d
00000130: c489 b1bd adbf e0bd 2152 a9bd 82d2 be3d
00000140: da34 75bd 7553 c1bd 234b 1abe 2741 02be
00000150: 422f aebd be0a c1bd 0e57 083d 4a2c 0a3e
00000160: b44c ba3c 72f3 873d 521e e9bd 8f38 883d
00000170: 80fd 58bd 9276 1c3e 7b22 ca3a c7c8 cdbd
00000180: e9d9 46be c493 acbe 07ce 67be 1038 d3be
00000190: f750 93bc 99bb f7be cc27 9fbe acf1 84be
000001a0: ce26 90be 4b0c 07bf 5b25 87bd 507a 85be
000001b0: dde7 b4be 7072 c0be 909b 03be 7b15 20be
000001c0: 7d1c dabe 1dba a2be 084a 72be 35cd 90be
000001d0: ab84 e0bd e27a 9ebe 9dbf f4bc 0628 efbe
000001e0: f5d2 71be 5b95 54be 61fe d6be a751 a53f
000001f0: 4c4d 03be 71e7 8abe cfb5 c8be 335b c7be

decoder.lstm.bias_hh_l0 f4 [128]
-0.017796395 -0.20011058 -0.05755672 -0.3240544 -0.33935878 -0.28951955 -0.22982956 -0.22293134
-0.20590192 -0.4104498 -0.018302752 -0.3301953 -0.35311857 -0.4620286 -0.4711299 -0.15712374
-0.26613733 -0.29718512 -0.12398692 -0.17388071 -0.30403325 -0.19712107 -0.39634588 -0.6065338
-0.13381253 -0.20293699 -0.5076277 0.007034587 -0.13449772 -0.30756423 -0.32628345 -0.2763589
-0.23134458 -0.21618159 0.08889378 0.07235581 -0.084285244 -0.22713807 -0.3057865 0.034025572
-0.31650218 -0.05818469 -0.055390365 -0.033679176 -0.16558531 -0.17551997 -0.079489574 -0.20910004
-0.11975183 -0.16837923 -0.18022826 -0.08491504 0.020710751 0.025968375 -0.046653114 -0.36011213
-0.16190843 -0.14677392 -0.34116572 -0.28768748 -0.09843416 -0.37686542 0.042840164 -0.27969906
0.031657983 0.016520755 -0.013219304 0.15060462 0.013680101 0.19909589 -0.097051814 0.05895532
0.09676349 0.031125981 0.003053177 0.080050915 -0.05429342 0.12426427 -0.15340033 0.09659099
-0.04827472 0.0990469 -0.059808727 0.20935908 0.19387342 0.016319538 -0.027556065 0.041438986
-0.016359054 -0.021317614 -0.08406648 0.07784243 0.0694132 0.026015637 -0.009563249 -0.025530681
-0.09727734 -0.25114852 -0.13224608 -0.3604273 -0.16104284 -0.39479288 -0.23996145 -0.21099404
-0.21395373 -0.4726419 -0.31797737 -0.19164155 -0.48810646 -0.2953999 -0.3002951 0.04183284
-0.3354302 -0.3039757 -0.098846965 -0.26845506 -0.24124394 -0.34216917 -0.13132119 -0.24582668
-0.15240276 -0.14111911 -0.22819547 1.2816424 -0.15311772 0.02419407 -0.43214247 -0.267731
00000000: bfc9 91bc cae9 4cbe 98c0 6bbd 75ea a5be
00000010: 6fc0 adbe e83b 94be 7158 6bbe 1d48 64be
00000020: f4d7 52be 7a26 d2be a7ef 95bc 5c0f a9be
00000030: f5cb b4be 038f ecbe f037 f1be 0ce5 20be
00000040: 2743 88be a628 98be dbec fdbd c90d 32be
00000050: 3faa 9bbe 1bda 49be d9ed cabe cd45 1bbf
00000060: 2706 09be b7ce 4fbe e4f3 01bf 6582 e63b
00000070: c5b9 09be 0f79 9dbe a00e a7be ea7e 8dbe
00000080: 98e5 6cbe b55e 5dbe f10d b63d 482f 943d
00000090: be9d acbd e296 68be 0c90 9cbe 665e 0b3d
000000a0: 930c a2be 1253 6ebd 02e1 62bd 2df3 09bd
000000b0: 328f 29be 82bb 33be 6ecb a2bd 521e 56be
000000c0: 7340 f5bd 9b6b 2cbe c28d 38be f0e7 adbd
000000d0: 98a9 a93c a1bb d43c 5617 3fbd 9e60 b8be
000000e0: 53cb 25be e74b 16be 46ad aebe c64b 93be
000000f0: d997 c9bd 81f4 c0be 2b79 2f3d b734 8fbe
00000100: cdab 013d 8956 873c c895 58bc 1938 1a3e
00000110: 8122 603c cbdf 4b3e 1ac3 c6bd 227b 713d
00000120: f02b c63d eafb fe3c cf17 483b bcf1 a33d
00000130: c762 5ebd 447e fe3d fa14 1dbe 7fd1 c53d
00000140: b6bb 45bd 1ad9 ca3d fff9 74bd 3a62 563e
00000150: c186 463e 8db0 853c 42bd e1bc edbb 293d
00000160: 6c03 86bc 47a2 aebc 0c2b acbd da6b 9f3d
00000170: 8228 8e3d bf1e d53c 2caf 1cbc b825 d1bc
00000180: 5839 c7bd 8a96 80be 846b 07be ed89 b8be
00000190: 6ae8 24be 4b22 cabe 74b8 75be d20e 58be
000001a0: b016 5bbe 1efe f1be eecd a2be af3d 44be
000001b0: 17e9 f9be a83e 97be 48c0 99be e958 2b3d
000001c0: 82bd abbe b4a2 9bbe 4770 cabd f172 89be
000001d0: a708 77be cc30 afbe 1079 06be fdb9 7bbe
000001e0: 780f 1cbe 8781 10be 13ac 69be dc0c a43f
000001f0: e4ca 1cbe a432 c63c c741 ddbe 0a14 89be

decoder.linear.weight f4 [1, 32]
0.22442593 0.0015363276 -0.2912446 -0.2618242 -0.23474027 -0.13308406 0.31849924 -0.2532914
0.000945158 -0.10115772 0.2802963 0.1822614 0.026021378 -0.15001686 0.5191844 -0.331015
-0.00031424715 -0.2724142 0.3429369 -0.31468707 0.36229238 -0.2744093 -0.0007903717 -0.3728284
0.2518085 -0.0014350041 0.4364766 -0.82065684 0.2700355 -0.39046073 -0.010831973 -0.00038239025
00000000: e9cf 653e 9a5e c93a 031e 95be d20d 86be
00000010: c15f 70be 3047 08be 5512 a33e 69af 81be
00000020: 7bc4 773a c72b cfbd ff82 8f3e bca2 3a3e
00000030: c92a d53c 059e 19be 45e9 043f cc7a a9be
00000040: 8ac1 a4b9 e079 8bbe 6d95 af3e aa1e a1be
00000050: 637e b93e 607f 8cbe f230 4fba 5de3 bebe
00000060: 0bed 803e bf16 bcba dc79 df3e 9116 52bf
00000070: 1842 8a3e 78ea c7be 9678 31bc 8d7b c8b9
