results/LSTM_double_layer/1727_model.pt (torch, 932137 bytes, 18 tensors)

output_zeros f4 [400, 512, 1]
00000000: 0000 0000 0000 0000 0000 0000 0000 0000
00000010: 0000 0000 0000 0000 0000 0000 0000 0000
00000020: 0000 0000 0000 0000 0000 0000 0000 0000
00000030: 0000 0000 0000 0000 0000 0000 0000 0000
00000040: 0000 0000 0000 0000 0000 0000 0000 0000
00000050: 0000 0000 0000 0000 0000 0000 0000 0000
00000060: 0000 0000 0000 0000 0000 0000 0000 0000
00000070: 0000 0000 0000 0000 0000 0000 0000 0000
00000080: 0000 0000 0000 0000 0000 0000 0000 0000
00000090: 0000 0000 0000 0000 0000 0000 0000 0000
000000a0: 0000 0000 0000 0000 0000 0000 0000 0000
000000b0: 0000 0000 0000 0000 0000 0000 0000 0000
000000c0: 0000 0000 0000 0000 0000 0000 0000 0000
000000d0: 0000 0000 0000 0000 0000 0000 0000 0000
000000e0: 0000 0000 0000 0000 0000 0000 0000 0000
000000f0: 0000 0000 0000 0000 0000 0000 0000 0000
00000100: 0000 0000 0000 0000 0000 0000 0000 0000
00000110: 0000 0000 0000 0000 0000 0000 0000 0000
00000120: 0000 0000 0000 0000 0000 0000 0000 0000
00000130: 0000 0000 0000 0000 0000 0000 0000 0000
00000140: 0000 0000 0000 0000 0000 0000 0000 0000
00000150: 0000 0000 0000 0000 0000 0000 0000 0000
00000160: 0000 0000 0000 0000 0000 0000 0000 0000
00000170: 0000 0000 0000 0000 0000 0000 0000 0000
00000180: 0000 0000 0000 0000 0000 0000 0000 0000
00000190: 0000 0000 0000 0000 0000 0000 0000 0000
000001a0: 0000 0000 0000 0000 0000 0000 0000 0000
000001b0: 0000 0000 0000 0000 0000 0000 0000 0000
000001c0: 0000 0000 0000 0000 0000 0000 0000 0000
000001d0: 0000 0000 0000 0000 0000 0000 0000 0000
000001e0: 0000 0000 0000 0000 0000 0000 0000 0000
000001f0: 0000 0000 0000 0000 0000 0000 0000 0000
00000200: 0000 0000 0000 0000 0000 0000 0000 0000
00000210: 0000 0000 0000 0000 0000 0000 0000 0000
00000220: 0000 0000 0000 0000 0000 0000 0000 0000
00000230: 0000 0000 0000 0000 0000 0000 0000 0000
00000240: 0000 0000 0000 0000 0000 0000 0000 0000
00000250: 0000 0000 0000 0000 0000 0000 0000 0000
00000260: 0000 0000 0000 0000 0000 0000 0000 0000
00000270: 0000 0000 0000 0000 0000 0000 0000 0000
00000280: 0000 0000 0000 0000 0000 0000 0000 0000
00000290: 0000 0000 0000 0000 0000 0000 0000 0000
000002a0: 0000 0000 0000 0000 0000 0000 0000 0000
000002b0: 0000 0000 0000 0000 0000 0000 0000 0000
000002c0: 0000 0000 0000 0000 0000 0000 0000 0000
000002d0: 0000 0000 0000 0000 0000 0000 0000 0000
000002e0: 0000 0000 0000 0000 0000 0000 0000 0000
000002f0: 0000 0000 0000 0000 0000 0000 0000 0000
00000300: 0000 0000 0000 0000 0000 0000 0000 0000
00000310: 0000 0000 0000 0000 0000 0000 0000 0000
00000320: 0000 0000 0000 0000 0000 0000 0000 0000
00000330: 0000 0000 0000 0000 0000 0000 0000 0000
00000340: 0000 0000 0000 0000 0000 0000 0000 0000
00000350: 0000 0000 0000 0000 0000 0000 0000 0000
00000360: 0000 0000 0000 0000 0000 0000 0000 0000
00000370: 0000 0000 0000 0000 0000 0000 0000 0000
00000380: 0000 0000 0000 0000 0000 0000 0000 0000
00000390: 0000 0000 0000 0000 0000 0000 0000 0000
000003a0: 0000 0000 0000 0000 0000 0000 0000 0000
000003b0: 0000 0000 0000 0000 0000 0000 0000 0000
000003c0: 0000 0000 0000 0000 0000 0000 0000 0000
000003d0: 0000 0000 0000 0000 0000 0000 0000 0000
000003e0: 0000 0000 0000 0000 0000 0000 0000 0000
000003f0: 0000 0000 0000 0000 0000 0000 0000 0000
0.0 0.0 0.0 0.0 0.0 0.0 0.0 0.0
0.0 0.0 0.0 0.0 0.0 0.0 0.0 0.0
0.0 0.0 0.0 0.0 0.0 0.0 0.0 0.0
0.0 0.0 0.0 0.0 0.0 0.0 0.0 0.0
0.0 0.0 0.0 0.0 0.0 0.0 0.0 0.0
0.0 0.0 0.0 0.0 0.0 0.0 0.0 0.0
0.0 0.0 0.0 0.0 0.0 0.0 0.0 0.0
0.0 0.0 0.0 0.0 0.0 0.0 0.0 0.0
0.0 0.0 0.0 0.0 0.0 0.0 0.0 0.0
0.0 0.0 0.0 0.0 0.0 0.0 0.0 0.0
0.0 0.0 0.0 0.0 0.0 0.0 0.0 0.0
0.0 0.0 0.0 0.0 0.0 0.0 0.0 0.0
0.0 0.0 0.0 0.0 0.0 0.0 0.0 0.0
0.0 0.0 0.0 0.0 0.0 0.0 0.0 0.0
0.0 0.0 0.0 0.0 0.0 0.0 0.0 0.0
0.0 0.0 0.0 0.0 0.0 0.0 0.0 0.0
0.0 0.0 0.0 0.0 0.0 0.0 0.0 0.0
0.0 0.0 0.0 0.0 0.0 0.0 0.0 0.0
0.0 0.0 0.0 0.0 0.0 0.0 0.0 0.0
0.0 0.0 0.0 0.0 0.0 0.0 0.0 0.0
0.0 0.0 0.0 0.0 0.0 0.0 0.0 0.0
0.0 0.0 0.0 0.0 0.0 0.0 0.0 0.0
0.0 0.0 0.0 0.0 0.0 0.0 0.0 0.0
0.0 0.0 0.0 0.0 0.0 0.0 0.0 0.0
0.0 0.0 0.0 0.0 0.0 0.0 0.0 0.0
0.0 0.0 0.0 0.0 0.0 0.0 0.0 0.0
0.0 0.0 0.0 0.0 0.0 0.0 0.0 0.0
0.0 0.0 0.0 0.0 0.0 0.0 0.0 0.0
0.0 0.0 0.0 0.0 0.0 0.0 0.0 0.0
0.0 0.0 0.0 0.0 0.0 0.0 0.0 0.0
0.0 0.0 0.0 0.0 0.0 0.0 0.0 0.0
0.0 0.0 0.0 0.0 0.0 0.0 0.0 0.0

encoder.lstm.weight_ih_l0 f4 [128, 4]
00000000: 1eae 60be abb3 613f 763a a2bf be11 883f
00000010: fc83 b43e 0b4e 27c0 8381 8d3e 8bc1 903f
00000020: 2f1b 2b3f 6f1f 0c40 ab23 b63f 8988 47bf
00000030: 89aa 84bd f298 293f bb30 963e 242e 46be
00000040: b8e1 2cbf 74cc 1dbf 6db6 f83f 9415 4f3e
00000050: bd10 2abe c701 8cbd 2a4e 1b3f 265b 973f
00000060: cade 10bf d9f9 02be edfc ec3f afc6 11be
00000070: 09d6 7f3f 7f6a 0abf 069d 1d3f 3bf9 5cbe
00000080: 133d 243f d539 13bd 09d8 013f 8f37 bcbf
00000090: 587b 9fbe be35 9cbf 2485 42bf 4eba 4140
000000a0: 0e57 a13f 1ff8 573e c1f6 d9be 9788 a33e
000000b0: 5e63 5e3f 4324 bcbe 241b 2440 f69c eabd
000000c0: c38b 8dbe 42fc 073f b41e 703e f0dd a1be
000000d0: a5e8 db3f 1f89 c33f e722 a33e 8638 e2bc
000000e0: ac5d 8140 97b3 03c0 ee9f 2c3e bccf 1d3f
000000f0: f3fd 2a3f 7510 1abe 7d67 8d3e 8a58 a4be
00000100: 38d0 de3e ac8e a53e 6868 19bf c0f7 333f
00000110: 747f 1fbe 97c2 553f d4d3 06be bd99 bf3c
00000120: b326 823e 42b4 843e d0c7 1abf 6a77 28be
00000130: b02f 253f c69c 283d 3404 123f 927a 2a3e
00000140: 3f4f 533f 327b 7c3c 2a0c d8bf 2a31 073f
00000150: 0985 993e 65c7 4b3f e81f a9be c011 abbd
00000160: 809f f13e 3db1 cbbe c6ea 4440 582b 88be
00000170: 29d7 46be edc9 b7bf 3c36 863e 7481 733d
00000180: 00b9 023d cc1c 00be 6e67 0b40 a5e5 cfbe
00000190: fa9e e43f aa92 aa3f 7756 8fbe 0db3 393f
000001a0: 7858 0e3d dcaa 433e 3118 c4bf 775c fa3e
000001b0: 7032 ad3f 2cb5 d53f efc2 f13f a4df c73f
000001c0: a735 d6be 99ff 9bbf c659 9ebe ee53 bfbe
000001d0: f728 bd3f 1f5f dc3f 22e8 d9be cb43 28be
000001e0: 3e08 bb3e ac5b c7be 54ec 1abf 5bf9 d03e
000001f0: d0cc 2d3f d5c4 fabe 831b 48bf 9d7e 8bbe
00000200: 5aad 7abf 7848 43bf 3f0e f4be 9c03 673e
00000210: 3b7a c4bf 6f68 d7bf 1133 cdbf ae19 983f
00000220: 7b12 41bf 7c4d 8dbe c0ea 5bbe d6be 13be
00000230: 328d 6fbf ec54 5cbf b104 54bf 0475 d8be
00000240: ad2c 1bbf 4e47 ab3f b676 833f b965 a8be
00000250: 9848 0bbf 0594 d7be 92cf 55be 4aa3 a6be
00000260: 1c28 dcbe 3451 c7be 64c6 9e3f 4a14 e73e
00000270: cd4d 633f 0254 98be 4c24 bdbe 2137 0abe
00000280: 073e b43c 4f40 c93e fc70 263f 5477 ae3f
00000290: 0658 6a3e 1185 04bf 98bb 4bbf fe33 7d3e
000002a0: fb74 84bf d91a 403f 2fce 66bf 9ec4 b1be
000002b0: 9010 97bf 1b76 b1be a218 9ebf dbf3 4e3f
000002c0: 4081 d33e 0ed1 773e 093d f3be c23f 05bf
000002d0: fa4c 9a3c 7bb3 e13e 3bd0 fabe 02da 28bf
000002e0: 0515 0240 e3c9 8dbf 3bf0 323c 6a99 00bf
000002f0: ec94 afbe 5997 0c3f 2b63 afbf f161 60bf
00000300: 4daa 96bf 98ba ac3f 8549 5bbf 0643 163f
00000310: b0bf ae3e 5edd dcbd 995e 2abf 9e4e ba3e
00000320: 392a c33d 7aec 62be 9ecc 8abf 1bfc 02bf
00000330: 2e4f 77be de40 bf3e 85f3 f7be 3cc6 483f
00000340: 88a5 c1bf 5311 d53e 67cd 45be 9b61 a4bf
00000350: 7658 fabe e4d9 213e 0802 cd3d d7ce 61bf
00000360: 1f6d 553f ea1b 583e de98 7a3f d1e5 97be
00000370: 23e2 4d3e afc7 89be 0438 403f ae8c f4bf
00000380: e35c 0abf 412e 1bbf d19d 353f 57db 46bc
00000390: 7cfb 9c3f f795 413f a830 e83f 10bc acbf
000003a0: 543a e7bd 0df3 85be d61b e63b 5781 973c
000003b0: bf2a 2c40 1220 3340 e943 3d40 0074 1b40
000003c0: 2978 423f 071f 813d 42b5 bfbe 5eef 2dbf
000003d0: 6abf 843f 11e6 5a3f 203c b9bf 913f 31bf
000003e0: 883c 543e 877b 80bf 7f6d 1dbf 6f92 73bf
000003f0: 3e3a da3e 2445 e4bf f479 f1bf c205 ed3e
-0.2194142 0.88164777 -1.2674091 1.0630414 0.35256946 -2.6141384 0.27637872 1.1309065
0.66838354 2.1894186 1.4229635 -0.7794271 -0.064778395 0.66249 0.29334053 -0.19353539
-0.6753192 -0.61640096 1.9430672 0.20223075 -0.16607948 -0.068362765 0.60666144 1.1824691
-0.5658995 -0.12790622 1.8514687 -0.14235948 0.99935967 -0.5406875 0.61567724 -0.21579449
0.6415569 -0.035943825 0.5072027 -1.4704455 -0.3114879 -1.2203901 -0.75984406 3.0269961
1.2604692 0.21090744 -0.4257107 0.31940147 0.8687037 -0.36746415 2.5641565 -0.11455719
-0.27645692 0.5311929 0.23449212 -0.31614637 1.7180372 1.5276221 0.31862566 -0.027614843
4.0426846 -2.0578363 0.16857883 0.616451 0.66793746 -0.1504534 0.27618018 -0.320988
0.43518233 0.32335413 -0.59924936 0.7029991 -0.15575963 0.83500046 -0.13166744 0.023388738
0.2542015 0.25918776 -0.6046114 -0.16451803 0.6452589 0.041165136 0.57037663 0.1664832
0.82542795 0.015410231 -1.6878712 0.52809393 0.2998431 0.79601127 -0.33032155 -0.08352995
0.47192 -0.3978366 3.0768294 -0.2659557 -0.19418015 -1.4358498 0.26213253 0.059449628
0.03191471 -0.12510985 2.1781878 -0.40604892 1.7861016 1.3326008 -0.27995655 0.72538835
0.03475234 0.19108146 -1.5319883 0.4889867 1.3531017 1.6695914 1.8887614 1.5615125
-0.41837808 -1.2187377 -0.30927867 -0.3736872 1.4778126 1.7216529 -0.42559916 -0.16432111
0.36529726 -0.38937128 -0.6051686 0.40815243 0.67890644 -0.48978296 -0.7816698 -0.27245036
-0.97920763 -0.76282454 -0.4766712 0.2255997 -1.5349802 -1.6828746 -1.6031209 1.1882837
-0.75418824 -0.27598178 -0.21476269 -0.14428267 -0.9357482 -0.8606708 -0.8281966 -0.42276776
-0.60615045 1.3381135 1.0270603 -0.32890108 -0.54407644 -0.42105117 -0.20879963 -0.32546455
-0.4299935 -0.3892914 1.2404294 0.45132667 0.8879059 -0.29751593 -0.36941755 -0.13497593
0.022002233 0.39306876 0.6501615 1.3630166 0.22885141 -0.51765543 -0.7958312 0.24726865
-1.03482 0.75040966 -0.9015836 -0.3472032 -1.180193 -0.3466042 -1.2351267 0.80840844
0.41309547 0.24200842 -0.47507504 -0.5205041 0.018835533 0.44082245 -0.48986992 -0.65957654
2.032533 -1.1077236 0.010921533 -0.5023409 -0.34293306 0.5491844 -1.3702139 -0.87649447
-1.1770722 1.3494444 -0.85659057 0.5869602 0.3413062 -0.1078441 -0.66550595 0.36388105
0.09529538 -0.22160521 -1.0843694 -0.5116593 -0.24151298 0.37354177 -0.48427978 0.7842748
-1.5128641 0.4161478 -0.19316636 -1.2842287 -0.48895615 0.15805775 0.10010153 -0.8820624
0.8336963 0.21104398 0.97889507 -0.29667524 0.20105796 -0.2691016 0.75085473 -1.9105432
-0.54047984 -0.6061745 0.70943934 -0.012137256 1.2264247 0.75619453 1.8139849 -1.3494892
-0.11290422 -0.26161996 0.0070223613 0.018494291 2.690109 2.7988324 2.95727 2.428955
0.759646 0.06304746 -0.37442976 -0.6794337 1.0370915 0.85507303 -1.4471474 -0.6923762
0.20726216 -1.0037698 -0.614952 -0.95145315 0.4262256 -1.78336 -1.8865342 0.46293455

encoder.lstm.weight_hh_l0 f4 [128, 32]
00000000: b8c8 80bd 874d 69be 0455 5e3f 534a 16bd
00000010: ad5e efbc 2d54 7c3e 6095 7d3f 7a5c c9bd
00000020: dd9c b03e 367e 46be 8e95 e43e 6e65 1ebf
00000030: fc3f 3cbe fabe 5fbe a51e 8fbe 7ce1 fdbe
00000040: e098 ec3c 1824 d0be 9ce5 dcbd d8ee ec3e
00000050: 4070 5a3e d8f4 033e 403f b3bd b80f 893f
00000060: d65f af3d 3de6 6ebf da71 c93e 4159 05be
00000070: 7f27 d8be 8379 66bd bbb9 b9bd 1be3 093f
00000080: 0d5c 78bd 639a 08bf 0db0 11bf 6ae7 aa3d
00000090: 854f 843f 0f17 e83e b7e2 42bf 2a07 913e
000000a0: 4060 c8bd b62d e93e 8239 30bf 45d7 c13f
000000b0: b63d c13e c9f7 dabe d38c 98bd b587 093b
000000c0: 611a c0bf 30a3 083f 3760 68bd 3c65 7bbe
000000d0: 8724 f33d 7a2e 3cbe abe5 563f 6e76 bf3e
000000e0: 2b9b 1c3f a50b fd3f c776 9a3d 7925 b9be
000000f0: 6013 1a39 1f47 f9be eae4 713e afe5 993e
00000100: 9b28 bcbe 6fc2 93bf 9717 1c3f 3811 39bd
00000110: ec8f 1abf 3262 093f c618 19be a3db afbe
00000120: 0039 1bbe e630 25be b8f6 253f 0cc4 263d
00000130: a1d7 bbbe ac53 81be f96b 8f3c 735c 4fbe
00000140: 9296 0a3d 6da4 6cbe 725c 94bf bc74 f8bd
00000150: 3eca 2e3f 19e9 d8bd 7575 ca3b 2296 223e
00000160: 18af 8cbc 0255 873e c788 5bbe 2ae7 2dbe
00000170: 9d35 8cbe b8f5 a0bd 0cd8 c9bd 4bc7 2c3f
00000180: 09bd 813e 0d26 283c 5100 8abe b781 bebe
00000190: 18ad a4be 4795 013f 0619 42be ae47 833e
000001a0: 314c d23e 6c17 eb3e 0f21 8f3e f0ee fb3e
000001b0: 0ebd 6e3e c26f 8f3e 1156 ba3c c613 d53e
000001c0: 49cf 4b3f 956b 4bbe b65a bdbe e64d d73e
000001d0: ba25 43be d0b3 0d3f efeb 1cbf 0bc5 5cbf
000001e0: ba53 23bf dbc6 9bbe f4b9 2d3f 782d 0ebf
000001f0: 4666 923e b802 a83d 0bed 563f bbdb 04be
00000200: 64f4 edbe 2fda d1be 145e 71bf 886f 803e
00000210: ef78 29be ca04 a23e 4bee ac3e a7e4 16bf
00000220: 9d65 203d 7402 b23d 36b5 2b3e d7c2 8fbf
00000230: 4c25 6ebf 7fd9 d9be 7aef 223e 979e ee3e
00000240: b91c 203f 49db 9cbd 236f 30bd c0c8 e73c
00000250: 47d2 cebe 7ac0 4fbf 9c10 45bd 44aa 2c3e
00000260: 4c08 67bf 3dad 1bbf 3ef6 d8bd 0028 9b3e
00000270: 22d4 03be e9d5 e53e bac8 44be b2a7 a6be
00000280: 7187 1bbf b1e3 11be 6048 f23e 9998 2e3c
00000290: dfa7 9ebe 58f3 49bd 908f adbe 87c1 443e
000002a0: f92d c6be 80fb 723e f619 3a3e cb12 e13d
000002b0: 71c2 53bd 37f7 eb3e e841 2e3f bbd4 fc3d
000002c0: 267f 3e3f 732f 1b3e 729f b8be 8468 de3d
000002d0: 8689 eebe b8e9 203f 4452 babf 8709 0dc0
000002e0: 1002 24be 88a5 99bf 7e06 253f fc8f 87bd
000002f0: 8de4 3cbe 3319 723f 50a7 29be dfae 19be
00000300: f74c 0a3e fc56 b13e 3bea 713e 8208 533f
00000310: b1ce 5d3e e97e bb3e 57fc 3f3d eb09 2fbd
00000320: 0bd8 0ebe 350d 063f ac7a 2e3e ddf0 e93f
00000330: d83b c8be 45aa a33e 8d82 81be aab0 94bd
00000340: d6df d13f 5a21 853f 12c6 86bf 192f ec3e
00000350: 2de5 0dbf 7f7c 2abe 2cc4 edbc 5d01 7d3f
00000360: 6261 273e 6454 273e 714f 423f 7edf f2be
00000370: 953f b0bd e279 f83d 21da 3e3c 37b8 c23e
00000380: aa25 52be b455 79bf 4ae3 99bf a617 663f
00000390: f7a8 99be 6a4f cc3d c1c2 383f aa96 51be
000003a0: 837d 60be f0f1 d4be a2ed 293f 09c6 9cbe
000003b0: e247 41be a657 fb3d 0ffe 093f d7ac 9abe
000003c0: 77fc cd3d 059d 443f d41d 5cbf 1729 593e
000003d0: 3d7a 86be 94b9 3cbf d892 2abe 9b54 b7be
000003e0: bb97 d8be fc04 a0bc 4e80 113e 3b58 d93e
000003f0: 582c 16be 97fa 543f 434c e9be 5b85 19bd
-0.06288284 -0.2278348 0.86848474 -0.036691975 -0.02921995 0.24641486 0.99056053 -0.09832092
0.34494677 -0.19384083 0.4464535 -0.6187352 -0.18383783 -0.21850196 -0.27953067 -0.49586093
0.02888149 -0.40652537 -0.10785982 0.46275973 0.21331882 0.12886369 -0.08752298 1.0707922
0.08563201 -0.93320066 0.39344674 -0.13022329 -0.42217633 -0.056268226 -0.090686284 0.5386216
-0.06063466 -0.53360575 -0.5690926 0.0834492 1.0336767 0.45330092 -0.7612719 0.28325778
-0.09783983 0.45542687 -0.6883775 1.514382 0.37742394 -0.4276717 -0.07448735 0.0020985429
-1.500805 0.53374004 -0.056732383 -0.24550337 0.118722014 -0.18377104 0.83944196 0.37395042
0.6117427 1.9769179 0.07542186 -0.36161402 0.00014693802 -0.48687074 0.2362248 0.30058047
-0.3674973 -1.1543711 0.60973495 -0.045182437 -0.6037586 0.5366546 -0.14950857 -0.34347257
-0.15158463 -0.16131935 0.6482959 0.04071431 -0.3668795 -0.2525915 0.01750754 -0.2025011
0.033835 -0.23109598 -1.1590712 -0.1213164 0.6827735 -0.10591335 0.0061785528 0.15877584
-0.017173335 0.26432043 -0.21438895 -0.16982713 -0.27384654 -0.07859367 -0.09855661 0.67491597
0.25339535 0.010262978 -0.26953366 -0.3720834 -0.3216331 0.50618404 -0.18954858 0.25640625
0.41073754 0.45916307 0.2795491 0.49205732 0.23314306 0.28014952 0.022746118 0.41616648
0.7961317 -0.19865258 -0.3698327 0.4205162 -0.1905736 0.553525 -0.61297506 -0.86238164
-0.6379963 -0.30425152 0.67861867 -0.5553813 0.28593653 0.082036436 0.8395545 -0.12974446
-0.46475518 -0.40986773 -0.94284177 0.25085092 -0.16550039 0.3164428 0.33775553 -0.58942646
0.039159406 0.08691874 0.16768345 -1.1231335 -0.9302566 -0.4254875 0.15911666 0.4660537
0.6254383 -0.07659013 -0.04307474 0.028293967 -0.40394804 -0.8115307 -0.048111543 0.16861826
-0.90247035 -0.60811216 -0.10593842 0.30303955 -0.12873891 0.44889763 -0.19217196 -0.32549816
-0.6075354 -0.14247014 0.47320843 0.010656499 -0.3098745 -0.049304336 -0.33898592 0.1921445
-0.3870695 0.23728752 0.18173966 0.109899126 -0.051699106 0.46087047 0.68069315 0.123452626
0.74412763 0.15154819 -0.36059147 0.108597785 -0.46589297 0.62856627 -1.4556355 -2.2037065
-0.16016412 -1.2003641 0.6446303 -0.0661926 -0.1844656 0.945697 -0.16567731 -0.15008114
0.13505922 0.34636676 0.23624508 0.82434857 0.21660878 0.36620262 0.04687151 -0.042734068
-0.13949601 0.523639 0.17038983 1.8276631 -0.39108157 0.31965843 -0.25294915 -0.072602585
1.6396434 1.0400803 -1.0529196 0.46129683 -0.5542782 -0.16649054 -0.029024206 0.98830205
0.16345742 0.16340786 0.7590247 -0.47436136 -0.08605877 0.12132622 0.011648686 0.3803117
-0.2052218 -0.973964 -1.2022488 0.89879835 -0.30011722 0.099760845 0.7217217 -0.2046763
-0.21922879 -0.41590834 0.66378224 -0.3061984 -0.18875077 0.12272577 0.5390329 -0.3020999
0.100579195 0.7680209 -0.85983014 0.21207081 -0.26265135 -0.7372067 -0.16657579 -0.35806736
-0.4230326 -0.019533627 0.142091 0.42450127 -0.14665353 0.8319487 -0.45565996 -0.037480693

encoder.lstm.bias_ih_l0 f4 [128]
00000000: 704a 2fbe 2de0 0cbe c6c1 e43e 45c8 693f
00000010: abb7 a4be 3c76 173e 7f1d c03d cb5e 2bbe
00000020: 1ef8 aabe 479c 15bf aa96 8c3d d8d9 e23d
00000030: a101 833e d6bc 2d3f 2cd7 2dbe 5a64 b33e
00000040: 247e 33be 72d9 493f cd0a 2abf 28b2 91bd
00000050: eee6 8b3e e9f8 073f f893 b4bd 19da 10be
00000060: d997 96be 9620 0f3e 046e 80be 7145 8c3c
00000070: dff1 083e 3816 8e3d 3d7a c03e 6d1c 9bbd
00000080: d3ef 1fbf 186c cebe 823b d7be 021f f1be
00000090: 9596 f9be d2d0 07bb 08f0 5ebd 40bb 81be
000000a0: 13f8 1d3d 2532 4ebc eef7 08bf 6c94 30bf
000000b0: 6356 8cbe b737 99be 7835 a13c 5c6f 06bf
000000c0: 278b 2b3d 2a3d 863d c429 fdbe 52b2 d2be
000000d0: b712 edbe e1a7 32be b885 17bf a949 aebd
000000e0: 1037 c9be 1ab8 b7be bf63 52be c938 e13e
000000f0: f033 53bd feb0 09bf 466e 2ebe cff4 0fbe
00000100: 1ddb 653e 21fe bbbe f2a4 61be b590 bebe
00000110: 07cd 333e 57e3 ca3c 1b1d dfbd c854 d53e
00000120: 92b0 f53d 1393 513e b11f 4a3e 893a 443e
00000130: 8676 993e 3ea6 fa3d acff 6c3e 5911 0abe
00000140: a1db d43e ca59 26be e33a 0ebe 8458 1f3d
00000150: a917 2cbd 2d36 6b3e 9015 27be 8a37 32be
00000160: b379 98bd 5106 c7bd 6e24 733e f19f 26bf
00000170: 9f80 963e be7d 1cbe 813d f03e 44aa 6bbc
00000180: 503f 16be effe 8a3e e100 ce3d 7b8e 223f
00000190: 44ee 7f3d 42df 833f 3d9d fc3d 86cd c9bc
000001a0: 81bc 643d 9bc3 e6bd 04ea e23b 0178 b93e
000001b0: c895 36be 7ab1 703e dade 193c b6ac debd
000001c0: 40aa b0be 00c8 b43e 7439 b7be a39c 433e
000001d0: 0de7 8c3d 3aa0 223e bec4 ec3d 4398 bbbd
000001e0: 9d7f 573e 4384 063f 7da9 713d 7722 6abe
000001f0: 2c9c fd3d 499d b63e 8647 993e 8b37 94bd
-0.1711824 -0.13757391 0.44679087 0.9132121 -0.32171378 0.14791197 0.09380626 -0.1673538
-0.33392423 -0.58441585 0.068646744 0.11076707 0.2558718 0.67866266 -0.16976613 0.350375
-0.17528588 0.7884742 -0.6642273 -0.07114059 0.27324623 0.5311418 -0.08817285 -0.14145698
-0.29412726 0.13977274 -0.25083935 0.017122956 0.13373516 0.06937832 0.3759326 -0.07573781
-0.6247532 -0.40316844 -0.42037588 -0.4709397 -0.48747697 -0.0020723832 -0.05442813 -0.25338173
0.03856666 -0.012585198 -0.5350331 -0.68976474 -0.27409658 -0.2992532 0.019678816 -0.5251367
0.041880753 0.06554635 -0.49445927 -0.41151673 -0.4630334 -0.17446853 -0.59188414 -0.08510143
-0.39299822 -0.35882646 -0.20545863 0.43988636 -0.051563203 -0.53785694 -0.17034253 -0.14058231
0.22446866 -0.36717322 -0.22035578 -0.37219778 0.1755868 0.024766607 -0.10894223 0.41666245
0.11996569 0.2046626 0.19738652 0.19162954 0.2997324 0.122387394 0.23144406 -0.1348318
0.41573814 -0.1624519 -0.13889651 0.038902774 -0.04201475 0.22969885 -0.16316819 -0.17403999
-0.07445087 -0.09718002 0.23744366 -0.650878 0.29395005 -0.15282342 0.46921924 -0.014383856
-0.1467259 0.27147624 0.100587614 0.6349866 0.062483087 1.0302508 0.12334678 -0.024634134
0.055843834 -0.112677775 0.0069248695 0.36224368 -0.17830575 0.23505202 0.009391511 -0.10872786
-0.3450489 0.35308838 -0.3578602 0.19102721 0.06880007 0.15881434 0.11560963 -0.09159901
0.21044774 0.52545565 0.058999527 -0.2286471 0.12383303 0.35666874 0.2993738 -0.072371565

encoder.lstm.bias_hh_l0 f4 [128]
00000000: d334 2fbe 96e0 0cbe e8c1 e43e 46c1 693f
00000010: 1abe a4be bb71 173e f452 c03d 6f43 2bbe
00000020: 54fb aabe c49a 15bf e3c2 8c3d 8d12 e33d
00000030: e006 833e 28ba 2d3f c2ca 2dbe 7a6b b33e
00000040: 0c8a 33be 09db 493f 7d06 2abf 4a97 91bd
00000050: 65e7 8b3e e3fa 073f ab90 b4bd 55d1 10be
00000060: 7b8e 96be 2e2d 0f3e 306c 80be f92a 8c3c
00000070: 12f9 083e 8515 8e3d 4e7a c03e 4c38 9bbd
00000080: 8de8 1fbf 4f70 cebe 4d41 d7be ed22 f1be
00000090: 0e8b f9be c461 06bb f713 5fbd a8ba 81be
000000a0: b286 1d3d ccf5 4ebc 8ffc 08bf 3e94 30bf
000000b0: 824e 8cbe 302e 99be b4af a13c 466f 06bf
000000c0: 65ad 2b3d 1544 863d 9a2c fdbe b7b7 d2be
000000d0: 8a10 edbe 3f99 32be 5684 17bf ad1d aebd
000000e0: f829 c9be e2ba b7be ad81 52be 6135 e13e
000000f0: 0dda 52bd 05b3 09bf fe81 2ebe 22fb 0fbe
00000100: dbd5 653e 6e05 bcbe 19a1 61be 5f96 bebe
00000110: 92e6 333e 9478 cb3c 592d dfbd f25c d53e
00000120: 4aab f53d 29a1 513e 6718 4a3e d450 443e
00000130: 1775 993e 53c6 fa3d 25fd 6c3e dc19 0abe
00000140: 89e1 d43e dc5e 26be 1c3f 0ebe da44 1f3d
00000150: e1d7 2bbd 023f 6b3e 011c 27be 562c 32be
00000160: 506e 98bd 8301 c7bd 6c10 733e 47a0 26bf
00000170: 6d88 963e 3a8b 1cbe 763c f03e b882 6bbc
00000180: 6b3b 16be 2e05 8b3e a1f2 cd3d cd8d 223f
00000190: 6926 803d 23e0 833f 6685 fc3d f608 c9bc
000001a0: 0fd3 643d 64ae e6bd 37c1 e13b 187f b93e
000001b0: beaf 36be 24be 703e 14be 193c d384 debd
000001c0: 5cb4 b0be f0ba b43e e630 b7be 269a 433e
000001d0: 6f17 8d3d 18a7 223e d6b4 ec3d de8a bbbd
000001e0: b369 573e 028c 063f b7d5 713d 6f17 6abe
000001f0: 346e fd3d 219c b63e 6243 993e b937 94bd
-0.17109995 -0.13757548 0.4467919 0.91310537 -0.32176286 0.14789478 0.09390822 -0.16724943
-0.33394873 -0.5843928 0.06873109 0.11087523 0.25591183 0.67862177 -0.16971877 0.35042936
-0.1753313 0.78849846 -0.6641615 -0.07108934 0.27324978 0.531172 -0.08816656 -0.14142354
-0.2940558 0.13982078 -0.2508254 0.017110335 0.13376263 0.06937698 0.3759331 -0.07579097
-0.6246422 -0.4032006 -0.42042008 -0.4709696 -0.48738903 -0.002050505 -0.0544624 -0.2533772
0.038458534 -0.012631845 -0.53510374 -0.689762 -0.27403647 -0.2991805 0.019737102 -0.5251354
0.04191341 0.06555954 -0.4944809 -0.41155788 -0.4630168 -0.17441271 -0.59186304 -0.08501754
-0.39289832 -0.35884768 -0.2055728 0.43986037 -0.05147748 -0.5378879 -0.17041776 -0.14060643
0.2244486 -0.36722893 -0.2203411 -0.372241 0.17568424 0.02483777 -0.10897321 0.41672474
0.119955614 0.20471634 0.19735871 0.19171458 0.29972145 0.122448586 0.23143442 -0.13486427
0.4157832 -0.16247123 -0.13891262 0.03888402 -0.041953925 0.22973254 -0.16319276 -0.17399725
-0.074429154 -0.09717085 0.23736733 -0.65088314 0.2940096 -0.15287486 0.46921128 -0.0143744275
-0.14671104 0.2715239 0.100560434 0.6349762 0.06257326 1.0302776 0.12330131 -0.024540406
0.055865344 -0.11263731 0.006889488 0.36229777 -0.17840478 0.23510033 0.009383697 -0.10865178
-0.34512603 0.35298872 -0.35779494 0.19101772 0.06889235 0.15884054 0.11557929 -0.09157346
0.21036415 0.52557385 0.059041705 -0.22860502 0.12374535 0.35665992 0.29934222 -0.07237191

encoder.lstm.weight_ih_l1 f4 [128, 32]
00000000: f838 293f c120 b03e 214c 34bf 7eca 9abf
00000010: 08dc 633f 6d93 60bd 48a9 283f 9f41 f33e
00000020: 7c43 483f 8614 01bf eea5 713f 68be 5bbf
00000030: 0708 11bf 5db9 853e f9d1 3d3e b796 213f
00000040: 6792 2cbf 4846 99bf 4afd 933c c320 c3be
00000050: feec 68bf f7b0 0f3f 0ab3 c83e 3a61 b4be
00000060: f267 b0bf e89a 0d3f 755b e1bc 8a98 e53e
00000070: 3187 df3e f1cf 8dbc 3b54 f93e 50bd 22bf
00000080: bec2 113f bf3d b1bd 6e23 ebbe 5746 3f3f
00000090: 9923 be3f ded8 d8bd 22b8 53bd fa1d 0a3e
000000a0: 6e6b aebd 4209 43bf 5d86 05bf ec5e 1cbe
000000b0: e1a9 44bd af1d 14bf 62ee cb3f b9b8 9abf
000000c0: 8e13 d4be 41d0 8f3f 90f2 0e3e 81fa 853e
000000d0: 8b3a 23be 26bf 823e 1a06 91be a1b0 fdbe
000000e0: b64f c73f 541e 8c3c 170b 183e 938b 6f3e
000000f0: 9a38 36be 1cba 563f cac3 5fbe dcfd 81be
00000100: 6f91 b6be b58d ad3f 32b0 60be 9a2d e43e
00000110: a54a f43f fd31 5c3f 3d0a 1bbf 5f16 2c3f
00000120: 5b8c 1e3f baf2 623f 892e 75bf 7d44 813f
00000130: 487e 8a3d 504d 233f 0da5 81be f124 533f
00000140: bcbb 373e 80e5 6d3e ef4e c93f 3c39 1fbf
00000150: ff53 173f 9991 debe 55d1 5e3e 664b f63d
00000160: 0edf 623f c62f aabd 1d04 913f e479 7ebe
00000170: df17 c73b 0b0c 773e a9f0 e03e bec8 073e
00000180: 3e2c 383f baad ed3e 2ae6 c0be 00de 8abe
00000190: f44d 4a3f 5511 563e 2c9b 19bf 47dc ac3f
000001a0: 443b 803f 63dc 943e cdb6 493f 299d c33e
000001b0: 67be a03e 453e 353f 6715 d8be 7aa0 6bbd
000001c0: 7b33 863f 3827 11bf 8299 54bf e12f b7be
000001d0: c6dc 01be b279 103f 7e4e ddbe dc16 933e
000001e0: ffa6 b3be baf5 883f 78e0 923e d9ff acbd
000001f0: e39b f93e 363b 993f b5e8 673f 0658 7a3e
00000200: 27dd 013f 393a 89be ac70 01bf 12fb d2bf
00000210: 28fc 90be f755 f6be aba9 b4bf 8850 0c3f
00000220: f1ab c33e 06cb a0be 3907 573f c970 eb3d
00000230: 3e47 b6bd 6c15 263f b08f 763f 1260 f43d
00000240: b2b4 eabe 2fbf 99bf bfcf 4fbe 3f58 8fbe
00000250: 1eb0 1ebf b130 e73c 7cbd b63d 8b7b 1bbf
00000260: 77d4 04bf 0cd1 89be c696 073f bd79 6cbe
00000270: 2a32 253f ff7e 03be ad2b a13e 1502 8ebe
00000280: b5ae e4bd 561b 89bf bf04 b1bf 23c6 de3b
00000290: 8207 433e 68c6 203e 3b4f 64bf 1653 cdbd
000002a0: 8a10 193f 64c3 cdbf 13dd ce3f a08d 103f
000002b0: f83a 323e a528 453e e417 b53d 7c53 d03e
000002c0: 3276 6f3f afc7 fa3e 15e2 02c0 02e2 cdbe
000002d0: 2201 503f 57a6 363e 129e aebf 9e41 063f
000002e0: c0ba 87bf 30fa 1fbf e733 a7bf 15c7 56be
000002f0: 9405 533f e6c8 1b3f 6fd2 663e 90dc dbbf
00000300: 0bfd 84bf 216b 783f de93 e6bf 2ba6 aa3d
00000310: d283 243f 980d 993f e701 cabe ef62 273d
00000320: 9a56 393e c767 34bf 617a 1f3e bfe7 bcbf
00000330: 7315 aabf 655c 00bd e3d1 11be 3830 54bf
00000340: 56de f1be 0032 483e b5c4 0e3e ceea 2e3e
00000350: b40f c7be 1bb6 9e3c eac4 113e d719 2c3f
00000360: 37b1 77bf a6c5 34be 44c5 25bf dfac 123f
00000370: 355e b8bd 17b3 283e 62b6 303f e82d dd3e
00000380: 54cd afbd 5d9e cb3f aa19 fb3f ce00 87bc
00000390: 918d 8c3f e277 2bbe 0ef6 cdbe 93c0 b6be
000003a0: 279a b6bd 415e 153f 50ab 00bf 6379 2e3f
000003b0: 23b2 cb3e 9932 bcbd 5eec 45bf 1226 bebe
000003c0: dec6 1dbe 4c8d 29be 2853 4c3f 9e04 48be
000003d0: 8e50 96bf 1459 b33e 169b dbbd d9b4 23bf
000003e0: 9954 57be e9b7 2dbe 64fd 0cbf 1643 eebd
000003f0: 8cd5 5f3e 899e 093f 776b 7e3e 272f 103f
0.6610255 0.3439999 -0.70428663 -1.2093046 0.89007616 -0.054828096 0.658833 0.47511002
0.78227973 -0.5042194 0.94393814 -0.8583741 -0.56652874 0.26117983 0.1853713 0.631206
-0.6741089 -1.1974573 0.018065114 -0.38110933 -0.9098662 0.561294 0.39199096 -0.35230428
-1.3781722 0.55314493 -0.02750943 0.4484294 0.4365783 -0.017311068 0.48697075 -0.6357012
0.5693778 -0.08654355 -0.45925468 0.74716705 1.4854614 -0.10588239 -0.051689275 0.13487998
-0.08516584 -0.76186 -0.5215815 -0.15270585 -0.04801357 -0.57857794 1.5932124 -1.2087623
-0.4142117 1.1235429 0.13959718 0.26167682 -0.15940301 0.2553646 -0.28324968 -0.4954882
1.5571201 0.017104305 0.1484798 0.23393087 -0.1779503 0.8387773 -0.21852031 -0.25388992
-0.35657832 1.355887 -0.21942213 0.4456604 1.908528 0.86013776 -0.605625 0.67221636
0.61932915 0.8865162 -0.9577413 1.0099026 0.067623675 0.63789845 -0.25321236 0.82478243
0.17942709 0.23232079 1.5727214 -0.6219671 0.5911254 -0.43470457 0.21759541 0.120261
0.88621604 -0.08309893 1.132938 -0.24851185 0.0060758437 0.24125688 0.4393361 0.13260171
0.7194251 0.46421605 -0.376756 -0.27122498 0.790252 0.20905049 -0.600024 1.3504723
1.0018086 0.29074392 0.78794557 0.3820584 0.31395265 0.7079814 -0.4220383 -0.05752609
1.048446 -0.5670047 -0.83046734 -0.35778716 -0.12681875 0.5643569 -0.43223947 0.28728378
-0.35088345 1.069999 0.2868688 -0.084472366 0.48751745 1.1971195 0.9058946 0.24447641
0.50728077 -0.26802233 -0.5056255 -1.648287 -0.2831738 -0.4811246 -1.4114279 0.5481038
0.38217118 -0.31404895 0.83995396 0.114961214 -0.08900307 0.6487644 0.96313 0.119323865
-0.45840985 -1.201147 -0.20294093 -0.27997014 -0.61987484 0.02822146 0.0892286 -0.60735387
-0.51886696 -0.26917303 0.52964437 -0.23093314 0.6452967 -0.12841414 0.31478634 -0.27735963
-0.11166135 -1.0711467 -1.3829573 0.006798522 0.19045833 0.15700686 -0.89183396 -0.10025613
0.5979086 -1.6075253 1.6161216 0.564661 0.17405307 0.19253786 0.088424474 0.40688694
0.93539727 0.48980471 -2.045049 -0.40211493 0.8125173 0.17836891 -1.3641989 0.52443874
-1.0603867 -0.6249113 -1.3062714 -0.20974381 0.82430387 0.6085342 0.22541212 -1.7176685
-1.0389723 0.97038466 -1.8013875 0.08332475 0.6426364 1.1957273 -0.39454576 0.040865835
0.18099442 -0.7047085 0.15574028 -1.4758223 -1.3287796 -0.031338114 -0.14240222 -0.82886076
-0.4723994 0.19550323 0.13942225 0.17081758 -0.38879168 0.019373944 0.14235273 0.6722693
-0.96754783 -0.17653522 -0.6475413 0.5729503 -0.090023436 0.16474567 0.69028294 0.43199086
-0.08584085 1.5907704 1.9617207 -0.016479876 1.0980703 -0.1674495 -0.40226787 -0.35693797
-0.08916121 0.58346945 -0.502614 0.6815397 0.39784345 -0.09189338 -0.7731379 -0.3713842
-0.15407893 -0.16557807 0.79814386 -0.19533011 -1.1743333 0.350289 -0.1072294 -0.63947827
-0.21028365 -0.16964687 -0.55074143 -0.116338894 0.21858805 0.5375753 0.24845682 0.5632195

encoder.lstm.weight_hh_l1 f4 [128, 32]
00000000: 9294 84be 2b4f 10c0 66c7 8d3f de87 533d
00000010: 1bb8 d63e 2327 c73f c1d6 5dbe ff1a bd3e
00000020: 68ed 143f 8cb8 bfbe b524 fdbe 9ff8 883f
00000030: 440a 5cbc 2cb0 973f 9db0 633e 5867 653a
00000040: 9bec 0c3f 0eb4 61bd d70c b4be 9c7a 2f3f
00000050: d342 03bf cfee 3dbf 260c 21be 8cf8 6b3e
00000060: 10da 753f 4d9e a93f 3b30 64bf d2b0 75bd
00000070: b818 16be 1d0d dc3e 1bca 06bf b42d 1a3e
00000080: ecc6 9dbf b142 a43e 6b4e eabc eb34 bebe
00000090: 9bb8 d53f f758 2a3e 4239 1d3f bfd0 f33f
000000a0: d337 323f 315a 063f 93dc 69be cbf2 c0bf
000000b0: f348 953c 99cf 0a3f dcdb bb3f afd7 8dbf
000000c0: 1fa4 1d40 7d1f 613f a561 273e 388d 64be
000000d0: c85c e13e 056d 99bf 8fbc 253f a826 b93e
000000e0: 52ea 43bf d634 b6be ba0c fdbd a505 ae3d
000000f0: d05e d6bd 2b25 aebe f3ef be3e de99 e6bf
00000100: 92b1 b03f 22bc 123f babe 77be 5b57 26bf
00000110: 8492 13bf c503 933e a0ef fa3e be2d f23e
00000120: d51d 203f 286b 993e 4a43 2f3f 6070 12bf
00000130: 99b1 2f3f e41b e9bd df64 57bf 9455 603d
00000140: 7712 febe f7a7 49bf 00d8 88bd a642 09bf
00000150: fa28 acbe e02f 103f 2f86 143f a76b babf
00000160: 46f2 84bf 9c36 01bf 7682 1ebf e54d d4bc
00000170: 320b 763f aa55 98be bfd5 2cbf a937 dc3d
00000180: 33e2 843f bd4f 013e a033 9f3e 7224 61bf
00000190: fb44 a2bf b5a3 eebe 49f2 76bf 6400 99bf
000001a0: 487b 2b3e 0497 413e 8f68 16bf f9da 253e
000001b0: e527 f33e 4758 82bf a83b b4be 527b 1cbd
000001c0: 978c 13bc 1b4c ac3e 2c6d 943d faf0 ef3f
000001d0: c646 9dbe 5aa7 35bf e9a3 73bf 4a35 c63e
000001e0: 3fa8 4bbf f3af bb3f 765f 63bf 8b1f d23e
000001f0: b5d3 c6be 4907 9d3d 4814 99be bfe3 6ebf
00000200: ae77 4d3f 794a a93e c842 c8be 1cf8 8abe
00000210: ec84 ecbe 1527 63be ad9f 50be 50a3 2cbe
00000220: 1c84 6b3e cd34 573f e76e 363e 1f84 29be
00000230: f593 053f 6c42 853e add2 67bf 4933 0bbe
00000240: 2855 0dbf 74aa 03bf fb2c 2c3e 0a34 25bd
00000250: 4493 adbe 0853 183f edb6 cbbe 8582 03bf
00000260: 8a8a 5dbf 1e6e 6d3e e6c4 5fbf 0962 383f
00000270: 1713 8f3d 91ff 113f fbb1 033e 5d86 29bf
00000280: 136e 323f 586a cabe 8fb4 2e3f 8c03 82bf
00000290: 8ded 043f 9d16 b0bf 8083 3cbd 08b4 d73f
000002a0: 7206 283f 15c8 af3f e923 403f 81f4 30bf
000002b0: c517 28be 2f76 f73e c441 30bf dcf4 83bd
000002c0: 42ee d6be edb9 9c3e b655 37bb acea a73f
000002d0: 4be2 893f ad37 36be 4f5e ebbf 13c2 b43d
000002e0: caf4 a8bf 80f1 c23f c84a b33e bfd3 363f
000002f0: 8232 48bf 11ed a2be c07d 993e 08c7 a8bd
00000300: a2d4 8a3f e7b1 9abf c51c 17bf 1e29 763e
00000310: 24a5 963d a202 12bf 8c4d 903f 8f93 b5bf
00000320: 7378 d1b9 cdf5 893f dcb1 06bf f5fc 50bf
00000330: 35cb d3be 4bda 103f ac84 303e 2084 5a3f
00000340: d194 e0be 6a59 743e 90da 78be ddfe 2c3f
00000350: 92ad 31bf 3a24 1cbf e5b4 04bf 94cf ab3e
00000360: 623f 80be b44f 82be 2d72 453e 312e f43f
00000370: 4e42 b0b9 b56b 7ebe 5185 643e 2e63 2ebf
00000380: 0fa0 053e f623 ddbe 4789 a8bf d45b 28bf
00000390: 11e6 d23e 66e0 cc3e 5808 933f 1374 3c3f
000003a0: c33b 79bf 266e 9e3f 4009 c43e 0e37 f13d
000003b0: e8e6 39be c5e2 90bd f455 89bf 67e1 653e
000003c0: 1bae 343f bc1b 623e 2252 26be 348b 433f
000003d0: 580a 17bf 7127 263f 1a41 10c0 2851 313f
000003e0: f16f 85bf 1e90 a0be 14d7 18bf 5d16 8bbf
000003f0: bc24 90bf 6106 81bc 2f9f 5dbf eafe 0a40
-0.258946 -2.254832 1.1076477 0.051643245 0.41937336 1.5558819 -0.21663953 0.3693466
0.58174753 -0.37445486 -0.49442068 1.0700873 -0.013430182 1.1850638 0.22235341 0.0008751056
0.5504853 -0.055103354 -0.35166046 0.6854646 -0.5127384 -0.7419252 -0.1572729 0.23044032
0.9603586 1.3251435 -0.89136094 -0.059983082 -0.14657867 0.42978755 -0.5265214 0.15056497
-1.2326331 0.32082132 -0.028601846 -0.37149748 1.6696962 0.166355 0.61415493 1.9048079
0.6961643 0.5248137 -0.22838049 -1.5074095 0.018223261 0.5422302 1.4676471 -1.1081446
2.4631422 0.8793867 0.16345842 -0.22319496 0.440161 -1.1986395 0.6474084 0.36162305
-0.7652942 -0.35587186 -0.12355943 0.0849717 -0.10467303 -0.34012732 0.37292442 -1.8015707
1.380419 0.5731832 -0.2419385 -0.64977044 -0.5764544 0.28713813 0.49010944 0.47300524
0.6254552 0.29964566 0.6846205 -0.5720272 0.6863037 -0.11382273 -0.8413829 0.054769114
-0.49623463 -0.7877192 -0.06681824 -0.5361732 -0.33625013 0.5632305 0.5801725 -1.4564103
-1.0386436 -0.5047395 -0.6191782 -0.02591605 0.9611083 -0.29752856 -0.6751365 0.10752804
1.038153 0.12628074 0.31094074 -0.87946236 -1.2677301 -0.46609274 -0.9646345 -1.1953244
0.16746247 0.18905264 -0.58753294 0.16196813 0.47491375 -1.018319 -0.35201764 -0.038203545
-0.009005687 0.33651814 0.072473854 1.8745415 -0.30718058 -0.70958483 -0.9517198 0.3871253
-0.795536 1.466307 -0.88817537 0.4103969 -0.38833395 0.07667405 -0.29898286 -0.9331626
0.8026074 0.3306463 -0.3911345 -0.27142417 -0.4619516 -0.22182877 -0.20373411 -0.16859174
0.22999614 0.8406494 0.17815743 -0.16554306 0.5217889 0.26027238 -0.9055584 -0.13593782
-0.55208063 -0.51431966 0.16814034 -0.04033283 -0.33901417 0.59501696 -0.39788 -0.5137103
-0.8653952 0.23186538 -0.8740982 0.7202459 0.06986063 0.5703059 0.12860863 -0.6622065
0.6969921 -0.3953426 0.6824426 -1.0157332 0.51924974 -1.3756901 -0.046023846 1.6851816
0.65634835 1.3732935 0.75054795 -0.69123083 -0.16415317 0.48332354 -0.6885035 -0.064431876
-0.4197865 0.306106 -0.0027974672 1.3118491 1.0772184 -0.17794676 -1.8388156 0.08826079
-1.3199704 1.522995 0.3501799 0.7141685 -0.7820207 -0.31821492 0.29978752 -0.08241087
1.084614 -1.2085541 -0.59028274 0.24039122 0.07355717 -0.5703527 1.1273665 -1.4185656
-0.00039953328 1.0778137 -0.5261514 -0.8163598 -0.41365972 0.5658309 0.1723811 0.85357857
-0.43863538 0.23862234 -0.24302125 0.6757639 -0.6940547 -0.6099278 -0.51838523 0.33556807
-0.25048357 -0.25451434 0.19281836 1.9076596 -0.00033618737 -0.24845774 0.22316481 -0.68120086
0.13049339 -0.431915 -1.3166894 -0.6576512 0.41191152 0.40014952 1.1486921 0.73614615
-0.97356814 1.2377365 0.38288307 0.11778079 -0.1815449 -0.07074503 -1.0729356 0.22449265
0.70578164 0.22080892 -0.16242269 0.7638428 -0.5900016 0.6490393 -2.2539735 0.6926446
-1.0424787 -0.31359953 -0.59703183 -1.08662 -1.126121 -0.015750112 -0.8657102 2.1718087

encoder.lstm.bias_ih_l1 f4 [128]
00000000: 72e7 7e3e 8a6d 8ebe 2f13 f53d 8708 aa3e
00000010: 9e60 1f3e 00de da3d 4efa ca3d ccb7 553e
00000020: aa74 86be 45b2 2f3e 4a01 413e 2b2e b0bd
00000030: 202d 80be f783 05be 5858 513e ca55 263e
00000040: b1d5 af3d d534 6ebe 9192 933e caf5 063e
00000050: 178f ab3d c581 b63e 1024 97be 3d72 b83e
00000060: 9de9 3c3e 9ff7 303f d7b3 143a 1e99 a7be
00000070: c2ba f0bc b12d 273f c161 af3e cfbc 9c3c
00000080: 4b42 14bf 40fd bb3d 9b9a 72be 09b0 1ebf
00000090: 9b42 17be 5278 bfbe 105a e8be 8ebb eabe
000000a0: daac c1be 15e8 6fbe de1f 84be 1c48 c0be
000000b0: 4691 973d b723 263f 908c 123f d79b 83be
000000c0: ba31 523d 45b4 763e 770c 8dbf 653c 8fbe
000000d0: a042 47be a8e4 0a3e 3a2e a33e 10f2 f8bd
000000e0: 9885 c1bd 6702 08bf e1e8 6ebe bf6f c5be
000000f0: 32f1 a1be d94d 353e e9dc a6be 2c5f 4cbe
00000100: 6211 893e d6a1 51be 4fb7 ef3d 85d2 8d3e
00000110: f2f7 c6bd 253b f03e a9dc 04bf 3783 e2be
00000120: 41cf 003f b77b 3abe 0520 993e 7384 043e
00000130: caf9 6f3e 43ac a43e fe17 79be 23d1 80bd
00000140: 48d9 6fbe ff04 d33d 8b12 0b3f bd63 ddbe
00000150: 4ddc 713d 0fd1 833e 9ef6 04bf 19a7 00be
00000160: 5ad5 823e d28c f2bd 7c3f 37be 6cc8 7c3d
00000170: 9a96 f93d c12c 52be a60a 0e3f d2a6 84bd
00000180: 6858 f33e 8efd 90bd 274a 17be 8b5b 113f
00000190: ea32 d83d d869 053e b775 49bd 8e66 903e
000001a0: 853f 76be eb9c 8cbe 0780 553f c816 debd
000001b0: 9926 9dbd 2587 dfbe 0b75 dd3e d756 8a3d
000001c0: 8e90 fb3e 8d80 553f de8e c1bc 5a21 2d3f
000001d0: e8a0 673d 4b8b a5bd 6cd4 173f 11aa 0d3f
000001e0: 327b 543f a006 bb3d 591d fe3e ae2d 82be
000001f0: 07dc c5bc 2856 cb3d 84a4 4f3d 3415 633f
0.24892977 -0.27817947 0.119665496 0.3320963 0.155642 0.106868744 0.09911023 0.20870894
-0.26260883 0.17157848 0.18848148 -0.08602556 -0.25034428 -0.13038622 0.20443857 0.16243663
0.0858568 -0.23262341 0.2882276 0.13179699 0.083769016 0.3564588 -0.295197 0.36024657
0.18448491 0.6912784 0.000567255 -0.32734007 -0.029385928 0.65304095 0.34254268 0.019133
-0.57913655 0.09179163 -0.2369179 -0.6198736 -0.14771502 -0.37396485 -0.45381212 -0.45846218
-0.37827188 -0.23428376 -0.25805563 -0.37555015 0.074007556 0.64898247 0.5724573 -0.25704834
0.051316954 0.24092205 -1.1019429 -0.27975765 -0.19459009 0.13563788 0.31871206 -0.12155545
-0.09449309 -0.53128666 -0.23331024 -0.38561818 -0.3162933 0.17705478 -0.32590416 -0.1995818
0.26771075 -0.20471892 0.11704885 0.27699676 -0.097152606 0.46920124 -0.518992 -0.44240734
0.50316244 -0.18211256 0.2990724 0.1294115 0.2343513 0.32162675 -0.24325559 -0.0628989
-0.2342273 0.10303687 0.5432517 -0.43240157 0.059047986 0.25745437 -0.5193881 -0.12563743
0.255534 -0.118432656 -0.17895311 0.061714575 0.12186928 -0.20524885 0.55485 -0.06477131
0.47528386 -0.07079612 -0.1477438 0.5678031 0.10556586 0.13028657 -0.049184527 0.28203243
-0.24047668 -0.2746347 0.8339848 -0.10844189 -0.076733775 -0.43657795 0.4325336 0.06754845
0.49133724 0.8339928 -0.023627695 0.67629015 0.056549937 -0.08083209 0.59308505 0.55337626
0.8300048 0.09132123 0.49631765 -0.25425476 -0.024152769 0.099285424 0.050694004 0.8870423

encoder.lstm.bias_hh_l1 f4 [128]
00000000: 96dc 7e3e f86d 8ebe 730f f53d 6c06 aa3e
00000010: c363 1f3e 7dec da3d a516 cb3d 529a 553e
00000020: fb85 86be f595 2f3e 61e8 403e aa22 b0bd
00000030: ad2b 80be 6790 05be 3157 513e 124d 263e
00000040: 490a b03d 7f29 6ebe 2998 933e f6ee 063e
00000050: aa58 ab3d 5e77 b63e 9f28 97be 5566 b83e
00000060: e2c7 3c3e 93f1 303f eddc 263a c7a2 a7be
00000070: 7d49 f0bc fa2b 273f 595b af3e aacb 9b3c
00000080: f843 14bf f422 bc3d 30bb 72be d9ab 1ebf
00000090: 5d4b 17be 897f bfbe 0b53 e8be 50be eabe
000000a0: ebb5 c1be 2cd6 6fbe cd19 84be c247 c0be
000000b0: ea6b 973d 5424 263f 4e90 123f b6a2 83be
000000c0: 5a2b 523d f7b3 763e ce09 8dbf 9e3e 8fbe
000000d0: 8c4b 47be 56d3 0a3e 8937 a33e a2f3 f8bd
000000e0: cd8b c1bd 16fe 07bf 17e0 6ebe b27d c5be
000000f0: 30ed a1be 4244 353e 8ad3 a6be ee69 4cbe
00000100: 190b 893e 0a9f 51be 1bd6 ef3d dfd8 8d3e
00000110: 33e4 c6bd 9942 f03e c8d6 04bf a082 e2be
00000120: 1dd3 003f 0976 3abe 881e 993e 726d 043e
00000130: 12ff 6f3e a8a0 a43e 450e 79be 73f7 80bd
00000140: 78d6 6fbe 0c06 d33d fe0d 0b3f b354 ddbe
00000150: c5a1 713d 98c8 833e d8fa 04bf 7497 00be
00000160: 08df 823e ad9d f2bd f93b 37be 25b7 7c3d
00000170: ee8e f93d bf2e 52be b40e 0e3f ca88 84bd
00000180: 1859 f33e 3dea 90bd 8c51 17be 6958 113f
00000190: 0f2d d83d 817b 053e c57d 49bd 0867 903e
000001a0: 9c2e 76be 2d9e 8cbe c683 553f d220 debd
000001b0: b848 9dbd 257c dfbe ec6f dd3e e955 8a3d
000001c0: 4696 fb3e 2787 553f cf60 c1bc c61f 2d3f
000001d0: 6789 673d f9a4 a5bd 71d3 173f 46ac 0d3f
000001e0: dd7c 543f 29fe ba3d 2523 fe3e 5d30 82be
000001f0: 2404 c6bc 9536 cb3d f9e7 4f3d 881b 633f
0.24888834 -0.27818274 0.11965837 0.33208025 0.155654 0.10689638 0.099164285 0.2085965
-0.26274094 0.17147048 0.18838646 -0.08600362 -0.25033322 -0.13043366 0.20443417 0.16240337
0.08595712 -0.23258017 0.28827026 0.13177094 0.08366521 0.35637945 -0.2952318 0.36015573
0.18435624 0.69118613 0.0006365318 -0.32741377 -0.029331917 0.6530148 0.3424938 0.019018013
-0.5791621 0.09186354 -0.23704219 -0.6198097 -0.14774843 -0.3740199 -0.45375857 -0.45848322
-0.37834105 -0.23421544 -0.25800934 -0.37554747 0.0739363 0.6489918 0.5725144 -0.25710076
0.051310875 0.24092089 -1.1018617 -0.2797746 -0.19462413 0.13557181 0.31878307 -0.12155844
-0.09450493 -0.5312208 -0.23327671 -0.3857246 -0.31626272 0.1770182 -0.32583266 -0.19962284
0.2676628 -0.20470825 0.11710759 0.27704522 -0.09711494 0.4692581 -0.5189023 -0.44240284
0.50322133 -0.1820909 0.29906106 0.12932375 0.23437145 0.3215382 -0.2432185 -0.06297197
-0.23421657 0.10303888 0.54318225 -0.43228683 0.058992166 0.25738978 -0.5194526 -0.12557775
0.25560784 -0.118464805 -0.17893972 0.061698098 0.12185465 -0.20525645 0.55491185 -0.06471403
0.4752891 -0.070759274 -0.14777201 0.5677553 0.10555469 0.13035394 -0.04919221 0.28203607
-0.24041218 -0.2746443 0.83404195 -0.10846104 -0.076798856 -0.43649402 0.43249452 0.06754667
0.49138087 0.8340935 -0.023605732 0.6762661 0.05652752 -0.08088107 0.5930701 0.55340993
0.83003026 0.091305085 0.49636188 -0.25427523 -0.024171896 0.0992252 0.050758336 0.88713884

decoder.lstm.weight_ih_l0 f4 [128, 5]
00000000: 2321 4cbe 0a04 c53e 355f eebe 9b63 04bf
00000010: 74af 643f c4d6 ecbe 649b ea3b 3873 893d
00000020: e7ad 65be d07e 01bc ff7c 8f3e 49a7 e83f
00000030: 57cd 203f bbe4 44be 8330 ae3e 15ad 80bf
00000040: e123 d63f 78b0 103f 791c 44bf 2500 dbbe
00000050: a159 04be 3ab1 c53f 4e79 4f3f 9c6e 19be
00000060: e9ea 4d3e c540 8cbf 0dd4 33be 9ff5 0d3e
00000070: 9651 113e c48f 06bd e728 a0bf 0fa5 853e
00000080: 94a5 cf3e 8e6d e0be e032 3abe c926 543e
00000090: 63a5 0a3f b6d2 503e b490 66be 2ee9 d4be
000000a0: e595 aa3e 28da 423e b2a7 303d ccf3 57bd
000000b0: 708e 0ebe 3f49 d23e af50 d73e 7e5c da3e
000000c0: eb4c 163f 7394 4a3e 5576 043e f5ec ab3f
000000d0: ea64 cc3f 1a85 533e ddf1 5cbe 1c1f 28be
000000e0: ed90 2abf 0cb6 99bf 19fa 4dbf 6a28 253f
000000f0: ea14 ab3e 5f8b c83e 5d44 d33d a4cc 69be
00000100: 48b0 a03e e27d 363d e932 0cbd c25e ea3e
00000110: ae6c 973e 02bd b5be 88bc 4dbf 5bc5 333f
00000120: 687b 5a3f fd0a c5be 9303 06bf 0fe5 41be
00000130: 9c8b f63d 04de b13f 0d16 113d 40f6 013f
00000140: e39a 15bf d712 ecbe 23b1 013c 0ea4 4e3f
00000150: 862f 2b3f 92ab 1abe 0320 09be 4b1c 09be
00000160: 705b fb3d 4889 723c bc5c 16bf 96d0 0dbf
00000170: e3b1 3ebf 8d59 87bc 0774 f4bc 0993 093e
00000180: 3586 1bbd b9bc 11be c07b c53e 7286 0f3d
00000190: 3b01 83bf 9a1f a840 0873 563e 9bad bdbd
000001a0: b5c2 1ebf c174 b33e 07a3 033e ff54 06bd
000001b0: f494 19bf 95ab e13e 0f93 c53e daf9 43c0
000001c0: d476 a4bf e46f d43e fe0b 1fbd 9285 7abe
000001d0: 2d6c 0a3f e369 16be 4d9c 143e 3993 3c3c
000001e0: ec6f e7bd ca1f 0d3f 6943 a5bc c941 8abe
000001f0: ddcf 2a3d 6abe bb3f 36cf 11bf 347c db3e
00000200: 9a71 d7be f46f 61bf 060f ba3e a253 d13e
00000210: 993c 723d 9f2e 59bf 6295 54bf 88f0 b9be
00000220: 3082 65be a0aa 9dbe b8dc d9be 98c3 babe
00000230: 8807 6cbe 55ce f33e f726 773e 5547 60bf
00000240: d892 12bf b5ac a43e 0c7c 2f3e 6f42 19be
00000250: c3c4 63bf 4e04 42bc fc5a 6f3f 0780 6640
00000260: e05f 3240 ea01 10bf ee52 8a3f d334 53bf
00000270: 2806 ef3e 77d6 b8bc 0de1 3d3d 99bf 833d
00000280: 4427 683e 6ae5 e63e 92ab c9bd 873f 953d
00000290: 030c 193f 4180 373e cbe3 083f a398 a83e
000002a0: 2950 1d3d 7bcd 4e3e 7e73 193f 9c9c 7a3e
000002b0: 1d43 26bf 8039 20be 21dc 20bf 7be7 aabf
000002c0: 6ccb b33e 8a1f f33e 97d1 7cbe d046 1ebf
000002d0: 9e80 b6be 67d4 86be 00a4 b33e c29e 74be
000002e0: e958 57bf 726a 64bf 32aa 5ebf 832f f0bd
000002f0: 77c8 fb3e 4f3e eabe 232a b6be a281 0dbe
00000300: 6861 053f dfa1 e6be 9859 1fbe f7ef 1f3e
00000310: a5aa 22c0 b19a 003e 7997 213e c106 2a3e
00000320: 5cf2 533e bedf aebe 99e3 4bbd 4b79 82be
00000330: 2e6d f53e d771 4a3f 29ef 39bf 921e 00be
00000340: 263f c13f de27 95bf c0e4 16bf af48 433e
00000350: 35fe f8be 81dc de3c 15b2 4dbd 85b1 c3be
00000360: e375 c0be 9518 b03c 246a a1bd 6a2d 4dbf
00000370: 3668 87be 0ef7 863d df03 d13e 1daa 86be
00000380: 2884 45be 0959 e73e 9426 5bbf bd6d 683f
00000390: 0e95 043e 9c7c 023f e5bf 1fbf 81a7 233f
000003a0: a73a dfbd 70ca cdbe b9f1 0dbe 6bd8 3ebf
000003b0: f3f6 63bf b35d 073c 6742 8d3d e004 93be
000003c0: d45e 1fc1 8869 19c0 e4c8 41bf 1d8d cebe
000003d0: d362 f0be 400a 223c 9547 543f 2ba1 63bd
000003e0: c45a fdbe 4c7e c8be c2cb 303d ff9c d5be
000003f0: 7d03 c6be a108 2c3e e6d9 bf3e 0a69 eabd
-0.19934516 0.38479644 -0.46557012 -0.51714486 0.8933022 -0.46257603 0.0071596373 0.06711429
-0.2242962 -0.00790377 0.28025052 1.8176051 0.62813324 -0.19227879 0.34021387 -1.005282
1.6729699 0.5651927 -0.76605946 -0.42773548 -0.12924816 1.544471 0.8104447 -0.149836
0.20109142 -1.0957266 -0.1756136 0.13863228 0.14191279 -0.03285195 -1.2512482 0.26102492
0.40556014 -0.43833584 -0.1818347 0.2071792 0.5415861 0.2039288 -0.22516137 -0.41584152
0.33317485 0.19028533 0.043128677 -0.052722737 -0.13921523 0.41071507 0.42053744 0.4264869
0.5871112 0.19783191 0.12935765 1.3431689 1.5968297 0.20656243 -0.21576639 -0.16418117
-0.6662739 -1.2008681 -0.80459744 0.6451479 0.33414394 0.39168832 0.10315774 -0.2283197
0.31384492 0.044553645 -0.03422824 0.4577542 0.29575104 -0.35495764 -0.803658 0.70223016
0.85344553 -0.38484946 -0.52349204 -0.18935035 0.12038347 1.3895879 0.03542142 0.5076637
-0.58439463 -0.46108124 0.007915768 0.8071908 0.6686939 -0.15104511 -0.13391118 -0.13389699
0.122733 0.014803238 -0.5873525 -0.553964 -0.74490184 -0.016522193 -0.029840482 0.13434996
-0.037969787 -0.14232148 0.38570976 0.035040326 -1.023475 5.2538576 0.20942318 -0.09261628
-0.6201585 0.35050014 0.12855159 -0.032795902 -0.5999291 0.4407622 0.3858876 -3.0621247
-1.2848763 0.41491616 -0.038829796 -0.24465016 0.54071313 -0.1468883 0.14512749 0.01150971
-0.11300644 0.5512663 -0.020173745 -0.27003315 0.04170214 1.4667485 -0.56956804 0.42868197
-0.4207886 -0.8806145 0.36339587 0.4088412 0.05913982 -0.84836763 -0.8304044 -0.36316323
-0.22412944 -0.3079424 -0.42551208 -0.3647735 -0.23049748 0.47618356 0.24135958 -0.87608844
-0.57255316 0.32163015 0.17137164 -0.14966749 -0.8897211 -0.011841847 0.93498206 3.6015642
2.7871017 -0.5625292 1.0806558 -0.8250248 0.46684384 -0.022563202 0.046357203 0.06433029
0.22671229 0.45096904 -0.098471776 0.072875075 0.59783953 0.17920019 0.53472584 0.32928953
0.038406525 0.20195572 0.5994185 0.24473804 -0.64946157 -0.15646935 -0.6283589 -1.3351892
0.35116136 0.47485 -0.24689327 -0.618268 -0.35645002 -0.26333925 0.3508606 -0.23888686
-0.8412004 -0.8922492 -0.8697845 -0.11727812 0.4917638 -0.45750663 -0.35579023 -0.13818982
0.52101755 -0.45045373 -0.15561521 0.15618883 -2.5416653 0.1255901 0.15780438 0.16604139
0.20697922 -0.34155077 -0.0497776 -0.25483164 0.4793486 0.79079956 -0.72630554 -0.12511662
1.5097396 -1.1652792 -0.58942795 0.19070695 -0.48631445 0.027204754 -0.05021866 -0.38221374
-0.3758994 0.021496097 -0.07881573 -0.8014742 -0.26446694 0.06590091 0.40823266 -0.2630166
-0.19288695 0.45185116 -0.8560574 0.9079245 0.12947485 0.5097139 -0.6240218 0.63927466
-0.10899859 -0.4019351 -0.13861741 -0.7454898 -0.8904869 0.008262086 0.06897431 -0.28714657
-9.960651 -2.397066 -0.7569716 -0.40342036 -0.46950397 0.009890139 0.82921726 -0.055573624
-0.4948331 -0.39158857 0.04316307 -0.4172134 -0.38674536 0.16800167 0.3747093 -0.11445816
