results/LSTM_double_layer/2077_model.pt (torch, 932137 bytes, 18 tensors)

output_zeros f4 [400, 512, 1]
0.0 0.0 0.0 0.0 0.0 0.0 0.0 0.0
0.0 0.0 0.0 0.0 0.0 0.0 0.0 0.0
0.0 0.0 0.0 0.0 0.0 0.0 0.0 0.0
0.0 0.0 0.0 0.0 0.0 0.0 0.0 0.0
0.0 0.0 0.0 0.0 0.0 0.0 0.0 0.0
0.0 0.0 0.0 0.0 0.0 0.0 0.0 0.0
0.0 0.0 0.0 0.0 0.0 0.0 0.0 0.0
0.0 0.0 0.0 0.0 0.0 0.0 0.0 0.0
0.0 0.0 0.0 0.0 0.0 0.0 0.0 0.0
0.0 0.0 0.0 0.0 0.0 0.0 0.0 0.0
0.0 0.0 0.0 0.0 0.0 0.0 0.0 0.0
0.0 0.0 0.0 0.0 0.0 0.0 0.0 0.0
0.0 0.0 0.0 0.0 0.0 0.0 0.0 0.0
0.0 0.0 0.0 0.0 0.0 0.0 0.0 0.0
0.0 0.0 0.0 0.0 0.0 0.0 0.0 0.0
0.0 0.0 0.0 0.0 0.0 0.0 0.0 0.0
0.0 0.0 0.0 0.0 0.0 0.0 0.0 0.0
0.0 0.0 0.0 0.0 0.0 0.0 0.0 0.0
0.0 0.0 0.0 0.0 0.0 0.0 0.0 0.0
0.0 0.0 0.0 0.0 0.0 0.0 0.0 0.0
0.0 0.0 0.0 0.0 0.0 0.0 0.0 0.0
0.0 0.0 0.0 0.0 0.0 0.0 0.0 0.0
0.0 0.0 0.0 0.0 0.0 0.0 0.0 0.0
0.0 0.0 0.0 0.0 0.0 0.0 0.0 0.0
0.0 0.0 0.0 0.0 0.0 0.0 0.0 0.0
0.0 0.0 0.0 0.0 0.0 0.0 0.0 0.0
0.0 0.0 0.0 0.0 0.0 0.0 0.0 0.0
0.0 0.0 0.0 0.0 0.0 0.0 0.0 0.0
0.0 0.0 0.0 0.0 0.0 0.0 0.0 0.0
0.0 0.0 0.0 0.0 0.0 0.0 0.0 0.0
0.0 0.0 0.0 0.0 0.0 0.0 0.0 0.0
0.0 0.0 0.0 0.0 0.0 0.0 0.0 0.0
00000000: 0000 0000 0000 0000 0000 0000 0000 0000
00000010: 0000 0000 0000 0000 0000 0000 0000 0000
00000020: 0000 0000 0000 0000 0000 0000 0000 0000
00000030: 0000 0000 0000 0000 0000 0000 0000 0000
00000040: 0000 0000 0000 0000 0000 0000 0000 0000
00000050: 0000 0000 0000 0000 0000 0000 0000 0000
00000060: 0000 0000 0000 0000 0000 0000 0000 0000
00000070: 0000 0000 0000 0000 0000 0000 0000 0000
00000080: 0000 0000 0000 0000 0000 0000 0000 0000
00000090: 0000 0000 0000 0000 0000 0000 0000 0000
000000a0: 0000 0000 0000 0000 0000 0000 0000 0000
000000b0: 0000 0000 0000 0000 0000 0000 0000 0000
000000c0: 0000 0000 0000 0000 0000 0000 0000 0000
000000d0: 0000 0000 0000 0000 0000 0000 0000 0000
000000e0: 0000 0000 0000 0000 0000 0000 0000 0000
000000f0: 0000 0000 0000 0000 0000 0000 0000 0000
00000100: 0000 0000 0000 0000 0000 0000 0000 0000
00000110: 0000 0000 0000 0000 0000 0000 0000 0000
00000120: 0000 0000 0000 0000 0000 0000 0000 0000
00000130: 0000 0000 0000 0000 0000 0000 0000 0000
00000140: 0000 0000 0000 0000 0000 0000 0000 0000
00000150: 0000 0000 0000 0000 0000 0000 0000 0000
00000160: 0000 0000 0000 0000 0000 0000 0000 0000
00000170: 0000 0000 0000 0000 0000 0000 0000 0000
00000180: 0000 0000 0000 0000 0000 0000 0000 0000
00000190: 0000 0000 0000 0000 0000 0000 0000 0000
000001a0: 0000 0000 0000 0000 0000 0000 0000 0000
000001b0: 0000 0000 0000 0000 0000 0000 0000 0000
000001c0: 0000 0000 0000 0000 0000 0000 0000 0000
000001d0: 0000 0000 0000 0000 0000 0000 0000 0000
000001e0: 0000 0000 0000 0000 0000 0000 0000 0000
000001f0: 0000 0000 0000 0000 0000 0000 0000 0000
00000200: 0000 0000 0000 0000 0000 0000 0000 0000
00000210: 0000 0000 0000 0000 0000 0000 0000 0000
00000220: 0000 0000 0000 0000 0000 0000 0000 0000
00000230: 0000 0000 0000 0000 0000 0000 0000 0000
00000240: 0000 0000 0000 0000 0000 0000 0000 0000
00000250: 0000 0000 0000 0000 0000 0000 0000 0000
00000260: 0000 0000 0000 0000 0000 0000 0000 0000
00000270: 0000 0000 0000 0000 0000 0000 0000 0000
00000280: 0000 0000 0000 0000 0000 0000 0000 0000
00000290: 0000 0000 0000 0000 0000 0000 0000 0000
000002a0: 0000 0000 0000 0000 0000 0000 0000 0000
000002b0: 0000 0000 0000 0000 0000 0000 0000 0000
000002c0: 0000 0000 0000 0000 0000 0000 0000 0000
000002d0: 0000 0000 0000 0000 0000 0000 0000 0000
000002e0: 0000 0000 0000 0000 0000 0000 0000 0000
000002f0: 0000 0000 0000 0000 0000 0000 0000 0000
00000300: 0000 0000 0000 0000 0000 0000 0000 0000
00000310: 0000 0000 0000 0000 0000 0000 0000 0000
00000320: 0000 0000 0000 0000 0000 0000 0000 0000
00000330: 0000 0000 0000 0000 0000 0000 0000 0000
00000340: 0000 0000 0000 0000 0000 0000 0000 0000
00000350: 0000 0000 0000 0000 0000 0000 0000 0000
00000360: 0000 0000 0000 0000 0000 0000 0000 0000
00000370: 0000 0000 0000 0000 0000 0000 0000 0000
00000380: 0000 0000 0000 0000 0000 0000 0000 0000
00000390: 0000 0000 0000 0000 0000 0000 0000 0000
000003a0: 0000 0000 0000 0000 0000 0000 0000 0000
000003b0: 0000 0000 0000 0000 0000 0000 0000 0000
000003c0: 0000 0000 0000 0000 0000 0000 0000 0000
000003d0: 0000 0000 0000 0000 0000 0000 0000 0000
000003e0: 0000 0000 0000 0000 0000 0000 0000 0000
000003f0: 0000 0000 0000 0000 0000 0000 0000 0000

encoder.lstm.weight_ih_l0 f4 [128, 4]
-0.25776213 0.67020327 -0.80279934 0.32616338 0.52997345 -1.3998762 0.26677164 1.046974
0.5157594 1.3866994 0.83137125 -0.48152754 -0.36999616 0.11240867 0.2956265 -0.004551602
-0.65401644 -0.33389908 1.0988623 0.19065659 -0.16623369 -0.3545402 0.45985007 0.636092
-0.3160297 -0.3386482 1.084755 -0.15736842 0.70105326 -0.1428876 0.23490667 -0.20290762
0.2959877 0.045082394 0.08449542 -1.077272 -0.06430301 -0.5874604 -0.29116294 1.8410089
0.48207396 0.119861975 -0.2669463 0.35063928 0.6279212 0.03591664 1.3022332 -0.17352073
0.29394063 0.30876383 0.18202333 -0.06637745 1.380539 0.680248 0.43740702 0.108332194
2.2223277 -0.89264387 0.110823326 0.1985945 0.46084076 0.045095436 0.3435359 -0.06471801
0.27608612 0.16981179 -0.3899231 0.47500676 -0.21948454 0.646934 -0.09983562 0.15361975
0.06472613 0.26541486 -0.22498699 0.050492536 0.050947234 0.104170345 0.106385894 0.43037054
0.90296865 -0.07486725 -1.0565937 0.21449533 0.072746344 0.12818864 -0.19921176 -0.16561946
0.160125 0.26814976 1.7073473 0.14600581 -0.4569336 -0.69837904 0.26513878 0.26614252
-0.055711575 -0.025553469 1.3339458 0.12930205 1.2047052 0.7918118 -0.15865223 0.4359401
0.27496558 -0.06884262 -0.78296214 0.3409319 0.91532683 1.3194625 1.560651 1.3938615
-0.61157143 -0.6423195 -0.08339367 -0.29805627 1.2881156 1.0570812 -0.012546883 -0.17781945
0.08046993 -0.48065293 -0.39117718 0.28802627 0.73619264 -0.26791686 -0.6271205 -0.03910076
-0.73947674 -0.26236087 -0.25140804 0.050958026 -0.7657007 -0.5746857 -0.7172306 0.75490314
-0.4207998 0.014877964 0.20935853 -0.21492171 -0.56670356 -0.58462137 -0.19978571 0.24557076
-0.5070022 0.88147706 0.68437564 -0.047755476 -0.33829767 -0.44288015 -0.23591669 -0.30463374
-0.3243697 -0.39076185 0.8766769 0.18113393 0.6292001 -0.20684421 -0.94546694 0.16456835
-0.34294012 0.22877751 0.39459774 0.90565556 0.25509804 -0.2946706 -0.33033624 0.38451415
-0.7092006 0.38611126 -0.6347983 0.23068273 -0.85012263 0.22658882 -0.6201463 0.12011567
0.06494221 0.046212263 -0.24959403 -0.3148639 0.28496942 -0.2164439 -0.07736242 -0.28615046
1.3359694 -1.0302143 -0.07092456 -0.09035535 -0.141001 0.08133665 -0.45908976 -0.2625725
-0.72304994 0.4079732 -0.33756524 0.24079932 0.078311786 -0.2849295 -0.491372 0.34236678
-0.49146807 0.27957702 -0.6644971 -0.18048327 0.18960257 -0.34932503 0.22286971 0.21570721
-0.75924677 0.51376057 0.11502006 -0.87825155 -0.52833784 0.007452513 -0.22876263 0.016712982
0.57667696 0.4279947 0.6129734 -0.07717261 -0.02742198 -0.18812488 0.43354318 -0.5603077
-1.1636384 -0.18159325 0.84180826 -0.13625365 0.7333249 0.6190597 0.8728284 -0.872365
0.060972374 -0.5013082 0.13209096 0.14145862 1.6758008 2.0222924 2.4569018 2.0979214
0.21913429 -0.049253672 -0.19427669 -0.52707124 1.0432156 0.30148703 -0.91169184 -0.86712945
0.20700942 -0.77279365 -0.26280648 -0.31528577 0.35489583 -0.9974762 -1.2541538 0.52146554
00000000: 66f9 83be 7192 2b3f 4284 4dbf e3fe a63e
00000010: 57ac 073f 252f b3bf 4b96 883e 3e03 863f
00000020: cf08 043f 5e7f b13f bfd4 543f c78a f6be
00000030: 2370 bdbe 8436 e63d 5b5c 973e 9b25 95bb
00000040: 9f6d 27bf d2f4 aabe 85a7 8c3f 7b3b 433e
00000050: 2a39 2abe 4b86 b5be 7871 eb3e edd6 223f
00000060: a5ce a1be 4c63 adbe 40d9 8a3f 3025 21be
00000070: 3a78 333f 2151 12be 608b 703e 04c7 4fbe
00000080: b38b 973e 51a8 383d ef0b ad3d 0de4 89bf
00000090: 4cb1 83bd ce63 16bf 4f13 95be 2ea6 eb3f
000000a0: 66d2 f63e 327a f53d 2fad 88be fe86 b33e
000000b0: 72bf 203f 541d 133d 94af a63f 6baf 31be
000000c0: 637f 963e 4b16 9e3e 5364 3a3e e7f0 87bd
000000d0: 80b5 b03f bc24 2e3f d0f3 df3e 45dd dd3d
000000e0: 9e3a 0e40 4f84 64bf 57f7 e23d 5b5c 4b3e
000000f0: 52f3 eb3e feb5 383d f0e3 af3e e08a 84bd
00000100: 295b 8d3e 24e3 2d3e 00a4 c7be 1634 f33e
00000110: 8ec0 60be 779d 253f 9e76 ccbd 7f4e 1d3e
00000120: 228f 843d 75e4 873e fd62 66be 43d1 4e3d
00000130: 0cae 503d 4357 d53d d9e0 d93d 8759 dc3e
00000140: f428 673f 0054 99bd 763e 87bf aaa4 5b3e
00000150: 09fc 943d e243 033e 2bfe 4bbe 2698 29be
00000160: cff7 233e ed4a 893e 5b8a da3f 8c82 153e
00000170: 33f3 e9be f8c8 32bf 45c0 873e d543 883e
00000180: d231 64bd 8255 d1bc bcbe aa3f c267 043e
00000190: c833 9a3f 2eb4 4a3f bb75 22be 8a33 df3e
000001a0: 4ac8 8c3e 5cfd 8cbd 3570 48bf a08e ae3e
000001b0: dc52 6a3f 26e4 a83f 69c3 c73f 0e6a b23f
000001c0: f28f 1cbf 0d6f 24bf 4dca aabd d59a 98be
000001d0: f9e0 a43f 704e 873f 7191 4dbc 4d16 36be
000001e0: 6bcd a43d 2418 f6be 6048 c8be 2e78 933e
000001f0: 1f77 3c3f 662c 89be f88a 20bf 1e28 20bd
00000200: 594e 3dbf 2a54 86be 8eb8 80be 5db9 503d
00000210: f604 44bf 9a1e 13bf 6d9c 37bf 5541 413f
00000220: 1273 d7be b4c2 733c 1562 563e 7014 5cbe
00000230: 7c13 11bf bfa9 15bf a094 4cbe e776 7b3e
00000240: e5ca 01bf 7ba8 613f 3e33 2f3f 3f9b 43bd
00000250: 5a35 adbe 30c1 e2be 2594 71be f4f8 9bbe
00000260: c913 a6be f011 c8be e66d 603f 2c7b 393e
00000270: 4213 213f f8ce 53be 1f0a 72bf 9b84 283e
00000280: d995 afbe a744 6a3e b708 ca3e 0bd9 673f
00000290: 369c 823e 11df 96be d521 a9be 0adf c43e
000002a0: 2c8e 35bf 60b0 c53e 2482 22bf 1838 6c3e
000002b0: a3a1 59bf e606 683e e8c1 1ebf 34ff f53d
000002c0: 6c00 853d 1249 3d3d 9495 7fbe d735 a1be
000002d0: 83e7 913e 78a3 5dbe 3070 9ebd 5082 92be
000002e0: 0c01 ab3f 10de 83bf e540 91bd 3a0c b9bd
000002f0: 9162 10be d493 a63d d00d ebbe e76f 86be
00000300: cd19 39bf dde1 d03e 5ad5 acbe 1994 763e
00000310: ee61 a03d 48e2 91be 1c95 fbbe b34a af3e
00000320: b4a1 fbbe b824 8f3e 7b1c 2abf 9bd0 38be
00000330: 2d27 423e bbda b2be f537 643e 5ae2 5c3e
00000340: ff5d 42bf d085 033f a38f eb3d 18d5 60bf
00000350: 2641 07bf 3634 f43b c040 6abe aae9 883c
00000360: 1aa1 133f 1f22 db3e d3eb 1c3f ac0c 9ebd
00000370: 0fa4 e0bc cfa3 40be 5ff9 dd3e 5370 0fbf
00000380: 1af2 94bf 95f3 39be bf80 573f 1486 0bbe
00000390: 2ebb 3b3f b27a 1e3f af71 5f3f 5053 5fbf
000003a0: 2bbe 793d bc55 00bf da42 073e 87da 103e
000003b0: a480 d63f 3d6d 0140 e13d 1d40 5844 0640
000003c0: bd64 603e 38be 49bd 78f0 46be 24ee 06bf
000003d0: 1788 853f 825c 9a3e a364 69bf 32fc 5dbf
000003e0: 47fa 533e ced5 45bf 928e 86be 236d a1be
000003f0: e8b4 b53e 9a5a 7fbf 1d88 a0bf c47e 053f

encoder.lstm.weight_hh_l0 f4 [128, 32]
0.06755139 -0.2576137 0.14101897 -0.010627759 0.052869197 0.007441345 0.30114135 -0.2139948
0.1781683 -0.25763747 0.23229371 -0.5198038 -0.075241014 -0.16059837 0.0029806676 -0.010284731
0.13940485 -0.18879725 -0.1747548 0.5824381 0.06723686 -0.021618305 -0.21781603 0.74934065
-0.34312233 -0.5909629 -0.1372901 -0.07032521 -0.24349886 -0.19968025 -0.062313788 0.16313729
-0.019686813 -0.23791808 -0.16110374 -0.17389886 0.79256445 0.35808557 -0.57261515 -0.08873661
0.10015089 0.36200947 -0.1737637 0.72208923 0.1935416 -0.11160818 0.10031624 -0.09008936
-0.8222252 0.072464086 0.07467135 0.03847025 -0.016232843 0.09516906 0.52499425 0.33826265
0.082948945 1.181402 0.027716236 -0.37094796 0.13683552 -0.053867005 0.29488814 0.26060218
-0.34623745 -0.7252916 0.4002352 -0.03589914 -0.41006657 0.44338906 -0.07272679 -0.44855306
-0.1183234 -0.041559584 0.3312925 -0.04695771 -0.14738584 -0.12436723 0.17152785 -0.22738998
-0.36829272 -0.14649001 -0.58187854 0.30435362 0.11219206 -0.12045739 -0.0633197 0.13139585
0.0005798167 0.17463094 0.20729406 -0.1392034 -0.24204043 -0.016310116 -0.05964142 0.65037596
0.050459694 0.16628794 -0.7562793 -0.26064372 -0.0009949206 0.5149569 0.088548966 -0.14620891
0.4773127 0.4232398 0.3622166 0.27118245 0.11483599 0.5216804 -0.11148665 0.1536828
0.5487919 -0.30127755 -0.3313715 0.43721625 0.05299148 0.30667758 -0.019062653 -0.18513633
-0.6183969 -0.30847108 0.6200703 -0.33689496 0.20973991 0.49093455 0.7784733 -0.25811738
-0.17087254 -0.22948375 -0.2881384 0.21405175 -0.14896797 0.13892333 0.13355374 -0.6717832
-0.048446167 0.06468294 -0.064915694 -0.7440411 -0.47400364 -0.3641722 0.12097358 0.38010493
-0.10428508 0.013169716 0.18301176 0.44472066 -0.30549657 -0.49065745 -0.0027219944 0.25127393
-0.66055804 -0.45424598 -0.3283573 0.30579522 -0.13862275 0.12403663 -0.18098862 -0.22096246
-0.07644714 -0.23361379 0.121955134 0.005836851 -0.13399626 -0.17074664 -0.16154842 -0.22437415
-0.21007948 0.1479614 0.17254552 0.014538978 0.004548263 0.22996616 0.54421395 0.19940488
0.6503127 0.019476296 -0.15086477 0.1740775 -0.53120494 0.36156926 -0.8644996 -1.3063806
0.151874 -0.607527 0.07007304 -0.17377833 -0.16249272 0.38461792 -0.080086745 -0.25055984
-0.04049096 0.028455628 -0.017323919 0.60101616 0.17219512 0.39530218 0.0060506635 0.26905632
-0.17963313 0.07090956 0.034095425 0.90169775 0.042082135 0.107579686 -0.30365694 -0.087769456
0.9751587 0.7794318 -0.7606372 0.013951062 -0.23124948 -0.3228383 -0.20055202 0.73236
0.108606815 -0.06272995 0.41921222 -0.113098636 -0.27832508 -0.036884677 -0.15294759 0.23057026
0.016971882 -0.80289906 -0.5432074 0.51415104 -0.39737657 0.05166859 0.39316154 -0.07170041
-0.37527868 0.025373625 0.35949206 -0.25868514 0.07773323 -0.29835787 0.66753256 -0.70386255
-0.24055012 0.43581194 -0.6618322 -0.06540444 -0.38936597 -0.54102814 -0.03277663 -0.16614714
-0.091019996 0.0487488 0.4892842 0.0699161 -0.15688209 0.44525367 -0.2731452 0.16865104
00000000: 6258 8a3d f1e5 83be 4767 103e 0d20 2ebc
00000010: 5f8d 583d 87d6 f33b 332f 9a3e 7421 5bbe
00000020: c071 363e 0fe9 83be 67de 6d3e dd11 05bf
00000030: f617 9abd e673 24be 4e57 433b 4a81 28bc
00000040: 25c0 0e3e 1154 41be ecf2 32be aa1a 153f
00000050: 7bb3 893d df18 b1bc 2a0b 5fbe cad4 3f3f
00000060: bbad afbe 5849 17bf c795 0cbe aa06 90bd
00000070: c457 79be fb78 4cbe be3c 7fbd 760d 273e
00000080: 3d46 a1bc cca0 73be 61f8 24be 8b12 32be
00000090: 81e5 4a3f fe56 b73e e896 12bf 8abb b5bd
000000a0: e91b cd3d 4e59 b93e 1def 31be d7da 383f
000000b0: c52f 463e d492 e4bd 9a72 cd3d c580 b8bd
000000c0: 5a7d 52bf 0d68 943d 4bed 983d fb92 1d3d
000000d0: bdfa 84bc ffe7 c23d 0666 063f c330 ad3e
000000e0: 23e1 a93d 2e38 973f 290d e33c e4ec bdbe
000000f0: 9c1e 0c3e a6a3 5cbd 94fb 963e a66d 853e
00000100: 0946 b1be b6ac 39bf a1eb cc3e fa0a 13bd
00000110: 3ff4 d1be e403 e33e c9f1 94bd bfa8 e5be
00000120: 8a53 f2bd 623a 2abd 2c9f a93e ba56 40bd
00000130: 50ec 16be 3fb4 febd ffa4 2f3e ebd8 68be
00000140: dd90 bcbe 7a01 16be fef5 14bf 3dd4 9b3e
00000150: f3c4 e53d 5db2 f6bd c2ad 81bd a28c 063e
00000160: d7fe 173a 74d2 323e e544 543e 568b 0ebe
00000170: 72d9 77be cb9c 85bc 904a 74bd 0a7f 263f
00000180: d3ae 4e3d 6347 2a3e 859b 41bf 1873 85be
00000190: ff67 82ba 37d4 033f 2959 b53d cab7 15be
000001a0: 5562 f43e e3b2 d83e 7474 b93e 6dd8 8a3e
000001b0: 222f eb3d d98c 053f 1d53 e4bd 065f 1d3e
000001c0: a07d 0c3f 0d41 9abe 86a9 a9be cfda df3e
000001d0: 980d 593d d804 9d3e 4829 9cbc 6194 3dbe
000001e0: 424f 1ebf ecef 9dbe edbc 1e3f 7f7d acbe
000001f0: 0fc6 563e c65b fb3e 074a 473f f627 84be
00000200: 36f9 2ebe cafd 6abe e086 93be 6230 5b3e
00000210: 0f8b 18be eb41 0e3e 50c2 083e fcf9 2bbf
00000220: 7d6f 46bd 7d78 843d 85f2 84bd 7a79 3ebf
00000230: 9bb0 f2be c774 babe ffc0 f73d 1d9d c23e
00000240: 6b93 d5bd cbc5 573c 6f67 3b3e 6db2 e33e
00000250: 0c6a 9cbe 7437 fbbe 7d63 32bb faa6 803e
00000260: 551a 29bf ee92 e8be 731e a8be 3191 9c3e
00000270: 1ff3 0dbe eb06 fe3d 1555 39be fc43 62be
00000280: 5190 9cbd 7438 6fbe 9dc3 f93d 0e43 bf3b
00000290: 5136 09be 35d8 2ebe f36c 25be 56c2 65be
000002a0: 131f 57be 3183 173e c6af 303e e534 6e3c
000002b0: 9809 953b 407c 6b3e 9b51 0b3f cb30 4c3e
000002c0: e57a 263f c18c 9f3c 4b7c 1abe 5f41 323e
000002d0: 0cfd 07bf 9b1f b93e d94f 5dbf 7b37 a7bf
000002e0: dc84 1b3e e486 1bbf 7482 8f3d f2f2 31be
000002f0: 7e64 26be a4ec c43e 8504 a4bd 6149 80be
00000300: d9d9 25bd c71b e93c e4ea 8dbc 32dc 193f
00000310: eb53 303e 0c65 ca3e a544 c63b c0c1 893e
00000320: bff1 37be 0839 913d a5a7 0b3d aad5 663f
00000330: 515e 2c3d bd52 dc3d ec78 9bbe 79c0 b3bd
00000340: 00a4 793f d888 473f 1fb9 42bf ff92 643c
00000350: aacc 6cbe 104b a5be 825d 4dbe f27b 3b3f
00000360: 406d de3d 8f78 80bd fca2 d63e 42a0 e7bd
00000370: a080 8ebe 6314 17bd 4b9e 1cbe 9c1a 6c3e
00000380: 9e08 8b3c cb8a 4dbf a40f 0bbf 679f 033f
00000390: f174 cbbe 72a2 533d 784c c93e aad7 92bd
000003a0: 8724 c0be 59dc cf3c 580f b83e 6172 84be
000003b0: 9a32 9f3d 5dc2 98be 6ae3 2a3f 5630 34bf
000003c0: c552 76be be22 df3e d66d 29bf c3f2 85bd
000003d0: fa5a c7be d280 0abf ca40 06bd 7a22 2abe
000003e0: b168 babd d2ac 473d 7583 fa3e 2c30 8f3d
000003f0: b3a5 20be 4af8 e33e b0d9 8bbe dcb2 2c3e

encoder.lstm.bias_ih_l0 f4 [128]
-0.0039525987 0.14425178 0.24800293 0.4995787 -0.27828184 0.11394086 -0.06841455 -0.07768138
-0.16456096 -0.21854201 0.042631768 0.17991441 0.36141708 0.5919872 0.00019070189 0.3753403
-0.11971874 0.4185968 -0.29322964 -0.09683792 0.19869673 -0.0046377615 0.040690303 -0.046368964
-0.015117802 0.15003464 -0.14271942 -0.031238532 -0.019603278 0.09609388 0.1814897 -0.07122801
-0.22744116 -0.046489406 -0.17606437 -0.061767012 -0.2519018 0.049163494 -0.1767573 -0.22183606
0.06553533 0.076211944 -0.14967662 -0.5640006 -0.2114525 -0.07670586 -0.028535891 -0.267722
-0.030157074 0.03454275 -0.3205181 -0.3741283 -0.08649122 -0.021296838 -0.23028746 0.21443042
-0.21698916 -0.23121046 0.003226772 0.4027837 -0.023233673 -0.27758053 0.054979946 0.016179744
0.019291034 -0.08989889 -0.004742745 -0.16795631 0.24370831 0.0025400808 -0.06084767 0.05187755
-0.09148893 0.3541578 0.187204 0.114650525 0.22472973 -0.048895575 0.18982165 -0.02599934
0.0919469 -0.077882715 -0.10160439 0.08309337 -0.06538444 0.15240362 -0.020197013 -0.12555738
-0.11229832 0.032666404 0.14835946 -0.34712037 0.12396991 0.08516708 0.22476636 0.086451925
0.15615547 0.25166157 0.07253088 0.4841591 0.062265303 0.613784 0.11717695 0.061271045
0.24980885 -0.009605061 -0.086392954 0.2523968 0.04160278 0.41530177 -0.08659757 -0.07248461
-0.14832902 0.3768701 0.027860032 0.043072104 0.14717801 0.29596946 0.30743703 0.061716482
0.2706204 0.45644027 0.025713896 0.02434627 0.09092562 0.35726696 0.22357595 0.004818769
00000000: cd84 81bb bdb6 133e 7bf4 7d3e c8c8 ff3e
00000010: f57a 8ebe d359 e93d ed1c 8cbd 6a17 9fbd
00000020: ab82 28be 7ac9 5fbe a69e 2e3d 7c3b 383e
00000030: a90b b93e 798c 173f 26f7 4739 9b2c c03e
00000040: 192f f5bd 5252 d63e 3222 96be f652 c6bd
00000050: 2877 4b3e 5df8 97bb e0aa 263d 62ed 3dbd
00000060: a8b0 77bc aea2 193e 0a25 12be f3e7 ffbc
00000070: 0e97 a0bc decc c43d 70d8 393e fedf 91bd
00000080: 56e6 68be ad6b 3ebd 384a 34be 68ff 7cbd
00000090: 46f9 80be a95f 493d deff 34be fe28 63be
000000a0: 6337 863d 0215 9c3d d444 19be 5862 10bf
000000b0: 0187 58be f617 9dbd 1ac4 e9bc dc12 89be
000000c0: f80b f7bc b37c 0d3d f31a a4be bf8d bfbe
000000d0: 4f22 b1bd b576 aebc 7ad0 6bbe a693 5b3e
000000e0: 6832 5ebe 6fc2 6cbe 4078 533b aa39 ce3e
000000f0: 8b54 bebc 091f 8ebe a732 613d 628b 843c
00000100: 3b08 9e3c e91c b8bd 0769 9bbb bdfc 2bbe
00000110: ac8e 793e 7c77 263b 683b 79bd 8e7d 543d
00000120: 8c5e bbbd 2c54 b53e 68b2 3f3e e5cd ea3d
00000130: 8d1f 663e ba46 48bd 9b60 423e 91fc d4bc
00000140: a84e bc3d f980 9fbd f615 d0bd db2c aa3d
00000150: 47e8 85bd b20f 1c3e 3574 a5bc 1d92 00be
00000160: a9fc e5bd 35cd 053d 8beb 173e c3b9 b1be
00000170: f0e3 fd3d 146c ae3d 2729 663e b50d b13d
00000180: 38e7 1f3e c9d9 803e 128b 943d b4e3 f73e
00000190: e709 7f3d f320 1d3f 78fa ef3d 59f7 7a3d
000001a0: e4cd 7f3e 8c5e 1dbc caee b0bd 273a 813e
000001b0: ad67 2a3d 6fa2 d43e 115a b1bd d072 94bd
000001c0: 90e3 17be 1ef5 c03e b93a e43c 606c 303d
000001d0: d5b5 163e 4f89 973e 6368 9d3e 6cca 7c3d
000001e0: c28e 8a3e 8ab2 e93e f3a5 d23c d471 c73c
000001f0: 3637 ba3d b2eb b63e 18f1 643e c4e6 9d3b

encoder.lstm.bias_hh_l0 f4 [128]
-0.003909677 0.14425093 0.24800362 0.49951744 -0.27830994 0.113931164 -0.068357304 -0.07762554
-0.16457397 -0.21852838 0.042679287 0.17997411 0.36143774 0.5919655 0.0002184395 0.3753683
-0.119744636 0.4186114 -0.293195 -0.0968079 0.19869865 -0.004620827 0.04069377 -0.04635125
-0.015075312 0.15006113 -0.14271139 -0.031245816 -0.019587666 0.0960931 0.18148997 -0.07125806
-0.22738403 -0.046505835 -0.17608663 -0.061783966 -0.25185755 0.049174592 -0.17677642 -0.22183354
0.0654736 0.07618612 -0.1497176 -0.56399924 -0.21141942 -0.076664425 -0.028503846 -0.26772138
-0.030139418 0.034550123 -0.32052886 -0.37414974 -0.086481884 -0.021265062 -0.23027618 0.21447769
-0.21693109 -0.23122284 0.0031645626 0.40276846 -0.023187717 -0.2775986 0.054937467 0.016166616
0.019279672 -0.089927286 -0.0047353436 -0.16798264 0.24376422 0.0025797838 -0.06086484 0.051914886
-0.091494866 0.3541887 0.18718852 0.11469787 0.22472346 -0.048861455 0.1898163 -0.026017077
0.0919713 -0.07789415 -0.101613246 0.08308314 -0.0653514 0.15242198 -0.020210732 -0.12553118
-0.11228587 0.03267169 0.14831652 -0.34712374 0.124002196 0.08513842 0.22476228 0.08645739
0.1561637 0.25168598 0.07251549 0.4841538 0.062317383 0.6137989 0.11715114 0.06132785
0.24981992 -0.009581821 -0.0864129 0.25242832 0.04154974 0.41532844 -0.08660229 -0.07244452
-0.14836898 0.37681606 0.027895752 0.043066517 0.14723186 0.29598448 0.30742073 0.06172993
0.27057165 0.45650786 0.025736963 0.024370361 0.090875454 0.3572618 0.22355872 0.004818568
00000000: bf1c 80bb 84b6 133e a9f4 7d3e c0c0 ff3e
00000010: a47e 8ebe be54 e93d eafe 8bbd 24fa 9ebd
00000020: 1486 28be e7c5 5fbe 7ad0 2e3d 224b 383e
00000030: 5e0e b93e 0d8b 173f e80c 6539 4630 c03e
00000040: ad3c f5bd 3c54 d63e a81d 96be 3843 c6bd
00000050: a977 4b3e 4e6a 97bb 83ae 263d cfda 3dbd
00000060: 71fe 76bc a0a9 193e ef22 12be 3af7 ffbc
00000070: 5076 a0bc 76cc c43d 82d8 393e bfef 91bd
00000080: 5cd7 68be e77c 3ebd 0e50 34be 2f11 7dbd
00000090: 79f3 80be 4c6b 493d e104 35be 5528 63be
000000a0: 0617 863d 7807 9c3d 924f 19be 4162 10bf
000000b0: 557e 58be 3d02 9dbd e680 e9bc c712 89be
000000c0: f1e6 f6bc 6e84 0d3d 5c1c a4be 8e90 bfbe
000000d0: 6a1d b1bd 1134 aebc 85cd 6bbe 0aa0 5b3e
000000e0: 2f23 5ebe aec5 6cbe 8d64 4f3b ab37 ce3e
000000f0: 2bf4 bdbc 6721 8ebe 1c06 613d da6f 843c
00000100: 67f0 9d3c cc2b b8bd f12a 9bbb a403 2cbe
00000110: 549d 793e 9711 293b 694d 79bd b4a4 543d
00000120: a961 bbbd 3958 b53e 59ae 3f3e b8e6 ea3d
00000130: e81d 663e f322 48bd 345f 423e c421 d5bc
00000140: 735b bc3d f886 9fbd 9b1a d0bd 7e27 aa3d
00000150: f4d6 85bd 8214 1c3e fa90 a5bc 3f8b 00be
00000160: 22f6 e5bd c0d2 053d 49e0 173e 34ba b1be
00000170: ddf4 fd3d 0d5d ae3d 1528 663e 9210 b13d
00000180: 61e9 1f3e fcdc 803e 0083 943d 02e3 f73e
00000190: 8340 7f3d ed21 1d3f f0ec ef3d e932 7b3d
000001a0: cbd0 7f3e 12fd 1cbc 3ff9 b0bd 493e 813e
000001b0: 0f30 2a3d eea5 d43e 8b5c b1bd cb5d 94bd
000001c0: 0aee 17be 09ee c03e a285 e43c 8466 303d
000001d0: f3c3 163e 478b 973e 4066 9d3e 86d8 7c3d
000001e0: 5e88 8a3e 66bb e93e 53d6 d23c 5aa4 c73c
000001f0: e91c ba3d 05eb b63e 94ec 643e 14e5 9d3b

encoder.lstm.weight_ih_l1 f4 [128, 32]
0.15384468 0.67199445 -0.49579304 -1.0216938 0.7949017 0.39394295 0.22916119 0.122945234
0.69381064 0.23429376 0.802618 -0.31485212 -0.23328757 0.9156346 0.17426877 0.38429445
-0.2704165 -1.146804 0.12435796 0.057851184 -1.0070337 0.8087129 0.26242006 -0.15379654
-1.0015931 0.6289908 0.5132405 -0.23255663 0.50726545 0.4225507 1.0112717 -0.28573367
0.6791808 -0.017894745 0.08346111 0.31359515 0.59642994 -0.2098698 -0.082694866 0.13959798
-0.06855324 -0.3253091 -0.3711725 -0.20423673 -0.13414772 -0.38373724 1.2759725 -0.96620595
-1.050094 0.4361081 -0.07325125 0.037196577 -0.32622543 0.17600136 -0.11512993 -0.35651228
1.1332316 0.054375537 0.21989873 -0.09137013 -0.09007782 0.4483742 -0.03983126 -0.2475243
-0.25327158 0.4733471 -0.4124789 0.06294828 1.5855737 0.9942344 -0.40110147 0.51225156
0.15640667 0.7687461 -0.40206507 0.73131263 0.18588734 0.16534273 0.13213886 0.5819714
0.3356911 0.0013670505 0.722745 -0.26256517 0.08331099 0.045656983 0.31077433 0.06484341
-0.17350544 0.2797903 1.1008625 -0.35498583 -0.12377088 0.27966666 0.5757875 0.20745821
0.41615167 0.62234443 -0.38387218 -0.14186475 0.47552282 0.21410464 -0.3314945 0.83649945
1.0406568 0.17566319 0.5052316 0.16659191 -0.1782489 1.2427423 -0.34297824 0.21012948
0.48294595 -0.15059152 -0.41892895 -0.71725005 0.33492032 0.37574717 0.14792694 0.16639164
-0.11187012 0.43725082 0.5957138 0.12295372 0.3730693 0.9682939 0.56470054 0.22196299
0.21456353 -0.59615004 -0.6834213 -0.40233392 0.009908016 -0.0029673323 -0.9563408 0.6283875
0.142536 -0.18491985 0.47705463 0.21575885 0.32238618 0.34696338 1.0034186 0.05547114
-0.26009843 -0.37831315 -0.374105 -0.20895961 -0.81328416 -0.6427607 -0.09130328 -0.6036231
-0.2840877 0.10116805 0.45376942 -0.21394329 0.021700857 -0.18498208 -0.01730075 0.25368437
-0.039083343 -0.763347 -1.040964 0.14142813 -0.222899 -0.07514847 -0.29785043 -0.15219623
0.19027221 -1.0108348 0.73295957 0.24805811 0.22691031 -0.02853851 0.09689828 0.013195041
0.2942431 0.40949863 -1.6392345 -0.19349869 0.105698764 -0.09852417 -0.8677437 0.15378653
-0.4187097 -0.4573234 -0.8901018 -0.08161806 0.28180975 0.22425605 -0.013987403 -0.99305505
-1.049834 0.6456707 -0.46584165 -0.5729665 0.31403863 0.44676214 -0.45004725 0.071572855
0.35838687 -0.18820226 0.44283602 -0.4626738 -0.55971366 0.29152796 0.7678031 -0.48812738
-0.9000447 -0.5576025 -0.29386035 -0.16429886 -0.662668 0.77661055 0.7195997 0.22035713
-1.0617198 0.2880622 -0.7115106 -0.16154052 0.12743087 0.87893414 0.72042865 0.64839894
-0.1397859 0.9138808 1.1893959 -0.118443206 0.68806195 -0.08805437 -0.31196493 -0.4822137
0.08113886 0.24148731 -0.12741435 0.52269226 0.35396573 -0.12549382 -0.34644347 0.20832175
0.027077466 -0.16708846 0.33369735 0.11260573 -0.7808515 0.18364675 0.011698208 -0.6786022
-0.41393065 -0.20106594 -0.4066458 -0.05096392 0.25806513 0.4760575 0.10416859 0.35464618
00000000: 7689 1d3e d407 2c3f 96d8 fdbe ddc6 82bf
00000010: ae7e 4b3f e4b2 c93e 3ba9 6a3e b6ca fb3d
00000020: 939d 313f b4ea 6f3e 6078 4d3f 4c34 a1be
00000030: f0e2 6ebe 0767 6a3f 8373 323e 3ec2 c43e
00000040: 0874 8abe 79ca 92bf 63af fe3d 5df5 6c3d
00000050: 7be6 80bf cf07 4f3f ec5b 863e d77c 1dbe
00000060: 3434 80bf 8b05 213f bb63 033f 5323 6ebe
00000070: 26dc 013f 9158 d83e 5a71 813f af4b 92be
00000080: cbde 2d3f 0098 92bc a9ed aa3d 8b8f a03e
00000090: a2af 183f 1ce8 56be ed5b a9bd c6f2 0e3e
000000a0: a465 8cbd ea8e a6be 520a bebe 6f23 51be
000000b0: 055e 09be 3579 c4be 1153 a33f 4659 77bf
000000c0: 7b69 86bf 9049 df3e c004 96bd 705b 183d
000000d0: 0507 a7be b339 343e 3ec9 ebbd c788 b6be
000000e0: bc0d 913f e2b8 5e3d 222d 613e 4320 bbbd
000000f0: b87a b8bd 4e91 e53e 1a26 23bd 0377 7dbe
00000100: d0ac 81be 8d5a f23e 6f30 d3be 07eb 803d
00000110: 14f4 ca3f 2586 7e3f 2c5d cdbe eb22 033f
00000120: 1229 203e 8bcc 443f 79db cdbe 4e37 3b3f
00000130: 4059 3e3e 9b4f 293e 694f 073e 14fc 143f
00000140: b4df ab3e 9a2e b33a d105 393f f16e 86be
00000150: f49e aa3d d102 3b3d d01d 9f3e 9fcc 843d
00000160: 69ab 31be ad40 8f3e 10e9 8c3f b4c0 b5be
00000170: 967b fdbd 7830 8f3e cf66 133f ed6f 543e
00000180: d511 d53e f751 1f3f e58a c4be fe44 11be
00000190: ba77 f33e 3f3e 5b3e a6b9 a9be d424 563f
000001a0: 3e34 853f 0de1 333e dc56 013f 1297 2a3e
000001b0: e186 36be 2e12 9f3f d89a afbe 2f2c 573e
000001c0: b144 f73e aa34 1abe db7d d6be b39d 37bf
000001d0: ad7a ab3e ef61 c03e 297a 173e 9262 2a3e
000001e0: 291c e5bd 57df df3e b380 183f 29cf fb3d
000001f0: f002 bf3e 1ce2 773f 3790 103f 444a 633e
00000200: 8bb6 5b3e 4a9d 18bf b3f4 2ebf b6fe cdbe
00000210: 3b55 223c 9377 42bb c0d2 74bf 01de 203f
00000220: f5f4 113e a15b 3dbe 8140 f43e e3ef 5c3e
00000230: cd0f a53e 2fa5 b13e 0570 803f b535 633d
00000240: 9f2b 85be 43b2 c1be b18a bfbe 82f9 55be
00000250: 6433 50bf f78b 24bf 37fd babd 0b87 1abf
00000260: f173 91be 3231 cf3d 7754 e83e f313 5bbe
00000270: ffc5 b13c f16b 3dbe 4dba 8dbc ebe2 813e
00000280: db15 20bd b66a 43bf 4f3e 85bf 89d2 103e
00000290: a33f 64be 71e7 99bd da7f 98be 54d9 1bbe
000002a0: b8d6 423e 0963 81bf 3da3 3b3f f202 7e3e
000002b0: 2d5b 683e 98c9 e9bc 9b72 c63d 0330 583c
000002c0: 08a7 963e cea9 d13e 70d2 d1bf 8524 46be
000002d0: 9878 d83d 0ac7 c9bd 7324 5ebf 377a 1d3e
000002e0: 1e61 d6be 4b26 eabe b6dd 63bf 5f27 a7bd
000002f0: 5e49 903e 61a3 653e 6c2b 65bc db38 7ebf
00000300: f660 86bf ad4a 253f cc82 eebe efad 12bf
00000310: acc9 a03e 02be e43e 986c e6be ca94 923d
00000320: 7c7e b73e 18b8 40be 67bb e23e 95e3 ecbe
00000330: 6549 0fbf 2743 953e be8e 443f d5eb f9be
00000340: 5469 66bf 0abf 0ebf dd74 96be f63d 28be
00000350: 9ca4 29bf f3cf 463f b037 383f 4da5 613e
00000360: 6fe6 87bf e47c 933e 8f25 36bf e16a 25be
00000370: 3d7d 023e d401 613f 036e 383f 79fd 253f
00000380: 0924 0fbe 18f4 693f 203e 983f 5a92 f2bd
00000390: d424 303f d955 b4bd deb9 9fbe b7e4 f6be
000003a0: 212c a63d 7348 773e e878 02be 29cf 053f
000003b0: ff3a b53e 7481 00be 0a61 b1be 4c52 553e
000003c0: 90d1 dd3c 3d19 2bbe 61da aa3e d59d e63d
000003d0: e2e5 47bf e50d 3c3e d7a9 3f3c e0b8 2dbf
000003e0: b8ee d3be 3be4 4dbe e133 d0be 8bbf 50bd
000003f0: 1d21 843e cfbd f33e 5756 d53d 2f94 b53e

encoder.lstm.weight_hh_l1 f4 [128, 32]
-0.033377618 -1.5549542 0.6247378 -0.042055566 0.4740304 0.4064902 0.0051359683 0.8122099
0.176052 -0.085996665 -0.38091 0.43470964 0.46836406 0.8424208 0.05102546 0.068071924
0.16719672 -0.10669316 0.048577044 0.15497923 -0.3355259 -0.6015071 0.24673587 0.1440685
0.16434035 0.575138 -0.60178995 0.0331197 0.23093888 -0.1542617 -0.033427652 0.14602378
-1.045417 0.26083276 -0.15753956 -0.4617027 0.77862954 0.047093887 0.38489988 1.4724858
0.4938891 0.3260455 0.11035009 -0.790788 -0.030928425 0.40056264 0.9681382 -0.7398477
1.0848465 0.2006063 0.10766736 -0.14393325 0.39989612 -0.81113684 0.35522643 0.2512882
-0.47462443 -0.2017395 -0.3075413 -0.07765975 -0.023698762 -0.20193982 0.10858709 -0.93472683
0.7537246 0.14380287 -0.06648285 -0.7104793 -0.5730997 0.19766416 0.14124618 0.3945801
0.45187306 0.00592989 0.4890347 -0.30791467 0.33846313 -0.16230522 -0.7232679 -0.36013108
-0.46380496 -0.51962286 0.021974836 -0.06209097 -0.3963976 0.012222148 -0.043818265 -1.0634212
-0.5976053 0.39692247 -0.5503445 -0.2011371 0.34891078 -0.41893768 -0.44501758 0.21565123
0.6101867 0.20355277 -0.15679991 -0.38283503 -0.42576414 -0.12774809 -0.24468897 -0.29952383
0.39010695 0.5230543 -0.27211523 0.68826205 0.5100617 -0.51679707 -0.5980757 0.2613362
0.15193701 -0.33274382 0.21669096 1.0414811 -0.06738645 -0.566571 -0.70708245 0.40082765
-0.7244365 1.3482032 -1.0194404 0.3458668 -0.5599815 0.22614855 -0.39757216 -0.54475707
0.1479658 -0.25755695 0.04397053 0.07765451 0.33025134 -0.13131624 -0.7731755 0.26454073
-0.26352477 -0.4768589 -0.22136669 -0.7326596 0.5680996 0.40861577 -0.3795445 0.49191776
-0.66345525 0.3834502 -0.08510878 0.40900207 -0.16343942 0.04580466 0.36168805 -0.10275175
-0.7434606 0.34606224 -0.74790734 0.105463944 -0.4581377 -0.27492312 0.071672164 -0.9330438
0.23335403 -0.5377982 0.4852715 -0.3711416 -0.28814378 -0.96516204 -0.056795515 0.836661
0.18818463 0.57612526 0.42083335 -0.5335246 -0.24371985 0.43833604 -0.3412748 -0.25946295
-0.1109778 0.3296955 -0.021343136 0.80206543 0.58170664 0.10938284 -1.165912 -0.024385614
-0.75400734 0.62575424 0.40995374 0.14537087 -0.57646555 -0.014811964 0.32906243 -0.06351671
0.7550905 -0.16105169 0.00095551857 -0.093612365 -0.13901429 -0.43900657 0.503789 -0.20626616
-0.16335781 0.8843523 -0.010325458 0.1856138 0.38588607 -0.18063442 -0.5622958 0.17535582
-0.490673 -0.25060558 0.5934297 0.33422992 -0.7134421 -0.806739 -0.65918535 0.009357154
-0.30972254 0.15518019 -0.36204565 1.2966717 0.39242584 -0.72026783 0.06438489 -0.88339454
0.29578972 -0.45761004 -0.9290127 -0.27566233 0.08579918 0.15526764 0.7140028 0.17643568
-0.8647942 0.9089508 0.044997893 0.3591351 -0.06573709 -0.057945356 -0.25453746 0.18838556
0.5042752 -0.024644446 -0.04685995 0.19740562 -0.17956612 0.2928227 -1.0154796 0.35750708
-0.62132454 -0.57442015 -0.2369529 -0.7407464 -0.5633219 0.05272682 -0.39413837 1.2818029
00000000: f8b6 08bd bd08 c7bf d1ee 1f3f 7542 2cbd
00000010: 1db4 f23e 7c1f d03e a04b a83b fdec 4f3f
00000020: fa46 343e 051f b0bd a306 c3be 4392 de3e
00000030: 6acd ef3e e4a8 573f 1300 513d 4b69 8b3d
00000040: 9e35 2b3e f281 dabd b9f8 463d e0b2 1e3e
00000050: 0dca abbe 5ffc 19bf 54a8 7c3e b186 133e
00000060: d648 283e 3e3c 133f e80e 1abf 86a8 073d
00000070: 3e7b 6c3e c7f6 1dbe 6feb 08bd 4287 153e
00000080: 39d0 85bf df8b 853e 0d52 21be 4c64 ecbe
00000090: 4454 473f 85e5 403d 9911 c53e 6a7a bc3f
000000a0: 08df fc3e 70ef a63e 3aff e13d 1571 4abf
000000b0: 9c5d fdbc 8c16 cd3e e8d7 773f a966 3dbf
000000c0: 40dc 8a3f bd6b 4d3e b480 dc3d 3d63 13be
000000d0: 2fbf cc3e aaa6 4fbf 3de0 b53e d9a8 803e
000000e0: f901 f3be cd94 4ebe 0e76 9dbe 130c 9fbd
000000f0: e823 c2bc 50c9 4ebe e962 de3d 424a 6fbf
00000100: 18f4 403f 0f41 133e 2928 88bd f9e1 35bf
00000110: a9b6 12bf 7968 4a3e d7a2 103e 6706 ca3e
00000120: e85b e73e 864f c23b c262 fa3e fea6 9dbe
00000130: 0a4b ad3e 5733 26be 1628 39bf 1a63 b8be
00000140: d877 edbe 0106 05bf 9204 b43c 1a53 7ebd
00000150: a0f4 cabe 673f 483c c87a 33bd 301e 88bf
00000160: a9fc 18bf 6c39 cb3e 61e3 0cbf e2f6 4dbe
00000170: 6fa4 b23e 007f d6be 58d9 e3be add3 5c3e
00000180: 3235 1c3f 2370 503e 2890 20be f402 c4be
00000190: c2fd d9be 65d0 02be bf8f 7abe 305b 99be
000001a0: 19bc c73e e3e6 053f b052 8bbe f131 303f
000001b0: 6793 023f d04c 04bf 7d1b 19bf dccd 853e
000001c0: 6095 1b3e 665d aabe 3ce4 5d3e 414f 853f
000001d0: e801 8abd cc0a 11bf 5b03 35bf 4839 cd3e
000001e0: ac74 39bf ec91 ac3f 067d 82bf 7415 b13e
000001f0: f35a 0fbf 7c93 673e 948e cbbe 3375 0bbf
00000200: 5984 173e 81de 83be 711a 343d 5409 9f3d
00000210: b416 a93e c477 06be d4ee 45bf e271 873e
00000220: b8ec 86be da26 f4be f3ad 62be 948f 3bbf
00000230: fa6e 113f 1636 d13e a853 c2be a5dc fb3e
00000240: 34d8 29bf 9653 c43e 834d aebd b868 d13e
00000250: aa5c 27be ab9d 3b3d 2d2f b93e 826f d2bd
00000260: 6f53 3ebf 122f b13e db76 3fbf 7bfd d73d
00000270: 0691 eabe b9c2 8cbe dbc8 923d f5db 6ebf
00000280: 5cf4 6e3e 25ad 09bf 8275 f83e 4606 bebe
00000290: 9587 93be dc14 77bf 6aa2 68bd 6a2f 563f
000002a0: 79b3 403e f27c 133f 7877 d73e 1195 08bf
000002b0: b291 79be 956d e03e 92bb aebe 54d8 84be
000002c0: 5448 e3bd d9cd a83e cdd7 aebc 2954 4d3f
000002d0: baea 143f 1c04 e03d 9b3c 95bf 57c4 c7bc
000002e0: a006 41bf 6e31 203f 75e5 d13e 1adc 143e
000002f0: 3f93 13bf e1ad 72bc df7a a83e 0d15 82bd
00000300: 9c4d 413f bcea 24be c47b 7a3a d7b7 bfbd
00000310: c359 0ebe 78c5 e0be 51f8 003f 7037 53be
00000320: 4547 27be ea64 623f 1c2c 29bc 8b11 3e3e
00000330: dc92 c53e 3bf8 38be 9ef2 0fbf 7a90 333e
00000340: 7e39 fbbe 604f 80be 02eb 173f 2f20 ab3e
00000350: 24a4 36bf 7286 4ebf 5fc0 28bf c04e 193c
00000360: f493 9ebe 8ee7 1e3e 0c5e b9be 57f9 a53f
00000370: 0aec c83e 7963 38bf 3adc 833d 2526 62bf
00000380: c071 973e dd4b eabe c7d3 6dbf 9d23 8dbe
00000390: 7bb7 af3d 7bfe 1e3e e3c8 363f 8eab 343e
000003a0: 2763 5dbf 00b1 683f b64f 383d 8ee0 b73e
000003b0: 2ba1 86bd 1c58 6dbd bc52 82be 25e8 403e
000003c0: 2e18 013f 26e3 c9bc 38f0 3fbd b324 4a3e
000003d0: 2ee0 37be dbec 953e 3cfb 81bf 2b0b b73e
000003e0: 200f 1fbf 330d 13bf c8a3 72be 8ea1 3dbf
000003f0: dd35 10bf 14f8 573d 81cc c9be 1e12 a43f

encoder.lstm.bias_ih_l1 f4 [128]
0.5345012 -0.054564204 0.41682816 -0.043085385 0.12768002 -0.06237434 0.41139072 0.19044353
-0.16098343 0.44991976 0.2196987 0.3397082 -0.22873688 0.014713133 0.28386235 0.22072917
-0.07644753 0.1728144 0.30060998 0.0037267553 -0.13703549 0.4215941 -0.14750968 0.47024474
0.19939217 0.21204947 0.013277464 -0.2847014 -0.022214103 0.5034659 0.6008855 -0.064308174
-0.3430184 -0.13311589 0.097456664 -0.53361624 -0.23152083 -0.14763293 -0.38079375 -0.50316757
-0.2632284 -0.38054395 -0.22764632 -0.47679207 0.18000473 0.24376783 0.37974668 -0.31905773
-0.055746898 0.018672632 -0.507167 -0.098006256 -0.38223195 -0.026487323 0.071584344 0.048898943
-0.020264333 -0.36702493 -0.21766655 -0.59140474 0.041758608 0.274847 -0.38684565 -0.06630396
0.26276866 -0.0978239 0.1441506 0.11616187 0.051892698 0.23601693 -0.2908276 -0.19531344
0.1919671 -0.16207282 0.09846668 0.059892528 0.090336494 0.34521222 -0.10462578 -0.21876864
-0.1958853 0.082621746 0.3569005 -0.33344606 0.0011294194 0.23116264 -0.12090944 -0.106648035
-0.13648078 -0.07375847 0.025680853 -0.06567066 0.08795618 -0.23888215 0.34389088 -0.047091126
0.40513343 0.06537625 0.047900945 0.34431124 0.10038206 0.15146321 0.22731538 0.2712776
-0.058974266 0.17883249 0.50728154 0.04950758 0.08312185 -0.14070156 0.26558563 -0.011474807
0.33344436 0.5027267 0.12750348 0.4010019 -0.02620803 0.084298395 0.45357034 0.4996239
0.5886211 0.1229187 0.23791882 0.05786225 0.24052252 0.029636603 0.3786367 0.69631064
00000000: 12d5 083f b77e 5fbd 806a d53e 4d7a 30bd
00000010: 8dbe 023e 3c7c 7fbd cea1 d23e a103 433e
00000020: d7d8 24be e25b e63e b2f8 603e 3cee ad3e
00000030: 003a 6abe 5a0f 713c 6856 913e d406 623e
00000040: 8690 9cbd 42f6 303e 8de9 993e 943c 743b
00000050: 0853 0cbe 2fdb d73e c70c 17be ebc3 f03e
00000060: 762d 4c3e 7f23 593e b889 593c 62c4 91be
00000070: 5afa b5bc 24e3 003f a2d3 193f 01b4 83bd
00000080: 1ca0 afbe 884f 08be 5c97 c73d 139b 08bf
00000090: cc13 6dbe 162d 17be 66f7 c2be 97cf 00bf
000000a0: dfc5 86be a8d6 c2be 1e1c 69be 171e f4be
000000b0: 2953 383e 469e 793e 286e c23e 895b a3be
000000c0: dc56 64bd 59f7 983c b2d5 01bf 81b7 c8bd
000000d0: e8b3 c3be f1fb d8bc d09a 923d 424a 483d
000000e0: 6301 a6bc b1ea bbbe fbe3 5ebe 4d66 17bf
000000f0: 130b 2b3d bfb8 8c3e a210 c6be 5fca 87bd
00000100: 9d89 863e e657 c8bd 379c 133e 46e6 ed3d
00000110: 708d 543d 6cae 713e 5be7 94be 3f00 48be
00000120: 0693 443e 6bf6 25be e6a8 c93d de51 753d
00000130: 5702 b93d a8bf b03e 0a46 d6bd e304 60be
00000140: 2896 48be 9735 a93d aabb b63e 71b9 aabe
00000150: 0709 943a e6b5 6c3e 5e9f f7bd 496a dabd
00000160: 9ec1 0bbe ae0e 97bd a760 d23c 577e 86bd
00000170: 5f22 b43d 869d 74be 7712 b03e a0e2 40bd
00000180: a66d cf3e fce3 853d c833 443d 9049 b03e
00000190: 1c95 cd3d 2c19 1b3e 5dc5 683e e6e4 8a3e
000001a0: 008f 71bd dd1f 373e 34dd 013f 76c8 4a3d
000001b0: ca3b aa3d 1214 10be d7fa 873e d400 3cbc
000001c0: 38b9 aa3e b2b2 003f 4690 023e 1f50 cd3e
000001d0: 39b2 d6bc a3a4 ac3d 5f3a e83e b4ce ff3e
000001e0: dfaf 163f cdbc fb3d fea0 733e f700 6d3d
000001f0: 894b 763e 76c8 f23c abdc c13e 6a41 323f

encoder.lstm.bias_hh_l1 f4 [128]
0.5344805 -0.054566156 0.4168241 -0.043094594 0.1276863 -0.062359184 0.4114192 0.19037811
-0.16105884 0.44986027 0.21964541 0.3397197 -0.2287301 0.014687124 0.28386012 0.22070996
-0.07639271 0.17283669 0.30063346 0.0037119098 -0.1370936 0.4215499 -0.14752847 0.4701955
0.19932462 0.211993 0.013315008 -0.2847426 -0.022184432 0.5034522 0.60085684 -0.06437297
-0.34303212 -0.1330752 0.09738569 -0.5335798 -0.23153989 -0.14766125 -0.38076568 -0.5031777
-0.2632647 -0.38050407 -0.22761929 -0.4767905 0.17996512 0.24377272 0.37977585 -0.31908786
-0.055750012 0.018671976 -0.5071229 -0.098016195 -0.38225076 -0.026524128 0.07162491 0.04889726
-0.02027093 -0.3669901 -0.2176461 -0.5914676 0.04177665 0.27482527 -0.38680342 -0.066327445
0.2627452 -0.097817615 0.14418307 0.11618956 0.051913403 0.23605275 -0.29077846 -0.19531056
0.19199944 -0.16206096 0.09846022 0.059844296 0.090347834 0.34516168 -0.104604356 -0.21880865
-0.19587986 0.08262285 0.35686177 -0.3333845 0.0010970329 0.23112427 -0.120948404 -0.10661516
-0.13643816 -0.073775075 0.025688896 -0.06567902 0.08794873 -0.23888598 0.34392372 -0.047058363
0.40513644 0.065396294 0.0478852 0.3442863 0.10037648 0.15150099 0.22731103 0.27127954
-0.058937445 0.17882675 0.50731134 0.049496833 0.08308573 -0.1406518 0.2655652 -0.011475883
0.33346733 0.50278133 0.12751608 0.40098706 -0.026220303 0.08427194 0.4535616 0.49964264
0.58863413 0.1229095 0.23794061 0.057851072 0.24051176 0.02960204 0.37866995 0.69636554
00000000: b7d3 083f c380 5fbd f869 d53e f583 30bd
00000010: 33c0 023e 586c 7fbd 8aa5 d23e 7bf2 423e
00000020: 9cec 24be 1654 e63e baea 603e beef ad3e
00000030: 3938 6abe 43a2 703c 1d56 913e cb01 623e
00000040: c873 9cbd 1afc 303e a1ec 993e 8343 733b
00000050: 4462 0cbe 63d5 d73e b411 17be 77bd f03e
00000060: c11b 4c3e b114 593e 3127 5a3c c8c9 91be
00000070: 20bc b5bc 3ee2 003f c1d1 193f fad5 83bd
00000080: e8a1 afbe dd44 08be 2672 c73d b098 08bf
00000090: cb18 6dbe 8334 17be b8f3 c2be 41d0 00bf
000000a0: a1ca 86be 6ed1 c2be 0815 69be e21d f4be
000000b0: c748 383e 8e9f 793e fb71 c23e 7c5f a3be
000000c0: 205a 64bd f9f5 983c ced2 01bf b7bc c8bd
000000d0: 5fb6 c3be 2149 d9bc 15b0 923d 7e48 483d
000000e0: 390f a6bc 20e6 bbbe 9fde 5ebe 6c6a 17bf
000000f0: fe1d 2b3d e6b5 8c3e 190b c6be afd6 87bd
00000100: 8a86 863e 9a54 c8bd baa4 133e cbf4 ed3d
00000110: 26a3 543d d0b7 713e eae0 94be 7eff 47be
00000120: 809b 443e 4ff3 25be 83a5 c93d 4b1f 753d
00000130: 4908 b93d 08b9 b03e cf3a d6bd 600f 60be
00000140: bb94 48be 2b36 a93d 96b6 b63e 60b1 aabe
00000150: 51ca 8f3a d7ab 6c3e ccb3 f7bd 0d59 dabd
00000160: 72b6 0bbe 6317 97bd 8571 d23c b982 86bd
00000170: 771e b43d 879e 74be c516 b03e 45c0 40bd
00000180: 0b6e cf3e 7eee 853d 4523 443d 4b46 b03e
00000190: 2f92 cd3d 1323 1b3e 39c4 683e 27e5 8a3e
000001a0: 6468 71bd 5c1e 373e 28df 013f 31bd 4a3d
000001b0: da28 aa3d 0707 10be 29f8 873e 5805 3cbc
000001c0: 3bbc aa3e 47b6 003f 9393 023e 2d4e cd3e
000001d0: f6cb d6bc c496 ac3d 3a39 e83e 29d1 ff3e
000001e0: bab0 163f fab7 fb3d b4a6 733e 3ff5 6c3d
000001f0: b748 763e fa7f f23c 07e1 c13e 0345 323f

decoder.lstm.weight_ih_l0 f4 [128, 5]
0.6346613 -0.7417133 -1.6093818 0.0021831205 0.2386766 -0.5652429 0.1543754 0.0030332834
-0.15570806 0.12973681 0.16246119 1.5397571 0.5703064 -0.14903492 0.07241432 -0.3852063
1.7102002 0.64050066 -0.45098478 -0.2296616 0.33214042 1.4753417 0.7341016 0.09943202
0.51657146 -0.8015318 -0.15109764 0.13672104 0.15237491 -0.02423038 -0.98131454 0.104231626
0.30789837 -0.19263785 0.18547457 0.7490934 0.46909213 0.5710713 0.2176319 0.0006589365
0.28629982 0.09680017 -0.031672668 0.06063908 0.113721624 0.5081912 0.27093783 0.266629
1.9339565 -0.17045543 0.2983859 0.8880204 0.9633647 1.1579522 -0.45438558 0.16542484
-1.8529664 -1.1950287 -0.5891754 1.4576217 0.3434415 0.4216765 0.14472903 -0.25314325
0.08849705 0.3659829 -0.19081345 -0.12747853 0.5603548 -0.2670618 -0.8387776 0.5273624
0.6004664 -0.5136453 -0.3618039 0.02682463 -0.22391489 0.77582914 0.49946207 0.53744805
-0.7788838 -0.764793 -0.41824713 1.6133556 0.4387279 0.18739471 -0.42104676 0.009868744
0.09773484 0.043210935 -0.23856454 -0.39469877 0.07752675 0.3105721 -0.003978828 0.14533605
0.26054826 0.026829313 -0.04807622 -0.27708805 -0.68949807 5.7160687 0.27440614 -0.16418867
-0.51366377 0.272371 -0.13398996 -0.44242385 -0.051731564 0.50465155 0.63509774 -3.533889
-1.123949 0.32039523 -0.052496105 -0.020390064 -0.347311 -0.5976105 0.6846131 0.4189857
0.21623947 0.18777524 -0.13353936 -0.7262269 0.15244953 1.6026621 -0.776922 0.22167936
-0.08817272 -0.1993891 0.5990442 0.4055162 -0.17082353 -0.7526434 -0.5067037 -0.18840529
-0.12591432 -0.21581304 -0.1496996 -0.17030697 -0.046517186 0.67659366 -0.14646605 -0.60159636
-0.34356385 0.29075554 -0.021634387 -0.22733694 -1.1084262 0.2306041 1.2418102 3.264134
3.000252 -0.3963379 1.1461161 -0.63859516 0.41589493 -0.10357918 0.013750937 -0.024808027
0.11220013 1.3912549 0.26710516 0.0391383 0.32490808 0.42986497 0.12822667 0.20059642
0.04091193 0.38378033 0.14459282 -0.19251695 -0.5055454 -0.28176937 -0.58114517 -0.94496816
0.44630203 0.30516928 -0.2395354 -0.62898207 -0.35192028 0.2047404 -0.1820199 -0.13474181
-0.46324575 -0.6616065 -0.34392998 -0.22788496 0.36455697 -0.31920844 -0.36123285 0.001477165
0.24493062 -0.37993392 -0.116425775 0.31527632 -1.9257164 -0.18758658 -0.38941556 0.42523402
0.24122822 -0.2853387 0.07623804 -0.04021102 0.3523025 0.51490766 -0.31357536 0.07627943
1.1280793 -0.74846 -0.66460454 0.017335575 -0.056309618 0.008954718 -0.16188392 -0.1340354
-0.1625772 0.1200155 -0.43850857 -0.12164885 -0.32879862 -0.2276852 0.049791306 0.21935709
-0.008741934 0.43668288 0.11350721 0.2196615 0.31783053 -0.17758094 -0.5809701 0.8040517
0.6079456 -0.33407587 -0.56366104 -0.65484893 -0.41899216 0.04379197 -0.2330588 -0.03376711
-14.769968 -0.91479266 -0.9516797 -0.3282401 -0.2806902 0.059793513 1.0532227 -0.037026227
-0.4843881 -0.26296473 0.27462655 0.04944734 -1.089575 1.140596 -0.10645611 -0.16737631
00000000: 2a79 223f ece0 3dbf 3900 cebf af12 0f3b
00000010: a367 743e c2b3 10bf 9614 1e3e 0dca 463b
00000020: ef71 1fbe bad9 043e 3a5c 263e c316 c53f
00000030: 9aff 113f 9c9c 18be f64d 943d c339 c5be
00000040: d7e7 da3f daf7 233f 7ae7 e6be 692c 6bbe
00000050: 4f0e aa3e ffd7 bc3f 15ee 3b3f 04a3 cb3d
00000060: 073e 043f 3031 4dbf 57b9 1abe 9a00 0c3e
00000070: 2b08 1c3e ca7e c6bc 6e37 7bbf 6477 d53d
00000080: dba4 9d3e db42 45be 0ced 3d3e 96c4 3f3f
00000090: d82c f03e bb31 123f e6da 5e3e 7bbc 2c3a
000000a0: e495 923e 2b3f c63d 33bb 01bd af60 783d
000000b0: e2e6 e83d d218 023f 5db8 8a3e 9983 883e
000000c0: e38b f73f de8b 2ebe 09c6 983e 4e55 633f
000000d0: 129f 763f c737 943f 3aa5 e8be 2165 293e
000000e0: 012e edbf b3f6 98bf 33d4 16bf 5993 ba3f
000000f0: 90d7 af3e fbe5 d73e d933 143e fe9b 81be
00000100: f13d b53d 1c62 bb3e 9a64 43be bb89 02be
00000110: 6a73 0f3f 53bc 88be 21ba 56bf 3901 073f
00000120: 2ab8 193f 427e 03bf 5c3e b9be 54bf db3c
00000130: f249 65be bd9c 463f 7eb9 ff3e 3296 093f
00000140: ee64 47bf 79c9 43bf 7d24 d6be 7082 ce3f
00000150: f1a0 e03e 66e4 3f3e 7193 d7be 83b0 213c
00000160: 3429 c83d f3fd 303d 434a 74be f515 cabe
00000170: 58c6 9e3d 4e03 9f3e d460 82bb f9d2 143e
00000180: 9566 853e 26c9 db3c 92eb 44bd 7cde 8dbe
00000190: f282 30bf 09ea b640 f67e 8c3e 1321 28be
000001a0: 787f 03bf 3674 8b3e aa34 09be 6185 e2be
000001b0: 7ae4 53bd d830 013f c495 223f 3d2b 62c0
000001c0: 90dd 8fbf d80a a43e 2806 57bd 1009 a7bc
000001d0: bfd2 b1be 00fd 18bf ce42 2f3f 4b85 d63e
000001e0: e16d 5d3e 2748 403e 8bbe 08be 02ea 39bf
000001f0: bb1b 1c3e 0824 cd3f 5ce4 46bf eaff 623e
00000200: e693 b4bd a82c 4cbe f65a 193f d29f cf3e
00000210: 5dec 2ebe 3dad 40bf 55b7 01bf 51ed 40be
00000220: afef 00be 18fe 5cbe da4a 19be f364 2ebe
00000230: ce88 3ebd 3e35 2d3f 32fb 15be 3802 1abf
00000240: 9ae7 afbe e9dd 943e 993a b1bc 04cb 68be
00000250: e9e0 8dbf 7b23 6c3e a3f3 9e3f 92e7 5040
00000260: 2104 4040 cdec cabe efb3 923f f97a 23bf
00000270: 2ef0 d43e 5221 d4bd 9c4b 613c 343a cbbc
00000280: 2fc9 e53d a414 b23f 02c2 883e 7b4f 203d
00000290: 5a5a a63e 4317 dc3e da4d 033e 2669 4d3e
000002a0: 4593 273d db7e c43e 2410 143e 2a23 45be
000002b0: 6c6b 01bf 1344 90be eec5 14bf 6fe9 71bf
000002c0: b381 e43e 263f 9c3e c548 75be f804 21bf
000002d0: e52e b4be 78a7 513e 6d63 3abe c2f9 09be
000002e0: 8c2e edbe 0b5f 29bf 9717 b0be ad5a 69be
000002f0: 36a7 ba3e 4a6f a3be 83f3 b8be 6f9d c13a
00000300: 18cf 7a3e b386 c2be a370 eebd e66b a13e
00000310: e07d f6bf b216 40be 7a61 c7be 46b8 d93e
00000320: 8804 773e ea17 92be b122 9c3d 4fb4 24bd
00000330: fe60 b43e fdd0 033f f38c a0be 6438 9c3d
00000340: e764 903f 139b 3fbf 8623 2abf 5603 8e3c
00000350: eaa4 66bd cfb6 123c e6c4 25be 9340 09be
00000360: a37a 26be b0ca f53d 3284 e0be 0823 f9bd
00000370: 4b58 a8be 4f26 69be f8f1 4b3d 259f 603e
00000380: 543a 0fbc e694 df3e 7876 e83d f2ee 603e
00000390: afba a23e c7d7 35be 75ba 14bf 55d6 4d3f
000003a0: 53a2 1b3f fe0b abbe 174c 10bf 2ea4 27bf
000003b0: 2486 d6be 355f 333d f7a6 6ebe 624f 0abd
000003c0: ca51 6cc1 da2f 6abf 48a1 73bf 160f a8be
000003d0: a0b6 8fbe 0bea 743d 00d0 863f d0a8 17bd
000003e0: b801 f8be 50a3 86be da9b 8c3e 4b89 4a3d
000003f0: 3277 8bbf 0dff 913f a905 dabd b264 2bbe
