results/LSTM_double_layer/2427_model.pt (torch, 932137 bytes, 18 tensors)

output_zeros f4 [400, 512, 1]
0.0 0.0 0.0 0.0 0.0 0.0 0.0 0.0
0.0 0.0 0.0 0.0 0.0 0.0 0.0 0.0
0.0 0.0 0.0 0.0 0.0 0.0 0.0 0.0
0.0 0.0 0.0 0.0 0.0 0.0 0.0 0.0
0.0 0.0 0.0 0.0 0.0 0.0 0.0 0.0
0.0 0.0 0.0 0.0 0.0 0.0 0.0 0.0
0.0 0.0 0.0 0.0 0.0 0.0 0.0 0.0
0.0 0.0 0.0 0.0 0.0 0.0 0.0 0.0
0.0 0.0 0.0 0.0 0.0 0.0 0.0 0.0
0.0 0.0 0.0 0.0 0.0 0.0 0.0 0.0
0.0 0.0 0.0 0.0 0.0 0.0 0.0 0.0
0.0 0.0 0.0 0.0 0.0 0.0 0.0 0.0
0.0 0.0 0.0 0.0 0.0 0.0 0.0 0.0
0.0 0.0 0.0 0.0 0.0 0.0 0.0 0.0
0.0 0.0 0.0 0.0 0.0 0.0 0.0 0.0
0.0 0.0 0.0 0.0 0.0 0.0 0.0 0.0
0.0 0.0 0.0 0.0 0.0 0.0 0.0 0.0
0.0 0.0 0.0 0.0 0.0 0.0 0.0 0.0
0.0 0.0 0.0 0.0 0.0 0.0 0.0 0.0
0.0 0.0 0.0 0.0 0.0 0.0 0.0 0.0
0.0 0.0 0.0 0.0 0.0 0.0 0.0 0.0
0.0 0.0 0.0 0.0 0.0 0.0 0.0 0.0
0.0 0.0 0.0 0.0 0.0 0.0 0.0 0.0
0.0 0.0 0.0 0.0 0.0 0.0 0.0 0.0
0.0 0.0 0.0 0.0 0.0 0.0 0.0 0.0
0.0 0.0 0.0 0.0 0.0 0.0 0.0 0.0
0.0 0.0 0.0 0.0 0.0 0.0 0.0 0.0
0.0 0.0 0.0 0.0 0.0 0.0 0.0 0.0
0.0 0.0 0.0 0.0 0.0 0.0 0.0 0.0
0.0 0.0 0.0 0.0 0.0 0.0 0.0 0.0
0.0 0.0 0.0 0.0 0.0 0.0 0.0 0.0
0.0 0.0 0.0 0.0 0.0 0.0 0.0 0.0
00000000: 0000 0000 0000 0000 0000 0000 0000 0000
00000010: 0000 0000 0000 0000 0000 0000 0000 0000
00000020: 0000 0000 0000 0000 0000 0000 0000 0000
00000030: 0000 0000 0000 0000 0000 0000 0000 0000
00000040: 0000 0000 0000 0000 0000 0000 0000 0000
00000050: 0000 0000 0000 0000 0000 0000 0000 0000
00000060: 0000 0000 0000 0000 0000 0000 0000 0000
00000070: 0000 0000 0000 0000 0000 0000 0000 0000
00000080: 0000 0000 0000 0000 0000 0000 0000 0000
00000090: 0000 0000 0000 0000 0000 0000 0000 0000
000000a0: 0000 0000 0000 0000 0000 0000 0000 0000
000000b0: 0000 0000 0000 0000 0000 0000 0000 0000
000000c0: 0000 0000 0000 0000 0000 0000 0000 0000
000000d0: 0000 0000 0000 0000 0000 0000 0000 0000
000000e0: 0000 0000 0000 0000 0000 0000 0000 0000
000000f0: 0000 0000 0000 0000 0000 0000 0000 0000
00000100: 0000 0000 0000 0000 0000 0000 0000 0000
00000110: 0000 0000 0000 0000 0000 0000 0000 0000
00000120: 0000 0000 0000 0000 0000 0000 0000 0000
00000130: 0000 0000 0000 0000 0000 0000 0000 0000
00000140: 0000 0000 0000 0000 0000 0000 0000 0000
00000150: 0000 0000 0000 0000 0000 0000 0000 0000
00000160: 0000 0000 0000 0000 0000 0000 0000 0000
00000170: 0000 0000 0000 0000 0000 0000 0000 0000
00000180: 0000 0000 0000 0000 0000 0000 0000 0000
00000190: 0000 0000 0000 0000 0000 0000 0000 0000
000001a0: 0000 0000 0000 0000 0000 0000 0000 0000
000001b0: 0000 0000 0000 0000 0000 0000 0000 0000
000001c0: 0000 0000 0000 0000 0000 0000 0000 0000
000001d0: 0000 0000 0000 0000 0000 0000 0000 0000
000001e0: 0000 0000 0000 0000 0000 0000 0000 0000
000001f0: 0000 0000 0000 0000 0000 0000 0000 0000
00000200: 0000 0000 0000 0000 0000 0000 0000 0000
00000210: 0000 0000 0000 0000 0000 0000 0000 0000
00000220: 0000 0000 0000 0000 0000 0000 0000 0000
00000230: 0000 0000 0000 0000 0000 0000 0000 0000
00000240: 0000 0000 0000 0000 0000 0000 0000 0000
00000250: 0000 0000 0000 0000 0000 0000 0000 0000
00000260: 0000 0000 0000 0000 0000 0000 0000 0000
00000270: 0000 0000 0000 0000 0000 0000 0000 0000
00000280: 0000 0000 0000 0000 0000 0000 0000 0000
00000290: 0000 0000 0000 0000 0000 0000 0000 0000
000002a0: 0000 0000 0000 0000 0000 0000 0000 0000
000002b0: 0000 0000 0000 0000 0000 0000 0000 0000
000002c0: 0000 0000 0000 0000 0000 0000 0000 0000
000002d0: 0000 0000 0000 0000 0000 0000 0000 0000
000002e0: 0000 0000 0000 0000 0000 0000 0000 0000
000002f0: 0000 0000 0000 0000 0000 0000 0000 0000
00000300: 0000 0000 0000 0000 0000 0000 0000 0000
00000310: 0000 0000 0000 0000 0000 0000 0000 0000
00000320: 0000 0000 0000 0000 0000 0000 0000 0000
00000330: 0000 0000 0000 0000 0000 0000 0000 0000
00000340: 0000 0000 0000 0000 0000 0000 0000 0000
00000350: 0000 0000 0000 0000 0000 0000 0000 0000
00000360: 0000 0000 0000 0000 0000 0000 0000 0000
00000370: 0000 0000 0000 0000 0000 0000 0000 0000
00000380: 0000 0000 0000 0000 0000 0000 0000 0000
00000390: 0000 0000 0000 0000 0000 0000 0000 0000
000003a0: 0000 0000 0000 0000 0000 0000 0000 0000
000003b0: 0000 0000 0000 0000 0000 0000 0000 0000
000003c0: 0000 0000 0000 0000 0000 0000 0000 0000
000003d0: 0000 0000 0000 0000 0000 0000 0000 0000
000003e0: 0000 0000 0000 0000 0000 0000 0000 0000
000003f0: 0000 0000 0000 0000 0000 0000 0000 0000

encoder.lstm.weight_ih_l0 f4 [128, 4]
-0.044464063 0.95677394 -0.97334343 -0.7325617 -1.8617592 -1.0195884 1.2113456 1.641458
0.87922883 0.38527283 0.51636773 -1.3422452 0.019540094 -0.7261262 0.33655027 0.14125916
0.9390575 -0.63905275 -1.701829 0.6038758 -0.22951202 0.43024096 1.8303062 0.0851907
-0.17339936 0.16101511 0.88630456 0.9819285 0.61417395 -0.0869418 0.59249276 1.3196403
1.0847123 -0.21339016 2.5939481 1.9601401 0.93031967 1.0194398 1.0777899 1.5336174
-1.284275 -0.79148334 0.3007655 2.3391051 1.2909528 1.005475 2.1432552 0.27073452
1.4979212 -1.1776111 0.5169508 0.29511708 0.16670325 -0.64051765 0.5194104 0.8674393
-0.2100221 -0.5603677 0.58346325 -1.3439802 0.35312086 0.15662488 0.76862 0.012605288
0.8006195 0.9049029 -0.64714223 1.5222794 0.6515181 0.5318217 -0.12407613 -0.3076055
-0.09501108 0.0018257033 0.50401986 -0.61558074 0.8820163 -0.56553155 0.45984864 -0.1716732
2.2455144 -0.021520615 0.2284374 0.42701152 2.227704 -1.2933939 1.5254607 0.49688864
1.6937253 1.8221605 2.4759526 -0.19425252 -0.49337202 2.0402563 0.24007438 -0.6818116
0.29436225 0.6718983 1.9321729 1.844722 0.7487282 -0.118208885 1.2213285 -0.18327606
1.2203616 -2.2820895 2.4669414 -0.13272886 0.822102 1.0764977 1.4628692 1.4017168
-0.6485546 0.47172344 0.7534805 0.8311107 0.84289235 0.06380685 1.9067771 -0.7571709
-1.7685792 -0.27681062 2.6800144 0.75211555 0.09491261 0.84435016 1.8463786 0.3627949
0.8684918 0.57948023 -0.6037023 -2.1660705 -0.97163564 0.08862942 0.6614761 0.58926594
0.28201756 -1.062929 1.1171343 -0.15991022 0.81990737 -0.3096741 -0.14068136 -0.09837837
-0.98409647 -0.4907249 -1.5050529 2.0379932 0.2997056 0.12568761 1.6289668 -1.2306136
-0.23033209 0.16779764 0.97119313 0.62356234 0.80067 0.53011286 0.748688 1.5047234
-2.801906 -0.0070775533 0.5261862 0.81372535 0.6627583 0.22102429 1.4268975 1.1362779
-1.0203488 1.1206936 -1.303415 0.69125324 -1.2274055 0.33482897 0.510606 0.74154526
1.2035857 -2.1570187 3.2563677 0.6804003 -0.6018364 0.32467684 -0.18152207 0.6646804
-1.5787184 -1.4207051 0.747296 1.4027866 1.1700892 0.44957748 0.62249947 0.7789256
0.5795626 0.70578235 -2.0327158 -1.9407926 -1.1628826 -1.0654261 -0.2316425 -0.58340436
0.5944586 -0.8442346 -0.1640563 0.37408337 0.26162946 -1.220685 1.3475775 -0.4484583
-1.3289068 -3.7536676 0.8477884 2.1306388 2.4927673 2.1563907 -0.035966694 0.8280301
2.331863 0.3097838 1.7606027 -0.10524017 -1.3439324 2.0648944 -2.0329213 0.050183795
0.5866883 0.8279783 2.1550856 2.1536844 0.13444892 -0.23750967 -0.21866278 0.2485192
1.2035944 -0.26862928 -1.1159316 -0.19940645 1.558118 2.0179834 2.8086162 2.527387
-0.8393961 -1.060667 1.0027795 -0.9365201 3.033453 0.37030116 0.1312034 -1.5979959
0.67898345 0.5193886 -0.5721092 -0.5215512 1.768602 1.6447976 -0.26590085 0.4956223
00000000: f31f 36bd 23ef 743f 092d 79bf 2a89 3bbf
00000010: 204e eebf df81 82bf 5f0d 9b3f 4c1b d23f
00000020: 2415 613f 7b42 c53e ad30 043f b1ce abbf
00000030: 8c12 a03c 68e3 39bf 5150 ac3e 3ea6 103e
00000040: 1366 703f f698 23bf 88d5 d9bf 9b97 1a3f
00000050: 3305 6bbe 8b48 dc3e 7947 ea3f 7678 ae3d
00000060: 9a8f 31be 25e1 243e dbe4 623f ab5f 7b3f
00000070: 813a 1d3f 8b0e b2bd 9bad 173f f9e9 a83f
00000080: dad7 8a3f f382 5abe 3f03 2640 dfe5 fa3f
00000090: 6e29 6e3f 017d 823f 05f5 893f 934d c43f
000000a0: 2063 a4bf a79e 4abf f0fd 993e e6b3 1540
000000b0: f13d a53f 68b3 803f 182b 0940 b79d 8a3e
000000c0: e2bb bf3f f6bb 96bf e356 043f 9619 973e
000000d0: 42b4 2a3e f7f8 23bf 14f8 043f 8110 5e3f
000000e0: 0910 57be 4274 0fbf d95d 153f 8b07 acbf
000000f0: 42cc b43e 4662 203e 48c4 443f 6986 4e3c
00000100: 66f5 4c3f b7a7 673f 1dab 25bf 0dda c23f
00000110: e4c9 263f 7825 083f a01b febd 787e 9dbe
00000120: 2b95 c2bd 704c ef3a 7207 013f b396 1dbf
00000130: d2cb 613f adc6 10bf 4871 eb3e 19cb 2fbe
00000140: 82b6 0f40 004c b0bc 7eeb 693e 41a1 da3e
00000150: b492 0e40 ee8d a5bf 4c42 c33f 3068 fe3e
00000160: fecb d83f 8e3c e93f 0276 1e40 22ea 46be
00000170: 429b fcbe 8f93 0240 0fd6 753e 348b 2ebf
00000180: a6b6 963e 8701 2c3f 7151 f73f da1f ec3f
00000190: a7ac 3f3f 8017 f2bd 7e54 9c3f b8ac 3bbe
000001a0: cf34 9c3f c10d 12c0 5ee2 1d40 13ea 07be
000001b0: 4775 523f adca 893f 4c3f bb3f 756b b33f
000001c0: ad07 26bf bc85 f13e 19e4 403f acc3 543f
000001d0: cbc7 573f 2aad 823d 4611 f43f f4d5 41bf
000001e0: ce60 e2bf 1fba 8dbe 5b85 2b40 a58a 403f
000001f0: 8b61 c23d 5527 583f 2256 ec3f 41c0 b93e
00000200: 7b55 5e3f d158 143f 3c8c 1abf e6a0 0ac0
00000210: 1dbd 78bf 5783 b53d 7f56 293f 22da 163f
00000220: 9b64 903e 0f0e 88bf 42fe 8e3f 81bf 23be
00000230: 73e5 513f 9b8d 9ebe c60e 10be 997a c9bd
00000240: bfed 7bbf 4b40 fbbe 93a5 c0bf 7b6e 0240
00000250: 0373 993e 41b4 003e fc81 d03f bf84 9dbf
00000260: 2ddc 6bbe 25d3 2b3e 1da0 783f c8a1 1f3f
00000270: b6f8 4c3f 7ab5 073f 04aa 3f3f c79a c03f
00000280: 6e52 33c0 d2ea e7bb 24b4 063f 4e50 503f
00000290: 87aa 293f 3154 623e 94a4 b63f 8e71 913f
000002a0: ca9a 82bf e372 8f3f 4dd6 a6bf f9f5 303f
000002b0: a01b 9dbf b46e ab3e 13b7 023f e9d5 3d3f
000002c0: 190f 9a3f 980c 0ac0 5468 5040 b72e 2e3f
000002d0: f311 1abf 0b3c a63e ece0 39be 7f28 2a3f
000002e0: 7213 cabf aad9 b5bf ca4e 3f3f 838e b33f
000002f0: 7cc5 953f 052f e63e 205c 1f3f ab67 473f
00000300: 375e 143f 27ae 343f 0418 02c0 e46b f8bf
00000310: 56d9 94bf e25f 88bf b133 6dbe fd59 15bf
00000320: 702e 183f c21f 58bf 60fe 27be db87 bf3e
00000330: 4cf4 853e 683f 9cbf 6b7d ac3f 549c e5be
00000340: 9e19 aabf 173c 70c0 a908 593f 635c 0840
00000350: 8089 1f40 4e02 0a40 d051 13bd c8f9 533f
00000360: 3e3d 1540 fb9b 9e3e 6e5b e13f 2988 d7bd
00000370: fa05 acbf 3b27 0440 621b 02c0 868d 4d3d
00000380: 3431 163f 63f6 533f ecec 0940 f7d5 0940
00000390: faac 093e bc35 73be 23e9 5fbe d17b 7e3e
000003a0: 620f 9a3f c789 89be d9d6 8ebf 3431 4cbe
000003b0: 6970 c73f a426 0140 5ec0 3340 b5c0 2140
000003c0: aae2 56bf f0c3 87bf 145b 803f c8bf 6fbf
000003d0: 1824 4240 1d98 bd3e 2f5a 063e 218b ccbf
000003e0: dcd1 2d3f a7f6 043f c075 12bf 6184 05bf
000003f0: 8d61 e23f ba88 d23f 2824 88be 35c2 fd3e

encoder.lstm.weight_hh_l0 f4 [128, 32]
0.77214694 -0.29755068 0.49288967 -0.28903812 0.8779681 0.070669964 0.101638675 -0.068574205
-0.12701629 -0.11402748 -0.114974245 0.24614203 -0.79622287 -0.09980356 -0.333238 -0.026013676
0.15932004 0.7840203 0.12383984 0.1539768 -0.61068946 0.88859445 0.09285075 -0.1252718
-0.0067407526 0.5761294 0.25331903 -0.41815314 0.09624014 -0.93227607 0.15437126 1.5043156
-0.08567597 0.1712205 0.59550595 -0.28072873 -0.42416352 0.03832775 0.04193108 -0.98805386
-0.510029 0.09852299 0.38128644 -0.012800182 -0.10836702 0.049151864 -0.0100578815 0.08084773
-0.04965963 -0.30082923 -0.090860255 0.05669894 0.7590107 -0.18482728 0.22979367 1.0348049
-0.02714734 0.33498424 -0.28947562 -0.14065787 -0.0022167673 -0.20245995 0.17371255 -0.6702595
-0.42319354 -0.21616839 0.51017547 0.07976434 -0.08854483 0.61278284 -0.06510852 -0.070486836
1.2668062 -0.029052796 0.2224499 0.97227347 0.1685991 -0.30370677 -0.4321133 -0.017506948
0.51994926 -0.46447992 -0.14695317 0.6674627 -0.50225586 -1.0910188 -0.4256231 -0.10307724
0.08797807 -0.16270946 -0.49008125 0.029476756 0.107259266 -0.3062494 -0.015292261 -0.67754453
0.5591079 0.1712913 -0.9861704 -0.39359415 1.4364269 -0.2501721 0.2713282 -0.1630179
1.3027074 -0.4227755 0.048441906 -0.21187723 -0.7824759 -0.16026805 0.13237265 -0.18721026
-0.09431141 -0.6089433 -0.13536991 -0.93786746 0.40948007 -0.18579957 -0.18896554 0.34678826
0.22031094 0.21500152 0.13284154 -0.120776296 -0.39911613 0.46062687 -0.36145893 0.6200861
-0.18113682 -0.06468857 -0.55288273 0.30759177 -0.10968863 -1.1866785 0.2943565 -0.48302874
0.517745 -0.23652945 -0.18096371 -0.9173755 -1.1453743 0.112557545 0.08417043 -0.022789605
0.14749187 0.39684615 0.06883237 0.50293344 -1.0959219 1.4174663 0.3795087 0.54340917
-0.2597734 -0.086695224 -0.12554327 0.07797041 0.40281063 0.484824 -0.59253335 -0.522606
-0.04371965 0.12064733 0.69179386 0.3012831 -0.08332668 0.17589064 -0.7303638 0.07515192
0.35465148 0.54348886 -0.042737767 -0.11973198 -0.0035247542 0.009899913 -0.06509196 0.52519286
-0.12972082 0.2527078 -0.08705653 0.7847222 -0.055091545 0.13991319 0.07714265 0.8860039
-0.32330534 0.5413423 -0.488239 -0.4831867 0.33952034 0.33458376 0.23410334 -0.3497149
-0.24663232 -0.12862594 0.5185394 0.07972907 -0.21684733 0.024096023 -0.07086406 -0.18783431
-0.2424561 0.101426125 0.009689089 0.01838921 0.1804599 0.0028764214 -0.050825506 0.11204982
-0.15657447 0.48847812 -0.08947713 0.44219068 0.40238807 0.28815645 -0.0955276 0.44952023
0.016775493 -0.017647974 -0.11614786 -0.0037169592 -0.07884486 -0.06659869 -0.036455467 -0.44456163
-0.08838258 0.20779063 -0.5359471 0.6369796 0.56339294 -0.023143219 0.012321495 0.098313674
0.16220883 -0.089907445 -0.231845 0.034790635 -0.39938712 -0.15920158 0.20590192 -0.07651832
0.12705825 0.6880139 -0.08211147 -0.317758 -0.641353 0.013502442 0.14657396 0.12815219
-0.042110916 -0.053914726 0.18045942 0.09902116 0.14464396 0.9655623 -0.26601267 1.3006631
00000000: 6cab 453f 9058 98be 095c fc3e cefc 93be
00000010: 84c2 603f 6abb 903d f027 d03d a270 8cbd
00000020: 8f10 02be 3d87 e9bd 9e77 ebbd a80c 7c3e
00000030: 43d5 4bbf cf65 ccbd 2c9e aabe a21a d5bc
00000040: cb24 233e 8eb5 483f be9f fd3d 18ac 1d3e
00000050: 2556 1cbf ed7a 633f 8928 be3d 4047 00be
00000060: 88e1 dcbb 377d 133f 08b3 813e 2b18 d6be
00000070: 8d19 c53d a5a9 6ebf 8013 1e3e 6a8d c03f
00000080: e276 afbd 6d54 2f3e 1473 183f adbb 8fbe
00000090: f62b d9be 8ffd 1c3d edbf 2b3d 19f1 7cbf
000000a0: 4391 02bf 6cc6 c93d fa37 c33e dbb7 51bc
000000b0: 87ef ddbd 7753 493d d0c9 24bc 7f93 a53d
000000c0: e567 4bbd 4a06 9abe f114 babd 263d 683d
000000d0: 864e 423f 5d43 3dbe 084f 6b3e 7d74 843f
000000e0: 1964 debc 0e83 ab3e 2636 94be 9e08 10be
000000f0: 2f47 11bb a951 4fbe b4e1 313e 2096 2bbf
00000100: d3ac d8be 3f5b 5dbe dc9a 023f 7c5b a33d
00000110: fe56 b5bd 56df 1c3f 9e57 85bd 675b 90bd
00000120: b526 a23f 2100 eebc e8c9 633e eae6 783f
00000130: 3ea5 2c3e 747f 9bbe f43d ddbe bb6a 8fbc
00000140: 651b 053f 50d0 edbe e47a 16be d6de 2a3f
00000150: d793 00bf 81a6 8bbf 45eb d9be 291a d3bd
00000160: d92d b43d 4f9d 26be eeeb fabe 3d79 f13c
00000170: bfaa db3d b9cc 9cbe 648c 7abc 8f73 2dbf
00000180: b221 0f3f fd66 2f3e aa75 7cbf 2c85 c9be
00000190: d6dc b73f 8f16 80be 88eb 8a3e 2aee 26be
000001a0: 1ebf a63f 0876 d8be 056b 463d 58f6 58be
000001b0: 5750 48bf 4f1d 24be b28c 073e 0cb4 3fbe
000001c0: 5726 c1bd b5e3 1bbf 699e 0abe 1518 70bf
000001d0: 5fa7 d13e 3e42 3ebe 2f80 41be 3b8e b13e
000001e0: 3199 613e 5c29 5c3e 9d07 083e 9059 f7bd
000001f0: f358 ccbe 49d7 eb3e 2511 b9be f6bd 1e3f
00000200: ee7b 39be 717b 84bd b989 0dbf ab7c 9d3e
00000210: 6fa4 e0bd 15e5 97bf e5b5 963e 8b4f f7be
00000220: f08a 043f c734 72be 8d4e 39be 1fd9 6abf
00000230: a09b 92bf 9284 e63d 8c61 ac3d 44b1 babc
00000240: 1c08 173e 6b2f cb3e fcf7 8c3d 3fc0 003f
00000250: 2b47 8cbf 896f b53f f74e c23e dd1c 0b3f
00000260: 0501 85be 448d b1bd 6a8e 00be f3ae 9f3d
00000270: 323d ce3e da3a f83e 44b0 17bf 82c9 05bf
00000280: 6013 33bd f315 f73d 6719 313f c741 9a3e
00000290: 2ea7 aabd ad1c 343e 1ff9 3abf 40e9 993d
000002a0: e194 b53e 1622 0b3f cc0d 2fbd 0a36 f5bd
000002b0: 90ff 66bb 3f33 223c ef4e 85bd 0a73 063f
000002c0: 89d5 04be eb62 813e b24a b2bd 8ee3 483f
000002d0: aca7 61bd 6745 0f3e f7fc 9d3d 27d1 623f
000002e0: 4788 a5be 6995 0a3f 76fa f9be 3f64 f7be
000002f0: 9cd5 ad3e 904e ab3e c9b8 6f3e d50d b3be
00000300: 2f8d 7cbe 85b6 03be 00bf 043f ff48 a33d
00000310: 3a0d 5ebe 0665 c53c 2d21 91bd a357 40be
00000320: 6946 78be 80b8 cf3d fcbe 1e3c f8a4 963c
00000330: 7bca 383e 5882 3c3b 682e 50bd 607a e53d
00000340: 0f55 20be ce19 fa3e c93f b7bd d166 e23e
00000350: cf05 ce3e 3e89 933e f9a3 c3bd 8427 e63e
00000360: c26c 893c 7c92 90bc eede edbd 3a98 73bb
00000370: 6a79 a1bd e564 88bd 5452 15bd 959d e3be
00000380: ed01 b5bd 11c7 543e d433 09bf 1811 233f
00000390: 853a 103f d996 bdbc 19e0 493c ae58 c93d
000003a0: 121a 263e 6521 b8bd c768 6dbe a080 0e3d
000003b0: 787c ccbe bd05 23be f4d7 523e a3b5 9cbd
000003c0: 8f1b 023e ae21 303f 0f2a a8bd 2db1 a2be
000003d0: b62f 24bf 5939 5d3c 7c17 163e 543a 033e
000003e0: 7f7c 2cbd b0d5 5cbd 5bca 383e 9bcb ca3d
000003f0: 8c1d 143e 172f 773f d032 88be 217c a63f

encoder.lstm.bias_ih_l0 f4 [128]
0.10240587 0.056893192 -0.15594426 -0.08771331 0.4086652 0.2679439 -0.01496462 -0.13706139
0.35498902 -0.12260207 0.2877893 0.42610148 0.43249276 0.35193905 0.03313369 -0.06779459
0.6127257 0.32694244 0.20720956 -0.072654046 -0.07077063 0.15677929 0.04497913 0.26829234
-0.061339 1.3956022 0.05696495 -0.10617279 0.41785842 0.46392485 0.47239485 0.04702593
-0.0893733 -0.54883605 -0.06197137 0.015783988 -0.10543196 0.297435 -0.02037534 -0.1021598
-0.37429354 0.091874346 0.028289692 -0.10221831 -0.13894159 -0.0061561777 0.047573972 0.10515026
-0.12426361 -0.09893397 0.1361271 -0.10232284 -0.08888561 -0.0039437846 -0.45916566 -0.20907843
-0.22202788 -0.100950085 -0.4597822 0.469528 -0.19371481 -0.27320403 -0.08304128 -0.0067363884
-0.14021793 0.03980494 -0.081745155 0.12137203 0.21819115 -0.08273296 -0.27117926 -0.012904485
0.42511994 0.024468107 -0.021786395 -0.11439338 -0.26625377 0.016435338 0.21159084 0.09376862
0.3097821 -0.08105655 -0.027905408 0.22230634 -0.06265848 0.09386242 0.308905 0.60219723
-0.2514587 0.09248569 0.1038674 -0.11128799 0.4354723 0.22607261 -0.019187361 0.30272636
0.30374762 0.2845356 0.0012733386 -0.06365007 0.6614975 0.40077177 0.31529212 -0.1469292
0.5612243 0.25294578 0.1961723 0.44288012 -0.20014971 0.5343415 0.13489646 0.040859874
0.13117677 0.5527807 0.39190242 0.4078047 0.41306052 -0.37652346 0.48868495 0.08885786
0.2970548 0.83253956 -0.151402 0.11474325 0.5485112 0.36003947 0.8620034 0.3163757
00000000: 2bba d13d d608 693d daaf 1fbe 09a3 b3bd
00000010: 913c d13e f12f 893e 2a2e 75bc d259 0cbe
00000020: 1fc1 b53e cb16 fbbd 1e59 933e f929 da3e
00000030: b16f dd3e 5b31 b43e 31b7 073d e4d7 8abd
00000040: 97db 1c3f 0065 a73e be2e 543e a5cb 94bd
00000050: 31f0 90bd c08a 203e 093c 383d 9d5d 893e
00000060: 9a3e 7bbd 18a3 b23f 1454 693d 1f71 d9bd
00000070: 8af1 d53e 8f87 ed3e bddd f13e 439e 403d
00000080: 5909 b7bd 8580 0cbf b1d5 7dbd 6c4d 813c
00000090: b6ec d7bd 6649 983e 2fea a6bc 2839 d1bd
000000a0: 67a3 bfbe 9e28 bc3d c9bf e73c d557 d1bd
000000b0: b446 0ebe c3b9 c9bb eddc 423d 0559 d73d
000000c0: eb7d febd e59d cabd e764 0b3e a38e d1bd
000000d0: a909 b6bd dd3a 81bb c317 ebbe a818 56be
000000e0: 475b 63be ebbe cebd 9368 ebbe f965 f03e
000000f0: 2d5d 46be 66e1 8bbe 8c11 aabd ecbc dcbb
00000100: 4a95 0fbe 810a 233d 016a a7bd e691 f83d
00000110: 806d 5f3e e66f a9bd 02d8 8abe 556d 53bc
00000120: 52a9 d93e 5771 c83c 6279 b2bc 1447 eabd
00000130: 6a52 88be 67a3 863c 45ab 583e c309 c03d
00000140: c29b 9e3e fa00 a6bd e299 e4bc 46a4 633e
00000150: 1753 80bd f13a c03d cc28 9e3e 9929 1a3f
00000160: 32bf 80be 2369 bd3d 6eb8 d43d f5ea e3bd
00000170: 3af6 de3e 947f 673e d02e 9dbc f3fe 9a3e
00000180: cf84 9b3e a6ae 913e 27e6 a63a f85a 82bd
00000190: e657 293f f531 cd3e f86d a13e 9c74 16be
000001a0: 65ac 0f3f 1c82 813e 64e1 483e 2fc1 e23e
000001b0: 0cf4 4cbe 9bca 083f 4c22 0a3e af5c 273d
000001c0: 3453 063e 0983 0d3f 6fa7 c83e c7cb d03e
000001d0: ab7c d33e afc7 c0be ea34 fa3e 1cfb b53d
000001e0: 9117 983e 5021 553f 2009 1bbe 82fe ea3d
000001f0: 3b6b 0c3f 1857 b83e 41ac 5c3f fffb a13e

encoder.lstm.bias_hh_l0 f4 [128]
0.10241172 0.056893088 -0.15594417 -0.08772118 0.4086615 0.2679426 -0.014957212 -0.1370541
0.35498723 -0.12260025 0.28779516 0.426109 0.43249524 0.35193598 0.033137117 -0.06779095
0.6127222 0.32694456 0.20721376 -0.07265039 -0.07077034 0.15678167 0.0449796 0.26829448
-0.06133361 1.3956048 0.056965813 -0.10617386 0.41786084 0.46392468 0.47239485 0.047021475
-0.089365765 -0.5488383 -0.061974104 0.015781825 -0.1054261 0.2974364 -0.020377634 -0.10215958
-0.37430078 0.09187103 0.028284442 -0.10221815 -0.13893701 -0.0061510513 0.04757806 0.10515035
-0.12426139 -0.098933 0.13612556 -0.1023256 -0.088884436 -0.0039402544 -0.45916435 -0.20907117
-0.22201993 -0.100951724 -0.45978993 0.46952617 -0.19370887 -0.27320668 -0.08304645 -0.006737985
-0.14021929 0.039801326 -0.081744246 0.12136838 0.21819866 -0.08272794 -0.2711814 -0.012899524
0.42511916 0.024472127 -0.021788327 -0.11438797 -0.26625457 0.016439497 0.21159 0.093766436
0.3097851 -0.08105804 -0.027906839 0.22230488 -0.06265451 0.09386487 0.30890346 0.6022003
-0.25145718 0.09248636 0.10386209 -0.11128835 0.43547633 0.22606921 -0.019187909 0.302727
0.30374864 0.28453836 0.0012712076 -0.063650735 0.66150415 0.40077356 0.31528863 -0.14692217
0.5612258 0.25294876 0.19616991 0.44288412 -0.20015629 0.534345 0.134896 0.040865164
0.13117151 0.5527735 0.39190713 0.407804 0.41306764 -0.37652174 0.48868284 0.08885943
0.2970492 0.8325477 -0.15139885 0.11474605 0.5485047 0.36003885 0.86200124 0.3163757
00000000: 3cbd d13d ba08 693d d4af 1fbe 29a7 b3bd
00000010: 153c d13e c62f 893e 180f 75bc e957 0cbe
00000020: e3c0 b53e d715 fbbd e359 933e f52a da3e
00000030: 0470 dd3e f430 b43e c9ba 073d fbd5 8abd
00000040: 5ddb 1c3f 4765 a73e d82f 543e bac9 94bd
00000050: 0af0 90bd 608b 203e 873c 383d e55d 893e
00000060: f438 7bbd 2ea3 b23f fc54 693d ae71 d9bd
00000070: dbf1 d53e 8987 ed3e bddd f13e 9799 403d
00000080: 6605 b7bd ab80 0cbf 8fd8 7dbd e348 813c
00000090: a4e9 d7bd 9549 983e ffee a6bc 0b39 d1bd
000000a0: 5aa4 bfbe e126 bc3d c6b4 e73c c057 d1bd
000000b0: 8145 0ebe c28e c9bb 36e1 423d 1159 d73d
000000c0: c17c febd 629d cabd 8064 0b3e 1690 d1bd
000000d0: 0b09 b6bd 401d 81bb 9717 ebbe c116 56be
000000e0: 3159 63be c7bf cebd 9669 ebbe bc65 f03e
000000f0: 9e5b 46be bfe1 8bbe 4214 aabd 51ca dcbb
00000100: a595 0fbe b706 233d 8769 a7bd fc8f f83d
00000110: 786f 5f3e 446d a9bd 4ad8 8abe 8658 53bc
00000120: 38a9 d93e c579 c83c 6f7d b2bc 3d44 eabd
00000130: 8552 88be 20ac 863c 0dab 583e 9e08 c03d
00000140: 279c 9e3e c201 a6bd e29c e4bc e4a3 633e
00000150: 0251 80bd 3a3c c03d 9828 9e3e cd29 1a3f
00000160: ffbe 80be 7d69 bd3d a6b5 d43d 25eb e3bd
00000170: c1f6 de3e b07e 673e f62f 9dbc 09ff 9a3e
00000180: f184 9b3e 03af 913e a69e a63a 515b 82bd
00000190: 5658 293f 3132 cd3e 836d a13e c472 16be
000001a0: 7eac 0f3f 8082 813e c4e0 483e b5c1 e23e
000001b0: c5f5 4cbe d5ca 083f 2d22 0a3e 3b62 273d
000001c0: d351 063e 9082 0d3f 0da8 c83e b0cb d03e
000001d0: 9a7d d33e 75c7 c0be a334 fa3e effb b53d
000001e0: d516 983e d921 553f 4d08 1bbe faff ea3d
000001f0: ce6a 0c3f 0357 b83e 1dac 5c3f fffb a13e

encoder.lstm.weight_ih_l1 f4 [128, 32]
-0.54473305 0.34342396 1.2563545 0.32678786 0.05731143 0.48703328 -0.024755646 -0.31092864
-0.48172343 -0.6125142 0.4168877 -0.13957903 -1.0079722 -0.37959012 -0.8180876 0.17925194
-1.4822806 0.6668382 0.1446001 1.1026766 0.565298 0.19587196 -0.19005583 -0.17234685
0.19468907 -0.24865416 0.22408044 0.072569534 0.704727 0.15998738 -0.03973149 -2.227891
0.20368168 0.28324857 1.1075276 -0.047595814 0.15665032 0.6293065 -0.04905874 -0.44741523
-0.32684487 -0.061884392 0.43732882 -0.5426432 -0.10365598 0.3125551 2.2059896 -0.06335165
0.09978938 0.019736772 -0.43547195 -0.244915 0.3681245 -0.16118127 0.15032469 0.4936827
0.054924373 0.33549532 -0.060038466 -0.45388314 0.72459483 -0.03178255 -0.44967008 0.8219228
-0.15264408 1.0447991 -1.2762911 0.26950413 -0.3742411 0.029073764 -0.42087737 0.33545828
-0.32355988 0.14539069 -0.15923691 1.0807996 0.09270956 0.20061132 -0.037840787 0.3521477
-0.60901666 -0.97709596 -0.42930838 0.2869907 -1.7684836 1.286518 -0.21999517 -0.7119469
-0.4257612 -0.36201224 -0.033426482 -0.35645652 -0.19997182 0.6453092 -0.42362148 -0.28696024
-0.2847728 0.4966049 -0.83259463 -0.22694439 -1.2122113 -0.19880664 -0.2759077 1.9497828
0.7732097 0.6642389 0.3957016 0.7534565 0.44554505 0.6209769 -0.033262115 0.31219053
0.5420083 0.039861668 0.14083683 0.26459932 0.20944908 0.13225962 0.25846925 -1.165016
-0.8129871 -0.45202827 -0.21877731 0.27339655 0.36112097 -0.009633837 -0.49727327 -1.7336167
-0.26186612 -0.23373221 0.0493849 0.20186956 -0.17770717 0.389964 -0.67764723 0.15637991
0.27482018 0.22809559 0.5005809 0.33944112 0.36105824 0.71677583 0.24767779 0.6178481
0.5982604 -0.34437594 -0.15844354 0.60669386 -0.068104714 0.38633594 0.7297671 0.2819032
-0.953903 0.39664367 -0.26138613 -0.43735483 0.12233658 0.9396429 -0.062042486 0.5431776
0.10921258 -0.78946704 -0.13965423 -0.6393821 -1.2995497 -0.13754663 -0.03871263 0.24974488
-0.0036006968 0.012014949 -0.006137189 -0.43295103 1.7446941 0.23144804 1.1267277 0.022692204
0.38498262 -0.22171816 0.13891424 0.08506461 1.3448067 0.5224685 -0.03335498 -0.5434978
-0.3263081 -0.5495889 -0.083322726 0.13837114 0.39547887 0.4329479 -0.07569194 -0.65939605
0.99058956 0.8484205 0.2184545 0.4792209 0.1596246 0.030317506 -0.2094402 0.41770074
-0.1733401 0.0017391305 -1.3173499 -1.2354561 -0.14849782 -0.16775942 -0.17073312 -0.0424652
-1.2728395 -0.35667044 0.21025243 -0.33967304 -0.59191287 1.0397276 0.54230165 1.4624704
-0.41707274 -0.7480066 0.31886783 -0.13125333 -0.07401097 0.65317273 -0.7133291 1.1221166
0.35908473 0.26054522 0.2885651 0.25719124 0.6763011 -0.17030676 -0.18097414 0.2522176
-0.78442484 -0.25271788 1.1445312 0.8781315 0.16935292 0.07743252 -1.1631843 0.2418407
1.3092684 -0.92223734 -0.11257661 0.28748557 -0.24553344 1.7917659 -0.36786386 -0.09693876
-0.36340114 0.058370642 0.005831939 -0.18607947 -0.13414128 0.3582006 0.55518126 0.81246996
00000000: a073 0bbf 44d5 af3e 39d0 a03f bd50 a73e
00000010: 64bf 6a3d 6d5c f93e 5acc cabc 0a32 9fbe
00000020: 74a4 f6be bbcd 1cbf 4e72 d53e ceed 0ebe
00000030: 3c05 81bf a359 c2be 306e 51bf d28d 373e
00000040: 5fbb bdbf e9b5 2a3f 0c12 143e 8224 8d3f
00000050: 5fb7 103f a992 483e ff9d 42be b17b 30be
00000060: 925c 473e 329f 7ebe 5875 653e 569f 943d
00000070: fd68 343f bbd3 233e 7dbd 22bd c495 0ec0
00000080: ee91 503e f505 913e 77c3 8d3f d4f3 42bd
00000090: f168 203e 3b1a 213f d1f1 48bd 9c13 e5be
000000a0: 3658 a7be 7d7a 7dbd 90e9 df3e aaea 0abf
000000b0: 9649 d4bd 3907 a03e ef2e 0d40 83be 81bd
000000c0: 605e cc3d 03af a13c 2ef6 debe ffca 7abe
000000d0: d17a bc3e b40c 25be b7ee 193e fbc3 fc3e
000000e0: 61f8 603d 0bc6 ab3e e5ea 75bd 5f63 e8be
000000f0: 0c7f 393f 6b2e 02bd 283b e6be 8869 523f
00000100: bb4e 1cbe fabb 853f 825d a3bf 72fc 893e
00000110: 889c bfbe 1a2c ee3c 3d7d d7be 30c1 ab3e
00000120: a4a9 a5be 4ce1 143e 000f 23be a457 8a3f
00000130: 83de bd3d 0e6d 4d3e f1fe 1abd b44c b43e
00000140: 84e8 1bbf f622 7abf 4fce dbbe 72f0 923e
00000150: ac5d e2bf 9fac a43f 6a46 61be 2742 36bf
00000160: 5ffd d9be ab59 b9be 35ea 08bd 7881 b6be
00000170: 6ac5 4cbe fc32 253f eae4 d8be 74ec 92be
00000180: becd 91be ff42 fe3e ec24 55bf 1c64 68be
00000190: bd29 9bbf f893 4bbe c643 8dbe 7c92 f93f
000001a0: 12f1 453f 900b 2a3f 6699 ca3e 86e2 403f
000001b0: 7b1e e43e 58f8 1e3f db3d 08bd 70d7 9f3e
000001c0: 0ec1 0a3f fd45 233d 8837 103e 9079 873e
000001d0: d279 563e 116f 073e 1556 843e 3f1f 95bf
000001e0: ec1f 50bf 4070 e7be 2907 60be a2fa 8b3e
000001f0: d9e4 b83e 3ed7 1dbc 9a9a febe 27e7 ddbf
00000200: 5113 86be 7f57 6fbe d247 4a3d e5b6 4e3e
00000210: def8 35be 5da9 c73e 4a7a 2dbf 0e22 203e
00000220: 3bb5 8c3e e491 693e 1226 003f 3acb ad3e
00000230: a0dc b83e 9f7e 373f 3f9f 7d3e 4b2b 1e3f
00000240: 9827 193f 0b52 b0be 063f 22be 4a50 1b3f
00000250: 7c7a 8bbd d3cd c53e 04d2 3a3f 9e55 903e
00000260: fd32 74bf e114 cb3e 67d4 85be f9ec dfbe
00000270: 9a8b fa3d 708c 703f 4320 7ebd b00d 0b3f
00000280: d8aa df3d 831a 4abf 8501 0fbe 8cae 23bf
00000290: a557 a6bf 06d9 0cbe 2291 1ebd 1fbd 7f3e
000002a0: abf9 6bbb 59da 443c 791a c9bb c2ab ddbe
000002b0: 2352 df3f b700 6d3e 9d38 903f 00e5 b93c
000002c0: 711c c53e 160a 63be 893f 0e3e 5b36 ae3d
000002d0: a022 ac3f 7fc0 053f 3b9f 08bd ac22 0bbf
000002e0: db11 a7be dcb1 0cbf 1ba5 aabd 2ab1 0d3e
000002f0: 357c ca3e 59ab dd3e 6004 9bbd 2ece 28bf
00000300: 4797 7d3f 1632 593f 89b2 5f3e 715c f53e
00000310: a274 233e 6b5c f83c 7e77 56be dfdc d53e
00000320: 1180 31be 89f3 e33a ec9e a8bf 6d23 9ebf
00000330: d00f 18be 20c9 2bbe aad4 2ebe fdef 2dbd
00000340: 68ec a2bf 829d b6be 6a4c 573e a0e9 adbe
00000350: 9a87 17bf cb15 853f 48d4 0a3f 3b32 bb3f
00000360: 8f8a d5be 5c7d 3fbf a542 a33e 4667 06be
00000370: 1093 97bd 5436 273f bc9c 36bf 84a1 8f3f
00000380: f4d9 b73e 2f66 853e cebe 933e 92ae 833e
00000390: 1222 2d3f e564 2ebe 4951 39be aa22 813e
000003a0: 11d0 48bf 3d64 81be 0080 923f 3acd 603f
000003b0: da6a 2d3e f194 9e3d 39e3 94bf 17a5 773e
000003c0: 1b96 a73f bf17 6cbf 918e e6bd 4f31 933e
000003d0: 1e6d 7bbe 9658 e53f a758 bcbe d487 c6bd
000003e0: b70f babe 0e16 6f3d da19 bf3b 9e8b 3ebe
000003f0: 555c 09be 1266 b73e 5c20 0e3f 08fe 4f3f

encoder.lstm.weight_hh_l1 f4 [128, 32]
-0.7743304 -0.22731873 0.5426027 0.7071121 -0.56607634 1.3654865 0.32608035 -0.1958151
-1.8979009 0.03789975 -0.9709828 -1.5693749 0.2921664 -1.3831022 -0.6445425 0.507931
0.48858333 -0.15338454 -0.19170877 -0.97188175 -0.29097483 -0.400353 -0.32991824 0.54565716
-1.3614742 0.35637036 0.2981788 0.35326412 -0.48837614 0.2415183 -1.2405584 -0.85067636
-0.90630484 -0.49371454 -0.07819409 -0.52747905 0.18123299 0.5749841 -0.7247717 -0.47530645
-0.37925655 0.05094442 -0.04342106 -0.45337236 0.24409139 -0.29070336 -0.06324188 0.36722618
0.42363974 0.09777694 0.12835483 -0.5747405 -0.5710878 -1.0357544 0.15988138 0.50478727
-0.13322432 -0.3673937 -0.1647964 -0.59595245 0.44537765 0.6288719 0.5845588 0.6166573
0.5442951 -0.31838402 1.139726 -0.0068921596 -0.36287862 -0.30237988 0.0043807244 1.2263724
-0.058675397 0.32704133 -0.20605655 -0.31532028 -0.47727856 -1.207698 -0.7470879 0.54852754
-2.3144073 -1.3407922 -1.1521147 -0.89861715 -1.1007016 0.20473526 0.18498735 -1.1539606
0.6116782 -1.2079645 0.08167399 0.4192677 0.5055059 -0.79258007 -0.27725828 -1.6391715
-1.9341638 0.3379354 0.7725803 0.28618172 0.15569852 -0.6059607 0.5676497 0.5263236
-1.8044623 -0.14006773 1.0057539 1.204289 0.3640084 -1.6336464 0.13890705 0.22192404
-0.058273043 1.5696938 -0.9085968 1.3511797 0.48444954 0.52124995 0.61577 -1.1592855
-1.018389 0.21136375 -0.24424203 1.0884297 -0.38990015 1.0226418 -0.8920598 -0.58123404
-0.48897824 0.5057957 -0.22031282 0.20549254 0.29962584 0.119188584 -0.8586849 -0.1479254
-0.19416867 -0.29627934 0.98925316 0.09229712 0.09979446 0.045473162 0.34823734 0.056115977
-0.24152544 0.6834326 0.38848004 -0.5792387 0.38920248 -0.21447682 -0.4236297 -0.29637963
-0.60306203 -0.3170323 -0.3803978 0.38236877 -0.19434965 0.38994822 -0.8691236 0.27731216
-0.22770412 -0.19237547 -0.42198023 -0.50405246 -0.41723135 0.42917 0.20490403 0.74412185
0.11303385 0.24955654 -0.21409434 0.036434032 1.577719 0.2363337 0.5018307 1.3293873
-0.10270032 0.30388466 -0.5584739 0.13881116 1.0632384 -0.17433085 1.6295727 -0.47333717
-1.0701157 -0.4073467 -0.062161658 0.706137 -1.5603487 0.21349141 0.300254 -0.19999856
-0.49757782 0.13067108 0.52139723 0.25376874 0.55106705 -0.6513967 0.350837 -0.06788611
-0.49088416 0.33489904 0.85384804 -0.47015902 0.5037807 -0.82454515 -0.7810052 -0.7201179
-0.8483964 0.70448136 0.009083895 -0.7098308 -0.2625185 1.5703051 -0.7035356 -1.1363842
-0.08715112 0.29136193 0.16899179 0.33066788 0.094592124 -0.10179536 -0.047805175 -1.4333092
0.7030901 0.2764793 -0.47977668 0.06147293 -0.11175337 -0.5088044 0.20208235 -1.1059632
0.3155032 -0.280808 -0.88963455 0.49157572 -0.048856772 -0.054905154 -0.09934145 -0.07278482
-0.67986745 0.50765413 0.053027596 0.19247863 1.2383469 0.05893602 0.35861576 -1.3559763
-0.30228502 -0.42795762 -0.3910721 -0.03254795 -0.10594343 0.9337682 -1.0297064 0.6425159
00000000: 843a 46bf 3ec6 68be 03e8 0a3f 4c05 353f
00000010: 61ea 10bf 43c8 ae3f 01f4 a63e c183 48be
00000020: 6bee f2bf c53c 1b3d 5492 78bf 47e1 c8bf
00000030: d696 953e 7e09 b1bf bd00 25bf c407 023f
00000040: 9827 fa3e d610 1dbe 4e4f 44be 3ecd 78bf
00000050: a7fa 94be 12fb ccbe 0beb a8be 30b0 0b3f
00000060: c944 aebf 2d76 b63e e4aa 983e 09df b43e
00000070: 700c fabe 9350 773e 9eca 9ebf edc5 59bf
00000080: 9803 68bf 27c8 fcbe 3924 a0bd de08 07bf
00000090: 2495 393e 2832 133f a38a 39bf 5e5b f3be
000000a0: ea2d c2be 19ab 503d 48da 31bd 6c20 e8be
000000b0: 18f3 793e 12d7 94be f584 81bd 1205 bc3e
000000c0: 4fe7 d83e 473f c83d 736f 033e 3222 13bf
000000d0: cf32 12bf 9a93 84bf f2b7 233e bd39 013f
000000e0: f56b 08be 071b bcbe 63c0 28be 5790 18bf
000000f0: 8a08 e43e c0fd 203f a5a5 153f 41dd 1d3f
00000100: ec56 0b3f 3b03 a3be 8be2 913f a0d7 e1bb
00000110: 3acb b9be 89d1 9abe 2e8c 8f3b c5f9 9c3f
00000120: 9d55 70bd f671 a73e 7d00 53be a971 a1be
00000130: db5d f4be d995 9abf 2741 3fbf 4d6c 0c3f
00000140: 401f 14c0 149f abbf 7f78 93bf c60b 66bf
00000150: cae3 8cbf 1fa6 513e 536d 3d3e fbb4 93bf
00000160: f196 1c3f 959e 9abf b144 a73d 42aa d63e
00000170: d668 013f 87e6 4abf ccf4 8dbe 5fd0 d1bf
00000180: ae92 f7bf de05 ad3e d3c7 453f 6986 923e
00000190: 6f6f 1f3e 3e20 1bbf 7e51 113f 25bd 063f
000001a0: 9ff8 e6bf ea6d 0fbe 8bbc 803f 2426 9a3f
000001b0: 4f5f ba3e 531b d1bf a63d 0e3e 0e40 633e
000001c0: b7af 6ebd baeb c83f cd99 68bf 75f3 ac3f
000001d0: c509 f83e a370 053f 1aa3 1d3f 7863 94bf
000001e0: 925a 82bf bd6f 583e 951a 7abe aa51 8b3f
000001f0: fea0 c7be ede5 823f 085e 64bf c1cb 14bf
00000200: 5b5b fabe d47b 013f af99 61be a36c 523e
00000210: 8f68 993e 2519 f43d c6d2 5bbf c279 17be
00000220: 27d4 46be edb1 97be b23f 7d3f 4606 bd3d
00000230: 0a61 cc3d 1142 3a3d 2a4c b23e ded9 653d
00000240: 7252 77be 70f5 2e3f dbe6 c63e fd48 14bf
00000250: 8c45 c73e d09f 5bbe fee5 d8be 12bf 97be
00000260: 4662 1abf 0f52 a2be 80c3 c2be d7c5 c33e
00000270: 9803 47be 4ba7 c73e e27e 5ebf dcfb 8d3e
00000280: 452b 69be 13fe 44be cb0d d8be 9509 01bf
00000290: 599f d5be 2cbc db3e 5dd2 513e c57e 3e3f
000002a0: 4b7e e73d c08b 7f3e 8c3b 5bbe da3b 153d
000002b0: b2f2 c93f 7601 723e fa77 003f 5d29 aa3f
000002c0: 8c54 d2bd c596 9b3e 25f8 0ebf 8324 0e3e
000002d0: 3218 883f c983 32be d795 d03f 4059 f2be
000002e0: 8df9 88bf bf8f d0be 399d 7ebd 65c5 343f
000002f0: 82b9 c7bf 7e9d 5a3e e4ba 993e 6ccc 4cbe
00000300: 85c2 febe a4ce 053e 4a7a 053f faed 813e
00000310: bb12 0d3f efc1 26bf e8a0 b33e df07 8bbd
00000320: 2b55 fbbe e377 ab3e c995 5a3f afb8 f0be
00000330: c6f7 003f 6415 53bf f5ef 47bf a659 38bf
00000340: 8230 59bf e458 343f 9ed4 143c 79b7 35bf
00000350: d368 86be c2ff c83f e91a 34bf 0a75 91bf
00000360: 497c b2bd 642d 953e 2f0c 2d3e 4d4d a93e
00000370: 84b9 c13d 167a d0bd 5ccf 43bd ad76 b7bf
00000380: b6fd 333f b28e 8d3e 4aa5 f5be 0acb 7b3d
00000390: f3de e4bd 0141 02bf adee 4e3e 3490 8dbf
000003a0: a389 a13e 11c6 8fbe 17bf 63bf d0af fb3e
000003b0: 0a1e 48bd 3ae4 60bd 8873 cbbd 3510 95bd
000003c0: cb0b 2ebf 9ff5 013f 7733 593d 1e19 453e
000003d0: 2782 9e3f e566 713d 7c9c b73e a290 adbf
000003e0: 1ac5 9abe 431d dbbe 9a3a c8be 0051 05bd
000003f0: def8 d8bd 6f0b 6f3f 6bcd 83bf ec7b 243f

encoder.lstm.bias_ih_l1 f4 [128]
-0.26689163 0.6955797 0.72114986 -0.3617363 0.78472805 0.025736343 0.44446972 0.005421312
0.007155001 0.31770638 0.4376192 0.23707636 0.23732029 -0.29829994 -0.1200186 0.50951844
0.3792198 0.15901703 0.6022161 0.34688136 0.002406055 -0.3553623 -0.42578155 0.6934282
0.43412444 -0.05877821 -0.01802929 0.38263136 -0.14977361 0.0443785 0.30600813 -0.11500356
-0.19328894 -0.15171969 -0.5523759 0.005202877 0.015432764 -0.1347457 -0.3824512 0.13929181
0.6259428 -0.5661075 -0.11628715 -0.12755273 -0.21171914 -0.21189813 -0.32835996 -0.39697367
-0.02400682 -0.22656564 -0.33792973 -0.045341875 -0.7595342 0.33711338 -0.14403357 -0.4627095
-0.38594 -0.42689776 0.2159072 -0.12662975 0.3229343 0.024577178 -0.14301805 -0.24140756
-0.4629383 0.7946174 -0.12265503 0.30149055 0.032595824 -0.5707144 -0.5601226 -0.076619156
0.31653517 -0.42526162 0.02904031 0.6061119 0.17014782 -0.13279529 0.5020917 -0.16874379
0.20558827 0.16742063 0.09684877 -0.16086537 0.61250323 -0.20205954 0.22305821 -0.4488337
0.0026241704 -0.3941265 -0.1081151 0.29253507 -0.56659174 0.26072794 -0.7289139 -0.018241901
-0.00843409 0.11886435 -0.06374511 -0.06332837 0.69364107 -0.26395085 -0.039282728 0.049956135
-0.16802494 0.29983643 0.6573304 0.93088526 0.6831504 -0.205216 0.33486846 0.26485986
0.23542434 0.44644064 0.3932505 0.009404425 0.433674 -0.2858677 0.3491903 0.8540132
-0.14292628 0.39821017 0.6788613 0.41815308 0.004534627 -0.052196495 -0.075530216 -0.082872294
00000000: 05a6 88be 8311 323f 479d 383f 8035 b9be
00000010: f0e3 483f 06d5 d23c 8991 e33e 43a5 b13b
00000020: 8074 ea3b 69aa a23e a00f e03e 25c4 723e
00000030: 1704 733e c5ba 98be 50cc f5bd cd6f 023f
00000040: 1929 c23e 5cd5 223e d62a 1a3f 6f9a b13e
00000050: e8ae 1d3b 0cf2 b5be 0a00 dabe 8384 313f
00000060: 8f45 de3e 6cc1 70bd 29b2 93bc 42e8 c33e
00000070: 415e 19be 3bc6 353d 19ad 9c3e fd86 ebbd
00000080: 89ed 45be 685c 1bbe 8268 0dbf e57c aa3b
00000090: b4d9 7c3c c7fa 09be a5d0 c3be 83a2 0e3e
000000a0: ca3d 203f 6cec 10bf f527 eebd 2f9d 02be
000000b0: e7cc 58be d3fb 58be cc1e a8be 2240 cbbe
000000c0: f3a9 c4bc d300 68be 2005 adbe 67b8 39bd
000000d0: d570 42bf 209a ac3e 897d 13be 42e8 ecbe
000000e0: ed99 c5be 5892 dabe c716 5d3e 3bab 01be
000000f0: a557 a53e 1456 c93c 5373 12be 8b33 77be
00000100: 4006 edbe 0c6c 4b3f 8f32 fbbd f85c 9a3e
00000110: 3383 053d 571a 12bf 3264 0fbf 81ea 9cbd
00000120: e610 a23e e4bb d9be f2e5 ed3c 262a 1b3f
00000130: 3b3b 2e3e 7dfb 07be 1589 003f 2ccb 2cbe
00000140: bb85 523e 5070 2b3e a658 c63d e4b9 24be
00000150: 03cd 1c3f b2e8 4ebe 5f69 643e 88cd e5be
00000160: 46fa 2b3b f3ca c9be 736b ddbd 28c7 953e
00000170: 280c 11bf 227e 853e 1a9a 3abf 0a70 95bc
00000180: 232f 0abc 276f f33d cc8c 82bd 4eb2 81bd
00000190: 7692 313f 9124 87be ede6 20bd ce9e 4c3d
000001a0: bb0e 2cbe 2984 993e ce46 283f 7f4e 6e3f
000001b0: f2e2 2e3f 2524 52be e173 ab3e b69b 873e
000001c0: 1413 713e de93 e43e 2158 c93e 0415 1a3c
000001d0: 850a de3e 405d 92be 12c9 b23e 9ca0 5a3f
000001e0: 445b 12be 34e2 cb3e dbc9 2d3f 2918 d63e
000001f0: 3597 943b fecb 55bd 96af 9abd f3b8 a9bd

encoder.lstm.bias_hh_l1 f4 [128]
-0.26689357 0.69557947 0.7211494 -0.36173743 0.7847287 0.02573831 0.4444732 0.0054136724
0.0071461033 0.31769875 0.43761194 0.23707782 0.23732108 -0.2983033 -0.120018855 0.50951624
0.37922677 0.15901999 0.6022189 0.346879 0.0023983794 -0.3553682 -0.42578423 0.6934216
0.43411618 -0.058784805 -0.018024351 0.38262615 -0.14976919 0.044376962 0.3060043 -0.115011856
-0.19329083 -0.1517144 -0.5523844 0.0052071037 0.015430278 -0.1347489 -0.38244712 0.13929024
0.6259386 -0.56610256 -0.11628375 -0.12755261 -0.21172415 -0.21189755 -0.32835627 -0.39697745
-0.024007265 -0.2265657 -0.33792427 -0.045343243 -0.7595367 0.33710882 -0.1440285 -0.46270972
-0.38594067 -0.42689264 0.2159099 -0.1266376 0.32293645 0.024574298 -0.14301255 -0.24141045
-0.46294132 0.7946182 -0.12265051 0.30149394 0.032598205 -0.57071006 -0.5601165 -0.07661884
0.31653896 -0.42525977 0.029039456 0.6061056 0.17014939 -0.13280125 0.5020948 -0.16874906
0.20558892 0.16742076 0.09684391 -0.160857 0.6124987 -0.20206456 0.22305337 -0.44883007
0.0026290677 -0.39412868 -0.10811414 0.29253396 -0.5665927 0.26072755 -0.7289092 -0.018237714
-0.008433662 0.11886678 -0.06374771 -0.06333157 0.6936404 -0.26394606 -0.039283115 0.049956407
-0.16802017 0.2998355 0.65733457 0.9308835 0.68314546 -0.20520945 0.33486584 0.2648598
0.23542705 0.44644797 0.39325258 0.00940249 0.43367228 -0.28587115 0.34918928 0.8540157
-0.14292444 0.39820918 0.67886424 0.41815165 0.0045331144 -0.052200943 -0.075526126 -0.08286535
00000000: 46a6 88be 7f11 323f 3f9d 383f a635 b9be
00000010: fbe3 483f 26d9 d23c fe91 e33e 2d65 b13b
00000020: dc29 ea3b 69a9 a23e ac0e e03e 87c4 723e
00000030: 4c04 733e 36bb 98be 72cc f5bd a86f 023f
00000040: 032a c23e 23d6 223e 052b 1a3f 209a b13e
00000050: 212e 1d3b d2f2 b5be 6400 dabe 1484 313f
00000060: 7a44 de3e 56c8 70bd cea7 93bc 93e7 c33e
00000070: 185d 19be 9ec4 353d 98ac 9c3e 568b ebbd
00000080: 08ee 45be 055b 1bbe 1069 0dbf 5aa0 aa3b
00000090: 47cf 7c3c 9efb 09be 1cd0 c3be 1aa2 0e3e
000000a0: 833d 203f 19ec 10bf 2d26 eebd 279d 02be
000000b0: 37ce 58be acfb 58be 501e a8be a140 cbbe
000000c0: e2aa c4bc d700 68be 6904 adbe d6b9 39bd
000000d0: ff70 42bf 8799 ac3e 357c 13be 4ae8 ecbe
000000e0: 049a c5be ac91 dabe 7c17 5d3e 49ad 01be
000000f0: ed57 a53e 0a50 c93c e271 12be 4d34 77be
00000100: a506 edbe 196c 4b3f 3130 fbbd 6a5d 9a3e
00000110: b285 053d 0e1a 12bf cc63 0fbf 57ea 9cbd
00000120: 6511 a23e a6bb d9be 27e4 ed3c bd29 1b3f
00000130: a43b 2e3e 0dfd 07be 4989 003f 8ecc 2cbe
00000140: e785 523e 5970 2b3e 1a56 c63d b3b7 24be
00000150: b7cc 1c3f 03ea 4ebe 1a68 643e 0ecd e5be
00000160: 704c 2c3b 3ccb c9be f26a ddbd 03c7 953e
00000170: 380c 11bf 157e 853e cb99 3abf 4267 95bc
00000180: 582d 0abc 6d70 f33d 298e 82bd fbb3 81bd
00000190: 6b92 313f f023 87be 55e7 20bd 179f 4c3d
000001a0: 7b0d 2cbe 0a84 993e 1447 283f 624e 6e3f
000001b0: 9fe2 2e3f 6d22 52be 8973 ab3e b49b 873e
000001c0: ca13 713e d494 e43e 6758 c93e e70c 1a3c
000001d0: 4b0a de3e b45d 92be f0c8 b23e c6a0 5a3f
000001e0: c95a 12be 13e2 cb3e 0cca 2d3f f917 d63e
000001f0: 858a 943b a8d0 55bd 71ad 9abd 4fb5 a9bd

decoder.lstm.weight_ih_l0 f4 [128, 5]
0.8693208 -0.8927948 -1.9894257 -0.03223766 0.17024112 -0.45856464 -0.27653944 -0.17083463
-0.47081974 -0.38858655 -0.27886614 1.2451364 0.4317169 -0.4619062 -0.056800086 -0.31455034
1.2992555 0.36798707 -0.2141967 -0.3116899 -0.5336974 0.39014092 0.117673405 -0.28989905
0.090038665 -0.83657897 -0.07066261 0.16704945 0.4290539 -0.18792571 -0.59281296 0.5053786
-0.20756131 0.56464857 0.78534746 0.88092965 0.61095506 0.45510688 1.5743002 0.22783665
0.006219949 -0.20661062 0.04507116 -0.035430316 -0.00046083567 0.8113269 0.4988282 0.20998703
0.20051953 -0.36369026 0.21242443 -0.2581293 0.040905997 0.6094083 -0.47342968 1.3273547
-1.2778893 -0.5410442 -0.46878776 2.0637693 0.1629098 0.092469536 0.11899671 -0.69517684
0.37384638 0.70152175 -0.20888224 -0.2737675 0.37171793 -1.2221838 -1.6124538 0.5382999
0.5445134 -0.23020963 -0.42101243 0.4048463 -0.54067963 -0.29836625 -0.66699255 0.9896192
-1.413545 0.061698955 -0.11311001 1.341146 0.5909197 0.68933415 -0.42987043 -0.006657675
-0.2463252 -0.12483329 -0.005076205 0.55264324 -0.13305017 0.03255816 0.11841581 0.5759795
0.11146195 -0.123675555 -0.047463447 -0.1892941 0.76575935 6.36178 0.95223635 -0.35721874
-0.116259314 0.35562065 -0.2800908 -0.4093128 0.06027591 0.33151957 0.33325484 -1.7727168
-2.0674014 0.25838956 -0.16715644 -0.18843788 0.043244183 -0.44588432 -0.27440542 -0.030707352
-0.15071 -0.1041995 -0.8832794 -0.5490283 0.29536238 1.452643 -0.6081323 0.35350022
-0.51466554 -0.4151771 0.52530164 1.9359223 -0.12917982 -0.59661186 -1.0671549 -0.28968874
-0.29980755 -0.21857005 -0.25657794 -0.26371127 -1.0271041 0.62662345 -0.26533875 -0.08968404
-0.060175564 0.8154699 0.32726708 -0.685881 -0.6448433 -0.47704837 0.9263784 2.9972758
2.6840143 -0.051763617 0.77435344 -0.516165 -0.240425 0.51529473 -0.02419832 -0.1485068
0.10746302 1.3628854 0.22871034 0.9206803 0.20592953 0.6166865 0.04670651 0.12729794
0.55849665 0.3036595 -0.13716367 -0.09874474 -0.58168113 -0.6363208 -0.9476345 -0.42467713
0.057470873 0.2218026 -0.468298 -0.08696616 -0.13964412 0.23329847 0.41529754 -0.2830839
-0.08259328 -0.5213426 -0.835814 0.49563128 0.27059656 -0.74619555 -0.83790094 0.3542429
0.2185977 -0.29398277 -0.43860778 -0.63616186 0.029870275 -0.33908603 -0.43718514 0.14368446
0.38182396 -0.18492083 -0.12954938 0.6533776 0.05057354 0.25820184 -0.30916554 -0.19873503
-0.20627698 -0.030825607 0.0030127598 -0.5467134 -0.5896285 0.7463402 -0.45933637 0.8663415
-0.21758315 0.5185875 -0.6140284 -0.19535938 -0.8573477 -0.6741999 0.013167067 0.13954103
-1.4452602 0.3883861 0.85587996 0.6173095 0.42207307 0.5861598 -0.4657894 0.7855266
1.2876258 -0.6375848 0.2915612 0.16154623 0.04186101 -0.9889271 -1.2407439 0.1910509
-11.097162 -0.21542256 -0.53530306 -0.4763469 -0.6237075 0.30029058 0.37594175 0.1711699
-0.007166452 0.19290458 0.5304143 0.33233386 0.028519958 -0.2845743 0.7847529 -0.2851927
00000000: cf8b 5e3f 338e 64bf 80a5 febf a30b 04bd
00000010: b053 2e3e fcc8 eabe 9496 8dbe 46ef 2ebe
00000020: 490f f1be d1f4 c6be 8bc7 8ebe a160 9f3f
00000030: ff09 dd3e f87e ecbe 35a7 68bd be0c a1be
00000040: 014e a63f cd68 bc3e 6156 5bbe d295 9fbe
00000050: 65a0 08bf 8dc0 c73e c1fe f03d a66d 94be
00000060: 3166 b83d 0a2a 56bf 8fb7 90bd 030f 2b3e
00000070: f4ac db3e 996f 40be 97c2 17bf 7e60 013f
00000080: f48a 54be cf8c 103f 880c 493f 9b84 613f
00000090: 8d67 1c3f c503 e93e ab82 c93f 034e 693e
000000a0: b7d0 cb3b bc91 53be 899c 383d 611f 11bd
000000b0: 519c f1b9 1fb3 4f3f 6966 ff3e d706 573e
000000c0: fe54 4d3e 9c35 babe ca85 593e 8629 84be
000000d0: 0c8d 273d 2f02 1c3f 6065 f2be c2e6 a93f
000000e0: e091 a3bf df81 0abf f304 f0be cc14 0440
000000f0: d4d1 263e ab60 bd3d 8cb4 f33d 1cf7 31bf
00000100: cb68 bf3e ee96 333f 3ae5 55be 412b 8cbe
00000110: d051 be3e 8570 9cbf e364 cebf 06ce 093f
00000120: 3b65 0b3f 13bc 6bbe f18e d7be 0448 cf3e
00000130: fb69 0abf 76c3 98be 06c0 2abf af57 7d3f
00000140: 0bef b4bf 0bb8 7c3d 39a6 e7bd acaa ab3f
00000150: 8346 173f 3478 303f fa17 dcbe a028 dabb
00000160: ac3c 7cbe 99a8 ffbd 4b56 a6bb 077a 0d3f
00000170: 4e3e 08be b55b 053d fd83 f23d 6473 133f
00000180: 2a46 e43d 9c49 fdbd 0869 42bd 50d6 41be
00000190: ce08 443f b493 cb40 c3c5 733f 60e5 b6be
000001a0: 5d19 eebd e913 b63e 1068 8fbe 7391 d1be
000001b0: dfe3 763d efbc a93e 61a0 aa3e 62e8 e2bf
000001c0: 4e50 04c0 a34b 843e 0f2b 2bbe dcf5 40be
000001d0: d020 313d f34a e4be de7e 8cbe fc8d fbbc
000001e0: b953 1abe 8c66 d5bd 991e 62bf 1e8d 0cbf
000001f0: bd39 973e 35f0 b93f 8fae 1bbf fbfd b43e
00000200: 1fc1 03bf 1892 d4be 2b7a 063f 4dcc f73f
00000210: b747 04be 8ebb 18bf 8898 88bf 1552 94be
00000220: 6080 99be d4d0 5fbe 2f5e 83be 2a05 87be
00000230: 2678 83bf 656a 203f 7bda 87be 44ac b7bd
00000240: a77a 76bd a3c2 503f 8d8f a73e e695 2fbf
00000250: 7314 25bf af3f f4be 2327 6d3f 5ed3 3f40
00000260: e4c6 2b40 1606 54bd 073c 463f 6423 04bf
00000270: f931 76be 5bea 033f 8e3b c6bc 2b12 18be
00000280: 9215 dc3d 0773 ae3f 0b33 6a3e b4b1 6b3f
00000290: 31df 523e 2bdf 1d3f 534f 3f3d 645a 023e
000002a0: a3f9 0e3f 4279 9b3e a274 0cbe af3a cabd
000002b0: 0ee9 14bf ece5 22bf 2d98 72bf 486f d9be
000002c0: 9466 6b3d 3920 633e c1c4 efbe 501b b2bd
000002d0: defe 0ebe cbe5 6e3e e1a1 d43e 5ff0 90be
000002e0: aa26 a9bd b576 05bf e8f7 55bf 62c3 fd3e
000002f0: a28b 8a3e ac06 3fbf ad80 56bf 535f b53e
00000300: 13d8 5f3e e984 96be 3391 e0be 81db 22bf
00000310: 82b2 f43c af9c adbe bbd6 dfbe 0522 133e
00000320: 6e7e c33e e35b 3dbe 98a8 04be c143 273f
00000330: 3326 4f3d 0833 843e f24a 9ebe 3281 4bbe
00000340: 463a 53be fc85 fcbc b971 453b 69f5 0bbf
00000350: e5f1 16bf 2710 3f3f 232e ebbe 8ec8 5d3f
00000360: 1ece 5ebe 27c2 043f f730 1dbf 4a0c 48be
00000370: 247b 5bbf 5d98 2cbf afba 573c d8e3 0e3e
00000380: 49fe b8bf 8bda c63e f31a 5b3f ff07 1e3f
00000390: f619 d83e 920e 163f f37b eebe 4518 493f
000003a0: ecd0 a43f c238 23bf 8247 953e 606c 253e
000003b0: 7376 2b3d 542a 7dbf b2d0 9ebf d9a2 433e
000003c0: fa8d 31c1 bb97 5cbe 9f09 09bf bee3 f3be
000003d0: 4bab 1fbf b0bf 993e 707b c03e 2a47 2f3e
000003e0: 8ed4 eabb c788 453e 3bc9 073f aa27 aa3e
000003f0: b0a2 e93c b9b3 91be 91e5 483f c704 92be
