results/LSTM_double_layer/851_model.pt (torch, 932137 bytes, 18 tensors)

output_zeros f4 [400, 512, 1]
000000 00 00 00 00 00 00 00 00 00 00 00 00 00 00 00 00
       0.0 0.0 0.0 0.0
000010 00 00 00 00 00 00 00 00 00 00 00 00 00 00 00 00
       0.0 0.0 0.0 0.0
000020 00 00 00 00 00 00 00 00 00 00 00 00 00 00 00 00
       0.0 0.0 0.0 0.0
000030 00 00 00 00 00 00 00 00 00 00 00 00 00 00 00 00
       0.0 0.0 0.0 0.0
000040 00 00 00 00 00 00 00 00 00 00 00 00 00 00 00 00
       0.0 0.0 0.0 0.0
000050 00 00 00 00 00 00 00 00 00 00 00 00 00 00 00 00
       0.0 0.0 0.0 0.0
000060 00 00 00 00 00 00 00 00 00 00 00 00 00 00 00 00
       0.0 0.0 0.0 0.0
000070 00 00 00 00 00 00 00 00 00 00 00 00 00 00 00 00
       0.0 0.0 0.0 0.0
000080 00 00 00 00 00 00 00 00 00 00 00 00 00 00 00 00
       0.0 0.0 0.0 0.0
000090 00 00 00 00 00 00 00 00 00 00 00 00 00 00 00 00
       0.0 0.0 0.0 0.0
0000a0 00 00 00 00 00 00 00 00 00 00 00 00 00 00 00 00
       0.0 0.0 0.0 0.0
0000b0 00 00 00 00 00 00 00 00 00 00 00 00 00 00 00 00
       0.0 0.0 0.0 0.0
0000c0 00 00 00 00 00 00 00 00 00 00 00 00 00 00 00 00
       0.0 0.0 0.0 0.0
0000d0 00 00 00 00 00 00 00 00 00 00 00 00 00 00 00 00
       0.0 0.0 0.0 0.0
0000e0 00 00 00 00 00 00 00 00 00 00 00 00 00 00 00 00
       0.0 0.0 0.0 0.0
0000f0 00 00 00 00 00 00 00 00 00 00 00 00 00 00 00 00
       0.0 0.0 0.0 0.0
000100 00 00 00 00 00 00 00 00 00 00 00 00 00 00 00 00
       0.0 0.0 0.0 0.0
000110 00 00 00 00 00 00 00 00 00 00 00 00 00 00 00 00
       0.0 0.0 0.0 0.0
000120 00 00 00 00 00 00 00 00 00 00 00 00 00 00 00 00
       0.0 0.0 0.0 0.0
000130 00 00 00 00 00 00 00 00 00 00 00 00 00 00 00 00
       0.0 0.0 0.0 0.0
000140 00 00 00 00 00 00 00 00 00 00 00 00 00 00 00 00
       0.0 0.0 0.0 0.0
000150 00 00 00 00 00 00 00 00 00 00 00 00 00 00 00 00
       0.0 0.0 0.0 0.0
000160 00 00 00 00 00 00 00 00 00 00 00 00 00 00 00 00
       0.0 0.0 0.0 0.0
000170 00 00 00 00 00 00 00 00 00 00 00 00 00 00 00 00
       0.0 0.0 0.0 0.0
000180 00 00 00 00 00 00 00 00 00 00 00 00 00 00 00 00
       0.0 0.0 0.0 0.0
000190 00 00 00 00 00 00 00 00 00 00 00 00 00 00 00 00
       0.0 0.0 0.0 0.0
0001a0 00 00 00 00 00 00 00 00 00 00 00 00 00 00 00 00
       0.0 0.0 0.0 0.0
0001b0 00 00 00 00 00 00 00 00 00 00 00 00 00 00 00 00
       0.0 0.0 0.0 0.0
0001c0 00 00 00 00 00 00 00 00 00 00 00 00 00 00 00 00
       0.0 0.0 0.0 0.0
0001d0 00 00 00 00 00 00 00 00 00 00 00 00 00 00 00 00
       0.0 0.0 0.0 0.0
0001e0 00 00 00 00 00 00 00 00 00 00 00 00 00 00 00 00
       0.0 0.0 0.0 0.0
0001f0 00 00 00 00 00 00 00 00 00 00 00 00 00 00 00 00
       0.0 0.0 0.0 0.0
000200 00 00 00 00 00 00 00 00 00 00 00 00 00 00 00 00
       0.0 0.0 0.0 0.0
000210 00 00 00 00 00 00 00 00 00 00 00 00 00 00 00 00
       0.0 0.0 0.0 0.0
000220 00 00 00 00 00 00 00 00 00 00 00 00 00 00 00 00
       0.0 0.0 0.0 0.0
000230 00 00 00 00 00 00 00 00 00 00 00 00 00 00 00 00
       0.0 0.0 0.0 0.0
000240 00 00 00 00 00 00 00 00 00 00 00 00 00 00 00 00
       0.0 0.0 0.0 0.0
000250 00 00 00 00 00 00 00 00 00 00 00 00 00 00 00 00
       0.0 0.0 0.0 0.0
000260 00 00 00 00 00 00 00 00 00 00 00 00 00 00 00 00
       0.0 0.0 0.0 0.0
000270 00 00 00 00 00 00 00 00 00 00 00 00 00 00 00 00
       0.0 0.0 0.0 0.0
000280 00 00 00 00 00 00 00 00 00 00 00 00 00 00 00 00
       0.0 0.0 0.0 0.0
000290 00 00 00 00 00 00 00 00 00 00 00 00 00 00 00 00
       0.0 0.0 0.0 0.0
0002a0 00 00 00 00 00 00 00 00 00 00 00 00 00 00 00 00
       0.0 0.0 0.0 0.0
0002b0 00 00 00 00 00 00 00 00 00 00 00 00 00 00 00 00
       0.0 0.0 0.0 0.0
0002c0 00 00 00 00 00 00 00 00 00 00 00 00 00 00 00 00
       0.0 0.0 0.0 0.0
0002d0 00 00 00 00 00 00 00 00 00 00 00 00 00 00 00 00
       0.0 0.0 0.0 0.0
0002e0 00 00 00 00 00 00 00 00 00 00 00 00 00 00 00 00
       0.0 0.0 0.0 0.0
0002f0 00 00 00 00 00 00 00 00 00 00 00 00 00 00 00 00
       0.0 0.0 0.0 0.0
000300 00 00 00 00 00 00 00 00 00 00 00 00 00 00 00 00
       0.0 0.0 0.0 0.0
000310 00 00 00 00 00 00 00 00 00 00 00 00 00 00 00 00
       0.0 0.0 0.0 0.0
000320 00 00 00 00 00 00 00 00 00 00 00 00 00 00 00 00
       0.0 0.0 0.0 0.0
000330 00 00 00 00 00 00 00 00 00 00 00 00 00 00 00 00
       0.0 0.0 0.0 0.0
000340 00 00 00 00 00 00 00 00 00 00 00 00 00 00 00 00
       0.0 0.0 0.0 0.0
000350 00 00 00 00 00 00 00 00 00 00 00 00 00 00 00 00
       0.0 0.0 0.0 0.0
000360 00 00 00 00 00 00 00 00 00 00 00 00 00 00 00 00
       0.0 0.0 0.0 0.0
000370 00 00 00 00 00 00 00 00 00 00 00 00 00 00 00 00
       0.0 0.0 0.0 0.0
000380 00 00 00 00 00 00 00 00 00 00 00 00 00 00 00 00
       0.0 0.0 0.0 0.0
000390 00 00 00 00 00 00 00 00 00 00 00 00 00 00 00 00
       0.0 0.0 0.0 0.0
0003a0 00 00 00 00 00 00 00 00 00 00 00 00 00 00 00 00
       0.0 0.0 0.0 0.0
0003b0 00 00 00 00 00 00 00 00 00 00 00 00 00 00 00 00
       0.0 0.0 0.0 0.0
0003c0 00 00 00 00 00 00 00 00 00 00 00 00 00 00 00 00
       0.0 0.0 0.0 0.0
0003d0 00 00 00 00 00 00 00 00 00 00 00 00 00 00 00 00
       0.0 0.0 0.0 0.0
0003e0 00 00 00 00 00 00 00 00 00 00 00 00 00 00 00 00
       0.0 0.0 0.0 0.0
0003f0 00 00 00 00 00 00 00 00 00 00 00 00 00 00 00 00
       0.0 0.0 0.0 0.0

encoder.lstm.weight_ih_l0 f4 [128, 4]
000000 4d 5f 2e 3f 7d 87 88 3e c8 bf 66 3f da 64 80 bf
       0.6811417 0.2666587 0.90136385 -1.0030777
000010 db 39 f3 3e 25 bc 4a 3e 5c e1 07 bf d8 13 e2 be
       0.47505078 0.19798334 -0.53078246 -0.44155765
000020 de 9b 1b bf 50 85 84 3d 11 92 16 3f 33 a9 9d 3b
       -0.6078471 0.0647074 0.5881663 0.00481143
000030 8c a5 26 bf ee a5 27 3f 3d ae 5c bf c5 18 51 bf
       -0.65096354 0.65487564 -0.86203367 -0.8167842
000040 bc 76 2c be fd 5e 5e bf 54 ca 14 3f ec 14 37 3d
       -0.16842169 -0.8686369 0.5812123 0.044697687
000050 f6 f9 8f 3e 77 0e 1c be bb 85 99 3e 42 62 d7 be
       0.28120393 -0.15239893 0.2998484 -0.42067152
000060 2d 3a be be d6 6f 5b bf 3b 50 ca 3f 81 25 a5 be
       -0.3715376 -0.85717523 1.5805734 -0.32255176
000070 87 8f 7d bf 13 a0 6e 3e 68 68 2c 3f d7 df b9 be
       -0.9904713 0.23303251 0.6734681 -0.3630359
000080 a9 fd ef be 5f da 8e bf 0e b9 a5 3e 5e 80 3b 3f
       -0.46873215 -1.1160392 0.32367748 0.7324275
000090 b9 c6 2f 3f 17 42 d8 be 94 31 df be 2b 6a 7b 3f
       0.686626 -0.42237923 -0.43592513 0.98208874
0000a0 18 b7 00 bf a3 2f c7 be 31 39 73 3f 99 61 b9 bf
       -0.5027938 -0.3890353 0.9500914 -1.448291
0000b0 d2 df ae be 7c 41 3d 3e c6 31 41 3f 05 f7 a7 bf
       -0.34155136 0.18482012 0.75466573 -1.3122259
0000c0 66 22 16 3f 41 7f 92 3f bf ce 99 3e 67 88 ab bf
       0.5864624 1.1445085 0.30040547 -1.3401002
0000d0 92 f7 a3 3f a8 47 d8 3d 50 49 b4 be 9a 0c 84 bf
       1.2809927 0.10560542 -0.35212183 -1.0316346
0000e0 87 21 dc 3d 4a 92 d9 3e 7f 79 3a bf 37 ef aa 3f
       0.10748582 0.42494422 -0.7284164 1.3354253
0000f0 f4 97 6d bf 99 9b 59 3e 16 58 0b 40 19 88 94 3e
       -0.9280999 0.21250762 2.1772513 0.29010084
000100 ae b1 8e be 53 04 bd bf e5 15 db 3e 6f 57 50 3f
       -0.27869934 -1.4766945 0.42790142 0.81383413
000110 af ff 80 be 9c 15 13 3f e7 00 9e 3e 37 ff a8 3e
       -0.2519507 0.5745485 0.30860063 0.33007213
000120 94 eb 7d be 73 8c 3a 3f 34 ab a6 3f e1 c7 61 be
       -0.24796897 0.7287056 1.3020997 -0.22048904
000130 99 aa 27 3f 76 10 8f 3f 4e 66 47 3f b7 43 fd be
       0.65494686 1.1176898 0.7789048 -0.49465725
000140 41 95 a7 bf 26 f0 36 bd 14 60 0a bf 00 ae 3b 3f
       -1.3092424 -0.044662617 -0.54052854 0.7331238
000150 aa 37 01 3f 66 23 87 be b4 fc 99 bf bd 8f 1c 3f
       0.5047556 -0.26394194 -1.2030244 0.6115683
000160 10 43 e3 3f 1a 20 76 bf 00 de 14 bf 58 26 82 3f
       1.7754841 -0.96142733 -0.58151245 1.0167952
000170 01 7a 10 3f 1a 2e 3a 3e 6a 1a cd 3e 58 20 8e bf
       0.56436163 0.18181649 0.40059215 -1.110362
000180 9b d7 90 3f 7a 2c 7b bf bd af b0 3b 83 5b 4e be
       1.1315798 -0.9811474 0.0053920434 -0.20152096
000190 96 36 44 3f 59 47 ea be de 7e 2a 3f 1c 4d d8 bd
       0.7664579 -0.4575756 0.66599834 -0.105615824
0001a0 b5 7f 38 3f 9e 83 48 bf 71 ad 89 3e 48 44 0a 3f
       0.72069865 -0.7832583 0.26890138 0.5401044
0001b0 1f 8d 65 3f 78 93 28 be 7a 32 99 bc e8 71 95 3f
       0.8966846 -0.16462505 -0.018700827 1.1675386
0001c0 06 ea 4d 3f a5 7e 52 bb e5 34 73 3e 64 82 cc 3d
       0.80435216 -0.0032118943 0.23750646 0.099858075
0001d0 28 79 4a bf e5 54 c6 be cb 80 a2 be d1 ad ae 3f
       -0.7909112 -0.38736644 -0.31738886 1.3646795
0001e0 f3 55 74 be 6c 72 12 bf 70 cf da bd 71 4a 25 3f
       -0.23860912 -0.57205844 -0.10684097 0.64566714
0001f0 bc 93 8b be 85 4d 21 3f b6 bb 7a 3e 7f 7f b7 be
       -0.2726115 0.6300891 0.24485669 -0.3583946
000200 e5 fa 84 3e a8 03 e6 be 71 5b 96 3f 96 8b 17 3f
       0.25972667 -0.44924664 1.1746656 0.59197366
000210 13 86 02 3d 60 80 c0 3f 8b 26 ad bf 5b 98 10 bf
       0.031866144 1.5039177 -1.3527387 -0.56482476
000220 f0 8a 37 bf 10 85 07 3d 5b 5b 53 3f 27 a5 3f 3f
       -0.71696377 0.033085883 0.8256127 0.7486138
000230 2d 5b ad be 6c 24 d4 3e 20 b4 93 be c3 7f be 3c
       -0.33858624 0.41434038 -0.28848362 0.02325428
000240 54 ac 25 be 74 39 88 bf da eb 5c 3f 56 22 0e 3f
       -0.16179019 -1.0642533 0.8629738 0.5552114
000250 11 56 07 be d2 ff 30 be 41 d6 68 bf 93 77 df 3d
       -0.13216425 -0.17285088 -0.90951926 0.10911479
000260 22 20 2a 3f 8b a6 87 bf 35 55 80 3e 88 43 65 3f
       0.6645528 -1.05977 0.25065008 0.8955617
000270 f3 0b 94 bf ea be 83 be 0e 7b 32 be 8d 33 07 3f
       -1.1566147 -0.25731593 -0.17429754 0.52813035
000280 1e ec 52 bf 23 c6 4b bf 4d 6b 5d bd fb cc 0a 3f
       -0.82391536 -0.7959921 -0.054057408 0.54219025
000290 30 f7 15 3f db 31 1b 3d f7 e3 a5 bf 0f e9 cc 3f
       0.58580303 0.037889343 -1.2960194 1.6008624
0002a0 1f c3 c0 bc e6 35 d4 3e f7 b8 33 3e 4d 3c 95 bf
       -0.023530541 0.4144737 0.17551027 -1.1659027
0002b0 41 5e ed bd 9b 3d ac 3e 4e 4f 26 3f 05 26 13 bf
       -0.11590243 0.3364075 0.6496476 -0.5747989
0002c0 b2 c1 ff be 22 27 20 bf c6 ac c4 3d 0f c5 d8 3e
       -0.49952465 -0.6255971 0.096032664 0.42337844
0002d0 78 a0 b3 3f e6 0a 55 be bc dc 2f 3f da 18 bd bf
       1.4033346 -0.20804939 0.6869619 -1.4773209
0002e0 58 88 2d 3f 2e 46 3a bf 25 c0 bb 3e 9e 41 91 be
       0.6778617 -0.72763336 0.36670032 -0.28370374
0002f0 88 d8 c2 bf 42 13 8e bf 9a a0 1e 40 24 5d 9c 3f
       -1.522233 -1.1099627 2.4785523 1.2215924
000300 95 33 93 bf a5 25 f1 be 35 6b a3 3c 8b 51 a5 3e
       -1.1500117 -0.47099033 0.019948581 0.32288775
000310 b8 53 34 bc ec 93 59 3f a7 70 e9 3e 91 27 07 bf
       -0.011006288 0.84991336 0.4559376 -0.5279475
000320 e6 0a a2 be c7 d6 47 3f 75 08 2e 40 66 63 36 3f
       -0.3164894 0.780621 2.7192662 0.7124542
000330 36 10 81 bd 90 c7 a7 3e 9b d4 b3 3e 18 7b d8 3e
       -0.0630192 0.32769442 0.35123143 0.42281413
000340 d0 ae 0e 3e 74 3b 07 3f 05 d4 6f 3e f1 74 bb 3d
       0.13933873 0.52825093 0.23420723 0.09153164
000350 70 45 a3 be e8 c6 4b 3f fa 75 00 bf 8d 57 0a be
       -0.31888914 0.7960038 -0.5018002 -0.1350996
000360 ac c9 8c 3f 08 c7 29 bf ca 17 1f 3f 34 a6 05 bf
       1.0999045 -0.6631932 0.62145674 -0.5220673
000370 87 97 fd be ed c6 cf bf 1b 28 b4 3e f7 c5 0a 40
       -0.4952967 -1.6232582 0.35186848 2.1683328
000380 9a 82 2a 3f 93 1c a0 be e2 c6 57 3f b5 ac 62 3f
       0.6660553 -0.312718 0.84287846 0.8854478
000390 52 60 12 be d8 5e 39 bf c6 f4 35 3f 61 45 54 3f
       -0.14294556 -0.72410345 0.7107662 0.82918364
0003a0 55 71 1e bf 3d 0c 6f bf 09 ad 18 3f d3 45 7d 3f
       -0.6189168 -0.9337805 0.5963903 0.9893467
0003b0 ed b1 aa be 7a 54 05 be f7 9a 99 bd 68 61 ae be
       -0.33338872 -0.13020507 -0.0750026 -0.3405869
0003c0 5c cb d1 3f 75 3e 10 3f 98 c6 21 be 91 63 f7 3f
       1.6390185 0.563453 -0.15798414 1.932726
0003d0 d1 7a 5e bd e8 a5 72 bf bd 3e 82 bd be dc ed be
       -0.054316346 -0.947844 -0.06359623 -0.46457475
0003e0 23 f6 93 bf 1e 86 0b 3e 9c b8 d2 bd 61 ec 34 bf
       -1.155949 0.1362538 -0.10289118 -0.70673186
0003f0 46 6f 83 3e ec 02 0b bf a6 cd 3e 3f 51 f5 b1 bd
       0.25670832 -0.54301333 0.74532545 -0.086893685

encoder.lstm.weight_hh_l0 f4 [128, 32]
000000 f7 55 87 be fe d0 1b 3f 23 32 fb 3e f6 fc e8 3e
       -0.26432773 0.6086577 0.4906169 0.45505494
000010 d3 a2 bf bc 9e c0 33 bd 1c de d1 bd c7 51 f0 3d
       -0.02339307 -0.043884866 -0.10247442 0.11734348
000020 3f 4f bd be e7 1b 91 be 58 06 d1 3c 01 7c ec bd
       -0.36974522 -0.283416 0.02551572 -0.11547089
000030 e5 64 01 3f 90 45 25 3f c2 b7 59 3e f5 6f b1 3e
       0.5054458 0.6455927 0.21261504 0.3465573
000040 ac 31 f9 bd a6 5b 48 be 00 9a ca be 91 97 b7 be
       -0.12167677 -0.19566211 -0.39570618 -0.35857823
000050 f2 47 cc be cf 1a cd 3e c1 b8 8b 3e c6 65 c6 be
       -0.3989864 0.40059516 0.27289394 -0.38749522
000060 1e 2e 11 3f 1d 44 30 3f 91 ee 1a bf 75 bc 89 be
       0.56710994 0.6885393 -0.60520273 -0.26901594
000070 2a f3 39 bf 7c eb b6 3b e2 48 0c 3f b1 cc a8 39
       -0.72636664 0.005582271 0.5479871 0.00032195964
000080 14 11 36 be 9d 4e a0 3e fc 91 2d 3e 95 37 c3 be
       -0.17779952 0.31309977 0.1695022 -0.38128343
000090 e7 10 a0 be 4e b1 23 3c cd 26 85 be ab f3 12 be
       -0.31262895 0.009991003 -0.26006165 -0.14350764
0000a0 dc 3d 74 3e 9d f9 d4 3d 16 a5 2e bd a9 4a d8 3e
       0.23851722 0.103991725 -0.042637907 0.4224446
0000b0 d4 e1 e6 3e 61 18 e1 be d9 82 cd bd 81 26 b7 3e
       0.45094168 -0.43963912 -0.10034723 0.35771564
0000c0 db 06 01 be 12 0f 79 3f bf 98 d9 bd 43 19 2f 3f
       -0.12600271 0.9728862 -0.10624837 0.6839792
0000d0 d0 86 8a 3e 1a fe 1d 3e 4e 7f f2 be 72 ac 3c 3c
       0.2705598 0.15428963 -0.4736275 0.011515724
0000e0 e2 45 59 bf 9e 6f 31 3e bd 48 53 3e a9 fc c1 3c
       -0.8487226 0.17327735 0.20633216 0.023680048
0000f0 67 ff e2 be 39 02 fc be 6e 66 da 3d 17 c6 1d 3f
       -0.44335482 -0.49220446 0.10664068 0.61630386
000100 b1 79 55 3d fa c8 1c 3f 74 1d a0 3e 5d 34 ca bd
       0.052118007 0.61244166 0.3127247 -0.09873269
000110 cf c8 d2 3d 8f 9b a2 3e d9 77 b6 be 8a 82 29 bf
       0.102922074 0.31759307 -0.35638312 -0.6621481
000120 bf 41 0d be 65 01 85 be a2 1b 8b be 45 27 67 3f
       -0.13794611 -0.25977626 -0.2716952 0.90294296
000130 26 c2 f9 3c 28 07 1d bf 83 68 a8 3e e2 60 8a bd
       0.030488085 -0.61339045 0.32892236 -0.0675676
000140 74 68 09 3f 98 d2 15 3f e7 48 51 be 59 21 10 3f
       0.5367501 0.58524466 -0.20437966 0.56300884
000150 4a 2c 00 be fa a7 cf 3e 30 9a 26 bf c7 14 1d bf
       -0.12516895 0.40557843 -0.6507902 -0.6135983
000160 4b 81 94 3d 0a d5 0e bf c3 c3 f0 3d 27 6a 70 3f
       0.07251223 -0.5579382 0.117560886 0.93911976
000170 85 f5 b8 bd 12 d5 73 bf d8 46 93 3d 7f 81 56 3e
       -0.09031204 -0.95246994 0.07191247 0.20947836
000180 38 fc 6e 3f 9b 21 4c bc fa 36 cf 3e 74 6e 87 bf
       0.93353605 -0.012459184 0.4047163 -1.0580583
000190 80 61 22 3d fe f8 ca be 65 27 26 bf 94 69 45 3e
       0.039643764 -0.3964309 -0.6490386 0.19278556
0001a0 96 fd 18 3f 6d 28 4f be 63 3b bd 3d 9f 99 88 be
       0.5976194 -0.20230265 0.09239843 -0.26679704
0001b0 29 0e c2 3e a7 07 1f bf 0a 3d 49 bf 3c fd cc be
       0.37901428 -0.6212105 -0.78608763 -0.40036952
0001c0 d1 37 3c be b6 6f 05 3d 19 80 2b bd f7 8e 79 3f
       -0.18380667 0.03257724 -0.04187021 0.9748377
0001d0 f9 5a 83 3e 21 49 3d 3f 56 33 16 bf 3a c4 53 bf
       0.25655344 0.7393971 -0.5867208 -0.8272129
0001e0 ae ba 91 3e e7 13 e7 be 2c fc 2e 3f c2 cb 14 3e
       0.28462738 -0.45132372 0.68353534 0.14530852
0001f0 02 f1 6a bf 3d ab 12 bf 28 db db 3e e4 71 5d 3d
       -0.91774 -0.5729254 0.4294064 0.054063693
000200 aa 7f 56 3f 32 b9 0d 3b ca 5d 12 3f 67 e3 5a be
       0.8378855 0.0021625278 0.5717436 -0.2137581
000210 2d f2 56 be 4c f9 f8 3e be c1 bb 3d 29 cb a0 be
       -0.2099082 0.48627698 0.09167813 -0.31405
000220 07 39 b8 3d 44 16 d3 bd ba 60 7d be dd 67 82 3e
       0.08995252 -0.10306981 -0.2474393 0.25469866
000230 7d ef 88 3e 3e 17 85 be a6 b8 53 3e 32 b4 43 3f
       0.26745215 -0.25994295 0.20675907 0.7644683
000240 c6 40 11 bf 04 90 1c 3d 0a 5d 84 be 5b fc 67 be
       -0.5673946 0.03822328 -0.25852233 -0.2265486
000250 31 12 cd 3e 4a 77 92 3e b2 1b 44 bd 05 0c 4e 3f
       0.4005294 0.28606635 -0.047877975 0.8048709
000260 09 f4 b6 3e 84 26 63 be 83 83 de 3e 71 2a dc bc
       0.3573306 -0.22182661 0.4345971 -0.026875706
000270 54 6e e9 bc 82 c6 9e be f8 1c e8 bd 1c 88 f3 be
       -0.028494991 -0.31010824 -0.1133365 -0.4756478
000280 08 2b 34 bf 6f 07 50 bf 02 36 1e bf 75 ee e5 bd
       -0.7037816 -0.8126134 -0.6180116 -0.11227123
000290 ec 62 db bc 5d 99 5e bf e1 77 19 bf 7a 66 08 3f
       -0.026780568 -0.86952764 -0.59948546 0.53281367
0002a0 63 53 cc 3d 72 b2 54 3f 41 6a b3 3d 5f 93 8c bd
       0.09976842 0.83084786 0.08760501 -0.06864046
0002b0 28 89 80 3e 2a 03 5f bf e4 a1 03 be 72 08 13 be
       0.25104642 -0.871142 -0.12854725 -0.1435869
0002c0 2f f7 0f 3e e7 d2 1c 3e 95 de ea 3e a2 6f 10 bf
       0.14059137 0.15314828 0.45872942 -0.5642034
0002d0 a0 45 77 be fc 86 63 3e 76 aa 18 3e d2 88 3e bf
       -0.24147654 0.22219461 0.14908776 -0.7442752
0002e0 d6 04 08 bf 66 98 08 bf 14 58 f8 3e 6c 73 33 3e
       -0.5313238 -0.5335754 0.48504698 0.17524499
0002f0 6a 76 50 be 76 2b 13 3e a9 21 1b be 6a f6 9a 3e
       -0.20357671 0.14372048 -0.15149559 0.30266124
000300 30 41 94 bd 8e 4a bf 3e b8 ef a5 bd cd a9 99 bd
       -0.07238996 0.37361568 -0.08102363 -0.0750309
000310 db fc fc be 4a 6d 9c 3e 0b 9d 41 3e 8c 9a c9 be
       -0.49411663 0.3055213 0.18907563 -0.39375722
000320 ba 12 39 be f3 90 d8 3e 46 e0 95 be 33 b8 75 bd
       -0.1807355 0.42298087 -0.2927267 -0.05999012
000330 7b 70 45 bf 1b 46 79 be c8 ac 9b bb 7b 48 27 3f
       -0.77124757 -0.2434315 -0.0047508217 0.6534497
000340 6f 2f db bd 8b 41 73 3e ef c5 46 be 07 41 42 3f
       -0.107024066 0.23755471 -0.19411443 0.75880474
000350 96 d7 f0 be a4 cd 43 3e 62 ec d7 3e ce b7 09 3f
       -0.4703948 0.19121414 0.42172533 0.5379609
000360 76 0b 1f 3e 04 06 c6 be ba 23 d1 be b5 f9 9d 3e
       0.15531716 -0.38676465 -0.4084757 0.30854574
000370 d4 0d a0 be 4a fe a2 bf 34 e1 1f 3e ba 2e a8 be
       -0.3126055 -1.2733853 0.15613252 -0.3284815
000380 b1 f7 fd 3e 4f 08 19 bf e9 1a b0 be 7a f4 45 3f
       0.49603036 -0.597783 -0.3439553 0.77326167
000390 a4 e5 0c 3f 9f 75 0a be ff 9d 33 3d 20 a2 ff 3e
       0.55037904 -0.13521431 0.04385185 0.4992838
0003a0 53 5f 17 be b6 16 29 3f 8b 90 37 3d aa 25 e5 3e
       -0.14782457 0.6605028 0.04481558 0.44755298
0003b0 f0 30 0d bf 24 e2 dd bd f0 5f e5 be 1e 7c aa 3e
       -0.551528 -0.108341485 -0.44799757 0.3329782
0003c0 82 54 b8 3e 4c f8 1f bf d6 a4 74 bd e7 c1 a8 be
       0.36001974 -0.62488246 -0.059727512 -0.32960436
0003d0 2e d7 9e 3e dc 77 d1 be 95 4e 3f 3f 6b b4 36 bf
       0.31023544 -0.40911758 0.7472928 -0.71369046
0003e0 e2 8e f5 be dd 11 97 3e 23 00 7f be 50 2a 4b bf
       -0.47960573 0.29505816 -0.24902396 -0.7936144
0003f0 c8 4c 1f 3f 3d 2c 4a 3f 42 58 e1 be f9 c8 42 be
       0.62226534 0.7897375 -0.44012648 -0.19021977

encoder.lstm.bias_ih_l0 f4 [128]
000000 f8 d3 b7 3d d0 22 4d be 76 e7 1b bf d3 df 05 bf
       0.08975977 -0.20032811 -0.60900056 -0.52294654
000010 c8 01 14 bf 55 44 af 3d c5 2f 46 3c a7 29 08 3e
       -0.5781522 0.08557955 0.01209635 0.13297139
000020 82 8f 12 be 43 d3 9c 3e f4 ef 34 be 95 89 ad 3e
       -0.14312556 0.3062993 -0.1766966 0.3389403
000030 fd 53 65 be 2f 7d 1a be fa 07 9e 3e 11 c3 c0 3d
       -0.2239532 -0.15086816 0.3086546 0.09412206
000040 92 d7 5e be 88 0a ea 3e a6 7b bd 3e d2 ab 0c 3c
       -0.21761921 0.4571116 0.370084 0.008585887
000050 01 96 c4 be 5f 7f 2d 3e e1 b6 89 3c 2d b4 b3 3d
       -0.38395694 0.1694312 0.016810836 0.087746
000060 1b bf c5 3d 30 3e 50 be e9 10 da bd 58 93 72 3e
       0.09655591 -0.20336223 -0.106477566 0.2368902
000070 f7 93 96 3f 6f 22 94 3e 0a f1 b9 be 84 46 28 bc
       1.1763905 0.2893252 -0.3631671 -0.0102707185
000080 91 b7 ed 3d e7 57 25 bf 65 13 c5 bd 43 b5 88 be
       0.11607278 -0.64587253 -0.0962284 -0.26700792
000090 34 1f 4f be 01 a7 32 3e 29 56 41 bc 01 32 93 bd
       -0.20226747 0.1744652 -0.011800327 -0.07187272
0000a0 ce 12 b2 be 56 94 dc bd 09 de f9 3d e3 db 93 3e
       -0.34779972 -0.1077048 0.12200553 0.28878698
0000b0 84 06 d3 3d 87 1f 9e be ed 47 e8 3d e6 ef 16 3e
       0.10303977 -0.30883428 0.11341844 0.14739951
0000c0 6e 93 ac bd ad f1 a1 bd 54 a7 a2 3c 46 eb a6 3d
       -0.084265575 -0.07907424 0.019855179 0.081503436
0000d0 b6 95 7a 3d be 9d fa bd cb f2 8e be a1 2e 81 be
       0.06117793 -0.12237118 -0.2791961 -0.25230888
0000e0 9a c4 ce 3e 24 47 7c bd b9 f3 7b 3d ae 96 2b bf
       0.4038437 -0.061591282 0.06151173 -0.67026794
0000f0 de 5b 1d 3f 2f cd 17 bf 19 10 fd be 41 e3 6d 3e
       0.61468303 -0.5929746 -0.49426344 0.23231222
000100 aa 19 3c be 86 80 6d 3d 94 04 5a be b2 63 3a 3e
       -0.18369165 0.057983898 -0.21290809 0.18202093
000110 86 4c 0a 3e 87 10 b8 be 88 be e9 3d 4d 28 34 3e
       0.13505754 -0.3595011 0.11413294 0.17593499
000120 2c 80 90 3c 62 56 7d be 62 f8 88 3d 43 64 37 bf
       0.017639242 -0.24739984 0.06688 -0.7163736
000130 c8 0c 52 be 04 f6 c7 3d af ce 51 be 33 a8 35 be
       -0.20512688 0.09763721 -0.20489 -0.17739944
000140 67 cb 64 3e 00 f4 91 be cb 7f 1a 3e 3a 2e 47 be
       0.22343217 -0.2850647 0.15087812 -0.19451228
000150 10 a4 d3 3d c8 f9 94 3d 4f 03 bd bc f7 1e de be
       0.10334027 0.072742045 -0.023072867 -0.43383
000160 dd ec 3f 3e 0c da c0 bd 06 c3 d9 3e af b2 b5 be
       0.187427 -0.09416589 0.42531604 -0.35487887
000170 c3 36 95 3e 88 f3 ac 3e 11 39 52 be 8d c5 80 3e
       0.29143342 0.3377955 -0.20529582 0.2515072
000180 6d 2f 00 3f 44 9c 5f be c8 50 e2 be 73 f2 6a be
       0.50072366 -0.21836954 -0.44202256 -0.2294405
000190 3f 31 09 bf cb 26 e3 3c 78 e6 76 3e 3d 4e a3 3e
       -0.5359077 0.027728459 0.24111354 0.3189563
0001a0 7b a2 54 be d0 d2 43 bd 4d c3 81 3c 8d f9 25 3c
       -0.20765106 -0.04780847 0.015840197 0.010130298
0001b0 a9 da 3c 3e 10 3c 13 be a7 ab cb 3e e4 40 a0 be
       0.18442787 -0.14378381 0.39779398 -0.31299508
0001c0 72 81 59 be 42 3f 8f 3e 52 f9 4e be 8f 1a d7 3d
       -0.21240786 0.2797795 -0.20212296 0.105031125
0001d0 4a ad 1a be 8b 38 ac bb b0 9c 60 3e c2 98 49 3e
       -0.15105167 -0.005255764 0.21934772 0.19687179
0001e0 ef a5 ba 3d 55 64 8e 3c 1b 09 02 bb b3 b9 f7 3d
       0.091136806 0.017381826 -0.0019841853 0.12095966
0001f0 ae e5 58 bd 20 13 7d 3e 60 f3 2a bf 0f 56 b6 3e
       -0.052953415 0.24714327 -0.6677761 0.35612532

encoder.lstm.bias_hh_l0 f4 [128]
000000 26 8f c0 3d a2 33 4d be 92 e2 1b bf c9 35 07 bf
       0.094023034 -0.20039228 -0.60892594 -0.52816445
000010 77 a5 14 bf 01 8d ad 3d 15 11 8e 3c 6b a2 0d 3e
       -0.5806498 0.0847416 0.01734213 0.13831489
000020 ce e4 13 be 4f 73 9d 3e 2c 7a 30 be e7 5f b0 3e
       -0.14442751 0.30752036 -0.17234105 0.34448168
000030 91 44 63 be 28 a6 1c be 3e 43 9f 3e b8 62 c6 3d
       -0.22194125 -0.15297759 0.3110599 0.09686798
000040 e8 2c 61 be c7 b0 ea 3e 77 38 bf 3e 0d c8 36 3c
       -0.21989787 0.45837995 0.37347767 0.011156094
000050 db 7a c4 be 64 06 2f 3e b7 4a 8c 3c 92 3d b7 3d
       -0.3837498 0.17092282 0.01712547 0.089472905
000060 e5 6d cd 3d b6 b4 4d be 60 aa d8 bd 44 e4 71 3e
       0.10030726 -0.20088467 -0.105793715 0.23622233
000070 6f c6 96 3f b1 1a 94 3e 16 ee b9 be 8c de 55 bc
       1.1779307 0.28926614 -0.36314458 -0.013053548
000080 0f 0a f9 3d eb bb 25 bf 4d d1 c9 bd 16 86 89 be
       0.12160122 -0.64739865 -0.09854374 -0.26860112
000090 5d 81 4a be f1 d7 33 3e 57 dc 5f bc 38 b1 92 bd
       -0.1977591 0.17562844 -0.013663373 -0.07162708
0000a0 b5 e9 b4 be 1d 49 e1 bd f0 6b f2 3d 76 ed 93 3e
       -0.35334554 -0.110002734 0.11836994 0.28892106
0000b0 31 53 d9 3d 8a 32 9c be d3 65 ee 3d 20 05 17 3e
       0.106115706 -0.30507308 0.11640515 0.14748049
0000c0 5f 37 a9 bd 0d 82 a0 bd d9 1a 99 3c 67 99 a2 3d
       -0.08262514 -0.07837305 0.01868956 0.079394154
0000d0 03 64 7e 3d 53 ae f4 bd 29 6d 8e be 84 f3 7d be
       0.062107097 -0.11947312 -0.27817658 -0.24799925
0000e0 36 6c d1 3e 2f 6e 80 bd cb 50 64 3d bb ef 2b bf
       0.4090287 -0.06271016 0.055741113 -0.67162675
0000f0 79 82 1e 3f a6 36 18 bf 78 05 ff be 04 a2 6c 3e
       0.61917835 -0.59458387 -0.4980886 0.23108679
000100 c7 1a 3d be 37 0c 62 3d ef 36 59 be a7 10 38 3e
       -0.18467246 0.05518743 -0.21212362 0.17975102
000110 4e 81 0f 3e 75 2e b6 be 81 73 e6 3d 28 80 37 3e
       0.1401417 -0.3558232 0.11252499 0.17919981
000120 49 86 8c 3c 6b 62 7a be 10 1d 86 3d 22 47 36 bf
       0.017153876 -0.24451606 0.06548512 -0.7120229
000130 c9 a7 52 be 6c 67 ce 3d 9f 4b 52 be c3 64 37 be
       -0.20571817 0.1007832 -0.2053666 -0.17909531
000140 0a 25 67 3e e1 78 92 be 5a a3 19 3e 62 3a 48 be
       0.22572723 -0.28607848 0.1500372 -0.19553521
000150 30 31 da 3d 3c 9b 98 3d 61 9f c7 bc 36 f9 dc be
       0.10653913 0.074514836 -0.02436799 -0.43158883
000160 5a 0d 41 3e 33 dd bf bd a8 b5 d7 3e de d6 b5 be
       0.1885275 -0.09368362 0.4213078 -0.35515493
000170 e1 c9 96 3e 94 94 ab 3e b9 9d 52 be 0c 06 81 3e
       0.29450896 0.33511794 -0.20567979 0.25199926
000180 cf 63 00 3f 41 16 5d be 3c 03 e3 be c1 7d 6b be
       0.50152296 -0.2159052 -0.44338405 -0.2299719
000190 82 03 08 bf 12 4f ee 3c c5 77 74 3e ab d3 a5 3e
       -0.5313035 0.029090438 0.23873813 0.32388052
0001a0 75 7a 53 be 82 e4 3a bd 23 a0 66 3c af 07 54 3c
       -0.20652182 -0.04562808 0.0140762655 0.012941285
0001b0 b8 b9 37 3e 1f af 10 be 04 74 cb 3e ae 49 9e be
       0.1794194 -0.14129303 0.3973695 -0.30915588
0001c0 fa 78 5d be 11 7e 8c 3e e0 90 4b be f2 18 d6 3d
       -0.2162818 0.2743993 -0.19879484 0.10453977
0001d0 3d c9 15 be 0a b8 7e bb f6 04 5f 3e ff e5 4a 3e
       -0.14627548 -0.003886702 0.21779236 0.19814299
0001e0 e3 d5 b1 3d f2 fa c0 3c c9 35 55 39 3a 5b fc 3d
       0.08683374 0.02355716 0.000203333 0.123220876
0001f0 66 d7 6a bd be a0 7c 3e 75 56 2b bf 54 52 b6 3e
       -0.057334326 0.24670693 -0.669288 0.35609686

encoder.lstm.weight_ih_l1 f4 [128, 32]
000000 94 3f 9f 3e 19 ce c7 be b2 7b 10 3e a7 2d 47 3e
       0.31103194 -0.39024428 0.14109686 0.19451009
000010 54 96 59 be d1 f8 8c be 03 8d 4e be 39 f9 02 3e
       -0.21248752 -0.27533582 -0.20170979 0.12790383
000020 00 2e db 3e f5 ae 34 3f 68 dd 10 3f aa c7 09 bf
       0.42808533 0.70579463 0.5658784 -0.5382029
000030 ac fb 19 be bd b1 9a be 22 4d 85 3e d9 12 84 bc
       -0.15037411 -0.3021373 0.2603541 -0.016122269
000040 7c f3 04 3f d8 79 d5 be e6 f8 2f 3f 3a fd 54 be
       0.5193403 -0.41694522 0.68739164 -0.20799723
000050 19 2f b6 be 4d a1 2c be a8 aa af 3c 2d 65 59 3e
       -0.35582808 -0.16858406 0.02144368 0.21230002
000060 3f 5a 04 bf 67 a8 2c 3d 9f d3 89 be 84 16 fd bd
       -0.51700205 0.04215279 -0.26919267 -0.1235781
000070 55 62 45 3f 6d dc 23 3e d5 72 c3 be c8 7d 0b 3d
       0.7710317 0.16002055 -0.38173547 0.0340555
000080 22 51 be be da 52 1e 3f 25 8b 1d b9 11 da 6c bf
       -0.37171274 0.6184517 -0.00015024522 -0.9252024
000090 7d 8d 8d 3d aa db 53 3e 37 a4 05 3f cf db 0d bf
       0.069117524 0.20689264 0.52203697 -0.55413526
0000a0 61 26 2b be 3b 59 d9 be 9c 7b 64 3f 61 b4 6c bf
       -0.16713859 -0.4245089 0.8925111 -0.92462736
0000b0 2f d8 95 be f6 a1 8e 3e b3 31 a7 3e 33 90 3a bb
       -0.29266497 0.2785794 0.32655105 -0.0028467297
0000c0 c0 61 02 3d ec 57 b5 3e db 5a 31 3f b6 4e 03 bf
       0.031831503 0.35418642 0.6927926 -0.5129198
0000d0 c6 7b a0 3e f4 7a 44 be 4a 9d 6e bd ea c1 be 3e
       0.31344432 -0.19187528 -0.05825547 0.3725732
0000e0 71 ad 5c 3e 2b b6 b4 3f f8 dc db be 89 ce 9e bd
       0.21550538 1.4118093 -0.42942023 -0.07754237
0000f0 ab 93 b8 3d e9 50 d4 be 83 58 88 bf da 38 db bd
       0.090125404 -0.4146798 -1.0652012 -0.10704203
000100 e1 e4 7f bf 4a 8c 3a 3f 55 b3 e4 3e 15 dd 89 3f
       -0.99958616 0.72870314 0.4466807 1.0770594
000110 74 47 35 bd 05 71 13 3f 56 7c 60 be 93 44 03 bf
       -0.044257596 0.5759433 -0.2192243 -0.5127651
000120 ed 8e 53 bf 10 c9 01 3e c8 55 93 be 61 a1 df 3d
       -0.8263996 0.12674356 -0.28776383 0.109194525
000130 1d e0 ea be 1b 09 04 3f b4 0a 27 bf 3e 4e ad 3f
       -0.4587411 0.51576394 -0.65250707 1.3539503
000140 e5 28 18 3d a6 17 22 3f a3 50 e0 3d 18 54 8f 3d
       0.037148375 0.63317335 0.1095288 0.069984615
000150 e8 87 82 bd c0 55 a1 be fc 4c e1 3e 14 2e 9b 3d
       -0.06373578 -0.31510735 0.44004047 0.07577148
000160 73 73 da bd f7 46 77 3f 11 38 e1 be e3 b9 b2 3e
       -0.106665514 0.9659266 -0.43988088 0.34907445
000170 7c 1a 57 3e 20 39 c7 be 7a 7e 04 bf e1 47 58 bf
       0.21006197 -0.3891077 -0.5175549 -0.8448468
000180 86 db e2 3e e9 2c 4a bd 02 fd f9 bd 0f e6 7b bd
       0.44308108 -0.049359236 -0.122064605 -0.061498698
000190 dc 64 fd 3d 96 1e d1 be 1d a3 5d be 4e d6 d1 3e
       0.12372753 -0.40843648 -0.21644254 0.40983814
0001a0 11 d7 99 be 10 0e be bd a5 37 3e 3f 1d 2e a4 bf
       -0.30046895 -0.09280026 0.74303657 -1.2826573
0001b0 8a f7 7f bf ac e6 99 3f 1e 28 63 3e 9e ac 23 3f
       -0.9998709 1.202352 0.22183272 0.6393527
0001c0 b8 84 fc be 89 43 e0 3d 14 d9 e0 3e b3 0a 45 bf
       -0.49320006 0.10950381 0.43915617 -0.7696945
0001d0 ad 1d 69 be ab cc a4 be 14 2e 7f bf 62 6c 89 be
       -0.22765227 -0.321874 -0.99679685 -0.26840502
0001e0 ab 79 fd be 28 67 6b 3f 16 1f b3 3e 4f ad a7 be
       -0.49506888 0.9195428 0.34984654 -0.3274941
0001f0 f8 48 96 be 6d 57 2f 3f f3 d2 b2 3e d7 24 85 bd
       -0.29352546 0.68492776 0.34926566 -0.06501167
000200 fb 3c 90 be 28 83 e8 3e 13 02 a7 3d 12 b2 cf 3d
       -0.28171524 0.45412564 0.081546925 0.10141386
000210 ce cd 62 be 54 62 1f 3e ed f6 96 3d 25 b1 c4 3d
       -0.22148821 0.15564853 0.07371316 0.096041
000220 30 29 0c be 3b ef 99 3e 77 3e 97 3e fe 2f f7 3d
       -0.13687587 0.3006533 0.29539844 0.12069701
000230 0c 7e ae 3f dc d4 0e bf de 2a 1f bf b7 c8 cd be
       1.3632216 -0.5579355 -0.62174785 -0.40192196
000240 88 0a 1b 3f 22 bb dc be ee 4e 8e 3e be 84 ab 3f
       0.60562944 -0.4311152 0.27794594 1.3399885
000250 aa ea cb be 72 27 9b 3d 90 89 ba be 36 d1 67 bd
       -0.39827472 0.07575883 -0.36433077 -0.056596003
000260 8a ca c7 3e 7c 0f d0 be 87 fe d7 3e e8 72 93 3b
       0.39021713 -0.40636814 0.42186376 0.004499782
000270 e2 f8 02 bf 9f 8c 5e bd f8 b4 54 3f 93 c8 fa 3e
       -0.51161015 -0.054333325 0.83088636 0.4898115
000280 8b c3 b0 3e bd a1 be 3e 4e aa df 3d 4a 15 3c 3f
       0.34524187 0.37232772 0.10921155 0.73469985
000290 eb a6 79 be a8 69 66 3f 96 4b 92 bd fb 4d 8e be
       -0.2438008 0.9000497 -0.07143323 -0.2779387
0002a0 d8 0f 37 3e cf bc 03 3e 39 25 c1 be 1b 4d 2a 3e
       0.17877138 0.12864994 -0.3772371 0.16630976
0002b0 80 a6 04 bf fb a9 ce be db e1 23 3e 0d ee c5 be
       -0.5181656 -0.4036406 0.16004126 -0.3865818
0002c0 01 9f 25 3e 35 77 e4 be 31 3f ff bd cf 15 b8 3f
       0.16173936 -0.44622198 -0.12463225 1.4381655
0002d0 f8 2a 7c bf e8 f2 9b 3e 57 e6 0b bf 6e 4d 09 bf
       -0.98503065 0.3045876 -0.54648346 -0.53633773
0002e0 9e 1a 2f bf a7 a8 7f be f4 68 34 bf 45 24 10 3f
       -0.6839999 -0.2496668 -0.70472646 0.5630534
0002f0 f0 a6 99 3e aa b2 81 be 3b ef c3 be 54 28 e0 be
       0.30010176 -0.25331622 -0.38268456 -0.43780768
000300 dd 9f 14 3f ae 15 35 bf 50 71 9e 3d 3f 58 c1 bd
       0.5805643 -0.70736206 0.077364564 -0.0944066
000310 63 44 88 be 1b bc 57 be 07 6a 94 3f 07 97 de bd
       -0.26614675 -0.2106785 1.1594857 -0.1086865
000320 ac ca 41 be 25 7e dc 3d f9 0d a3 3e 9e d3 01 3e
       -0.1892497 0.10766248 0.31846598 0.12678382
000330 0d 52 ff 3e 84 a1 5a bf ab c9 d5 3c 10 3a 7d 3f
       0.49867287 -0.85402703 0.02609714 0.9891672
000340 95 16 a1 3d b5 33 4b 3e 12 8a 00 3e d7 e7 88 be
       0.07865635 0.19843943 0.1255267 -0.2673938
000350 59 6b 4c 3e 3b ea 4c bd 70 aa 43 bf 55 4d 19 bb
       0.19962825 -0.050028067 -0.7643194 -0.002339204
000360 db 69 e3 be f4 fe 9c bd 8a ff 1f be f9 01 b4 3e
       -0.444167 -0.07665816 -0.15624824 0.35157755
000370 6b f1 5c be fa a9 c1 bd 79 2b 31 be 10 6c 34 bf
       -0.21576469 -0.094562486 -0.1730174 -0.7047739
000380 0c d7 7f be 09 f9 8c 3d e4 3e 7d be f1 08 d3 3e
       -0.24984378 0.06883437 -0.24731022 0.4121776
000390 ef 78 cc 3c 5f 1e cf be 09 6d 92 bf e0 4d 62 bf
       0.02496001 -0.4045286 -1.1439525 -0.8840008
0003a0 ee c6 57 bf 37 c0 37 be d0 8c 41 be 92 ce ba bd
       -0.8428792 -0.17944418 -0.18901372 -0.091214314
0003b0 83 85 01 3e 1c a3 e2 be dc 0d 11 3e 72 93 c0 be
       0.12648587 -0.44265068 0.14165443 -0.37612492
0003c0 4f 95 eb be 6a 6c 37 3f 8d dd c1 3e 6f 83 0c be
       -0.4601235 0.716498 0.37864342 -0.13722013
0003d0 8a 3b 3c 3e d8 f2 78 be 9e cb 78 be 46 5d 4b be
       0.18382087 -0.24311388 -0.24296424 -0.198598
0003e0 87 67 b4 3c c1 1f aa be a9 26 9f be 73 eb cc 3e
       0.022022022 -0.3322735 -0.31084183 0.40023383
0003f0 df b3 26 3e 13 eb 9e 3e bd 5c 12 bf 54 db 9b be
       0.16279553 0.31038722 -0.5717276 -0.30440772

encoder.lstm.weight_hh_l1 f4 [128, 32]
000000 86 a1 ae bf b7 53 61 3e 9c 14 a3 bd 39 81 e5 be
       -1.3643043 0.22004591 -0.07962915 -0.44825152
000010 48 0e 35 3e 51 bc 14 3f 38 f8 1e bf 5b 6e 8c 3e
       0.17681229 0.5809985 -0.620975 0.27427945
000020 71 37 cc be d4 e6 41 bf ad 66 65 3e e6 50 7b 3e
       -0.39886048 -0.7574284 0.22402449 0.24542579
000030 c1 b1 b2 bd ce 6b 91 3e 87 14 92 bd 2b b4 91 be
       -0.0872531 0.2840256 -0.071328215 -0.2845777
000040 32 7d 9a 3e f0 08 81 be 3a d3 a5 bd 80 0b a6 bd
       0.3017364 -0.2520213 -0.08096929 -0.08107662
000050 f5 70 9a be 05 10 21 3f 2c 3b d8 3d 0e bd 0f 3f
       -0.30164304 0.6291507 0.10558161 0.5614785
000060 0d 87 26 be fa 72 4b bf 88 0c f1 bd c4 ab d6 be
       -0.16262455 -0.79472315 -0.11769968 -0.41927922
000070 2f 87 2c bf 59 80 a3 bd 71 61 74 3d d4 1f 83 be
       -0.67393774 -0.07983465 0.05966324 -0.2561022
000080 64 3e b3 bf c9 8b 2a bf 3c 10 92 3e da c1 35 bf
       -1.4003415 -0.66619545 0.2852801 -0.7099892
000090 a1 38 26 bf 06 8a e2 be 71 d5 9d be 7b 11 31 bf
       -0.6493016 -0.4424593 -0.30826905 -0.691673
0000a0 2f af 79 be 4e 44 fd bd ae 7f 81 bd 31 c4 c7 be
       -0.24383233 -0.12366544 -0.06323181 -0.3901687
0000b0 82 60 54 be 17 4a 1c 3e 6d 32 90 be 11 39 51 bd
       -0.2073994 0.15262638 -0.28163472 -0.051079813
0000c0 1d 7f dc be e7 35 94 3f fc 7b 94 be ff 66 2f 3f
       -0.4306573 1.157895 -0.29000843 0.68516535
0000d0 6f f9 79 3e fd 6b 6f bf 86 1f 8e 3e 21 1d 19 be
       0.24411558 -0.9352415 0.27758425 -0.14952518
0000e0 84 96 94 3f f7 81 93 bf ca 11 ed be a2 57 6a bf
       1.1608434 -1.1524037 -0.46302634 -0.9153997
0000f0 b2 ca 5b bd 50 90 a8 bc c6 56 15 bf 1e 0f 27 3e
       -0.053660102 -0.020576626 -0.5833553 0.1631436
000100 ca 65 a8 3e 46 4a 97 3f 2b 9d 10 bf d5 34 33 bf
       0.3289016 1.1819541 -0.5648982 -0.7000249
000110 af f1 0a 3f ae 51 4f 3f 07 59 a2 be 12 bd 52 bf
       0.5427503 0.8098401 -0.31708547 -0.8231975
000120 55 47 93 3e 7f a0 a3 3e dc e3 aa be 9b ef 1d 3f
       0.2876536 0.31958386 -0.33376968 0.61693734
000130 84 71 82 3e f0 c2 fb 3e 11 a3 50 3f 27 f9 64 bf
       0.2547723 0.49172163 0.8149882 -0.89442676
000140 4c ad 09 3e b0 e6 db 3e 89 28 9b be 6d 70 e8 3d
       0.13445014 0.42949438 -0.30304363 0.113495685
000150 59 6e 3f 3f b3 ea a2 3e 5d 8f 0c 3e 37 61 8d 3e
       0.7477775 0.31819686 0.13726564 0.27613232
000160 22 0e 2d 3f 2c cd c8 3d 13 57 b7 be 48 b8 89 3e
       0.6759969 0.098047584 -0.3580862 0.26898408
000170 8f 1f cd bd a6 a5 2b bf 54 a3 76 be 1c 14 cf be
       -0.10015785 -0.67049634 -0.24085742 -0.4044503
000180 3d 4c 28 bf 6f eb 45 3f 6a b8 4c 3f 7d 3b 05 bf
       -0.6574133 0.7731237 0.79968894 -0.52043897
000190 2b 61 b4 3e f8 d7 a7 bf cf 88 be 3d c9 ef 46 bf
       0.35230383 -1.3112783 0.09303438 -0.77709633
0001a0 c4 bf 8f 3e 52 11 be be 85 91 63 3e 82 6f 08 be
       0.28075993 -0.3712259 0.2222348 -0.13323787
0001b0 09 4c 81 3d fa 4d 87 bd 71 02 3b 3e a9 f6 3c bf
       0.06313331 -0.0660667 0.1826265 -0.73813874
0001c0 b7 70 9b bf e4 81 0f 3f 3f 67 07 bf 64 0f 7a 3d
       -1.2143773 0.5605757 -0.52891916 0.061049834
0001d0 e4 b9 85 be 9f 3c af bd cb 65 d4 bd 97 4f 5e 3f
       -0.26118386 -0.085564844 -0.10370978 0.86840194
0001e0 2a 47 79 be 65 f5 3d bf 78 b2 28 3f 15 22 38 be
       -0.24343553 -0.7420257 0.6589732 -0.17981751
0001f0 50 d8 83 bf 48 e4 be 3d 6c cb 1c 3f 64 ea 5d bd
       -1.0300388 0.09320885 0.612479 -0.05417861
000200 d7 1a c5 bd 36 d9 f8 3e 17 a1 d2 3e 07 fb 69 3f
       -0.0962426 0.4860322 0.41138527 0.9139866
000210 0a f7 cb be 89 14 d4 3d f6 37 09 3f e9 c4 d3 be
       -0.39836913 0.10355479 0.53601015 -0.41361168
000220 05 8c 91 bd de 30 02 bf 37 84 37 3f 85 82 14 3f
       -0.07106785 -0.50855815 0.7168612 0.58011657
000230 c4 8a 3b bf c4 a2 8b 3e 63 1c 24 3e 00 d1 f3 3e
       -0.73258615 0.27272618 0.16026454 0.47620392
000240 11 a3 19 bf 86 5d 12 3f 45 c3 c8 3d 82 15 3d 3e
       -0.60014445 0.57173955 0.0980287 0.18465236
000250 ea 6b 24 3f fa 54 ed 3e d8 f0 1b bf df a3 68 bf
       0.64227164 0.46353894 -0.60914373 -0.9087505
000260 b8 5d 45 be b1 0c 31 be 85 85 83 be a7 b5 34 3f
       -0.19274032 -0.17289998 -0.25687805 0.7058968
000270 cf 88 b4 3e 87 93 c7 3d 09 6c ec 3d 12 0d 23 bd
       0.35260627 0.097449355 0.115440436 -0.039807387
000280 c3 1a 5b be 7c e8 06 3e ce 36 53 3e db b9 94 be
       -0.21396928 0.13174623 0.20626375 -0.29048046
000290 55 4b 11 bf 97 75 24 3f f1 06 f3 3d e2 32 11 3f
       -0.5675557 0.6424193 0.11866558 0.56718266
0002a0 a2 5d 82 bf d6 f9 cd bc 10 d1 f0 ba bd ea 41 3d
       -1.0184824 -0.025143545 -0.0018372852 0.047343004
0002b0 7c 56 f4 3d 4a 4d db bd bc f3 bb be fc e0 17 3f
       0.11930558 -0.10708101 -0.36709392 0.59327674
0002c0 68 cf 1e 3e 74 bb 79 be 00 1d c3 3d 07 ec e5 3d
       0.15508807 -0.24387914 0.09527016 0.11226659
0002d0 14 31 7e 3e ef 04 82 be 5f 5d 67 bb ac 81 cc be
       0.2482341 -0.2539439 -0.0035303456 -0.39942682
0002e0 f7 50 03 bf 2b b8 23 3f 36 5a 1b bf 0f fd 58 3f
       -0.5129542 0.63952893 -0.60684526 0.84761137
0002f0 3d a3 8d be f6 46 a1 3e 0b d6 94 be 4e 91 15 3f
       -0.27663603 0.3149945 -0.29069552 0.5842484
000300 60 71 f6 be ca e1 d1 3e 1c 8b 76 3e f1 43 f6 3e
       -0.48133373 0.40992576 0.24076504 0.4809871
000310 9b 2b a5 3e ad 15 10 3f 76 c0 52 bf e3 aa a3 be
       0.3225983 0.56283075 -0.8232492 -0.31966314
000320 0b 00 86 3e da a0 eb 3e ae 45 aa bc fa 8a d6 bd
       0.26171908 0.46021158 -0.020785179 -0.104757264
000330 ea 2a 96 3d 70 06 78 3e 25 6f 37 be ba a4 88 3d
       0.07332404 0.24221206 -0.17913492 0.06672044
000340 53 15 1f 3f d0 cf 14 bf fb e7 88 3e e0 d1 6a 3f
       0.62141913 -0.58129597 0.26739487 0.91726494
000350 86 2d 93 3d 46 45 eb 3d af a7 8f be 9c b6 8f 3d
       0.07186417 0.11487822 -0.2805762 0.07017252
000360 b2 6b ac be e8 50 a0 3d a1 05 b8 be ce 06 e6 be
       -0.33675915 0.07827932 -0.35941795 -0.44927067
000370 02 f4 b1 be 51 31 bd 3e c2 11 2e 3f 88 e8 40 3d
       -0.34756476 0.36951688 0.67995846 0.04709676
000380 9d ea e9 be 81 c9 0d 3e 6d a1 0e 3f b8 a6 0a be
       -0.45686808 0.13846399 0.55715066 -0.1354016
000390 28 e0 28 3f fe 40 b2 3e 3d ff 9d be 62 eb d5 3e
       0.65967035 0.3481521 -0.30858794 0.41781145
0003a0 6b fe 33 3f 91 03 f5 3d 54 85 d2 3e c3 d4 7e be
       0.70310086 0.11963571 0.41117346 -0.2488585
0003b0 3d 9d bf 3e 97 4b 21 3f 64 85 72 3c 51 2c 3c bf
       0.3742465 0.63005966 0.014802311 -0.7350512
0003c0 68 44 01 bf 88 6e c6 bc 82 4a 65 3f db 88 7b 3e
       -0.50495005 -0.024222627 0.89566815 0.24563925
0003d0 9b 73 2e 3f c5 47 e8 3e 19 f8 8a be 6a ec af be
       0.6814515 0.45367256 -0.27142408 -0.34360057
0003e0 94 9d db 3d 5d 97 46 3e fe a2 10 3f 87 71 cc be
       0.10723415 0.19393678 0.56498706 -0.39930364
0003f0 d1 a4 de be 39 af 37 3e 64 1a 44 bf 82 55 ce be
       -0.4348512 0.17937936 -0.7660277 -0.40299612

encoder.lstm.bias_ih_l1 f4 [128]
000000 01 c6 46 3e 33 2f b4 3d e2 05 08 3e 4c 0e 04 3e
       0.1941147 0.08798065 0.13283494 0.12896079
000010 90 3e 5c 3e b0 31 cd be a0 2b b9 3d 60 59 cd 3e
       0.2150824 -0.4007697 0.09041524 0.4010725
000020 30 61 d1 bc 8e 4f f5 3d d3 ff c8 bd ca 77 3d bd
       -0.025559038 0.119780645 -0.098144196 -0.046256818
000030 08 9d 22 be d9 b3 5f be 7a 83 be 3e a6 75 2c 3e
       -0.15880215 -0.2184595 0.37209684 0.16841754
000040 01 f3 c1 bd 4a 66 20 3e e5 85 7a bd fb dc 7a be
       -0.094701774 0.1566402 -0.061162848 -0.2449836
000050 2b bf 8a bb 28 d6 bc be a7 ca a5 3e 7f 88 83 3e
       -0.004234215 -0.36882138 0.32381174 0.25690076
000060 b3 31 be 3d 4e 97 08 bd 86 ba 97 3e 9d dd b2 be
       0.09286823 -0.03334742 0.29634494 -0.34934703
000070 9a 8a d2 be 0f 5b a1 be fb c6 62 bd 01 db 92 3e
       -0.4112137 -0.31514785 -0.055365544 0.28682712
000080 0f 78 8a 3e b0 c7 b5 3d e2 09 02 bf 44 0c bd be
       0.27044722 0.08875978 -0.5079633 -0.3692342
000090 61 0f 40 be 23 0a 2d be b6 5a 94 bd 07 34 9a be
       -0.18755867 -0.16898398 -0.07243864 -0.3011782
0000a0 fe 39 1e be a7 64 95 be a0 ee 6d 3d 43 3b 0a be
       -0.1545181 -0.29178354 0.0580889 -0.13499169
0000b0 8c 79 6c bc 07 21 b7 be 55 eb e6 3e 2a 66 1d bc
       -0.014433276 -0.35767385 0.4510142 -0.009606877
0000c0 14 41 89 3c 5e 10 bc bc b0 c4 32 bf 6c f3 29 bf
       0.016754664 -0.022957023 -0.6983137 -0.6638706
0000d0 8d 87 ae 3e 07 3f 8d 3e 85 23 e0 3d dd 48 aa bd
       0.34087792 0.2758715 0.10944275 -0.08314679
0000e0 3c 81 d6 3d 53 c8 3e bf ab 72 04 be 7d 3e 0b 3f
       0.10473868 -0.7452442 -0.12934367 0.54392225
0000f0 58 ab 84 be e5 62 20 be 06 c3 51 3e d8 e0 a6 be
       -0.25911975 -0.15662725 0.20484552 -0.32593417
000100 08 d7 8e be cc 1e b3 b9 1b 98 cd 3b 47 98 4c be
       -0.2789843 -0.00034164486 0.006274236 -0.19979964
000110 63 68 1c 3f 0f 00 71 be 77 07 3c bd fa 33 ff 3d
       0.6109678 -0.23535179 -0.045905557 0.124610856
000120 b6 37 91 be 3c 93 9f bd d7 c1 c0 3c 33 98 ad be
       -0.28362817 -0.077917546 0.02352993 -0.3390518
000130 d7 a4 29 3d 78 c5 18 3d e2 03 05 be 2e 6c bd 3e
       0.04141697 0.037297696 -0.12989762 0.36996597
000140 cb c9 9f 3d f3 10 5b 3e aa 64 87 3e 21 a1 45 3e
       0.07802161 0.21393184 0.26443988 0.19299747
000150 96 de 35 be 39 ec 5d 3e 95 ed 3f 3e 93 ce a0 3e
       -0.17760691 0.21672143 0.18742974 0.31407604
000160 17 38 c1 3e 33 fc 7b be 54 85 7a 3d 68 f2 6b 3e
       0.37738106 -0.24607925 0.061162308 0.2304169
000170 73 49 a5 3d 59 0c c9 be 82 d7 13 be 83 d0 47 3d
       0.0807065 -0.39267233 -0.14437678 0.048782837
000180 91 53 bd bd 81 8d 10 bd b9 40 ec 3d b5 35 9d bd
       -0.09244455 -0.0352912 0.11535782 -0.076762594
000190 06 43 1a 3e ba a5 07 3e b5 21 4f 3e 68 69 1e 3e
       0.1506463 0.13246813 0.20227702 0.15469897
0001a0 5f 08 42 3e 75 0b b8 be ae 42 8d 3e 4d 45 b8 bd
       0.18948506 -0.3594624 0.27589935 -0.08997593
0001b0 ad 81 35 3e bb a2 b3 be f7 8c a3 be 43 e7 b4 3e
       0.17725249 -0.3508509 -0.31943485 0.3533269
0001c0 77 58 97 be 6b 3d 88 3e 27 99 dd bd 2f 5b 82 be
       -0.2955968 0.26609358 -0.10820227 -0.25460193
0001d0 b4 13 d3 3e f1 ff 16 3e 59 0e 03 3d 20 01 13 3e
       0.4122597 0.14746071 0.031996105 0.14355898
0001e0 f0 33 e6 3d 22 02 ec 3c ba 7d 74 3e 96 07 ef 3e
       0.11240375 0.02880961 0.23876086 0.46685475
0001f0 e5 82 62 be 51 03 96 bd 68 22 3b 3e 92 6d 5d 3e
       -0.22120245 -0.07324851 0.18274844 0.21623829

encoder.lstm.bias_hh_l1 f4 [128]
000000 f8 a3 44 3e 1c d6 b3 3d 9b a0 07 3e b8 21 03 3e
       0.19203174 0.087810725 0.1324486 0.12805831
000010 91 ea 5c 3e 4c 70 cc be 64 a8 be 3d 20 66 ca 3e
       0.21573855 -0.39929426 0.09309462 0.3953104
000020 22 23 04 bd 20 38 ea 3d 4f e8 d2 bd d7 ab 38 bd
       -0.032260068 0.11436486 -0.102982156 -0.045085754
000030 aa 03 22 be 04 35 62 be 36 64 be 3e 96 b4 2a 3e
       -0.1582171 -0.22090536 0.3718583 0.1667045
000040 5f 43 b7 bd 63 9f 22 3e 34 7e 71 bd c4 38 7c be
       -0.08948397 0.15881114 -0.058958247 -0.2463103
000050 8a df 1d bc b4 f8 be be ae db a4 3e 56 24 81 3e
       -0.009635815 -0.3729912 0.32198852 0.25223035
000060 c5 85 b0 3d 99 50 1b bd 51 85 99 3e 44 d4 b4 be
       0.086192645 -0.03791866 0.29984525 -0.35318196
000070 30 1c d1 be 17 13 a2 be b5 c8 6c bd f3 c9 8f 3e
       -0.40841818 -0.3165519 -0.057808597 0.28083763
000080 40 d0 89 3e 72 56 bd 3d 13 a9 03 bf 4a 47 bb be
       0.26916695 0.09245004 -0.5142986 -0.36577827
000090 cd dd 41 be 64 f6 2f be 1c b9 8e bd e9 d0 9a be
       -0.18932267 -0.17183834 -0.069689006 -0.3023751
0000a0 f3 e6 21 be c1 8b 93 be 94 72 77 3d 0e 16 0a be
       -0.15810756 -0.2881756 0.060412005 -0.13484976
0000b0 8d 20 94 bc 34 e1 b6 be f0 60 e8 3e 4a be 48 bc
       -0.018081928 -0.3571869 0.45386457 -0.0122524
0000c0 58 ab 86 3c 49 a3 bc bc 54 a8 31 bf cc 33 2a bf
       0.016439125 -0.02302708 -0.69397473 -0.66485286
0000d0 8f 9d ad 3e 77 8d 8b 3e cf b9 e7 3d f9 a5 aa bd
       0.3390927 0.27256367 0.11314737 -0.08332438
0000e0 26 44 d5 3d bd e5 3d bf 22 b5 02 be 80 da 09 3f
       0.10413389 -0.7417868 -0.12764409 0.5384903
0000f0 17 de 83 be 24 49 22 be 13 89 55 3e 6d 0b a8 be
       -0.2575538 -0.15848213 0.20853071 -0.32821217
000100 44 18 90 be 2c 8d 43 39 53 04 19 3c 71 12 4a be
       -0.28143513 0.0001864924 0.00933941 -0.19733597
000110 af e4 1c 3f 2c fa 6d be 94 2f 29 bd 96 b3 ff 3d
       0.61286443 -0.23239964 -0.04130514 0.12485425
000120 72 9f 8f be 87 3d 9d bd 80 69 bb 3c a8 e3 af be
       -0.28051335 -0.07677751 0.022877455 -0.34353375
000130 9b 21 2e 3d 12 e3 05 3d a8 01 03 be c8 71 bb 3e
       0.042512517 0.032687254 -0.127936 0.36610246
000140 db f6 a0 3d 97 2b 5b 3e f8 84 85 3e 8b bd 4b 3e
       0.07859584 0.21403347 0.2607801 0.19896524
000150 39 cd 38 be f6 9b 5a 3e a2 8f 3c 3e c1 67 a2 3e
       -0.18047036 0.21348557 0.18414167 0.31719783
000160 f5 41 c3 3e 16 bf 7d be 1b 61 7d 3d 28 1b 6b 3e
       0.3813626 -0.24779925 0.061860185 0.22959578
000170 41 ba a3 3d 2a 3f c9 be e3 9b 10 be 4d b6 53 3d
       0.079945095 -0.39306003 -0.14121966 0.051687527
000180 75 ad bc bd ca b0 08 bd 55 3a e9 3d 32 1c a2 bd
       -0.09212772 -0.033371724 0.11388079 -0.07915534
000190 1e b8 19 3e 39 54 0b 3e 3a b9 4e 3e 87 98 1e 3e
       0.15011641 0.13606347 0.20187846 0.15487872
0001a0 7c 80 45 3e fe 45 b8 be 7b ce 8e 3e 43 80 ba bd
       0.19287294 -0.359909 0.27891907 -0.09106495
0001b0 27 17 32 3e 6c 73 b1 be ba 93 a4 be ac da b4 3e
       0.17391644 -0.34658372 -0.32143956 0.35323083
0001c0 63 30 96 be 5c f6 8a 3e e4 32 db bd 3d 02 83 be
       -0.2933379 0.27141082 -0.10703066 -0.25587645
0001d0 85 78 d2 3e d5 6d 14 3e f0 c5 ff 3c 27 e0 14 3e
       0.41107574 0.14495023 0.031222314 0.14538632
0001e0 09 e4 e8 3d bd 36 e5 3c 31 ec 76 3e 22 72 ee 3e
       0.11371619 0.027980203 0.24113537 0.4657145
0001f0 b4 8d 63 be 48 81 9c bd f4 90 3e 3e 38 82 62 3e
       -0.22222024 -0.07641846 0.18609983 0.22119987
